circle_std_10_256_1001_1/model_80.pth (torch, 526978 bytes, 11 tensors)

features_extractor.conv1.weight f4 [16, 4, 4]
0	0x3e1e50ad	0.15460463
1	0xbe5b2d9f	-0.21404122
2	0x3c2fa876	0.010721317
3	0x3d17b462	0.03703726
4	0x3e473f60	0.1945777
5	0xbd9d7fb8	-0.07690376
6	0xbe7e4ebc	-0.24834722
7	0xbe6d998e	-0.23203108
8	0x3db366c8	0.08759838
9	0xbe18e904	-0.14932638
10	0x3e64aad7	0.22330795
11	0x3d7e02b8	0.06201431
12	0xbe7e0e0c	-0.24810046
13	0xbd44702d	-0.04795854
14	0xbd81e413	-0.0634233
15	0xbe1279b6	-0.14304242
16	0xbe1f1318	-0.15534627
17	0xbc864644	-0.016390927
18	0xbca57d09	-0.020201223
19	0xbea6dda7	-0.32590982
20	0xbe20fc67	-0.15721284
21	0x3cc7835e	0.024354633
22	0xbdcdcd8e	-0.10048972
23	0xbd6beef8	-0.057600945
24	0xbd623535	-0.055226523
25	0x3d44638d	0.0479465
26	0x3cf0f31c	0.029412799
27	0x3e5ced3a	0.2157487
28	0xbe3fd8f1	-0.187351
29	0x3e380003	0.17968754
30	0x3de06660	0.109570265
31	0x3dfc62d4	0.123235375
32	0xbda00449	-0.07813317
33	0x3e66fed9	0.22558154
34	0x3e4289a7	0.18997823
35	0xbd1257ba	-0.035728194
36	0x3e227f8e	0.15868971
37	0xbe0454d0	-0.12922978
38	0x3cc1c5dd	0.023653919
39	0x3e0d97c4	0.13827425
40	0x3e14b5a8	0.14522421
41	0xbe113026	-0.14178523
42	0xbd5fe915	-0.054665644
43	0xbc2023c6	-0.009774154
44	0xbe6517ee	-0.2237241
45	0xbd7cfd97	-0.06176528
46	0xbe851e56	-0.25999707
47	0x3e0d5580	0.13802147
48	0x3ddea721	0.10871721
49	0x3e14b240	0.14521122
50	0x3e2856d5	0.16439374
51	0x3eb06b96	0.34457082
52	0xbe0d4497	-0.13795696
53	0xbd4d7f26	-0.050170086
54	0xbdbb0d0c	-0.09133348
55	0x3dcad9e9	0.09904844
56	0x3c4499ea	0.011999587
57	0xbe5a953b	-0.2134599
58	0x3d707d28	0.05871311
59	0xbdf2b18c	-0.11850271
60	0x3c9cf1a4	0.019158192
61	0xbda68562	-0.081309095
62	0x3dad82fc	0.08472249
63	0x3df745cd	0.1207386
64	0x3d810873	0.0630044
65	0xbd8fb11e	-0.07016204
66	0xbd9e4209	-0.07727439
67	0xbe5de15b	-0.21667998
68	0x3e25bea5	0.16186006
69	0x3e39d9c8	0.18149483
70	0xbddc99b5	-0.10771505
71	0xbacff9c6	-0.0015867285
72	0xbe28de7d	-0.16491123
73	0xbde3f1de	-0.11130117
74	0x3e43d781	0.19125177
75	0xbd89ff36	-0.06738131
76	0x3d935266	0.07193451
77	0x3d03492d	0.032052208
78	0x3e02050c	0.12697238
79	0x3d998f8a	0.07498081
80	0x3ead4662	0.3384276
81	0xbdd3f9b8	-0.103503644
82	0x3e82a387	0.25515386
83	0x3e0caeff	0.1373863
84	0x3bfe241d	0.00775577
85	0xbe469f91	-0.19396807
86	0xbd8a0abb	-0.06740328
87	0xbcc0a3a8	-0.023515537
88	0xbe197566	-0.1498619
89	0x3e5355cb	0.20638196
90	0xbe0a2661	-0.13491203
91	0xbe053357	-0.13007866
92	0x3e560c28	0.20903075
93	0xbdbec5e7	-0.093150906
94	0x3df836fd	0.12119863
95	0x3e3d0999	0.18460692
96	0xbe97bcbf	-0.2963619
97	0xbe885717	-0.26628944
98	0xbe960b68	-0.29305577
99	0xbce8e674	-0.028430201
100	0xbe0498cc	-0.12948912
101	0xbdf96f12	-0.12179388
102	0x3e960601	0.29301456
103	0x3df72031	0.12066687
104	0x3d984af4	0.07436171
105	0x3e98c8c5	0.29840675
106	0xbe3ce4c4	-0.18446642
107	0xbe04ead3	-0.12980203
108	0x3e421bf8	0.18955982
109	0x3d88f8fa	0.066881135
110	0x3dcd6b74	0.10030261
111	0xbbfe3ace	-0.007758475
112	0x3ea1260f	0.3147435
113	0x3e47f611	0.1952746
114	0x3ea3ae57	0.31968948
115	0xbe24d69e	-0.16097495
116	0xbd71d233	-0.059038352
117	0xbe267df4	-0.16258985
118	0x3d56078c	0.05225329
119	0xbd1ae735	-0.037818152
120	0x3e0f32b9	0.13984193
121	0xbcbc1efc	-0.022963993
122	0x3e081047	0.1328746
123	0xbe27dbf9	-0.16392507
124	0xbe106691	-0.14101626
125	0xbc9a06cf	-0.018802075
126	0xbe192e8d	-0.14959164
127	0xbdbbdb48	-0.09172684
128	0xbde7abcc	-0.113120645
129	0x3e68de04	0.22740942
130	0xbe688e04	-0.22710425
131	0xbe289118	-0.16461599
132	0xbe62ed7c	-0.22160906
133	0x3d6b6af0	0.05747503
134	0xbd3861d0	-0.045015156
135	0x3cb253c0	0.02176845
136	0xbdc443a4	-0.09583214
137	0xbe761b48	-0.24033844
138	0xbdf45248	-0.119297564
139	0x3e5f139a	0.21784821
140	0xbe7bb08e	-0.24579069
141	0xbe255694	-0.16146308
142	0xbdc8f884	-0.098130256
143	0xbde16520	-0.11005616
144	0x3e2c3251	0.16816069
145	0x3e51f5a3	0.20503859
146	0x3ebd123b	0.3692797
147	0x3e9c6be9	0.3055108
148	0xbd971b02	-0.07378198
149	0x3e3a10a3	0.18170409
150	0x3de7bbf7	0.11315148
151	0x3de66b03	0.112508796
152	0x3cf6c0ba	0.030121196
153	0xbe58012f	-0.21094202
154	0x3df4ea95	0.119588055
155	0xbe0c0a97	-0.13675915
156	0xbe01eea7	-0.12688695
157	0xbdbea370	-0.09308517
158	0x3d98a461	0.07453228
159	0x3d59dd73	0.053189706
160	0x3e0b6b7d	0.13615222
161	0xbe06c967	-0.13162766
162	0x3e9eb79d	0.3099946
163	0x3e7ff713	0.24996595
164	0xbe8534b3	-0.2601677
165	0xbe665072	-0.22491625
166	0xbd0e0ac5	-0.03467824
167	0x3dd4f0cf	0.10397493
168	0x3dd791b9	0.10525841
169	0x3d819ada	0.06328364
170	0x3e04e124	0.1297651
171	0x3dbd7207	0.092502646
172	0xbdb66c8b	-0.08907422
173	0xbe76af67	-0.24090348
174	0x3e1a0835	0.15042193
175	0x3d88a931	0.06672896
176	0xbe3b011e	-0.18262145
177	0xbd01c291	-0.031679694
178	0x3de0c374	0.1097478
179	0x3e292470	0.16517806
180	0xbe115713	-0.14193372
181	0x3e5bfd24	0.21483284
182	0xbdbe368f	-0.0928775
183	0xbddcc3e4	-0.10779551
184	0x3d00b674	0.031424
185	0x3da016fa	0.078168824
186	0x3c9e46fc	0.019320957
187	0xbe045521	-0.12923099
188	0xbe1f2329	-0.15540756
189	0x3d67e60e	0.05661588
190	0xbe64e1b8	-0.2235173
191	0x3e47634f	0.19471477
192	0x3d6b2906	0.05741217
193	0xbe11e338	-0.14246833
194	0x3bc5f6ae	0.0060413694
195	0x3e0992bc	0.13434881
196	0xbe563ce5	-0.20921667
197	0xbe2784d7	-0.16359268
198	0x3d29411d	0.041321862
199	0xbe2649f5	-0.1623915
200	0x3e3932e0	0.18085814
201	0x3c8ef069	0.01744862
202	0x3dc1bbdd	0.0945966
203	0x3e46fedd	0.1943316
204	0xbe8fb25a	-0.2806576
205	0xbdaaf28e	-0.08347045
206	0x3d733e65	0.059385676
207	0x3e3ca3ad	0.18421812
208	0xbdd35ad8	-0.103200614
209	0xbe062988	-0.1310178
210	0xbdae6584	-0.08515456
211	0x3d327c28	0.043575436
212	0xbd0949a0	-0.03351748
213	0xbe3b9816	-0.18319735
214	0xbe09ecee	-0.13469288
215	0xbdbe3a9c	-0.092885226
216	0x3e6fee84	0.2343083
217	0xbe1e5302	-0.15461352
218	0xbe154e78	-0.14580715
219	0x3e4da8e6	0.20083961
220	0xbe05e7c4	-0.13076693
221	0xbe5ad8b6	-0.21371731
222	0xbe6e1f9c	-0.23254246
223	0x3cedfe30	0.02905187
224	0x3dff13c4	0.12454942
225	0xbd401cf0	-0.046902597
226	0xbc705d60	-0.0146707
227	0x3c3739c0	0.011183202
228	0x3e01e93c	0.12686628
229	0xbd10d708	-0.03536132
230	0xbdcf7cf4	-0.10131255
231	0x3d315220	0.04329121
232	0xbd4887f0	-0.048957765
233	0xbe5dcc52	-0.21659973
234	0x3e484614	0.19557983
235	0xbd335eb0	-0.043791473
236	0xbe15401a	-0.14575234
237	0x3d532968	0.05155316
238	0xbdfabc90	-0.12242997
239	0xbd565030	-0.052322567
240	0x3ebdfe48	0.37108064
241	0x3eb8d174	0.360973
242	0x3d6f8427	0.05847564
243	0x3d1be05f	0.038055774
244	0x3e2982ae	0.16553757
245	0xbe6fadfa	-0.2340621
246	0xbd89f1e1	-0.06735588
247	0x3d9c8962	0.07643391
248	0x3e51fb34	0.20505983
249	0x3e1b0f0a	0.15142456
250	0xbe523422	-0.205277
251	0xbe13473d	-0.14382644
252	0x3e02ce51	0.12774016
253	0xbe6c71bc	-0.23090261
254	0xbe4e7afc	-0.20164102
255	0xbae790d4	-0.0017667064

features_extractor.conv1.bias f4 [16]
0	0x3d96cc63	0.073632024
1	0x3e0d2946	0.13785276
2	0x3c8de0de	0.01731914
3	0x3de7954c	0.11307773
4	0xbe45a835	-0.19302447
5	0xbe2e28fb	-0.1700782
6	0x3e61ab23	0.2203794
7	0xbd4da57e	-0.050206654
8	0xbe675d64	-0.2259422
9	0xbe85ea6e	-0.26155418
10	0xbdefa229	-0.117008515
11	0xbe24b185	-0.16083343
12	0xbe15e54e	-0.14638254
13	0xbe012012	-0.1260989
14	0xbdef925c	-0.11697838
15	0x3e78f124	0.24310738

features_extractor.conv2.weight f4 [32, 16, 4]
0	0x3cbfff00	0.023437023
1	0xbaf752a0	-0.0018869229
2	0xbccdd215	-0.025124589
3	0xbcf9ca19	-0.030491875
4	0xbbb316c9	-0.0054653627
5	0x3da30ad8	0.07961053
6	0x3b070f93	0.0020608648
7	0xbd1d8920	-0.03846085
8	0x3e01e639	0.12685479
9	0xbdd5ef5b	-0.10446044
10	0xb7b237d8	-2.1245258e-05
11	0xbd54d1f6	-0.051958047
12	0x3d8bea88	0.06831843
13	0x3e3233b9	0.17402543
14	0x3e30e605	0.17275245
15	0xbc15143b	-0.009099062
16	0xbc0cdc3c	-0.00859743
17	0x3d6bf566	0.057607077
18	0x3dfdf82d	0.124008514
19	0xbd48caec	-0.049021646
20	0xbcf1ef0f	-0.029532937
21	0xbbbb7eff	-0.005721926
22	0x3dbc8b9e	0.09206317
23	0xbd3ffae2	-0.04687012
24	0xbe090165	-0.13379438
25	0xbd8ba006	-0.068176314
26	0xbe9ea42b	-0.30984625
27	0xbe7f4377	-0.2492808
28	0xbda89115	-0.08230797
29	0xbdbbfe7f	-0.09179401
30	0x3e3f3a6f	0.18674634
31	0xbd62c037	-0.05535909
32	0xbd0def0c	-0.0346518
33	0x3decfe92	0.11571993
34	0xbd0f2860	-0.034950614
35	0x3d5b9984	0.0536132
36	0x3df12201	0.11774064
37	0x3ddb2c49	0.10701806
38	0x3dd3d83d	0.103439786
39	0x3e4432ac	0.19159955
40	0x3c9a32b0	0.018822998
41	0x3c70493d	0.014665899
42	0x3d3f759e	0.046743028
43	0x3e0172af	0.12641405
44	0xbd2e5b53	-0.042567562
45	0xbcfd6d36	-0.030935865
46	0xbcf595f6	-0.029978734
47	0x3db664da	0.08905955
48	0xbd66a621	-0.056310777
49	0x3d9f9336	0.0779175
50	0xbdde30a3	-0.108491205
51	0x3d509b9c	0.05092965
52	0x3d3eb724	0.046561375
53	0x3db91452	0.09037079
54	0xbcdcc328	-0.026948527
55	0xbde4abaa	-0.11165555
56	0x3de0ebfe	0.10982512
57	0xbd6bc728	-0.057562977
58	0xbd072d28	-0.03300205
59	0x3dbc5a7e	0.091969475
60	0xbd7000dc	-0.05859457
61	0x3e87658d	0.26444665
62	0x3e469cbe	0.1939573
63	0x3d3cdd75	0.046109635
64	0x3ce1b393	0.027551448
65	0xbdfb4d06	-0.122705504
66	0x3d6edd92	0.058316775
67	0xbccea4ee	-0.025225129
68	0x3d85b31f	0.06528305
69	0xbdf5d6bf	-0.1200385
70	0xbd3b923c	-0.045793757
71	0xbd97a2dc	-0.0740411
72	0x3dcd2a03	0.10017779
73	0xbcd8fd55	-0.026487986
74	0xbdaa4e79	-0.08315749
75	0xbe054e83	-0.13018231
76	0xbd35b589	-0.04436258
77	0x3d5f799f	0.054559346
78	0x3e1c15c7	0.15242682
79	0xbbee4db5	-0.007272447
80	0xbc56cd80	-0.013110518
81	0x3dbc5628	0.091961205
82	0xbc099d0d	-0.00839926
83	0x3d8cd3d2	0.06876339
84	0x3db39464	0.08768538
85	0x3d3ac4da	0.04559789
86	0xbd7c27af	-0.061561283
87	0x3d890cdc	0.06691906
88	0xbd93ef9f	-0.072234385
89	0xbe13986a	-0.1441361
90	0xbe037d49	-0.12840761
91	0xbe3ef1d3	-0.18646936
92	0xbe254821	-0.16140796
93	0x3d00bdf6	0.03143116
94	0x3c894edd	0.016761238
95	0x3c7e9d0d	0.0155403735
96	0xbd8a9912	-0.06767477
97	0x3dad639e	0.08466266
98	0xbd8dca5c	-0.069233626
99	0xbc7a82e0	-0.015289992
100	0x3e38d61f	0.1805043
101	0xbcf8ecc0	-0.030386329
102	0x3e2df99f	0.16989754
103	0xbd51cbf4	-0.051219895
104	0xbc59f64e	-0.0133033525
105	0x3c8763a0	0.016526997
106	0x3dd33039	0.10311932
107	0x3dc5951b	0.0964758
108	0xbca9c5e1	-0.020724239
109	0xbe0a268d	-0.13491268
110	0xbcdb5935	-0.026775936
111	0xbcfdab0d	-0.030965352
112	0xbc4d4ae0	-0.012530059
113	0xbd6a7fa6	-0.05725064
114	0xbcfaf696	-0.03063516
115	0xbdc8ec8b	-0.09810742
116	0x3df3f44a	0.11911829
117	0x3d864bf6	0.06557457
118	0x3df8fe6c	0.12157902
119	0xbcbe9ac8	-0.023267165
120	0x3d9f3d78	0.07775396
121	0xbdf2707c	-0.11837861
122	0xbdd33862	-0.103134885
123	0x3dcdad96	0.100428745
124	0xbdaf401a	-0.08557148
125	0x3cdba494	0.026811875
126	0x3e4dc720	0.20095491
127	0x3d968e3b	0.07351347
128	0xbd91431a	-0.07092877
129	0x3d7623b8	0.060092658
130	0xbdebf0cb	-0.11520537
131	0x3c90d65d	0.017680341
132	0xbd782cfe	-0.060589783
133	0xbdc13ad8	-0.09435052
134	0x3a888ddc	0.0010418254
135	0xbd614a98	-0.05500278
136	0x3dd09077	0.101838045
137	0xbde376ae	-0.11106621
138	0xbdf7a0e4	-0.12091234
139	0xbd830dd9	-0.063991256
140	0xbd2039e6	-0.039117716
141	0x3dd4ab4d	0.103842355
142	0x3d8a1478	0.06742185
143	0xbd59bbc7	-0.053157594
144	0x3d830aeb	0.06398567
145	0xbd6f4562	-0.058415778
146	0x3c735e4f	0.014854028
147	0x3d3e86b3	0.046515178
148	0xbb8e022f	-0.0043337564
149	0x3ca3ba48	0.019986287
150	0xbcf575af	-0.029963342
151	0x3e0de043	0.1385508
152	0xbde2257f	-0.11042308
153	0xbe9550e7	-0.29163286
154	0xbe65f5bd	-0.22457023
155	0xbdf6dd41	-0.120539196
156	0xbdc84b2c	-0.09779963
157	0xbdc768b5	-0.09736768
158	0xbd4c4358	-0.04986891
159	0x3e193e91	0.14965273
160	0x3d47ad44	0.048749223
161	0x3ca8a120	0.020584643
162	0x3deda63a	0.11603971
163	0xbd9c7826	-0.07640104
164	0x3d6fc84c	0.058540627
165	0x3e30729b	0.17231219
166	0x3d44bebb	0.048033457
167	0x3c380460	0.011231512
168	0x3b10c647	0.0022090839
169	0x3e226974	0.1586054
170	0x3e0cd42c	0.13752812
171	0x3d51d1ee	0.051225595
172	0x3ca4dd93	0.020125186
173	0xbdc50ee9	-0.096219845
174	0x3ca2d022	0.019874636
175	0x3b1d2fe8	0.0023984853
176	0xbd0ca5e5	-0.034337897
177	0x3dafb5a0	0.08579564
178	0x3d599540	0.05312085
179	0x3d07a349	0.033114705
180	0xbd2ec878	-0.04267165
181	0x3d84fc80	0.06493473
182	0x3dfd5ccc	0.12371215
183	0x3ddd2210	0.107975125
184	0x3de58fa6	0.112090394
185	0xbdff5540	-0.12467432
186	0x3d219e30	0.0394575
187	0xbddeaee4	-0.108732015
188	0x3dd66d45	0.1047006
189	0x3d27a38f	0.040927466
190	0x3de7ad15	0.1131231
191	0x3e88fd92	0.2675596
192	0xbd985a96	-0.07439153
193	0x3d9181f1	0.071048625
194	0xbdb45d60	-0.08806872
195	0x3cf0e760	0.029407203
196	0x3da38e60	0.0798614
197	0x3c60dc85	0.013724451
198	0xbdb5d937	-0.08879321
199	0x3d8dbac1	0.06920386
200	0xbdc451bc	-0.09585902
201	0x3d19a92a	0.037514843
202	0x3d1dba49	0.038507733
203	0xbddd7134	-0.108126074
204	0xbd261b2a	-0.04055325
205	0x3ddfd48e	0.109292135
206	0xbc34347c	-0.010998841
207	0x3e0ba93a	0.13638774
208	0x3e4e0913	0.20120649
209	0x3e0bd7c9	0.13656534
210	0xbccee34e	-0.025254872
211	0xbd4ec266	-0.05047836
212	0xbd686b48	-0.056742936
213	0x3bc9879a	0.006150198
214	0x3e2072c5	0.15668781
215	0xbd0d539f	-0.034503575
216	0xbe8b50ac	-0.27209985
217	0xbe72bd34	-0.23704988
218	0xbe0dd904	-0.13852316
219	0xbd854d1e	-0.065088496
220	0xbe4e367f	-0.20137976
221	0x3d6ee379	0.058322404
222	0x3dd7897a	0.105242684
223	0x3e40e690	0.18837953
224	0x3da4a5ae	0.080394134
225	0xbdb25614	-0.08707824
226	0xbdf01dac	-0.117244095
227	0xbd8d8ad0	-0.06911242
228	0x3d7797f2	0.06044764
229	0x3e28f371	0.16499116
230	0x3e4ed987	0.20200168
231	0x3e0a9071	0.13531663
232	0x3d207851	0.039177243
233	0x3d706f8c	0.05870013
234	0x3bde100f	0.0067768167
235	0x3da18c73	0.07888117
236	0xbe152d5a	-0.14568081
237	0xbd14e9c9	-0.036355767
238	0xbdda2601	-0.1065178
239	0x3d8840ad	0.06652961
240	0xbb994807	-0.004677776
241	0xbd4ddee0	-0.05026138
242	0x3db012bb	0.085973226
243	0xbde64bcf	-0.11244928
244	0xbcc7f788	-0.024410024
245	0xbdffdb24	-0.1249297
246	0xbd71ab28	-0.059001118
247	0x3cb0f5b0	0.021601528
248	0x3da76bdc	0.081748694
249	0xbd39702c	-0.04527299
250	0xbdd6bcc0	-0.1048522
251	0xbdf7675c	-0.12080261
252	0xbcdecc8e	-0.027197149
253	0x3e1ce2d1	0.15320899
254	0x3e4923ad	0.19642515
255	0x3e381d66	0.17979965

features_extractor.conv2.bias f4 [32]
0	0xbbcd8069	-0.006271411
1	0x3d2d9ad7	0.042383995
2	0x3cc81ebe	0.024428722
3	0x3c018f30	0.007907674
4	0xbd810504	-0.06299785
5	0x3dc471c7	0.09592014
6	0x3d7e1cb9	0.06203911
7	0xbc9472ba	-0.018121112
8	0x3df93432	0.121681586
9	0xbdea579c	-0.114424914
10	0xbcc0e5fa	-0.023547161
11	0x3dc27c3c	0.09496352
12	0xbd8bc31a	-0.06824322
13	0x3caeacb1	0.02132258
14	0x3c5e1c68	0.013556577
15	0xbe00ec70	-0.12590194
16	0x3e3ea88f	0.18618988
17	0xbd394e5e	-0.045240752
18	0xbc74a76d	-0.014932496
19	0xbd5c9982	-0.053857334
20	0x3de52906	0.11189465
21	0xbdcf7d46	-0.10131316
22	0xbda845c0	-0.08216429
23	0x3d60443c	0.054752573
24	0xbd0b016e	-0.03393691
25	0xbd547974	-0.05187364
26	0xbd1153c1	-0.035480265
27	0x3d5c8d3a	0.05384562
28	0xbdd7562a	-0.10514481
29	0xbb3cec83	-0.0028827495
30	0x3d066848	0.032814294
31	0x3dd4ae53	0.10384812

features_extractor.fc_op.weight f4 [32, 3]
0	0x3cba8e88	0.022773042
1	0x3eb152cf	0.3463349
2	0xbec6fe25	-0.38865772
3	0x3d0af862	0.033928283
4	0x3e95774d	0.29192582
5	0xbeb5d47c	-0.35513675
6	0x3e9af374	0.30263865
7	0xbef09a89	-0.469929
8	0x3f120535	0.57039195
9	0x3db9cb5a	0.09071989
10	0xbe9edd6b	-0.31028304
11	0xbe87e524	-0.26542008
12	0xbe2d7e14	-0.16942626
13	0x3d729f0f	0.05923372
14	0x3f019c17	0.506288
15	0x3ef46c35	0.47738805
16	0xbebeefde	-0.3729238
17	0xbebf224a	-0.37330848
18	0xbd061dc9	-0.03274325
19	0x3d9568d5	0.07295386
20	0xbf527a12	-0.82217515
21	0x3df0dfaa	0.117614105
22	0xbe74b1c3	-0.23895936
23	0xbe2d8994	-0.16947013
24	0x3cea236d	0.028581345
25	0x3e6a84d7	0.22902237
26	0xbed38c47	-0.4131796
27	0xbc196713	-0.009362954
28	0xbc6b7d0d	-0.014373076
29	0xbe24026f	-0.16016553
30	0xbe15e054	-0.14636356
31	0xbe9c40b6	-0.3051812
32	0x3e203b10	0.1564753
33	0x3ecad7e9	0.3961785
34	0x3e09621d	0.13416333
35	0x3ece6196	0.40308827
36	0xbdcd4cb9	-0.10024399
37	0xbd998084	-0.074952155
38	0xbdebbdc9	-0.11510808
39	0xbebbc93b	-0.36676964
40	0xbe302dab	-0.17204921
41	0x3e44c4a6	0.1921564
42	0x3de443b3	0.11145725
43	0x3ec159fc	0.37763965
44	0x3f159381	0.584282
45	0xbe39befc	-0.18139261
46	0xbf063188	-0.5241933
47	0xbe8c2e0a	-0.27378875
48	0xbf0ebe83	-0.5575945
49	0x3d5da46e	0.05411189
50	0x3e262814	0.16226226
51	0x3e829144	0.25501454
52	0xbf01aff5	-0.50659114
53	0x3ec398eb	0.38202605
54	0x3ed89906	0.42304248
55	0x3ee380fb	0.44434342
56	0x3f3e616c	0.74367404
57	0x3f0081af	0.5019788
58	0x3ed3bdf6	0.41355866
59	0x3f212b98	0.62957144
60	0x3ee26a37	0.4422166
61	0x3eea1630	0.45720053
62	0xbee5c9e1	-0.44880584
63	0x3f03fb8d	0.5155571
64	0x3dcc9a08	0.09990317
65	0x3f1d7264	0.6150267
66	0xbe34f9d5	-0.17673428
67	0xbe0d1305	-0.13776787
68	0x3e663051	0.22479369
69	0xbe7ba1b6	-0.24573407
70	0x3ef8ba32	0.48579556
71	0xbe382540	-0.1798296
72	0x3ead0eb4	0.3380028
73	0xbe8f1a3b	-0.279497
74	0x3eec3a6a	0.46138316
75	0xbf082334	-0.53178716
76	0xbe99829f	-0.29982468
77	0x3e53a2d5	0.20667584
78	0x3ea0a936	0.31379098
79	0xbea8f8a0	-0.33002186
80	0xbe4dceb9	-0.2009839
81	0x3cffa3bf	0.03120601
82	0xbd77da23	-0.060510766
83	0xbf128755	-0.5723775
84	0xbdf9c2a5	-0.121953286
85	0xbc08d3b9	-0.00835126
86	0xbee59b89	-0.44845226
87	0x3d2c825d	0.04211651
88	0xbe21ecd1	-0.15812995
89	0x3e883783	0.26604852
90	0x3d1da3d5	0.03848632
91	0x3c03f885	0.008054857
92	0xbe9729e9	-0.29524162
93	0x3d966f5e	0.0734546
94	0x3ef01167	0.46888277
95	0x3f04ac11	0.5182505

features_extractor.fc_op.bias f4 [32]
0	0x3cf45f69	0.029830651
1	0x3c192a6f	0.009348496
2	0xbde975ae	-0.11399399
3	0x3ee66fda	0.4500721
4	0x3f132906	0.5748447
5	0x3e9ec459	0.31009176
6	0x3ec88631	0.3916488
7	0x3e4e296c	0.20132989
8	0x3eed056a	0.46293193
9	0xbd2f4abd	-0.042795885
10	0x3e8c14fc	0.2735976
11	0xbd4bcea5	-0.04975762
12	0x3ec3ca68	0.3824036
13	0xbeaf39db	-0.34223828
14	0x3f190c87	0.5978474
15	0x3f20f2ee	0.6287068
16	0x3da097e3	0.0784147
17	0x3df03b95	0.11730114
18	0xbd6b0c12	-0.057384558
19	0xbdaead31	-0.085291274
20	0xbedb97d2	-0.42889267
21	0xbe21bb61	-0.15794136
22	0x3d8d8297	0.06909674
23	0xbd4871c7	-0.04893663
24	0xbced3467	-0.028955651
25	0x3ebd802e	0.37011856
26	0x3d206976	0.039163075
27	0x3e692fe4	0.22772175
28	0x3e94fabb	0.29097542
29	0x3e74d177	0.2390803
30	0xbca174ed	-0.019709075
31	0x3f01bef7	0.50682014

features_extractor.fc_merge.weight f4 [352, 352]
0	0x3e0cf6ec	0.13766068
1	0x3df1699f	0.11787724
2	0x3d95edf6	0.07320778
3	0x3dba9bc5	0.09111742
4	0x3dfb77da	0.12278719
5	0x3dbd0ea9	0.09231312
6	0x3de20e3c	0.11037871
7	0x3dbb97c7	0.091598086
8	0x3e0c9113	0.13727216
9	0x3e0809a1	0.13284923
10	0x3da772f5	0.08176223
11	0x3dcf4b14	0.10121742
12	0x3da1ff2f	0.079100005
13	0x3dc5eb74	0.0966405
14	0x3bd115b9	0.0063807634
15	0x3d135c03	0.03597642
16	0x3d9b054c	0.0756937
17	0x3cfd5c7c	0.030927889
18	0x3d2a087b	0.041511994
19	0x3d9e8344	0.07739881
20	0x3db5426c	0.088505596
21	0x3de012cc	0.10941085
22	0x3daa7195	0.08322445
23	0x3d8450b1	0.06460703
24	0x3dd4d15f	0.10391497
25	0x3ddb715a	0.107149795
26	0x3da59b36	0.08086245
27	0x3da32180	0.07965374
28	0x3dfefb94	0.124503285
29	0x3cf765c9	0.030199902
30	0x3e06e05d	0.13171525
31	0x3da567a5	0.08076409
32	0x3dc0dcd8	0.094171226
33	0x3dabb97b	0.08384987
34	0x3d8b7823	0.06810024
35	0x3d4219ef	0.047388013
36	0x3da084ca	0.078378275
37	0x3db43973	0.0880002
38	0x3d378280	0.04480219
39	0x3d996d12	0.07491507
40	0x3d3384f2	0.04382796
41	0xbd47636e	-0.048678808
42	0x3c851935	0.016247371
43	0x3bd6e5ac	0.0065581407
44	0xbc50552c	-0.012715619
45	0xbd3185aa	-0.043340363
46	0xbd278e27	-0.04090705
47	0x3cb52ef6	0.02211712
48	0xbd427c0a	-0.047481574
49	0x3ce975f5	0.02849863
50	0x3e1901dd	0.14942117
51	0x3d8017af	0.06254517
52	0x3dedc64f	0.1161009
53	0x3dd8156a	0.105509594
54	0x3da0d118	0.078523815
55	0x3d70f4fd	0.05882739
56	0x3e113a05	0.14182289
57	0x3e0bcb61	0.13651802
58	0x3df1f91b	0.11815091
59	0x3e0d5c24	0.1380468
60	0x3dd797aa	0.105269745
61	0x3e078662	0.13234857
62	0x3d04760f	0.032339152
63	0x3d3b2ed1	0.045698944
64	0x3db46c53	0.08809724
65	0x3dcc7418	0.099830806
66	0x3cf1ba9d	0.02950793
67	0x3d9eab1a	0.07747479
68	0x3dcae7e7	0.09907513
69	0x3e0c8efc	0.13726419
70	0xbc03dbc4	-0.008048002
71	0x3cc4e89a	0.024036694
72	0x3d24c3fa	0.04022596
73	0xbc4a7ca2	-0.012358816
74	0xbc4edd42	-0.012625994
75	0x3c2f6936	0.010706237
76	0xbd2b1832	-0.04177112
77	0x3d1b32c9	0.03789023
78	0x3d2773b7	0.04088184
79	0x3c0482f3	0.008087861
80	0x3d985dd9	0.07439775
81	0x3d99414f	0.0748316
82	0x3db0e729	0.0863784
83	0xbca0ea0e	-0.019642856
84	0xbd60d65f	-0.05489194
85	0xbd98478c	-0.074355215
86	0xbdb8cfa5	-0.0902398
87	0xbdd32b43	-0.10310986
88	0xbe1055a9	-0.14095177
89	0xbe767327	-0.24067365
90	0xbc54b635	-0.012982895
91	0x3d02c952	0.031930275
92	0xbd3351ba	-0.043779112
93	0x3d279439	0.04091284
94	0xbbdc9524	-0.006731646
95	0x3ca230f6	0.019798737
96	0xbce4f10a	-0.027946968
97	0x3bd010e5	0.0063496702
98	0xbcf1a48c	-0.029497407
99	0x3d1a64ea	0.037693895
100	0x3e05783a	0.13034144
101	0x3e1b087e	0.15139958
102	0x3d8a97b9	0.0676722
103	0x3e00b61a	0.12569466
104	0x3d8678fc	0.06566045
105	0x3db21460	0.086952925
106	0x3e09b05c	0.13446182
107	0x3de5bb00	0.11217308
108	0x3db57e7c	0.088620156
109	0x3d2b2cea	0.04179088
110	0x3df1208d	0.11773787
111	0x3d36f856	0.044670425
112	0x3a81a4a2	0.0009890983
113	0x3dce11f5	0.10062019
114	0x3c2d7d75	0.010588993
115	0x3da1eab4	0.07906094
116	0x3d0bf0a4	0.03416504
117	0x3dce60ba	0.10077043
118	0x3dd5b997	0.10435789
119	0x3d796b6f	0.060893472
120	0x3d0ec0aa	0.034851708
121	0x3e06e1f2	0.13172129
122	0x3ddf27d7	0.10896271
123	0x3d121ba2	0.035670884
124	0x3d739d21	0.05947602
125	0x3df0f37c	0.11765191
126	0x3df273d3	0.11838498
127	0x3dbab573	0.0911664
128	0x3d652529	0.05594364
129	0x3d9c4244	0.07629827
130	0x3dc4d551	0.096109994
131	0x3daa174c	0.08305225
132	0x3cce74df	0.025202213
133	0x3d6d1c0a	0.05788807
134	0xbca0bc7a	-0.019621123
135	0x3c5a7f63	0.013336035
136	0x3da3f55e	0.080057845
137	0x3c332904	0.010935072
138	0x3d8e259c	0.06940767
139	0x3d975f92	0.073912755
140	0xbd7a0312	-0.061038084
141	0x3c83b27f	0.016076325
142	0x3cd73c4f	0.026273875
143	0x3c970b06	0.018437874
144	0x3d02aa78	0.031900853
145	0x3c898f3a	0.016791929
146	0x3b9c616c	0.004772356
147	0xbc954b0a	-0.018224258
148	0xbb497cdc	-0.0030744588
149	0xbd59273f	-0.053015944
150	0xbc4afc51	-0.0123892585
151	0xbd45767f	-0.04820871
152	0x3ca9b356	0.020715397
153	0xbb76d903	-0.003766597
154	0xbca86910	-0.02055791
155	0x3c16a271	0.0091940025
156	0xbd42dcc7	-0.04757383
157	0x3c41ca65	0.01182804
158	0x3cb4307b	0.021995774
159	0xba991658	-0.0011679633
160	0xbd1466ba	-0.03623078
161	0xbc34ca6c	-0.011034589
162	0x3d070f13	0.03297336
163	0xbdd6c525	-0.10486821
164	0xbe3b35a9	-0.18282188
165	0xbe64d98b	-0.22348611
166	0xbe8bf422	-0.27334696
167	0xbe983c22	-0.29733378
168	0xbe8325b6	-0.2561471
169	0xbebb2c4d	-0.36557236
170	0x3d42cf5a	0.047561027
171	0x3db7f2ec	0.089818805
172	0x3d687f59	0.056762073
173	0x3d74748f	0.05968147
174	0x3dc58c18	0.096458614
175	0x3d85435a	0.06506987
176	0x3e118cf1	0.14213921
177	0x3e025f15	0.12731583
178	0x3d93f978	0.07225317
179	0x3df7b49c	0.120949954
180	0x3dd812cf	0.105504625
181	0x3dd62c6c	0.104576916
182	0x3d31a3e2	0.04336918
183	0x3e07d99a	0.13266602
184	0x3d09b92e	0.033623867
185	0x3dc489c7	0.095965914
186	0x3d2d7867	0.042351153
187	0x3d301ba0	0.042995095
188	0x3e156ac1	0.14591505
189	0x3d6a15d7	0.057149734
190	0x3debfc74	0.11522761
191	0x3da6558c	0.081217855
192	0x3c680c26	0.014163053
193	0x3d564b54	0.052317932
194	0x3dd27e54	0.102780014
195	0x3cd037d3	0.025417244
196	0x3dd741e7	0.10510617
197	0x3d7af0da	0.06126485
198	0x3d48ed99	0.049054716
199	0x3d52e7ae	0.05149048
200	0x3dffedae	0.12496506
201	0x3da970db	0.082734786
202	0x3d767118	0.06016645
203	0x3d2d9205	0.042375583
204	0x3dbd116f	0.09231841
205	0x3db7f748	0.08982712
206	0x3dd1c25b	0.102421485
207	0x3d971515	0.07377068
208	0x3d4d48e2	0.050118335
209	0x3d9505cd	0.07276497
210	0x3d266ff8	0.040634125
211	0xbd37d611	-0.044881884
212	0xbc5f76c2	-0.013639154
213	0xbd20cf9a	-0.039260484
214	0x3c1764c3	0.009240332
215	0x3d12ce15	0.035841066
216	0xbcdc1b53	-0.026868498
217	0x3b1a63e3	0.0023558072
218	0xbd6424cf	-0.055699166
219	0xbb208504	-0.0024493346
220	0x3bf149c4	0.00736353
221	0x3d2a9825	0.041649003
222	0xbd9877ee	-0.0744475
223	0xbd4846b3	-0.04889555
224	0xbcdd4dda	-0.027014662
225	0xbda778bb	-0.081773244
226	0xbbb73468	-0.005590964
227	0xbd7a8ed4	-0.061171368
228	0xbd89a3ef	-0.06720721
229	0xbe14c054	-0.14526492
230	0x3d98776c	0.07444653
231	0x3d0381fb	0.03210638
232	0x3df96260	0.12176967
233	0x3d9fa22a	0.07794602
234	0x3df1eb69	0.11812479
235	0x3d3df1c4	0.046373144
236	0x3d985240	0.07437563
237	0x3d4797fc	0.048728928
238	0x3e027dab	0.12743251
239	0x3db1e64c	0.08686504
240	0x3bda7dd9	0.0066678342
241	0xb9dd7edd	-0.00042246925
242	0xbd0e92a0	-0.0348078
243	0xbb921501	-0.0044580703
244	0x3aa43435	0.0012527766
245	0xbc13b6e1	-0.00901577
246	0xbc92f5d0	-0.017939478
247	0x3d3f36b1	0.046683017
248	0xbd40ffcb	-0.047118943
249	0xbc13e7ba	-0.009027416
250	0xbd7efc3b	-0.062252264
251	0xbd388ba7	-0.045055058
252	0xbd1733ec	-0.03691475
253	0xbdb4cbf0	-0.088279605
254	0xbe1b391a	-0.15158501
255	0xbd9756d6	-0.073896095

features_extractor.fc_merge.bias f4 [352]
0	0x3da4ba39	0.08043332
1	0x3b977c09	0.0046229404
2	0x3d263889	0.04058126
3	0x3cb71be4	0.022352166
4	0x3d3883ad	0.04504745
5	0xbc0c7efd	-0.008575198
6	0xbcf01a60	-0.029309452
7	0x3d25eaf6	0.04050728
8	0xbc859e14	-0.01631073
9	0x3daaacb7	0.08333724
10	0x3e1ed760	0.15511847
11	0x3d82eaee	0.063924655
12	0x3c4989d3	0.012300926
13	0x3d222d1f	0.039593812
14	0x3d5e424e	0.05426245
15	0xbbef0515	-0.007294307
16	0x3d60c292	0.054873057
17	0xba01668e	-0.00049362413
18	0x3d1b95d5	0.037984688
19	0xbc438c44	-0.011935297
20	0x3d8256ef	0.063642375
21	0x3db1d149	0.08682496
22	0xbd3bd2c6	-0.045855306
23	0x3d167afb	0.036738377
24	0x3ab0a40f	0.0013476628
25	0x3ca8103e	0.020515557
26	0x3d6e44d2	0.0581711
27	0x3d3f49b5	0.046701152
28	0xbd553dec	-0.052061006
29	0x3c7c2a5b	0.015390958
30	0x3c837c46	0.01605047
31	0x3c649a61	0.013952822
32	0x3dfc3d7f	0.12316417
33	0x3c786834	0.015161563
34	0x3d5394bd	0.05165552
35	0x3c893b5f	0.016751943
36	0x3e1427ba	0.1446828
37	0x3db7cdf8	0.08974832
38	0xbcb0e9a0	-0.021595776
39	0x3d3a695d	0.04551064
40	0x3d688d6c	0.056775495
41	0xbcb437e7	-0.021999313
42	0xbcdd5841	-0.027019622
43	0xbd2d2337	-0.04226991
44	0x3cb11bf8	0.021619782
45	0x3d680802	0.05664826
46	0x3d284457	0.0410808
47	0x3d752e24	0.059858456
48	0xbbfc229a	-0.0076945545
49	0xbca736b6	-0.02041183
50	0xbcb1b487	-0.021692527
51	0x3d8f192f	0.06987225
52	0x3dbb78e4	0.091539174
53	0x3d364441	0.044498686
54	0x3d1c43a7	0.038150456
55	0x3e8f3a78	0.27974296
56	0x3c0c5969	0.008566239
57	0x3dad3a89	0.0845843
58	0x3c8d6191	0.017258437
59	0x3db4215b	0.087954246
60	0x3e1135bf	0.14180659
61	0xbc004c0f	-0.007830634
62	0xb9e081ce	-0.0004282132
63	0x3d6fe157	0.05856451
64	0xbd347dfc	-0.04406546
65	0xbb17edbc	-0.0023182472
66	0x3d94db75	0.072684206
67	0x3d01680b	0.031593364
68	0xbd36eb94	-0.04465826
69	0x3c7179a6	0.014738476
70	0xbd21db3f	-0.03951573
71	0x3d7906ec	0.060797617
72	0x3d670c23	0.05640806
73	0x3d97c997	0.07411497
74	0xbc871656	-0.016490143
75	0x3d7e5b42	0.06209875
76	0x3df6aa23	0.1204417
77	0xbd27cd71	-0.04096741
78	0x3cc0c6d6	0.023532312
79	0x3da89de5	0.08233241
80	0xbd207191	-0.039170805
81	0xbca8e932	-0.020619009
82	0x3d61be4b	0.05511312
83	0x3dc9ec56	0.09859531
84	0xbd082e28	-0.033247143
85	0x3d063af2	0.03277106
86	0x3c18f50c	0.0093357675
87	0x3d9ea619	0.07746524
88	0x3c18ddf1	0.009330259
89	0xbc21b6c0	-0.009870231
90	0x3d9eab67	0.07747536
91	0x3d939a67	0.07207184
92	0x3ca0d3e9	0.019632297
93	0x3d93d8c4	0.07219079
94	0x3d64cf5e	0.055861823
95	0x3ce26139	0.02763425
96	0x3d032b05	0.03202345
97	0x3d6b06cb	0.057379525
98	0xba4f5c75	-0.00079102005
99	0xbd46459e	-0.048406236
100	0xbcc08be5	-0.023504207
101	0x3de4cbed	0.11171708
102	0x3d9c2fff	0.07626342
103	0x3b0beb43	0.0021349944
104	0x3ddfc117	0.10925501
105	0xbe82bd2a	-0.25534946
106	0x3cbe8ac9	0.023259537
107	0x3d74148b	0.059589904
108	0x3d5ef5ec	0.054433748
109	0x3c9fb8cc	0.019497298
110	0xbce4c024	-0.027923651
111	0x3cd427ee	0.025897946
112	0x3e12ddb2	0.14342383
113	0xbb0cb9f4	-0.0021473141
114	0xbd49fd9e	-0.049314134
115	0x3d85c70b	0.06532105
116	0x3d85c879	0.06532378
117	0xbd8421c6	-0.06451754
118	0x3d2d7c7a	0.04235504
119	0x3c0aab07	0.008463628
120	0x3e13e8dc	0.14444298
121	0x3d160cd5	0.03663333
122	0x3c68e984	0.014215831
123	0x3d771cea	0.06033031
124	0xb9ca7061	-0.0003861217
125	0x3d32207e	0.04348802
126	0xbe5c4af8	-0.21512973
127	0x3dbf144b	0.093300425
128	0x3df1fc35	0.11815683
129	0x3cf4c599	0.029879378
130	0x3d510d5a	0.051038124
131	0xbdc82973	-0.09773531
132	0x3d85db89	0.06536014
133	0xbcd3bd90	-0.025847226
134	0x3c1ac0cb	0.0094453795
135	0x3d8bdc7c	0.068291634
136	0x3db10583	0.086436294
137	0xbd18f841	-0.03734613
138	0xbb823f3a	-0.0039748223
139	0x3bfe1d30	0.0077549443
140	0x3d9dc8af	0.07704293
141	0x3d842b7d	0.06453607
142	0xbd10db2c	-0.03536527
143	0x3db79a66	0.08964996
144	0xbd1f8f55	-0.03895505
145	0xbd556a2c	-0.052103207
146	0x3cf1f163	0.029534047
147	0xbb394574	-0.0028270157
148	0x3af12848	0.0018398846
149	0x3d72614d	0.059174825
150	0xbd1d5558	-0.03841147
151	0x3d78f0e9	0.060776625
152	0x3d50d0b3	0.05098028
153	0x3da770bc	0.08175799
154	0x3debbba6	0.115104005
155	0x3ae4cbf9	0.0017455808
156	0x3d2760f9	0.040863965
157	0xbc9302ed	-0.017945731
158	0x3cf84ba3	0.030309504
159	0x3cc32872	0.023822997
160	0x3b64faf9	0.003493963
161	0xbd5f1c3e	-0.054470293
162	0x3d52dd74	0.051480725
163	0xbc013d63	-0.007888171
164	0x3ca2fd8d	0.019896293
165	0x3d1187b6	0.035529815
166	0x3b5bd944	0.0033546248
167	0x3c85834c	0.016297959
168	0x3e310745	0.1728793
169	0x3e0cfb3c	0.13767713
170	0xbd170b67	-0.03687611
171	0x3d3881cb	0.045045655
172	0x3d918e8e	0.07107268
173	0x3d6fbe86	0.058531307
174	0x3d1f158e	0.038838916
175	0x3d8b4e8e	0.068020925
176	0x3da39f5b	0.07989379
177	0x3d938c93	0.07204547
178	0x3df2ce64	0.11855772
179	0x3c9abe36	0.018889528
180	0x3d13662c	0.03598611
181	0x3d66650e	0.056248717
182	0x3d889d47	0.06670623
183	0xbd770e04	-0.0603161
184	0x3d973661	0.07383419
185	0x3e045bff	0.12925719
186	0x3da11e13	0.07867064
187	0x3d82c77a	0.063857034
188	0xbc9c9da8	-0.019118145
189	0xbc0adb6b	-0.008475165
190	0x3d0467ad	0.032325435
191	0x3e0b3c5c	0.13597244
192	0x3d1325db	0.035924774
193	0x3cc0ac82	0.023519758
194	0x3d8c9114	0.06863609
195	0x3d44ce12	0.048048086
196	0x3df76224	0.12079266
197	0x3e088695	0.13332589
198	0xbc98506e	-0.01859304
199	0x3d0b389a	0.033989526
200	0x3be5300d	0.0069942535
201	0x3d281fef	0.04104608
202	0x3a9b05ed	0.0011827328
203	0x3d335882	0.04378558
204	0x3b5bf4c7	0.0033562647
205	0xbd45307d	-0.048141945
206	0x3d845820	0.06462121
207	0x3c7ce04d	0.015434337
208	0xbc17ee57	-0.009273133
209	0x3b2b8f18	0.002617782
210	0x3e0ddf90	0.13854814
211	0x3d5d8050	0.054077446
212	0x3cc95006	0.024574291
213	0x3d2c3e16	0.042051397
214	0x3d1b2c52	0.037884064
215	0x3bf6a277	0.0075266915
216	0xbc6d10a3	-0.0144692985
217	0xbd48b7b2	-0.04900331
218	0xbc950758	-0.018191978
219	0x3d7dbd50	0.06194812
220	0xbc825555	-0.01590983
221	0xbba34738	-0.004982855
222	0x3d5cbd32	0.05389137
223	0x3cc5e98d	0.024159217
224	0x3d8c9ee8	0.068662465
225	0x3dd219fa	0.10258861
226	0x3d96c056	0.07360904
227	0x3c5dcb0b	0.013537179
228	0x3c9c7d33	0.019102668
229	0x3ce82552	0.028338108
230	0xbd4e4208	-0.05035594
231	0xbc4a4997	-0.012346647
232	0x3bc2f8bf	0.005950063
233	0xbcace05d	-0.021103078
234	0xbc6af09e	-0.014339594
235	0x3d91669c	0.07099649
236	0x3d87ef21	0.06637407
237	0xb8b4ef3e	-8.627631e-05
238	0x3d1cb87f	0.038261887
239	0x3db90295	0.090336956
240	0xbd12de57	-0.03585657
241	0x3d55c9e9	0.05219451
242	0x3aeebe99	0.0018214762
243	0x3e110d2a	0.14165178
244	0x3c43e439	0.011956268
245	0xbbbe75eb	-0.0058123968
246	0x3da402d8	0.08008355
247	0xbd5bc7c2	-0.0536573
248	0x3c8d5a40	0.017254949
249	0x3daa33f7	0.08310693
250	0xbb66fa5e	-0.0035244445
251	0xbd260a18	-0.04053697
252	0x3d24b8f8	0.040215462
253	0x3c8a1407	0.016855253
254	0x3e3061de	0.17224833
255	0x3cc0bf70	0.023528785

actor.weight f4 [10, 352]
0	0xbd0f6b3e	-0.035014383
1	0xbcb2aec5	-0.021811852
2	0xbd9d7d2a	-0.07689889
3	0x3b98b0a7	0.0046597305
4	0xbc2cbb62	-0.010542722
5	0x3dbb0503	0.09131815
6	0x3b85b7ed	0.0040807636
7	0xbd26a4e4	-0.040684596
8	0xbc0161a4	-0.0078968145
9	0x3d703e56	0.0586532
10	0x3dbc8aca	0.092061594
11	0x3d246692	0.04013688
12	0x3d463ad1	0.048395935
13	0x3cbd353e	0.023096677
14	0xbc759831	-0.014989899
15	0x3cfeeca0	0.031118691
16	0x3c85fcf1	0.016355963
17	0xbcdd93c4	-0.027048
18	0x3c72af97	0.014812372
19	0x3b9314a5	0.004488545
20	0xbd187b34	-0.03722687
21	0xbbca76ee	-0.0061787283
22	0x3ca18d05	0.019720564
23	0xbcbd2649	-0.023089545
24	0x3d1d3efe	0.038390152
25	0x3d93be4b	0.0721403
26	0x3c686a29	0.014185467
27	0xbcae58aa	-0.021282513
28	0x3c897658	0.016780064
29	0x3d0e8bc7	0.03480127
30	0x3cda7bd8	0.026670381
31	0x3d9cec11	0.076622136
32	0xbd588e90	-0.052870333
33	0x3d498d80	0.04920721
34	0xbd27948d	-0.040913153
35	0xbd15af4b	-0.036544126
36	0x3d576890	0.052589953
37	0xbd5c5133	-0.053788375
38	0x3c8a5bc2	0.016889457
39	0x3dd04a2f	0.101703994
40	0x3d904008	0.07043463
41	0x3a39d6d1	0.00070892
42	0x3d01acff	0.031659123
43	0xbcf49d5d	-0.029860193
44	0xbc7e226f	-0.015511139
45	0xbc783cc6	-0.015151208
46	0xbd2a28e3	-0.0415429
47	0xbc544030	-0.012954757
48	0x3c8e7e54	0.017394222
49	0xbcb00ce2	-0.021490518
50	0x3bacc665	0.005272674
51	0xbc20c093	-0.009811538
52	0xbd26cfc7	-0.040725496
53	0xbd8e2c5f	-0.06942057
54	0xbd5e95c5	-0.05434205
55	0xbd25b488	-0.04045537
56	0x3c3dc63d	0.011582908
57	0xbc91a34e	-0.017778065
58	0xbd3d5277	-0.046221223
59	0x3c95ffad	0.018310392
60	0xbcc3a1d0	-0.02388087
61	0x3bb44b33	0.0055021285
62	0x3c6b6573	0.014367449
63	0xbd7c372b	-0.06157605
64	0xbce2d576	-0.027689677
65	0xbd922c84	-0.07137397
66	0xbb50acb3	-0.0031841218
67	0x3d2c2eee	0.042036943
68	0xbc8f4cce	-0.017492678
69	0xbd390e18	-0.045179456
70	0x3d216335	0.03940125
71	0x3d96b737	0.07359164
72	0xbd48fe10	-0.049070418
73	0xbcb4f896	-0.022091191
74	0xbca66efc	-0.020316593
75	0x3cccc24b	0.02499499
76	0x3bcb1f83	0.006198825
77	0xbc951310	-0.018197566
78	0xbcc2c061	-0.023773374
79	0x3d4c75c1	0.049916986
80	0xbd84d311	-0.0648557
81	0xbc0762db	-0.008263315
82	0x3c67ad7b	0.014140482
83	0x3db366aa	0.08759816
84	0xbc1787c9	-0.009248682
85	0xbc116fd9	-0.008876764
86	0xbcca5680	-0.02469945
87	0xbd0fca0e	-0.035104804
88	0xbccbcfba	-0.024879325
89	0x3d09bf67	0.0336298
90	0xbcb091f1	-0.021553965
91	0x3da2cc7d	0.07949159
92	0xba9c74bc	-0.0011936645
93	0x3c472629	0.012155094
94	0x3cd6dfdd	0.026229793
95	0x3dd65239	0.104649015
96	0xbd65ddd8	-0.05611977
97	0x3d7683c6	0.060184263
98	0x3b93ed16	0.004514347
99	0xbce38af9	-0.027776228
100	0xbcd1d62e	-0.025614824
101	0xba0d2566	-0.0005384296
102	0xbb93ca1d	-0.0045101778
103	0xbd25e76f	-0.040503915
104	0x3d46fd25	0.04858126
105	0x3c1be869	0.00951586
106	0xbda434eb	-0.08017906
107	0xbd9da64d	-0.07697735
108	0xbd4d43ce	-0.05011349
109	0xb93d3e47	-0.00018047645
110	0x3d2d1440	0.04225564
111	0x3da8394e	0.08214055
112	0xbda21a0b	-0.079151236
113	0xbcb6ca7a	-0.022313345
114	0x3ca6ce11	0.020361932
115	0xbcdbe81c	-0.026844077
116	0x3d31b97a	0.043389775
117	0xbc06b41e	-0.008221654
118	0x3d2b9c72	0.041897245
119	0xbc95ff9a	-0.018310357
120	0x3ccc6654	0.024951138
121	0xbd42fbdd	-0.047603477
122	0x3d031f4b	0.032012265
123	0xbd606462	-0.054783233
124	0x3d71f45f	0.05907094
125	0xbc8d4da9	-0.017248945
126	0x3c9ed44d	0.019388342
127	0xbc831974	-0.016003348
128	0xbd441430	-0.047870815
129	0x3b18eb3f	0.0023333577
130	0x3d2d1348	0.042254716
131	0xbd3d67e0	-0.04624164
132	0x3d89948c	0.06717786
133	0xbcb6b1a1	-0.022301497
134	0x3de234ff	0.110452645
135	0x3cf06856	0.029346626
136	0xbb95056c	-0.0045477655
137	0xbce239c0	-0.027615428
138	0xbd8eb1c0	-0.06967497
139	0x3cde5349	0.027139323
140	0xbd6c407d	-0.05767869
141	0xbd8d7dd1	-0.06908763
142	0xbb08d310	-0.0020877756
143	0x3c65d412	0.014027612
144	0xbce694d8	-0.028147146
145	0x3ce496a3	0.02790386
146	0x3cd02a3a	0.02541076
147	0xbd7478d3	-0.05968554
148	0x3cf99b9e	0.030469712
149	0x3d13ed93	0.03611524
150	0x3d79ec30	0.06101626
151	0x3c2b3be4	0.010451291
152	0xbd5ec40e	-0.05438619
153	0x3d5ec9ca	0.05439166
154	0x3c8126c1	0.01576555
155	0xbc5b76d6	-0.013395032
156	0x3dadffe0	0.0849607
157	0x3b00307b	0.0019560147
158	0xbcbca7cc	-0.02302923
159	0x3d51d3ba	0.05122731
160	0xbc7011ba	-0.014652664
161	0xbc28a0a5	-0.010292207
162	0xbdc53819	-0.096298404
163	0xbc4ca50d	-0.012490523
164	0xbd3927ba	-0.0452039
165	0x3d8f0925	0.06984166
166	0xbd1d4533	-0.03839607
167	0xbc688bec	-0.014193516
168	0xbca1df7b	-0.019759884
169	0xbd438f3b	-0.047744017
170	0xbd05845e	-0.03259694
171	0x3c4835cd	0.012219858
172	0x3d004fab	0.031325977
173	0x3d864e56	0.0655791
174	0x3c734d13	0.014849919
175	0xbcb5fc97	-0.02221517
176	0x3ccd57b9	0.025066243
177	0x3b26003b	0.0025329727
178	0x3da4c45e	0.080452666
179	0xbc48f880	-0.012266278
180	0xbcd8d3a4	-0.026468106
181	0x3c094b2f	0.008379742
182	0xbcdc9cf7	-0.026930315
183	0xbbc3a517	-0.005970608
184	0x3b6b4f94	0.0035905587
185	0x3c3c07e2	0.011476489
186	0x3ce2cda0	0.02768594
187	0x3c924b77	0.01785825
188	0xbd5d843a	-0.05408118
189	0x3da20776	0.07911579
190	0xbb50cc48	-0.0031860042
191	0x3d9fa9d7	0.07796066
192	0xbcc7206c	-0.024307452
193	0x3d2cf292	0.04222352
194	0xbb18283e	-0.0023217346
195	0x3d2044e8	0.039128214
196	0xbba986b1	-0.005173527
197	0x3dc6296b	0.096758686
198	0x3c4151f1	0.0117993215
199	0x3ccaba4d	0.024747038
200	0xbd3c71b4	-0.046006873
201	0xbd076536	-0.033055507
202	0xbc0c2aa7	-0.008555091
203	0x3c9a9921	0.018871846
204	0x3d376b08	0.044779807
205	0xbd116039	-0.035492156
206	0xbd32a72a	-0.04361645
207	0xbc49aa68	-0.012308694
208	0x3b3869d2	0.0028139246
209	0xbcc67080	-0.024223566
210	0xbca84f77	-0.020545704
211	0x3d1243be	0.035709135
212	0x3ccae42a	0.024767
213	0x3d82568c	0.06364164
214	0x3894d230	7.0963404e-05
215	0x3bc56230	0.0060236678
216	0xbc0a64c8	-0.00844688
217	0x3c953dc1	0.018217923
218	0x3cccf28f	0.025018005
219	0x3cafe7ae	0.021472778
220	0x3c9e1ddf	0.019301353
221	0xbd9a9091	-0.07547105
222	0x3d252b3a	0.040324427
223	0xbbd4d600	-0.0064952374
224	0xbc5d2cbc	-0.013499435
225	0x3bc873f7	0.0061173397
226	0x3dac0995	0.08400265
227	0xbcf65896	-0.030071538
228	0x3c695be7	0.014243103
229	0xbcba85c6	-0.022768866
230	0x3a79af74	0.0009524741
231	0xbce91ed2	-0.02845708
232	0xbc8d3488	-0.017236963
233	0xbcb983c9	-0.022645848
234	0xbc196f63	-0.009364936
235	0x3d751806	0.059837364
236	0xbd5a2533	-0.053258132
237	0x3c654cae	0.013995333
238	0x3c998f5a	0.018745113
239	0xbd36bec4	-0.044615522
240	0xbc7d8351	-0.015473203
241	0x3c72dcfb	0.014823194
242	0x3dbb66df	0.091504805
243	0x3d2e2a9c	0.042521104
244	0x3ce77ff1	0.02825925
245	0x3c8eb2af	0.017419187
246	0x3c98ada5	0.018637488
247	0xbc9a7c36	-0.018858057
248	0x3c9c0653	0.019045984
249	0xbd767e84	-0.06017925
250	0x3d35dd4d	0.044400502
251	0xbd790886	-0.060799144
252	0xbd1a1fd1	-0.037628
253	0x3cecc85b	0.02890413
254	0x3c9c1f75	0.019057969
255	0x3d0d28ff	0.034462925

actor.bias f4 [10]
0	0xbd7bcb48	-0.06147316
1	0xbd02f1cc	-0.031968877
2	0xbcc827b1	-0.024432989
3	0xbdb4e01a	-0.088318065
4	0xbd6ad11b	-0.057328325
5	0x3c45251c	0.012032773
6	0x3d77585f	0.06038701
7	0x3d06b3e8	0.032886416
8	0xbc3877da	-0.011259044
9	0xbd021156	-0.031754814

critic.weight f4 [1, 352]
0	0x3da78af4	0.081808
1	0x3d4a71cb	0.049424928
2	0x3d10f5d7	0.0353907
3	0x3d870847	0.06593376
4	0x3d278ac3	0.040903818
5	0xbce8dc7f	-0.028425453
6	0x3be0ba3e	0.0068581393
7	0x3d0393a0	0.032123208
8	0x3bb1a7c6	0.0054216115
9	0xbbbcbf8d	-0.0057601393
10	0xbc981db3	-0.01856885
11	0xbda2d564	-0.07950857
12	0xbd0e36cf	-0.03472024
13	0x3d0079d4	0.031366184
14	0x3d146f32	0.036238857
15	0x3cebfe44	0.028807767
16	0x3d42e0ed	0.047577787
17	0xbd096569	-0.033543978
18	0x3d2e73f7	0.04259106
19	0x3d803b75	0.062613405
20	0x3cda9e0a	0.026686687
21	0xbd805e01	-0.0626793
22	0x3d09881b	0.033577066
23	0x3d44813b	0.047974806
24	0x3c565172	0.0130809415
25	0xbd83df73	-0.06439104
26	0xbd70c4cd	-0.058781434
27	0xbdb8bc8c	-0.090203375
28	0x3d2005ad	0.039067913
29	0xbcdfd938	-0.027325258
30	0x3d8d5fc0	0.069030285
31	0xba295b62	-0.00064604555
32	0xbd1a25a4	-0.037633553
33	0x3a8eec83	0.0010904226
34	0x3d50f869	0.051018152
35	0x3cea61e2	0.028611127
36	0xbc41a7fb	-0.011819835
37	0x3cbfbba6	0.023404907
38	0x3d0770a7	0.033066418
39	0xbd2e1a7e	-0.042505734
40	0xbd31fe3d	-0.04345535
41	0x3d26f308	0.040759116
42	0xbd1f9c13	-0.038967203
43	0x3d14f88e	0.036369853
44	0xbd2129ac	-0.039346382
45	0x3d836013	0.06414809
46	0x3d0c39b2	0.03423471
47	0x3d37fb0c	0.04491715
48	0x3cf76507	0.03019954
49	0x3c2c74e0	0.010525912
50	0x3d31861d	0.04334079
51	0xbe034d9a	-0.12822571
52	0x3db1e249	0.086857386
53	0x3d55ea95	0.052225668
54	0x3da0c0bb	0.078492604
55	0xbcffdba3	-0.03123266
56	0xbd10a303	-0.03531171
57	0xbe0f1018	-0.13970983
58	0x3dc12bca	0.0943218
59	0xbdc1c307	-0.09461027
60	0xbc474b59	-0.01216396
61	0x3d044891	0.032295767
62	0x3d383fc3	0.044982683
63	0xbcaa9d48	-0.02082695
64	0x3c98299a	0.018574525
65	0x3d19e484	0.037571445
66	0xbbac998c	-0.0052673277
67	0xbd116ba5	-0.03550305
68	0x3c5c442b	0.013443987
69	0x3ced99fc	0.02900409
70	0x3d8dc105	0.06921581
71	0xbd281d87	-0.041043784
72	0x3d8309b6	0.063983366
73	0xbd5ebf80	-0.054381847
74	0x3d428c36	0.047496997
75	0xbd5d32f5	-0.054003675
76	0xbc5c50bb	-0.013446982
77	0x3aeebed3	0.0018214829
78	0xbcd0b247	-0.025475634
79	0xbcf3a128	-0.029739931
80	0x3d5e6b20	0.05430138
81	0x39228e92	0.00015502636
82	0x3db3c253	0.08777299
83	0xbb31a396	-0.0027105561
84	0xbd47d99f	-0.048791524
85	0x3cc40470	0.023927897
86	0xbd509329	-0.050921593
87	0xbda5f050	-0.081024766
88	0x3d4e3720	0.05034554
89	0x3d2f9821	0.04286969
90	0x3d270da8	0.040784508
91	0xbb2c01b4	-0.0026246132
92	0xbc74913e	-0.014927207
93	0x3dabe561	0.0839336
94	0xbd26affd	-0.04069518
95	0xbcf2cba8	-0.029638126
96	0x3d66ac16	0.056316458
97	0x3bc8863a	0.0061195167
98	0x3de3028d	0.11084471
99	0x39860c45	0.00025567613
100	0x3d482425	0.048862595
101	0xbc4b5832	-0.012411164
102	0x3df9a64d	0.121899225
103	0x3cd898a2	0.026439968
104	0xbd42ee13	-0.047590327
105	0x3c7928bc	0.015207466
106	0x3d117f77	0.03552195
107	0x3d8f1f51	0.06988395
108	0x3d27cdf2	0.04096789
109	0x3c9a6c37	0.018850429
110	0x3d6da2b1	0.058016483
111	0x3db08032	0.08618201
112	0xbda07553	-0.07834878
113	0x3d84dd78	0.06487554
114	0x3d80a85a	0.062821105
115	0x3d3bf623	0.04588903
116	0x3d76f4ab	0.060291927
117	0x3d153dd7	0.03643593
118	0x3d11b2a1	0.035570744
119	0x3d11d3dd	0.03560244
120	0xbdc7ab43	-0.097494625
121	0x3d037506	0.032094024
122	0x3d8f0e81	0.06985188
123	0xbce76c48	-0.028249875
124	0x3cfc6eb1	0.0308145
125	0x3cea8c8e	0.028631475
126	0x3ca52c3a	0.02016269
127	0xbd8b9efc	-0.06817433
128	0xbcd7c21e	-0.02633768
129	0x3d05ce11	0.032667223
130	0xbe0cf002	-0.1376343
131	0x3ca45ffe	0.020065304
132	0xbda469ae	-0.08027969
133	0x3dab58bf	0.08366536
134	0xbd4ffecb	-0.0507801
135	0xbcb9a343	-0.022660857
136	0xbd154baf	-0.03644913
137	0x3ced499d	0.028965766
138	0x3d9a25ce	0.07526742
139	0xbd261d6e	-0.04055541
140	0xbd8ba893	-0.06819262
141	0x3d24bd24	0.04021944
142	0x3bddb9fc	0.006766556
143	0xbaa5ed9c	-0.0012659314
144	0x3d3b8c95	0.045788366
145	0x3d38d7eb	0.04512779
146	0x3db7d273	0.08975687
147	0x3d4a8f95	0.049453337
148	0xbc267dae	-0.0101618
149	0x3ca5fa63	0.020260995
150	0x3b5625b4	0.0032676281
151	0xbd69a4ea	-0.05704204
152	0x3d461e6d	0.04836886
153	0xbcdfa19d	-0.027298743
154	0xbcb675a8	-0.0222729
155	0x3d2e166b	0.04250185
156	0xbd3b9c4f	-0.045803364
157	0x3d741b45	0.05959632
158	0x3d314576	0.043279134
159	0x3d8a2bb0	0.06746614
160	0x3cf3d90c	0.029766582
161	0x3beaf4ad	0.007170281
162	0x3cd5e636	0.02611075
163	0x3d6546b0	0.055975616
164	0x3d9351f4	0.07193366
165	0x3d4ca196	0.049958788
166	0xbdf811f6	-0.12112801
167	0x3d067a69	0.032831583
168	0xbc455e22	-0.012046369
169	0xbd7fb7b1	-0.06243104
170	0xbca3e103	-0.020004755
171	0x3d22b18c	0.039720103
172	0xbd7ae8df	-0.06125724
173	0xbb775abc	-0.003774329
174	0x3c7640ae	0.015030069
175	0x3c730783	0.014833334
176	0x3cff9a6b	0.031201562
177	0x3d888b82	0.06667234
178	0xbd3d745e	-0.046253555
179	0xbc308955	-0.01077493
180	0x3dada580	0.08478832
181	0x3db0e4b7	0.08637374
182	0x3d913b95	0.070914425
183	0x3c99b6de	0.018763956
184	0xbd0d3533	-0.034474563
185	0xbd18ff16	-0.037352644
186	0xbcebf9c2	-0.028805617
187	0xbd64f4ff	-0.05589771
188	0x3d265b4e	0.04061442
189	0xbc7cb959	-0.01542505
190	0xbd215a6d	-0.039392877
191	0xbd139b42	-0.036036737
192	0xbcf719cd	-0.03016367
193	0x3b2b0647	0.002609627
194	0xbd49e0b0	-0.049286544
195	0xbc48700c	-0.012233745
196	0xbd6b0215	-0.057375032
197	0xbcd5fb4f	-0.02612081
198	0x3d075b28	0.033045918
199	0x3dfb0d75	0.12258426
200	0x3c9b133e	0.018930074
201	0x3d705819	0.058677766
202	0xbc3fd91a	-0.011709476
203	0xbd28aaec	-0.04117863
204	0xbd8e6f75	-0.069548525
205	0x3cf0773e	0.029353734
206	0xbdfa5699	-0.122235484
207	0x3ce9798a	0.028500337
208	0x3d41425c	0.047182426
209	0x3cbfa3bd	0.023393506
210	0xbca40475	-0.020021657
211	0xbd250d06	-0.040295623
212	0x3d2a0ec2	0.04151798
213	0xbd1ed79e	-0.038779847
214	0x3d0cd025	0.03437819
215	0x3bd4a6d1	0.0064896126
216	0xbd181a96	-0.03713473
217	0x3d122b0f	0.035685595
218	0x3d7fda75	0.062464196
219	0xbd35de25	-0.044401307
220	0x3d2f934b	0.04286508
221	0x3d09084f	0.03345519
222	0xbcc6b831	-0.024257751
223	0xbcfdd309	-0.030984418
224	0x3de09a9b	0.10966989
225	0xbcb73f33	-0.022369003
226	0xba7061a4	-0.0009169823
227	0x3d4f7dc5	0.050657053
228	0x3d684b86	0.05671265
229	0x3daaaf21	0.083341844
230	0x3d9f8187	0.07788377
231	0x3c2db57f	0.010602354
232	0x3caaa63a	0.020831216
233	0x3d8c9412	0.0686418
234	0x3d870967	0.0659359
235	0xbd07f2f6	-0.03319069
236	0x3d99651c	0.07489988
237	0x3cf737cc	0.030177973
238	0xbd2d828f	-0.04236084
239	0x3d828f6c	0.06375012
240	0xbdb37ae9	-0.087636776
241	0xbda19fb3	-0.07891788
242	0x3ae14301	0.0017186106
243	0xbc92e723	-0.01793248
244	0xbcb002b2	-0.02148566
245	0xbd04dcd5	-0.032437164
246	0xbcf62ade	-0.030049738
247	0x3b2f69ae	0.002676587
248	0x3d35b8e3	0.044365775
249	0x3d8eb935	0.06968919
250	0x3d897395	0.06711499
251	0x3d3a5636	0.045492373
252	0xbd268b55	-0.04066022
253	0x3da8d2ab	0.08243307
254	0xbc7d07bf	-0.015443741
255	0xbcb94184	-0.022614248
