circle_std_10_256_1001_1/model_500.pth (torch, 526994 bytes, 11 tensors)

features_extractor.conv1.weight f4 [16, 4, 4]
000000 3a de 29 3e ea 4b 82 be 06 e3 a6 3d 1d 2a ef 3d
       0.16588679 -0.25448543 0.0814877 0.11677954
000010 de 79 69 3e b1 27 41 bd 91 12 5b be 46 88 49 be
       0.22800395 -0.047156993 -0.21393801 -0.1968089
000020 af db f7 3d 04 e6 f4 bd 7e f3 83 3e e8 23 c7 3d
       0.12102448 -0.119579345 0.25771707 0.097236454
000030 88 d3 5b be 6d 30 95 bc 78 ae ed bc ec d0 dc bd
       -0.21467412 -0.018211568 -0.029013857 -0.10782036
000040 5f ab 31 be e1 f3 31 bd f4 1d 67 bd 5b aa b2 be
       -0.17350529 -0.04344547 -0.05642505 -0.34895596
000050 2b a0 26 be f6 b0 86 3c 82 fe e0 bd 49 ff 88 bd
       -0.16272037 0.016441803 -0.109860435 -0.06689317
000060 f1 c3 78 bd 60 fa 23 3d 7c 2f a4 3c 3a 69 53 3e
       -0.06073374 0.040033698 0.020042174 0.2064561
000070 b5 7c 45 be ba e5 2f 3e 6c 35 cd 3d 03 5b e9 3d
       -0.19285853 0.17177477 0.10019955 0.11394312
000080 6e 9e 88 bd cc bc 8a 3e 74 a8 6e 3e 14 64 2e bd
       -0.06670843 0.27097166 0.23306447 -0.04257591
000090 47 de 30 3e 10 48 15 be 6d 20 1f bc 51 04 bf 3d
       0.17272292 -0.14578271 -0.009712321 0.09326995
0000a0 61 14 23 3e 66 23 22 be 14 4a b4 bd 5b 5f 60 bd
       0.15925743 -0.15833816 -0.08803192 -0.054778438
0000b0 35 b9 56 be 5c 65 a0 bd c4 33 96 be cd 7f be 3d
       -0.20969088 -0.07831833 -0.2933637 0.0930172
0000c0 22 af f0 3d 6e a5 1d 3e ec ad 30 3e 1e c1 b4 3e
       0.11752154 0.15395138 0.17253846 0.35303587
0000d0 7c c5 07 be b4 d4 3d bd 78 f8 b3 bd e4 c1 d2 3d
       -0.13258928 -0.046345428 -0.08787626 0.10290888
0000e0 55 46 8e 3c a5 aa 56 be 68 a6 7e 3d 92 c9 ea bd
       0.017367521 -0.20963533 0.062170416 -0.11464228
0000f0 0b eb c8 3c 28 b0 9e bd 90 97 b4 3d c8 2d ff 3d
       0.02452614 -0.07748443 0.08817971 0.12459904
000100 90 51 22 3e 53 e8 22 bd 2b 2f 3e be 4b e4 cb be
       0.15851426 -0.039772343 -0.1857268 -0.3982261
000110 dc 26 3b 3e 68 0e 46 3e e0 27 c5 bd 6e 66 28 3c
       0.18276542 0.19341433 -0.09626746 0.010278327
000120 46 76 13 be ac 88 cb bd 5a 90 4f 3e f3 64 63 bd
       -0.14400586 -0.099381775 0.2026991 -0.055516195
000130 ca 22 be 3d bd 1b 34 3d fe bd 0d 3e 48 dc b1 3d
       0.09283979 0.043971766 0.13842008 0.086845934
000140 34 bd b1 3e 12 44 b9 bd 9f 24 83 3e 8f 78 09 3e
       0.34714663 -0.090461865 0.25613877 0.13424896
000150 f1 24 53 3b 32 3a 4d be 6f ba 9a bd 24 fe 08 bd
       0.0032218064 -0.20041731 -0.07555091 -0.033445492
000160 e5 19 1e be 2a bb 4c 3e 40 7e 12 be 51 5e 0f be
       -0.15439565 0.19993272 -0.14305973 -0.14000823
000170 a9 67 51 3e 32 fb cb bd 49 87 e7 3d 9f de 32 3e
       0.204497 -0.09960021 0.113051005 0.17467736
000180 ae e3 99 be 21 1e 8c be f1 05 9b be 16 f5 ea bc
       -0.30056518 -0.27366737 -0.3027797 -0.02868132
000190 ef 29 fd bd cf 59 e2 bd 6b 39 9b 3e 3b 37 03 3e
       -0.12361514 -0.11052286 0.30317244 0.12814038
0001a0 b1 52 a4 3d 09 8e 9e 3e f0 7d 32 be 54 87 fa bd
       0.08023585 0.3096774 -0.17430854 -0.12232843
0001b0 c2 1f 48 3e 3d 0e a0 3d 0d 39 e2 3d 88 69 95 b9
       0.19543365 0.07815216 0.11046038 -0.00028498122
0001c0 fd 49 b0 3e 51 10 6c 3e 42 e7 ab 3e 38 a1 2e be
       0.3443145 0.23053099 0.33574873 -0.17053688
0001d0 70 f0 27 bd fc b0 1d be 40 ac 80 3d 54 9c 6e bc
       -0.041000783 -0.15399545 0.06282854 -0.014563639
0001e0 3b ab 21 3e cb 6e 6b bc 81 e4 12 3e d3 0b 10 be
       0.15787975 -0.014369677 0.1434498 -0.1406701
0001f0 1a dc fb bd 5d 3e 27 bc 53 5a 0e be 38 3b 8c bd
       -0.122978404 -0.01020774 -0.13901643 -0.068472326
000200 cc ab e7 bd 04 de 68 3e 04 8e 68 be 18 91 28 be
       -0.113120645 0.22740942 -0.22710425 -0.16461599
000210 7c ed 62 be f0 6a 6b 3d d0 61 38 bd c0 53 b2 3c
       -0.22160906 0.05747503 -0.045015156 0.02176845
000220 a4 43 c4 bd 48 1b 76 be 48 52 f4 bd 9a 13 5f 3e
       -0.09583214 -0.24033844 -0.119297564 0.21784821
000230 8e b0 7b be 94 56 25 be 84 f8 c8 bd 20 65 e1 bd
       -0.24579069 -0.16146308 -0.098130256 -0.11005616
000240 e5 a7 32 3e a7 ae 58 3e dc 62 c0 3e 6b 0a 9f 3e
       0.17446859 0.21160375 0.37575424 0.31062636
000250 87 a1 93 bd 80 00 3c 3e 4d cf ec 3d 2b ee ea 3d
       -0.07208543 0.18359566 0.11562977 0.11471208
000260 79 53 02 3d 52 11 56 be eb fd f9 3d f9 c8 09 be
       0.031817887 -0.20905045 0.12206634 -0.13455571
000270 f6 31 00 be ae c3 ba bd b7 b7 9d 3d d9 e3 62 3d
       -0.12519059 -0.09119354 0.077010565 0.055393074
000280 e6 df ec 3d a5 79 0d be bf 40 9a 3e 24 f1 7e 3e
       0.11566143 -0.13815935 0.30127522 0.24896675
000290 0a 2b 8d be 6c 3f 6e be aa 00 19 bd f1 64 d4 3d
       -0.275719 -0.23266381 -0.03735415 0.103708155
0002a0 92 b8 b7 3d 2c 79 63 3d 92 23 02 3e 29 e6 bc 3d
       0.08970751 0.05553548 0.12708881 0.09223587
0002b0 b2 45 d6 bd 5c 9e 7e be 9f 4a 17 3e 53 1d 88 3d
       -0.10462512 -0.24865097 0.1477456 0.06646218
0002c0 e2 79 db be ae 45 80 bc 81 d5 6d 3e 41 32 a2 3e
       -0.42866427 -0.015658226 0.23225977 0.31678966
0002d0 9e 3a 21 be bf 69 15 3e a8 b1 f9 bd 54 ec b3 bd
       -0.15745017 0.1459112 -0.12192088 -0.087853104
0002e0 4d 51 82 3c 06 83 17 3c 61 4b 1f bc c2 d2 df bd
       0.015907908 0.009247547 -0.009722562 -0.10928871
0002f0 b4 06 2f be d6 9c 49 bc a2 4f 81 be 04 cf 5b 3e
       -0.17092401 -0.012305459 -0.25256068 0.21465689
000300 89 fd 18 3d e8 c6 1d be 8c 04 33 bc 59 84 f4 3d
       0.037351165 -0.15407908 -0.010926377 0.11939306
000310 39 c5 5f be 51 23 30 be 7c 7b f9 3c f9 a0 31 be
       -0.21852578 -0.17200972 0.03045439 -0.17346562
000320 8c aa 2f 3e b7 fa 13 3c 20 7a ab 3d d9 a7 3b 3e
       0.17154902 0.009031943 0.08372903 0.18325748
000330 84 76 94 be 4f 2f bc bd 0d bb 46 3d a9 4c 31 3e
       -0.2899667 -0.09188711 0.04851823 0.173144
000340 d8 5a d3 bd 88 29 06 be 84 65 ae bd 28 7c 32 3d
       -0.103200614 -0.1310178 -0.08515456 0.043575436
000350 a0 49 09 bd 16 98 3b be ee ec 09 be 9c 3a be bd
       -0.03351748 -0.18319735 -0.13469288 -0.092885226
000360 84 ee 6f 3e 02 53 1e be 78 4e 15 be e6 a8 4d 3e
       0.2343083 -0.15461352 -0.14580715 0.20083961
000370 c4 e7 05 be b6 d8 5a be 9c 1f 6e be 30 fe ed 3c
       -0.13076693 -0.21371731 -0.23254246 0.02905187
000380 c4 13 ff 3d f0 1c 40 bd 60 5d 70 bc c0 39 37 3c
       0.12454942 -0.046902597 -0.0146707 0.011183202
000390 3c e9 01 3e 08 d7 10 bd f4 7c cf bd 20 52 31 3d
       0.12686628 -0.03536132 -0.10131255 0.04329121
0003a0 f0 87 48 bd 52 cc 5d be 14 46 48 3e b0 5e 33 bd
       -0.048957765 -0.21659973 0.19557983 -0.043791473
0003b0 1a 40 15 be 68 29 53 3d 90 bc fa bd 30 50 56 bd
       -0.14575234 0.05155316 -0.12242997 -0.052322567
0003c0 ef 61 c2 3e 42 1e bc 3e 62 9f 7e 3d fa 5c 1e 3d
       0.37965342 0.36741835 0.062163718 0.038662888
0003d0 b1 92 2a 3e 16 36 72 be 97 dc 92 bd 32 b3 93 3d
       0.16657521 -0.23653445 -0.071709804 0.07211913
0003e0 37 0b 53 3e ee 86 18 3e 82 a9 56 be 53 b2 17 be
       0.20609747 0.14895222 -0.209631 -0.14814119
0003f0 53 de 03 3e d8 f9 6e be 5c f0 52 be ad 46 c7 bb
       0.12877779 -0.23337495 -0.20599502 -0.0060814233

features_extractor.conv1.bias f4 [16]
000000 20 b6 33 3e 02 16 f7 3d 87 ed 80 3d be ca f2 3d
       0.17549944 0.120647445 0.06295305 0.11855076
000010 88 2d 18 be 8c 90 3a be fc 0b 53 3e cb ad 6d bc
       -0.14861119 -0.18219203 0.2061004 -0.0145067675
000020 64 5d 67 be ea 94 88 be 91 11 0a be ae d7 57 bd
       -0.2259422 -0.26676112 -0.13483264 -0.052695923
000030 55 c1 21 be 12 20 01 be 5c 92 ef bd 8e 40 79 3e
       -0.15796407 -0.1260989 -0.11697838 0.24341032

features_extractor.conv2.weight f4 [32, 16, 4]
000000 c2 50 8b 3c f9 89 82 bc 51 a3 4c bd 67 6b 6e bd
       0.017006282 -0.015934931 -0.04996044 -0.058207896
000010 2a 1b ea 3c 56 9e 06 3e 01 32 5d 3d 44 66 04 3b
       0.028577406 0.13146338 0.054002766 0.0020202557
000020 30 13 c0 3d 6b 94 15 be ab ee 40 bd cf 59 d3 bd
       0.0937866 -0.14607398 -0.04710261 -0.10319864
000030 e2 22 92 3d 50 fa 33 3e b4 e3 32 3e c8 37 b8 bb
       0.071355596 0.17575955 0.17469674 -0.005621884
000040 27 15 89 bc 7f 34 3e 3d cb 68 d1 3d 1e de c4 bd
       -0.016733719 0.046436783 0.10225066 -0.09612678
000050 57 0e d4 bc 4d 13 7a bb 8f 19 bc 3d 25 37 59 bd
       -0.025885744 -0.0038158477 0.091845624 -0.053031106
000060 4d 5f 1a be 0a 3a b4 bd 26 4b a7 be e2 b4 88 be
       -0.15075417 -0.088001326 -0.3267452 -0.26700503
000070 cb 33 8d bd 62 08 a9 bd 6e 42 41 3e 3d 73 85 bd
       -0.06894644 -0.08253552 0.18872997 -0.065161206
000080 0c ef 0d bd 92 fe ec 3d 60 28 0f bd 84 99 5b 3d
       -0.0346518 0.11571993 -0.034950614 0.0536132
000090 fa 63 fe 3d 7c d6 e3 3d 1f fe da 3d 81 17 49 3e
       0.12421413 0.11124894 0.10693001 0.19637872
0000a0 5a 7a d5 3c d9 c5 a3 3c 3a 34 5e 3d 4f 7d 0c 3e
       0.026059318 0.019991802 0.054249026 0.13719676
0000b0 fc 66 61 be f9 b3 0e be 71 91 2e bd 28 33 28 3e
       -0.22011942 -0.13935842 -0.042619172 0.16425765
0000c0 bc c2 96 bd 45 eb 75 3d 55 8a f0 bd 83 88 4c 3d
       -0.073613614 0.060038824 -0.11745135 0.049934875
0000d0 24 b7 3e 3d 52 14 b9 3d 28 c3 dc bc aa ab e4 bd
       0.046561375 0.09037079 -0.026948527 -0.11165555
0000e0 fe eb e0 3d 28 c7 6b bd 28 2d 07 bd 7e 5a bc 3d
       0.10982512 -0.057562977 -0.03300205 0.091969475
0000f0 cb f5 47 bd 20 b7 8b 3e cb 27 4b 3e b0 d9 3e 3d
       -0.04881839 0.2728815 0.19839399 0.04659432
000100 4a 08 2a bd 16 24 45 be 8b da 4a bc 1e 19 ba bd
       -0.04151181 -0.19252047 -0.012381206 -0.09086822
000110 77 79 8b 3d 80 9a e0 bd 1a ec ff bc a9 7d 86 bd
       0.06810277 -0.109669685 -0.031240512 -0.065669365
000120 19 5c a9 3d 51 a4 62 bd 91 0b 03 be 86 43 3f be
       0.08269519 -0.055332486 -0.12797381 -0.18678102
000130 3e e6 31 bd 66 8a 5e 3d 75 37 17 3e 93 a4 93 bc
       -0.043432467 0.054331206 0.14767249 -0.018022811
000140 9b 9e 07 be f3 66 4b bb 5f cd cc bc 17 df 66 3d
       -0.13244097 -0.0031036704 -0.025000272 0.0563651
000150 3d 60 c6 3d 1d 7b 60 3d 11 a5 62 bd c4 60 80 3d
       0.09686325 0.05480491 -0.0553332 0.062684566
000160 df 19 eb bd 7a e2 5a be 01 c4 57 be 95 8c 81 be
       -0.11479544 -0.21375456 -0.21070863 -0.25302568
000170 7e 7e 1b be 9c b0 55 3d 99 c3 0e 3d 6f 66 7a 3c
       -0.15184972 0.05217038 0.034854505 0.015283211
000180 12 99 8a bd 9e 63 ad 3d 5c ca 8d bd e0 82 7a bc
       -0.06767477 0.08466266 -0.069233626 -0.015289992
000190 a3 09 42 3e b6 45 b2 bc 82 ff 31 3e 67 b2 5e bd
       0.18948989 -0.021761756 0.17382625 -0.054369356
0001a0 4d da 89 3b b3 ce f5 3c c3 dc de 3d 21 b0 ba 3d
       0.0042069317 0.030005788 0.10881951 0.09115625
0001b0 a0 c3 3b be 06 ee 6a be 3d 0e 50 bc 07 83 c3 3d
       -0.18336344 -0.22942361 -0.012698707 0.09546476
0001c0 ad fb f6 bc d9 93 a7 bd c8 49 49 bd 1c 75 e5 bd
       -0.030149305 -0.081824966 -0.04914263 -0.112039775
0001d0 4a f4 f3 3d f6 4b 86 3d 6c fe f8 3d c8 9a be bc
       0.11911829 0.06557457 0.12157902 -0.023267165
0001e0 78 3d 9f 3d 7c 70 f2 bd 62 38 d3 bd 96 ad cd 3d
       0.07775396 -0.11837861 -0.103134885 0.100428745
0001f0 fe fa ae bd a9 87 f5 3c d7 48 4f 3e d1 4c 8f 3d
       -0.08543967 0.029971914 0.2024263 0.069970734
000200 3d 1f ee bd 73 5c aa 3c 15 ed 20 be 49 83 a0 bc
       -0.11627052 0.020796036 -0.1571544 -0.019593852
000210 85 ca 40 bd 04 5b 97 bd 3d 94 a8 3c 33 22 35 bd
       -0.047068138 -0.07390407 0.020578498 -0.044222068
000220 41 38 88 3d ef 8e 1e be 24 43 2e be 53 b0 ef bd
       0.066513546 -0.15484212 -0.170178 -0.11703553
000230 ad bb 24 bd e4 a7 cf 3d 0a f0 80 3d 63 1f 73 bd
       -0.040218044 0.101394445 0.06295784 -0.059356105
000240 fb 7c 4a 3c 33 7d c4 bd c1 eb c2 bb 7d 9d 5d 3c
       0.012358899 -0.09594192 -0.005948514 0.013526318
000250 83 e1 49 3a ee 9e c4 3c 79 14 e6 bc d5 bf 07 3e
       0.00077011454 0.024001565 -0.028085934 0.13256772
000260 de 6e 12 be 82 bd ac be 13 46 8d be 13 60 2d be
       -0.14300105 -0.33738333 -0.27592525 -0.1693118
000270 96 1e b6 bd e4 92 b1 bd 5c 77 32 bd 95 05 14 3e
       -0.088925526 -0.08670595 -0.04357086 0.14455254
000280 44 ad 47 3d 20 a1 a8 3c 3a a6 ed 3d 26 78 9c bd
       0.048749223 0.020584643 0.11603971 -0.07640104
000290 47 f9 84 3d 9e 2f 35 3e ef 12 4b 3d 3b bf 1a 3c
       0.064928584 0.17693946 0.049578603 0.009445007
0002a0 04 81 2e 3c a2 29 28 3e 09 bd 0f 3e bd c8 4e 3d
       0.010650877 0.16422132 0.14036955 0.050484408
0002b0 8d 31 21 be 9f 91 53 be f3 79 04 3c ea 83 f3 3d
       -0.15741558 -0.20661019 0.008085716 0.11890395
0002c0 52 5a 53 bd 3d 11 85 3d 00 a3 fd 3c 35 fb 57 3c
       -0.051599808 0.064974286 0.030961514 0.013182451
0002d0 78 c8 2e bd 80 fc 84 3d cc 5c fd 3d 10 22 dd 3d
       -0.04267165 0.06493473 0.12371215 0.107975125
0002e0 a6 8f e5 3d 40 55 ff bd 30 9e 21 3d e4 ae de bd
       0.112090394 -0.12467432 0.0394575 -0.108732015
0002f0 74 1d dd 3d 76 8c 37 3d dc 62 eb 3d 72 4b 88 3e
       0.10796633 0.04481169 0.11493465 0.2662006
000300 ff f2 b1 bd c2 93 5e 3d a0 48 e8 bd 05 fc 29 3b
       -0.08688926 0.05434013 -0.11341977 0.002593757
000310 d0 63 e7 3d 0f e5 80 3d 3c 6c 2f bd 5f 3b d0 3d
       0.112983346 0.062936895 -0.04282783 0.10167574
000320 29 78 00 be 0b 92 72 bb 7f e0 24 bc 36 00 25 be
       -0.12545837 -0.0037013318 -0.01006329 -0.16113362
000330 a0 dc 12 bd 2b 77 e4 3d 0d dd 19 bc cd 25 0f 3e
       -0.035854936 0.11155542 -0.0093910815 0.13979264
000340 5a 30 6a 3e 40 26 2d 3e f4 b7 e2 bc bc 0a be bd
       0.22870007 0.16909122 -0.027675606 -0.09279391
000350 eb a9 53 bd 60 95 13 3c 78 4f 20 3e 9d 8e 25 bd
       -0.05167572 0.009007782 0.15655315 -0.04041921
000360 8c 3e 93 be 1e ee 80 be 7e 6a 16 be 16 81 97 bd
       -0.28758657 -0.2518167 -0.14689061 -0.07397668
000370 0f 03 3e be 1a c2 8f 3d dc 66 de 3d 91 32 36 3e
       -0.18555854 0.07019444 0.108594626 0.17792727
000380 ae a5 a4 3d 14 56 b2 bd ac 1d f0 bd d0 8a 8d bd
       0.080394134 -0.08707824 -0.117244095 -0.06911242
000390 96 1f 8e 3d 14 be 2e 3e 44 d8 52 3e 5e 9e 0f 3e
       0.06939618 0.17064697 0.20590311 0.14025256
0003a0 ce 7a 47 3d 19 66 84 3d 57 50 5c 3c db 19 b4 3d
       0.0487011 0.06464786 0.013446889 0.08793994
0003b0 32 a9 a4 be 14 01 15 be 9d 3c f2 bd 81 4c 12 3e
       -0.32160336 -0.14551193 -0.11827967 0.14286996
0003c0 96 8d b0 bc 0c 4b 8d bd 1e cc 9d 3d 2b 37 ec bd
       -0.021551888 -0.0689908 0.07704948 -0.1153396
0003d0 88 f7 c7 bc 24 db ff bd 28 ab 71 bd b0 f5 b0 3c
       -0.024410024 -0.1249297 -0.059001118 0.021601528
0003e0 dc 6b a7 3d 2c 70 39 bd c0 bc d6 bd 5c 67 f7 bd
       0.081748694 -0.04527299 -0.1048522 -0.12080261
0003f0 81 7e 87 bc 60 46 26 3e 36 5b 4e 3e 01 8f 39 3e
       -0.016539814 0.16237783 0.20151982 0.18120958

features_extractor.conv2.bias f4 [32]
000000 9e a8 7e 3a c8 65 0e 3d da a8 b1 3c 86 69 84 3c
       0.0009714457 0.034765035 0.02168696 0.016163599
000010 04 05 81 bd 7a b6 da 3d 34 a7 8d 3d ba 72 94 bc
       -0.06299785 0.10679336 0.06916657 -0.018121112
000020 31 35 b4 3d 9c 57 ea bd 03 c4 ac bc 1f 7a d9 3d
       0.08799208 -0.114424914 -0.02108956 0.10618996
000030 71 07 b0 bd 0e 2d 92 3c bf 48 fd 3d 70 ec 00 be
       -0.08595169 0.01784375 0.12367391 -0.12590194
000040 b8 aa 15 3e af 60 30 bd 25 bf 83 bc a3 3d 90 bd
       0.14615905 -0.043060955 -0.016082356 -0.07043006
000050 23 42 f4 3d 69 50 d5 bd 51 eb a6 bd 34 6a 86 3d
       0.11926677 -0.10415728 -0.08150352 0.065632254
000060 6e 01 0b bd 63 08 ac bd f4 4b 5d bd 9a da 0c 3e
       -0.03393691 -0.08400037 -0.054027513 0.13755265
000070 2a 56 d7 bd e8 79 a6 3b ba 65 32 3d 37 6f e5 3d
       -0.10514481 0.0050804503 0.043554045 0.11202853

features_extractor.fc_op.weight f4 [32, 3]
000000 52 53 b9 3d 33 d5 b0 3e 44 0a 0d bf 52 84 d8 3d
       0.09049095 0.34537658 -0.5509379 0.10572113
000010 d8 21 95 3e eb f3 04 bf 44 d7 bb 3e e5 67 0a bf
       0.29127383 -0.5193469 0.36687672 -0.5406478
000020 07 c5 0b 3f b0 89 6c 3d df 1a d0 be 6b f9 89 be
       0.54597515 0.057748497 -0.406455 -0.26948103
000030 be 40 3d be 6b fd 6c 3d d9 9b 07 3f d8 46 ea 3e
       -0.18481728 0.057858866 0.5297218 0.45757174
000040 ec 21 cb be 2f 37 b7 be 9b 87 64 3c a8 bc 95 3d
       -0.39674318 -0.3578429 0.0139483465 0.07311374
000050 15 71 7f bf de 1e c7 3d 5b 9c 9c be 57 dd 2a be
       -0.99781924 0.09722684 -0.3058804 -0.16685997
000060 be 37 97 3d 0b 2f 69 3e e9 bb 16 bf 35 36 d0 3d
       0.07383679 0.22771852 -0.5888048 0.10166589
000070 32 6b ed bc 38 1f a0 be d1 74 d0 bd 65 66 a2 be
       -0.028981779 -0.31273818 -0.10178531 -0.31718746
000080 ae 00 1e 3e 15 25 c1 3e 23 68 08 3e a9 7f c0 3e
       0.15429947 0.37723604 0.13320975 0.37597397
000090 66 00 e2 bd 54 b8 a6 bd 63 74 cc bd 66 b8 f2 bd
       -0.11035232 -0.081406265 -0.099831365 -0.118515775
0000a0 04 13 61 be 3b 7d 3e 3d b1 f0 c6 3d 54 bd c0 3e
       -0.2197991 0.046506148 0.09713877 0.37644446
0000b0 80 a0 14 3f 9b 4f 39 be 68 e3 12 bf 4c 2d 91 be
       0.58057404 -0.18096773 -0.57378244 -0.2835487
0000c0 fd 87 13 bf f5 f5 5e 3d e9 18 2a 3e fb 0a 8f 3e
       -0.57629377 0.05443378 0.16611065 0.27938065
0000d0 33 4a 13 bf ef bb b4 3e 9a d8 d7 3e ab 3a e3 3e
       -0.57535094 0.35299632 0.4215744 0.44380698
0000e0 70 d7 3e 3f 97 4e ff 3e 1c 52 d3 3e d4 c8 21 3f
       0.7454748 0.49864647 0.41273582 0.63197064
0000f0 d4 88 04 3f 52 f2 e9 3e aa 6f 1d bf 3a 29 00 3f
       0.51771283 0.45692688 -0.6149851 0.50062907
000100 db 0e cb 3d f8 d6 1a 3f 3f 82 22 be 6e 60 27 be
       0.09914943 0.60484266 -0.15869997 -0.16345379
000110 da 11 4a 3e 0f 47 ae be 2d d8 f8 3e 4a 1d 98 be
       0.19733372 -0.34038588 0.4860243 -0.29709846
000120 8c 21 b1 3e 9c 44 ae be b2 d7 dd 3e 47 40 0a bf
       0.34595907 -0.3403672 0.43328625 -0.5400433
000130 39 e2 a1 be ff 96 14 3e 0f f2 9a 3e 80 5c c9 be
       -0.31617907 0.14510725 0.302628 -0.39328384
000140 a3 20 4f be 25 36 eb 3d 23 de 91 bd 5f e8 4a bf
       -0.20227294 0.114849366 -0.07122447 -0.7926082
000150 01 e4 03 bd ff b1 7d 3c 67 83 28 bf c7 75 36 3d
       -0.032199863 0.015484332 -0.65825504 0.044545915
000160 51 23 44 be f0 87 79 3e cc 89 1d 3e c9 de e3 3b
       -0.19154097 0.24368262 0.15384597 0.0069540483
000170 23 83 f3 be 9f 84 9d 3d 8b 89 ef 3e 4f 90 0c 3f
       -0.47560987 0.07691311 0.46784624 0.549077

features_extractor.fc_op.bias f4 [32]
000000 6b c7 c7 3d 5b 2d a6 3d 8c 59 4b bd 4f 8e d5 3e
       0.09754833 0.081141196 -0.049645945 0.41710135
000010 a7 2d 0f 3f fd 9e 94 3e 23 6e e0 3e 0f 49 39 3e
       0.55929035 0.29027548 0.43834028 0.18094276
000020 46 17 02 3f d6 bd 8b 3d df f7 a2 3e 0a f0 8c bd
       0.5081676 0.06823318 0.31829736 -0.06881721
000030 fb a3 be 3e ef 7a c0 bd f4 58 15 3f c8 0e 21 3f
       0.37234482 -0.09398448 0.58338857 0.6291318
000040 f6 ff 77 3d 06 30 11 3e 85 9d 71 bd c7 c5 b5 bd
       0.060546838 0.14178476 -0.058988113 -0.08875614
000050 5f f0 b4 be f4 23 31 be 41 d3 b2 3d ee 4e 12 be
       -0.3533964 -0.17298871 0.087317 -0.14287922
000060 45 03 ab bc 45 5b b9 3e 68 5f e5 3c 3c 6b 9f 3e
       -0.020875582 0.36202446 0.027999595 0.311365
000070 dc ee c2 3e f5 6f 77 3e 8e e4 c3 3d 70 97 02 3f
       0.3807286 0.24163802 0.09565078 0.51012325

features_extractor.fc_merge.weight f4 [352, 352]
000000 ba f7 d9 3d 9e 60 ce 3d 39 87 a2 3d 95 47 f3 3d
       0.10642953 0.10077022 0.07935948 0.118788876
000010 e9 78 24 3e 53 81 f9 3d 11 f3 f0 3d 33 bd 95 3d
       0.16061749 0.1218287 0.11765111 0.073114775
000020 99 24 c9 3d de 32 cd 3d 99 ef 31 3d 3e b6 8d 3d
       0.098214336 0.10019468 0.04344139 0.069195256
000030 0f 32 a2 3d 48 e0 03 3e 7f bf 5a 3d bd 16 94 3d
       0.07919704 0.12878525 0.05340528 0.072308995
000040 37 f5 a9 3d 7e 51 3c 3b 76 2e 71 bc a5 10 89 3c
       0.08298724 0.0028735097 -0.01472055 0.01673157
000050 ee 63 2c 3d 06 45 8c 3d e7 68 a7 3d 61 86 cb 3d
       0.042087488 0.06849103 0.081743054 0.0993774
000060 d3 76 16 3e 08 b4 0e 3e cd 83 b7 3d 24 d5 7d 3d
       0.14693765 0.13935864 0.08960686 0.061970845
000070 dd a8 b0 3d 41 5c ed bb 53 53 d4 3d 45 48 84 3d
       0.08625958 -0.0072436635 0.10367455 0.06459097
000080 48 80 cf 3d ae e2 e4 3d 05 95 d8 3d b0 f5 9b 3d
       0.101318896 0.11176048 0.10575298 0.076152205
000090 0e 4f ac 3d a4 37 88 3d f2 f4 a8 3b 40 b6 23 3d
       0.08413516 0.066512376 0.005156153 0.03996873
0000a0 f2 84 33 3d 6e 63 47 bd 35 19 85 3c ac e5 d6 3b
       0.04382796 -0.048678808 0.016247371 0.0065581407
0000b0 2c 55 50 bc aa 85 31 bd 27 8e 27 bd f6 2e b5 3c
       -0.012715619 -0.043340363 -0.04090705 0.02211712
0000c0 0a 7c 42 bd f5 75 e9 3c 7b 01 ea 3d b8 17 06 3d
       -0.047481574 0.02849863 0.114260636 0.032737464
0000d0 83 b4 ed 3d a6 db 06 3e fe 84 eb 3d 52 96 b2 3d
       0.116066955 0.13169727 0.114999756 0.087200776
0000e0 1e 99 1a 3e c5 8c fb 3d 63 1a b8 3d 0d aa ec 3d
       0.15097472 0.12282709 0.08989408 0.11555872
0000f0 6e 29 92 3d 4b 53 e3 3d 94 e4 16 3d 57 cc 90 3d
       0.07136808 0.11099871 0.036839083 0.07070225
000100 a5 da f7 3d 37 34 03 3e 1e 84 2d 3d d5 f3 8d 3d
       0.1210225 0.12812887 0.042362325 0.06931273
000110 2b 45 9a 3d b6 17 e7 3d c4 db 03 bc 9a e8 c4 3c
       0.07532724 0.112838194 -0.008048002 0.024036694
000120 fa c3 24 3d a2 7c 4a bc 42 dd 4e bc 36 69 2f 3c
       0.04022596 -0.012358816 -0.012625994 0.010706237
000130 32 18 2b bd c9 32 1b 3d b7 73 27 3d f3 82 04 3c
       -0.04177112 0.03789023 0.04088184 0.008087861
000140 bb e0 94 3d 15 4c 98 3d 14 8e a8 3d a1 4a d1 bc
       0.072694264 0.074363865 0.08230224 -0.025548281
000150 21 32 2c bd 79 4f fe bc f1 47 7a bc 1b 8b c0 bc
       -0.042039994 -0.031043755 -0.015275941 -0.02350383
000160 1e bc f7 bd bc 33 95 be 35 b6 54 bc 52 c9 02 3d
       -0.120964274 -0.29141033 -0.012982895 0.031930275
000170 ba 51 33 bd 39 94 27 3d 24 95 dc bb f6 30 a2 3c
       -0.043779112 0.04091284 -0.006731646 0.019798737
000180 0a f1 e4 bc e5 10 d0 3b 8c a4 f1 bc ea 64 1a 3d
       -0.027946968 0.0063496702 -0.029497407 0.037693895
000190 06 8a cb 3d e3 cb 0c 3e 42 31 9e 3d 6f b9 1e 3e
       0.09938435 0.13749652 0.07724239 0.15500425
0001a0 63 28 d1 3d a5 f6 e3 3d cb 41 07 3e 74 7c a3 3d
       0.10212781 0.11131028 0.13208692 0.07982722
0001b0 48 57 18 3d ac a9 85 bb b7 c2 e2 3d 06 08 13 3d
       0.037192613 -0.0040790644 0.11072295 0.035896324
0001c0 13 45 1f 3a 67 7b f2 3d d4 94 20 3d 8d 49 d3 3d
       0.00060756615 0.118399434 0.039204434 0.10316763
0001d0 87 fb 2a 3d 37 3f b7 3d 22 4a a8 3d e1 87 53 3d
       0.04174378 0.08947604 0.08217265 0.051643256
0001e0 c2 aa 6c 3c 23 6d ca 3d 65 93 c0 3d 3e ce 57 3d
       0.014445009 0.098840974 0.09403113 0.052686922
0001f0 d6 e0 d2 3d 7e d2 2a 3e 45 24 1a 3e b0 8d bd 3d
       0.1029679 0.16681859 0.15052898 0.0925554
000200 d0 e1 c5 3c 09 27 7a 3c a8 41 6a 3d 33 4a e5 3c
       0.024155527 0.015268096 0.05719152 0.027989483
000210 33 cd 0f bb 59 31 98 3d d2 ce 90 3c 9a f2 5b 3d
       -0.0021942377 0.07431287 0.017676745 0.05369816
000220 41 7c d1 3d 85 a2 14 3b 94 63 11 3d 57 20 d2 3c
       0.10228778 0.0022679877 0.035495356 0.025650186
000230 d1 73 34 be 49 a5 63 bd d3 51 09 bc 23 3a fa bb
       -0.17622305 -0.05557755 -0.008381325 -0.007636325
000240 c9 d1 0d bc 10 23 3b 3d 10 b4 56 3e 55 59 ae 3e
       -0.008655974 0.045687735 0.20967126 0.3405253
000250 84 d0 ed 3e 44 5b 8e 3e 51 fc 4a bc 7f 76 45 bd
       0.46448147 0.27804005 -0.0123892585 -0.04820871
000260 56 b3 a9 3c 03 d9 76 bb 10 69 a8 bc 71 a2 16 3c
       0.020715397 -0.003766597 -0.02055791 0.0091940025
000270 c7 dc 42 bd 65 ca 41 3c 7b 30 b4 3c 58 16 99 ba
       -0.04757383 0.01182804 0.021995774 -0.0011679633
000280 52 bb 0c bd 10 2a d6 bb 79 13 cd 3c 9a b7 eb bd
       -0.03435833 -0.006535776 0.0250337 -0.115096286
000290 f0 ba 35 be 1e 5a 42 be 96 96 54 be ea 8b 5e be
       -0.17747092 -0.1897969 -0.20760569 -0.2173306
0002a0 3c d0 67 be 69 80 cc be c5 5b 9e 3c 2c 3b 4e 3d
       -0.22638029 -0.3994172 0.019330868 0.0503494
0002b0 75 3f 16 3d 71 71 92 3d 83 f8 01 3e 9a bc cb 3d
       0.03668161 0.071505435 0.12692456 0.09948082
0002c0 46 0e 28 3e 8b 83 01 3e 4c 44 48 3d 1b 09 b0 3d
       0.16411695 0.12647836 0.048893258 0.08595487
0002d0 ff 38 a2 3d e7 60 92 3d 49 bc 02 3d 96 44 1c 3e
       0.079210274 0.07147389 0.031917844 0.15260538
0002e0 fc 7d 8f 3d e7 e4 05 3e f0 06 74 3d 1a 04 1a 3d
       0.070064515 0.130756 0.05957693 0.037601568
0002f0 d2 35 fa 3d 04 30 04 3d 91 62 c9 3d dd 11 71 3d
       0.12217297 0.032272354 0.09833253 0.058854926
000300 10 c3 92 3b d9 0b 96 3d 45 29 17 3e 30 c9 97 3d
       0.0044788197 0.073264785 0.14761837 0.0741142
000310 96 a9 07 3e 74 e6 64 3d d8 b8 1d 3c b6 36 89 bc
       0.13248286 0.05588384 0.00962659 -0.016749721
000320 9d 35 df 3d cd 07 a0 3d df 8e 94 3d eb ff 8d 3d
       0.10898898 0.07813988 0.07253813 0.06933578
000330 ad dc ff 3d d7 fc e8 3d 76 e4 d4 3d bd fd 55 3d
       0.124932624 0.113763504 0.10395138 0.052243937
000340 d7 ab 8b 3c df 08 56 3d 5f 75 2c 3d 11 d6 37 bd
       0.017049713 0.052254554 0.04210412 -0.044881884
000350 c2 76 5f bc 9a cf 20 bd c3 64 17 3c 15 ce 12 3d
       -0.013639154 -0.039260484 0.009240332 0.035841066
000360 b3 52 0d bd e3 63 1a 3b 6c 76 8e bd 04 85 20 bb
       -0.034502696 0.0023558072 -0.06956181 -0.0024493346
000370 62 c9 bb bc 07 2b 02 3c af 00 d5 bd ad 14 49 bd
       -0.022923175 0.007944829 -0.10400521 -0.049091984
000380 28 51 17 3d bf c6 26 3d da 80 d6 3d ac 8c 3c bd
       0.03694263 0.040716883 0.10473795 -0.046032593
000390 d9 d1 2c be 75 f6 ad be fa c1 6c 3d 15 b9 84 3c
       -0.16876926 -0.33977094 0.057802178 0.016201535
0003a0 26 e3 fe 3d f0 45 c5 3d af 56 13 3e 83 e9 8b 3d
       0.12445669 0.0963248 0.14388536 0.06831648
0003b0 87 75 ae 3d 04 cf 37 3d d2 eb e8 3d 80 aa a5 3d
       0.0851851 0.04487516 0.11373104 0.08089161
0003c0 d9 7d da 3b dd 7e dd b9 a0 92 0e bd 01 15 92 bb
       0.0066678342 -0.00042246925 -0.0348078 -0.0044580703
0003d0 35 34 a4 3a e1 b6 13 bc d0 f5 92 bc b1 36 3f 3d
       0.0012527766 -0.00901577 -0.017939478 0.046683017
0003e0 cb ff 40 bd ba e7 13 bc bc f4 8d bd 4d 08 5b bd
       -0.047118943 -0.009027416 -0.06931445 -0.053474713
0003f0 e4 63 51 bd 65 82 c2 bd 9c a9 f7 bd 2f 79 2b 3a
       -0.051120654 -0.09497527 -0.12092897 0.000654119

features_extractor.fc_merge.bias f4 [352]
000000 2f 75 bf 3d 6f fb 24 3c ab 56 3a 3d 0c 62 0f 3d
       0.09348523 0.010069712 0.04549281 0.035005614
000010 41 6e 7a 3d 2b 13 5d bd 96 86 c6 bb a3 f9 57 3d
       0.061140303 -0.053973358 -0.0060585244 0.052728307
000020 69 24 a8 bb 2b 03 8e 3d 99 8d 12 3e 84 e2 12 3d
       -0.0051312936 0.06934198 0.14311828 0.035860553
000030 b2 6e 34 bd e9 8b 27 3d 21 a1 7b 3d a3 61 da bb
       -0.04405088 0.040904913 0.06143296 -0.0066644712
000040 bb 38 af 3d db a7 1a bd 2a 84 61 3d 6b d1 ee bb
       0.08555742 -0.037757736 0.055057682 -0.007288148
000050 8a b2 9f 3d 78 44 a5 3d f9 e9 30 bd 80 e0 5b 3d
       0.077977255 0.080697 -0.043191884 0.053680897
000060 0f a4 b0 3a 8d f7 5e bc 5b e4 46 3d d7 1b 3a 3d
       0.0013476628 -0.013608825 0.04855762 0.045436706
000070 f7 64 15 bd 1b 42 1f 3b 8c e4 b6 3c fa 70 2f 3c
       -0.03647324 0.0024300877 0.022325777 0.010708088
000080 cc 62 aa 3d d5 74 b1 3c e9 91 87 3d 18 ad 02 3d
       0.08319625 0.021662155 0.06619627 0.031903356
000090 95 aa 02 3e 46 7c ce 3d c2 54 9e bc af fe 91 3c
       0.12760384 0.10082297 -0.019327525 0.017821638
0000a0 d4 1a 0c 3d da 4a 8a bc 58 da 3c bd 7a 5e 1a bd
       0.034205273 -0.016881395 -0.046106666 -0.037687756
0000b0 27 8b 62 3c e8 37 96 3d cf b5 85 3d e1 76 93 3d
       0.013827122 0.07334882 0.06528818 0.07200409
0000c0 95 77 fc bb 4f 9e ce bc 7d e9 83 bc 69 9c 2f 3d
       -0.007704685 -0.025221972 -0.016102547 0.042873774
0000d0 d6 e1 ca 3d 64 ff 54 3d 30 90 32 3d 0e 76 47 3e
       0.09906356 0.052001372 0.04359454 0.19478628
0000e0 69 59 0c 3c 44 85 9e 3d 2f bc e6 3c 13 1d a6 3d
       0.008566239 0.07740262 0.028165905 0.08111014
0000f0 f6 6c 1a 3e 0a c7 6c bb e8 78 41 3c a7 eb a1 bc
       0.15080628 -0.0036129379 0.011808611 -0.019765688
000100 af 8d 2d bd 5f b3 2e 3c 60 1d 7f 3d 12 da 34 3c
       -0.042371448 0.010662883 0.062283874 0.01103832
000110 37 ad 2b bd 00 32 c0 3c f1 ef ec bc 1f af 07 bd
       -0.041913237 0.023461342 -0.028923007 -0.033125993
000120 15 6f 8f 3d 9d 7b 89 3d 29 08 64 bc 7f bd 9a bc
       0.07003609 0.067130305 -0.013917961 -0.018889187
000130 8e 7a c5 3d 71 cd 27 bd 83 94 a1 3a 7b 72 23 3d
       0.09642516 -0.04096741 0.0012327585 0.0399041
000140 04 a2 b9 bc 32 e9 a8 bc 92 2f 8b 3d c3 3f b2 3d
       -0.022660263 -0.020619009 0.06796183 0.08703568
000150 c1 92 a1 bd b3 14 24 3d be 39 af bd eb 6a a3 3d
       -0.07889319 0.040058803 -0.08555935 0.07979377
000160 d1 fe 47 3c 13 48 b9 3b f8 70 ac 3d 08 ee 75 bd
       0.012206749 0.005654344 0.084199846 -0.060041457
000170 1d 4b 5f 3c 48 21 ab 3d 5e d9 3e 3d ce 54 0c bd
       0.013628748 0.08355957 0.046594016 -0.034260564
000180 19 ce 35 3d 30 86 8e 3d a5 5b 1d 3c 9e 45 46 bd
       0.044386003 0.06959188 0.009604369 -0.048406236
000190 39 e8 6f bc 8c 5e 07 3d d0 1f ae 3d 85 5c 89 3c
       -0.014642769 0.03304915 0.085021615 0.01676775
0001a0 0c 7f bf 3d 2a bd 82 be 8d 89 00 3d 66 be 95 3d
       0.09350404 -0.25534946 0.03138118 0.07311706
0001b0 af 5b 62 3d cb 37 b0 3c 68 19 86 bc 87 7f 23 3c
       0.055263218 0.02151098 -0.016369537 0.009979135
0001c0 03 83 fd 3d 5c 6a 38 3c d9 be 06 bd 34 a3 95 3d
       0.12378504 0.011255827 -0.03289685 0.07306519
0001d0 4b a1 ab 3d df 55 7b bd 8c a6 55 3d c8 05 bb 3c
       0.083803736 -0.06136119 0.052160785 0.022829905
0001e0 fd b9 90 3d c2 99 48 3d bf 1a c5 3c 5a b7 3d 3d
       0.070667244 0.04897476 0.024060605 0.046317436
0001f0 97 64 2c 3c 8c 6b 76 3d f8 4a 5c be 7d c6 b4 3d
       0.010522029 0.06016116 -0.21512973 0.08826921
000200 30 11 24 3d ba 3d 0d 3d 10 7c 2b 3d 43 65 e5 bd
       0.040055454 0.034482695 0.041866362 -0.11200955
000210 92 7f 65 3c af 94 a0 bc 16 54 5c bd c0 63 48 3c
       0.014007466 -0.019602148 -0.053791128 0.0122308135
000220 a6 db a7 3d 41 f8 18 bd 80 67 1b 3c 30 1d fe 3b
       0.081961915 -0.03734613 0.009485126 0.0077549443
000230 ee 9a 38 bd c5 0a c8 3d 2c db 10 bd ef a2 b9 3d
       -0.045069627 0.09767679 -0.03536527 0.0906428
000240 8f 64 c6 bc 17 be 3c bd b1 2d 61 3d 81 bb 8d 3a
       -0.024217872 -0.04607972 0.054975215 0.0010813327
000250 11 ab ab bc be 07 7d 3d 74 a5 23 bd 59 0a 5a 3d
       -0.020955594 0.06177496 -0.03995271 0.053232525
000260 fe 36 4a 3d 84 57 91 3d 1c 11 a0 3d 3a 78 8e 3c
       0.04936885 0.070967704 0.07815763 0.017391313
000270 5d d5 27 bd 46 b1 70 bc f6 b9 0f 3d b5 1e 12 3d
       -0.040974963 -0.014690703 0.035089456 0.035673816
000280 9e de 53 3c a6 58 8c 3d 3d 96 5d 3d d0 dc 8c bb
       0.012931494 0.06852846 0.054098357 -0.004298784
000290 44 2d 07 3d 0d 86 54 3d 93 bf ce bc 51 a5 97 3c
       0.033002153 0.051885653 -0.025237834 0.018511446
0002a0 ee 29 1d 3e 2b 66 82 3d 67 0b 17 bd ed 0e 67 3d
       0.15348026 0.06367143 -0.03687611 0.05641072
0002b0 54 2e 29 3d e1 85 a1 3d f0 bd 3e 3d 5c 09 5f 3d
       0.041303948 0.078868635 0.046567857 0.054452285
0002c0 d4 31 bd 3d 1b 2d af 3d 0e bf 40 3d 8e 26 67 bc
       0.092380196 0.08553525 0.047057204 -0.014108313
0002d0 15 4a 46 3d 96 3d 90 3d bd ad a2 3d d9 22 65 bd
       0.048410494 0.070429966 0.07943294 -0.055941436
0002e0 a1 bc 97 3c eb 3a ea 3d f1 2d 23 3d 67 7e 49 3d
       0.018522562 0.11437019 0.039838735 0.049192812
0002f0 5f 51 5d 3c 74 c7 f8 bc 1d 5e c0 3c 34 a2 ef 3d
       0.01350817 -0.030368544 0.023482377 0.1170086
000300 5b 7f 05 be 82 ac c0 3c 4a 31 ca bc 1a 65 af 3c
       -0.13036864 0.023519758 -0.024681706 0.021410514
000310 b9 97 87 3b 98 e8 e4 3d 17 97 47 bb 2f 4a 2d 3d
       0.00413796 0.11177176 -0.0030455047 0.042307075
000320 14 2c 2d 3c 32 c8 39 3d 9e 5e c7 bc 53 34 04 bb
       0.010569591 0.045356937 -0.02433711 -0.002017279
000330 87 4b 8c bc a3 e9 29 bd 5b 76 0d bd 4c 42 02 3d
       -0.017125858 -0.04148258 -0.0345367 0.031801507
000340 39 97 0f ba 9e 28 03 3c f6 2d ec 3d c3 28 b8 3c
       -0.0005477551 0.008005289 0.11532204 0.022480374
000350 c6 f3 ec 3c c5 72 1d bb 1b a4 4a 3d 11 a0 da 3a
       0.028924834 -0.0024024707 0.04947291 0.0016679784
000360 12 29 43 be 27 ca 3c bd 93 e9 83 bc d5 88 af 3b
       -0.19058636 -0.046091225 -0.016102588 0.005356888
000370 93 b1 19 bc d1 c7 e3 3b 30 38 fd 3c 78 3b 46 bd
       -0.009380716 0.00695131 0.030910581 -0.048396558
000380 f3 49 9f 3d 65 de 9e 3c 42 3d 8e 3d 20 96 f8 3c
       0.077777766 0.019393155 0.06945278 0.030345023
000390 ad 2a 13 3d 1a e9 3b 3d 6a c6 1d bd 25 9d 20 3d
       0.03592937 0.0458766 -0.0385193 0.039212365
0003a0 e5 02 ce 3b 42 da 97 bc d4 34 c6 ba a3 1e 15 3d
       0.006286966 -0.01853669 -0.0015121945 0.03640617
0003b0 54 7f a3 3d 14 98 cc 3b 32 b1 3f 3b f0 7c dc 3d
       0.0798327 0.006243715 0.0029249904 0.107660174
0003c0 72 0d 5b bd ee 80 51 3d dc 5e 43 3d 61 5f ff 3d
       -0.05347962 0.051148348 0.047697887 0.12469364
0003d0 d3 76 a0 bd f5 73 41 bd e2 c9 67 3d c2 c7 5b bd
       -0.07835164 -0.047229726 0.056589015 -0.0536573
0003e0 97 08 ec 3c 12 62 c2 3d 0b 5d f7 3b b7 11 c9 bc
       0.02881269 0.09491362 0.0075489334 -0.02454458
0003f0 11 a4 53 3c 7d 82 bd 3c 9f bf 0b 3e 76 42 b0 3b
       0.012917534 0.02313351 0.13647316 0.0053790165

actor.weight f4 [10, 352]
000000 dc 3d 52 bd 44 51 32 bd 21 02 b9 bd ad bc 57 bc
       -0.051328525 -0.043534532 -0.09033609 -0.013167542
000010 84 7b e2 bc f2 38 94 3d 2f cd 99 ba 06 e9 69 bd
       -0.027646787 0.07237424 -0.0011734123 -0.057106994
000020 8d 1b c7 bc 2c 58 26 3d 83 e6 90 3d 92 10 24 3d
       -0.02430513 0.04061143 0.070752166 0.040054865
000030 41 8b fb 3c 2e 09 1c 3c 6c 3a 13 bd e0 54 8c 3c
       0.03070605 0.009523673 -0.035944387 0.017130315
000040 64 5c 0e 3b 77 56 16 bd 10 2a b7 bb 31 60 3d bc
       0.002172255 -0.036703553 -0.005589731 -0.011558578
000050 4f 68 5e bd c5 6a a3 bc 55 d5 35 3b 86 aa 2e bd
       -0.054298695 -0.019948373 0.0027745564 -0.042643093
000060 fe 3e 1d 3d 98 c4 54 3d 21 32 f2 3a 01 c8 f8 bc
       0.038390152 0.0519453 0.0018478074 -0.030368807
000070 38 7f 2d bb 43 c9 b2 3c 76 21 ef 3b 9a de 0f 3d
       -0.0026473533 0.021824485 0.00729769 0.0351244
000080 24 82 81 bd 76 33 84 bc d1 5b 70 bd e4 85 63 bd
       -0.063236505 -0.01613782 -0.058681313 -0.05554761
000090 a1 4b f4 3c d5 1b 90 bd 6a 89 01 3b 92 6b a6 3d
       0.029821219 -0.070365585 0.0019765743 0.08125986
0000a0 f9 9d 46 3d 7f ef 6e bc b4 10 01 3d 04 65 45 bd
       0.0484905 -0.0145834675 0.03151007 -0.04819204
0000b0 1d d7 03 bd 8b 0a 06 bd 77 7e 28 bd e2 8e f8 bc
       -0.03218757 -0.0327249 -0.04113623 -0.03034157
0000c0 1f 18 ea 3a 79 b8 04 bd 55 55 38 bc 0b e2 d4 bc
       0.0017859972 -0.03240249 -0.0112508135 -0.025986692
0000d0 b5 60 6b bd 9d 45 b0 bd 31 83 91 bd 7e 27 69 bd
       -0.057465274 -0.08607028 -0.07105101 -0.05692243
0000e0 3d c6 3d 3c ec 14 fc bc 0f 28 84 bd 81 18 b3 3b
       0.011582908 -0.030771695 -0.06452953 0.0054655676
0000f0 52 b0 66 bd 95 d2 24 bc 62 db 84 bb 95 ec a6 bd
       -0.056320496 -0.010059972 -0.004054473 -0.08150593
000100 ff ca 31 bd d9 39 bd bd a9 00 44 bc 0f 8e b9 3c
       -0.043406483 -0.09239549 -0.011963048 0.022650747
000110 44 c6 1a bd b9 cc 79 bd 93 bf f4 3c df 12 50 3d
       -0.037786737 -0.060986254 0.029876506 0.050799247
000120 8a 7c 89 bd 0b 8c 06 bd c0 2f 12 bd c0 57 7b 3c
       -0.06713207 -0.0328484 -0.03569007 0.015340745
000130 88 f6 86 bc 10 13 95 bc c7 4a c3 bc 85 48 07 3d
       -0.016474977 -0.018197566 -0.023839368 0.033028144
000140 27 c7 ab bd db 62 07 bc fa ce 9b bb 90 9c 91 3d
       -0.08387595 -0.008263315 -0.004754898 0.0710994
000150 a4 c6 17 bc 91 c4 bd bc 72 51 63 bd 45 02 69 bd
       -0.009263668 -0.02316502 -0.055497594 -0.05688693
000160 d2 38 26 bd 9e 7e 67 3c 7a 0d 1f bd 42 18 93 3d
       -0.04058153 0.014129309 -0.03883121 0.07182361
000170 ef ea 1e bc 6f d1 d5 bb be c2 99 3c 20 7a d4 3d
       -0.009699567 -0.0065252106 0.018769618 0.10374856
000180 a9 9e 96 bd 53 f0 22 3d bf 2b 69 bc f9 8a e3 bc
       -0.07354481 0.039779972 -0.014231621 -0.027776228
000190 0a 3c 3a bd ae 8e 9f bc a0 4a b8 bc 47 54 78 bd
       -0.045467414 -0.019477215 -0.022496521 -0.06062725
0001a0 0e 9f 1e 3d 69 e8 1b 3c 2a 13 c9 bd 92 56 c2 bd
       0.038725905 0.00951586 -0.098181084 -0.09489168
0001b0 03 cd 84 bd aa aa 87 bc 31 d2 af 3c 3d 43 fd 3d
       -0.064844154 -0.016560871 0.021462532 0.1236634
0001c0 4c 34 d8 bd 50 57 28 bd 27 d9 cb 3a 4d 94 2e bd
       -0.1055685 -0.041098893 0.0015552387 -0.0426219
0001d0 c7 96 cc 3c c5 6c bf bc e1 2d d2 3c e5 b9 10 bd
       0.02497424 -0.023367295 0.025656642 -0.035333533
0001e0 3b fa 26 bc 7e 9e 82 bd f3 3b 6e 3c a7 81 61 bd
       -0.0101914955 -0.06377886 0.01454066 -0.055055287
0001f0 4d 1d 26 3d 50 18 1d bd 4d d4 9e 3c d1 ef ef bc
       0.040555287 -0.038353264 0.019388342 -0.029289158
000200 bf 0c 8e bd 62 41 9f bc c2 ea a9 3c 60 39 13 bd
       -0.06936025 -0.019440357 0.020741824 -0.03594339
000210 ae 38 85 3d e3 df 18 bd 37 c0 be 3d 0b 52 82 3b
       0.065049514 -0.03732289 0.09314006 0.0039770654
000220 d1 2d a5 bc c0 39 e2 bc 8c 78 b5 bd 49 53 de 3c
       -0.020163449 -0.027615428 -0.08860883 0.027139323
000230 91 a2 b1 bd ee 7b af bd 10 d3 08 bb 90 ca 08 bc
       -0.08673585 -0.085685596 -0.0020877756 -0.008349076
000240 5c 46 45 bd 9a 2a 05 3d 75 c6 6a bc 09 e4 94 bd
       -0.048162803 0.03251133 -0.014329542 -0.07270057
000250 42 71 e0 3c 32 bd a7 3c 69 30 7f 3d 32 b2 77 37
       0.027397756 0.020475958 0.062302027 1.4763837e-05
000260 b6 7b 9a bd 11 8e 10 3d 8a 6f 08 bc c7 3a fa bc
       -0.07543127 0.035291735 -0.008327374 -0.030545605
000270 95 9e 7d 3d 18 19 4c bc 1d c8 33 bd 3a 69 06 3d
       0.061918814 -0.012457155 -0.043892015 0.032815196
000280 86 1a fd bc 39 0b 7a bd 94 b8 ef bd 67 36 15 bd
       -0.030896436 -0.06104586 -0.11705127 -0.036428835
000290 eb 65 82 bd 36 8e 53 3d 26 4b 64 bd 3c 94 f0 bc
       -0.063670956 0.051649295 -0.05573573 -0.029367559
0002a0 3c e7 25 bd d9 82 8c bd 5e 84 05 bd fc ff 92 bb
       -0.040503725 -0.06860895 -0.03259694 -0.004486082
0002b0 fc ca 2d 3c ea 76 2b 3d 57 58 56 bb df e9 1c bd
       0.010607477 0.041861452 -0.0032706463 -0.038308974
0002c0 aa f5 0c 3d 64 62 8b bc de 5d 6d 3d 5a 82 1f bd
       0.03441397 -0.01701469 0.057950847 -0.038942672
0002d0 e9 34 2e bd fe 92 29 bc 02 34 39 bd be 5c 57 bc
       -0.042530928 -0.010349987 -0.045215614 -0.01314467
0002e0 0c 02 09 bc 97 82 1c bc ef 5e ff 3b 1c 63 b6 3b
       -0.008362304 -0.009552619 0.0077932994 0.005566014
0002f0 9f ec 98 bd 96 cf 80 3d 1a 05 93 bc 8e 1e 6d 3d
       -0.07467007 0.06289594 -0.017946769 0.057890467
000300 72 92 d7 bc 92 f2 2c 3d e5 89 0f bd a4 1f 00 3d
       -0.026314948 0.04222352 -0.035043616 0.031280175
000310 8d 0d ef bc 9a ea 9e 3d 90 79 d0 bb f0 85 ee 3b
       -0.029181266 0.077595904 -0.0063621476 0.00727915
000320 25 b6 7e bd f4 86 43 bd 88 de 46 bc 23 a1 99 3c
       -0.062185425 -0.047736123 -0.0121380165 0.018753594
000330 57 8b da 3c f6 fa 42 bd 2c ec 83 bd 18 e1 fd bc
       0.02667777 -0.047602616 -0.064415306 -0.030991122
000340 29 09 7a bc 60 26 1c bd ee ab 29 bd 82 b5 7d 3c
       -0.015260973 -0.038122535 -0.04142373 0.015485169
000350 01 f3 46 3c 62 7d 36 3d d9 69 92 bc 30 62 c5 3b
       0.012142898 0.044553168 -0.017872738 0.0060236678
000360 f5 b1 32 bc 31 93 ed 3a f6 d2 1a 3c f2 e7 3f 3b
       -0.010906686 0.0018125531 0.009449711 0.0029282537
000370 2e 01 75 3b 2d a7 bf bd 9e 98 9c 3c 0d 77 a0 bc
       0.0037384736 -0.09358058 0.019115742 -0.019588018
000380 c8 57 05 bd c3 41 5f bc e6 12 86 3d 4c f6 47 bd
       -0.032554418 -0.013626519 0.06546573 -0.04881887
000390 80 f1 8b bb 5a 45 30 bd 1d df 7a bc 4a 86 ac bd
       -0.0042707324 -0.04303489 -0.015311983 -0.08424051
0003a0 2d 01 03 bd dd ea 10 bd 6e 1d f1 bc c8 53 17 3d
       -0.031983543 -0.035380233 -0.029432978 0.036945134
0003b0 17 a9 93 bd 8e 7b fa bb f9 d3 98 3c cf 27 81 bd
       -0.07209986 -0.0076441234 0.018655764 -0.06306421
0003c0 cd db 93 bc 75 8e 17 bb 4d 51 8a bc 94 27 c2 3c
       -0.018049145 -0.0023125682 -0.01688447 0.023700513
0003d0 17 80 b9 3c 29 66 88 37 c1 76 30 bb 36 7c 9a bc
       0.022644086 1.6260035e-05 -0.0026926252 -0.018858057
0003e0 45 fe 95 b9 95 ca a2 bd fc da d6 3c a4 52 a5 bd
       -0.0002860894 -0.07948796 0.026227467 -0.08072403
0003f0 ce cb 7f bd 7e fe 23 3c 4f c6 b4 bb ef a2 b1 3b
       -0.062450223 0.010009406 -0.0055168043 0.0054210345

actor.bias f4 [10]
000000 69 e5 a0 bd e1 6d 5e bd 92 70 11 bc 71 39 9a bd
       -0.078562565 -0.054304007 -0.0088769365 -0.07530487
000010 2e b0 94 bd 96 55 3f 3d a9 8a 0e 3d f8 10 77 3d
       -0.07260166 0.04671248 0.034800205 0.060318917
000020 64 91 0e bd bc a4 77 bd
       -0.034806624 -0.060459837

critic.weight f4 [1, 352]
000000 9c df a6 3d fc 06 49 3d 97 4a 0f 3d 76 53 86 3d
       0.08148119 0.049078926 0.034983244 0.06558888
000010 56 f1 25 3d 83 f0 e9 bc db 3e 65 3d 98 d1 01 3d
       0.04051336 -0.028557068 0.055968147 0.031694025
000020 c0 df b2 3b 97 41 c0 bb c8 56 8d bc 7a db 78 bd
       0.005458802 -0.005867194 -0.017253295 -0.060756184
000030 b2 fa 0e bd ce 89 fd 3c e0 b8 a1 3c 92 e0 e8 3c
       -0.03490705 0.0309495 0.019741476 0.028427396
000040 e3 26 31 3e e3 3f 8e bc f1 28 2d 3d e8 f7 7e 3d
       0.1729999 -0.017364448 0.042275373 0.06224814
000050 f4 d0 d6 3c 6c 5c 08 be 90 fc 07 3d 08 35 43 3d
       0.026222683 -0.13316506 0.033199847 0.047657996
000060 72 51 56 3c c8 49 84 bd 6f 84 42 bd 51 f8 bb bd
       0.0130809415 -0.06459385 -0.04748958 -0.09178222
000070 cd bd 1e 3d 4d 36 66 bc e8 a4 8c 3d 7b 2d 26 ba
       0.038755227 -0.014051032 0.06867391 -0.00063391746
000080 7c d0 1a bd ca 51 31 3d dd 89 4f 3d 24 52 e7 3c
       -0.037796482 0.04329089 0.050668586 0.02823741
000090 f3 f0 44 bc 5a d5 b9 3c 10 f6 05 3d ef ed 2e bd
       -0.012020337 0.022684742 0.032705367 -0.04270738
0000a0 1f c4 32 bd 0d 3a 25 3d 60 0e 5a bc bd 6f 13 3d
       -0.043644067 0.040338565 -0.013309091 0.035995234
0000b0 ae ca 21 bd c8 c9 82 3d 4e 1b 09 3e 74 59 36 3d
       -0.03949993 0.06386143 0.13389322 0.044518903
0000c0 73 e8 f3 3c 4b 7d 08 bc d9 29 30 3d 0d 8f 03 be
       0.029773926 -0.008330653 0.04300866 -0.12847538
0000d0 9b df b0 3d 9e e2 eb 3c 0b b9 9f 3d ff 7e 00 bd
       0.08636399 0.028794583 0.07798966 -0.031371113
0000e0 03 a3 10 bd c1 c9 58 be da 61 c0 3d 8d 16 2b be
       -0.03531171 -0.21170713 0.09393664 -0.16707821
0000f0 9b 1a 53 3d 8b 06 03 3d 7a d4 36 3d b1 36 ac bc
       0.051539045 0.03198866 0.044636227 -0.021022173
000100 91 22 94 3c bd 49 18 3d cb 8c ac bb ea 63 d4 bd
       0.018082889 0.037179697 -0.0052658073 -0.103706196
000110 89 68 c7 3b 92 1a ea 3c 6a 2f 8d 3d 2f d7 28 bd
       0.0060854596 0.028577123 0.06893809 -0.04122084
000120 e5 6c 82 3d 89 63 94 bd 09 92 40 3d 17 00 5e bd
       0.06368426 -0.07245547 0.04701427 -0.054199304
000130 8c e2 5e bc d3 be ee 3a f9 0d a1 bc d3 2e f5 bc
       -0.013603818 0.0018214829 -0.019659983 -0.029929554
000140 45 1c 5d 3d 92 8e 22 39 40 26 b3 3d 08 24 35 bb
       0.053982038 0.00015502636 0.0874753 -0.0027639885
000150 12 7b f1 bc fb a1 bf 3c 31 d0 98 bd 0c c0 00 be
       -0.02947763 0.023392668 -0.07461584 -0.1257326
000160 2d d7 4b 3d f6 69 2e 3d 47 19 25 3d 86 8b 37 bd
       0.049765754 0.04258152 0.04030731 -0.044810794
000170 8c 4b 91 bd 3c ce aa 3d 8e c3 08 bd 46 a3 de bc
       -0.070944875 0.08340117 -0.03338962 -0.027177464
000180 cd 31 65 3d d0 8a d0 3b 68 58 e2 3d 45 0c 86 39
       0.055955697 0.006364204 0.110520184 0.00025567613
000190 1c dc 46 3d e2 86 4d bc f2 a0 f8 3d cc 74 d3 3c
       0.048549756 -0.012544366 0.12140073 0.025812529
0001a0 99 be 0f bd bc 28 79 3c d5 a3 fe 3c cd 6c 8e 3d
       -0.035093877 0.015207466 0.03108398 0.06954346
0001b0 38 7d 25 3d e2 a2 95 3c 7b 5b 6c 3d f1 a6 ec 3d
       0.04040262 0.018266145 0.05770443 0.11555279
0001c0 8e d0 a0 bd 92 27 84 3d 27 07 80 3d 1e 99 01 3d
       -0.07852279 0.0645286 0.06251364 0.031640165
0001d0 af c7 75 3d a6 83 13 3d cd 1f 10 3d e0 0e 10 3d
       0.060004886 0.03601422 0.035186578 0.035170436
0001e0 36 16 c8 bd 03 c2 01 3d ff 14 8e 3d f9 47 94 bc
       -0.097698614 0.031679165 0.069375984 -0.018100725
0001f0 ad 5e f9 3c 8e aa e7 3c 3a 2c a5 3c e6 5f 18 be
       0.030440653 0.028279569 0.02016269 -0.14880332
000200 ed ad d8 bc aa 50 04 3d 6a c9 55 be ef d2 11 3e
       -0.026450122 0.03230349 -0.20877615 0.14240621
000210 34 2b 70 bd 7e ad aa 3d 6a b9 50 bd eb 4d bb bc
       -0.05863495 0.08333872 -0.050958075 -0.022864303
000220 09 44 fb bc 9d 49 ed 3c 7c 51 99 3d 6e 1d 26 bd
       -0.03067209 0.028965766 0.07486245 -0.04055541
000230 11 c0 8b bd 2b a7 4a 3e fc b9 dd 3b d9 ed a4 ba
       -0.06823743 0.19790332 0.006766556 -0.0012583091
000240 84 43 3a 3d b4 b4 59 3e 92 c0 b1 3e c0 2b 49 3d
       0.045474544 0.21260339 0.34717232 0.04911399
000250 c0 1f 21 bc 0b 0f a2 3c 17 06 c9 3b 7d 02 c7 bd
       -0.00983423 0.019782564 0.006134759 -0.097172715
000260 bc ca 48 3d 25 d4 e0 bc ef d6 b7 bc 04 07 2c 3d
       0.049021468 -0.027444908 -0.022441356 0.041998878
000270 f3 43 3c bd 75 a2 72 3d 5d ad 2f 3d e8 82 89 3d
       -0.04596324 0.059236962 0.04288994 0.067144215
000280 df 1c f0 3c ed 15 df 3c 67 4b 9f 3c e9 ce 63 3d
       0.029310642 0.027232135 0.019445134 0.055617247
000290 4c 88 92 3d 43 75 4b 3d 25 95 f8 bd 34 7e 04 3d
       0.07154903 0.049672376 -0.12137822 0.03234692
0002a0 66 71 ca 3b 33 de 7f bd 03 e1 a3 bc 3c 43 20 3d
       0.006178069 -0.062467765 -0.020004755 0.03912662
0002b0 64 97 7b bd fb a7 08 3d 71 aa 6e 3c 3f 91 6f 3c
       -0.061423674 0.033363324 0.014567004 0.014622032
0002c0 2d f6 be 3d ed d3 87 3d 4e a0 3d bd 3a ac 63 bb
       0.09324298 0.066322185 -0.046295457 -0.0034740106
0002d0 82 fa ac 3d e7 4b b0 3d 53 8e 90 3d 4d f4 95 3c
       0.08446218 0.08608227 0.07058396 0.018304968
0002e0 3c f2 0d bd fb cd 2b bd c1 1c ed bc dd 7e b6 bd
       -0.03465484 -0.041944485 -0.028944375 -0.08910916
0002f0 21 39 f3 3d 26 f0 7f bc ae 1b 0a bd 5d 18 14 bd
       0.11876131 -0.015621221 -0.033717804 -0.036156047
000300 f9 81 04 be 47 06 2b 3b 7e 81 4a bd 0b aa 4b bc
       -0.12940206 0.002609627 -0.0494399 -0.012430678
000310 b7 bb 6b bd ae 5f d7 bc 58 b0 05 3d 6b f9 f8 3d
       -0.057552066 -0.02629074 0.032638878 0.12156948
000320 ef db 92 3c 56 9e 6e 3d 51 88 42 bc c2 98 2a bc
       0.017927138 0.05825647 -0.011873321 -0.010412397
000330 7f be 8e bd 97 54 ec 3c b2 d6 fa bd 01 9d e6 3c
       -0.06969928 0.02884893 -0.12247981 0.028151037
000340 e0 cd 3d 3d 44 47 bb 3c c5 73 b0 bd f5 c3 25 bd
       0.046338916 0.02286113 -0.08615831 -0.040470082
000350 37 7c 28 3d af a5 1f bd d2 08 0b 3d 3c ee bb 3b
       0.041134086 -0.038976368 0.03394396 0.005735187
000360 e8 d0 0b be a7 7f 10 3d 29 1c 7e 3d 75 8c 36 bd
       -0.1365391 0.03527799 0.062038574 -0.044567544
000370 1b c1 2d 3d 89 27 07 3d 69 ed c7 bc a7 cd ff bc
       0.042420488 0.032996688 -0.024405198 -0.031225992
000380 86 08 c1 3d f4 2f b8 bc 3c 7e 87 ba a0 2f 4e 3d
       0.09425454 -0.022483803 -0.0010337303 0.050338387
000390 2c cd 66 3d fc 0c aa 3d 36 d5 9e 3d 80 86 65 3e
       0.05634801 0.08303258 0.077555105 0.22414589
0003a0 19 7f a7 3c 47 d4 8b 3d 3f 49 86 3d 08 a5 08 bd
       0.020446347 0.06827598 0.06556939 -0.03336051
0003b0 95 8a 98 3d 9b 53 f4 3c 73 a6 9f bc 06 f9 81 3d
       0.074483074 0.029825022 -0.019488549 0.063463256
0003c0 0a 19 14 be a8 15 0d be 38 ea 3c 3e 23 67 94 bc
       -0.14462677 -0.13777792 0.18448722 -0.018115586
0003d0 30 6b b1 bc dc 56 05 bd c6 50 f7 bc ae 69 2f 3b
       -0.021657556 -0.03255354 -0.030189883 0.002676587
0003e0 1f 4f ab 3c 46 ff 8d 3d 51 c1 88 3d 58 1a 39 3d
       0.020911751 0.06933455 0.06677497 0.04519114
0003f0 44 59 27 bd 39 39 a8 3d 52 16 80 bc c8 13 b9 bc
       -0.040856615 0.08214039 -0.015635643 -0.02259244
