carlike_lessOl/model_20.pth (torch, 54394 bytes, 15 tensors)

features_extractor.conv1.weight f4 [16, 4, 4]
00000000: a4e8 5b3e 0255 7b3d bdef c1bd 8b1e 90bc
00000010: 7a0c 023e 09d3 373d 4e30 dbbd ad9b 343e
00000020: bbb2 bf3d c856 963e befc 8b3d c12e 8b3e
00000030: dd54 71bd 3e0c 13bd cf97 d93d d92c 4fbd
00000040: 8ab2 c23d 1a3e 3bbe be51 b7bd 741e f5bd
00000050: caba 283e dd32 4c3e 6387 533e b52e 2fbe
00000060: 91fb 36bd 8386 3c3e afc1 d6bd 33b4 55be
00000070: 77dd 1fbc 033a 393e ad54 3a3e 33ee 6cbe
00000080: 8f88 f7bd bdef 50bd e167 08be e4db 823e
00000090: d04d 233e deb6 243e 4b39 b3bc a943 153e
000000a0: d1ee 00be 4a71 7b3e 02eb 863e 0e44 403d
000000b0: 298c 463d 07b1 173e a130 c7bc 94fa 5a3e
000000c0: 1fe8 2b3e 2586 f6bd 7faf ab3d e284 8a3e
000000d0: 724e 3f3d 3c56 15be 49e1 293e 27c2 843e
000000e0: 74ae d9bd 83ff 3f3c ea7b df3d 4044 823e
000000f0: 037e 03be 3c8d 10be feb9 573d 5064 c23c
00000100: 037f f23d 84ff 8c3e f740 42be 8bf5 db3d
00000110: 05d0 9dbd b322 fb3d 1f83 96bd 6a37 013d
00000120: c18e 043e 2855 043e 24ab 113d e8ce 213e
00000130: 108f 853e e3d6 6bbd d14d 813e 611e 443e
00000140: f079 71bc 1096 123e 68a9 21bd cd1b 103e
00000150: 1c87 473e a384 89be ab41 50be 7548 c4ba
00000160: 78b5 58be c09c acbc b441 9dbd d715 a5bc
00000170: a46f 1abe 8fe7 d8bc bf9e 24be 6501 bd3b
00000180: cda9 623e d9eb 533e e8af 26be a83f 5b3e
00000190: d25a 913e 1683 aabd 4dfb 883e 9d09 85bd
000001a0: 6a25 203e b9cc 933e a0f9 41be d144 05bc
000001b0: 5f87 2e3d 1593 33bd e06b 3f3e 3918 12be
000001c0: d05f e93c 5824 41be 44c1 a1bd 8011 69bc
000001d0: cc11 14be 8c0d 62be 4edc 2bbe 84ca 19be
000001e0: e86d 643d 4039 353c 1c4e 6e3e e09c cb3c
000001f0: f6e6 02be 8a98 313e 2030 07bc 245e bfbd
00000200: 3fcb 893e 6a91 adbd 78f7 f7bd 2b78 13be
00000210: de24 3a3e a986 3b3e c8f6 b4bd f8fa 6f3e
00000220: c46e 11be 31a4 393e 3c82 fb3d d545 d13c
00000230: be3c 60be 8b73 0a3e 25a8 ab3d a920 6abc
00000240: fe70 8abb 8250 3cbe 4140 9d3d 0d9c 513e
00000250: 4191 49be 01ca 173d 3742 2dbe 1b70 1ebd
00000260: 3d7c 203e a093 9bbc 0dab d33c 26ba 76bb
00000270: 26cc 9d3d 32ab d83d 93aa 7cbe c91a 33be
00000280: 9b6a db3c a9c0 0bbd 8b8f 29be 3527 913e
00000290: 7751 9c3d 827f 2e3e bde2 b83c aa07 8cbd
000002a0: 861d 743e f7a2 f73d 8e0c 0cbe 8847 8f3d
000002b0: 3832 733e 1367 d93d 6cdb 9c3d f09e 68bd
000002c0: 8e45 1b3e 41ff 2c3b dde0 e5bc 6049 18be
000002d0: 88dc 593e 7773 85bd d362 5e3e 2da6 153b
000002e0: ee3a 153e 1374 c03d 7c42 453d 7703 62bd
000002f0: 58d0 583e a70f 1f3e e45e fabd aa57 fd3d
00000300: 116a abbd 8f41 3bbe 8036 33be c51b 5fbd
00000310: 51e3 6d3e a90c 1e3e 1aff 6c3d e997 4c3e
00000320: 4240 4fbd 7daf 7fbe 64e4 1bbe 9544 f03d
00000330: 4534 69be c95c 59be 303f 48be f6d2 153d
00000340: 281d e03d 6968 a2bd 861c 8b3e 451b b03d
00000350: 1d8a d73d 38e9 863d 4632 b33c b8b6 2c3e
00000360: 5c20 203e d25c 8fbc ee07 30be 2f2f 873e
00000370: 5607 3cbe 3c38 3bbe 9ed7 14be 4e26 1ebe
00000380: 9935 763e 5677 7f3e 30bb 663e 8ce9 1e3e
00000390: f42a 51bd c34f 633e bb6f 2ebe b6c2 023e
000003a0: c4c9 e13d 040a a83d 4991 84bd 6d06 4c3d
000003b0: 1b7a 2d3e f8b6 603d 1596 f0bd 032a 433e
000003c0: b681 88bb 0d11 5dbe c6fe 6b3e ac7f 42be
000003d0: c966 26be c5d5 70be 3983 74bd c12c 4cbe
000003e0: 75d1 503e 020c 2dbd 4854 59bc b583 56bb
000003f0: f9ea 83be 07a1 323e 9994 7dbd ab2e 233e
0.21475464 0.061360367 -0.094695546 -0.017592689 0.12700072 0.044878993 -0.10702573 0.1763751
0.09360262 0.29363084 0.06835316 0.27184108 -0.058918823 -0.035900347 0.10624658 -0.05057988
0.0950671 -0.18285409 -0.08951138 -0.11968699 0.16477504 0.19941278 0.20657115 -0.17107661
-0.044673506 0.18410687 -0.10486161 -0.20869522 -0.009757391 0.18088536 0.18196364 -0.23137741
-0.12086593 -0.051009882 -0.13320877 0.25558388 0.15947652 0.16085383 -0.021877905 0.14576592
-0.12591101 0.24554935 0.26351172 0.046939902 0.04847351 0.14813624 -0.02431518 0.2138465
0.16787766 -0.12037305 0.083830826 0.27054507 0.04670567 -0.14583677 0.16589846 0.25929376
-0.106289774 0.011718634 0.109123066 0.25442696 -0.12841038 -0.14116377 0.05266761 0.023729473
0.11840632 0.27538693 -0.18970095 0.10740193 -0.07705692 0.12262478 -0.07349228 0.031546988
0.12945081 0.1292311 0.035563603 0.15801585 0.2608571 -0.05757798 0.25254682 0.19152214
-0.014738545 0.14315057 -0.0394682 0.14073105 0.19485134 -0.26859006 -0.2033755 -0.0014975207
-0.21162975 -0.021070838 -0.076785475 -0.020152016 -0.1508165 -0.026477603 -0.16076182 0.0057679885
0.22135086 0.20695437 -0.1627804 0.21411002 0.28389603 -0.08325784 0.26754227 -0.06495974
0.15639272 0.28867128 -0.1894288 -0.008134083 0.04260957 -0.04384144 0.18693495 -0.14267053
0.02848807 -0.1886152 -0.078981906 -0.014225364 -0.14459914 -0.2207548 -0.16783258 -0.1501866
0.055768877 0.011061013 0.23271984 0.024855077 -0.12783417 0.17343345 -0.00825122 -0.09344128
0.26912877 -0.08475001 -0.12107748 -0.14401309 0.18178126 0.18313088 -0.08836132 0.2343558
-0.1420241 0.1812904 0.122806996 0.025545994 -0.21898171 0.13520639 0.083816804 -0.014290013
-0.0042248955 -0.18390086 0.07678271 0.20469685 -0.19684316 0.03705788 -0.1691979 -0.03868113
0.15672393 -0.018991292 0.0258384 -0.0037647574 0.07704954 0.10579528 -0.24674444 -0.17490686
0.026784232 -0.034119282 -0.16558664 0.28350225 0.07632726 0.17040828 0.022569055 -0.06837399
0.23839387 0.1209163 -0.13676664 0.069960654 0.23749626 0.10615363 0.07659039 -0.0567922
0.15163252 0.002639726 -0.028061325 -0.1487174 0.21275532 -0.06516164 0.21717386 0.0022834644
0.14573261 0.093971394 0.048159108 -0.055179086 0.21173227 0.15533315 -0.1222513 0.12370236
-0.0836984 -0.18286727 -0.17501259 -0.054469842 0.23231246 0.15434517 0.05786047 0.19979824
-0.05059839 -0.24969287 -0.15223843 0.11731831 -0.22773845 -0.21226801 -0.19555354 0.03657814
0.10943061 -0.07930071 0.271702 0.08598951 0.1052439 0.06587452 0.021874558 0.16866577
0.15637344 -0.017500315 -0.17190525 0.26403186 -0.18362173 -0.1828317 -0.14535376 -0.154443
0.24043883 0.24947867 0.22532344 0.15518779 -0.051066354 0.22198395 -0.1703481 0.12769589
0.11024812 0.08205035 -0.064730234 0.049810816 0.16941111 0.054861993 -0.11747376 0.19058995
-0.0041658534 -0.21588536 0.23046407 -0.18994015 -0.16250147 -0.23519047 -0.059695456 -0.19938947
0.20392402 -0.04224778 -0.013264723 -0.0032732312 -0.25765207 0.1744424 -0.061909292 0.15935771

features_extractor.conv1.bias f4 [16]
00000000: 4ca9 3cbe 90c4 133d a7d3 c93d 5861 4f3d
00000010: fb48 8e3e bd39 b53d 66a3 91bd ec92 ac3d
00000020: a7ac fdbd 183a c7bc c9e8 633e 1ace 1c3e
00000030: bc5c 4c3e 020a eebd 8171 4b3e cd29 aa3d
-0.18423957 0.03607613 0.098548226 0.050629944 0.27790055 0.08848903 -0.07111244 0.084264606
-0.123864464 -0.024319693 0.22256769 0.15312997 0.1995725 -0.116230026 0.19867517 0.08308754

features_extractor.conv2.weight f4 [32, 16, 6]
00000000: 8aad a9bd 3105 5a3d a3dd 603d 9416 9cbd
00000010: 055f acbd e140 b4bc 580c 8dbd 007b e43c
00000020: a36e db3d 3efd 31bd a48a 963d c669 8c3d
00000030: 3d5e 483d 50bc 02bd 1edf 5d3d c1d6 823d
00000040: 0906 f83c b1b8 2f3d 572d 09bd 38d7 59bb
00000050: de7a a0bc 5aa5 c6bd 7853 133d f16f f3bc
00000060: 9989 753d 37b9 553d e39b 2b3d 9f78 c43d
00000070: ee30 28bc e247 54bd f17d bd3d a87c b53d
00000080: 1aff c1bd e9da 1b3d dc34 d5bc c8f5 c5bc
00000090: fb73 9bbd a70a 70bd da42 b5bd 4c46 26bd
000000a0: 1e86 8cbd 75a8 893c cbc7 b6bd 22dc f23a
000000b0: 7952 703d 68ec a03d f719 d6bc d67d b03c
000000c0: d00e 15bd 1c87 80bd 277c 83bd feaa 873d
000000d0: 16aa f3ba 41e8 e33d 6eed 363d 9741 82bd
000000e0: b933 713d b672 cb3b fd18 cebd 71d9 88bd
000000f0: edc0 e0ba 59dc a73c fa9c b5bd 69ef d63d
00000100: 12b4 96bd 0282 c73d 75bb 56bc 2df2 263d
00000110: 0873 29bd a94e d8bc d79a 40bd 2b99 40bc
00000120: 0a98 17bc 3c03 3fbd f2dc 67bc 79a2 943d
00000130: d7a4 dc3d 9d67 97bd 3e90 f8bc 9f6c abbd
00000140: 05bd d0bd c6d8 733c 449e 60bd f71d 4abd
00000150: fb4c b5bc e7f0 b0bc 6311 c83d be8a 94bb
00000160: 1e7a 63bd f0ca bdbd 7c2c 82bd 08a7 a43c
00000170: fc85 483d a9cf c63d f55f 15bd e517 49bd
00000180: 3cd0 143e 9c1b 963c 0396 153e a3f5 7c3d
00000190: fd6d bb3d 5eea 153e 355e 51bc f7cf ebbc
000001a0: 6276 d8bb 06ef 443d b7a4 88bd 2df1 473b
000001b0: 3342 923d a644 863d 0d3c 0d3d 3ea3 003e
000001c0: 2ed7 4c3b b36f 143e fa38 f9bc 37e3 c5bb
000001d0: 36c6 d43d aae5 d13d 08cd a1bb ee1d 0a3e
000001e0: d466 ba3c 15f4 133e 5789 e93c 40d6 18bc
000001f0: da0b af3d 9cf2 ea3d 5808 e53c 74a7 d43d
00000200: b5cd 80bb 999c bc3c 1dcc 28bc 3f41 aebd
00000210: 809f 9b3b 9600 6cbc 0150 0a3e d26f 883c
00000220: d7d2 1e3d b66b a3bc a400 a3bd ad17 be3d
00000230: fa30 90bd 1a99 34bb c0b9 383c 399c 7abb
00000240: 7fa3 d43c c8ef a33d 17aa a53d cd6a 25bd
00000250: a88e 5b3d fac0 0b3d 6347 ac3d bcc5 d53c
00000260: bb99 db3b 1ba8 57bb ab49 803d 56f0 67bd
00000270: 9677 bd3d 0dfa 813d a2f8 283c e734 193d
00000280: 53a9 8c3d bbdd 943d ae7d 143e 6bc1 5c3c
00000290: e795 983d 19a2 f6bc 84c8 8d3d 755c 173e
000002a0: b61b 93bd 43c5 e0bc 966f 7abc 089c cdbc
000002b0: 9da2 323d e86a b0bc 0219 2abd 5bf8 c33d
000002c0: 2f98 603c 8075 62bb 7f93 aa3d a604 18ba
000002d0: 7eae b13d 3943 76bc 7fa8 a73d 3c93 c13d
000002e0: 9fa8 a53c 4054 06ba bf63 b5bd 9e12 6bbd
000002f0: 88a0 afbd bb69 593d fcf7 c53d cd71 ecbc
00000300: 67b0 29bd c412 bcbc 7d47 2f3c 77b4 e6bb
00000310: 8fe9 8c3d ab64 783d 4764 b4bd 69c8 b0bd
00000320: e605 f53c 2620 f7bc a78c 053c 3f0d 6c3d
00000330: 2f90 cb3d b6f6 dbbc 1f7d aebd c3b3 c73c
00000340: e62c bcbd ea6f 9abc ff87 8ebd f8f1 023d
00000350: c1c3 09bc f98c f63c 2f3e acbd 958f 8e3d
00000360: f769 45bd a47f 32bd 4b23 c7bb f311 45bc
00000370: 6a04 0ebd 77a2 623d 9762 60bd 986e 913d
00000380: 49d4 943b 5206 8c3c d953 153d 37d0 ad3d
00000390: 6203 2cbd de3b ab3b 192d 093d ac34 9abd
000003a0: e3d4 91bd 157a 883d 3d1c 39bb fc91 493d
000003b0: 1fc0 c63d 01ff a4ba 49f7 c13d 555b 953d
000003c0: f114 223d bda0 83bd d148 9abd 3f98 0fbd
000003d0: 6004 b5bd 510a 9d3d 5879 993d 5461 05bc
000003e0: ba3e c73d 036e 51bd d3a3 91bd 0def a63d
000003f0: 4372 713d 33d4 843d 6770 90bd ba29 b3bc
-0.08285053 0.053227607 0.05489887 -0.07621494 -0.08416561 -0.022003593 -0.0688712 0.027890682
0.10714462 -0.0434544 0.07350662 0.06856112 0.048917998 -0.03191787 0.05416786 0.06388617
0.030276315 0.042900745 -0.033490505 -0.0033239853 -0.019589838 -0.09699507 0.035968274 -0.029716464
0.059945676 0.052178588 0.041896712 0.09593319 -0.010265572 -0.051826365 0.09252537 0.08861667
-0.09472485 0.038050566 -0.026026182 -0.02416505 -0.07590481 -0.05860391 -0.088506415 -0.040594384
-0.06861518 0.01680396 -0.08924826 0.001852874 0.058672402 0.07857591 -0.026135428 0.021544378
-0.03639108 -0.0627577 -0.064201646 0.06624411 -0.0018590118 0.11128283 0.044660024 -0.063601665
0.058887217 0.006208743 -0.1006336 -0.06682099 -0.001714734 0.020490812 -0.088678315 0.104948826
-0.073585644 0.09741594 -0.013106217 0.0407583 -0.041369468 -0.026404696 -0.047022667 -0.011755268
-0.0092525575 -0.046633944 -0.014151799 0.07257552 0.10773628 -0.073928095 -0.030342218 -0.08370327
-0.101923026 0.014883226 -0.054838434 -0.049344983 -0.022131434 -0.021599246 0.09768941 -0.004533141
-0.055536382 -0.09267223 -0.06356141 0.020099178 0.048955902 0.09707577 -0.036468465 -0.049095053
0.1453256 0.018323712 0.14608006 0.061757695 0.09151838 0.14640185 -0.012778808 -0.028785689
-0.006605909 0.048079513 -0.06672042 0.0030508742 0.07141533 0.065560624 0.034481097 0.12562272
0.0031256187 0.14495735 -0.030422676 -0.006039049 0.10389368 0.10248883 -0.0049377717 0.1348798
0.02275411 0.14448579 0.028507872 -0.009328425 0.085471824 0.11472055 0.02795808 0.10383502
-0.003930772 0.02302389 -0.010302571 -0.085085385 0.0047492385 -0.014404437 0.13507082 0.016654883
0.03877529 -0.019948822 -0.079591066 0.092818595 -0.070405915 -0.0027557076 0.011274755 -0.0038240089
0.025956867 0.08004719 0.08089083 -0.040385056 0.053602844 0.034119584 0.084120534 0.026095264
0.0067016757 -0.0032906595 0.06264051 -0.056625687 0.09251325 0.063465215 0.010313185 0.037403967
0.068682335 0.07268854 0.14501068 0.013473849 0.074504666 -0.030106591 0.06923011 0.14781363
-0.0718302 -0.027437812 -0.015285393 -0.025098816 0.04361211 -0.021535352 -0.041527756 0.095688544
0.013708158 -0.0034554899 0.08328914 -0.00057990325 0.0867586 -0.015030676 0.08186435 0.09451911
0.020222006 -0.00051242486 -0.08856916 -0.0573908 -0.08575541 0.053079348 0.0966644 -0.028862858
-0.041427996 -0.022958167 0.0106981965 -0.007040556 0.06880485 0.06064288 -0.08808189 -0.08631975
0.02991004 -0.030166697 0.00815121 0.05762982 0.0993961 -0.02685104 -0.08519959 0.02437771
-0.09188251 -0.018852193 -0.06959533 0.03196904 -0.008408488 0.030096518 -0.08410298 0.0696098
-0.04819676 -0.04357876 -0.0060772053 -0.012028205 -0.03467218 0.05533072 -0.054781523 0.07101172
0.004541908 0.017092858 0.036456916 0.084869795 -0.041995414 0.0052256426 0.033490274 -0.075295776
-0.07120683 0.0666391 -0.002824559 0.049211487 0.09704613 -0.0012588204 0.09470994 0.07292811
0.039570753 -0.06427143 -0.0753342 -0.035057303 -0.08838725 0.07667983 0.074938476 -0.008140881
0.09728761 -0.051130306 -0.07111325 0.08151064 0.05894686 0.06485786 -0.07052689 -0.021870483

features_extractor.conv2.bias f4 [32]
00000000: 2336 0d3c e9b3 313d 9dff b4bd 3ae7 8f3b
00000010: bac0 3b3d e303 713d 0335 27bd 721d b23d
00000020: d204 48bc 4e95 d7bd 78fe 2e3d 1f7f c63d
00000030: 467a 6e3c 0260 813d ba72 353d 142a 0abd
00000040: 1beb 30bd c245 893d 7ed5 8c3d 4c9a 6bbd
00000050: 181a 8e3d 61d3 1c3d dc38 9bbd 0249 903d
00000060: 8f65 b73d 1267 c53d f2cd 8ebd e993 143d
00000070: e85d 0d3d 6de0 313c e623 8d3d 4f2a e83d
0.008618864 0.043384466 -0.08837817 0.004391578 0.045838095 0.058841597 -0.04082204 0.086970225
-0.0122081805 -0.105265245 0.04272315 0.09692215 0.014555519 0.0631714 0.044298865 -0.033731535
-0.043192964 0.06702758 0.06876658 -0.057520196 0.06938571 0.038287524 -0.075792044 0.07045175
0.08954918 0.096388 -0.06972875 0.03627387 0.034513384 0.01085673 0.06891613 0.11336195

features_extractor.fc_op.weight f4 [32, 3]
00000000: 1c96 dbbe c7f6 f83e b49d 0c3f e5f0 103f
00000010: 8a7f 053e 8f5d 1cbf 7af0 e6be 474f 40bd
00000020: 371d bcbd 55d3 c5be 7c31 133d fd03 ecbe
00000030: 71eb 203e af3f 093e 48be a4be 02bd c7bd
00000040: 0e33 c3be e5f5 803e 40c5 15be 3b01 03be
00000050: 63d2 7cbe 3965 febe c420 943e 2080 4bbe
00000060: 3fee 89be a730 923e 918f 8f3e 755e 8a3e
00000070: c4dd 8f3e a769 d6be 5193 00be 61bd 873e
00000080: b7fa 373c 1a98 9abe 9207 fa3e 475e 573e
00000090: c78e 653e b49a 973e 4728 353e b1ec 773e
000000a0: 88a4 e03e 377e a13e 401f d13e 8cde 8d3e
000000b0: 171d 82be b2fd 94be cc1f b53e f39e fcbd
000000c0: 7089 11bf 4e22 73bc 9e48 7bbe 26f0 abbd
000000d0: a9f1 bd3e e468 d13e 476a 253e 459c 2dbe
000000e0: c0c0 fdbe 4866 5c3e 3115 933e f517 153f
000000f0: dbd2 b1be 0a9e 8b3d f8e9 5f3e afcc e3be
00000100: 781a 0e3f e670 d8bb 35a3 b53e a081 f13d
00000110: 6a6a dabe 30d0 17be d868 af3e 718a b7be
00000120: d658 303d f406 1dbe 4beb 5dbe 10d3 f5be
00000130: 4c25 fbbe d6f0 f53d 9be8 3d3e 2049 b7be
00000140: 69dd 89bc 78a7 f53e cd23 3b3e 9ef0 e6bd
00000150: 1348 59be 7b11 443e 2deb cb3c a065 1b3e
00000160: 2ff2 973e c7d9 d8be 1594 97bd 1722 c0be
00000170: df0c a0bd d7c0 f93e 38fd a9be 72bc 96be
-0.42887962 0.48625776 0.54928136 0.56617576 0.13036934 -0.6108026 -0.45105344 -0.046950605
-0.0918526 -0.38637796 0.035935864 -0.46096793 0.15714814 0.134032 -0.32176423 -0.09752847
-0.3812489 0.25187603 -0.14626026 -0.12793438 -0.24689631 -0.49686602 0.28931248 -0.19873095
-0.2693958 0.28552744 0.2803922 0.2702519 0.2809888 -0.4187748 -0.12556197 0.26511672
0.011229209 -0.3019417 0.488339 0.21032058 0.22417746 0.29610217 0.17691146 0.24211384
0.43875527 0.31541607 0.40844154 0.27708852 -0.2541282 -0.29099804 0.35375822 -0.12335005
-0.5685034 -0.014839722 -0.2453942 -0.08395414 0.37098435 0.40900338 0.16153823 -0.16954143
-0.4956112 0.21523392 0.28727105 0.5823968 -0.34731182 0.06817253 0.21866596 -0.444921
0.5550914 -0.0066052554 0.3547608 0.11792302 -0.42659312 -0.14825511 0.34259677 -0.3584781
0.04305347 -0.15334684 -0.21671788 -0.4801259 -0.49051893 0.120088264 0.18545763 -0.35797977
-0.01682921 0.4797933 0.18275376 -0.11276363 -0.212189 0.19147293 0.024892414 0.15175486
0.2967696 -0.4235365 -0.07401291 -0.37526008 -0.07814955 0.48779938 -0.33201003 -0.29440647

features_extractor.fc_op.bias f4 [32]
00000000: 34f5 03bf 9370 c93d a93c 5abe 6ab7 35be
00000010: a4ab 01bf dd1a 1abe 5d48 663e c325 4f3e
00000020: cbee eebd a7a7 d23d 4ac7 243c b740 2a3e
00000030: 653b d83c f598 e03e ea87 d33e d6a3 163f
00000040: 1bf6 d5be aa95 c2be 16a5 90be 540c 933d
00000050: 6f3e 6ebe c664 563e ba24 ef3e 12cb 59bd
00000060: 1d46 f13e 9516 59bc 5444 af3e 6016 fc3d
00000070: 667f 52bd b6b3 1b3e 39bc c23e ac8e e1be
-0.51546025 0.09835925 -0.21312203 -0.17745748 -0.5065253 -0.1504931 0.22488542 0.20229249
-0.1166664 0.102858834 0.01005728 0.16626249 0.026395509 0.43866697 0.41314632 0.58843744
-0.41789326 -0.3800481 -0.2825095 0.07180086 -0.23266004 0.2093688 0.46707708 -0.05317218
0.47123805 -0.013250013 0.34231818 0.12308955 -0.051391028 0.15205273 0.38034227 -0.44054163

features_extractor.fc_merge.weight f4 [64, 64]
00000000: ae8d c8bd 8c5e 2f3d 243a ee3d 86d3 c83d
00000010: fe03 e1ba e1c6 993d aafa 9a3d 2ea7 fa3d
00000020: 7677 b83c 6c18 223d 92d9 b6bd a158 a23d
00000030: 161d 32bd 196b c9bd 7a6d a93b de34 81bd
00000040: 00c6 993a 6c45 10bd fa6b 713d 2018 143d
00000050: 89ac 39bd 23ef 09bc 4dfd 0bbd 6f90 48bd
00000060: 8c69 2c3d 60c5 ecbd 78b3 7ebd a1d4 8f3c
00000070: fcd4 1e3d eeda 84bd aea7 453d 4054 403d
00000080: ee06 87bd 8caa 823c f091 e03d 62fb 8dbc
00000090: 0d04 093c c254 35bb fc80 cabd 1779 343d
000000a0: a3f2 293a 7539 a6bd d828 50bd 97fb 7a3d
000000b0: 8049 1cbb 04c8 6f3d 4821 023b 2a0f f2bc
000000c0: 177a 783c 93bc c53d 522b e73d d283 083d
000000d0: accd 823b e971 723d 2f4d cc3d c8a3 ecbd
000000e0: 4405 173d 729e 633d e298 8cbd 30fe fa3c
000000f0: db4c eb3d 2921 5bbd 5b40 0bbd 57d6 2ebc
00000100: dc76 94bc 9bbb e2bd f4b8 b83d 20f8 fdbd
00000110: 42ca f3bc 17a0 693c 66d9 983d a829 02be
00000120: 284b d63d 209e a83d ba79 b53b 1b08 6e3d
00000130: ee4d 333d 4313 9ebd 46fa 493d a32f 8abd
00000140: 8a01 ee3d b6cd f5bc 3061 a3bd 9ec7 d53d
00000150: bbb4 7d3d dd82 a1bd a925 b0bc 302b fabd
00000160: fa94 ca3d d7dc bcbc e888 d23c ae9d 8e3d
00000170: 2b15 c939 76cf a5bd 8675 ae3d 8816 7b3d
00000180: a6e8 503d 94ba 963d 4a39 8e3d 5022 0fbc
00000190: 8abe b53d 9872 efbd b9c3 9ebb b42a 853d
000001a0: 0da5 ecbc 63f7 3abd 8855 f8bc 4fdc 6cbb
000001b0: a64c f0bb 4fc4 813d 33af 663d 5f96 edbd
000001c0: 2e27 c8bc 9745 ac3d 1ed0 ffbd 7ae8 3dbd
000001d0: df65 443d 03d2 963d bebb 84bd 3558 c1bc
000001e0: 8d4e b43d daec 21bd ab3d f7bd 478d f5bd
000001f0: c426 1b3d 059b 243d 79e2 aabd 8b49 933d
00000200: 7089 f0bc f784 8fbd 4009 de3c cd02 883c
00000210: b3f2 73bd d3de 8f3d c0b0 293d 8490 70bd
00000220: ecb6 373d 90f4 08bc 3623 5fbd 86c3 e33d
00000230: 1e7b cf3d 44fa 563d 3c6a 00be c0c0 3fbd
00000240: 9650 d6bd fc60 a43d c5de ccbd 25a5 e7bd
00000250: 6b0c 7b3d 6f2c bc3d 34e1 b9bd fa59 33bd
00000260: 5294 f639 d8ae 02be 0c89 f1bd fb0b 7b3d
00000270: faeb aebd 78bf 17bd 9427 f0bd 8be4 11bc
00000280: 6a04 1fbc 5b8a b73d 7cd8 dc3c ea46 b7bd
00000290: 9d78 f2bc 60da 1fbd ef4a 823d 27bc 413c
000002a0: d017 193d f092 afbd ab96 54bd 920e d0bd
000002b0: ec15 333d da0d 963c 049a ad3d e755 0d3d
000002c0: e388 c43d dc17 1b3a b28b 88bd fd31 f0bc
000002d0: 7025 b63d 870e 113c 94d0 84bd 193d bdbd
000002e0: 4c10 b63d 8939 68bd cccc 98bd 03ce 97bd
000002f0: 43cd a73d b695 223b db4c 343d f347 b4bd
00000300: 865b c5b9 2c92 acbd 901e 923c 9248 81bd
00000310: 426e 18bd 87e4 f1bd 187c ecbd 7153 efbd
00000320: 49c7 093e 69f6 9e3d c572 c8bd d8f8 ccbd
00000330: 879e c03b 58f5 553c 06d2 f43d 01a0 b43d
00000340: b8eb 293d a745 6d3d 8294 7dbc 0405 c43d
00000350: f483 35bd 9824 97bd 43b7 78bb c95c a2bd
00000360: 6b93 a1bd 7ddf afbd a679 e13d 57ab b6bc
00000370: 12f2 13ba 1c11 823d da36 dc3d f9cb 2d3c
00000380: 7eca 24bd 6d97 10bd e088 963d e91c b73d
00000390: 7f4b 0c3c 3ce2 0c3d 9be8 9fbc 8e7e 053e
000003a0: 14a8 63bd 61f7 033e 816d f6bc e97e b43c
000003b0: 5e8e 013e 22f1 aebd 2bdc 65bd cd35 eabd
000003c0: 6f43 9b3d 87d8 34bc 9ed1 ae3d 3b72 65bb
000003d0: 5ff2 753d 5a52 833d 077b 89bd e483 66bd
000003e0: 625f db3d a7fd 113d 1ce9 173d d32e b53d
000003f0: 1fd9 9cbc 2877 f23d a1f4 e63d 8c50 00bd
-0.09792648 0.042814776 0.11632183 0.0980597 -0.0017167327 0.07508636 0.075673416 0.12238918
0.0225179 0.03957407 -0.08928217 0.07927061 -0.04348477 -0.098348804 0.0051705213 -0.06308912
0.0011731982 -0.035222456 0.058940865 0.03615582 -0.045330558 -0.008418831 -0.034177113 -0.048965868
0.042092845 -0.11561084 -0.062182873 0.017557444 0.038777336 -0.0648707 0.048255615 0.046955347
-0.065931186 0.015950464 0.10965335 -0.017331783 0.008362782 -0.0027668928 -0.09887883 0.044060793
0.0006482994 -0.08116428 -0.0508202 0.06127509 -0.002384752 0.05854036 0.0019856263 -0.029548246
0.015165827 0.09655108 0.112875596 0.03332884 0.003991803 0.059190664 0.09975659 -0.11554676
0.036870256 0.055571027 -0.068650976 0.030638784 0.114892684 -0.05349842 -0.03399692 -0.01067122
-0.018123083 -0.11070939 0.09019652 -0.12400842 -0.02975953 0.01425936 0.074633405 -0.12711203
0.10463554 0.08233285 0.0055381926 0.0581132 0.04377549 -0.07718518 0.049310945 -0.06747367
0.11621387 -0.030005317 -0.079775214 0.104384646 0.061939936 -0.07886288 -0.021502333 -0.122152686
0.09891696 -0.023054523 0.025700048 0.06963669 0.0003835348 -0.08096211 0.085185096 0.061300784
0.05100312 0.07359806 0.06944521 -0.008736208 0.08874233 -0.11691779 -0.0048451093 0.065022856
-0.028887296 -0.045646083 -0.030314222 -0.0036142056 -0.007333356 0.06336271 0.056319427 -0.11600947
-0.024432745 0.08411711 -0.12490867 -0.046364285 0.047948714 0.07364275 -0.064811215 -0.02360163
0.08804045 -0.03953252 -0.12072309 -0.11989837 0.037878767 0.0401869 -0.083439775 0.071917616
-0.02936241 -0.07007783 0.02710402 0.016602898 -0.059557628 0.07024922 0.041428328 -0.05873157
0.044852182 -0.0083590895 -0.05447694 0.111212775 0.101309046 0.052484766 -0.12540525 -0.04681468
-0.10464589 0.08026311 -0.100034274 -0.11310796 0.06129114 0.091881625 -0.09076157 -0.04378698
0.00047031284 -0.1276201 -0.11793718 0.061290722 -0.08541103 -0.037047833 -0.11726299 -0.008904587
-0.009705642 0.08961936 0.026958697 -0.08949073 -0.029598529 -0.039026618 0.06361949 0.011824644
0.037376225 -0.08572948 -0.0519015 -0.10159029 0.04372208 0.018317152 0.08476642 0.03450575
0.095964216 0.0005916336 -0.0666727 -0.029320711 0.088938594 0.008853561 -0.064850956 -0.09240169
0.08889827 -0.056695495 -0.07460937 -0.074123405 0.081934474 0.0024808473 0.044018608 -0.08802786
-0.00037642958 -0.084263176 0.017836839 -0.0631267 -0.037214525 -0.11811166 -0.115471065 -0.11685837
0.13454928 0.07761843 -0.097875156 -0.10008401 0.005878273 0.013058983 0.11954121 0.08819581
0.041484565 0.057927754 -0.015477302 0.09571269 -0.044315293 -0.073800266 -0.003795103 -0.079278536
-0.07889446 -0.08587549 0.11009531 -0.022298498 -0.0005643676 0.063509196 0.107526496 0.010607713
-0.040232174 -0.03530066 0.073503256 0.08941061 0.008562922 0.03439544 -0.019520095 0.13036558
-0.055580214 0.12887336 -0.030081512 0.022033172 0.12651965 -0.08542086 -0.05611817 -0.11436043
0.07581221 -0.011037952 0.08536075 -0.0035010714 0.060045596 0.06412192 -0.06712919 -0.056278124
0.10711552 0.035642292 0.037087545 0.08846822 -0.0191465 0.118391335 0.11277128 -0.031326815

features_extractor.fc_merge.bias f4 [64]
00000000: abdc d03d c885 91bd 300c 953d 09c2 9a3c
00000010: d46d 23bd f731 56bd 6ff2 e3bd a874 903d
00000020: 4051 db3d 9097 80bd 3c7e 0c3d 9088 30bd
00000030: 300e b73b aa55 abbd 5f83 cebd 0234 03bd
00000040: fc6d 113d 3074 c43d abfb 19bd e769 e5bd
00000050: 4cc9 163e 9e10 053e d9ac 96bd 33be bebd
00000060: 052b 433c 7e73 873d 2287 cb3d 593c f1bc
00000070: 138b 863d 66d3 e8bd 43ff 0b3e db50 be3d
00000080: ef7b c1bc 12ff d0bd 4e7c e73d 5e79 c03d
00000090: 6e2b 9eba 2712 e73d be7b 3f3d f806 0b3d
000000a0: 1c73 c0bd 62ec aebb cf7c c33d de42 203e
000000b0: 011c a9bc 3030 6f3d 9584 dabd ea7d 2e3d
000000c0: f4f6 fcbd 9722 81bd c38f a9bd aadc 813d
000000d0: 15db e5bd a58b 9c3b 4007 86bd dc7f af3d
000000e0: 9522 843d 531b b73c 8f64 d83b 95f9 d3bd
000000f0: a810 39bd b0fd 173e a4a1 e23d d916 4b3d
0.10198339 -0.07105595 0.07277715 0.018891351 -0.039899662 -0.052293744 -0.11130225 0.070535004
0.107088566 -0.06278908 0.034300074 -0.043098986 0.005586408 -0.083659485 -0.10083651 -0.03203202
0.03550528 0.095924735 -0.037593525 -0.1120184 0.14725226 0.1299462 -0.07357187 -0.09313621
0.011912112 0.06613825 0.09937884 -0.029447721 0.06569495 -0.11368446 0.13671593 0.09292766
-0.023618666 -0.10204901 0.11303006 0.09398149 -0.0012067386 0.11282759 0.04674887 0.033942193
-0.09396955 -0.0053382376 0.0954529 0.15650508 -0.020643236 0.058395565 -0.10669819 0.04260055
-0.1235179 -0.063054256 -0.082793735 0.063409165 -0.11223427 0.004777389 -0.065443516 0.08569309
0.064519085 0.022351896 0.0066037844 -0.10350338 -0.0451819 0.14842868 0.11065987 0.049582336

actor.0.weight f4 [32, 64]
00000000: 1b64 dabb 78d7 fe3d 9326 88bd 9fa3 80bc
00000010: 7e91 953d baf3 9fbc f620 c23d c05b 713d
00000020: e749 f13d 1f0a f3bd 76e9 f03d 4258 b0bd
00000030: 586c 62bc 8cf8 25bc bdaf babd 6c6d e5bc
00000040: 457b 963d 2f83 1f3d 9aef 6ebd 5e1b b03d
00000050: 9800 02be d9f9 c1bd b528 2dbd 969f 493d
00000060: 71a9 613d 830b bbbd d155 a6bc a1fa 993d
00000070: 5bf6 e93d c982 87bd 8d20 c3bd d1de 713d
00000080: bd53 79bd 892b 7d3d 9fa5 823c 45c6 cb3d
00000090: e11a 983d 35da df3d 8a77 893c 918c adbd
000000a0: a976 79bc 5581 da3d 05f2 903b d7df 053d
000000b0: a3ae edbd 255b b53b d504 ad3b 7d68 cc3d
000000c0: 6e27 9dbd 2ed1 3f3d 55b9 c9bd abd5 10bd
000000d0: c0ca cb3d 2e11 093d e0d5 e5bd 3c22 9fbd
000000e0: 0c00 953d 9cc5 a6bc c91e 8c3d b589 ef3c
000000f0: 3c62 e73d f80f 4d3d 6b50 993d 1271 c63d
00000100: 2408 bfbd 2f21 3bbd f215 4f3d 6c96 ba3d
00000110: 9c5d 663d 6146 ebbd 1361 f3bd e7fb 703d
00000120: f45e 663d 2e8b f83d 2a5d 9a3d d052 62bc
00000130: 2dbb b33d c244 91bd e804 e4bd 18ee 8b3d
00000140: 1cd7 20bd 4d05 30bd c4c8 4d3d 931d cc3c
00000150: 49d1 77bd d580 c0bd db8e d4bc 3269 b0bd
00000160: d2ae 373d 7dad e2bd 80c8 86bd 5550 8cbd
00000170: ff3a 06be 5b17 78bd 9f1f a8bd 0665 bfbc
00000180: f393 d83d 0188 74bd d8a6 f83c eb0c c83d
00000190: 4123 913d e022 b1bc b8ff 61bd 8f9e cc3d
000001a0: 70f6 c1bc 569c 8a3b b3a4 b03d 1558 6abd
000001b0: f59e 373d c59c b63c 4254 893d 935e 3ebd
000001c0: a02b ae3c a3cc 77bc 4e68 073b ae0d 8dbd
000001d0: 482c ffbb 5bd8 e1bd 70bd e5bc 58b6 07be
000001e0: b750 d23d d9da e8bd c5bc aebc eee3 b53d
000001f0: de57 373d c8e4 f3bd 2e77 d13d 91cd 8d3d
00000200: 4490 73bd fcab c1bd 7472 d43d c63f 3a3d
00000210: faab cd3d c98a 2fbd 3ccb 4e3d 6872 c43d
00000220: 9fd0 e4bd 9ecb d3bd c0bf e93d ecc3 63bd
00000230: 347a 8e3d 0533 ecbd 9d24 93bd e06b 053c
00000240: b7fb a73d 97ba 9bbd fabd fd3d 9ed6 59bd
00000250: aea8 fc3d c50f 1f3d 0860 0dbd 5ccf ca3d
00000260: 9eeb babd 8914 aabc 5e7a d9bd 3484 90bd
00000270: 8fdd 6dbd b489 d7bd 7acb 973d 8ed6 84bb
00000280: 2169 1bbd dd5c 8d3d 0316 cd3d 4303 f63d
00000290: 2e8a 663d dc6f 013e 3fab b7bd 37cd 183d
000002a0: 74e1 7c3d e79a 803d f7a5 12bc ac68 983d
000002b0: ef74 ccbd 71ec 0fbd 4688 b53b 890e 903d
000002c0: 0789 8a3b fc9f 2abc ff45 0d3d 8fc4 163d
000002d0: 0cc7 cd3c d3be 6f3d 5cba a3bd 0faf 163c
000002e0: e829 923c b23e ad3d 0b29 4b3c 6e65 9ebc
000002f0: acc4 343d 298f b9bc 8d1e eabd 0083 2e3d
00000300: 8865 aebd d916 0e3b a756 d6bd 28e9 1ebd
00000310: 2c80 87bd 7c68 353b 63af a93d 31b8 d73c
00000320: 9ca7 a63d d15d c53d 5758 aebd b0e3 4ebd
00000330: 9576 0b3b dfac 8a3c aa15 e73d 7ba5 5e3d
00000340: 5a92 da3d 3dbe e9bd dd44 83bd 6bc4 2abd
00000350: 3ef8 69bc 6fe2 a0bd 073b cd3c 70a1 e1bd
00000360: 7b54 9d3d 6b54 78bd 1da3 a23d 21d7 813d
00000370: 9915 bcbd 67ad e5bd 7eab cf3d fdfd 853d
00000380: de75 d93c 6978 afbd ebdb c73d 3451 46bc
00000390: 3870 0abe 3be6 9f3d a233 20bd 04c3 803d
000003a0: 5cbe 753c efaa bd3d afe0 363d a997 3d3d
000003b0: 1718 9e3d 3c74 2c3d 0b88 a93d 76ea ed3d
000003c0: 221d 353d 98ff ac3d 1ff4 e53d f619 913d
000003d0: a465 c93d ee89 87bc 0844 cfbd 4352 8d3d
000003e0: 8189 593d 60af 7e3d 527b aebd df84 08bc
000003f0: 9058 f0bc 6328 b6bd 649b 083d 68e4 d0bd
-0.0066647655 0.12443441 -0.066479824 -0.01570302 0.07303141 -0.019525398 0.09478943 0.05892539
0.11781674 -0.11867165 0.11763279 -0.08610584 -0.0138197765 -0.010130059 -0.09115551 -0.028006278
0.073477305 0.038943466 -0.05833397 0.0859897 -0.12695539 -0.09471483 -0.04227515 0.04922446
0.055093233 -0.09133055 -0.020304592 0.07518507 0.11423942 -0.06616742 -0.09527693 0.059050385
-0.060870875 0.061809096 0.015948115 0.09949926 0.07427002 0.109302916 0.016780633 -0.084740765
-0.015226045 0.106691994 0.004423382 0.032684173 -0.11605575 0.005534547 0.005280117 0.09980867
-0.07673536 0.04683035 -0.098498024 -0.03536002 0.09950781 0.03346365 -0.11222434 -0.077702016
0.072753996 -0.0203579 0.06841809 0.029240469 0.112980336 0.050064057 0.07486042 0.09689535
-0.093277246 -0.045685943 0.050558038 0.09110722 0.056241617 -0.11488033 -0.1188375 0.058833983
0.056242898 0.121359214 0.07537301 -0.013813689 0.08775935 -0.07093193 -0.11133748 0.06832522
-0.039267644 -0.042973805 0.050240293 0.024916446 -0.060502324 -0.09399573 -0.025947025 -0.086138144
0.044844456 -0.110682465 -0.06581211 -0.068512596 -0.13108443 -0.06056915 -0.08209156 -0.023363601
0.10575094 -0.059700016 0.030352995 0.09768089 0.07086802 -0.021623075 -0.055175513 0.0999118
-0.02367708 0.0042300625 0.08625164 -0.057212908 0.044829328 0.02229155 0.06705524 -0.04647691
0.021261036 -0.015124473 0.0020661536 -0.06887375 -0.007787261 -0.11027595 -0.028044432 -0.13253152
0.102693014 -0.11369867 -0.021330247 0.08881365 0.04476153 -0.11908871 0.1022781 0.06923974
-0.059463754 -0.094566315 0.10373393 0.045470975 0.100425676 -0.042856965 0.05048679 0.09592134
-0.11172604 -0.10341571 0.114135265 -0.055606768 0.06956902 -0.11533169 -0.07184718 0.008143395
0.08202308 -0.076039486 0.12389751 -0.05318319 0.123368606 0.0388334 -0.03451541 0.09902832
-0.09126972 -0.020761745 -0.10619043 -0.07056466 -0.058072623 -0.10524312 0.07411857 -0.004053897
-0.037942056 0.06902478 0.10013964 0.12012341 0.056284122 0.12640327 -0.089682095 0.037305083
0.061738446 0.06279545 -0.008950702 0.074418396 -0.09983241 -0.035137597 0.0055399267 0.07034022
0.0042277607 -0.01041412 0.03449058 0.036808547 0.025119327 0.058531594 -0.079945296 0.009197011
0.017842248 0.08459224 0.012399922 -0.019335475 0.044132873 -0.022651272 -0.11431608 0.0426054
-0.08515459 0.0021681099 -0.104657464 -0.038796574 -0.06616244 0.0027680686 0.082854055 0.026332946
0.08137438 0.09637035 -0.08512943 -0.05051011 0.0021280397 0.016928134 0.11283429 0.054357033
0.106724456 -0.11413238 -0.06409619 -0.041691225 -0.014280377 -0.07855689 0.02505256 -0.1101712
0.07682129 -0.060627382 0.07941268 0.06339861 -0.09183807 -0.112147145 0.101401314 0.06542585
0.026545461 -0.08567888 0.09758743 -0.012104321 -0.1351937 0.07807585 -0.03911174 0.06287196
0.0149989985 0.092611186 0.04464787 0.046287213 0.077194385 0.042103037 0.08277901 0.116169855
0.044217236 0.08447188 0.11228203 0.0708503 0.098338395 -0.016545262 -0.10120398 0.06900456
0.05310965 0.06217897 -0.08519615 -0.00833246 -0.029339105 -0.08894422 0.033351317 -0.10199815

actor.0.bias f4 [32]
00000000: 1b1a 0a3c 58eb bdbd 6fe5 383d f3c5 10bd
00000010: e42a 84bd b553 02be feb0 853d 9bed adbc
00000020: ec04 44bc 4c73 44bd df55 72bd e494 eb3d
00000030: b0bc c4bd c9ea 60bd ce94 803d affb b3bd
00000040: 0e5d 79bd 6fc8 f03d fc38 70bd 0647 0ebd
00000050: 0cd2 6ebd 0a2c debd 8848 df3d 5346 debd
00000060: 4ef4 f93d e793 d13c b391 b23d b988 e0bd
00000070: 8080 f53b 6555 19bd 262a 9b3d d874 b7bd
0.008429076 -0.09273404 0.04514068 -0.03534503 -0.06453493 -0.12727244 0.06527899 -0.021231463
-0.011964064 -0.04796152 -0.059163924 0.11503008 -0.09606302 -0.05491141 0.06278382 -0.08788239
-0.06087976 0.1175698 -0.058648095 -0.034735702 -0.058305785 -0.108482435 0.10902506 -0.10853257
0.122048005 0.02558322 0.08719196 -0.10963578 0.007492125 -0.037434954 0.075763986 -0.08957833

actor.2.weight f4 [10, 32]
00000000: 5755 1d3d d8aa af3d cb0e 173e c146 083e
00000010: ef11 233e 5fd6 1cbd 8994 26be 7cdc 66bd
00000020: c6d5 153e e84e f93c 7efb d8bd e728 863d
00000030: 2ff6 f53d 2034 533d d801 953c 0279 2ebe
00000040: fece 1fbe f870 25bd f4bf 093e 7538 a5bc
00000050: eef0 05be 5a6f 6b3d 049d 2b3e 56d6 c03d
00000060: 5a85 76bd a12f a53d 2226 bf3d c3a2 00bd
00000070: 3f13 cb3d c546 09be e689 9e3b 0591 7b3d
00000080: e0d3 b13d 996f b4bd 76e1 2b3e 2eb3 34be
00000090: 88c6 f13d 11ed 27bd 0fb6 223d 0b99 b8bd
000000a0: 4607 25be 42f0 163e 4cf9 17be 6207 8ebb
000000b0: 2097 1a3e 88ca 52bb 7002 2a3e 4588 fe3d
000000c0: 94ff 98bd 478e f1bc 6654 d0bc fd5e bdbd
000000d0: db6f c03d 0368 873d 7028 07be 36f8 b5bc
000000e0: aeb5 2f3e 6912 173d cac8 edbc 2cf4 233e
000000f0: a303 58bd a415 063e bd4b c6bd fb82 9fbc
00000100: 3a09 033e 5e35 653d 8935 7bbc 6eff 263e
00000110: 5b9b 62bc 96fa 00bd 7d56 39be c026 253e
00000120: 1ac6 113e 708f 3e3e 641e f9bd 25ac a9bd
00000130: 9256 10be 5576 9bbc 3407 1fbe b773 af3d
00000140: 949d e03a 3e89 0fbe cf95 a9bd e10d 16be
00000150: d0b7 9cbc 42c2 1bbe 1593 f3bc 9eb1 0f3e
00000160: 909b ce3b d825 293d 48e7 e33d 2c25 a2bd
00000170: d833 243e 8807 82bb 1066 24be df65 2cbe
00000180: e35c 82bd af85 3dbd 300f dbbc 7ca1 f43d
00000190: 0fa5 efbd c48d 033d a61b 523d 123d 17be
000001a0: dec2 6f3d e76d 9a3d 7287 093e baeb c7bd
000001b0: f7ce 00be 1f34 15be 6219 2bbe 9041 acbd
000001c0: f692 10be 7857 eebd 2309 33bd 93b4 37be
000001d0: ff63 0bbe aab8 9b3d 78d0 8bbd a0ea 333d
000001e0: 37e3 26be d8ae e2bd 9dcc 85bd 4c0e 0d3e
000001f0: 5412 46bd b2a0 2e3e 94d0 3a3e d05d 023d
00000200: 44fa a6bc 7442 06bd 4189 4eba 7d56 21be
00000210: 19b4 12be 09e0 673d 1b36 af3d af8e 853c
00000220: 1bd8 a3bd 7934 07bd 281a 15be 40e9 a5bd
00000230: aa3d cd3c c75e 4c3d 1bea 14be e4e8 c13d
00000240: 2bff e33c 8755 16bd cf21 1f3c 0acf c43d
00000250: 64b6 da3d 2139 ed3b a509 e93d d79e 663c
00000260: e2b7 ee3d c9ae debd 027c a83d 40de c8bd
00000270: 1e4b 1b3d 3cf4 d7bd 8b35 94bd c908 71bd
00000280: d52a 9ebd 9199 043e 496a d0bd 94eb 87bc
00000290: 902b f23d f050 df3d 5361 913c 0d4f 9b3d
000002a0: f334 0c3e b2d6 133e fc9e 0f3e 53d2 a53d
000002b0: 11ad f83c de2b d83d 5602 edbd 7fad 38be
000002c0: bc10 843d 4180 f83d 9787 873d 0469 5c3d
000002d0: b08c 283e bf9c b53c d43f f6bd 851b d5bd
000002e0: 296d 073d 3c6d 43bd 7914 363b e6f0 043d
000002f0: 32f6 19be bbb2 17be 89a3 e23a 6c8a 7e3d
00000300: b5c1 1cbe c9f9 2d3e a227 2d3c 1de7 d93c
00000310: 6642 163e f7fb c2bd acf6 8c3b 6687 1cbe
00000320: 5cf5 12be 3216 183e d461 0d3e 2f88 dc3d
00000330: f5e5 24be ca61 9cbd b169 c53c 3050 013e
00000340: 5507 04bd 44eb f239 244d 653b d4e7 dabd
00000350: 9e11 81bd f0fd f7bc 3c64 0fbd cb79 85bd
00000360: ba8d b7bd f85a 0b3e a4fa 11be f0c4 0b3e
00000370: dbdf e3bd 6730 0dbe 995d 03be db79 c5bd
00000380: 3fe0 f9bd 6d8e 1d3e 5b3a 273e b741 23be
00000390: b5b0 a2bd 2bfa babd 7f0d 40bd e21c 943d
000003a0: 4120 0cbe d52a 29be ddf7 22bd 979a cb3d
000003b0: 7d58 a7bd 1811 e03d cc04 e03a e2e8 663c
000003c0: 507c a4bd 2163 2b3d 74ff b23d 1959 0abe
000003d0: b585 0ebd 0551 1f3d f7f8 2abc 2321 7f3d
000003e0: d4cb 873d 08a1 16be ee52 edbd a37c 15bd
000003f0: bb32 cebc 0ef9 a8bd c196 aabd 1453 76bd
0.038411465 0.08577508 0.14751737 0.1330824 0.1592481 -0.038290378 -0.16267599 -0.056362614
0.1463233 0.030433133 -0.10594843 0.0655077 0.120098464 0.051563382 0.018189356 -0.17038348
-0.15606305 -0.04039094 0.1345213 -0.020168522 -0.13080189 0.05747924 0.16759115 0.09415881
-0.060185768 0.08065725 0.09333445 -0.03140522 0.0991578 -0.13405903 0.004838216 0.0614176
0.0868299 -0.08810348 0.16785225 -0.17646477 0.11805445 -0.04099757 0.039724406 -0.09013566
-0.16116056 0.14740089 -0.14841193 -0.004334376 0.15096712 -0.0032164175 0.16602492 0.12428335
-0.07470623 -0.029486788 -0.02543087 -0.09246633 0.09396335 0.066116355 -0.1319902 -0.022213083
0.17159149 0.03688279 -0.029026408 0.16011113 -0.052737843 0.13094193 -0.09682415 -0.019471636
0.12796488 0.055959098 -0.015332588 0.16308376 -0.013830985 -0.031488977 -0.18099399 0.16128063
0.14235726 0.18609405 -0.12164 -0.08284787 -0.14095524 -0.018977324 -0.15530092 0.08566993
0.0017136806 -0.14017197 -0.08280527 -0.14653732 -0.019130617 -0.15210822 -0.02973322 0.140326
0.0063051656 0.041295856 0.11128098 -0.07917246 0.16035402 -0.003968183 -0.16054559 -0.16835736
-0.06365373 -0.04627007 -0.02674064 0.11944863 -0.11701404 0.03211762 0.0512959 -0.1476939
0.05853545 0.075404935 0.13430575 -0.09761758 -0.12578951 -0.14570664 -0.16708902 -0.084109426
-0.14118561 -0.11637777 -0.043709885 -0.17939977 -0.13612364 0.07603581 -0.06826872 0.043924928
-0.16297613 -0.11068505 -0.065331675 0.13774985 -0.048357323 0.17053488 0.18243629 0.031827748
-0.020383008 -0.03277822 -0.0007878729 -0.15755649 -0.14326514 0.05661014 0.08555242 0.016303388
-0.08000203 -0.033009026 -0.14560759 -0.081011295 0.025053818 0.049895074 -0.14542429 0.094682485
0.027831635 -0.03670266 0.00971265 0.09609802 0.106793195 0.0072394763 0.11378793 0.014075956
0.116561666 -0.108731814 0.082267776 -0.09808016 0.037913434 -0.10544631 -0.07236775 -0.05884627
-0.07723013 0.12949206 -0.10176522 -0.016591825 0.11824715 0.109041095 0.017746603 0.07583437
0.13692074 0.14437369 0.14025491 0.08096757 0.030355962 0.10555242 -0.11572711 -0.18034934
0.06448504 0.121338375 0.066176586 0.05381109 0.16459918 0.022169469 -0.12023893 -0.104056396
0.033063088 -0.047711596 0.0027783199 0.0324563 -0.15035322 -0.14814274 0.0017291169 0.062143728
-0.15308268 0.16989817 0.010568531 0.026599461 0.14673766 -0.09520715 0.0043018665 -0.15286025
-0.1435141 0.14852217 0.1380685 0.107681625 -0.16103347 -0.07635839 0.02409825 0.12628245
-0.032233555 0.00046333123 0.0034988606 -0.10688749 -0.06302188 -0.030272454 -0.0350077 -0.06517371
-0.08962579 0.1360892 -0.14255768 0.13649344 -0.111266814 -0.13787995 -0.12828673 -0.09642383
-0.12200975 0.15386362 0.16330855 -0.15943037 -0.079438604 -0.09129747 -0.04688787 0.072320715
-0.13684179 -0.16520245 -0.039787162 0.09941595 -0.08171175 0.109407604 0.0017091273 0.0140936095
-0.08031523 0.041842584 0.0874013 -0.1351055 -0.03479548 0.038895626 -0.010435334 0.06228746
0.06630674 -0.14709866 -0.11588083 -0.036495816 -0.025170675 -0.082506284 -0.08329535 -0.060137823

actor.2.bias f4 [10]
00000000: 73b1 cc3d 1549 023e cb71 e2bd 3c22 4e3d
00000010: bada 8e3d e055 60bd c704 19be 5a02 f7bd
00000020: b269 0e3e af3e 29be
0.09994783 0.12723191 -0.110568605 0.050325617 0.069753125 -0.054769397 -0.14943229 -0.120609954
0.13907507 -0.16527818

critic.0.weight f4 [32, 64]
00000000: cd01 b7bd 94fe fa3d 61fa edbd d81d 413d
00000010: eec9 ca3d e57c c9bd 7417 ff3c 2f70 f5bc
00000020: 8def 663d 5231 82bd b25b b63d b09b a2bd
00000030: dc27 fe3c b2e0 f63d 814e bdbd a431 48bd
00000040: 4781 93bd aae8 a33d 4e98 fcbc 9dfb 88bd
00000050: 8a8e 57bb e06d 9bbd 843b 97bd 838a 6c3d
00000060: 2b26 ae3d c97d 1a3c 49f7 0dbd c3e0 49bc
00000070: ab88 903d 4566 f7bd eb66 993d e68a 9e3d
00000080: f79c 7ebd a833 523c fba3 fb3d 61c9 953d
00000090: b41e d63d b28d d9bd fb18 f5bd 37ed 723d
000000a0: 1d94 bf3d b254 d63d 3d3d ddbd 9321 42bc
000000b0: 1d33 59bd fdb4 49bd 152b b8bd d6bd 25bc
000000c0: c84d 82bc 604a d8bd 8a73 8cbd 76fa f13d
000000d0: e5b2 673d 0eb5 073e 127b d23d 842c a83d
000000e0: 1c1a 123e ef06 893d 106d b63d 1627 dd3d
000000f0: 10da f0bd 1e76 be3d 713d 40bb 1474 c33b
00000100: 22da fcbc c661 d2bd 6f6b bbbd 0fe0 93bd
00000110: 00b3 f6bc 09f8 db3d 7122 da3d bb53 37bd
00000120: 4762 953d 5463 7f3d 110b a73c 5026 d6bd
00000130: c0eb 4a39 1ddd 21bd ebde 00be 87bf f83d
00000140: ac6b a43d 8337 3bbc 6fba 873d f492 9a3d
00000150: f934 d6bd 86e1 7abd 4121 b23c e01a 043e
00000160: db61 6c3c 3e89 253d bd4b 8f3d 75cd c83d
00000170: 0b16 e5bc 21f2 7cbd aa8a 80bc fd06 1ebd
00000180: 878c 283d 8abf 1fbb 38e2 9cbd bf37 d73d
00000190: c49c c7bd ff2a 5cbc 7332 20bb 8769 9a3c
000001a0: 507f 93bd 0c53 a83d 53f3 703d f6d2 49bd
000001b0: 1cc6 f2bc be93 6cbd 7e64 3dbd bb55 9f3d
000001c0: 6820 69bd 0acd 843b 727d e1bc 386b b53d
000001d0: 2e1d ef3c 6c69 dbbd 8c5a 1bbd a598 f53d
000001e0: 3124 193d 424f 963d 86bc 8c3c 97cc efbd
000001f0: 52df 0a3c 599b 843d 6c15 f7bd 230c bd3d
00000200: 5692 a43d 720c a1bd c1a0 ee3d a678 dd3d
00000210: 4c1d 313d 37ef fc3d 50ba dcbc 69d0 133c
00000220: b021 003e 61b3 e2bc 16d8 043d f2fb e93d
00000230: 537c b1bd 7030 943d d009 c6bd 6b40 c3bd
00000240: bed1 d2bd 4a15 743d 614c 9fbd 601e 403c
00000250: ee9c 1d3e b367 243d 8e48 003e 4478 073b
00000260: 92c4 7c3c 5e3b 06be 956b bd3c b005 b4bd
00000270: 07a0 163c 73a1 473d 488d 6a3d 25be 9abd
00000280: d401 d43d 5314 b23d cca7 fdba bd87 babc
00000290: b1d6 baba a5a6 903d b22b 023e 5e95 e93d
000002a0: e07e 7abd 41c6 2bbb 9730 4dbd 92a5 5b3d
000002b0: c38f 973c b34e 7fbd 1083 293d 4d8f b33c
000002c0: 1d6e e13c 504e 95bc 507f ad3d 44a5 d9bd
000002d0: bf80 843d e8a2 44bd c050 b33d b6c1 923c
000002e0: cb5a 9d3c d55a 6b3d 03a4 523d f049 4b3d
000002f0: 0294 0d3c 3c96 aabc ecf4 853d cc32 98bd
00000300: 3582 ec3d ea4c 423d 628a c7bd 5703 f43c
00000310: dae7 d2bd aa25 2dbd f743 5f3d d574 98bd
00000320: 5abf b9bd 2774 e2bd 69b4 2c3c a02e 82bc
00000330: afb8 8f3d af49 bf3d ac0a 4fbd 3835 1ebd
00000340: 9569 abbd 56e8 6a3d ad71 83bd e03b 6cbd
00000350: a127 b4bd 2f2b 2e3d bed1 cf3d 02ea e7bd
00000360: 3c44 06be be8f 26bd 14ad 3abc 3fa4 493c
00000370: 5f50 873d 64c2 40bd f0f3 93bd 4d48 d2bd
00000380: 06bb 0ebd 2449 cb3d af9b d5b9 e500 1ebd
00000390: 0541 07be aefc 113b 4057 6e3d e4a2 4b3d
000003a0: 54a8 d6bd 0ad9 fa3c 5978 39bd abd8 483d
000003b0: da8a 4f3c 8fe5 04be 1473 243d e971 b03d
000003c0: 047c 5c3d 0897 9c3d 4bb9 8d3b f2ba cd3c
000003d0: 7755 a3bd 72bd b63c 82ce eb3d 078d f73c
000003e0: 02d2 c1bb e300 693d 4371 6b3d 236d 043d
000003f0: e165 94bd de58 093d 5e08 1b3d 2621 adbd
-0.0893589 0.12255588 -0.116200216 0.0471476 0.09901796 -0.09838275 0.031139113 -0.02996072
0.056380797 -0.06357063 0.08904208 -0.07939851 0.031024866 0.12054576 -0.09243489 -0.048875466
-0.07202392 0.080033615 -0.030834343 -0.066886164 -0.0032891356 -0.07589316 -0.073843986 0.057749283
0.08503374 0.009429404 -0.034659658 -0.012321654 0.07057317 -0.12080053 0.07490333 0.077413365
-0.062161412 0.012829699 0.12287136 0.073138006 0.10455075 -0.10622729 -0.11967655 0.059308257
0.09354422 0.10465373 -0.10802696 -0.011848825 -0.05302726 -0.04924487 -0.08992592 -0.010116061
-0.01590623 -0.10561061 -0.06857975 0.1181535 0.05656709 0.1325266 0.1027738 0.08211616
0.14267772 0.066907756 0.08907521 0.10798471 -0.11760342 0.09299873 -0.0029333497 0.0059647653
-0.030865733 -0.10272555 -0.09151351 -0.0722047 -0.03011465 0.10740668 0.106511004 -0.044757586
0.072941355 0.062350586 0.020391019 -0.10456526 0.00019352045 -0.03951751 -0.12585036 0.12145906
0.08028349 -0.011426809 0.06627356 0.0754756 -0.104593225 -0.061250232 0.021744372 0.12900877
0.014427627 0.040414087 0.06996868 0.09804813 -0.027964612 -0.06175435 -0.01569112 -0.038580883
0.041149642 -0.002437564 -0.07660335 0.105086796 -0.097466975 -0.013437985 -0.0024444133 0.018849147
-0.07202017 0.08218965 0.058825802 -0.049273454 -0.029635482 -0.057758085 -0.046238415 0.07780024
-0.05691567 0.004052763 -0.027525637 0.08858341 0.029188719 -0.10713467 -0.03792815 0.11992005
0.03738803 0.07339336 0.017179739 -0.11708944 0.008476095 0.06474943 -0.12064633 0.092308305
0.08035724 -0.07863702 0.11651755 0.108140275 0.04324083 0.12350314 -0.02694431 0.009021857
0.12512851 -0.027673425 0.032432638 0.11425008 -0.08666291 0.07235801 -0.0966984 -0.09533771
-0.102939114 0.059590615 -0.0777824 0.011725992 0.15391895 0.040137958 0.12527677 0.002067105
0.015427725 -0.13108584 0.023122588 -0.08790147 0.009193427 0.048737954 0.057263643 -0.075557984
0.10351911 0.08695283 -0.0019352376 -0.022769803 -0.0014254657 0.07063035 0.12711981 0.11405443
-0.061156154 -0.0026210698 -0.050095167 0.053624697 0.018501168 -0.062330913 0.041384757 0.021918917
0.027518326 -0.018225819 0.084715486 -0.10627225 0.06469869 -0.048006922 0.08755636 0.017914634
0.019208333 0.05745967 0.051425945 0.04963106 0.008641245 -0.02082359 0.06540856 -0.07431564
0.115482725 0.047436632 -0.09743191 0.029786749 -0.102981284 -0.042272247 0.054508176 -0.07444159
-0.090697005 -0.110573106 0.01054106 -0.015891373 0.070176475 0.09340226 -0.050547287 -0.038624972
-0.083697475 0.05735048 -0.06418166 -0.05767429 -0.08796621 0.04252165 0.10147427 -0.1132393
-0.13111967 -0.040664427 -0.011393804 0.012307226 0.066071264 -0.047060385 -0.07224262 -0.102676965
-0.03484633 0.0992606 -0.0004074252 -0.03857507 -0.13208397 0.0022275853 0.058188677 0.04971589
-0.10481325 0.03062107 -0.045280788 0.049034756 0.012667382 -0.12978195 0.04014881 0.08615477
0.053829208 0.076459944 0.004325067 0.025113557 -0.079752855 0.022307131 0.115139976 0.030218614
-0.0059149275 0.05688561 0.05748106 0.032330643 -0.07245994 0.033532016 0.037849776 -0.08453588

critic.0.bias f4 [32]
00000000: 9ac4 bbbd 32cd e0bd b50e 843d 6946 5bbd
00000010: c231 d03d 6ade c1bb d57a d3bd f9a0 fdbc
00000020: d280 e73d 6355 99bd c826 9dbd 4134 37bd
00000030: d5f7 043e f191 8b3b 262a 94bd fbc3 0f3e
00000040: e374 82bd 6780 0f3e 0e21 02bc d60c 0fbc
00000050: fbef b43d b872 873d f32e 083e e9fc 51bd
00000060: 9f3a 423d 5952 e63c 855d 0c3e 0952 4d3c
00000070: 71ef 1abd c132 043e 0eaf 81bc d485 f3bc
-0.09168358 -0.10976638 0.06448118 -0.053533945 0.101657405 -0.0059164064 -0.10326163 -0.030960547
0.113038674 -0.07486989 -0.076734126 -0.044727568 0.12985165 0.004259341 -0.07234602 0.14039604
-0.063699506 0.14013825 -0.007942451 -0.008731088 0.08834835 0.06613678 0.1329916 -0.051266585
0.047419187 0.028115438 0.1370755 0.012531766 -0.037826005 0.12909986 -0.015830543 -0.0297269

critic.2.weight f4 [1, 32]
00000000: 483a ab3b cf66 36be f9be 2e3e ded5 cebc
00000010: 6f14 063e f93e 483c 0cc1 153e 103c 05be
00000020: ef73 c73d a0f8 d03c 51d4 ee3c 8962 353e
00000030: c87b e93d be9f 85bd bbfa 00be 20aa 263e
00000040: cd95 673d fdb9 893d 5871 bbbd 303d 9e3d
00000050: 241c 0a3e 2882 0ebc fc6d bf3d 2b1b a63c
00000060: 1dd8 efbd 65c9 3a3e 79de 623d 6589 0c3d
00000070: e6f2 283e e66d 683e 1a1d 20be 5d1f 6bbc
0.0052254535 -0.17812656 0.17065038 -0.025248464 0.13093732 0.012222045 0.14624423 -0.13011193
0.097389095 0.025509179 0.029153975 0.1771337 0.114005625 -0.06524609 -0.12595646 0.16275835
0.056539346 0.067249276 -0.09152478 0.07726514 0.13487297 -0.008698024 0.0934715 0.020276627
-0.11711142 0.18240888 0.055387948 0.034310717 0.16498908 0.22698173 -0.15636101 -0.014350739
