carlike_lessOl/model_540.pth (torch, 54414 bytes, 15 tensors)

features_extractor.conv1.weight f4 [16, 4, 4]
0	0x3efaafab	0.4896215
1	0x3e994bc6	0.29940623
2	0x3da4bae3	0.08043458
3	0x3d84d625	0.06486157
4	0x3d909c5d	0.07061074
5	0xbcd1040c	-0.025514625
6	0xbe4546d7	-0.19265305
7	0x3daadb5b	0.0834262
8	0x3d186c5d	0.03721272
9	0x3e649866	0.2232376
10	0xbc8d8244	-0.01727403
11	0x3e372f5f	0.17889164
12	0xbdec26ef	-0.115308635
13	0xbdd9b09a	-0.10629387
14	0x3ca8ea1b	0.020619443
15	0xbe12f92a	-0.14352861
16	0xbc6629ff	-0.014048099
17	0xbeb5c050	-0.35498285
18	0xbe95da99	-0.2926834
19	0xbeab3b49	-0.33443668
20	0x3e652f97	0.22381435
21	0x3e848ae6	0.2588722
22	0x3e893e36	0.26805276
23	0xbde54b02	-0.11195947
24	0x3c6b5d57	0.014365516
25	0x3e796993	0.2435668
26	0xbd31af13	-0.043379854
27	0xbe192b06	-0.14957818
28	0x3d49db8c	0.04928164
29	0x3e761d1d	0.24034543
30	0x3e7949a0	0.24344492
31	0xbe306506	-0.17226037
32	0xbd796b1c	-0.060893163
33	0xbb07b204	-0.002070547
34	0xbdba7797	-0.09104841
35	0x3e96c8ab	0.29449973
36	0x3e379fab	0.17932002
37	0x3e3b63c2	0.18299773
38	0x3aaf6fab	0.001338472
39	0x3e2e366e	0.17012951
40	0xbdd939dc	-0.10606739
41	0x3e890f06	0.26769274
42	0x3e92ce10	0.28672838
43	0x3d92078e	0.07130347
44	0x3d8be9d2	0.06831707
45	0x3e2e5dea	0.17028013
46	0xba900583	-0.0010987971
47	0x3e73ed50	0.23820996
48	0x3e9cbd20	0.3061304
49	0x3d189a2b	0.0372564
50	0x3e7484e8	0.23878825
51	0x3ed02d7b	0.406597
52	0x3c9a8ca2	0.018865887
53	0xbe33d409	-0.17561354
54	0x3e08ed25	0.13371713
55	0x3e64f479	0.22358884
56	0xbe095939	-0.13412942
57	0xbc93ee66	-0.018058013
58	0x3d9d93cf	0.07694208
59	0x3e5ff8a5	0.21872194
60	0xbe1fffec	-0.1562497
61	0xbe2f0b07	-0.1709405
62	0x3ca7d342	0.020486478
63	0xbc443650	-0.01197584
64	0x3e9737ec	0.29534853
65	0x3ee6aeb8	0.45055175
66	0xbd0fbb95	-0.035091
67	0x3e6c9cc5	0.23106678
68	0xbdab2b68	-0.083578885
69	0x3ded86dd	0.11597989
70	0xbda27dd3	-0.07934155
71	0x3ce37406	0.027765285
72	0x3dfbc21d	0.122928835
73	0x3dfb0e85	0.12258629
74	0x3cf36bc6	0.029714476
75	0x3e1def80	0.15423393
76	0x3e82384e	0.25433582
77	0xbd83872f	-0.064222686
78	0x3e7c9e38	0.2466973
79	0x3e403efa	0.18774024
80	0x3e25d7d6	0.16195616
81	0x3ec7382a	0.38910037
82	0x3e6cf058	0.23138559
83	0x3ed993d0	0.42495584
84	0x3e642dde	0.22283122
85	0xbe717e52	-0.23583344
86	0xbe30de05	-0.17272194
87	0x3ca7c311	0.020478757
88	0xbe3c0ebe	-0.18364999
89	0x3c3f760e	0.011685861
90	0xbd3cf4aa	-0.046131767
91	0x3aef1c2f	0.0018242652
92	0xbdfb918c	-0.1228362
93	0x3bcdc0c7	0.0062790844
94	0xbe053afd	-0.13010783
95	0x3ce347e1	0.027744235
96	0x3eb2716e	0.34852165
97	0x3eb8a640	0.3606434
98	0xbbb0ca3b	-0.0053952015
99	0x3eb85183	0.35999689
100	0x3e82b600	0.2552948
101	0xbde9a8a0	-0.11409116
102	0x3e6fe15b	0.2342581
103	0xbdd0c45d	-0.10193703
104	0x3e02dbc3	0.12779145
105	0x3e84034a	0.2578376
106	0xbe640ead	-0.22271223
107	0xbd38c6ad	-0.045111347
108	0x3c65827d	0.014008162
109	0xbd98ef0a	-0.07467468
110	0x3e1d56d3	0.15365152
111	0xbe37f5b4	-0.17964822
112	0x3ce95fd0	0.02848807
113	0xbe412458	-0.1886152
114	0xbda1c144	-0.078981906
115	0xbc691180	-0.014225364
116	0xbe1411cc	-0.14459914
117	0xbe620d8c	-0.2207548
118	0xbe2bdc4e	-0.16783258
119	0xbe19ca84	-0.1501866
120	0x3d646de8	0.055768877
121	0x3c353940	0.011061013
122	0x3e6e4e1c	0.23271984
123	0x3ccb9ce0	0.024855077
124	0xbe02e6f6	-0.12783417
125	0x3e31988a	0.17343345
126	0xbc073020	-0.00825122
127	0xbdbf5e24	-0.09344128
128	0x3eb43ad1	0.35201123
129	0xbd0e62ab	-0.034762066
130	0xbdc631f3	-0.09677496
131	0xbe0f3c39	-0.13987817
132	0x3e601511	0.21883036
133	0x3e632d62	0.22185281
134	0xbd44f55f	-0.048085567
135	0x3e8d8b88	0.27645516
136	0xbdd6fd41	-0.10497523
137	0x3e614aea	0.22001234
138	0x3e26ff45	0.16308315
139	0x3d8a89a9	0.06764538
140	0xbe3a4c8b	-0.18193261
141	0x3e321a44	0.17392832
142	0x3dfe246c	0.12409291
143	0x3ce3d116	0.02780966
144	0xbc4adaa2	-0.012381228
145	0xbd3f840a	-0.04675678
146	0x3ea62a2c	0.3245405
147	0x3f00b990	0.50283146
148	0xbe4552c5	-0.19269855
149	0x3d3ddbd2	0.046352215
150	0xbe108269	-0.14112248
151	0xbc013eb2	-0.007888483
152	0x3e24bab9	0.16086854
153	0xbc1ee011	-0.009696976
154	0x3d5cd4ea	0.05391399
155	0x3cdd6996	0.027027886
156	0x3da64927	0.081194215
157	0x3debb3f3	0.11508932
158	0xbe5feabf	-0.21866892
159	0xbe1392ab	-0.14411418
160	0x3d2030ea	0.039109148
161	0x3d244fb4	0.040115073
162	0xbd35365a	-0.044241287
163	0x3edf86a0	0.43657398
164	0x3d51cb05	0.051219005
165	0x3e11e775	0.1424845
166	0xbc12c568	-0.008958198
167	0xbdd26d4a	-0.102747515
168	0x3e5a6795	0.21328576
169	0x3dbe72de	0.09299253
170	0xbe2c552e	-0.16829368
171	0x3d11c3ea	0.03558723
172	0x3e597c47	0.21238814
173	0x3da036f6	0.07822983
174	0x3d38941c	0.045063123
175	0xbdbab519	-0.09116573
176	0x3e907ec8	0.28221726
177	0x3dc7ea3e	0.09761475
178	0x3d05aa6e	0.032633238
179	0xbdf2739b	-0.11838456
180	0x3e5e115f	0.21686314
181	0xbd6f0688	-0.058355838
182	0x3e67a9e7	0.22623406
183	0x3c668e31	0.014071987
184	0x3e196fc5	0.14984043
185	0x3dce6446	0.100777194
186	0x3d6a5e4d	0.05721884
187	0xbd31ba37	-0.04339048
188	0x3e5d052f	0.21584009
189	0x3e2607c4	0.162139
190	0xbde7d0ef	-0.11319148
191	0x3e0abe1b	0.13549082
192	0xbe7317e9	-0.2373959
193	0xbeb2596c	-0.34833848
194	0xbeab3854	-0.33441412
195	0xbe505fdc	-0.20349067
196	0x3eafa945	0.3430883
197	0x3e89161a	0.26774675
198	0x3e2c5e08	0.16832745
199	0x3e97deb2	0.2966209
200	0x3d767c4e	0.06017714
201	0xbe0b8fef	-0.13629125
202	0xbd2b1847	-0.0417712
203	0x3e5b47ab	0.21414058
204	0xbdef8a29	-0.11696274
205	0xbdca7a6d	-0.09886632
206	0xbdae41a4	-0.08508614
207	0x3e089a15	0.13340028
208	0x3e80f863	0.25189504
209	0x3db356f2	0.08756818
210	0x3ee2b042	0.442751
211	0x3e7f6f34	0.24944764
212	0x3dba5162	0.09097554
213	0x3d4decb9	0.050274584
214	0x3ba589a4	0.0050518084
215	0x3e173a8f	0.14768432
216	0x3e1183fa	0.14210501
217	0xbd079426	-0.03310027
218	0xbe4141cf	-0.1887276
219	0x3e78e223	0.24305014
220	0xbe4aa3b8	-0.19789016
221	0xbe4b31a2	-0.19843152
222	0xbe26117d	-0.16217609
223	0xbe33a277	-0.17542444
224	0x3ec774d1	0.3895631
225	0x3ed2ede0	0.4119711
226	0x3ec1fe5e	0.3788938
227	0x3e9332cd	0.28749695
228	0xbda48e67	-0.080349736
229	0x3e431269	0.19049992
230	0xbe50e784	-0.20400816
231	0x3db87984	0.09007552
232	0x3da5d0d9	0.08096475
233	0x3d4f1deb	0.05056564
234	0xbdc980c2	-0.09839012
235	0x3c47b9c2	0.012190284
236	0x3e0f7da4	0.14012772
237	0x3cbf81bc	0.023377292
238	0xbe1ac2c2	-0.15113357
239	0x3e1ca405	0.15296943
240	0x3a7fe725	0.0009761921
241	0xbe57f66f	-0.210901
242	0x3e745dc3	0.23863892
243	0xbe3bbe92	-0.18334416
244	0xbe20562a	-0.15657869
245	0xbe6aa9f0	-0.22916389
246	0xbd5aeef7	-0.05345055
247	0xbe46db31	-0.19419552
248	0x3e56e214	0.2098468
249	0xbd145c5f	-0.036220904
250	0xbbe6066b	-0.007019808
251	0x3afbbf29	0.001920675
252	0xbe80e2a3	-0.2517291
253	0x3e38ccdc	0.18046898
254	0xbd640057	-0.055664387
255	0x3e28803b	0.16455166

features_extractor.conv1.bias f4 [16]
0	0xbe7c7e96	-0.24657664
1	0x3dae50bd	0.08511493
2	0x3df10f2b	0.11770471
3	0x3c8b7780	0.017024755
4	0x3e8f12df	0.27944085
5	0x3dca7bbe	0.09886883
6	0xbdd76f4e	-0.105192766
7	0x3dac92ec	0.084264606
8	0xbda97083	-0.08273413
9	0x39c930b8	0.00038374006
10	0x3e3ee78b	0.18643014
11	0x3e274917	0.16336475
12	0x3e91b4d2	0.28458267
13	0xbe029af6	-0.12754425
14	0x3e298f7b	0.1655864
15	0x3db642f1	0.08899487

features_extractor.conv2.weight f4 [32, 16, 6]
0	0x3da43795	0.08018414
1	0x3e0f2899	0.1398033
2	0x3da9327e	0.08261584
3	0xbdaf1baa	-0.085501984
4	0xbdc5ac0d	-0.09651957
5	0x3be662c7	0.007030818
6	0x3cb180f5	0.021667937
7	0x3e59339d	0.21211095
8	0x3e9a7f68	0.30175328
9	0x3e11a9de	0.14224955
10	0x3e51e613	0.20497923
11	0x3e007965	0.12546308
12	0x3dbeba9d	0.093129374
13	0x3b8ba461	0.004261539
14	0x3dbd6cbd	0.09249256
15	0x3de6e7c1	0.11274672
16	0x3dbfeb6e	0.093710765
17	0x3df7a712	0.12092413
18	0x3d9cb378	0.076514184
19	0x3cc820ea	0.024429757
20	0xbd669526	-0.056294583
21	0xbe1fa52c	-0.15590352
22	0x3ca2a957	0.019856138
23	0x3d036be6	0.03208532
24	0x3e219f27	0.15783368
25	0x3ddc4978	0.107562006
26	0x3d85609f	0.0651257
27	0x3dd3fb98	0.10350722
28	0x3b99ad5f	0.004689857
29	0xbba91dd9	-0.005161029
30	0x3e84ab9f	0.25912187
31	0x3d9fd714	0.07804695
32	0xbe89ccb9	-0.26914003
33	0xbe26e7d7	-0.16299377
34	0xbdf576f9	-0.11985583
35	0x3d808c82	0.062768
36	0x3d9c9dd1	0.076472886
37	0xbca847d3	-0.020542061
38	0xbdf5f4ae	-0.120095596
39	0xbdb78c9c	-0.08962366
40	0xbdb8eac4	-0.09029153
41	0x3d71444f	0.058903035
42	0xbdb6c7cb	-0.08924826
43	0x3af2dc22	0.001852874
44	0x3d705279	0.058672402
45	0x3da0ec68	0.07857591
46	0xbcd619f7	-0.026135428
47	0x3cb07dd6	0.021544378
48	0x3d8f36f7	0.069929056
49	0x3d024bff	0.031810757
50	0x3c491c47	0.012274808
51	0x3de77e81	0.113034256
52	0x3c5d2fda	0.013500178
53	0x3e013f48	0.12621796
54	0x3e16321a	0.1466755
55	0xbe053cac	-0.13011426
56	0xbdd815cc	-0.105510324
57	0xbdc98f48	-0.09841782
58	0xbd773ad5	-0.06035884
59	0x3da29fd2	0.079406396
60	0x3d8fa4a1	0.07013822
61	0x3d50517d	0.050858963
62	0xbd9a1f32	-0.07525481
63	0x3e018b2f	0.1265075
64	0xbd07773b	-0.03307269
65	0x3e29ccd0	0.16582036
66	0x3dab8367	0.083746724
67	0x3def7d3f	0.11693811
68	0x3c46a51f	0.012124329
69	0x3c1362b5	0.008995702
70	0xbc92e27b	-0.01793026
71	0x3cf542a1	0.029938998
72	0xbd6231e7	-0.05522337
73	0x3d292c76	0.041302167
74	0x3e349247	0.17633925
75	0x3eadf23b	0.3397387
76	0x3ec33694	0.38127577
77	0x3df0f04d	0.11764584
78	0x3e016342	0.1263552
79	0xbe08cca2	-0.13359311
80	0xbe9e69df	-0.30940148
81	0xbe6496ba	-0.22323123
82	0xbe34bfcc	-0.1765129
83	0xbc88d771	-0.016704293
84	0x3dd442f0	0.1036433
85	0x3c306cb6	0.010768106
86	0x3d60fa5d	0.054926265
87	0xbd92851b	-0.07154294
88	0xbdad8c04	-0.084739715
89	0xbd59e8ba	-0.05320046
90	0xbd7aa91e	-0.06119644
91	0x3cdd2734	0.026996233
92	0x3d8eadb9	0.06966729
93	0x3db45ddf	0.08806967
94	0xbd5d099a	-0.053964235
95	0xbd88b9b0	-0.06676042
96	0x3d10cb6f	0.03535026
97	0xbc93fc15	-0.018064538
98	0x3e2720c4	0.16321093
99	0x3de135be	0.10996579
100	0x3e10cdff	0.14141081
101	0x3e26ebd2	0.16300896
102	0xbd2a9272	-0.041643567
103	0xbe271d7c	-0.16319841
104	0xbe24ef8c	-0.16107005
105	0xbdb82d6f	-0.08993041
106	0xbe1375dd	-0.1440043
107	0xbb121d2b	-0.0022295217
108	0x3da84ec3	0.082181476
109	0x3da8c061	0.08239818
110	0x3d379a62	0.044824965
111	0x3e01408a	0.12622276
112	0xbc5017a3	-0.012700948
113	0x3de54a89	0.11195857
114	0xbdbb0bf3	-0.091331385
115	0x3b1fb40a	0.0024368786
116	0x3e29a257	0.16565834
117	0x3e3cb66a	0.1842896
118	0x3d2cc172	0.04217667
119	0x3df89046	0.12136893
120	0xbccc702f	-0.024955837
121	0x3e0c0b81	0.13676263
122	0x3d49cfb6	0.049270354
123	0x3cc8c41d	0.024507577
124	0x3de4e8c8	0.11177212
125	0x3de6dc41	0.11272479
126	0xbd7c1dde	-0.06155192
127	0x3e555a11	0.20835139
128	0x3e78254b	0.24232976
129	0x3e91ce10	0.28477526
130	0x3dfa36f0	0.1221751
131	0xbde8f420	-0.11374688
132	0xbdcf459a	-0.10120697
133	0xbc6c6277	-0.014427773
134	0x3e47817c	0.19482988
135	0x3dbd9c6d	0.092583515
136	0x3dc23b53	0.094839714
137	0xbc8e0776	-0.017337542
138	0xbda300a4	-0.079591066
139	0x3dbe17ad	0.092818595
140	0xbd9030fa	-0.070405915
141	0xbb34991a	-0.0027557076
142	0x3c38b9c0	0.011274755
143	0xbb7a9c39	-0.0038240089
144	0xbc62276b	-0.013803343
145	0x3d3e8063	0.046509158
146	0x3d7725ce	0.060338788
147	0xbd0e2c59	-0.034710262
148	0x3da63e9b	0.0811741
149	0x3d81a808	0.063308775
150	0x3dab2b0f	0.08357822
151	0x3e23f6d3	0.16012125
152	0x3e54bab9	0.20774354
153	0x3e09dc01	0.13462831
154	0x3d73e378	0.059543103
155	0xbe0fcd75	-0.1404322
156	0x3d8b7480	0.0680933
157	0x3da6ce54	0.08144823
158	0x3d26953b	0.04066966
159	0x3d79d39d	0.060992826
160	0x3d9afe08	0.07567984
161	0x3d545126	0.0518352
162	0x3dd2b293	0.102879666
163	0xbbfab2cb	-0.0076507083
164	0x3d94506e	0.07241903
165	0xbc963b2c	-0.018338762
166	0x3daf1564	0.08549002
167	0x3e1b4624	0.15163475
168	0x3cd72318	0.026261851
169	0xbdae9fd1	-0.08526576
170	0xbe659d29	-0.22423233
171	0xbea5146d	-0.32242146
172	0xbe94772d	-0.28997174
173	0xbe902ab9	-0.28157595
174	0xbe233700	-0.1593895
175	0x3e16e69e	0.14736411
176	0x3e48bd04	0.19603354
177	0x3e4f5e80	0.20250893
178	0x3e5823e1	0.21107437
179	0x3c27d2a8	0.010243095
180	0x3bd12bd3	0.006383398
181	0xbc405d76	-0.011741033
182	0x3e18e896	0.14932474
183	0x3e3a497e	0.18192098
184	0x3da6d031	0.08145178
185	0x3b94f629	0.004545946
186	0xbdbc1869	-0.09184343
187	0xbd614255	-0.0549949
188	0xbd54dbc5	-0.0519674
189	0x3d32cb8c	0.04365115
190	0x3da232fe	0.07919882
191	0xbca6369a	-0.020289708
192	0xbd29b067	-0.041427996
193	0xbcbc12c4	-0.022958167
194	0x3c2f477d	0.0106981965
195	0xbbe6b477	-0.007040556
196	0x3d8ce98f	0.06880485
197	0x3d7864ab	0.06064288
198	0xbdb46447	-0.08808189
199	0xbdb0c869	-0.08631975
200	0x3cf505e6	0.02991004
201	0xbcf72026	-0.030166697
202	0x3c058ca7	0.00815121
203	0x3d6c0d3f	0.05762982
204	0x3dcb902f	0.0993961
205	0xbcdbf6b6	-0.02685104
206	0xbdae7d1f	-0.08519959
207	0x3cc7b3c3	0.02437771
208	0xbdbc2ce6	-0.09188251
209	0xbc9a6fea	-0.018852193
210	0xbd8e87ff	-0.06959533
211	0x3d02f1f8	0.03196904
212	0xbc09c3c1	-0.008408488
213	0x3cf68cf9	0.030096518
214	0xbdac3e2f	-0.08410298
215	0x3d8e8f95	0.0696098
216	0xbd4569f7	-0.04819676
217	0xbd327fa4	-0.04357876
218	0xbbc7234b	-0.0060772053
219	0xbc4511f3	-0.012028205
220	0xbd0e046a	-0.03467218
221	0x3d62a277	0.05533072
222	0xbd606297	-0.054781523
223	0x3d916e98	0.07101172
224	0x3b94d449	0.004541908
225	0x3c8c0652	0.017092858
226	0x3d1553d9	0.036456916
227	0x3dadd037	0.084869795
228	0xbd2c0362	-0.041995414
229	0x3bab3bde	0.0052256426
230	0x3d092d19	0.033490274
231	0xbd9a34ac	-0.075295776
232	0xbd91d4e3	-0.07120683
233	0x3d887a15	0.0666391
234	0xbb391c3d	-0.002824559
235	0x3d4991fc	0.049211487
236	0x3dc6c01f	0.09704613
237	0xbaa4ff01	-0.0012588204
238	0x3dc1f749	0.09470994
239	0x3d955b55	0.07292811
240	0x3d2214f1	0.039570753
241	0xbd83a0bd	-0.06427143
242	0xbd9a48d1	-0.0753342
243	0xbd0f983f	-0.035057303
244	0xbdb50460	-0.08838725
245	0x3d9d0a51	0.07667983
246	0x3d997958	0.074938476
247	0xbc056154	-0.008140881
248	0x3dc73eba	0.09728761
249	0xbd516e03	-0.051130306
250	0xbd91a3d3	-0.07111325
251	0x3da6ef0d	0.08151064
252	0x3d717243	0.05894686
253	0x3d84d433	0.06485786
254	0xbd907067	-0.07052689
255	0xbcb329ba	-0.021870483

features_extractor.conv2.bias f4 [32]
0	0x3d95823f	0.07300233
1	0x3cf5bdf6	0.029997807
2	0xbdb4ff9d	-0.08837817
3	0xbc833894	-0.01601819
4	0x3ce1e23f	0.027573703
5	0x3d7103d0	0.058841527
6	0xbd01b5d0	-0.03166753
7	0x3da9cb4f	0.08290731
8	0xbccc3082	-0.024925474
9	0xbd022575	-0.031774003
10	0x3d1e98ca	0.03871993
11	0x3dbb1022	0.091339365
12	0xba981742	-0.0011603611
13	0x3d814be8	0.06313306
14	0x3d8f3c6f	0.06993949
15	0xbd3a3a27	-0.045465615
16	0xbd30eb1b	-0.043192964
17	0x3d61ca73	0.05512471
18	0x3d278d7d	0.040906418
19	0x3c7f4a3f	0.0155816665
20	0x3e0d001c	0.13769573
21	0x3d846e2d	0.06466327
22	0xbb00342c	-0.0019562347
23	0x3d61fc51	0.05517227
24	0x3da0fe7d	0.0786104
25	0x3dc56712	0.096388
26	0xbd8ecdf2	-0.06972875
27	0x3d1b5a4e	0.037927918
28	0x3ca3565c	0.01993864
29	0x3c31e06d	0.01085673
30	0x3e100968	0.14066088
31	0x3dbbbbb5	0.09166662

features_extractor.fc_op.weight f4 [32, 3]
0	0xbedbef2b	-0.42955908
1	0x3ef37945	0.4755346
2	0x3e503ac6	0.2033492
3	0x3f075d2d	0.5287655
4	0x3e008bbf	0.12553309
5	0xbf166b63	-0.5875761
6	0xbee49b90	-0.44649935
7	0xbd87c57b	-0.06629463
8	0xbe855f86	-0.2604944
9	0xbeb95490	-0.3619733
10	0x3d07cc13	0.033153605
11	0xbf011bcf	-0.5043306
12	0x3e3439b3	0.17600136
13	0x3e0a048b	0.13478296
14	0xbee3680a	-0.44415313
15	0xbd9fe962	-0.07808186
16	0xbeb4db1b	-0.35323414
17	0x3e40b2a2	0.18818143
18	0xbd4227cd	-0.04740124
19	0xbdbd5a3d	-0.09245727
20	0xbe9c2ccb	-0.30502924
21	0xbef65e12	-0.48118645
22	0x3e93c1d7	0.28858826
23	0xbeafc47e	-0.343296
24	0xbe8b3877	-0.27191517
25	0x3e93032a	0.2871335
26	0x3e503618	0.20333135
27	0x3e9351fa	0.2877348
28	0x3e90c16d	0.28272572
29	0xbef23a20	-0.4730997
30	0xbe047d1c	-0.1293835
31	0x3e872368	0.263942
32	0x3da5f496	0.08103292
33	0xbe94f4ff	-0.29093167
34	0x3ef0da6a	0.47041637
35	0x3ee79f63	0.4523879
36	0x3e892f04	0.26793683
37	0x3e92880e	0.28619426
38	0x3eaff095	0.34363237
39	0x3e7e5812	0.24838284
40	0x3edde775	0.4334065
41	0x3f13b7db	0.57702416
42	0x3eb9753d	0.36222258
43	0x3e8f78de	0.28021902
44	0xbf1817cd	-0.5941132
45	0xbe8bc262	-0.2729674
46	0x3eb81c44	0.35959065
47	0xbde3bcf2	-0.11120023
48	0xbf0f9c71	-0.56098086
49	0xbd5a5c73	-0.053310823
50	0xbe98756e	-0.29777092
51	0xbdb348bb	-0.087541066
52	0x3ebb084c	0.36529768
53	0x3ede798b	0.43452105
54	0x3e0065e0	0.12538862
55	0xbe0ba7fc	-0.136383
56	0xbf0b43d8	-0.54400396
57	0x3e5b017a	0.21387282
58	0x3e9169d9	0.28401068
59	0x3f3b7033	0.7321808
60	0xbea87c45	-0.3290731
61	0x3d84cdba	0.06484552
62	0x3ea59368	0.32339025
63	0xbed9a00f	-0.42504928
64	0x3f0ea50a	0.5572058
65	0xbd847361	-0.06467319
66	0x3ea682a5	0.3252155
67	0x3de45eb2	0.11150874
68	0xbeb9798a	-0.3622554
69	0xbe122d97	-0.14275204
70	0x3eacbd2a	0.3373807
71	0xbedf462e	-0.4360823
72	0xbc853cc6	-0.01626433
73	0xbd24a48d	-0.04019599
74	0xbecaa969	-0.39582375
75	0xbef54ea9	-0.47911575
76	0xbf15d879	-0.58533436
77	0x3e88495c	0.2661847
78	0x3df43884	0.11924842
79	0xbe8a9233	-0.27064666
80	0xbe943b79	-0.28951624
81	0x3eef8b9b	0.46786198
82	0x3e3b5858	0.18295419
83	0xbe95ce52	-0.29258972
84	0xbe4ff7a7	-0.20309316
85	0x3e471d57	0.19444786
86	0xbe567ef3	-0.20946865
87	0x3e0e88aa	0.1391932
88	0x3e9565f3	0.29179344
89	0xbed33cb0	-0.41257238
90	0xbcfa15f5	-0.030528048
91	0xbec676bd	-0.38762465
92	0xbeb1fbd6	-0.34762448
93	0x3ef32c04	0.4749452
94	0xbec2d2bb	-0.380514
95	0xbebcd4f4	-0.3688122

features_extractor.fc_op.bias f4 [32]
0	0xbf480b45	-0.78142196
1	0xbb58b6a0	-0.0033067837
2	0xbe16c5ac	-0.14723843
3	0xbdff3225	-0.12460736
4	0xbf0e1e16	-0.5551466
5	0xbdde43c2	-0.108527675
6	0x3ee39890	0.44452333
7	0x3e612dd9	0.21990146
8	0xbe3b264d	-0.1827633
9	0x3e4e7dbe	0.20165154
10	0xbdb9f491	-0.090798505
11	0x3e5a9049	0.21344103
12	0x3bb76623	0.0055968924
13	0x3ed2f6af	0.4120383
14	0x3edc5820	0.43035984
15	0x3f23a209	0.6391912
16	0xbede57e8	-0.43426442
17	0xbed36b34	-0.41292727
18	0xbe6d512e	-0.23175499
19	0x3da32fb6	0.079680845
20	0xbe3174f6	-0.17329773
21	0x3e61d2e2	0.22053102
22	0x3efef1f5	0.49793974
23	0xbdb265a5	-0.087107934
24	0x3f0bcd4b	0.5461013
25	0x3dbd17ac	0.09233031
26	0x3ecb320a	0.39686614
27	0x3e4c34ac	0.19941968
28	0xbcd8234b	-0.026384016
29	0x3e9a58cf	0.3014588
30	0x3ef3a34f	0.47585532
31	0xbeaf7e34	-0.34275973

features_extractor.fc_merge.weight f4 [64, 64]
0	0xbe895deb	-0.26829466
1	0x3db48ae1	0.088155515
2	0x3dee3a24	0.11632183
3	0x3e21b851	0.15792967
4	0x3d6d3bc8	0.05791834
5	0x3d99c6e1	0.07508636
6	0x3d9b345c	0.07578346
7	0x3dfaa3c0	0.12238264
8	0x3d8a1971	0.06743134
9	0xbe04fcd1	-0.12987067
10	0xbdbb21f0	-0.091373324
11	0x3da96f59	0.08273191
12	0x3c13910c	0.00900675
13	0xbdc967c6	-0.09834246
14	0x3a8aabae	0.0010579729
15	0xbc90a60c	-0.017657302
16	0x3a99c600	0.0011731982
17	0xbc9f240a	-0.019426364
18	0x3de438e2	0.11143662
19	0xbdeccbc5	-0.115623035
20	0xbe65de0e	-0.22447988
21	0xbdf10a39	-0.11769528
22	0xbe455b6e	-0.19273159
23	0x3c1897de	0.009313552
24	0x3dafaf18	0.08578318
25	0xbdecc57e	-0.11561106
26	0xbd7eb378	-0.062182873
27	0x3d8f6205	0.070011176
28	0x3dacf3cb	0.08444937
29	0xbd84daee	-0.0648707
30	0xbe090d03	-0.1338387
31	0x3dd3cbc2	0.10341598
32	0xbd90ac32	-0.07064094
33	0x3b03859d	0.0020068653
34	0x3dce2136	0.10064928
35	0xbcd30369	-0.025758462
36	0xbaa3d748	-0.0012500072
37	0xbcb15481	-0.02164674
38	0xbde8aece	-0.11361466
39	0x3d1c835e	0.03821122
40	0xbb82e982	-0.0039951215
41	0xbdba24eb	-0.09089073
42	0xbd638af2	-0.05555243
43	0x3d688e36	0.056776248
44	0xbc3e9fd5	-0.011634787
45	0x3d4928cf	0.049111184
46	0xbc065f69	-0.0082014585
47	0xbd0ca697	-0.03433856
48	0x3c01bc6a	0.007918457
49	0x3dbcf30e	0.092260465
50	0x3db9b275	0.09067241
51	0x3cc5b403	0.024133688
52	0xbb6c6800	-0.003607273
53	0x3d5ec3d1	0.054385964
54	0x3db1a027	0.08673125
55	0xbdf68b32	-0.12038268
56	0xbc8e1946	-0.017346036
57	0x3d2c77fa	0.042106606
58	0xbdbba6cf	-0.091626756
59	0x3c9e3916	0.01931433
60	0x3de15396	0.11002271
61	0xbd816f2b	-0.06320032
62	0xbd8f755d	-0.07004807
63	0xbcea7f6f	-0.028625218
64	0x3e2e5fac	0.17028683
65	0xbdad4f17	-0.08462351
66	0x3db8b8f4	0.09019652
67	0xbdf1c51f	-0.11805176
68	0xbcb26823	-0.021778172
69	0x3c69a035	0.014259388
70	0x3dc65fed	0.09686265
71	0xbe04462c	-0.12917393
72	0x3e081768	0.13290179
73	0x3e9a0f2a	0.30089694
74	0x3c1789f4	0.009249199
75	0x3d68c705	0.056830425
76	0x3d76feda	0.06030164
77	0xbd9e133b	-0.07718512
78	0x3d977d3f	0.07396936
79	0xbd23fade	-0.040034167
80	0x3dee018a	0.11621387
81	0xbd06a502	-0.032872207
82	0xbd860c24	-0.065452844
83	0x3e8e6cf6	0.27817506
84	0x3e9283ce	0.28616184
85	0x3ce813da	0.028329778
86	0x3e482d18	0.19548452
87	0xbde8aa71	-0.11360634
88	0x3e058624	0.13039452
89	0xbcbcdcb9	-0.023054468
90	0x3cd288e8	0.025700048
91	0x3dbbfceb	0.091791
92	0x3ce0bcd4	0.02743379
93	0xbda5cf76	-0.08096211
94	0x3eaa9b6f	0.3332171
95	0x3d939c98	0.07207602
96	0x3d5a8cea	0.053357042
97	0x3d9aeed3	0.07565083
98	0x3d9a0b98	0.075217426
99	0x3a358be3	0.0006925447
100	0x3dbbb594	0.09165493
101	0xbdc98f3a	-0.098417714
102	0x3c57a68c	0.013162266
103	0x3d8d3dc5	0.06896547
104	0xbcd9808c	-0.026550554
105	0xbd2c8233	-0.042116355
106	0xbce49dfa	-0.02790736
107	0xbabac327	-0.0014248834
108	0xbb6438a5	-0.0034823802
109	0x3d8b8030	0.06811559
110	0x3d742f68	0.059615523
111	0xbde853fc	-0.11344144
112	0xbc9893f5	-0.018625239
113	0x3db14e48	0.08657509
114	0xbd056f78	-0.032577008
115	0xbd2d1621	-0.042257432
116	0x3d619788	0.055076152
117	0x3d9be723	0.07612445
118	0xbd7dbd66	-0.061948203
119	0xbcac5d14	-0.021040477
120	0x3e766379	0.24061383
121	0xbcf91b87	-0.030408634
122	0xbc97f575	-0.01854966
123	0xbdf10e34	-0.11770287
124	0x3d25ebc4	0.040508047
125	0x3d384054	0.044983223
126	0xbd1a7c54	-0.037716225
127	0x3dbe5954	0.09294382
128	0x3e32373a	0.1740388
129	0xbd4f0a20	-0.050546765
130	0x3cde0940	0.02710402
131	0x3cce11af	0.025154917
132	0xbd43033a	-0.0476105
133	0x3d8fded3	0.07024922
134	0x3d41d735	0.047324378
135	0xbd7cca4b	-0.06171636
136	0x3d8abd80	0.067744255
137	0x3e3b68ce	0.18301699
138	0xbd44db2b	-0.048060577
139	0x3de3c386	0.111212775
140	0x3df87ec8	0.121335566
141	0x3d56fa3c	0.052484736
142	0xbdb51761	-0.0884235
143	0xbcda04ab	-0.026613554
144	0xbdd65096	-0.10464589
145	0x3d9735bd	0.07383297
146	0xbdc0a265	-0.09405974
147	0x3d7bd45d	0.061481822
148	0x3e9c6967	0.30549166
149	0x3e3925e8	0.18080866
150	0x3ddccb40	0.10780954
151	0xbd15a1ce	-0.036531262
152	0x3cbb64e4	0.022875257
153	0xbe02aed8	-0.1276201
154	0xbdf1890c	-0.11793718
155	0x3d967f49	0.073484965
156	0xbd8ab05c	-0.06771919
157	0xbd17bf78	-0.037047833
158	0x3dd0d510	0.101968884
159	0xbc12bab3	-0.008955645
160	0x3a7d9ce3	0.0009674562
161	0x3de91fe1	0.113830335
162	0x3d1d79ff	0.038446423
163	0xbd9d73f8	-0.07688135
164	0xbd6e6392	-0.058200426
165	0xbcd57628	-0.026057318
166	0x3da5bd1d	0.08092711
167	0x3cc04da2	0.023474518
168	0x3d400459	0.046879146
169	0xbd6aa28d	-0.057283927
170	0xbd2fd261	-0.042925242
171	0xbdc65c47	-0.09685569
172	0xbd8e2fc1	-0.06942702
173	0xbd57c7fd	-0.052680958
174	0x3df829a4	0.12117317
175	0x3d46f5fa	0.048574425
176	0x3ddb5c41	0.107109554
177	0xbb0277bb	-0.001990779
178	0xbd6a1e0f	-0.057157572
179	0xbe1563a0	-0.14588785
180	0x3dd17f92	0.1022941
181	0x3ca50613	0.020144498
182	0xbceec786	-0.029147875
183	0xbda78d58	-0.08181256
184	0x3e49d8d8	0.19711626
185	0xbd310249	-0.04321507
186	0xbd0fc026	-0.035095356
187	0xbd9f562e	-0.07780109
188	0x3dbd1180	0.092318535
189	0x3d27d972	0.040978856
190	0x3d9b0bd8	0.075706184
191	0xbe101972	-0.14072207
192	0x3b13fd41	0.002258137
193	0xbd4e7c16	-0.050411306
194	0x3c921e90	0.017836839
195	0xbdb1c992	-0.086810246
196	0xbd3d388d	-0.04619651
197	0xbdf1e486	-0.118111655
198	0x3ce2b605	0.027674684
199	0xbdecc422	-0.11560847
200	0x3e2fe5e7	0.17177545
201	0x3e04afc3	0.12957673
202	0xbdcd6b37	-0.10030215
203	0xbdccf824	-0.100082666
204	0xbbda8237	-0.006668355
205	0x3c560254	0.0130620785
206	0x3da4d56b	0.08048519
207	0x3e01e35c	0.12684387
208	0x3d29ebb8	0.041484565
209	0x3d74174a	0.059592523
210	0xbc87e0f5	-0.01658676
211	0x3df2f0e3	0.11862352
212	0xbc6f7760	-0.014615864
213	0x3d422c12	0.04740531
214	0x3c9bf973	0.019039845
215	0xbd9dc40c	-0.077034086
216	0xbd029f59	-0.031890247
217	0xbdafdf7d	-0.08587549
218	0x3de179a6	0.11009531
219	0x3d204b37	0.03913423
220	0x3d0a25df	0.033727523
221	0x3d82111c	0.063509196
222	0x3e1e6351	0.15467574
223	0x3c8fac6b	0.01753827
224	0xbd5d9845	-0.054100294
225	0xbd0965c6	-0.033544324
226	0x3d822788	0.06355196
227	0x3d9ba5bf	0.07599973
228	0x3ba80606	0.005127671
229	0x3d3d5df7	0.04623219
230	0xbcb71203	-0.022347456
231	0x3defd3bc	0.11710307
232	0xbd8df188	-0.06930834
233	0x3dfe7650	0.1242491
234	0xbd377122	-0.044785626
235	0x3bf8d7ea	0.0075940983
236	0x3df72e79	0.12069411
237	0xbdbe1e47	-0.09283119
238	0xbd734cb9	-0.05939934
239	0xbe039cb4	-0.12852746
240	0x3d89236d	0.0669621
241	0xbccd77c2	-0.025081519
242	0x3e1b5e3c	0.15172666
243	0xbc20aee3	-0.009807321
244	0x3d4102bc	0.04712175
245	0x3d4ca569	0.049962435
246	0xbd88bcd4	-0.06676641
247	0xbd91a207	-0.071109824
248	0x3e1ad5c7	0.15120612
249	0x3d03c412	0.03216941
250	0x3dd5d67a	0.10441299
251	0x3db4b66a	0.08823855
252	0xbd05fb74	-0.032710508
253	0x3de32400	0.11090851
254	0x3e08411c	0.13306087
255	0x3d013b26	0.03155055

features_extractor.fc_merge.bias f4 [64]
0	0x3dba38f7	0.090928964
1	0x3c5a751f	0.013333588
2	0x3e0c1da4	0.13683182
3	0x3dab7070	0.08371055
4	0xbd236dd4	-0.039899662
5	0x3b81f4b0	0.0039659366
6	0x3b0fc549	0.002193766
7	0x3e04cee6	0.1296955
8	0x3de30593	0.110850476
9	0x3c32328d	0.01087631
10	0x3c2cc4a7	0.010544932
11	0xbd308890	-0.043098986
12	0x3d9ea2b7	0.07745879
13	0xbda6e541	-0.081491955
14	0xbc9699a1	-0.018383803
15	0x3d7b7c62	0.061397918
16	0x3e0df96d	0.1386468
17	0x3dd25c25	0.102714814
18	0xbd1ab751	-0.03777248
19	0xbce5ad4c	-0.028036736
20	0x3e0bcc26	0.13652095
21	0x3e02b82f	0.12765573
22	0xbdbf65b1	-0.09345568
23	0x3c32aa7e	0.010904906
24	0xbc744d7b	-0.014911051
25	0x3df14693	0.11781039
26	0x3e1e3108	0.15448391
27	0x3d423436	0.047413073
28	0x3dd181f9	0.102298684
29	0xbd7f011c	-0.062256917
30	0x3e1fed3b	0.1561784
31	0x3dab79bd	0.08372829
32	0x3d788e93	0.060682844
33	0xbc679023	-0.014133486
34	0x3ddcc5cc	0.10779914
35	0x3dd0118a	0.10159595
36	0x3c93b95c	0.018032722
37	0x3df05663	0.11735227
38	0x3de5a67f	0.11213397
39	0x3d306464	0.04306449
40	0xbdc30f44	-0.09524396
41	0xbd1dc28d	-0.038515616
42	0x3e29c75e	0.16579959
43	0x3e25c44e	0.16188166
44	0xbd603e9e	-0.054747216
45	0x3dfca273	0.12335672
46	0xbd6a9e21	-0.05727971
47	0x3de94742	0.113905445
48	0xbd2e3205	-0.04252817
49	0x3b98c0aa	0.004661639
50	0xbe0337a2	-0.12814191
51	0x3e0ec12f	0.13940881
52	0xbd1de3a9	-0.03854719
53	0xbc8715eb	-0.016489943
54	0xbd9d11b4	-0.07669392
55	0x3dc676ec	0.09690651
56	0x3dc0b901	0.09410287
57	0x3dcc6d90	0.09981835
58	0x3c788584	0.015168551
59	0xbd234c12	-0.03986747
60	0x3d17a3ba	0.037021376
61	0x3e22c6be	0.15896127
62	0x3d6b568e	0.05745559
63	0x3d4b16d9	0.049582336

actor.0.weight f4 [32, 64]
0	0x3cefd310	0.029275447
1	0x3dab14fa	0.0835361
2	0xbdffe161	-0.124941595
3	0xbd11985a	-0.035545684
4	0x3d95917e	0.07303141
5	0xbca88807	-0.020572675
6	0x3d65574a	0.05599145
7	0xbd0204ff	-0.031743046
8	0x3e0a51b1	0.13507725
9	0xbe4b1d68	-0.19835436
10	0x3e11e97c	0.14249223
11	0xbdb05842	-0.08610584
12	0xbd791cb7	-0.0608184
13	0x3c5e2bea	0.013560275
14	0xbe0e7df4	-0.13915235
15	0xbd741110	-0.059586585
16	0x3c658597	0.014008901
17	0x3d60f3ee	0.05492013
18	0xbd6f2a62	-0.05839003
19	0x3d44533f	0.047930952
20	0xbdc980f4	-0.09839049
21	0xbd56fe5e	-0.052488677
22	0xbc8d36b4	-0.017237999
23	0x3cd94cd9	0.026525902
24	0x3d94015b	0.07226821
25	0xbdfffe6e	-0.124997005
26	0xbcaf9e36	-0.021437746
27	0x3cde637a	0.027147043
28	0x3df921cc	0.12164649
29	0xbe0d67ea	-0.13809171
30	0xbdbba084	-0.09161475
31	0x3d9c0a1d	0.076191165
32	0xbdc2ec91	-0.09517778
33	0x3b64085c	0.0034795022
34	0x3d3a4048	0.04547146
35	0x3df57feb	0.11987289
36	0x3d966dc4	0.07345155
37	0x3ddba029	0.107239075
38	0xbd96c936	-0.07362597
39	0xbda49cb5	-0.08037702
40	0x3c457fca	0.012054393
41	0x3e05ac8c	0.13054103
42	0xbd16cde9	-0.036817465
43	0x3d157680	0.036489964
44	0xbdbfad8d	-0.09359274
45	0xbcf5a346	-0.029985081
46	0xbdb0f354	-0.08640161
47	0x3d0e1411	0.034687106
48	0xbdf89362	-0.12137486
49	0x3a5577b2	0.0008143141
50	0xbd954f87	-0.07290559
51	0xbd8b3cb8	-0.067986906
52	0x3cb308f0	0.021854848
53	0x3d58532a	0.052813686
54	0xbde5d5e0	-0.11222434
55	0xbd94b82c	-0.072616905
56	0x3d995b1f	0.07488083
57	0xbdc31cda	-0.095269874
58	0x3d9cb3ed	0.076515056
59	0xbcc1d1c9	-0.023659604
60	0x3dc3f9ac	0.095691055
61	0x3d869213	0.0657083
62	0x3dc4f63b	0.09617277
63	0x3dc67112	0.09689535
64	0xbdbf14c8	-0.093301356
65	0xbd4a8b13	-0.049449038
66	0x3d4f15f1	0.050558034
67	0x3da2636e	0.07929121
68	0x3d665d9c	0.056241617
69	0xbdeb6240	-0.11493349
70	0xbdf3647f	-0.118844025
71	0x3d6e5120	0.058182836
72	0x3d661f31	0.05618209
73	0x3ded2b17	0.11580484
74	0x3d74f506	0.059803985
75	0xbc6252d0	-0.013813689
76	0x3da81008	0.08206183
77	0xbdabfbc6	-0.08397631
78	0xbdeedc5b	-0.11663123
79	0x3d76e26b	0.060274523
80	0xbd20d71c	-0.039267644
81	0xbd72f4aa	-0.05931536
82	0x3d4dc8c4	0.050240293
83	0x3c6b97e2	0.014379473
84	0xbd780ebf	-0.060560938
85	0xbdc625f0	-0.09675205
86	0xbd255d4d	-0.04037218
87	0xbdb0690c	-0.08613786
88	0x3d3776df	0.0447911
89	0xbdcc0276	-0.09961407
90	0xbd86c886	-0.065812156
91	0xbd96348f	-0.073342435
92	0xbe11a66d	-0.14223643
93	0xbd781c41	-0.06057382
94	0xbdc61f39	-0.09673924
95	0xbcbfdf3a	-0.023421872
96	0x3dd892ce	0.10574876
97	0xbd90cdc5	-0.070704974
98	0x3cf84b59	0.030309366
99	0x3daab895	0.083359875
100	0x3d6e3502	0.05815602
101	0xbcb122e0	-0.021623075
102	0xbd61ffb8	-0.055175513
103	0x3dcc8459	0.09986181
104	0xbcc1f670	-0.02367708
105	0x3b84d20b	0.0040533594
106	0x3dacf465	0.08445052
107	0xbd6a8de4	-0.057264224
108	0x3d377004	0.04478456
109	0x3c3f300b	0.011669169
110	0x3d80db2d	0.062918045
111	0xbd4c1997	-0.049829092
112	0x3cae2ba0	0.021261036
113	0xbc785198	-0.015156172
114	0xbc5c53e0	-0.013447732
115	0xbda2f6ea	-0.07957251
116	0xbbff2c7c	-0.0077872854
117	0xbdfed0c9	-0.12442166
118	0xbce5bd70	-0.028044432
119	0xbe07c5be	-0.13259026
120	0x3db78b09	0.08962066
121	0xbde8dca8	-0.11370212
122	0xbd039d71	-0.03213257
123	0x3db5e3ee	0.08881365
124	0x3d088035	0.033325393
125	0xbe09ea54	-0.13468295
126	0x3db451f4	0.08804694
127	0x3d8dcd91	0.06923974
128	0xbd8db401	-0.06919099
129	0xbdcc23d3	-0.099677704
130	0x3dcca198	0.09991759
131	0x3d236d49	0.039899144
132	0x3dcdabfa	0.100425676
133	0xbd6a67f7	-0.057228055
134	0x3d3c8386	0.046023868
135	0x3dadeabc	0.08492038
136	0xbdf9e173	-0.12201204
137	0xbe01aa1b	-0.12662546
138	0x3dd0a838	0.10188335
139	0xbd63c3ec	-0.055606768
140	0x3d89b6d5	0.067243256
141	0xbe046d3e	-0.12932298
142	0xbda06435	-0.07831613
143	0xbc124ed8	-0.008929931
144	0x3d8af195	0.06784359
145	0xbdb6dde0	-0.08929038
146	0x3dfd97e7	0.12382489
147	0xbd6b67d2	-0.057472058
148	0x3de50677	0.11182874
149	0x3cc9d345	0.024636874
150	0xbd463588	-0.048390895
151	0x3dc2be81	0.09508992
152	0xbdd24197	-0.102664165
153	0xbccfcd2e	-0.025366392
154	0xbdebaedd	-0.11507962
155	0xbdadb68b	-0.08482083
156	0xbd8aa547	-0.067698054
157	0xbdebedca	-0.11519964
158	0x3d6ddd43	0.05807234
159	0xbc627c5e	-0.013823597
160	0xbd2b698a	-0.041848697
161	0x3d765aa4	0.060145035
162	0x3db11615	0.0864679
163	0x3dd9b84d	0.10630856
164	0x3d2ebed1	0.042662445
165	0x3de3f283	0.1113024
166	0xbdcfee45	-0.10152868
167	0x3cc227eb	0.023700675
168	0x3d56972b	0.05239026
169	0x3d513ffc	0.05108641
170	0xbc8c4a58	-0.017125294
171	0x3d7a0422	0.061039098
172	0xbde0f452	-0.109841004
173	0xbd324c50	-0.04352981
174	0xbd1e10fd	-0.03859042
175	0x3d593931	0.053033058
176	0xbcae3841	-0.021267058
177	0xbc6b217d	-0.014351246
178	0x3cb6bb5a	0.022306133
179	0x3cefc1cf	0.02926722
180	0x3c579beb	0.013159732
181	0x3d3d26ca	0.04617957
182	0xbda3ba5c	-0.079945296
183	0xbb149945	-0.0022674364
184	0x3b5a80ba	0.0033340887
185	0x3d95f6f6	0.07322495
186	0xba3e15fc	-0.0007251201
187	0xbcb700c0	-0.022339225
188	0x3d205004	0.03913881
189	0xbd14686b	-0.036232393
190	0xbe00e6c9	-0.12588038
191	0x3d2e82ff	0.042605396
192	0xbda3a404	-0.07990268
193	0xbd1c3ef5	-0.038145978
194	0xbde917b1	-0.11381472
195	0xbcd059f8	-0.025433525
196	0xbd87802c	-0.06616244
197	0xbca669a9	-0.020314055
198	0x3d90cb65	0.070700444
199	0x3ac60443	0.0015107471
200	0x3d736cb0	0.059429824
201	0x3d75d1cb	0.060014527
202	0xbdc03d3d	-0.0938668
203	0xbd4ee3b0	-0.05051011
204	0xbd23280c	-0.039833114
205	0x3ad93bee	0.0016573647
206	0x3d96beef	0.073606364
207	0x3bed3a3a	0.007239607
208	0x3d72531a	0.059161283
209	0xbe070c5d	-0.1318831
210	0xbd835531	-0.06412733
211	0xbd78604e	-0.06063872
212	0xbc91ead2	-0.017812166
213	0xbd9f92be	-0.07791661
214	0x3c7fdf38	0.015617184
215	0xbddf5d0c	-0.10906419
216	0x3d7c7f49	0.061644826
217	0xbd291d39	-0.041287635
218	0x3d6895f7	0.056783643
219	0x3ce82fd5	0.02834312
220	0xbdcc5086	-0.09976296
221	0xbe04f675	-0.12984641
222	0x3d91e5cd	0.07123909
223	0x3d6b05ec	0.057378694
224	0x3d140018	0.036132902
225	0xbdf4ba5f	-0.1194961
226	0x3dc3a60f	0.095531575
227	0xbcfaea56	-0.030629318
228	0xbe2caac7	-0.16862021
229	0x3d56c247	0.05243137
230	0xbd454c53	-0.04816849
231	0x3d25b63e	0.040457003
232	0x3beefeeb	0.007293572
233	0x3dabe48b	0.083932005
234	0x3cfad69b	0.03061991
235	0x3c9e56c6	0.019328486
236	0x3d9bce8f	0.07607757
237	0x3d1caa65	0.03824844
238	0x3d436c10	0.04771048
239	0x3de97cd8	0.11400765
240	0x3c64e04b	0.013969491
241	0x3daa3ac7	0.08311992
242	0x3de1bc6a	0.11022265
243	0x3d203b43	0.039119016
244	0x3d92ffd5	0.07177702
245	0xbcfbd7fa	-0.030742634
246	0xbdbaba36	-0.09117548
247	0x3d3c80be	0.046021216
248	0x3cd6c2da	0.02621596
249	0x3d06c8ed	0.03290646
250	0xbdda3a28	-0.10655624
251	0xbce78bb8	-0.028264865
252	0xbd5d7eab	-0.054075878
253	0xbddbb793	-0.107283734
254	0x3ccf6024	0.025314398
255	0xbdd0e468	-0.10199815

actor.0.bias f4 [32]
0	0xbc9a1991	-0.01881102
1	0xbdbe6200	-0.09296036
2	0x3d15be82	0.036558636
3	0xbd80ce95	-0.062894024
4	0xbd8a5c0e	-0.06755839
5	0xbe0e8b15	-0.13920243
6	0x3d7c557c	0.06160496
7	0xbcc96b30	-0.024587244
8	0xbc7921a1	-0.015205772
9	0xbd2a23c9	-0.041538034
10	0xbbcf7b84	-0.006331863
11	0x3de38b6e	0.111105785
12	0xbdabbdf8	-0.08385843
13	0xbd7a9ac7	-0.061182763
14	0x3d42ca0f	0.04755598
15	0xbd88d8a8	-0.06681949
16	0xbcfa2aa4	-0.03053791
17	0x3deeb1aa	0.116549805
18	0xbd8474c7	-0.06467586
19	0xbd464963	-0.04840983
20	0xbd15e5a1	-0.036595944
21	0xbde9ccb6	-0.11415999
22	0x3da9c98e	0.08290397
23	0xbe106cc9	-0.14103998
24	0x3dc05080	0.09390354
25	0x3dbf2b40	0.09334421
26	0x3d701429	0.058612976
27	0xbde62bcc	-0.11238822
28	0xbcd1d942	-0.025616292
29	0xbd4d61b4	-0.050142005
30	0x3d91d055	0.07119814
31	0xbdb85c58	-0.09001988

actor.2.weight f4 [10, 32]
0	0x3bfbd6a4	0.0076854993
1	0x3db1b433	0.086769484
2	0x3e120db3	0.14263038
3	0x3dc0b5ca	0.094096735
4	0x3e132f79	0.14373578
5	0xbd69721d	-0.056993593
6	0xbe2df27f	-0.16987036
7	0xbd50095d	-0.05079018
8	0x3e118d7e	0.14214131
9	0x3b0783b0	0.0020677857
10	0xbde3be9c	-0.1112034
11	0x3d724f4f	0.059157666
12	0x3dd9e00e	0.10638438
13	0x3d38d108	0.045121223
14	0x3c5bb8e3	0.01341078
15	0xbe81c2bb	-0.2534388
16	0xbe4c888a	-0.1997396
17	0xbd232ffe	-0.03984069
18	0x3e04dc3d	0.12974639
19	0xbd01d7ef	-0.03170007
20	0xbe1dda7b	-0.15415375
21	0x3d6c9819	0.05776224
22	0x3e1d012e	0.15332481
23	0x3d933f63	0.071898244
24	0xbd9c81ff	-0.07641982
25	0x3d631568	0.055440336
26	0x3d841e11	0.06451047
27	0xbce54b18	-0.027989909
28	0x3d902d6b	0.07039913
29	0xbe16292b	-0.14664142
30	0xbcd64d81	-0.026160004
31	0x3d6c6828	0.05771652
32	0x3db9282d	0.09040866
33	0xbd9544b2	-0.07288493
34	0x3e2b30de	0.1671786
35	0xbe2c3b86	-0.16819581
36	0x3dca5a74	0.09880534
37	0xbc78a1ff	-0.015175342
38	0x3d019cb1	0.031643573
39	0xbdb4a86e	-0.08821188
40	0xbe1f2fa3	-0.15545516
41	0x3e313c35	0.17308123
42	0xbda6ea1c	-0.081501216
43	0xbc88093c	-0.016605966
44	0x3e63180d	0.22177143
45	0x3adc92ba	0.0016828396
46	0x3e245fe5	0.16052206
47	0x3e2223d3	0.15833978
48	0xbcac88d4	-0.021061338
49	0xbcf5bf81	-0.029998543
50	0xbc9268a2	-0.017872158
51	0xbdabf01b	-0.08395406
52	0x3e0e57bc	0.13900656
53	0x3d5e3a8a	0.054255046
54	0xbe110051	-0.14160277
55	0xbd33ceb2	-0.043898292
56	0x3e23aa31	0.15982892
57	0x3ddb6e81	0.10714436
58	0xbd3beb82	-0.045878895
59	0x3e1ba3a4	0.15199143
60	0xbd3ea0e7	-0.046540167
61	0x3e539f42	0.20666221
62	0xbd6c964c	-0.05776052
63	0xbc8daf74	-0.017295577
64	0x3df2d85c	0.118576735
65	0x3d6ab853	0.05730469
66	0xbc49cb22	-0.012316497
67	0x3e2e8e41	0.17046453
68	0x3ca6d274	0.020364024
69	0xbdcc3ad9	-0.09972162
70	0xbe29b420	-0.16572618
71	0x3e0e9cbc	0.13926977
72	0x3e152d6e	0.14568111
73	0x3e4bb447	0.19892989
74	0xbe0d2e7b	-0.13787262
75	0xbd6cecc7	-0.057842996
76	0xbe201930	-0.15634608
77	0xbc6dfeaf	-0.014526053
78	0xbe0bacd7	-0.13640152
79	0x3d9e2d48	0.077234805
80	0x3ad74c06	0.0016425855
81	0xbe0db85c	-0.13839859
82	0xbd987e39	-0.0744595
83	0xbe121745	-0.14266689
84	0xbc7aac15	-0.015299817
85	0xbe113fdb	-0.14184515
86	0xbc4bb625	-0.012433563
87	0x3e38fca2	0.18065122
88	0x3d11c726	0.035590313
89	0xbd23faeb	-0.040034216
90	0x3dff9578	0.12479681
91	0xbda25cf0	-0.07927883
92	0x3e26a57b	0.16274063
93	0xbd546452	-0.051853485
94	0xbe2ce878	-0.16885555
95	0xbe2901f1	-0.16504647
96	0xbd5771f9	-0.052598927
97	0xbd3f2c65	-0.046673197
98	0xbccc99bf	-0.024975656
99	0x3de98c06	0.114036605
100	0xbe0628f2	-0.13101557
101	0x3d1cd05a	0.038284637
102	0x3d51fd0f	0.051266726
103	0xbe0bf027	-0.1366583
104	0x3d8219a9	0.063525505
105	0x3d576db3	0.05259485
106	0x3e0548e1	0.13016082
107	0xbdf264e6	-0.11835651
108	0xbe0e75da	-0.13912144
109	0xbe198e07	-0.14995585
110	0xbe345ceb	-0.1761357
111	0xbd843ff6	-0.06457512
112	0xbe194d31	-0.14970852
113	0xbdef5014	-0.116851956
114	0xbd447a5b	-0.04796825
115	0xbe479626	-0.19490871
116	0xbe2756ba	-0.16341677
117	0x3d990ad2	0.07472767
118	0xbdc74aff	-0.09731101
119	0x3cf435db	0.029810837
120	0xbe214b00	-0.15751266
121	0xbdcab46f	-0.09897696
122	0xbd9ceac6	-0.07661967
123	0x3e0ba084	0.1363545
124	0xbd61e03d	-0.05514549
125	0x3e31f73a	0.17379466
126	0x3e281609	0.16414656
127	0x3d00ffeb	0.031494062
128	0xbd1cda03	-0.03829385
129	0xbd072967	-0.03299847
130	0xbb7d0fd6	-0.0038614175
131	0xbe4a2258	-0.19739664
132	0xbe259c1c	-0.16172832
133	0x3b7e75e4	0.0038827593
134	0x3da3cac9	0.079976626
135	0x3c5199ea	0.012793044
136	0xbdab224e	-0.083561525
137	0xbdadd2e9	-0.084874935
138	0xbe244a81	-0.16044046
139	0xbdd05b7e	-0.10173701
140	0xbc8f844f	-0.017519144
141	0x3d45f5a1	0.048329953
142	0xbe1fcb89	-0.15604986
143	0x3d7be1a1	0.061494473
144	0xbd001506	-0.03127005
145	0xbd171c8e	-0.036892466
146	0xb8290865	-4.0300558e-05
147	0x3d6057e5	0.054771323
148	0x3d5fa61e	0.05460178
149	0x3c93faa0	0.018063843
150	0x3dac897c	0.084246606
151	0xbd09296c	-0.03348677
152	0x3db116b0	0.086469054
153	0xbe0205fa	-0.12697592
154	0x3d17ca5a	0.037058212
155	0xbddc4c1d	-0.10756705
156	0x3a3ef3cc	0.00072842534
157	0xbdcbb12e	-0.09945904
158	0xbdd56843	-0.10420277
159	0xbd751bf6	-0.05984112
160	0xbd4b343f	-0.049610373
161	0x3de38a4c	0.111103624
162	0xbdbf8453	-0.09351411
163	0x3ce3dad8	0.027814314
164	0x3e1bb9a1	0.1520753
165	0x3e19a50e	0.1500437
166	0x3c3df8d7	0.011594973
167	0x3dd565b3	0.10419788
168	0x3e077acf	0.13230442
169	0x3e32b8c9	0.17453302
170	0x3e20ddf6	0.15709671
171	0x3de7ffb1	0.11328066
172	0x3d33b5a7	0.04387441
173	0x3dc53300	0.09628868
174	0xbdceaea9	-0.100919075
175	0xbe0f91e4	-0.14020497
176	0x3dd2bea3	0.10290267
177	0x3df8b080	0.1214304
178	0x3d6c04d3	0.05762179
179	0x3da56d9d	0.08077548
180	0x3e3cc105	0.18433006
181	0x3cbafce3	0.022825664
182	0xbdb36681	-0.087597854
183	0xbda0e1e3	-0.078555845
184	0x3d694913	0.056954455
185	0xbbac9aeb	-0.005267491
186	0x3d3088ed	0.043099333
187	0x3d77c5df	0.06049144
188	0xbdf586db	-0.11988612
189	0xbe1d4e08	-0.15361798
190	0x3d13223c	0.03592132
191	0x3d80818c	0.06274709
192	0xbe27e204	-0.16394812
193	0x3e2043e6	0.15650901
194	0x3cc65bac	0.024213634
195	0x3d3e31b0	0.046434104
196	0x3e1b0ce6	0.15141639
197	0xbd7e37a9	-0.0620648
198	0xbbdc24d8	-0.0067182593
199	0xbe1b430d	-0.15162297
200	0xbe1077c6	-0.1410819
201	0x3e165eb7	0.14684568
202	0x3e7035a4	0.23457962
203	0x3dcbd785	0.099532165
204	0xbd2e709d	-0.042587865
205	0xbd612e48	-0.054975778
206	0x3d0d7b14	0.034541205
207	0x3e1c0403	0.15235905
208	0x3b2c501f	0.0026292873
209	0xba186342	-0.00058131304
210	0x3c248f3a	0.0100439135
211	0xbdf36a16	-0.11885469
212	0xbce685f0	-0.028140038
213	0xbcd4cf81	-0.025977852
214	0xbd8a4ecc	-0.067533106
215	0xbdb801c8	-0.08984715
216	0xbdb7c789	-0.08973605
217	0x3e7e3e86	0.24828538
218	0xbe372965	-0.17886885
219	0x3e10fbcd	0.14158554
220	0xbdc6d4b7	-0.09708541
221	0xbd7c0d3e	-0.061536066
222	0xbcf6870f	-0.030093698
223	0xbdc5d749	-0.09660203
224	0xbe1816b2	-0.14852408
225	0x3e1d191f	0.15341614
226	0x3e25164c	0.16121787
227	0xbe426497	-0.18983684
228	0xbdcdf5a3	-0.10056617
229	0xbd665fee	-0.05624383
230	0xbd3f3157	-0.046677914
231	0x3d9977c6	0.07493548
232	0xbe0b7eca	-0.13622585
233	0xbe3fca24	-0.18729454
234	0xbd1642e6	-0.036684893
235	0x3d9d9cab	0.07695898
236	0xbdddb16b	-0.108248554
237	0x3dddb752	0.10825981
238	0xbc1bfeef	-0.00952123
239	0xbcf5b7be	-0.029994842
240	0xbdce4999	-0.100726314
241	0x3d2bb23f	0.041918036
242	0x3dbb2134	0.09137192
243	0xbdff0f27	-0.12454062
244	0xbd6a0ce3	-0.057141196
245	0x3d21316d	0.039353777
246	0xbccf8e9d	-0.025336558
247	0x3d1e12ad	0.03859203
248	0x3d4822a8	0.048861176
249	0xbe3cb11c	-0.18426937
250	0xbe0fd7ac	-0.14047116
251	0xbd3b76b5	-0.045767505
252	0xbd4fe8a0	-0.050758958
253	0xbd6befab	-0.057601612
254	0xbdf271c2	-0.11838104
255	0xbd75afa6	-0.059981965

actor.2.bias f4 [10]
0	0x3d9add64	0.07561758
1	0x3e1dea6f	0.1542146
2	0xbdfd4702	-0.12367059
3	0x3cfbaa86	0.03072096
4	0x3d2a0e52	0.041517563
5	0xbc9fa9d4	-0.01949016
6	0xbdcbdb96	-0.09953992
7	0xbe0548eb	-0.13016097
8	0x3e35e5b7	0.1776341
9	0xbe33d475	-0.17561515

critic.0.weight f4 [32, 64]
0	0xbdcca367	-0.09992104
1	0x3df3519b	0.118807994
2	0xbe47f4fa	-0.19527045
3	0x3cf318a8	0.029674843
4	0x3dcac9ee	0.09901796
5	0xbdd29a07	-0.10283285
6	0x3cb4ede4	0.022086091
7	0xbe2dc18c	-0.16968364
8	0x3d5770fc	0.052597985
9	0xbdb9bca5	-0.09069184
10	0x3da4d959	0.08049268
11	0xbda29bb0	-0.07939851
12	0x3cd6d329	0.026223736
13	0x3df8bc9c	0.121453494
14	0xbdbe62fc	-0.092962235
15	0xbd6fbb94	-0.058528498
16	0xbdcb2280	-0.0991869
17	0x3e18ed2f	0.14934228
18	0xbcfc763d	-0.0308181
19	0xbd94c904	-0.07264903
20	0x3d4a33b7	0.049365725
21	0xbdaab939	-0.0833611
22	0xbbc6fd6d	-0.006072691
23	0x3d4a8699	0.04944477
24	0x3da4cee0	0.08047271
25	0x39f7742f	0.00047198075
26	0xbd133489	-0.035938773
27	0xbcac138a	-0.02100541
28	0x3d7948cc	0.06086044
29	0xbe3abda7	-0.18236409
30	0x3d98ba97	0.07457464
31	0x3d80284f	0.06257688
32	0xbd70a996	-0.05875548
33	0x3ad9cab6	0.0016616199
34	0x3e2bb87e	0.16769597
35	0x3d84ef60	0.0649097
36	0x3e04ed1e	0.12981078
37	0xbd71561e	-0.05892002
38	0xbe608760	-0.21926641
39	0x3d5a6309	0.053317104
40	0x3e3b5188	0.1829282
41	0x3dc7d7c9	0.097579546
42	0xbe201dab	-0.15636317
43	0x3d0e1a2f	0.03469294
44	0xbd7a4025	-0.06109633
45	0xbd69e3ec	-0.05710213
46	0xbde27d0c	-0.11059007
47	0xbde1504c	-0.110016435
48	0xbd3a5300	-0.04548931
49	0xbe126c55	-0.14299138
50	0xbd9b14e8	-0.07572347
51	0x3de24e93	0.11050143
52	0xbd14f5f6	-0.03636738
53	0x3e3211f6	0.17389664
54	0x3dd27b12	0.1027738
55	0x3da839a8	0.08214122
56	0x3e308d82	0.17241481
57	0xbd02ca8d	-0.03193145
58	0x3dcb7079	0.09933562
59	0x3db8d694	0.090253025
60	0xbdfe2a1a	-0.12410374
61	0x3dad2c7e	0.08455752
62	0x3d1b2d01	0.037884716
63	0x3bc37429	0.005964775
64	0xbccc088d	-0.024906421
65	0xbdd03b6a	-0.10167582
66	0xbd4e6cd4	-0.050396755
67	0xbd88a6aa	-0.06672414
68	0xbcf6b300	-0.03011465
69	0x3de0b603	0.10972216
70	0x3debad73	0.11507692
71	0x3d662b88	0.05619386
72	0x3d9667b1	0.07343996
73	0x3decdc71	0.11565483
74	0x3caa1848	0.020763531
75	0xbdd62650	-0.10456526
76	0x39067244	0.00012821803
77	0xbd4d8761	-0.050177936
78	0xbe09ecda	-0.13469258
79	0x3ded7d7e	0.11596201
80	0x3e0d6c4b	0.13810842
81	0xbd078646	-0.033087038
82	0x3d87b3da	0.06626101
83	0x3d9edf6a	0.077574566
84	0xbe0dd5d7	-0.13851105
85	0xbd6df711	-0.05809695
86	0xbd1b3f89	-0.03790239
87	0x3e0c777f	0.13717459
88	0x3c8ad673	0.01694796
89	0x3d48bc95	0.04900797
90	0x3d8d480d	0.06898508
91	0x3dcb43d8	0.099250495
92	0xbcdb1523	-0.026743477
93	0xbe33ceda	-0.17559376
94	0xbcbe1345	-0.023202548
95	0xbcc7fbc2	-0.02441204
96	0x3d9133f1	0.07089985
97	0xbbfbd062	-0.0076847533
98	0xbde81ff0	-0.113342166
99	0x3ddd25e5	0.107982434
100	0xbe01e128	-0.12683547
101	0x3d1259c5	0.035730142
102	0x3e0a950b	0.13533418
103	0x3cc1c455	0.023653189
104	0xbe357aa7	-0.1772257
105	0x3db305f8	0.08741373
106	0x3dfc1d77	0.123103075
107	0xbd2b3a54	-0.041803673
108	0xbcaf941f	-0.021432934
109	0xbd6c9276	-0.057756864
110	0xbc57c808	-0.01317025
111	0x3e292db2	0.16521338
112	0x3d983ad1	0.07433093
113	0x3c92fb7f	0.017942188
114	0xbcc67455	-0.024225393
115	0x3db79aba	0.089650586
116	0x3e18ff18	0.1494106
117	0xbe0c3ba5	-0.13694628
118	0xbd467920	-0.048455358
119	0x3e0186af	0.12649034
120	0x3d5a819d	0.053346265
121	0x3e484e8d	0.19561215
122	0x3bea2778	0.0071458183
123	0xbd9104db	-0.07081004
124	0x3c3d7344	0.011563126
125	0x3d824661	0.0636108
126	0xbe3809a5	-0.17972429
127	0x3dbd0c23	0.092308305
128	0x3d9c5db6	0.076350614
129	0xbda24b87	-0.07924562
130	0x3dc59d57	0.09649151
131	0x3dd03eb3	0.10168209
132	0x3d311d4c	0.04324083
133	0x3df515d6	0.119670555
134	0xbd08ef65	-0.03343143
135	0xbe24092c	-0.16019124
136	0x3ded685e	0.11592172
137	0xbe20fb76	-0.15720925
138	0x3ca6838a	0.020326395
139	0x3de9fbf2	0.11425008
140	0xbdb73b6f	-0.08946883
141	0x3d8c31dd	0.06845448
142	0xbdc52309	-0.09625823
143	0xbdf8e505	-0.12153057
144	0xbe50cc66	-0.20390472
145	0x3dee04d9	0.11622018
146	0xbd9f2f8c	-0.07772741
147	0x3bcabde3	0.006187187
148	0x3e3829ce	0.17984697
149	0x3d00cb5d	0.031443942
150	0x3e25e7f5	0.16201766
151	0xbb88939f	-0.0041679884
152	0x3c279eef	0.010230764
153	0xbe0c4fec	-0.13702363
154	0x3c88a3fd	0.016679758
155	0xbdbe09ef	-0.092792384
156	0xbb1ed085	-0.0024233174
157	0x3da207fa	0.07911678
158	0x3d2b3fe4	0.041808978
159	0xbd9c97ae	-0.07646118
160	0x3dcf4d14	0.10122123
161	0x3d8bad20	0.0682013
162	0x3cc80344	0.02441562
163	0xbd1b3327	-0.03789058
164	0x3c24f013	0.010067004
165	0x3ddd5d24	0.10808781
166	0x3c3e3098	0.011608265
167	0x3de5d046	0.11221366
168	0x3cb78a83	0.022404915
169	0xbbc7ed39	-0.006101277
170	0xbdf62672	-0.120190516
171	0x3dcb69d2	0.09932293
172	0x3c8012c0	0.01563394
173	0xbd87dde3	-0.066341184
174	0xbda0a55d	-0.078440405
175	0xbdf29c4d	-0.11846218
176	0xbd1cb52a	-0.03825871
177	0xbd032862	-0.032020934
178	0x3d9f9a6e	0.07793127
179	0xbde7647f	-0.11298465
180	0xbd94faa3	-0.07274368
181	0xbcb4bc18	-0.022062346
182	0x3db350c0	0.08755636
183	0x3c856131	0.016281696
184	0x3d087691	0.0333162
185	0xbdac3dbb	-0.08410212
186	0x3d839b54	0.06426111
187	0x3d180996	0.037118517
188	0x3b79902d	0.003808032
189	0xbd0e8d48	-0.034802705
190	0x3da82048	0.08209282
191	0xbd9832cc	-0.07431564
192	0x3dec7e0c	0.11547479
193	0x3d424eb8	0.047438353
194	0xbdc78a71	-0.097432025
195	0x3ceedad3	0.029157078
196	0xbdd2e7da	-0.102981284
197	0xbd2d4ee7	-0.042311575
198	0x3d5f507f	0.054520126
199	0xbd987ee9	-0.07446081
200	0xbdb9cc59	-0.09072179
201	0xbde27609	-0.1105767
202	0x3c2c24ce	0.010506822
203	0xbc822ea0	-0.015891373
204	0x3d8fb8aa	0.07017644
205	0x3dbe694d	0.09297428
206	0xbd4f0f07	-0.05055144
207	0xbd1edefa	-0.038786866
208	0xbdac94f1	-0.08426846
209	0x3d6aa5e9	0.05728713
210	0xbd837f86	-0.064208075
211	0xbd6c35c3	-0.05766846
212	0xbdb45cc1	-0.08806754
213	0x3d2e1450	0.04249984
214	0x3dcfa0eb	0.101381145
215	0xbde7f655	-0.11326281
216	0xbe065408	-0.13117993
217	0xbd2690db	-0.04066549
218	0xbc3b0a67	-0.011416054
219	0x3c49a2dc	0.012306895
220	0x3d874b5d	0.06606171
221	0xbd40c264	-0.047060385
222	0xbd944ed2	-0.07241596
223	0xbdd26409	-0.102729864
224	0xbd0ebe19	-0.03484926
225	0x3dcb4924	0.0992606
226	0xba15cb7d	-0.0005714221
227	0xbd1e1574	-0.038594678
228	0xbe079dad	-0.13243742
229	0x3b0f8d8d	0.002190444
230	0x3d6e572f	0.058188614
231	0x3d4b826f	0.049684938
232	0xbdd86e90	-0.10567963
233	0x3cfa915a	0.030586887
234	0xbd3989b8	-0.045297354
235	0x3d483267	0.048876192
236	0x3c4f0520	0.012635499
237	0xbe04e5ad	-0.1297824
238	0x3d2328d3	0.039833855
239	0x3db071e1	0.08615471
240	0x3d5c7c04	0.053829208
241	0x3d9c86b2	0.076428786
242	0x3b8cfbed	0.004302493
243	0x3ccdd1e0	0.02512449
244	0xbda39dd0	-0.07989085
245	0x3cb5d6ce	0.022197153
246	0x3debce82	0.115139976
247	0x3cf7363b	0.030177226
248	0xbbc4fdfb	-0.006011722
249	0x3d68a3b6	0.056796752
250	0x3d6afca1	0.057369832
251	0x3d046d2b	0.032330673
252	0xbd946169	-0.07245142
253	0x3d092fbb	0.033492785
254	0x3d1ae8b6	0.037819587
255	0xbdad2126	-0.08453588

critic.0.bias f4 [32]
0	0xbdb0ac0a	-0.08626564
1	0xbc99e6e4	-0.018786855
2	0x3d883665	0.06651
3	0xbd5b554c	-0.053548142
4	0x3dc68748	0.096937716
5	0x3bf79a46	0.0075562326
6	0xbc730a5e	-0.014834015
7	0x3d53f2a4	0.051745072
8	0x3df8f96b	0.12156948
9	0xbdf25982	-0.118334785
10	0xbd9b9b63	-0.07597997
11	0xbc359665	-0.01108322
12	0x3dfd3d48	0.12365204
13	0x3b497dfd	0.003074526
14	0xbbab3ced	-0.005225769
15	0x3e054954	0.13016254
16	0xbd5e0650	-0.05420524
17	0x3e257652	0.16158417
18	0x3db4b443	0.08823445
19	0x3c3653c4	0.01112837
20	0x3db23eac	0.0870336
21	0x3d87728e	0.066136464
22	0x3df6f61c	0.120586604
23	0xbd535d7e	-0.051602833
24	0x3d423a9a	0.047419168
25	0x3cffdfc6	0.031234633
26	0x3e11ee6d	0.14251108
27	0xbd2ad56d	-0.041707445
28	0xbd11b880	-0.035576344
29	0x3e0f2f8c	0.13982981
30	0x3dd0e335	0.10199586
31	0x3dcc044e	0.099617586

critic.2.weight f4 [1, 32]
0	0x3b43a7a9	0.0029854572
1	0xbe34e6ed	-0.17666216
2	0x3e314c90	0.17314363
3	0xbcced2c6	-0.025246989
4	0x3e00984a	0.12558094
5	0x3c00b3c2	0.007855358
6	0x3e347bf4	0.1762541
7	0xbe7e7a18	-0.24851263
8	0x3dec7a48	0.11546761
9	0x3dceab25	0.10091237
10	0x3cabde6a	0.020980079
11	0x3e3bb72c	0.18331593
12	0x3df62a2b	0.12019762
13	0xbd83f79c	-0.06443712
14	0xbe046544	-0.12929255
15	0x3e3234eb	0.17402999
16	0x3e0307ad	0.12795897
17	0x3d87e3ba	0.06635232
18	0xbdc3b543	-0.09556057
19	0x3e3cf2a0	0.18451929
20	0x3e046bc0	0.12931728
21	0xbc0e812d	-0.00869779
22	0x3e220bac	0.15824765
23	0x3c6c9246	0.014439171
24	0xbdefd81d	-0.11711142
25	0x3e7d27d4	0.24722224
26	0x3de24325	0.11047963
27	0x3d799a13	0.060937952
28	0x3e1fce38	0.1560601
29	0x3e9d83f4	0.30764735
30	0xbe87dc6a	-0.2653535
31	0xbd608ba4	-0.05482067
