circle_std_100_1/model_0.pth (torch, 526450 bytes, 11 tensors)

features_extractor.conv1.weight f4 [16, 4, 4]
0.142761 -0.22063352 -0.00032137893 0.016171196 0.17465742 -0.09685257 -0.26937863 -0.25174102
0.06767846 -0.16927521 0.2022767 0.04230469 -0.26802012 -0.06790723 -0.084454454 -0.1627519
-0.14443916 0.000375352 0.003846943 -0.29699045 -0.15785103 0.025284706 -0.09797858 -0.052882545
-0.055864874 0.04887654 0.031923976 0.22046717 -0.18798919 0.18061772 0.11208141 0.12795366
-0.09150666 0.21225426 0.17710029 -0.05230377 0.14353023 -0.14048833 0.016658088 0.13085334
0.13006474 -0.15304372 -0.061661497 -0.017194731 -0.23888357 -0.073023915 -0.2669919 0.13060056
0.08415077 0.122482985 0.14133537 0.3190728 -0.16495949 -0.075833 -0.11963699 0.06901901
-0.015002968 -0.2391227 0.030409569 -0.14853217 -0.0078443745 -0.10697206 0.056419082 0.09070917
0.08026432 -0.03753108 -0.034345377 -0.17055337 0.15404691 0.1711562 -0.12104017 -0.016604396
-0.17272438 -0.12164013 0.17792675 -0.08239897 0.06412111 0.021713441 0.1136472 0.059963163
0.31342614 -0.12491065 0.23446034 0.11222426 -0.021450428 -0.22003487 -0.09375336 -0.050349943
-0.1790679 0.18031517 -0.16126223 -0.1569131 0.17982475 -0.119217455 0.09484855 0.15777248
-0.27343962 -0.24507272 -0.2731033 -0.011139264 -0.113600254 -0.10841026 0.30687746 0.13640358
0.09025055 0.31178966 -0.17060271 -0.11406517 0.20544867 0.08026462 0.11416583 0.007978263
0.305294 0.18499318 0.3062505 -0.1789091 -0.08600098 -0.18017352 0.036790665 -0.045827705
0.11287923 -0.040547613 0.11741194 -0.17193452 -0.16797891 -0.03638568 -0.16505407 -0.09973639
-0.113120645 0.22740942 -0.22710425 -0.16461599 -0.22160906 0.05747503 -0.045015156 0.02176845
-0.09583214 -0.24033844 -0.119297564 0.21784821 -0.24579069 -0.16146308 -0.098130256 -0.11005616
0.14991708 0.18799533 0.351819 0.28629518 -0.094408184 0.15992182 0.0892051 0.08742435
0.009495032 -0.23272428 0.09564167 -0.16184343 -0.14751326 -0.11486737 0.050585885 0.02810532
0.111122176 -0.15588908 0.2834705 0.21763526 -0.28556138 -0.253357 -0.06519992 0.073596
0.07986503 0.034842953 0.09924362 0.062123764 -0.1144676 -0.26934412 0.11990026 0.0363499
-0.20255716 -0.04255833 0.08261614 0.13805118 -0.15088385 0.19902544 -0.11457305 -0.1297957
0.022473535 0.062361687 -0.0023744812 -0.15123136 -0.16435769 0.040808596 -0.24521281 0.1727144
0.051577643 -0.15262826 -0.0017153923 0.12632301 -0.227689 -0.1813324 0.024509551 -0.18066296
0.1623858 -0.00029112934 0.07778438 0.17606014 -0.2991298 -0.10121013 0.042573415 0.16594666
-0.103200614 -0.1310178 -0.08515456 0.043575436 -0.03351748 -0.18319735 -0.13469288 -0.092885226
0.2343083 -0.15461352 -0.14580715 0.20083961 -0.13076693 -0.21371731 -0.23254246 0.02905187
0.12454942 -0.046902597 -0.0146707 0.011183202 0.12686628 -0.03536132 -0.10131255 0.04329121
-0.048957765 -0.21659973 0.19557983 -0.043791473 -0.14575234 0.05155316 -0.12242997 -0.052322567
0.34949973 0.33956063 0.03482514 0.011004019 0.13886131 -0.25864 -0.09292059 0.047322415
0.17838357 0.12684688 -0.23084222 -0.17293778 0.10106396 -0.25548044 -0.22720625 -0.030878175
00000000: f12f 123e c1ed 61be c07e a8b9 7579 843c
00000010: 65d9 323e a45a c6bd ffeb 89be 33e4 80be
00000020: 019b 8a3d 7b56 2dbe a021 4f3e af47 2d3d
00000030: ef39 89be f212 8bbd 75f6 acbd 6fa8 26be
00000040: dce7 13be e5ca c439 fe1c 7c3b 220f 98be
00000050: b3a3 21be df21 cf3c fea8 c8bd 5e9b 58bd
00000060: 91d2 64bd c432 483d b7c2 023d 25c2 613e
00000070: 3d80 40be daf3 383e f08a e53d 4906 033e
00000080: d867 bbbd 2e59 593e c759 353e 7a3c 56bd
00000090: 97f9 123e 2cdc 0fbe 8b76 883c 6bfe 053e
000000a0: b12f 053e 7eb7 1cbe c490 7cbd f7db 8cbc
000000b0: e59d 74be 908d 95bd 2ab3 88be 27bc 053e
000000c0: 3d57 ac3d 5cd8 fa3d 38ba 103e 835d a33e
000000d0: 24eb 28be 554e 9bbd 3d04 f5bd d759 8d3d
000000e0: 02cf 75bc 95dc 74be 7d1d f93c d118 18be
000000f0: b185 00bc 2b14 dbbd b217 673d bbc5 b93d
00000100: 9f61 a43d 31ba 19bd bdad 0cbd 8ba5 2ebe
00000110: 79be 1d3e 9243 2f3e e9e3 f7bd f105 88bc
00000120: a9de 30be 761e f9bd 6e32 363e cbc0 a8bd
00000130: ee51 833d 63e0 b13c ddbf e83d ef9b 753d
00000140: 6479 a03e 28d1 ffbd 5f16 703e d5d5 e53d
00000150: cfb8 afbc d250 61be c301 c0bd be3b 4ebd
00000160: 935d 37be 8aa4 383e ed21 25be d4ad 20be
00000170: fb23 383e 4828 f4bd f53f c23d 1c8f 213e
00000180: 4700 8cbe 58f4 7abe 32d4 8bbe 7681 36bc
00000190: 40a7 e8bd 3306 debd 0b1f 9d3e 61ad 0b3e
000001a0: 48d5 b83d e5a2 9f3e 7ab2 2ebe 009b e9bd
000001b0: 2361 523e c761 a43d c6cf e93d 43b7 023c
000001c0: 7f4f 9c3e da6e 3d3e decc 9c3e f233 37be
000001d0: 4821 b0bd 687f 38be cfb1 163d d5b5 3bbd
000001e0: 3a2d e73d 4115 26bd ac75 f03d 9a0f 30be
000001f0: aa02 2cbe 2709 15bd ef03 29be 9842 ccbd
00000200: ccab e7bd 04de 683e 048e 68be 1891 28be
00000210: 7ced 62be f06a 6b3d d061 38bd c053 b23c
00000220: a443 c4bd 481b 76be 4852 f4bd 9a13 5f3e
00000230: 8eb0 7bbe 9456 25be 84f8 c8bd 2065 e1bd
00000240: dd83 193e d981 403e 9f21 b43e 4895 923e
00000250: 1459 c1bd 8cc2 233e 2ab1 b63d 8a0b b33d
00000260: 0d91 1b3c 464f 6ebe c8df c33d 49ba 25be
00000270: b70d 17be 953f ebbd 2533 4f3d 213d e63c
00000280: 0694 e33d 63a1 1fbe 0c23 913e c7db 5e3e
00000290: 1a35 92be 02b8 81be 8987 85bd 80b9 963d
000002a0: 4790 a33d 7cb7 0e3d 3d40 cb3d 7d75 7e3d
000002b0: fd6d eabd 79e7 89be 448e f53d a2e3 143d
000002c0: 256b 4fbe a551 2ebd a732 a93d 4a5d 0d3e
000002d0: 4c81 1abe 53cd 4b3e 46a5 eabd 2ae9 04be
000002e0: 6b1a b83c f86e 7f3d 2f9d 1bbb 65dc 1abe
000002f0: 624d 28be ea26 273d 1119 7bbe 0bdc 303e
00000300: 1443 533d 954a 1cbe 04d7 e0ba d25a 013e
00000310: 4e27 69be 33af 39be 41c8 c83c b6ff 38be
00000320: 7748 263e b8a2 98b9 6b4d 9f3d 1c49 343e
00000330: 8b27 99be 4247 cfbd 7661 2e3d eced 293e
00000340: d85a d3bd 8829 06be 8465 aebd 287c 323d
00000350: a049 09bd 1698 3bbe eeec 09be 9c3a bebd
00000360: 84ee 6f3e 0253 1ebe 784e 15be e6a8 4d3e
00000370: c4e7 05be b6d8 5abe 9c1f 6ebe 30fe ed3c
00000380: c413 ff3d f01c 40bd 605d 70bc c039 373c
00000390: 3ce9 013e 08d7 10bd f47c cfbd 2052 313d
000003a0: f087 48bd 52cc 5dbe 1446 483e b05e 33bd
000003b0: 1a40 15be 6829 533d 90bc fabd 3050 56bd
000003c0: a1f1 b23e e4da ad3e cea4 0e3d 334a 343c
000003d0: a931 0e3e 766c 84be 264d bebd 26d5 413d
000003e0: 2faa 363e 26e4 013e e761 6cbe 9a16 31be
000003f0: 9ffa ce3d 55ce 82be c1a8 68be 3af4 fcbc

features_extractor.conv1.bias f4 [16]
0.059387777 0.14679193 0.0014971113 0.08394573 -0.20457208 -0.19661735 0.2454598 -0.06802772
-0.2259422 -0.283323 -0.14642128 -0.18808064 -0.15866248 -0.1260989 -0.11697838 0.2134291
00000000: 9940 733d a050 163e b83a c43a bdeb ab3d
00000010: 587b 51be 0f56 49be d059 7b3e 1e52 8bbd
00000020: 645d 67be b60f 91be 76ef 15be 3698 40be
00000030: 6b78 22be 1220 01be 5c92 efbd 288d 5a3e

features_extractor.conv2.weight f4 [32, 16, 4]
0.024442991 0.0010115668 -0.035733372 -0.04346687 -0.03983605 0.03539144 -0.044540558 -0.07124501
0.12220866 -0.104470596 0.0025451288 -0.050805055 0.045900654 0.15299347 0.1507438 -0.034615878
-0.08438325 0.03488811 0.09330216 -0.07100978 -0.04536342 -0.020150993 0.07592361 -0.06592225
-0.14909083 -0.09163601 -0.3379275 -0.27529794 -0.08291919 -0.09232979 0.18119937 -0.061446704
-0.0346518 0.11571993 -0.034950614 0.0536132 0.09764543 0.08848676 0.08321351 0.16710113
-0.00779429 -0.008215432 0.025450982 0.0996726 -0.015410023 -0.011170109 -0.008680626 0.088144
-0.0699643 0.06560267 -0.123204075 0.03361329 0.046561375 0.09037079 -0.026948527 -0.11165555
0.10982512 -0.057562977 -0.03300205 0.091969475 -0.083676726 0.2413626 0.17297295 0.026044374
0.04270802 -0.119122654 0.061450914 -0.019288272 0.033350952 -0.14624308 -0.076752044 -0.09426097
0.08962692 -0.04160425 -0.098064184 -0.1474465 -0.06318067 0.032345574 0.12560186 -0.038699333
-0.0927172 0.09781324 0.0057099033 0.09677377 0.07002671 0.023803163 -0.08938994 0.036639694
-0.09943608 -0.16548185 -0.13928653 -0.19393823 -0.1614581 0.020571938 -0.0078057456 -0.011057625
-0.06767477 0.08466266 -0.069233626 -0.015289992 0.16260278 -0.050348308 0.14566131 -0.0796693
-0.034193374 -0.00063992146 0.084972575 0.0701002 0.003992755 -0.10976912 -0.0017596058 -0.029954849
-0.012712638 -0.05210511 -0.024604142 -0.107836165 0.11911829 0.06557457 0.12157902 -0.023267165
0.07775396 -0.11837861 -0.103134885 0.100428745 -0.11150356 -0.0038514012 0.17122343 0.046796825
-0.061520934 0.06873302 -0.123743005 0.00777059 -0.095992215 -0.13879086 -0.046299044 -0.10151873
0.08672345 -0.12319226 -0.13159269 -0.072766505 -0.06354843 0.078686565 0.038925916 -0.084831625
0.0029710406 -0.09077805 -0.013005014 0.00038932305 -0.026630597 -0.0017536507 -0.053340565 0.113880016
-0.13264596 -0.31682116 -0.25057715 -0.14576261 -0.11002608 -0.10892679 -0.064997025 0.1325234
0.048749223 0.020584643 0.11603971 -0.07640104 0.035634153 0.15029685 0.022847896 -0.018577587
-0.022133354 0.13674226 0.11323638 0.019096967 0.046227455 -0.07046816 0.044605244 0.005882386
-0.038555313 0.08320603 0.048290126 0.007234359 -0.04267165 0.06493473 0.12371215 0.107975125
0.112090394 -0.12467432 0.0394575 -0.108732015 0.07165276 0.009896402 0.085684754 0.24294049
-0.072285384 0.07604168 -0.09352074 0.021818312 0.03677454 -0.038592342 -0.13252127 0.04981157
-0.09293581 0.043756194 0.044281296 -0.10431377 -0.060412027 0.09117603 -0.031525355 0.11091427
0.110819444 0.09572434 -0.041849114 -0.056930188 -0.069159225 -0.0057311547 0.1426201 -0.05348055
-0.289146 -0.26356518 -0.16796184 -0.087580755 -0.19368419 0.06338817 0.10314384 0.18443075
0.080394134 -0.08707824 -0.117244095 -0.06911242 0.044999998 0.15166594 0.1854563 0.11241728
0.010030993 0.03599932 -0.015205686 0.048304487 -0.11938512 -0.015966758 -0.08406652 0.06342891
-0.022749783 -0.06517483 0.06831537 -0.13096096 -0.024410024 -0.1249297 -0.059001118 0.021601528
0.081748694 -0.04527299 -0.1048522 -0.12080261 -0.04806196 0.13340306 0.17802829 0.16194807
00000000: ab3c c83c 8d96 843a 285d 12bd 510a 32bd
00000010: 202b 23bd 9df6 103d 2970 36bd e7e8 91bd
00000020: 8948 fa3d aef4 d5bd 2dcc 263b f618 50bd
00000030: 5302 3c3d 52aa 1c3e 955c 1a3e 61c9 0dbd
00000040: 20d1 acbd d6e6 0e3d 3415 bf3d 936d 91bd
00000050: fece 39bd b213 a5bc d67d 9b3d 3f02 87bd
00000060: 44ab 18be a9ab bbbd d504 adbe daf3 8cbe
00000070: 89d1 a9bd 6717 bdbd 548c 393e 8aaf 7bbd
00000080: 0cef 0dbd 92fe ec3d 6028 0fbd 8499 5b3d
00000090: 54fa c73d 8c38 b53d d86b aa3d 8f1c 2b3e
000000a0: 3e67 ffbb 059a 06bc 947e d03c 2621 cc3d
000000b0: 527a 7cbc d502 37bc 2f39 0ebc d784 b43d
000000c0: 7149 8fbd b15a 863d 6b52 fcbd 17ae 093d
000000d0: 24b7 3e3d 5214 b93d 28c3 dcbc aaab e4bd
000000e0: feeb e03d 28c7 6bbd 282d 07bd 7e5a bc3d
000000f0: b45e abbd c227 773e d21f 313e 035b d53c
00000100: 9bee 2e3d 94f6 f3bd f4b3 7b3d 7002 9ebc
00000110: 029b 083d bfc0 15be 2d30 9dbd e50b c1bd
00000120: 528e b73d 3869 2abd e0d5 c8bd 37fc 16be
00000130: de64 81bd cb7c 043d c69d 003e 3183 1ebd
00000140: 84e2 bdbd 4f52 c83d 241a bb3b 5431 c63d
00000150: 2a6a 8f3d dafe c23c 1312 b7bd 8113 163d
00000160: 25a5 cbbd 1374 29be 21a1 0ebe be97 46be
00000170: 4655 25be 7b86 a83c 57c7 ffbb 0a2b 35bc
00000180: 1299 8abd 9e63 ad3d 5cca 8dbd e082 7abc
00000190: 5881 263e 073a 4ebd 3d28 153e a829 a3bd
000001a0: 5a0e 0cbd 67c0 27ba 1a06 ae3d b290 8f3d
000001b0: a8d5 823b a2ce e0bd 93a2 e6ba df63 f5bc
000001c0: ab48 50bc 2b6c 55bd a08e c9bc 35d9 dcbd
000001d0: 4af4 f33d f64b 863d 6cfe f83d c89a bebc
000001e0: 783d 9f3d 7c70 f2bd 6238 d3bd 96ad cd3d
000001f0: fa5b e4bd ca67 7cbb 3255 2f3e 07ae 3f3d
00000200: 60fd 7bbd e6c3 8c3d f96c fdbd 6fa0 fe3b
00000210: 9197 c4bd 311f 0ebe 11a4 3dbd 0de9 cfbd
00000220: 109c b13d 394c fcbd 3cc0 06be 9b06 95bd
00000230: ae25 82bd 6c26 a13d c870 1f3d 34bc adbd
00000240: cab5 423b d8e9 b9bd fb12 55bc 0e1e cc39
00000250: 6928 dabc c1da e5ba a37b 5abd ed39 e93d
00000260: 58d4 07be 6236 a2be a64b 80be cb42 15be
00000270: 5a55 e1bd 0215 dfbd 291d 85bd 37b4 073e
00000280: 44ad 473d 20a1 a83c 3aa6 ed3d 2678 9cbd
00000290: 1ef5 113d 6be7 193e 832b bb3c 0630 98bc
000002a0: 0251 b5bc 2a06 0c3e 7ae8 e73d 3e71 9c3c
000002b0: 0059 3d3d 9c51 90bd fdb3 363d 08c1 c03b
000002c0: 2dec 1dbd ec67 aa3d decb 453d 340e ed3b
000002d0: 78c8 2ebd 80fc 843d cc5c fd3d 1022 dd3d
000002e0: a68f e53d 4055 ffbd 309e 213d e4ae debd
000002f0: afbe 923d 8524 223c 7d7b af3d 64c5 783e
00000300: 5c0a 94bd bebb 9b3d cd87 bfbd 51bc b23c
00000310: e6a0 163d 0113 1ebd a8b3 07be 3807 4c3d
00000320: 2155 bebd b239 333d 4e60 353d 75a2 d5bd
00000330: 9a72 77bd 80ba ba3d bb20 01bd 0527 e33d
00000340: 4ef5 e23d 1f0b c43d fa69 2bbd a12f 69bd
00000350: 5aa3 8dbd 69cc bbbb 010b 123e 6c0e 5bbd
00000360: f20a 94be 04f2 86be 30fe 2bbe 8a5d b3bd
00000370: 2655 46be a8d1 813d 143d d33d 6adb 3c3e
00000380: aea5 a43d 1456 b2bd ac1d f0bd d08a 8dbd
00000390: eb51 383d 514e 1b3e 42e8 3d3e 083b e63d
000003a0: 0959 243c 0674 133d 4521 79bc edda 453d
000003b0: 3080 f4bd b8cc 82bc 112b acbd 04e7 813d
000003c0: c15d babc 627a 85bd eee8 8b3d a11a 06be
000003d0: 88f7 c7bc 24db ffbd 28ab 71bd b0f5 b03c
000003e0: dc6b a73d 2c70 39bd c0bc d6bd 5c67 f7bd
000003f0: 9edc 44bd d09a 083e 0c4d 363e b7d5 253e

features_extractor.conv2.bias f4 [32]
-0.032802667 0.015794413 -0.006387916 -0.01597386 -0.06299785 0.06503708 0.042138424 -0.0052385554
0.13576126 -0.114424914 -0.04954837 0.07216662 -0.089310095 0.008166708 -0.0073125707 -0.124029
0.2061674 -0.0706578 -0.04725916 -0.067269236 0.09567036 -0.10131316 -0.0662166 0.020695707
-0.014603223 -0.03213707 -0.05249346 0.041221116 -0.10514481 -0.020843396 0.014626498 0.07786314
00000000: 175c 06bd 4963 813c b951 d1bb 9ddb 82bc
00000010: 0405 81bd 2932 853d 5799 2c3d 30a8 abbb
00000020: 0005 0b3e 9c57 eabd 3bf3 4abd 18cc 933d
00000030: 36e8 b6bd a8cd 053c 4a9e efbb eb02 febd
00000040: 8c1d 533e 09b5 90bd d292 41bd 74c4 89bd
00000050: d2ee c33d 467d cfbd 929c 87bd 0b8a a93c
00000060: 5b42 6fbc 29a2 03bd 6203 57bd 79d7 283d
00000070: 2a56 d7bd c5bf aabc fba3 6f3c b676 9f3d

features_extractor.fc_op.weight f4 [32, 3]
-0.018170346 0.32806 -0.3376831 0.031918712 0.27426514 -0.30176982 0.32212228 -0.42193186
0.6244304 0.11535398 -0.2506048 -0.18979317 -0.1854301 0.041351926 0.48315585 0.4950174
-0.29082426 -0.33665848 -0.0072819116 0.068072416 -0.8109467 0.13350742 -0.15665282 -0.08175211
0.029492393 0.20969665 -0.3211417 -0.032619566 0.005101874 -0.107232355 -0.1328342 -0.26158085
0.22369313 0.41551858 0.1133595 0.3357312 -0.0810262 -0.0104407985 -0.13119781 -0.37650645
-0.10648318 0.26802418 0.10960498 0.3659418 0.55391055 -0.17342 -0.42910075 -0.3121318
-0.593875 0.044049203 0.16100052 0.28136978 -0.44471303 0.4353872 0.49088553 0.4285646
0.6649244 0.54881346 0.4068411 0.5607936 0.40656802 0.44453746 -0.39937147 0.5401195
0.080598675 0.54221565 -0.15300047 -0.0958326 0.28103718 -0.29694065 0.4722133 -0.03684186
0.362347 -0.20224375 0.4964353 -0.50538814 -0.26425067 0.26926327 0.33877245 -0.22650568
-0.1298947 0.0042029954 -0.0018239949 -0.5089901 -0.092036046 0.015080772 -0.4529803 0.06755579
-0.102127366 0.29831725 -0.007572823 -0.00050341466 -0.25565264 0.06429446 0.45576996 0.48182097
00000000: fad9 94bc 7bf7 a73e cde4 acbe 32bd 023d
00000010: 7b6c 8c3e 9381 9abe 36ed a43e 7407 d8be
00000020: acda 1f3f b53e ec3d 464f 80be 2459 42be
00000030: 63e1 3dbe a360 293d 3460 f73e ec72 fd3e
00000040: ebe6 94be 805e acbe 1a9d eebb 8d69 8b3d
00000050: 349a 4fbf 2bb6 083e 9969 20be a66d a7bd
00000060: 089a f13c b8ba 563e af6c a4be 189c 05bd
00000070: 9f2d a73b a39c dbbd b005 08be eded 85be
00000080: d00f 653e dabe d43e 0729 e83d f6e4 ab3e
00000090: 10f1 a5bd e20f 2bbc b858 06be 74c5 c0be
000000a0: da13 dabd 773a 893e 9378 e03d b95c bb3e
000000b0: 15cd 0d3f 0395 31be 18b3 dbbe bdcf 9fbe
000000c0: 3108 18bf f06c 343d 52dd 243e b30f 903e
000000d0: 6db1 e3be 12eb de3e 5955 fb3e d26c db3e
000000e0: 7c38 2a3f 0a7f 0c3f 7a4d d03e 2b90 0f3f
000000f0: af29 d03e 6a9a e33e 6b7a ccbe 4645 0a3f
00000100: eb10 a53d a5ce 0a3f 28ac 1cbe e243 c4bd
00000110: 1be4 8f3e 9b08 98be f1c5 f13e 7de7 16bd
00000120: 8c85 b93e fc18 4fbe c52c fe3e 1e61 01bf
00000130: dd4b 87be e0dc 893e 9573 ad3e 1bf1 67be
00000140: 1e03 05be 48b9 893b 1d13 efba 2d4d 02bf
00000150: 657d bcbd 5815 773c 09ed e7be b15a 8a3d
00000160: 2728 d1bd 0abd 983e 7225 f8bb 96f7 03ba
00000170: e7e4 82be d0ac 833d ae5a e93e 3db1 f63e

features_extractor.fc_op.bias f4 [32]
0.01920281 -0.009244289 -0.10581582 0.45797917 0.5683891 0.31530845 0.41314557 0.20925128
0.4723816 -0.061607365 0.28883448 -0.05631244 0.39160538 -0.31972486 0.5854131 0.63669443
0.059746675 0.13582502 -0.080986075 -0.09932077 -0.45791563 -0.16304165 0.10905868 -0.045545608
-0.01579508 0.40494 0.0546604 0.22073396 0.31049827 0.25153807 -0.044057466 0.487627
00000000: 364f 9d3c 5c75 17bc f7b5 d8bd 3f7c ea3e
00000010: f381 113f 1c70 a13e d187 d33e f845 563e
00000020: 00dc f13e 0158 7cbd 1de2 933e e0a7 66bd
00000030: 8080 c83e fab2 a3be a2dd 153f 68fe 223f
00000040: eeb8 743d b715 0b3e 07dc a5bd b068 cbbd
00000050: eb73 eabe 64f4 26be 285a df3d 088e 3abd
00000060: af64 81bc 4c54 cf3e 95e3 5f3d 1508 623e
00000070: a1f9 9e3e 99c9 803e 9a75 34bd 3faa f93e

features_extractor.fc_merge.weight f4 [352, 352]
0.09643152 0.09627185 0.061381288 0.078023106 0.10527838 0.068508975 0.07966271 0.051864326
0.09064873 0.083258845 0.044122588 0.08665165 0.07102665 0.08476529 -0.010937127 0.01327035
0.04360863 -0.009923697 -0.0068888688 0.029825466 0.040239446 0.08996632 0.07254563 0.052618854
0.085843794 0.0838381 0.048499238 0.039525047 0.07994336 -0.016832348 0.09199804 0.059879623
0.08225811 0.07064409 0.049230188 0.021375075 0.0441239 0.045300312 -0.0014024867 0.026587673
0.04382796 -0.048678808 0.016247371 0.0065581407 -0.012715619 -0.043340363 -0.04090705 0.02211712
-0.047481574 0.02849863 0.10822229 0.041980706 0.10229708 0.09138546 0.06142838 0.036450226
0.11105671 0.09710137 0.07388975 0.09024177 0.061144274 0.108370185 0.017787728 0.032439757
0.071102984 0.07689158 -0.001151326 0.039027628 0.054321595 0.08918163 6.0288883e-05 0.02262161
0.021651732 -0.019043144 -0.019236632 -0.05174012 -0.092942834 -0.0017218466 0.0014850214 -0.009091048
0.041233875 0.020975756 0.021634834 -0.07645103 -0.09341775 -0.10251 -0.118664816 -0.12444953
-0.14701295 -0.22979504 -0.012982895 0.031930275 -0.043779112 0.04091284 -0.006731646 0.019798737
-0.027946968 0.0063496702 -0.029497407 0.037693895 0.09347107 0.13102362 0.055895522 0.11159829
0.04687847 0.061380856 0.10087096 0.06869808 0.041429523 -0.005729943 0.07655461 0.023566432
-0.0120734 0.08504121 -0.009588492 0.054338153 0.0038011288 0.06259775 0.060676932 0.01584539
-0.025591774 0.09425077 0.097371854 0.028777651 0.046969008 0.100283764 0.09211976 0.053840864
0.0108459545 0.027460197 0.066814266 0.07513849 0.013560485 0.046008836 -0.034382906 -0.006722078
0.049954064 -0.029921198 0.020975985 0.022914436 -0.08718212 -0.016333053 0.009409533 -0.006806449
0.008130765 -0.006759622 -0.043849792 -0.056860648 -0.04693083 -0.069556125 -0.0123892585 -0.04820871
0.020715397 -0.003766597 -0.02055791 0.0091940025 -0.04757383 0.01182804 0.018772472 -0.0043827845
-0.058478866 -0.052725054 -0.02343507 -0.16209292 -0.22802755 -0.25452623 -0.30276856 -0.32083845
-0.26541156 -0.35706094 -0.0082651125 0.05936943 0.04262628 0.04885341 0.0812362 0.045084316
0.11509379 0.09262023 0.029881706 0.073922604 0.049941935 0.079129286 0.034156535 0.12093393
0.016909584 0.07309642 0.012098324 0.003873252 0.10129002 0.008222971 0.070889615 0.06118386
0.007682816 0.04287161 0.088011585 0.0021225614 0.0734562 0.021677308 0.0015381667 0.00011618511
0.08476131 0.061269376 0.04661049 0.02861314 0.07184327 0.06211072 0.06888338 0.03339805
0.0049230177 0.025820501 0.040634125 -0.044881884 -0.013639154 -0.039260484 0.009240332 0.035841066
-0.026868498 0.0023558072 -0.055699166 -0.0024493346 -0.030618481 0.0063904054 -0.09118816 -0.06560159
-0.048633043 -0.10608214 -0.013208176 -0.04749247 -0.050321195 -0.12624605 0.026644496 0.008191306
0.107710645 0.06372699 0.100011684 0.023317803 0.046222936 0.013036578 0.086492874 0.042343855
0.031063013 -0.08036906 -0.12296834 -0.07086774 -0.030177841 -0.030508094 -0.041677043 0.05173037
-0.034287926 -3.588281e-05 -0.10628983 -0.100240946 -0.082552224 -0.1176301 -0.178836 -0.10187221
00000000: e47d c53d 2d2a c53d f26a 7b3d 94ca 9f3d
00000010: 319c d73d 6f4e 8c3d 3426 a33d b06f 543d
00000020: 0ba6 b93d 9d83 aa3d e3b9 343d 6c76 b13d
00000030: 6c76 913d 6d99 ad3d a331 33bc e26b 593c
00000040: f69e 323d 0197 22bc 05bc e1bb 8954 f43c
00000050: 1ed2 243d 4340 b83d ce92 943d de86 573d
00000060: dfce af3d 4fb3 ab3d 23a7 463d 04e5 213d
00000070: 58b9 a33d fee3 89bc 7869 bc3d 5644 753d
00000080: f176 a83d d9ad 903d 98a5 493d c81a af3c
00000090: 43bb 343d d28c 393d a5d3 b7ba 64ce d93c
000000a0: f284 333d 6e63 47bd 3519 853c ace5 d63b
000000b0: 2c55 50bc aa85 31bd 278e 27bd f62e b53c
000000c0: 0a7c 42bd f575 e93c a6a3 dd3d f6f3 2b3d
000000d0: 2281 d13d 4d28 bb3d 539c 7b3d d54c 153d
000000e0: b371 e33d 15dd c63d 8253 973d add0 b83d
000000f0: 6b72 7a3d 30f1 dd3d 92b7 913c 8ddf 043d
00000100: 719e 913d 5579 9d3d 17e8 96ba 6fdb 1f3d
00000110: 5280 5e3d dca4 b63d b2de 7c38 f450 b93c
00000120: f95e b13c 5e00 9cbc 2496 9dbc 73ed 53bd
00000130: d058 bebd 96af e1ba 0da5 c23a 9ef2 14bc
00000140: dae4 283d 59d5 ab3c 893b b13c 5c92 9cbd
00000150: ce51 bfbd c3f0 d1bd 8a06 f3bd 65df febd
00000160: 908a 16be 644f 6bbe 35b6 54bc 52c9 023d
00000170: ba51 33bd 3994 273d 2495 dcbb f630 a23c
00000180: 0af1 e4bc e510 d03b 8ca4 f1bc ea64 1a3d
00000190: c36d bf3d 0e2b 063e b4f2 643d a58d e43d
000001a0: a303 403d 7e6a 7b3d 6f95 ce3d 94b1 8c3d
000001b0: 01b2 293d 3fc2 bbbb aac8 9c3d 640e c13c
000001c0: 83cf 45bc 162a ae3d 0d19 1dbc af91 5e3d
000001d0: 5c1c 793b 4033 803d 6088 783d 31ce 813c
000001e0: d7a5 d1bc 8c06 c13d e56a c73d 1cbf eb3c
000001f0: 9362 403d 9361 cd3d 49a9 bc3d 3d88 5c3d
00000200: 3bb3 313c 35f4 e03c ebd5 883d 35e2 993d
00000210: cc2c 5e3c c373 3c3d 17d5 0cbd e144 dcbb
00000220: a29c 4c3d 4d1d f5bc d4d5 ab3c 0eb7 bb3c
00000230: 8a8c b2bd e5cc 85bc 712a 1a3c a208 dfbb
00000240: e636 053c d27f ddbb d79b 33bd b6e6 68bd
00000250: 8b3a 40bd 7173 8ebd 51fc 4abc 7f76 45bd
00000260: 56b3 a93c 03d9 76bb 1069 a8bc 71a2 163c
00000270: c7dc 42bd 65ca 413c bac8 993c 769d 8fbb
00000280: 8987 6fbd 3af6 57bd e7fa bfbc b0fb 25be
00000290: 0e80 69be 4351 82be 7b04 9bbe f044 a4be
000002a0: 06e4 87be b1d0 b6be 656a 07bc 5c2d 733d
000002b0: e598 2e3d 831a 483d 2a5f a63d 55aa 383d
000002c0: 4bb6 eb3d adaf bd3d 7bca f43c bc64 973d
000002d0: ea8f 4c3d 890e a23d b9e7 0b3d 35ac f73d
000002e0: f885 8a3c 93b3 953d 0c38 463c 63d6 7d3b
000002f0: 2471 cf3d a4b9 063c 932e 913d ed9b 7a3d
00000300: 22c0 fb3b 249a 2f3d 6b3f b43d ac1a 0b3b
00000310: 3470 963d 9c94 b13c 4f9c c93a 68a8 f338
00000320: 5697 ad3d 99f5 7a3d a4ea 3e3d 1b66 ea3c
00000330: 9022 933d cf67 7e3d bb12 8d3d 65cc 083d
00000340: 4451 a13b 8485 d33c f86f 263d 11d6 37bd
00000350: c276 5fbc 9acf 20bd c364 173c 15ce 123d
00000360: 531b dcbc e363 1a3b cf24 64bd 0485 20bb
00000370: 9cd3 fabc 9b66 d13b dcc0 babd 205a 86bd
00000380: 7133 47bd 9841 d9bd 1b67 58bc 7787 42bd
00000390: 991d 4ebd a546 01be 8f45 da3c d434 063c
000003a0: 6697 dc3d 4c83 823d edd2 cc3d fa04 bf3c
000003b0: 4354 3d3d 5f97 553c 2d23 b13d c070 2d3d
000003c0: dc77 fe3c 8998 a4bd d3d6 fbbd 1b23 91bd
000003d0: 8537 f7bc 1cec f9bc 8cb5 2abd 39e3 533d
000003e0: 7f71 0cbd e080 16b8 7bae d9bd 204b cdbd
000003f0: 2411 a9bd 0de8 f0bd c920 37be 61a2 d0bd

features_extractor.fc_merge.bias f4 [352]
0.05013083 -0.025154674 0.0037474586 -0.011777288 0.0074727978 0.0002396986 -0.026884258 0.007503504
-0.0020397485 0.09591217 0.16855735 0.07697488 0.026758928 0.005912046 0.024969952 -0.043513335
0.027707873 -0.017561072 0.0006334357 -0.03878961 0.036382176 0.0746357 -0.067752205 0.001185613
0.0013476628 0.0345678 0.046818934 0.054261815 -0.08275822 -0.025730873 -0.014659502 -0.024504751
0.1450738 0.007938371 0.01844561 -0.014780655 0.15594733 0.08235622 -0.06211749 0.05816671
0.070461884 -0.045037575 -0.0076005287 -0.06306852 0.03419942 0.015772283 0.02739018 0.03130317
-0.038850773 -0.014094682 -0.04631923 0.107447594 0.06543125 0.016002728 0.008054289 0.2852079
0.008566239 0.08612014 -0.012856028 0.08178445 0.16103399 -0.030256731 -0.030108318 -0.0019454036
-0.072102316 -0.029495409 0.017357124 0.04582768 -0.049798746 -0.018057171 -0.063541 0.08048638
0.023883207 0.074197665 -0.05521025 0.07885891 0.122465804 -0.04096741 -0.0061156424 0.09848474
-0.0707717 -0.020619009 0.023711191 0.0658247 -0.021972666 0.0038887877 0.008302288 0.0785336
-0.01807118 -0.045236785 0.044685006 0.06636821 0.044604383 0.043990918 0.04857911 0.037681114
0.0033999807 0.03792509 -0.03116179 -0.048406236 -0.051465347 0.11270937 0.04648975 -0.028756127
0.092392765 -0.24869305 -0.0016674653 0.03095676 0.019467223 -0.005809117 -0.05426413 0.008650358
0.14451359 -0.032458395 -0.08386978 0.044496026 0.0283968 -0.08981102 0.006418807 -0.025585635
0.14724526 0.0013850341 -0.009359207 0.064219125 -0.028182931 0.022691034 -0.20870444 0.092949525
0.1233004 0.0005463407 0.040210273 -0.08208023 0.08897417 -0.054810695 0.0252235 0.03125275
0.06423984 -0.03734613 -0.034979265 0.0077549443 0.08580129 0.02241254 -0.03536527 0.06272775
-0.0681903 -0.05444003 0.0085488185 -0.03018605 -0.026411166 0.021918222 -0.04253526 0.05248918
0.020334028 0.10371794 0.12328258 -0.031967834 0.058145087 -0.04255811 0.0011275333 -0.0048865452
-0.032081876 -0.04722016 0.018314559 -0.02863938 -0.009841216 0.002773255 0.041634824 -0.021890368
0.18501495 0.14447938 -0.03687611 0.013118393 0.08566205 0.038721457 0.016474314 0.03768
0.09342873 0.043306313 0.12004893 0.0046446 0.004855164 0.024710285 0.032899395 -0.078007706
0.09006624 0.14413199 0.0922478 0.053030744 -0.05426899 -0.025774514 0.018628847 0.13545513
0.0020777937 0.02503695 0.033652354 0.05340264 0.11084733 0.13376428 -0.049315337 0.0020981468
-0.01664798 0.015784077 0.013755613 0.051910397 0.017165098 -0.06620613 0.08371908 -0.014270108
-0.039054997 -0.02247214 0.1516234 0.06690368 -0.008993304 0.05556612 0.0076084286 0.0075266915
-0.05187642 -0.072066754 -0.057581235 0.07820361 -0.04797302 -0.03390067 0.05829803 0.04295487
0.03673786 0.11409788 0.041794114 -0.021801129 -0.013943135 -0.010519709 -0.08624981 -0.020004522
-0.028274942 -0.04642806 -0.04281556 0.08406622 0.037260238 -0.021913718 0.041474007 0.05069326
-0.015334566 0.05245553 0.009873743 0.15664533 -0.036454234 0.0076275067 0.08769764 -0.0536573
-0.0077572158 0.052531112 -0.0328653 -0.07314454 0.045912474 -0.013192613 0.17909987 0.008421559
00000000: fc55 4d3d 2d11 cebc ec97 753b 87f5 40bc
00000010: 5fde f43b 9a57 7b39 603c dcbc f4df f53b
00000020: 4dad 05bb 9a6d c43d 4c9a 2c3e 02a5 9d3d
00000030: 8a35 db3c d6b9 c13b c98d cc3c 0a3b 32bd
00000040: 9ffb e23c 3ddc 8fbc 260d 263a dbe1 1ebd
00000050: 7a05 153d 9ada 983d abc1 8abd 9266 9b3a
00000060: 0fa4 b03a f796 0d3d 36c5 3f3d a341 5e3d
00000070: 247d a9bd 8dc9 d2bc 682e 70bc 30be c8bc
00000080: 3a8e 143e f10f 023c 3f1b 973c 8f2a 72bc
00000090: a8b0 1f3e 61aa a83d e96e 7ebd 3740 6e3d
000000a0: 524e 903d 5279 38bd db0d f9bb 112a 81bd
000000b0: b114 0c3d e034 813c 5f61 e03c c137 003d
000000c0: fd21 1fbd 62ed 66bc 3cb9 3dbd 7c0d dc3d
000000d0: d200 863d 2718 833c 23f6 033c c506 923e
000000e0: 6959 0c3c c25f b03d 17a2 52bc 9b7e a73d
000000f0: 18e6 243e f7dc f7bc b8a5 f6bc eafc feba
00000100: 61aa 93bd 5ba0 f1bc 8730 8e3c ceb5 3b3d
00000110: c5f9 4bbd a2ec 93bc c921 82bd 0bd6 a43d
00000120: b7a6 c33c f2f4 973d 2524 62bd c880 a13d
00000130: 5acf fa3d 71cd 27bd ba65 c8bb 5eb2 c93d
00000140: c1f0 90bd 32e9 a8bc f93d c23c 1acf 863d
00000150: 0500 b4bc 08db 7e3b 5206 083c 39d6 a03d
00000160: 030a 94bc 354a 39bd a007 373d 0eec 873d
00000170: 16b3 363d d22f 343d e4fa 463d 8357 1a3d
00000180: 36d2 5e3b 5757 1b3d 0347 ffbc 9e45 46bd
00000190: 54cd 52bd 2cd4 e63d 096c 3e3d f891 ebbc
000001a0: 6b38 bd3d 64a9 7ebe da8e daba 0899 fd3c
000001b0: ba79 9f3c 685a bebb 1044 5ebd 3bba 0d3c
000001c0: 5ffb 133e 18f3 04bd ebc3 abbd 7741 363d
000001d0: 68a0 e83c d7ee b7bd db54 d23b f798 d1bc
000001e0: 76c7 163e 088a b53a 5c57 19bc 5185 833d
000001f0: e4df e6bc 8ce2 b93c 9eb6 55be 525c be3d
00000200: ec84 fc3d 4e38 0f3a 87b3 243d ae19 a8bd
00000210: 1738 b63d 2e81 60bd 83a1 ce3c e202 003d
00000220: 2d90 833d 41f8 18bd 6b46 0fbd 301d fe3b
00000230: 96b8 af3d 819a b73c 2cdb 10bd 6877 803d
00000240: 5ba7 8bbd 82fc 5ebd 5810 0c3c bc48 f7bc
00000250: 3b5c d8bc d88d b33c 7439 2ebd e5fe 563d
00000260: 8c93 a63c 126a d43d 947b fc3d b4f0 02bd
00000270: 8b29 6e3d 6a51 2ebd bdc9 933a 501f a0bb
00000280: 4968 03bd ed69 41bd 6a08 963c 229d eabc
00000290: 0d3d 21bc 80bf 353b 4789 2a3d 6e53 b3bc
000002a0: 8f74 3d3e 67f2 133e 670b 17bd 87ee 563c
000002b0: 966f af3d 649a 1e3d 24f5 863c 5856 1a3d
000002c0: 9057 bf3d f661 313d 37dc f53d bb31 983b
000002d0: 1118 9f3b 396d ca3c 84c1 063d 81c2 9fbd
000002e0: a674 b83d 5697 133e 6aec bc3d c436 593d
000002f0: 2949 5ebd 1325 d3bc 869b 983c c0b4 0a3e
00000300: 982b 083b 4a1a cd3c 0dd7 093d babc 5a3d
00000310: ed03 e33d 81f9 083e e1fe 49bd 1081 093b
00000320: 5861 88bc 9c4d 813c 395f 613c ff9f 543d
00000330: d29d 8c3c 1497 87bd e974 ab3d 2ccd 69bc
00000340: 22f8 1fbd 7e17 b8bc 2a43 1b3e cc04 893d
00000350: a758 13bc 4d99 633d 2050 f93b 77a2 f63b
00000360: 5e7c 54bd bc97 93bd 4dda 6bbd 3729 a03d
00000370: 5b7f 44bd 6edb 0abd eac9 6e3d 72f1 2f3d
00000380: 707a 163d 26ac e93d 4e30 2b3d 4898 b2bc
00000390: bf71 64bc dc5a 2cbc bea3 b0bd 86e0 a3bc
000003a0: daa0 e7bc 592b 3ebd 5e5f 2fbd e92a ac3d
000003b0: 319e 183d 6684 b3bc a6e0 293d bca3 4f3d
000003c0: d53d 7bbc 9cdb 563d 7bc5 213c a267 203e
000003d0: 0951 15bd 2af0 f93b d29a b33d c2c7 5bbd
000003e0: 3e30 febb dd2a 573d c49d 06bd cecc 95bd
000003f0: b80e 3c3d d425 58bc f565 373e 94fa 093c

actor.weight f4 [10, 352]
-0.03753155 -0.023335319 -0.07982858 0.0017771838 -0.015548901 0.08629219 0.0040807636 -0.044353023
-0.017942952 0.047000382 0.07954532 0.037104357 0.0415182 0.017509457 -0.017215582 0.02572948
0.006465476 -0.0035575093 0.009147653 0.0015295198 -0.04046988 -0.0049770297 0.016283013 -0.030186815
0.038390152 0.06275304 0.01582551 -0.021743158 0.013534248 0.05861972 0.026047627 0.08896222
-0.05453772 0.04808327 -0.043460052 -0.039626677 0.038937952 -0.057037313 0.011982186 0.09361558
0.060901303 -0.001699876 0.03162224 -0.031598512 -0.02398754 -0.017114194 -0.0627349 -0.015713595
0.013097692 -0.035234567 0.0024124025 -0.025005732 -0.041662097 -0.07537161 -0.0532322 -0.046817373
0.011582908 -0.016315952 -0.048232466 0.019986868 -0.038973905 -0.00015013063 0.012130288 -0.041107513
-0.032346383 -0.07415441 -0.0026960494 0.029661074 -0.019439973 -0.048044153 0.046280865 0.066690154
-0.05162728 -0.020576589 -0.024939146 0.018887637 -0.0024902998 -0.018197566 -0.0034305875 0.043538306
-0.068166554 -0.008263315 0.0111317765 0.082932815 -0.011479262 -0.011849242 -0.023256065 -0.031968195
-0.027755002 0.029403983 -0.020927764 0.073759995 0.011227167 0.011908119 0.026091529 0.10067707
-0.058661778 0.049891487 0.0015009184 -0.027776228 -0.028554961 -0.010927023 -0.0040024156 -0.042898178
0.05032346 0.00951586 -0.08655935 -0.078824885 -0.055879656 -0.0027638464 0.039024234 0.04500268
-0.08461643 -0.025109578 0.014965489 -0.046752766 0.042130418 -0.01148449 0.038035683 -0.0220482
0.01683568 -0.05173525 0.03062023 -0.04082397 0.055373684 -0.02509063 0.019388342 -0.013959029
-0.050305925 -7.9066864e-05 0.06005778 -0.058212988 0.08186902 -0.023709726 0.10356515 0.041841157
0.0038215274 -0.027615428 -0.07146607 0.027139323 -0.06179187 -0.067361385 -0.0020877756 0.008904615
-0.030384645 0.0056323158 0.034237076 -0.061793603 0.026097083 0.03134671 0.061016202 0.014477595
-0.055799242 0.041438133 0.0057492824 -0.017963342 0.07627948 8.573933e-05 -0.024778187 0.047721896
-0.018966177 0.018611312 -0.099101104 -0.01614682 -0.047495324 0.06572919 -0.053432666 -0.019587323
-0.03335207 -0.05270866 -0.03259694 0.007483463 0.024296537 0.062033992 0.012065364 -0.02914146
0.003030442 0.0006071761 0.07359995 0.0009754516 -0.028942201 0.005762016 -0.029040307 -0.011788698
-0.0013595984 0.0017381206 0.022586303 0.018366909 -0.055867366 0.0725667 -0.0025638938 0.066796996
-0.03528989 0.04222352 -0.016722443 0.03577261 0.011214151 0.08852868 0.006736678 0.024633404
-0.053497434 -0.034820292 -0.011530658 0.017880548 0.038579687 -0.03887462 -0.049800843 -0.016713284
-0.0004169878 -0.027379338 -0.033808853 0.027787324 0.021349315 0.05449004 -0.0029991907 0.0060236678
-0.011861928 0.0150972465 0.020442687 0.015341527 0.015859468 -0.077802464 0.035082243 -0.008775165
-0.013687504 -0.0013263999 0.07243357 -0.034148514 0.00790695 -0.023041327 -0.0036768254 -0.030034631
-0.022099638 -0.027007405 -0.011831275 0.051297363 -0.055201944 0.008705345 0.017177388 -0.04662335
-0.004555046 0.016068676 0.09398551 0.030337183 0.030528614 0.013026752 0.010099451 -0.018858057
0.011510663 -0.06276281 0.04155856 -0.06574803 -0.037836827 0.027856182 0.0132980365 0.030439008
00000000: afba 19bd b629 bfbc 2b7d a3bd 65f0 e83a
00000010: d1c0 7ebc f6b9 b03d edb7 853b 84ab 35bd
00000020: 19fd 92bc 7983 403d a8e8 a23d bdfa 173d
00000030: fd0e 2a3d fe6f 8f3c b107 8dbc a1c6 d23c
00000040: 58dc d33b 1a25 69bb 0ae0 153c 2b7a c83a
00000050: bfc3 25bd 5a16 a3bb f463 853c 574a f7bc
00000060: fe3e 1d3d aa84 803d 80a4 813c b51e b2bc
00000070: c0be 5d3c 3b1b 703d d561 d53c d331 b63d
00000080: f262 5fbd f7f2 443d 2b03 32bd 954f 22bd
00000090: 677d 1f3d f59f 69bd ee50 443c 86b9 bf3d
000000a0: a573 793d 60ce deba 5286 013d 716d 01bd
000000b0: 8481 c4bc 1133 8cbc 287b 80bd ccb9 80bc
000000c0: b497 563c 1f52 10bd 6619 1e3b d2d8 ccbc
000000d0: e0a5 2abd 6e5c 9abd 020a 5abd 93c3 3fbd
000000e0: 3dc6 3d3c 08a9 85bc 688f 45bd 80bb a33c
000000f0: 1aa3 1fbd 626c 1db9 1ebe 463c 5a60 28bd
00000100: a47d 04bd 44de 97bd 34b0 30bb c8fb f23c
00000110: 9440 9fbc f2c9 44bd 0191 3d3d d994 883d
00000120: 2077 53bd 3c90 a8bc 2e4d ccbc 3fba 9a3c
00000130: 4c34 23bb 1013 95bc b5d3 60bb 3955 323d
00000140: e89a 8bbd db62 07bc 0e62 363c aed8 a93d
00000150: 8413 3cbc 5323 42bc 8183 bebc 15f1 02bd
00000160: 755e e3bc 9fe0 f03c b470 abbc 7b0f 973d
00000170: 27f2 373c 451a 433c e7bd d53c c82f ce3d
00000180: 5547 70bd 045b 4c3d 77ba c43a f98a e3bc
00000190: 18ec e9bc 4207 33bc b226 83bb 00b6 2fbd
000001a0: f91f 4e3d 69e8 1b3c 0746 b1bd f16e a1bd
000001b0: 11e2 64bd a621 35bb e0d7 1f3d bb54 383d
000001c0: 614b adbd 9ab2 cdbc cf31 753c d47f 3fbd
000001d0: f290 2c3d 7129 3cbc 4ecb 1b3d 6d9e b4bc
000001e0: fbea 893c 57e8 53bd 47d7 fa3c 0937 27bd
000001f0: 84cf 623d dd8a cdbc 4dd4 9e3c 69b4 64bc
00000200: 960d 4ebd b3d0 a5b8 26ff 753d be70 6ebd
00000210: f2aa a73d e63a c2bc f719 d43d a261 2b3d
00000220: 9772 7a3b c039 e2bc ce5c 92bd 4953 de3c
00000230: 7919 7dbd c4f4 89bd 10d3 08bb aae4 113c
00000240: 38e9 f8bc 4a8f b83b 2d3c 0c3d 4a1b 7dbd
00000250: 8dc9 d53c 6865 003d 20ec 793d 6f33 6d3c
00000260: bf8d 64bd 08bb 293d 7a64 bc3b dc27 93bc
00000270: 6a38 9c3d f4ce b338 a0fb cabc 0978 433d
00000280: f55e 9bbc c076 983c 85f5 cabd 5646 84bc
00000290: 758a 42bd 079d 863d 36dc 5abd 9875 a0bc
000002a0: 2e9c 08bd 09e5 57bd 5e84 05bd d637 f53b
000002b0: 8809 c73c 5b17 7e3d cead 453c 12ba eebc
000002c0: 619a 463b e62a 1f3a 92bb 963d 73b5 7f3a
000002d0: 3218 edbc 4bcf bc3b f0e5 edbc 6225 41bc
000002e0: 8d34 b2ba a6d1 e33a e906 b93c 3376 963c
000002f0: 2ed5 64bd da9d 943d 0007 28bb ddcc 883d
00000300: 228c 10bd 92f2 2c3d 81fd 88bc 4d86 123d
00000310: 8fbb 373c 864e b53d 5abf dc3b fecb c93c
00000320: 2020 5bbd b99f 0ebd 16eb 3cbc 3a7a 923c
00000330: bc05 1e3d fe3a 1fbd f8fb 4bbd 4cea 88bc
00000340: 289f dab9 a24a e0bc 277b 0abd 3ea2 e33c
00000350: c2e4 ae3c f330 5f3d 128e 44bb 3062 c53b
00000360: 8858 42bc 715a 773c 6c77 a73c 075b 7b3c
00000370: b7eb 813c e656 9fbd 66b2 0f3d b6c5 0fbc
00000380: 8e41 60bc 98da adba 0d58 943d 50df 0bbd
00000390: 278c 013c 2ac1 bcbc e5f6 70bb 300b f6bc
000003a0: 4d0a b5bc a23e ddbc f7d7 41bc 2f1d 523d
000003b0: 6f1b 62bd dda0 0e3c 98b7 8c3c 20f8 3ebd
000003c0: 7f42 95bb 75a2 833c 7a7b c03d af85 f83c
000003d0: 2517 fa3c 286e 553c 2b78 253c 367c 9abc
000003e0: 3897 3c3c ca89 80bd 4f39 2a3d e7a6 86bd
000003f0: cafa 1abd a632 e43c 02e0 593c 3a5b f93c

actor.bias f4 [10]
-0.07283624 -0.045807447 0.04702467 -0.071769044 -0.027882509 0.052435186 0.01016235 -0.0006174502
-0.04080485 -0.051324334
00000000: 2b2b 95bd 97a0 3bbd f19c 403d a6fb 92bd
00000010: dc69 e4bc 47c6 563d fc7f 263c 62dc 21ba
00000020: fd22 27bd 7739 52bd

critic.weight f4 [1, 352]
0.06921662 0.03785005 0.02197585 0.051520355 0.031921893 -0.019726187 0.009180838 0.021964524
-0.009678075 -0.016459787 -0.031826477 -0.06169406 -0.033038504 0.021964628 0.0062145605 0.018497474
0.0019265539 -0.037364714 0.033004057 0.05283947 0.009580701 -0.021904906 0.024384893 0.037444323
0.0130809415 -0.06277099 -0.028526863 -0.08101527 0.03274555 -0.014174832 0.056826662 -0.0035572187
-0.04315449 0.0027622164 0.03728507 0.019759284 -0.018229268 -0.0034985945 0.023993602 -0.041020017
-0.040786803 0.028506476 -0.034523815 0.026279232 -0.03022152 0.05362422 -0.0007740869 0.029120399
0.020594146 -0.0059883283 0.035027225 -0.13238277 0.05672501 0.032512844 0.051108386 -0.02974423
-0.03531171 -0.10890113 0.078536555 -0.056794647 -0.027395723 0.024797998 0.03110173 -0.007912054
0.0058518588 0.022570625 0.0028988847 -0.038679235 -0.0020880795 0.01992479 0.06456382 -0.038002938
0.05341879 -0.035952255 0.03523498 -0.05263733 -0.008431716 0.0018214829 0.005708373 -0.028460868
0.047517464 0.00015502636 0.077813655 -0.00430374 -0.034127757 0.006827675 -0.053656414 -0.057930153
0.03650408 0.03757954 0.013925993 -0.00910022 -0.03831715 0.055223957 -0.021431558 -0.024572264
0.04227583 -0.005476259 0.09907929 0.00025567613 0.03888188 -0.009928742 0.09265609 0.0068640998
-0.02006561 0.024110427 0.016694978 0.056876622 0.028383821 0.00703546 0.048937883 0.0034853967
-0.07843619 0.050883546 0.055734582 0.028644355 0.050216746 0.026022175 0.026897764 0.027211208
-0.09551452 0.02181574 0.03967649 -0.04230265 0.015424191 0.017398529 0.03238547 -0.040844616
-0.021039242 0.019991294 -0.0929215 -0.009364183 -0.10073305 0.07503773 -0.048661508 -0.0054732864
-0.007895218 0.028965766 0.05916489 -0.04055541 -0.07255066 0.0037667162 0.006766556 -0.00717573
0.03975128 0.0012471185 -0.0007274731 0.04002738 -0.0029648687 0.007885479 -0.0012268488 -0.03950611
0.025548672 -0.03072221 -0.017338036 0.032397784 -0.041312292 0.05134924 0.030920437 0.057200097
0.019000389 -0.0045047016 0.0022504756 0.04829204 0.055845384 0.041624893 -0.12548018 0.01991936
-0.023040235 -0.05832511 -0.020004755 0.026467912 -0.058652595 -0.0075702085 0.0053931796 -0.008558552
-0.0062217116 0.053069293 -0.037207305 -0.01558955 0.07204744 0.07635841 0.057677317 0.0031658523
-0.030202508 -0.045975246 -0.022539029 -0.045722984 0.003681459 -0.0059958654 -0.014067523 -0.028132956
0.008011961 0.004090451 -0.031870138 -0.006558169 -0.05023091 -0.02140966 0.023289554 0.09260823
0.0020867353 0.04766015 -0.011380306 -0.022960186 -0.064707585 0.00010842438 -0.12248257 0.019954823
0.01165068 0.009751737 -0.028199384 -0.03766601 0.030231925 -0.03722913 0.017563729 0.0064896126
0.0053723296 0.025825826 0.050773107 -0.04122432 0.032962 0.016481817 -0.0177595 -0.03196015
0.08002641 -0.021534897 -0.0023062848 0.043523956 0.0467249 0.07166968 0.07077305 -0.00058190036
0.011148631 0.059504483 0.051653456 -0.028315682 0.058233112 0.021449514 -0.01484476 0.054333236
-0.09319735 -0.063628726 0.004915169 -0.02168209 0.005967519 -0.027674418 -0.023266267 0.002676587
0.023352128 0.055687476 0.054879736 0.039019674 -0.027686477 0.07477813 -0.0121749565 -0.018539121
00000000: 71c1 8d3d a708 1b3d b306 b43c 0207 533d
00000010: 88c0 023d d098 a1bc 3a6b 163c f2ee b33c
00000020: ca90 1ebc add6 86bc 7b5c 02bd e9b2 7cbd
00000030: 6253 07bd 2aef b33c 83a3 cb3b 0488 973c
00000040: 6c84 fc3a be0b 19bd 432f 073d 336e 583d
00000050: 5ff8 1c3c eb71 b3bc d4c2 c73c 385f 193d
00000060: 7251 563c 148e 80bd 2bb1 e9bc 55eb a5bd
00000070: 3320 063d 8e3d 68bc 13c3 683d 3a20 69bb
00000080: c3c2 30bd 4d06 353b 3bb8 183d 39de a13c
00000090: 8c55 95bc ad48 65bb 3b8e c43c 9b04 28bd
000000a0: 1010 27bd 6a86 e93c d868 0dbd 8b47 d73c
000000b0: 1f93 f7bc 12a5 5b3d 18ec 4aba e78d ee3c
000000c0: 0eb5 a83c bd39 c4bb b578 0f3d 598f 07be
000000d0: 7c58 683d 302c 053d 0757 513d 2caa f3bc
000000e0: 03a3 10bd 8e07 dfbd c6d7 a03d 81a1 68bd
000000f0: ff6c e0bc 2c25 cb3c 0ec9 fe3c 8fa1 01bc
00000100: f3c0 bf3b 08e6 b83c 37fb 3d3b 1e6e 1ebd
00000110: 29d8 08bb 5039 a33c 093a 843d f8a8 1bbd
00000120: a9cd 5a3d ac42 13bd 8e52 103d 3e9a 57bd
00000130: 2e25 0abc d3be ee3a 4e0d bb3b c426 e9bc
00000140: aca1 423d 928e 2239 c45c 9f3d 6306 8dbb
00000150: 8cc9 0bbd b0ba df3b d4c6 5bbd 2b48 6dbd
00000160: 4d85 153d 01ed 193d d929 643c 1719 15bc
00000170: 72f2 1cbd 8432 623d 3c91 afbc c64b c9bc
00000180: 6c29 2d3d 3172 b3bb 15ea ca3d 450c 8639
00000190: 9b42 1f3d 2aac 22bc 7ac2 bd3d 3eec e03b
000001a0: a260 a4bc 3b83 c53c e8c3 883c 76f7 683d
000001b0: 3085 e83c b789 e63b 1773 483d 416b 643b
000001c0: 27a3 a0bd 446b 503d f249 643d 91a7 ea3c
000001d0: 13b0 4d3d 752c d53c b358 dc3c 0aea de3c
000001e0: 1e9d c3bd ecb6 b23c d183 223d 8b45 2dbd
000001f0: bfb5 7c3c 5c87 8e3c a0a6 043d af4c 27bd
00000200: 7d5a acbc c8c4 a33c a14d bebd 3b6c 19bc
00000210: 214d cebd 62ad 993d 4a51 47bd 4159 b3bb
00000220: f25a 01bc 9d49 ed3c e256 723d 6e1d 26bd
00000230: 7195 94bd 03db 763b fcb9 dd3b 6322 ebbb
00000240: 3dd2 223d 5a76 a33a e5b3 3eba c0f3 233d
00000250: 3e4e 42bb 1932 013c 37ce a0ba 29d1 21bd
00000260: 734b d13c 25ad fbbc 7f08 8ebc 8ab3 043d
00000270: 1437 29bd 9553 523d db4c fd3c a64a 6a3d
00000280: b4a6 9b3c 2d9c 93bb b77c 133b e0cd 453d
00000290: 21be 643d dd7e 2a3d e07d 00be ed2d a33c
000002a0: e0be bcbc 4fe6 6ebd 03e1 a3bc 3cd3 d83c
000002b0: b43d 70bd 830f f8bb 45b9 b03b 2b39 0cbc
000002c0: 80df cbbb 305f 593d b066 18bd 506b 7fbc
000002d0: 9c8d 933d cc61 9c3d 0d3f 6c3d 307a 4f3b
000002e0: 406b f7bc 8a50 3cbd c5a3 b8bc 0648 3bbd
000002f0: a244 713b f778 c4bb 787b 66bc 1677 e6bc
00000300: 9a44 033c 3109 863b 438a 02bd e9e5 d6bb
00000310: edbe 4dbd 5063 afbc bcc9 be3c 62a9 bd3d
00000320: 9cc1 083b 4a37 433d 7774 3abc 0017 bcbc
00000330: 6985 84bd e561 e338 24d8 fabd 4c78 a33c
00000340: 7ee2 3e3c c0c5 1f3c 6502 e7bc ad47 1abd
00000350: f1a8 f73c 927d 18bd cfe1 8f3c d1a6 d43b
00000360: 5e0a b03b af90 d33c 76f7 4f3d d5da 28bd
00000370: 2a03 073d e004 873c 5f7c 91bc a5e8 02bd
00000380: e3e4 a33d f469 b0bc 0a25 17bb 2d46 323d
00000390: 9c62 3f3d 8ec7 923d 76f1 903d ac8a 18ba
000003a0: bfa8 363c f9ba 733d 9392 533d 4af6 e7bc
000003b0: d885 6e3d e4b6 af3c 7037 73bc 878c 5e3d
000003c0: 41de bebd c74f 82bd 6d0f a13b a39e b1bc
000003d0: 2d8b c33b 76b5 e2bc e698 bebc ae69 2f3b
000003e0: f64c bf3c 8d18 643d 93c9 603d 18d3 1f3d
000003f0: c0ce e2bc 4725 993d 7879 47bc 5bdf 97bc
