gym_models/model_1040.pth (torch, 527010 bytes, 11 tensors)

features_extractor.conv1.weight f4 [16, 4, 4]
000000 ce 16 28 3e 9e f8 54 be 00 75 59 3c 98 1d 05 3d
       0.1641495 -0.20797965 0.013272524 0.032498926
000010 ec 5e 48 3e d4 c3 99 bd 0c 57 7d be 10 f5 6e be
       0.1956746 -0.075080544 -0.24740237 -0.23335671
000020 e4 a5 b5 3d 12 0b 17 be 84 a2 65 3e c8 94 78 3d
       0.08869532 -0.14750317 0.22425276 0.060688764
000030 80 ee 7c be 58 f8 3c bd 88 e9 7f bd 38 d5 13 be
       -0.24700356 -0.046135277 -0.062478572 -0.14436805
000040 41 7c f8 bd ce a9 c3 3c 11 fc d1 3c ea cc 8d be
       -0.121330746 0.02388468 0.02563289 -0.276954
000050 d7 07 1c be 9d fe f8 3c ea 90 be bd e7 55 48 bd
       -0.15237366 0.030394847 -0.09304984 -0.048910048
000060 39 63 4e bd 1c 21 5d 3d d2 f2 16 3d 7a d3 65 3e
       -0.050387595 0.053986654 0.036852665 0.22443953
000070 61 e4 3a be 5f 2f 3e 3e 04 a3 ef 3d a4 17 07 3e
       -0.18251182 0.18572758 0.11701015 0.13192612
000080 0d 3d ad bd 4c e1 61 3e 25 b3 3c 3e 41 a4 30 bd
       -0.0845891 0.220586 0.18427713 -0.043125395
000090 e4 5f 1d 3e e3 a3 08 be 03 da a1 3c 4f 1c 09 3e
       0.1536861 -0.13343768 0.019757276 0.13389705
0000a0 fe 95 0f 3e 38 7f 15 be 0a df 6f bd ab db 67 bc
       0.14022061 -0.14599311 -0.058562316 -0.014151494
0000b0 98 37 6a be fb 1c 87 bd 06 1d 87 be 0b da 08 3e
       -0.2287277 -0.065973245 -0.2638933 0.13364427
0000c0 07 62 b5 3d cc 84 04 3e 0a e3 1a 3e 45 31 aa 3e
       0.08856588 0.12941283 0.15125671 0.33240715
0000d0 84 6f 13 be 24 c9 64 bd 43 76 c6 bd 0c 68 bf 3d
       -0.14398009 -0.055855885 -0.096905254 0.09346017
0000e0 dc d4 c3 3b d2 67 60 be b8 aa 59 3d 7b 23 fe bd
       0.0059763025 -0.21914604 0.053141326 -0.12409111
0000f0 d3 33 57 3c 64 2a b2 bd c5 19 a2 3d f0 d3 eb 3d
       0.013134914 -0.086994916 0.079150714 0.11515033
000100 1a 29 cd 3d 2a aa 84 bc d5 f1 4b bc 85 c8 13 be
       0.10017605 -0.016194422 -0.012447794 -0.14431961
000110 1e af 2a 3e ce 23 3e 3e a1 45 d7 bd ad 74 ff 39
       0.16668364 0.18568346 -0.105113275 0.0004872432
000120 04 ee 23 be dd 5d db bd 82 81 46 3e de bf 85 bd
       -0.16008765 -0.107112624 0.19385341 -0.065307364
000130 33 33 9d 3d 38 71 14 3d 0e af 04 3e e4 ce 9d 3d
       0.07675781 0.036240786 0.12957403 0.07705477
000140 73 b1 a6 3e c9 09 e7 bd 68 c1 7e 3e 63 b5 04 3e
       0.32557258 -0.11281163 0.24878466 0.12959819
000150 b1 00 b8 3b 4d 9c 48 be 2a d3 8d bd 2f 8f d0 bc
       0.005615317 -0.19590874 -0.06925042 -0.0254589
000160 87 a6 1b be 0f 59 51 3e be 0a 0c be d3 30 07 be
       -0.15200244 0.2044413 -0.13675973 -0.13202219
000170 07 db 53 3e 92 bf c2 bd 90 6e f4 3d 1e 0c 3b 3e
       0.20689021 -0.095091954 0.119351506 0.18266341
000180 2d 99 88 be 5c c1 74 be 88 35 89 be 86 a3 b2 bb
       -0.26679364 -0.23901886 -0.26798654 -0.0054516224
000190 db df fe bd 58 bb f1 bd c0 5a 98 3e b1 b4 01 3e
       -0.12445041 -0.11803311 0.29756737 0.12666585
0001a0 9f 9c a2 3d b5 b5 9a 3e 64 3b 38 be 32 8c fd bd
       0.07940029 0.30216756 -0.17991406 -0.12380256
0001b0 d3 44 47 3e aa ac 90 3d 2b be d6 3d e3 98 e6 ba
       0.19459848 0.07064183 0.104854904 -0.0017593171
0001c0 7f 50 a4 3e 28 31 51 3e cd 69 ab 3e a2 0d 16 be
       0.32092664 0.20428908 0.33479157 -0.14653638
0001d0 09 f8 37 bd 54 cd 16 be dd 0d 8c 3d e9 4a 90 bc
       -0.04491428 -0.14726764 0.06838582 -0.017613845
0001e0 37 a9 1d 3e 31 68 fa bb 52 95 18 3e 8d 2b 13 be
       0.15396582 -0.007641815 0.14900711 -0.14372082
0001f0 12 f0 01 be 81 0e 64 bb 7c a9 08 be 6a 7a 92 bd
       -0.12689236 -0.0034798684 -0.13345903 -0.07152255
000200 cc ab e7 bd 04 de 68 3e 04 8e 68 be 18 91 28 be
       -0.113120645 0.22740942 -0.22710425 -0.16461599
000210 7c ed 62 be f0 6a 6b 3d d0 61 38 bd c0 53 b2 3c
       -0.22160906 0.05747503 -0.045015156 0.02176845
000220 a4 43 c4 bd 48 1b 76 be 48 52 f4 bd 9a 13 5f 3e
       -0.09583214 -0.24033844 -0.119297564 0.21784821
000230 8e b0 7b be 94 56 25 be 84 f8 c8 bd 20 65 e1 bd
       -0.24579069 -0.16146308 -0.098130256 -0.11005616
000240 cb 3b 18 3e 1a 39 42 3e e2 6c b6 3e 53 29 96 3e
       0.14866559 0.18967095 0.35629946 0.29328403
000250 10 2a a0 bd dc c9 35 3e 8e d3 de 3d ae 5f dd 3d
       -0.07820523 0.17752784 0.108801946 0.10809265
000260 0e 84 d2 3c f6 47 5c be 2c 02 ec 3d 27 90 10 be
       0.025697734 -0.21511826 0.11523852 -0.1411749
000270 37 76 06 be 1d 31 c7 bd f2 bb 8f 3d fe c6 47 3d
       -0.13131033 -0.097261645 0.070182696 0.048773758
000280 2e a9 fd 3d 91 e8 0f be ee 65 9a 3e 5b ec 76 3e
       0.12385784 -0.14053561 0.3015589 0.241136
000290 d7 37 84 be f3 e5 64 be 04 75 0b bd ca 52 d5 3d
       -0.25823852 -0.22353344 -0.03404714 0.104161814
0002a0 0e 85 db 3d f0 6f 84 3d a7 86 05 3e 02 d4 bd 3d
       0.107187375 0.06466663 0.13039647 0.09268953
0002b0 36 79 b2 bd ef 44 75 be b0 ad 1a 3e 22 0b 89 3d
       -0.087145254 -0.23952077 0.15105319 0.066915765
0002c0 eb 38 43 be e4 02 f8 bc 07 5b c8 3d c0 d8 1d 3e
       -0.19064681 -0.030274816 0.09782987 0.15414715
0002d0 e2 d5 0c be 97 10 5f 3e 10 ad c3 bd 0a 7e e5 bd
       -0.13753465 0.21783672 -0.095544934 -0.11205681
0002e0 11 bb 12 3d ef 3d a6 3d f3 6c 88 3c 3b b2 08 be
       0.03582293 0.08117282 0.016653514 -0.1334924
0002f0 f8 a1 1a be f7 33 74 3d fa 9c 67 be 35 06 43 3e
       -0.15100849 0.05961987 -0.22618476 0.19045337
000300 d7 57 94 3d 65 99 08 be 9b f8 92 3c e9 84 15 3e
       0.072433166 -0.13339765 0.01794081 0.14601482
000310 40 9a 54 be ce ff 24 be b8 0a 40 3d d9 1f 20 be
       -0.20761967 -0.16113207 0.046885222 -0.15637149
000320 85 d5 3a 3e 39 18 a3 3c 99 20 cd 3d f9 28 4d 3e
       0.18245514 0.019909011 0.10015983 0.20035161
000330 fd e0 8e be a3 e8 a5 bd e7 03 85 3d ca cd 42 3e
       -0.27906027 -0.081010126 0.06494885 0.19023815
000340 d8 5a d3 bd 88 29 06 be 84 65 ae bd 28 7c 32 3d
       -0.103200614 -0.1310178 -0.08515456 0.043575436
000350 a0 49 09 bd 16 98 3b be ee ec 09 be 9c 3a be bd
       -0.03351748 -0.18319735 -0.13469288 -0.092885226
000360 84 ee 6f 3e 02 53 1e be 78 4e 15 be e6 a8 4d 3e
       0.2343083 -0.15461352 -0.14580715 0.20083961
000370 c4 e7 05 be b6 d8 5a be 9c 1f 6e be 30 fe ed 3c
       -0.13076693 -0.21371731 -0.23254246 0.02905187
000380 c4 13 ff 3d f0 1c 40 bd 60 5d 70 bc c0 39 37 3c
       0.12454942 -0.046902597 -0.0146707 0.011183202
000390 3c e9 01 3e 08 d7 10 bd f4 7c cf bd 20 52 31 3d
       0.12686628 -0.03536132 -0.10131255 0.04329121
0003a0 f0 87 48 bd 52 cc 5d be 14 46 48 3e b0 5e 33 bd
       -0.048957765 -0.21659973 0.19557983 -0.043791473
0003b0 1a 40 15 be 68 29 53 3d 90 bc fa bd 30 50 56 bd
       -0.14575234 0.05155316 -0.12242997 -0.052322567
0003c0 0e ef b4 3e 34 3d b1 3e 73 92 33 3d b3 9e bf 3c
       0.35338634 0.34617007 0.043840837 0.023391103
0003d0 5b 58 22 3e e8 0c 77 be f6 97 9a bd 09 35 8b 3d
       0.15854017 -0.24126017 -0.075485155 0.06797225
0003e0 e1 d0 4a 3e 1c b0 13 3e 48 87 5a be 77 f1 1b be
       0.19806243 0.14422649 -0.21340668 -0.1522883
0003f0 ed 47 f7 3d aa d0 73 be 22 ce 56 be e8 94 27 bc
       0.12074266 -0.23810068 -0.20977071 -0.010228373

features_extractor.conv1.bias f4 [16]
000000 4c c2 97 3d b4 fe 1b 3e a3 55 1f 3c e0 fc d9 3d
       0.07410106 0.1523388 0.009725007 0.10643935
000010 4d 63 42 be 87 42 2f be e7 e6 70 3e 08 9f 19 bd
       -0.18983193 -0.17115222 0.23525582 -0.03750518
000020 64 5d 67 be 5e 47 88 be e1 c4 ec bd 60 31 30 be
       -0.2259422 -0.2661695 -0.11560989 -0.17206335
000030 37 78 0a be 12 20 01 be 5c 92 ef bd 7a 55 70 3e
       -0.13522421 -0.1260989 -0.11697838 0.23470107

features_extractor.conv2.weight f4 [32, 16, 4]
000000 04 10 03 3d a0 f4 00 3c b8 42 ae bc 28 61 fe bc
       0.031997696 0.007870823 -0.021272048 -0.031052187
000010 16 e0 f7 bc ea 20 17 3d d7 f7 5a bd bd 44 b7 bd
       -0.03025822 0.036896624 -0.053459015 -0.08948658
000020 d3 5f fe 3d 4f e3 d1 bd 7f 8f bb 3b c2 71 30 bd
       0.12420621 -0.10248434 0.005723893 -0.043077238
000030 5e 35 63 3d 3b 50 29 3e 97 f9 2a 3e cd 9a 68 bc
       0.055470817 0.16534512 0.16696773 -0.014197064
000040 25 a5 a0 bd f1 85 4b 3d df 26 e5 3d 88 7e 0f bd
       -0.07843999 0.049688283 0.11189055 -0.03503278
000050 6e 80 1d bd 6d 32 2e bc 59 a9 b8 3d 52 ca 38 bd
       -0.03845256 -0.01063214 0.090166755 -0.045114823
000060 7f 5a d0 bd 51 88 43 bd cb cf 99 be 11 d2 7b be
       -0.10173511 -0.047737423 -0.30041346 -0.24591853
000070 20 f0 b8 bd 48 a1 c7 bd 93 48 3c 3e 08 7b 54 bd
       -0.09030175 -0.09747559 0.1838706 -0.051875144
000080 0c ef 0d bd 92 fe ec 3d 60 28 0f bd 84 99 5b 3d
       -0.0346518 0.11571993 -0.034950614 0.0536132
000090 29 07 cd 3d c4 9d bf 3d 17 05 be 3d 8c 47 3a 3e
       0.10011131 0.09356263 0.092783146 0.18191355
0000a0 89 c4 76 3c bb 48 86 3c f1 2b 57 3d 28 06 0a 3e
       0.015061506 0.016392102 0.05253214 0.13478911
0000b0 60 79 ef bb c0 25 33 3b 80 c5 8f ba 60 b2 c1 3d
       -0.00730817 0.0027335733 -0.0010968894 0.094578505
0000c0 f3 5b 98 bd 62 c2 70 3d e8 fa fb bd 38 b5 20 3d
       -0.07439413 0.058779128 -0.12303716 0.039235324
0000d0 24 b7 3e 3d 52 14 b9 3d 28 c3 dc bc aa ab e4 bd
       0.046561375 0.09037079 -0.026948527 -0.11165555
0000e0 fe eb e0 3d 28 c7 6b bd 28 2d 07 bd 7e 5a bc 3d
       0.10982512 -0.057562977 -0.03300205 0.091969475
0000f0 ea 2c a7 bd 86 ae 7d 3e 67 29 3b 3e 5b 0d 1b 3d
       -0.081628636 0.24773607 0.18277512 0.037854534
000100 c0 c3 42 3d 06 dd e6 bd e8 bd 8b 3d 88 51 a8 bc
       0.047549963 -0.112726256 0.06823331 -0.02054669
000110 0f ef 50 3d 84 38 18 be a2 6b bb bd 10 a8 ee bd
       0.051009234 -0.14865309 -0.09151389 -0.11653149
000120 49 fc c4 3d 68 39 bd bc fd cf 9c bd bb a2 f4 bd
       0.09618432 -0.023098662 -0.07656858 -0.11945101
000130 c9 86 5a bd 47 49 4d 3d 3c 1b 1b 3e 61 e0 f8 bb
       -0.053351197 0.05011871 0.15147108 -0.0075951074
000140 fb d4 b0 bd 62 fb ac 3d 48 93 87 bc f8 20 b3 3d
       -0.08634373 0.08446385 -0.016549721 0.08746523
000150 e0 2a a4 3d 3d 1d 2f 3d 3e 9d 77 bd f5 c2 94 3d
       0.0801599 0.042752493 -0.060452692 0.072637476
000160 f5 77 1a bd a8 ee f3 bd 89 38 e6 bd 77 b8 33 be
       -0.037712056 -0.119107544 -0.11241252 -0.17550837
000170 77 bf 2b be 2a 4c e4 3c 37 db 98 3c 1b 3d d7 3c
       -0.16772257 0.02786835 0.018659217 0.026274255
000180 12 99 8a bd 9e 63 ad 3d 5c ca 8d bd e0 82 7a bc
       -0.06767477 0.08466266 -0.069233626 -0.015289992
000190 a9 36 29 3e 26 7c 27 bd f4 28 27 3e b8 b1 65 bd
       0.16524757 -0.04088988 0.16324216 -0.05607769
0001a0 05 11 5a bc 4a f9 bc 3c b1 79 eb 3d 63 4a e3 3d
       -0.013309722 0.023068089 0.1149782 0.110981725
0001b0 f0 fb 3e 3c 32 1e d0 bd 20 c8 90 3b d8 60 c7 bc
       0.011656746 -0.10162009 0.004418388 -0.02433817
0001c0 28 d8 e2 bc 50 e8 8f bd 9d 38 1b bd cf ab d5 bd
       -0.027690962 -0.07026732 -0.037895788 -0.104331605
0001d0 4a f4 f3 3d f6 4b 86 3d 6c fe f8 3d c8 9a be bc
       0.11911829 0.06557457 0.12157902 -0.023267165
0001e0 78 3d 9f 3d 7c 70 f2 bd 62 38 d3 bd 96 ad cd 3d
       0.07775396 -0.11837861 -0.103134885 0.100428745
0001f0 1e d4 d7 bd a3 e8 57 3c 61 91 45 3e de 41 8d 3d
       -0.10538505 0.0131780235 0.19293739 0.06897329
000200 f8 37 5c bd c6 b3 99 3d d0 ab e1 bd 50 a1 85 3c
       -0.053764313 0.07504992 -0.11019099 0.016312271
000210 e8 0c ad bd c7 02 0e be 61 7b 5d bd 09 b2 dc bd
       -0.08449727 -0.13868247 -0.05407274 -0.10776145
000220 71 24 ca 3d 46 27 dd bd d2 67 e9 bd 2c 72 59 bd
       0.09870232 -0.107985064 -0.11396755 -0.0530874
000230 48 f8 50 bd da 27 c4 3d 0d bb 7e 3d fd cf 6b bd
       -0.05101803 0.095779136 0.062190104 -0.0575714
000240 f3 f3 53 3c b3 c6 a3 bd 9a 0c 9f 3b 71 fc 6f 3d
       0.01293658 -0.07996883 0.004853797 0.058590356
000250 3c c9 60 bc d1 b4 74 3c 91 f3 fc bc c1 b6 10 3e
       -0.013719853 0.014935688 -0.03087786 0.14132215
000260 1e 8d a1 bd c4 c7 89 be d7 53 58 be 25 d1 e9 bd
       -0.07888244 -0.26910222 -0.21125732 -0.11416844
000270 56 c5 d8 bd b2 40 d4 bd 8b e5 51 bd 33 a9 1f 3e
       -0.10584514 -0.10363902 -0.0512443 0.15591888
000280 44 ad 47 3d 20 a1 a8 3c 3a a6 ed 3d 26 78 9c bd
       0.048749223 0.020584643 0.11603971 -0.07640104
000290 72 38 2a 3d 42 55 23 3e 7e 6e 1b 3d 0f 0d 01 3b
       0.041557737 0.15950492 0.03794717 0.0019691621
0002a0 9b 44 4e ba 32 6b 24 3e 83 d4 11 3e ae 85 70 3d
       -0.00078684994 0.16056517 0.14241223 0.058721237
0002b0 b4 d6 5e 3d 38 23 78 bd 54 0e 55 3d c0 02 50 3c
       0.054403976 -0.060580462 0.052015617 0.012695968
0002c0 32 a5 51 bd 4f 3f 8f 3d 88 a6 0c 3d 71 54 4a 3c
       -0.051182933 0.06994497 0.034338504 0.012349234
0002d0 78 c8 2e bd 80 fc 84 3d cc 5c fd 3d 10 22 dd 3d
       -0.04267165 0.06493473 0.12371215 0.107975125
0002e0 a6 8f e5 3d 40 55 ff bd 30 9e 21 3d e4 ae de bd
       0.112090394 -0.12467432 0.0394575 -0.108732015
0002f0 cc 51 a8 3d 44 8c cd 3c 7b 44 d3 3d 1f 6d 85 3e
       0.082187265 0.025091298 0.10315796 0.26059815
000300 2e 73 85 bd 82 48 a7 3d 20 f1 ac bd a0 1c ee 3c
       -0.065161094 0.08168127 -0.084444284 0.029066384
000310 0a 9b 53 3d c8 42 08 bd f7 f3 15 be 88 65 94 3c
       0.05166153 -0.033266813 -0.14643846 0.01811482
000320 35 95 cb bd b8 20 1e 3d 9a 17 31 3d 9a 91 cc bd
       -0.09940568 0.03860542 0.0432354 -0.09988709
000330 1e 13 56 bd 37 3a d0 3d 2c 34 84 bc bc 99 06 3e
       -0.052264325 0.101673536 -0.016138159 0.13144583
000340 6f 5e fb 3d 29 d8 e0 3d 1c 53 c7 bc 7f e7 05 bd
       0.12273871 0.10978729 -0.024331622 -0.032691475
000350 8c c4 83 bd 13 1b 13 3b 4c a6 1f 3e f9 61 05 bd
       -0.06433973 0.0022446557 0.15590781 -0.032564137
000360 7e 46 78 be 74 49 61 be 0c 45 08 be cb 84 82 bd
       -0.2424564 -0.22000676 -0.1330759 -0.063729845
000370 6c 00 56 be 32 a5 5c 3d 8e 47 d4 3d fc 1a 46 3e
       -0.20898598 0.05386848 0.103652105 0.19346231
000380 ae a5 a4 3d 14 56 b2 bd ac 1d f0 bd d0 8a 8d bd
       0.080394134 -0.08707824 -0.117244095 -0.06911242
000390 10 1a 34 3d 44 6c 1c 3e cc e6 44 3e 14 11 01 3e
       0.043970168 0.15275675 0.19228667 0.12604171
0003a0 c2 a1 18 3d 5f a2 7e 3d 3c e2 67 3c cb 81 b3 3d
       0.03726364 0.062166568 0.01415306 0.087649904
0003b0 c0 d8 e2 bd 80 99 f7 ba da a0 9d bd 32 61 90 3d
       -0.11076498 -0.0018890351 -0.076966956 0.070497885
0003c0 6e fc b6 bc 24 27 8f bd 09 3f 8f 3d a2 3d 02 be
       -0.022337165 -0.06989887 0.06994445 -0.12718824
0003d0 88 f7 c7 bc 24 db ff bd 28 ab 71 bd b0 f5 b0 3c
       -0.024410024 -0.1249297 -0.059001118 0.021601528
0003e0 dc 6b a7 3d 2c 70 39 bd c0 bc d6 bd 5c 67 f7 bd
       0.081748694 -0.04527299 -0.1048522 -0.12080261
0003f0 a9 8a 4a bd e0 84 0c 3e 42 44 3e 3e 71 0b 30 3e
       -0.049448643 0.13722563 0.18580726 0.17191865

features_extractor.conv2.bias f4 [32]
000000 ec 78 a5 bc 04 31 06 3d 7f fd 37 3c 6f da bc bb
       -0.020199262 0.03276159 0.011229872 -0.005763344
000010 04 05 81 bd bc 2f a5 3d 6e 61 4e 3d 47 f2 19 bc
       -0.06299785 0.08065745 0.050385885 -0.009396142
000020 0e ef fc 3d 9c 57 ea bd 4d 7a 16 bd 7d 1e b1 3d
       0.123502836 -0.114424914 -0.03673773 0.08648393
000030 8b 57 a1 bd de 2c 76 3c 4e 04 4d bb b8 6a f6 bd
       -0.078780256 0.015025346 -0.0031283083 -0.12032074
000040 b0 d2 38 3e b8 42 71 bd ba 78 05 bd 4e a7 75 bd
       0.18049121 -0.05890152 -0.032585837 -0.059974007
000050 10 a5 d2 3d 46 7d cf bd f3 e5 77 bd 31 df 25 3d
       0.102853894 -0.10131316 -0.06052203 0.040496055
000060 64 c1 f8 bc a0 ea 3f bd cb 94 37 bd 23 cb 49 3d
       -0.030365653 -0.046854615 -0.044819634 0.049265992
000070 2a 56 d7 bd a2 8a 6d bc 10 d9 b4 3c 99 a8 bb 3d
       -0.10514481 -0.014498385 0.02207616 0.09163017

features_extractor.fc_op.weight f4 [32, 3]
000000 01 f7 c3 bb 12 09 b0 3e 2f 91 b1 be 6b 00 1f 3b
       -0.005980373 0.3438192 -0.3468108 0.0024261724
000010 cc 78 92 3e b6 eb a1 be b8 8b 96 3e 1b 83 e0 be
       0.28607786 -0.31625146 0.29403472 -0.43850026
000020 3e ec 13 3f b5 63 d8 3d e9 b4 86 be 36 ea a0 be
       0.5778235 0.105658926 -0.26309898 -0.3142869
000030 cf ec 35 be 1b aa 6e 3d 77 89 01 3f ff 99 f6 3e
       -0.17766117 0.058267694 0.5060038 0.48164365
000040 fc 84 a1 be 3e af cb be 67 b7 a3 bc f3 f9 96 3d
       -0.31546772 -0.39782137 -0.019984914 0.07371893
000050 e3 aa 36 bf 84 de fa 3d 48 6c 3c be c9 8a 47 be
       -0.713545 0.12249473 -0.18400681 -0.19486536
000060 8b 42 70 3c a5 1b 78 3e f4 83 a5 be 52 67 4f bc
       0.014664303 0.24229296 -0.32327235 -0.012658911
000070 d0 c1 92 3c 8c 55 f5 bd 7a 24 23 be 29 e8 92 be
       0.017914683 -0.119792074 -0.15931883 -0.2869275
000080 24 f0 67 3e 12 e9 c9 3e e2 b1 fc 3d 19 fc cf 3e
       0.226502 0.3943563 0.12338616 0.40622023
000090 33 79 c4 bd 81 c3 d7 bc 52 44 ed bd d4 6c bd be
       -0.095934294 -0.02633834 -0.11585297 -0.36997092
0000a0 a1 87 08 be 4b 2b 98 3e 9b 87 c7 3d d8 6e cc 3e
       -0.13332988 0.2972053 0.097426616 0.39928317
0000b0 a1 ce 16 3f 1b 0f 46 be 85 93 ed be f1 d9 9b be
       0.5890904 -0.193417 -0.4640161 -0.30439714
0000c0 7b 79 19 bf ce 10 3d 3d eb 74 15 3e 22 e6 83 3e
       -0.5995099 0.046158604 0.14595382 0.25761515
0000d0 1c 54 ee be 87 e6 ca 3e 16 50 d0 3e f1 89 dd 3e
       -0.46548545 0.39629003 0.406861 0.43269303
0000e0 fa da 34 3f 6f cc f9 3e bb 19 d6 3e 6b a4 18 3f
       0.7064663 0.48788783 0.41816506 0.5962588
0000f0 83 1e cd 3e ed 00 f4 3e 5c b7 e3 be 12 69 03 3f
       0.4006234 0.47656956 -0.4447583 0.513322
000100 fd cb bf 3d b8 9f 22 3f ab 82 33 be b5 2a 00 be
       0.093650796 0.6352496 -0.17530315 -0.12516291
000110 be 41 83 3e 98 be 8f be 77 a9 00 3f bc 27 c4 bd
       0.25636095 -0.280751 0.5025858 -0.09577891
000120 31 8c b4 3e e2 7e 5f be 7b 17 e2 3e 81 41 07 bf
       0.35263208 -0.21825746 0.4415854 -0.52834326
000130 0e 48 90 be 3e f3 78 3e b4 dc a4 3e b6 70 88 be
       -0.28179973 0.2431154 0.32199633 -0.26648492
000140 01 b4 61 be b6 c0 e0 3c 39 50 dc 3b 15 e7 02 bf
       -0.22041322 0.027435642 0.0067234305 -0.51133853
000150 bb 75 de bd 64 e4 a6 3c 65 4a bf be 0c 49 6b 3d
       -0.10862299 0.020372577 -0.37361446 0.05744271
000160 7f a7 ee bd 40 c7 94 3e 17 6e 48 3c c9 6d dc 3c
       -0.11653041 0.29058266 0.012233279 0.026907818
000170 19 d1 3a be cd b1 5f 3d 01 4f ee 3e 6f c3 e6 3e
       -0.18243827 0.054612923 0.4654465 0.4507098

features_extractor.fc_op.bias f4 [32]
000000 23 b8 fc bc fb 2e 6f bd fa e0 da bd 71 2b fa 3e
       -0.030849522 -0.058394413 -0.10687442 0.48861268
000010 50 17 0a 3f 87 16 8f 3e 9d 71 d2 3e 23 cb 6e 3e
       0.5394182 0.27946874 0.41102305 0.23319678
000020 de de cc 3e e5 39 35 bd 01 64 9a 3e 2c 7f ba bd
       0.40013784 -0.044244666 0.30154422 -0.09106287
000030 88 9e ce 3e cc eb 87 be 1b 1f 14 3f 09 fd 1d 3f
       0.40355325 -0.26547086 0.57859963 0.61714226
000040 cb 77 4e 3d 80 75 15 3e 8e b4 05 be 5e 43 1c be
       0.050407212 0.14595604 -0.13057157 -0.15260074
000050 64 82 ea be 9a 4e 56 be 8a 4a d8 3d 65 9b dd bd
       -0.45802605 -0.20928422 0.10561092 -0.10820655
000060 4f 4a 1c 3d 05 6b bc 3e 64 76 1e 3c 80 b1 5c 3e
       0.038156804 0.368004 0.009671781 0.21552086
000070 9f 7f 9f 3e 41 6a 89 3e 10 2c ba bd d2 60 ee 3e
       0.31152055 0.26838878 -0.090904355 0.46558243

features_extractor.fc_merge.weight f4 [352, 352]
000000 cd 9f 9c 3d cf 0b af 3d bd 2d 81 3d 0e 13 af 3d
       0.07647667 0.08547174 0.06307552 0.08548556
000010 1f 51 e8 3d 0d f8 a8 3d e2 6a ca 3d a0 9b 97 3d
       0.113435976 0.08250437 0.098836675 0.0740273
000020 92 3a ec 3d ea 51 e0 3d 56 23 ed 3c 90 89 a6 3d
       0.11534609 0.10953124 0.028947514 0.08131707
000030 74 98 a2 3d b6 51 c4 3d 86 e2 31 3b 52 60 06 3d
       0.079392344 0.095858976 0.0027143075 0.032806702
000040 29 55 8e 3d ff ae 91 3c d6 4a af 3c c0 7d 75 3d
       0.06949837 0.01778364 0.02139799 0.059934378
000050 3d 76 aa 3c 71 8d a6 3d 69 37 8e 3d 3f 47 69 3d
       0.020808334 0.081324466 0.069441624 0.05695271
000060 95 af ce 3d 42 db d1 3d 44 86 92 3d 4e a3 87 3d
       0.10092083 0.10246898 0.071545154 0.06622945
000070 0d e8 db 3d f9 fc 66 3c e8 45 91 3d b2 db 48 3d
       0.107376195 0.014098399 0.07093412 0.049037643
000080 e8 14 aa 3d fa 5e 9e 3d e2 49 6f 3d a8 2b 11 3d
       0.08304769 0.07732959 0.05842007 0.035442024
000090 56 80 80 3d 2d b9 89 3d 83 86 b5 3c b9 0c 5c 3d
       0.06274478 0.067247726 0.022158867 0.05372307
0000a0 f2 84 33 3d 6e 63 47 bd 35 19 85 3c ac e5 d6 3b
       0.04382796 -0.048678808 0.016247371 0.0065581407
0000b0 2c 55 50 bc aa 85 31 bd 27 8e 27 bd f6 2e b5 3c
       -0.012715619 -0.043340363 -0.04090705 0.02211712
0000c0 0a 7c 42 bd f5 75 e9 3c da 8d bf 3d 89 57 10 3d
       -0.047481574 0.02849863 0.09353228 0.03523973
0000d0 c3 8a d4 3d 81 0e c6 3d ee c8 91 3d 0c 08 53 3d
       0.10378029 0.09670735 0.071184024 0.051521346
0000e0 6b af 05 3e 36 48 f6 3d fb 4c c9 3d 5a 39 ee 3d
       0.13055198 0.12025492 0.09829136 0.11632033
0000f0 48 da 2e 3d 26 18 c7 3d a2 56 7e 3c e4 d3 11 3d
       0.042688638 0.09721403 0.015523585 0.035602465
000100 11 c8 a2 3d a6 d1 b6 3d 8e df 72 3c dd b2 72 3d
       0.07948316 0.08926706 0.014823807 0.05925261
000110 25 19 9f 3d c0 e1 ea 3d 8c 2d 1a bc 9a e8 c4 3c
       0.07768468 0.1146884 -0.009410273 0.024036694
000120 a7 b0 24 3d b1 9d 19 bc 42 dd 4e bc 36 69 2f 3c
       0.04020753 -0.0093759755 -0.012625994 0.010706237
000130 32 18 2b bd c9 32 1b 3d b7 73 27 3d f3 82 04 3c
       -0.04177112 0.03789023 0.04088184 0.008087861
000140 7d eb c2 3d 21 f3 96 3d 1f 98 89 3d b3 41 d4 bc
       0.09517572 0.07370592 0.06718468 -0.025910234
000150 27 62 19 bd c3 89 45 bd 5c e4 8e bd 58 88 ad bd
       -0.03744712 -0.048227083 -0.0697715 -0.08473271
000160 9a f3 eb bd 3c ac 4b be 35 b6 54 bc 52 c9 02 3d
       -0.11521073 -0.19889921 -0.012982895 0.031930275
000170 ba 51 33 bd 39 94 27 3d 24 95 dc bb f6 30 a2 3c
       -0.043779112 0.04091284 -0.006731646 0.019798737
000180 0a f1 e4 bc e5 10 d0 3b 8c a4 f1 bc ea 64 1a 3d
       -0.027946968 0.0063496702 -0.029497407 0.037693895
000190 2e 74 99 3d e8 cf fe 3d 99 9c 71 3d d2 66 f5 3d
       0.07492863 0.12441999 0.058987234 0.11982502
0001a0 8b 18 67 3d 01 68 9b 3d f3 fb f5 3d 02 c8 b8 3d
       0.05641989 0.075881965 0.12010946 0.090225235
0001b0 0f 03 84 3d 04 68 a3 3c 2a 0b 79 3d 00 e3 7c 3c
       0.06445896 0.01994706 0.060801663 0.01543498
0001c0 8b 4a e9 bb 19 9a c3 3d b8 3f 0c 3b 8e 5b 8f 3d
       -0.007119482 0.09550876 0.0021400284 0.069998845
0001d0 36 87 c6 3c c8 06 b1 3d 6c a4 af 3d e6 e9 29 3d
       0.024234395 0.086438715 0.08576283 0.04148283
0001e0 d9 80 39 bd ed 7f 97 3d cc 88 b5 3d 47 dc 05 3d
       -0.045288894 0.07397447 0.088639826 0.032680776
0001f0 32 ce 65 3d 2c 79 e9 3d 25 a8 e5 3d a5 01 a0 3d
       0.056104846 0.11400065 0.11213712 0.07812814
000200 16 9e 16 3d a6 f3 63 3d 89 88 32 3d 8d 0a 81 3d
       0.036771856 0.055652283 0.04358724 0.063008405
000210 2b 96 82 3c 94 d7 62 3d 4e 16 82 bc d0 55 55 3c
       0.015940746 0.055381373 -0.015879776 0.013020948
000220 57 5e 9b 3d 18 12 87 3a f6 30 52 3d 7d c6 5e 3d
       0.07586353 0.0010305075 0.051316224 0.054388512
000230 dd 00 97 bd c5 7f b7 bc 51 04 13 bc 66 d9 29 3c
       -0.073732115 -0.022399792 -0.008973197 0.010366773
000240 eb 40 9c 3c b6 3f 01 3c 90 f6 1a bd 5e 42 76 bd
       0.019073924 0.007888725 -0.037832797 -0.060121886
000250 e5 af 5a bd 23 d2 99 bd 51 fc 4a bc 7f 76 45 bd
       -0.053390402 -0.075107835 -0.0123892585 -0.04820871
000260 56 b3 a9 3c 03 d9 76 bb 10 69 a8 bc 71 a2 16 3c
       0.020715397 -0.003766597 -0.02055791 0.0091940025
000270 c7 dc 42 bd 65 ca 41 3c 7b 30 b4 3c 58 16 99 ba
       -0.04757383 0.01182804 0.021995774 -0.0011679633
000280 f7 a4 08 3c 88 ea ef 3b 8f 45 03 3d 13 51 a0 bd
       0.008340112 0.0073216595 0.032048758 -0.07827964
000290 b2 52 13 be 7a bc 2e be c1 b8 5e be f4 9e 7d be
       -0.14387015 -0.17064086 -0.21750166 -0.24767667
0002a0 7d 4a 66 be 8b 8c a4 be c5 7f 05 bd 9d 29 30 3d
       -0.22489353 -0.32138476 -0.032592554 0.043008436
0002b0 ce 89 08 3d 81 c2 48 3d 23 ba b4 3d 51 17 61 3d
       0.033334546 0.04901362 0.08824565 0.054953877
0002c0 d4 7d 04 3e 9b 47 e4 3d 22 5a 55 3d 5c 79 ca 3d
       0.12938625 0.1114647 0.05208791 0.09886429
0002d0 89 13 d8 3c b5 92 81 3d f5 50 f7 3c 0f 11 05 3e
       0.026376503 0.0632681 0.03018997 0.12994789
0002e0 db 7f ea 3c c8 aa b9 3d 08 46 0a 3d 08 f3 f4 3c
       0.02862542 0.09065777 0.033758193 0.029901043
0002f0 09 95 03 3e 35 57 1d 3d dc 4e 28 3d b1 6c 31 3d
       0.12849821 0.038413245 0.04109083 0.043316547
000300 1f 86 71 3b 72 02 4b 3d 48 ca c5 3d 43 73 7a 3c
       0.0036853624 0.04956288 0.09657723 0.01528627
000310 af bd bc 3d 59 ec 34 3d d1 e8 d9 3c f2 6b eb 3c
       0.09215867 0.04417071 0.026600273 0.028737996
000320 83 36 8c 3d f7 a6 5d 3d b8 96 43 3d d2 fb 0b 3d
       0.06846335 0.05411431 0.04775116 0.0341757
000330 80 b1 a9 3d ee bc 9c 3d 4f a0 b2 3d 96 5c 64 3d
       0.082858086 0.07653223 0.08721983 0.05575236
000340 e7 fe f3 3c 13 5c 61 3d f8 6f 26 3d 11 d6 37 bd
       0.029784633 0.05501945 0.040634125 -0.044881884
000350 c2 76 5f bc 9a cf 20 bd c3 64 17 3c 15 ce 12 3d
       -0.013639154 -0.039260484 0.009240332 0.035841066
000360 53 1b dc bc e3 63 1a 3b cf 24 64 bd 04 85 20 bb
       -0.026868498 0.0023558072 -0.055699166 -0.0024493346
000370 e7 cc 94 bc 22 c1 d7 b7 51 33 c9 bd a4 f4 90 bd
       -0.018164111 -2.5719932e-05 -0.09824241 -0.070779115
000380 72 87 5d bd 0f 9b ee bd c4 59 14 bd 7c d1 95 bd
       -0.05408425 -0.11650669 -0.03621842 -0.073153466
000390 c2 a0 86 bd 75 54 08 be 65 57 89 3c 93 9e 18 3b
       -0.06573631 -0.13313468 0.016765306 0.0023287877
0003a0 58 eb e1 3d 72 16 96 3d 00 de e6 3d e4 51 1f 3d
       0.110312164 0.073285 0.11272812 0.038896456
0003b0 2b bc 85 3d 0f a8 15 3d 07 61 e6 3d 4e cb 8c 3d
       0.06530031 0.036537226 0.11248975 0.06874715
0003c0 d9 7d da 3b dd 7e dd b9 a0 92 0e bd 01 15 92 bb
       0.0066678342 -0.00042246925 -0.0348078 -0.0044580703
0003d0 21 ea 7f 3b e1 b6 13 bc d0 f5 92 bc b1 36 3f 3d
       0.0039049464 -0.00901577 -0.017939478 0.046683017
0003e0 cb ff 40 bd ba e7 13 bc f2 90 65 bd 76 1b 85 bd
       -0.047118943 -0.009027416 -0.056046434 -0.064993784
0003f0 c9 cc 43 bd c5 ea a5 bd 3a 53 12 be 24 d6 8a bd
       -0.04780272 -0.08101419 -0.14289561 -0.06779125

features_extractor.fc_merge.bias f4 [352]
000000 dc 95 77 3d 83 f5 0b bc ef 40 16 3d 6a d1 8c 3b
       0.06044565 -0.008542421 0.03668302 0.004297425
000010 51 30 1e 3d 93 c9 83 3b 60 3c dc bc de b3 09 3d
       0.038620297 0.0040218323 -0.026884258 0.0336188
000020 16 05 82 bc 9f 84 a1 3d df 1e 18 3e 64 23 9c 3d
       -0.015871566 0.078866236 0.14855526 0.07623938
000030 7b 5c b7 3c a6 65 f8 3c f1 33 40 3d 0f 1c 87 bc
       0.022382965 0.030321907 0.046924535 -0.016492872
000040 f1 b4 75 3d 39 45 b1 3b b7 ef 02 3d a4 f8 84 bc
       0.059987012 0.0054098633 0.03196689 -0.016231842
000050 b9 ec 32 3d 84 6b 95 3d 7e 5b 46 bd 7b 31 f7 3c
       0.043682788 0.072958976 -0.048427097 0.030174961
000060 0f a4 b0 3a 23 38 c6 3c f2 47 21 3d fc 39 0f 3d
       0.0013476628 0.02419669 0.039375253 0.034967408
000070 05 8e 59 bd e7 08 3c 3b 79 ca fd 3a f6 ac c5 bc
       -0.053113956 0.002869183 0.001936271 -0.024130326
000080 ce e9 13 3e ed 20 ec 3c ba 78 05 3d 09 07 7b 3c
       0.14444658 0.028824294 0.032585837 0.0153215015
000090 b4 63 01 3e cd 1b 94 3d a5 34 f4 bc 27 6a 7f 3d
       0.1263569 0.07231865 -0.02981026 0.062357094
0000a0 36 d5 67 3d 96 79 d5 bc 49 b3 f9 bb 48 8c 3f bd
       0.05659982 -0.026058953 -0.0076202494 -0.046764642
0000b0 36 d3 ba 3c b3 6f 20 3d 3d fc f4 3c 0c ab 27 3d
       0.022805791 0.039169025 0.029905433 0.040934607
0000c0 54 92 75 bc 3e 92 19 bc 7c 92 d0 bc 0e 95 9b 3d
       -0.014988501 -0.009373246 -0.025460474 0.07596789
0000d0 f9 60 81 3d e8 96 0c 3d 61 0f 97 3c 24 37 87 3e
       0.06317324 0.034323603 0.01843995 0.26409256
0000e0 69 59 0c 3c 96 0a 90 3d 35 08 0e bb 94 88 91 3d
       0.008566239 0.07033269 -0.0021672372 0.07106128
0000f0 34 03 07 3e 13 09 43 bc 12 f2 a3 bc ad 65 c1 3c
       0.13184816 -0.011904019 -0.020012889 0.023608053
000100 02 9a 4e bd 0c 21 b6 bc 05 8d aa 3d 04 01 d2 3c
       -0.050439842 -0.022232555 0.083276786 0.02563525
000110 17 84 75 bd 9c 0a 2e 3c 95 dc 39 bd 93 44 8c 3d
       -0.059940424 0.010622647 -0.04537638 0.06849017
000120 89 79 1a 3d 14 03 7b 3d 51 18 d4 bc 94 c7 a5 3d
       0.03771356 0.061282232 -0.025890501 0.08094707
000130 5c 0d 08 3e 71 cd 27 bd e1 01 1e 3d 26 0e c7 3d
       0.13286346 -0.04096741 0.03857601 0.097194955
000140 cf 61 28 bd 32 e9 a8 bc 90 ea 14 3d 02 cc a8 3d
       -0.041108903 -0.020619009 0.03635651 0.082420364
000150 95 6f 09 bd 0c 06 ea 3c a7 b9 08 bc 2b 9c 80 3d
       -0.03355368 0.028567336 -0.008345044 0.06279787
000160 7f 27 ba 3b 30 19 3a bc 86 17 7a 3d cb e2 89 3d
       0.005680978 -0.011358544 0.06105759 0.067327105
000170 33 50 5c 3d bc 64 40 3d 5a c9 29 3d 5c 85 06 3d
       0.05378742 0.046971068 0.04145179 0.032842025
000180 ba e3 4d 3c 3c f0 45 3d c1 40 a8 bc 9e 45 46 bd
       0.012566501 0.04832481 -0.02053869 -0.048406236
000190 70 6b 22 bd 2e 6d dd 3d c6 29 3b 3d 7f d1 76 bc
       -0.03965324 0.1081184 0.045694135 -0.015064596
0001a0 9a 72 b1 3d f2 05 51 be 58 27 2c 3c 8d a8 22 3d
       0.08664437 -0.20412424 0.010507427 0.039711524
0001b0 b3 01 38 3d 56 db 8c 3c aa b9 3c bd 68 c8 1f 3c
       0.044923496 0.017194431 -0.0460755 0.00975237
0001c0 ed 2d f4 3d 83 2a b6 bc 5c 97 51 bd 1d 7a 7f 3d
       0.11922822 -0.022237068 -0.05116974 0.062372316
0001d0 9f d8 44 3d 67 71 8a bd 6a 31 19 3d 21 98 6c 3b
       0.04805815 -0.06759911 0.03740064 0.0036101418
0001e0 c7 c0 99 3d 10 2a fa 3c e6 f6 76 bc 98 8a aa 3d
       0.075074725 0.030537635 -0.015073514 0.08327216
0001f0 a2 7c a1 bc 36 a0 20 3d ef 10 27 be 0a 29 a7 3d
       -0.01971275 0.03921529 -0.16315053 0.081621245
000200 fd c2 ce 3d 08 9f 85 3c 6c 1c 3a 3d 7a ce 8e bd
       0.10095785 0.016311184 0.04543726 -0.06972976
000210 8f 98 da 3d 6b 76 ed bc ab 1d c8 3c 1c 6a 66 3d
       0.106736295 -0.02898713 0.02442821 0.056253538
000220 44 95 91 3d 41 f8 18 bd 73 4c b8 bc 30 1d fe 3b
       0.07108548 -0.03734613 -0.022497391 0.0077549443
000230 2b 38 64 3d 4d 0a b0 3d 2c db 10 bd 25 35 90 3d
       0.05571763 0.08595715 -0.03536527 0.070413865
000240 d7 49 2f bd ae 17 11 bd c4 96 86 3c 56 c2 bd bb
       -0.04279503 -0.035422973 0.016429313 -0.005790989
000250 84 9f 1a 3c 1a 54 4d 3d 58 55 1d bd 3a 00 70 3d
       0.009437446 0.050129034 -0.03841147 0.058593966
000260 3c 08 11 3d d7 f3 9e 3d 90 27 f2 3d 84 7b 44 bb
       0.035408244 0.077613525 0.11823952 -0.0029980848
000270 85 e5 48 3d c9 22 a5 bc b2 27 8c 3c c5 7f d8 3b
       0.049047012 -0.020158188 0.017108772 0.006607028
000280 e1 a8 98 ba 13 6d ff bc 92 e3 46 3d 7a f7 25 bc
       -0.001164701 -0.03117994 0.04855687 -0.010129804
000290 29 c0 8d 3a 14 9e 86 3c 59 bd 23 3c 9f fc c7 3b
       0.0010814714 0.0164328 0.0099938745 0.006103113
0002a0 71 d6 20 3e cf 48 01 3e 67 0b 17 bd 21 37 1e 3d
       0.15706803 0.1262543 -0.03687611 0.038626794
0002b0 9d b6 b3 3d 01 78 30 3d 7f e1 1d 3d 2a 64 6f 3d
       0.08775065 0.043083195 0.038545128 0.058445133
0002c0 c2 0f 84 3d 3f 8a 5a 3d a3 ac c0 3d 7b 85 27 3b
       0.06448318 0.053354498 0.09407928 0.0025561738
0002d0 bc dd 85 3c 0d 8c 17 3d be b5 44 3d c2 ea 71 bd
       0.016341083 0.036998797 0.048024885 -0.059061773
0002e0 ae c9 9a 3d ff f9 f3 3d ce 05 bf 3d e4 b9 62 3d
       0.075579986 0.11912917 0.09327279 0.05535306
0002f0 72 f7 9c b8 bf e3 8c bc 70 62 8f 3c 07 66 9e 3d
       -7.48475e-05 -0.017198442 0.017502993 0.07734304
000300 d3 fe 96 3d 4a 1a cd 3c 2a 7b 93 b9 fc 13 8e 3d
       0.073728226 0.02503695 -0.0002812979 0.069374055
000310 41 ee 8b 3d cb 72 04 3e aa 25 a7 bc f2 c8 4d 3b
       0.06832553 0.12934415 -0.020403702 0.003140029
000320 74 10 a5 3a 90 9a 1b 3d 14 14 10 3c f9 43 53 3d
       0.0012593404 0.0379892 0.0087938495 0.051578496
000330 26 e2 82 3c 42 42 5d bd e3 8a 96 3d c2 d9 73 3c
       0.015976977 -0.054018266 0.07350709 0.0148834605
000340 b1 27 ba bc 30 94 d9 b9 0d 1f f8 3d c1 e7 7c 3d
       -0.022724004 -0.00041499874 0.121152975 0.061744455
000350 4b 65 a3 3c 03 58 5e 3d 8d b5 8e 3c ec c3 4a 3c
       0.019945761 0.054283153 0.017420555 0.012375813
000360 5d d7 35 3c 16 f0 52 bd be aa f2 bc 70 57 9f 3d
       0.01109871 -0.051498495 -0.029622432 0.07780349
000370 81 80 ad bc 57 22 d0 bc c3 8f 80 3d bd c6 b3 3c
       -0.02117944 -0.025407 0.0627742 0.021945352
000380 2e b2 25 3d eb ec db 3d 18 24 44 3d 61 05 2b 3c
       0.04045313 0.10738548 0.047885984 0.010438294
000390 2a e7 73 3c 54 51 3c 3c 3b 7f 5d bd f2 ce ed 3c
       0.014886657 0.0114939995 -0.054076415 0.029029343
0003a0 72 e9 02 bb 70 ff c0 bc b1 81 0d bd ac 07 a8 3d
       -0.001997557 -0.023559302 -0.03454751 0.08204588
0003b0 5a ad 3f 3d d3 58 01 bc a4 4e 5a 3d 7a a7 92 3d
       0.04679618 -0.0078947125 0.053297654 0.0716085
0003c0 af 04 4a bc ca ed 2e 3d e5 6a 87 3b 0e 99 09 3e
       -0.012330218 0.042707242 0.004132616 0.13437292
0003d0 67 3f da bc d8 1a 13 3c 3e f7 a8 3d 11 0d 84 bb
       -0.02664156 0.008978568 0.08250283 -0.004029878
0003e0 9a 10 a3 3b 8d 12 83 3d f7 2a c6 bc e4 e4 2d bd
       0.0049763443 0.06400023 -0.02419041 -0.042454615
0003f0 f1 27 18 3d 6f c0 76 3b 7a 69 3d 3e be 45 25 3c
       0.037147466 0.003765132 0.18497267 0.010087429

actor.weight f4 [10, 352]
000000 01 86 0a bd a0 07 87 bc f2 b6 99 bd 13 b9 9d 3b
       -0.033819202 -0.016483128 -0.07505597 0.0048133223
000010 e8 21 0f bb 45 41 ca 3d ed b7 85 3b ff 5f 08 bd
       -0.0021840278 0.098757304 0.0040807636 -0.033294674
000020 d8 9d b4 bb e5 4e 89 3d 7d 08 c9 3d d8 f9 38 3d
       -0.0055119805 0.06704501 0.09816072 0.045160145
000030 2c f7 63 3d 4d c8 e4 3c a8 09 4e bc 2b 26 1e 3d
       0.055655643 0.027927542 -0.012575544 0.03861062
000040 37 9b 78 3c 69 95 90 bc db ee b9 3c 08 90 d6 3b
       0.015173725 -0.01764937 0.022696903 0.0065479316
000050 8a ce 17 bd 71 f7 1b 3b 00 6b b2 3c 36 86 81 bc
       -0.037062205 0.002379861 0.021779537 -0.015811067
000060 fe 3e 1d 3d a3 4a a3 3d ca dd b2 3c 72 68 77 bc
       0.038390152 0.0797322 0.021834273 -0.015100585
000070 3c d2 d2 3c 9f 81 09 3d 7c 76 06 3d eb 41 a2 3d
       0.025735013 0.033570882 0.03282784 0.07922729
000080 0a a8 29 bd 3b 73 53 3d 74 b4 27 bd d8 d3 de bc
       -0.04142002 0.051623564 -0.040943578 -0.027200624
000090 5b 20 76 3d 14 13 1d bd 29 3b c6 3c c8 77 df 3d
       0.06008945 -0.038348272 0.024198132 0.10911518
0000a0 d2 de 9e 3d 35 7d 5f 3b e6 fc 1b 3d 52 3c d9 bc
       0.07757343 0.0034101729 0.03808298 -0.02651802
0000b0 25 a0 14 bc ac e1 6e bc 40 4c 21 bd 57 2e 47 bc
       -0.009071385 -0.014580172 -0.03937936 -0.012157044
0000c0 56 4d b9 3c 8b 17 b0 bc 6b e4 f8 3b 10 fd 4d bb
       0.022619884 -0.021495601 0.007595589 -0.0031431355
0000d0 7e 10 18 bd 70 88 77 bd 29 49 3e bd 1a 86 f8 bc
       -0.037125103 -0.06043285 -0.04645649 -0.030337382
0000e0 3d c6 3d 3c cb 67 2e bc a7 40 38 bd 8a 64 d1 3c
       0.011582908 -0.010644863 -0.044983532 0.025560636
0000f0 da 1f 98 bc a0 9b 84 3b a7 bc 76 3c 8e 48 5f bd
       -0.018569876 0.0040468723 0.015059627 -0.054512553
000100 1f 9e a8 bc 06 2a 91 bd 8f bf 1f 3a 36 0e 42 3d
       -0.02058321 -0.070880935 0.0006093913 0.047376834
000110 09 b9 eb bb 92 6e 14 bd bd c6 39 3d 34 2d a8 3d
       -0.007193689 -0.03623826 0.045355547 0.08211747
000120 a2 ab 44 bd b8 4c 69 bc 8a 59 52 bc 77 1a 04 3d
       -0.048015244 -0.014239483 -0.012838731 0.0322518
000130 17 81 71 3c 10 13 95 bc 39 a7 7a bc db f2 73 3d
       0.01474025 -0.018197566 -0.015298658 0.059557777
000140 7c a4 62 bd db 62 07 bc a5 b1 79 3c bc 6e c3 3d
       -0.055332646 -0.008263315 0.015240108 0.09542605
000150 3f cb 41 bb 81 c1 de bb 6c 7c 1b bc 12 78 da bc
       -0.0029570607 -0.00679797 -0.009490114 -0.026668582
000160 92 ed b8 bc bd e7 2d 3d 8a ac 70 bc b2 d1 b2 3d
       -0.02257422 0.04245733 -0.014689574 0.087314025
000170 fc 31 87 3b 1b f2 74 3c 92 9f 07 3d 2b b8 e5 3d
       0.0041258316 0.014950301 0.033111162 0.11216768
000180 58 1f 62 bd 12 6c 8b 3d 10 9b b1 3b f9 8a e3 bc
       -0.055205673 0.06807722 0.005420096 -0.027776228
000190 63 40 b6 bc b8 08 b1 3b 07 bc e5 ba c0 62 25 bd
       -0.022247499 0.0054026507 -0.001752735 -0.04037738
0001a0 b8 8e 67 3d 69 e8 1b 3c 07 da 91 bd 81 07 9b bd
       0.05653259 0.00951586 -0.071216635 -0.07569791
0001b0 07 54 39 bd 0a f0 08 3c eb 31 34 3d bb 54 38 3d
       -0.04524615 0.008358011 0.043992918 0.04500268
0001c0 68 32 89 bd c2 62 b1 bc f3 55 ef 3c 1e e3 91 bc
       -0.06699067 -0.021653537 0.029215788 -0.017808493
0001d0 27 03 35 3d ff db ba bb 64 c2 4d 3d 1c 29 1e bc
       0.04419246 -0.005702495 0.050234213 -0.009653356
0001e0 ce 49 09 3d 29 32 24 bd 08 0b 10 3d 74 10 4a bd
       0.03351765 -0.0400869 0.03516677 -0.049332097
0001f0 ee e7 74 3d c3 e3 7a bc 4d d4 9e 3c f5 61 04 bc
       0.059791498 -0.015313092 0.019388342 -0.008079995
000200 84 b2 09 bd 26 bd e0 3b 0d 86 7b 3d 89 08 42 bd
       -0.03361751 0.0068584858 0.061407138 -0.04737142
000210 7d 42 9c 3d 49 73 9c bc 94 ae f0 3d aa 86 30 3d
       0.07629869 -0.019097941 0.11752048 0.043097176
000220 b3 22 eb 3b c0 39 e2 bc a9 1c 8d bd 49 53 de 3c
       0.0071757673 -0.027615428 -0.06890232 0.027139323
000230 e5 d1 3f bd af bc 8e bd 10 d3 08 bb c5 a9 b2 3c
       -0.04683103 -0.06969582 -0.0020877756 0.021809468
000240 f3 1f 99 bc 4b 6a e9 3c 50 23 ea 3c 12 80 67 bd
       -0.018691992 0.028493067 0.028581291 -0.05651862
000250 d6 4d 12 3d 33 57 2f 3d 30 ec 79 3d f0 19 a3 3c
       0.03571876 0.04280777 0.06101626 0.019909829
000260 ca 4f 47 bd ec da 76 3d 36 dd be 3c ff ca 9b bb
       -0.048660077 0.060267374 0.023298841 -0.0047544236
000270 4f 53 c0 3d ec a7 b0 3b fe 14 93 bc ce 08 58 3d
       0.0939089 0.0053911116 -0.017954346 0.05274277
000280 8b 30 d2 bb d9 1f cd 3b ea 36 c0 bd ff bf 21 bc
       -0.006414478 0.0062599 -0.09385474 -0.009872436
000290 b3 31 36 bd 47 76 8f 3d 5b 51 02 bd f1 d5 06 bc
       -0.04448099 0.070049815 -0.031815868 -0.008229719
0002a0 95 d3 55 bc f5 58 17 bd 5e 84 05 bd d1 58 9d 3c
       -0.013050933 -0.03695007 -0.03259694 0.01920739
0002b0 0a 4e 1a 3d f8 5d 95 3d 41 82 be 3c 7b bf 7c bc
       0.03767208 0.07293314 0.02325547 -0.015426512
0002c0 bf 51 ca 3c 10 c7 75 3b 29 16 b6 3d 3a 10 b2 bb
       0.024697183 0.0037502684 0.088909455 -0.0054340633
0002d0 5b 1c d3 bc 83 ed 1d 3c 4f be d4 bc 46 93 32 3a
       -0.025770357 0.009639147 -0.025969652 0.00068121066
0002e0 15 71 58 3c 2e dd a3 3c 12 58 15 3d 80 b7 d1 3c
       0.013210555 0.020002928 0.036460944 0.025600195
0002f0 79 d9 68 bd cb 24 b0 3d 29 e6 7d 3b 46 f7 ae 3d
       -0.056848023 0.08600768 0.0038741922 0.085432574
000300 a4 5d 12 bd 92 f2 2c 3d 2c 08 ab bc 4c fd 40 3d
       -0.035733834 0.04222352 -0.02087792 0.047116563
000310 de c8 54 3b 4e 55 d6 3d 18 7a a4 3c 9d 62 de 3c
       0.003246836 0.10465489 0.02007775 0.027146632
000320 b5 5f 25 bd 22 7b f6 bc 75 ef 05 ba 23 a0 eb 3c
       -0.040374476 -0.030088011 -0.0005109229 0.028762883
000330 09 80 4f 3d 70 13 08 bd f3 6f 14 bd 6e e7 53 bb
       0.050659213 -0.033221662 -0.036239576 -0.0032333988
000340 55 88 c1 3b d0 b5 b7 bc cc bf 5e bc 66 94 2f 3d
       0.0059061446 -0.022425562 -0.013595533 0.042866133
000350 23 8c d9 3c c5 44 91 3d 93 d6 bf 3a e6 61 c5 3b
       0.02655608 0.07093195 0.0014636092 0.0060236333
000360 38 f3 66 bc cd 8e a8 3c 86 ea ff 3c d4 16 f2 3c
       -0.014096074 0.020575905 0.03123976 0.0295519
000370 6f f8 e4 3c 17 6a 98 bd 12 e0 43 3d 30 10 b5 3b
       0.027950494 -0.0744211 0.047821112 0.0055256113
000380 32 23 43 bc 9d 6a 80 3c 22 41 b9 3d 8a 30 ac bc
       -0.011910247 0.015675837 0.09045626 -0.021019239
000390 64 96 ab 3c eb 4e af bc 9d 46 1c 3c 41 05 03 bd
       0.020945735 -0.021399936 0.00953832 -0.031987432
0003a0 bb 57 2d bc 0d e2 a7 bc 10 5d 0d bc c5 b7 8b 3d
       -0.010579999 -0.020493532 -0.008628145 0.06822161
0003b0 ae fe 54 bd 13 42 77 3c c4 10 f5 3c 9f ec 32 bd
       -0.052000694 0.015091437 0.029915221 -0.04368269
0003c0 24 11 5f bb b7 d8 b9 3c 65 8d b5 3d fa 1f 46 3d
       -0.0034037316 0.022686346 0.088648595 0.04837034
0003d0 ae 18 fa 3c ae 8b d6 3c ff a6 d6 3c 50 77 a4 bc
       0.030529346 0.026189651 0.026202677 -0.020076424
0003e0 0c 73 da 3c 75 12 73 bd 69 33 3b 3d 4f c2 54 bd
       0.026666187 -0.059343774 0.045703325 -0.05194312
0003f0 4b 33 0e bd 06 b5 0c 3d 5a 63 e7 3c 3c 4d 36 3d
       -0.034716886 0.034352325 0.028245617 0.04450725

actor.bias f4 [10]
000000 37 30 5c bd 26 8d 09 bd ff 0c ba bc e6 a6 90 bd
       -0.05375692 -0.033581875 -0.022711275 -0.07063083
000010 4a 98 49 bd 15 19 ab 3c 94 7a 11 3d f3 d5 15 3d
       -0.0492175 0.020885983 0.03551729 0.03658099
000020 e7 bd 1a bc 13 f3 0d bd
       -0.00944469 -0.03465564

critic.weight f4 [1, 352]
000000 8c ed 8b 3d ec d8 1b 3d 28 12 b7 3c f0 dc 51 3d
       0.06832418 0.03804867 0.022347525 0.051236093
000010 34 90 01 3d 97 fa ab bc 3a 6b 16 3c e0 9e bd 3c
       0.031631663 -0.020993514 0.009180838 0.023147047
000020 73 85 f7 ba 52 70 8b bc 8b e1 d1 bc c4 71 66 bd
       -0.0018884375 -0.017021332 -0.025620243 -0.05626084
000030 37 f1 0c bd 18 2c bb 3c 24 bd ad 3c d7 dc 9e 3c
       -0.034409728 0.022848174 0.021208353 0.019392414
000040 01 c8 62 3a f9 84 0f bd 4a f5 07 3d 41 73 55 3d
       0.0008651019 -0.035038922 0.03319291 0.052111868
000050 f0 fc 36 3c 4b c5 09 bd 81 91 c2 3c 1b 34 1c 3d
       0.011168703 -0.03363542 0.023751022 0.03813563
000060 72 51 56 3c a0 d7 84 bd 02 e8 03 bd d4 69 9e bd
       0.0130809415 -0.0648644 -0.03220368 -0.07735029
000070 41 49 00 3d 1b 15 c5 bc 4c 4c 6b 3d 48 94 73 bb
       0.03131986 -0.024057915 0.05744581 -0.003716724
000080 5e d7 08 bd 1d 36 eb 3a 88 83 17 3d 11 81 a0 3c
       -0.033408515 0.0017945204 0.036990672 0.019592794
000090 31 0e a4 bc 28 1c 1d 3c 0c 5b c6 3c 12 28 30 bd
       -0.020026298 0.0095892325 0.024213336 -0.043006964
0000a0 95 f0 2d bd 9f ec e9 3c 56 e9 c8 bc 6c ba d1 3c
       -0.042465765 0.028555213 -0.024525326 0.025601588
0000b0 e6 7c 05 bd 72 98 55 3d b8 ac 4d 39 22 f1 f1 3c
       -0.032589816 0.052147336 0.00019614666 0.029533926
0000c0 6f b5 ab 3c 4e 96 82 bb 0d 3a 0a 3d 27 60 0a be
       0.020960538 -0.003985203 0.033746768 -0.13513242
0000d0 42 e9 56 3d 61 4a 3a 3d 0f 09 81 3d a9 d2 fd bc
       0.052468546 0.04548109 0.06300556 -0.03098424
0000e0 03 a3 10 bd 1f bb c9 bd db 97 a1 3d 02 21 7a bd
       -0.03531171 -0.09850144 0.07890292 -0.061066635
0000f0 f7 38 f7 bc 1a 54 bc 3c e3 8e fb 3c a9 c4 01 bc
       -0.03017853 0.022989322 0.030707782 -0.007920423
000100 57 c6 16 3c c3 ed ba 3c 16 18 bf ba e5 dd 21 bd
       0.009202561 0.022818452 -0.0014579322 -0.039518256
000110 0a 1e 26 3c 27 80 a3 3c 33 28 7e 3d 97 03 22 bd
       0.010138998 0.019958569 0.062050056 -0.039554205
000120 f2 f4 54 3d 44 fb 12 bd c6 91 1b 3d 9e c8 5f bd
       0.05199141 -0.035884157 0.037980817 -0.054634683
000130 f8 a1 d8 ba d3 be ee 3a 21 69 69 3b d6 75 f6 bc
       -0.0016527763 0.0018214829 0.003561564 -0.030085485
000140 0f 7f 3c 3d 92 8e 22 39 b2 47 9c 3d f4 f3 78 bb
       0.04601961 0.00015502636 0.07630862 -0.0037987204
000150 18 52 d8 bc a5 49 2c 3c 0d 49 48 bd d7 44 13 bd
       -0.026406333 0.010515605 -0.04889779 -0.035954323
000160 c6 40 1f 3d 2c b5 11 3d 8c 89 cd 3c d4 b0 88 bb
       0.038880132 0.03557317 0.025090002 -0.00417147
000170 f0 05 b6 bc 66 38 54 3d 2c 9d ab bc 50 e6 76 bc
       -0.022219628 0.0518116 -0.020948969 -0.015069559
000180 01 69 2c 3d 4f ac 53 bb 60 23 c9 3d 45 0c 86 39
       0.042092327 -0.003229875 0.098212 0.00025567613
000190 81 da 19 3d 2c c6 34 bc 33 60 b4 3d a7 cc 17 3c
       0.037561897 -0.011033576 0.08807411 0.0092651015
0001a0 20 0c b3 bc 94 db 8b 3c f9 88 f6 3c 54 52 66 3d
       -0.021856368 0.017072476 0.03009461 0.056230858
0001b0 8d d1 00 3d ed 6d 29 3c f7 e7 42 3d ad 6d 64 3b
       0.031449843 0.01034115 0.0475845 0.003485541
0001c0 8f 43 a7 bd b7 e3 4e 3d 93 08 5f 3d be b3 4c 3d
       -0.08167183 0.050510135 0.054451536 0.049976103
0001d0 76 75 47 3d af f5 d7 3c 4e 5c db 3c 6f d6 de 3c
       0.048696004 0.026362268 0.026777413 0.02720186
0001e0 f5 f7 c9 bd 18 3d bb 3c a2 29 0e 3d 83 62 26 bd
       -0.09861747 0.02285628 0.034707673 -0.04062129
0001f0 51 3b 8a 3c 5a a4 87 3c d4 1c b4 3c 6b a0 28 bd
       0.016873987 0.016557861 0.021986403 -0.04116861
000200 7f 5f d6 bc a2 7f ac 3c fe 09 d9 bd f1 e1 d4 bb
       -0.026168583 0.021056954 -0.10597609 -0.006496661
000210 93 ea e3 bd 4d e3 96 3d 9d 2f 4e bd a6 a5 b8 37
       -0.11128726 0.07367573 -0.050338376 2.2011645e-05
000220 c2 88 34 bc 9d 49 ed 3c 59 48 75 3d 6e 1d 26 bd
       -0.011018934 0.028965766 0.05988345 -0.04055541
000230 91 4c 86 bd 50 b2 63 3b fc b9 dd 3b e8 79 52 bb
       -0.06557573 0.0034743734 0.006766556 -0.0032116119
000240 b5 e3 1c 3d bb f7 79 bb af 5e 38 3b bf 7b 1f 3d
       0.038303096 -0.0038142044 0.0028132608 0.038936373
000250 8d df bb ba 8a e1 2f 3c b4 25 56 3b 48 14 12 bd
       -0.0014333591 0.010734925 0.0032676281 -0.035663873
000260 02 e0 1a 3d 38 73 02 bd c0 40 a5 bc 90 96 08 3d
       0.037811287 -0.031848162 -0.020172477 0.033346713
000270 bd 84 2f bd fc e2 4d 3d 76 a7 03 3d 17 c5 65 3d
       -0.0428512 0.050265297 0.032142125 0.056096163
000280 69 34 a6 3c f2 63 08 bc 82 2b 75 3c 3c 18 42 3d
       0.020288663 -0.00832461 0.014963986 0.047386393
000290 79 6b 66 3d d1 d7 22 3d 90 56 03 be 0f 54 b2 3c
       0.056254838 0.0397566 -0.1282599 0.021768598
0002a0 41 02 c0 bc 2c d1 75 bd 03 e1 a3 bc 1f b1 f3 3c
       -0.023438575 -0.060013935 -0.020004755 0.029747544
0002b0 5b 18 73 bd aa c6 9f ba 61 49 e4 3b 2b 4f bc 3b
       -0.0593494 -0.0012189944 0.0069667553 0.0057467422
0002c0 20 4f 19 bb ca 63 57 3d 52 5d 1d bd 7e 4c 5f bc
       -0.002339311 0.0525854 -0.038419075 -0.013629077
0002d0 89 0d 92 3d 87 f8 98 3d ec c8 69 3d ce b0 8b 3b
       0.07131488 0.07469278 0.05707638 0.00426302
0002e0 8a 75 bb bc 59 17 3a bd a8 39 b8 bc b7 7a 2b bd
       -0.022883195 -0.045432422 -0.02248843 -0.041865077
0002f0 f4 7b 9b 3b 00 2f f3 bb 12 78 6a bc e8 93 f1 bc
       0.004745001 -0.0074213743 -0.014310854 -0.029489473
000300 ad 06 21 3c 31 09 86 3b 3d de 09 bd ef 82 da bb
       0.009828252 0.004090451 -0.03365921 -0.0066684405
000310 a4 7f 36 bd ef bb b7 bc 61 e7 c8 3c 2b c7 b4 3d
       -0.04455532 -0.02242848 0.024524393 0.08827051
000320 64 4e 16 3c 14 b2 42 3d 22 e8 15 bb e2 18 74 bc
       0.009173963 0.04753311 -0.0022873958 -0.014898511
000330 d2 0c 86 bd f2 fa 19 3c 28 9d ff bd 50 3f a1 3c
       -0.06545414 0.009398209 -0.12481147 0.01968351
000340 4f 69 03 3d 64 55 39 3c ba 92 ec bc 9b 94 20 bd
       0.032082852 0.011311863 -0.028878558 -0.03920422
000350 31 c6 f6 3c f7 03 21 bd 75 f0 a0 3c e9 7e d5 3b
       0.030123802 -0.03931042 0.019645909 0.006515373
000360 02 8d 98 3b 55 a6 d0 3c c1 0f 55 3d 7d 90 2d bd
       0.0046554813 0.025469938 0.052016977 -0.042374123
000370 af 60 0b 3d cd 68 92 3c d8 62 90 bc 34 c1 11 bd
       0.03402775 0.017872239 -0.017625257 -0.035584643
000380 47 9f a2 3d 64 a0 b2 bc a2 39 62 bb 79 af 2d 3d
       0.07940536 -0.021804996 -0.0034519215 0.042403672
000390 41 64 42 3d 72 e0 90 3d d7 7c 8e 3d a2 10 0d ba
       0.04745889 0.070740595 0.06957405 -0.00053812016
0003a0 84 a8 38 3c 3c ff 70 3d 4f 8b 53 3d 5b e7 ff bc
       0.011270646 0.05883716 0.051646527 -0.031238249
0003b0 53 2d 72 3d 3b 68 b2 3c bc 70 15 bc a2 8f 57 3d
       0.059125256 0.021778217 -0.009121116 0.052627213
0003c0 c0 2e bd bd ea a4 84 bd c5 46 c1 39 2e 56 be bc
       -0.092374325 -0.06476767 0.00036864556 -0.023234453
0003d0 9b 80 54 3b bd 73 e1 bc 3e cf bf bc 66 55 ac 3a
       0.0032425288 -0.027521009 -0.02341425 0.0013148009
0003e0 bd 67 1a 3d 9d 82 63 3d ec b1 5e 3d a2 66 19 3d
       0.03769659 0.055544484 0.0543689 0.037451394
0003f0 22 1c ab bc 83 dd 94 3d 19 55 98 bb c5 0c a4 bc
       -0.020887438 0.072688125 -0.0046488163 -0.02002562
