gym_models/model_720.pth (torch, 526994 bytes, 11 tensors)

features_extractor.conv1.weight f4 [16, 4, 4]
00000000: ce16 283e 9ef8 54be 0075 593c 981d 053d
00000010: ec5e 483e d4c3 99bd 0c57 7dbe 10f5 6ebe
00000020: e4a5 b53d 120b 17be 84a2 653e c894 783d
00000030: 80ee 7cbe 58f8 3cbd 88e9 7fbd 38d5 13be
00000040: 348a 07be 8e71 e23c 0b50 303d 155a 7bbe
00000050: fea6 27be 28ec 9f3c b451 d4bd 9853 74bd
00000060: e5df 7cbd e397 303d 72e2 d63c fad3 5a3e
00000070: 8883 46be 110d 333e 2ce2 d93d 5f30 f83d
00000080: 9c4a a9bd b759 653e e703 3f3e 1040 27bd
00000090: cb33 253e b693 00be 29f2 e23c c9e0 103e
000000a0: e569 173e 076f 0dbe 0653 4fbd 2f28 d7bb
000000b0: b163 62be c4f9 6dbd 6f0b 83be 859e 103e
000000c0: 3f95 aa3d 7711 fd3d 8d27 143e 5d58 a63e
000000d0: a3fe 10be 2e5e 5bbd b323 c2bd ec5d c33d
000000e0: c5f9 083c 340d 5ebe e94f 623d 722d fabd
000000f0: 0543 7e3c f674 adbd 556c a63d d0c9 ef3d
00000100: 18ef 853d 9166 c3bc f2c1 d63b b84b d5bd
00000110: 44cb 193e 1da7 2d3e b14c f9bd 9890 8ebc
00000120: ddd1 34be 5857 fcbd 0b7e 353e 7463 aabd
00000130: c5d6 763d acfc a43c 1e57 e73d 7f56 723d
00000140: 8781 a33e dfde f1bd e19f 793e 2598 ff3d
00000150: 490d 053c d682 46be c5a8 8abd 8923 c7bc
00000160: bb15 19be 8672 533e 9475 0abe 5a03 06be
00000170: d36b 563e c68c bebd f798 f73d 9739 3c3e
00000180: d4d8 84be 25b4 67be 8046 80be ef84 833c
00000190: 80ae f9bd 2465 ecbd dec2 993e 319d 043e
000001a0: 07ce a73d 350b 9c3e 4a6b 35be faba f7bd
000001b0: 8cdd 493e de02 963d 805e dc3d c9b1 8d3a
000001c0: a4b8 813e bfe2 093e 62ce 863e 1e97 5fbe
000001d0: 03ef 35bd 511a 1cbe 0839 713d b5c1 e9bc
000001e0: 852b 1e3e 3f03 52bc 9edc 0e3e 6b5a 1ebe
000001f0: c66d 01be d1d2 0dbc 2862 12be 12d8 a8bd
00000200: ccab e7bd 04de 683e 048e 68be 1891 28be
00000210: 7ced 62be f06a 6b3d d061 38bd c053 b23c
00000220: a443 c4bd 481b 76be 4852 f4bd 9a13 5f3e
00000230: 8eb0 7bbe 9456 25be 84f8 c8bd 2065 e1bd
00000240: 8e17 143e 74df 3b3e f137 b23e 2509 913e
00000250: d5ff 98bd ca5a 393e 39c0 e53d fb2a e43d
00000260: f02c ef3c 08b7 58be d8ee f23d 8b2a 0dbe
00000270: 1be1 02be 160f c0bd 9ca8 963d af5d 553d
00000280: 96d0 f23d 13e7 17be 3098 953e 180f 6b3e
00000290: 5c5f 84be 8219 65be c95c 0dbd e016 d43d
000002a0: 17e7 da3d d708 843d c20c 053e 1898 bc3d
000002b0: 2d17 b3bd 7478 75be c233 1a3e 38cf 873d
000002c0: eb38 43be e402 f8bc 075b c83d c0d8 1d3e
000002d0: e2d5 0cbe 9710 5f3e 10ad c3bd 0a7e e5bd
000002e0: 11bb 123d ef3d a63d f36c 883c 3bb2 08be
000002f0: f8a1 1abe f733 743d fa9c 67be 3506 433e
00000300: f4e1 723d c95c 10be 4705 883c e5c9 183e
00000310: 75d1 48be e993 1abe 681f 643d 57e1 17be
00000320: 509e 463e 4e77 f63c fb2a df3d 7b67 553e
00000330: 9afc 88be f210 91bd 490e 973d 4c0c 4b3e
00000340: d85a d3bd 8829 06be 8465 aebd 287c 323d
00000350: a049 09bd 1698 3bbe eeec 09be 9c3a bebd
00000360: 84ee 6f3e 0253 1ebe 784e 15be e6a8 4d3e
00000370: c4e7 05be b6d8 5abe 9c1f 6ebe 30fe ed3c
00000380: c413 ff3d f01c 40bd 605d 70bc c039 373c
00000390: 3ce9 013e 08d7 10bd f47c cfbd 2052 313d
000003a0: f087 48bd 52cc 5dbe 1446 483e b05e 33bd
000003b0: 1a40 15be 6829 533d 90bc fabd 3050 56bd
000003c0: 01da b03e d2e0 ac3e 7ccc 0d3d 1548 5e3c
000003d0: 51f6 233e a3a8 75be c758 98bd 2536 8d3d
000003e0: d76e 4c3e 6114 153e d667 59be e4f0 1abe
000003f0: ce83 fa3d 656c 72be b0ae 55be 288c 17bc
0.1641495 -0.20797965 0.013272524 0.032498926 0.1956746 -0.075080544 -0.24740237 -0.23335671
0.08869532 -0.14750317 0.22425276 0.060688764 -0.24700356 -0.046135277 -0.062478572 -0.14436805
-0.13236314 0.027642038 0.043045085 -0.24546082 -0.16372296 0.019521788 -0.10367146 -0.059650034
-0.06173696 0.0431136 0.026231024 0.21369925 -0.19386113 0.17485453 0.10638842 0.12118601
-0.08266184 0.22397505 0.18653832 -0.04083258 0.16133039 -0.12556347 0.027703362 0.14148249
0.1478649 -0.13811885 -0.050616287 -0.0065660696 -0.22108342 -0.058099523 -0.2559466 0.1412297
0.08329248 0.12356847 0.14468212 0.3248929 -0.14159636 -0.053556614 -0.09479465 0.095393986
0.008360331 -0.21684724 0.05525199 -0.12215699 0.015518908 -0.08469574 0.081261314 0.117084146
0.06539744 -0.023852618 0.006553882 -0.10414833 0.15018946 0.1695828 -0.12172831 -0.017402932
-0.17658181 -0.12321347 0.17723863 -0.083197504 0.060263414 0.020140015 0.11295913 0.05916452
0.3193476 -0.118100874 0.24377395 0.12480191 0.008120843 -0.19385847 -0.067704715 -0.024308937
-0.14949696 0.20649156 -0.13521415 -0.13087216 0.20939569 -0.09304194 0.120897226 0.18381344
-0.25946677 -0.22627313 -0.25053787 0.016054599 -0.12191486 -0.115427285 0.30031484 0.12950589
0.081935935 0.304773 -0.17716709 -0.1209621 0.1971342 0.073247656 0.10760212 0.001081043
0.25336182 0.13465403 0.26329333 -0.2183499 -0.044417392 -0.15244414 0.05889228 -0.02853475
0.15446289 -0.012818157 0.13951346 -0.15464179 -0.12639531 -0.00865622 -0.14295256 -0.08244337
-0.113120645 0.22740942 -0.22710425 -0.16461599 -0.22160906 0.05747503 -0.045015156 0.02176845
-0.09583214 -0.24033844 -0.119297564 0.21784821 -0.24579069 -0.16146308 -0.098130256 -0.11005616
0.1446211 0.1834696 0.34808305 0.2832729 -0.07470671 0.1810104 0.11218304 0.111410104
0.029196233 -0.21163571 0.11861962 -0.1378576 -0.12781183 -0.093778774 0.073563784 0.052091297
0.11856191 -0.14834242 0.29217672 0.22954977 -0.25854003 -0.22373012 -0.034512315 0.103559256
0.10688608 0.064469986 0.12993148 0.09208697 -0.08744655 -0.2397173 0.15058807 0.06631321
-0.19064681 -0.030274816 0.09782987 0.15414715 -0.13753465 0.21783672 -0.095544934 -0.11205681
0.03582293 0.08117282 0.016653514 -0.1334924 -0.15100849 0.05961987 -0.22618476 0.19045337
0.059297517 -0.14097895 0.016604079 0.14920767 -0.19611152 -0.15095486 0.055694014 -0.14832054
0.19396329 0.030086186 0.1089687 0.20840256 -0.2675522 -0.0708331 0.073757716 0.1982891
-0.103200614 -0.1310178 -0.08515456 0.043575436 -0.03351748 -0.18319735 -0.13469288 -0.092885226
0.2343083 -0.15461352 -0.14580715 0.20083961 -0.13076693 -0.21371731 -0.23254246 0.02905187
0.12454942 -0.046902597 -0.0146707 0.011183202 0.12686628 -0.03536132 -0.10131255 0.04329121
-0.048957765 -0.21659973 0.19557983 -0.043791473 -0.14575234 0.05155316 -0.12242997 -0.052322567
0.34541324 0.33765274 0.03461884 0.01356699 0.16011931 -0.23990111 -0.07438808 0.06895093
0.19964157 0.14558555 -0.21231017 -0.15130955 0.12232171 -0.23674162 -0.20867419 -0.009249724

features_extractor.conv1.bias f4 [16]
00000000: 4cc2 973d edfb 113e f7fa 873c 5892 dd3d
00000010: f566 52be 1015 2ebe f435 753e d78a 54bd
00000020: 645d 67be 5dcb 86be d75b edbd 6031 30be
00000030: 512d 02be 1220 01be 5c92 efbd 0812 713e
0.07410106 0.14256258 0.016599162 0.108189285 -0.20547087 -0.17000222 0.23946363 -0.05189022
-0.2259422 -0.2632703 -0.11589783 -0.17206335 -0.127126 -0.1260989 -0.11697838 0.23542035

features_extractor.conv2.weight f4 [32, 16, 4]
00000000: 0410 033d a0f4 003c b842 aebc 2861 febc
00000010: 1add 2abd 0cb6 0a3d ea3b 4abd 01e2 9abd
00000020: 5691 063e 263f c8bd 76f6 263c c19a 1bbd
00000030: 2c5f 603d 1247 263e fc09 263e b6c5 a7bc
00000040: 0afe a8bd 0847 433d 6671 e33d c31e 11bd
00000050: 6aba 0dbd 5e24 1fbc 7606 b63d ad43 44bd
00000060: 02f6 e4bd 7eea 5ebd fede 9abe 49f9 76be
00000070: d304 75bd 606c c9bd ac12 223e be7e b5bd
00000080: 0cef 0dbd 92fe ec3d 6028 0fbd 8499 5b3d
00000090: ab56 c53d 1a47 b43d bf1b af3d 2a40 313e
000000a0: caea 9d3c dc45 8b3c 8f20 4d3d cf2a 063e
000000b0: 6079 efbb c025 333b 80c5 8fba 60b2 c13d
000000c0: 9e16 98bd 6237 693d 222c ffbd f548 1f3d
000000d0: 24b7 3e3d 5214 b93d 28c3 dcbc aaab e4bd
000000e0: feeb e03d 28c7 6bbd 282d 07bd 7e5a bc3d
000000f0: d932 a7bd 63a8 7b3e 32f5 373e acb3 073d
00000100: c0c3 423d 06dd e6bd e8bd 8b3d 8851 a8bc
00000110: 50bc 333d b273 19be 0e1d b3bd 5bb3 d7bd
00000120: fe23 d43d 65a4 8ebc 66f7 90bd cf17 e7bd
00000130: 35b7 53bd 93df 4e3d 055c 1a3e 37d9 17bc
00000140: 647d b4bd 863d ab3d 4cea 8bbc 1125 b23d
00000150: b49d ae3d 79f3 3d3d 8cf1 6ebd a980 973d
00000160: d894 26bd af61 f7bd 3247 e4bd 4a1d 2ebe
00000170: ebd7 30be 5b0c 943b 5116 6fbc 5e18 f5bb
00000180: 1299 8abd 9e63 ad3d 5cca 8dbd e082 7abc
00000190: df0d 283e 1de0 2fbd ccf9 233e baa3 76bd
000001a0: 9197 fbbb 20c8 d93c de59 ee3d e9cb e43d
000001b0: f0fb 3e3c 321e d0bd 20c8 903b d860 c7bc
000001c0: bc1f efbc 4ad5 95bd b7cf 23bd bd50 d7bd
000001d0: 4af4 f33d f64b 863d 6cfe f83d c89a bebc
000001e0: 783d 9f3d 7c70 f2bd 6238 d3bd 96ad cd3d
000001f0: 47e5 d4bd 38d9 613c b4be 453e a098 8b3d
00000200: f837 5cbd c6b3 993d d0ab e1bd 50a1 853c
00000210: 86b6 b3bd 7e8c 09be d366 39bd 43b8 bbbd
00000220: 1570 d93d 0c76 d2bd 4b74 dfbd 7443 42bd
00000230: 55e1 4cbd baff c23d 2608 783d ec01 76bd
00000240: 9bad 4d3c b016 a1bd 1a3e e63b b9bf 7a3d
00000250: 1743 17bc fda4 8f3c da88 f3bc c241 113e
00000260: 1517 a9bd 2f71 8abe f63f 56be 7e44 dcbd
00000270: 5d92 bbbd 2721 e6bd caba 91bd cbdb 093e
00000280: 44ad 473d 20a1 a83c 3aa6 ed3d 2678 9cbd
00000290: 95bb 213d 9819 203e 7d64 0a3d 3c53 48bb
000002a0: 3939 9b3b e261 273e 11a1 123e eec2 713d
000002b0: b4d6 5e3d 3823 78bd 540e 553d c002 503c
000002c0: fa4f 50bd df7e 8c3d ac57 083d c499 3f3c
000002d0: 78c8 2ebd 80fc 843d cc5c fd3d 1022 dd3d
000002e0: a68f e53d 4055 ffbd 309e 213d e4ae debd
000002f0: 478e a93d aa47 c83c 48f8 d03d c15d 843e
00000300: 2e73 85bd 8248 a73d 20f1 acbd a01c ee3c
00000310: 82ae 0a3d 18f1 34bd c316 19be 6e5b d43c
00000320: cfe0 bebd 4377 313d b392 453d 6157 c0bd
00000330: 6735 5bbd fcef c83d af5a b1bc eacb fe3d
00000340: 98ac ee3d 73aa d53d 6547 f2bc 9ee7 1cbd
00000350: 6d7e 76bd e547 5a3b e714 1e3e 2a4d 13bd
00000360: 57f6 80be ae86 67be 9bc0 09be 325c 6cbd
00000370: 5353 48be cf74 0a3d 0d43 693d f426 0a3e
00000380: aea5 a43d 1456 b2bd ac1d f0bd d08a 8dbd
00000390: 5cf9 243d 6b89 163e 5af3 3c3e 9f9a ee3d
000003a0: 5b90 243d 5507 7c3d 617a 2e3c 629d a93d
000003b0: c0d8 e2bd 8099 f7ba daa0 9dbd 3261 903d
000003c0: d719 d7bc b306 9bbd 9d26 873d 767e 03be
000003d0: 88f7 c7bc 24db ffbd 28ab 71bd b0f5 b03c
000003e0: dc6b a73d 2c70 39bd c0bc d6bd 5c67 f7bd
000003f0: 0e4c 48bd a223 0b3e c48c 3b3e 054c 2b3e
0.031997696 0.007870823 -0.021272048 -0.031052187 -0.041714765 0.03386502 -0.049373545 -0.07562638
0.13141379 -0.097776696 0.010190597 -0.03798938 0.054778263 0.16238049 0.16214746 -0.020480018
-0.08251579 0.047675163 0.111056134 -0.035429727 -0.034601606 -0.00971326 0.08887951 -0.047916103
-0.11179735 -0.054422848 -0.30248255 -0.24118532 -0.059819054 -0.09835124 0.15827435 -0.08862065
-0.0346518 0.11571993 -0.034950614 0.0536132 0.09635671 0.08802624 0.08550214 0.17309633
0.019276995 0.017001085 0.05007988 0.13102268 -0.00730817 0.0027335733 -0.0010968894 0.094578505
-0.07426189 0.056937583 -0.124595895 0.038887937 0.046561375 0.09037079 -0.026948527 -0.11165555
0.10982512 -0.057562977 -0.03300205 0.091969475 -0.08163995 0.24575953 0.17964628 0.033130333
0.047549963 -0.112726256 0.06823331 -0.02054669 0.04388076 -0.1498554 -0.08745776 -0.10532256
0.103584275 -0.017412374 -0.070784375 -0.11283838 -0.05168839 0.050506186 0.15074165 -0.009268097
-0.08812979 0.08361344 -0.017079495 0.08698476 0.08526173 0.04637477 -0.058335826 0.07397587
-0.040669292 -0.120791785 -0.11146392 -0.1700336 -0.17269866 0.0045180744 -0.014592723 -0.0074797114
-0.06767477 0.08466266 -0.069233626 -0.015289992 0.16411541 -0.04293834 0.16013259 -0.060214736
-0.0076779802 0.026584685 0.116382346 0.11171705 0.011656746 -0.10162009 0.004418388 -0.02433817
-0.029189937 -0.07316072 -0.039993014 -0.105134465 0.11911829 0.06557457 0.12157902 -0.023267165
0.07775396 -0.11837861 -0.103134885 0.100428745 -0.10395294 0.013784699 0.19311029 0.0681622
-0.053764313 0.07504992 -0.11019099 0.016312271 -0.08775048 -0.134325 -0.045264076 -0.091660045
0.10617081 -0.10276422 -0.10910853 -0.04742761 -0.05001958 0.09521432 0.060554646 -0.060060427
0.012553598 -0.078656554 0.007026446 0.061217997 -0.009232304 0.017534727 -0.029728342 0.14185241
-0.08256356 -0.27039477 -0.20922837 -0.10755251 -0.09158776 -0.11236792 -0.07115705 0.1346275
0.048749223 0.020584643 0.11603971 -0.07640104 0.039485533 0.15634763 0.03378724 -0.003056719
0.004737046 0.16345933 0.14319254 0.05902379 0.054403976 -0.060580462 0.052015617 0.012695968
-0.05085752 0.06860136 0.033286735 0.011694375 -0.04267165 0.06493473 0.12371215 0.107975125
0.112090394 -0.12467432 0.0394575 -0.108732015 0.082790904 0.024448235 0.10203606 0.2585278
-0.065161094 0.08168127 -0.084444284 0.029066384 0.03385783 -0.044175237 -0.14950089 0.025922503
-0.093202226 0.043326627 0.048235606 -0.09391666 -0.053517725 0.098113984 -0.021649687 0.12441237
0.116540134 0.10432901 -0.02957506 -0.038306825 -0.060179163 0.0033307013 0.15437661 -0.03596226
-0.25187942 -0.2260997 -0.1345238 -0.05770511 -0.19563036 0.033802804 0.05694871 0.13491422
0.080394134 -0.08707824 -0.117244095 -0.06911242 0.04027687 0.14700858 0.18452206 0.116505854
0.04017673 0.06153043 0.010649295 0.082819715 -0.11076498 -0.0018890351 -0.076966956 0.070497885
-0.026257439 -0.07569637 0.06599162 -0.1284121 -0.024410024 -0.1249297 -0.059001118 0.021601528
0.081748694 -0.04527299 -0.1048522 -0.12080261 -0.048900656 0.13587812 0.18315417 0.16728218

features_extractor.conv2.bias f4 [32]
00000000: 4731 c5bc 7622 053d a6bd 273c fad5 1abc
00000010: 0405 81bd 92ed a03d d5c4 3b3d b8ef 19bc
00000020: fde3 b93d 9c57 eabd d680 28bd 6db9 b23d
00000030: 6e29 a8bd c302 813c 00a9 dc3a b86a f6bd
00000040: 6cd9 163e d575 83bd 8a6d 0abd cab7 81bd
00000050: 9bb5 cb3d 467d cfbd 663a e6bd 6552 2c3d
00000060: 64c1 f8bc bf74 a5bd 545e 4dbd 23cc 493d
00000070: 2a56 d7bd 02fd 96bc 1340 9d3c 442e b53d
-0.024071349 0.032503568 0.010238087 -0.00945043 -0.06299785 0.07857813 0.04584201 -0.009395532
0.090766884 -0.114424914 -0.041138493 0.087267734 -0.08211027 0.015748387 0.0016835034 -0.12032074
0.14731377 -0.06418959 -0.03379587 -0.06333883 0.09946748 -0.10131316 -0.11241607 0.042070765
-0.030365653 -0.08078908 -0.050138786 0.049266946 -0.10514481 -0.01843119 0.019195592 0.08846715

features_extractor.fc_op.weight f4 [32, 3]
00000000: d083 c53b f6aa b03e 99a2 b9be a008 d13a
00000010: b0cf 923e 0d51 aabe e992 a23e ec11 e5be
00000020: 64f0 1e3f f8cd ca3d 9ba0 8abe 9ec4 aebe
00000030: 8b95 3fbe 4302 763d b78a f73e 98d2 f63e
00000040: 8749 a4be 6599 b8be c8e6 dbbc 78ec 973d
00000050: bf7b 2cbf 6bf0 e93d 01db 48be 8615 2dbe
00000060: 7051 38bb 1217 7a3e 8463 bebe 8c13 733c
00000070: 50bd 9f3c 4dd1 2fbd 34ef 1fbe b2b2 94be
00000080: afe4 a83e 2485 dd3e 0943 013e e5f5 c13e
00000090: e890 c5bd 3b6b e4bc 87e8 84bd 1e7f babe
000000a0: 12fb 11be aa2a c63e 290c f33d 7705 ce3e
000000b0: bc51 0e3f a290 56be fe2d f1be 4295 90be
000000c0: ae2a 1cbf af63 3d3d f8a6 163e b6d1 8d3e
000000d0: 003c f3be f38e f13e 6ee5 db3e bac1 dd3e
000000e0: da69 1c3f 538b 043f 73a7 d63e 1d57 f13e
000000f0: a21d d73e c2d0 f43e b81f 03bf 598b 0b3f
00000100: 5714 c43d f464 173f df7f 31be 0b44 07be
00000110: eaa9 ab3e d575 94be e113 013f 8ac4 12be
00000120: c51b ba3e 01f8 6dbe a940 f93e 8938 06bf
00000130: 8053 91be 6547 9a3e 1b1f a83e 952c 95be
00000140: c512 13be a416 2a3d ce74 e53b 7e60 02bf
00000150: 39d7 ecbd 5e25 a93c fb1f c0be c6a1 483d
00000160: 4ae4 03be 4e93 ae3e 9f71 75bb 02c8 e43c
00000170: 17cb 66be ed87 913d a2b7 ee3e 46fa b93e
0.006027676 0.34505433 -0.36256865 0.0015948005 0.28674078 -0.33264962 0.3175271 -0.44740236
0.62085557 0.09902567 -0.27075657 -0.34134382 -0.1870939 0.06006075 0.4834802 0.48207545
-0.32087347 -0.3605453 -0.026843444 0.0741815 -0.6737632 0.11422809 -0.19614793 -0.16902742
-0.0028124712 0.24422863 -0.371853 0.014836203 0.01949945 -0.042924214 -0.15618593 -0.29042584
0.32986972 0.4326564 0.12623228 0.37882915 -0.09646779 -0.027883163 -0.064896636 -0.36425108
-0.14255932 0.38704425 0.11867554 0.40238544 0.55593467 -0.2095361 -0.47105402 -0.28238875
-0.61002624 0.046237644 0.14712131 0.2769906 -0.47506714 0.47179374 0.42948478 0.43311864
0.61099017 0.5177509 0.4192463 0.47136775 0.42014796 0.4781552 -0.51220274 0.545095
0.09574192 0.5913842 -0.17333935 -0.1320955 0.33528072 -0.2899615 0.5042096 -0.14332786
0.3634931 -0.23239137 0.48682144 -0.52430016 -0.28384018 0.30132595 0.32836232 -0.29135576
-0.14362629 0.041525498 0.0070024496 -0.50928485 -0.11564488 0.0206477 -0.375244 0.048982404
-0.12880054 0.3409676 -0.0037451757 0.027927402 -0.2253841 0.07106004 0.46624476 0.36323756

features_extractor.fc_op.bias f4 [32]
00000000: fadf 46bd 67db 94bd c40e a4bd 7291 003f
00000010: c82d f63e d0de 8c3e 5268 d33e 2891 883e
00000020: b05c b63e 0a83 8dbd ba0e bc3e 7b45 f3bd
00000030: 4a52 dd3e bb9f 5bbe 3dd9 103f b771 183f
00000040: 2c87 203c 2bb0 5b3e 6eed 58be 65ee 6abe
00000050: 00ef e0be 1d1f 89be f609 363e ce7e ddbd
00000060: c69a ee3d 4e88 c13e 717b d5bc ac66 353e
00000070: 1d23 a03e fbfe 963e 1f7c 62bd d6e0 dd3e
-0.048553444 -0.0726841 -0.08010629 0.5022193 0.48081803 0.27513742 0.41290528 0.26673245
0.3561759 -0.06909759 0.36729985 -0.11878487 0.43226844 -0.21447651 0.5658148 0.59548515
0.0097978525 0.21453921 -0.21184322 -0.22942503 -0.43932343 -0.2678155 0.17777237 -0.10815202
0.116506144 0.37799305 -0.026059838 0.17714947 0.3127679 0.2949141 -0.055294152 0.433356

features_extractor.fc_merge.weight f4 [352, 352]
00000000: 6923 d83d f092 d43d bfd0 923d 01d7 b13d
00000010: 3f67 e53d 03fe a63d 9969 ca3d e6fd 953d
00000020: 61bd e53d 5a30 d23d 311f 663d 1f3f cd3d
00000030: d889 b43d 9300 c93d 2291 663b 3324 0e3d
00000040: 606b 943d e78e a23c 46ab ae3c 1b66 6b3d
00000050: 8146 6c3d a55a d23d cb71 a23d e054 773d
00000060: b9d0 cf3d 9c9d d33d 7ed0 953d 8d70 893d
00000070: 598b d93d be18 303c 1f8f cd3d c61a 8b3d
00000080: f34c be3d bc8b a33d c918 6d3d 7296 0d3d
00000090: 6ed9 7f3d 6a66 873d 410f 9a3c 395f 413d
000000a0: f284 333d 6e63 47bd 3519 853c ace5 d63b
000000b0: 2c55 50bc aa85 31bd 278e 27bd f62e b53c
000000c0: 0a7c 42bd f575 e93c d8b1 fe3d caec 5a3d
000000d0: ba45 e33d 88ec c83d 4eeb 903d e531 523d
000000e0: e1c1 053e b17b f43d 8a1b c33d a039 e33d
000000f0: 62ad 9e3d 6661 f33d 85dd d93c 889b 233d
00000100: 6850 a43d 90e1 b53d 5268 6c3c 8a7f 6e3d
00000110: 9411 993d 67aa de3d 072e 1abc e7e9 c43c
00000120: 86b0 243d a6a1 19bc 5fde 4ebc 1e67 2f3c
00000130: 3518 2bbd a732 1b3d af73 273d db82 043c
00000140: 0756 6b3d a3af 463d c12d 633d ae9d 04bc
00000150: 6f33 303c bfa6 b53c cffa 783b 4826 23bc
00000160: 62df 07bd 5469 d3bd 35b6 54bc 52c9 023d
00000170: ba51 33bd 3994 273d 2495 dcbb f630 a23c
00000180: 0af1 e4bc e510 d03b 8ca4 f1bc ea64 1a3d
00000190: a7ad c83d 683f 0d3e 3281 843d b753 f63d
000001a0: ded6 603d 8983 993d c694 f53d 19c4 b63d
000001b0: debb 7b3d 36dc 6c3c 0001 b73d 5ae6 0e3d
000001c0: 7753 5f3b f51e cc3d edd8 583b 1366 913d
000001d0: 3739 d33c d9ae b23d e278 ac3d ed83 173d
000001e0: d5d9 c23b 4704 d73d 1547 de3d d947 293d
000001f0: 4626 713d b674 eb3d 2287 e93d d7b9 a33d
00000200: ca3a 153d 7221 543d c244 a03d e28d ad3d
00000210: 7b53 e03c 9484 7d3d 1c92 48bc 2819 8c3c
00000220: 66f6 a43d 52eb 9d3b 765a 593d 1c86 5d3d
00000230: e5be 41bd 0dab cebc 63c9 01bd 7dd3 c7bb
00000240: eb40 9c3c b63f 013c 90f6 1abd 8fbb 49bd
00000250: a201 3abd de11 48bd 51fc 4abc 7f76 45bd
00000260: 56b3 a93c 03d9 76bb 1069 a8bc 71a2 163c
00000270: c7dc 42bd 65ca 413c 7b30 b43c 5816 99ba
00000280: a265 14bd 1641 b5bc 00f7 8d3c 83b7 7fbd
00000290: f68f 8cbd c34d 60bd 0d1c c3bd 412e f7bd
000002a0: adb5 e2bd c0f1 50be ebc1 7d3c 4eb3 943d
000002b0: f3cd 4e3d 744b 683d 925f b83d 179c 603d
000002c0: 630c 053e 0fa4 e53d 51ff 513d 98fa c23d
000002d0: 570d 963d 5e0b bb3d eaf3 423d 1702 0c3e
000002e0: cc76 fd3c 6894 bc3d 82cc 143d 5177 023d
000002f0: 3423 033e bdb5 0f3d 9b29 b63d 7b01 9d3d
00000300: 8f19 ca3c aa74 743d 9646 cd3d 8f48 8e3c
00000310: 6a16 c23d c2dc 3c3d 7c6b d63c 4e89 c83c
00000320: a78d c03d f924 923d ef73 693d f177 1b3d
00000330: 90fc aa3d c67e 9d3d 0fe9 b33d 6be9 633d
00000340: 86f2 dd3c 2227 483d f86f 263d 11d6 37bd
00000350: c276 5fbc 9acf 20bd c364 173c 15ce 123d
00000360: 531b dcbc e363 1a3b cf24 64bd 0485 20bb
00000370: 782e f13b a61f 313d 7a76 0ebc ebf4 f13a
00000380: 5b50 e83c f0ca 68bd 3e20 ac3c 172b d3bc
00000390: 5bfb a83b 2a86 18bd eb32 363d 1a65 993c
000003a0: 093f f23d 097a 9b3d 5c61 e73d ee00 203d
000003b0: 7d91 873d 1bd2 183d 9c92 e53d 3e04 883d
000003c0: d97d da3b dd7e ddb9 a092 0ebd 0115 92bb
000003d0: 21ea 7f3b e1b6 13bc d0f5 92bc b136 3f3d
000003e0: cbff 40bd bae7 13bc 0554 76bd 1be4 66bd
000003f0: d53a 183b bcf6 aebb 2d70 8dbd 307a 1eba
0.10553629 0.103795886 0.071687214 0.08683587 0.11201333 0.08153918 0.098834224 0.07323818
0.11217762 0.102631286 0.05618209 0.10021805 0.08815354 0.09814563 0.003518172 0.03470249
0.07247043 0.019843532 0.021321904 0.057470422 0.057684425 0.10271195 0.079318605 0.060383677
0.101472326 0.10332796 0.07315157 0.067109205 0.106222816 0.0107480865 0.10037064 0.06792216
0.09292021 0.079856366 0.057884965 0.034567304 0.062463216 0.06611331 0.018806102 0.047209952
0.04382796 -0.048678808 0.016247371 0.0065581407 -0.012715619 -0.043340363 -0.04090705 0.02211712
-0.047481574 0.02849863 0.12436265 0.053448476 0.11097284 0.0981074 0.07076131 0.051317114
0.1306224 0.11937655 0.09526737 0.110949755 0.07747914 0.11883812 0.026594887 0.039943248
0.08023149 0.08880913 0.014429169 0.0582271 0.07474056 0.108723454 -0.009410388 0.024037315
0.04020741 -0.009376919 -0.01262626 0.010705737 -0.041771132 0.037890103 0.04088181 0.008087839
0.05745509 0.048507344 0.055463556 -0.008094234 0.01075445 0.022174237 0.003799129 -0.009957857
-0.03317202 -0.10322824 -0.012982895 0.031930275 -0.043779112 0.04091284 -0.006731646 0.019798737
-0.027946968 0.0063496702 -0.029497407 0.037693895 0.097987466 0.13793719 0.064699546 0.12027686
0.054892413 0.074957915 0.11991267 0.089241214 0.06145846 0.014456799 0.089357376 0.03488765
0.0034076849 0.09966842 0.0033088282 0.07099547 0.025784118 0.08724756 0.08421494 0.03699105
0.0059463778 0.10498863 0.108534016 0.041328285 0.05887439 0.1149687 0.11402728 0.079944305
0.03643302 0.05178971 0.078256145 0.084743276 0.027383557 0.061894014 -0.012241866 0.01710184
0.08054809 0.004819312 0.053064786 0.054082975 -0.04730119 -0.025228048 -0.031686198 -0.0060982094
0.019073924 0.007888725 -0.037832797 -0.049251135 -0.045411713 -0.048845164 -0.0123892585 -0.04820871
0.020715397 -0.003766597 -0.02055791 0.0091940025 -0.04757383 0.01182804 0.021995774 -0.0011679633
-0.036229737 -0.022125762 0.017329693 -0.06243087 -0.06863396 -0.05476166 -0.09526835 -0.12069369
-0.11069808 -0.2040472 0.015488128 0.07260762 0.050489377 0.056712583 0.090026036 0.05483636
0.12993006 0.11212932 0.05126888 0.09520453 0.07326763 0.091330275 0.047595896 0.13672672
0.030940436 0.09207994 0.036327846 0.03185207 0.12806398 0.03508543 0.08894654 0.07666298
0.02467039 0.059681572 0.10023229 0.017368583 0.094769314 0.04610897 0.0261743 0.024479534
0.09402018 0.07135958 0.05699533 0.037956182 0.08348954 0.07690196 0.08784687 0.055642527
0.027093183 0.048865445 0.040634125 -0.044881884 -0.013639154 -0.039260484 0.009240332 0.035841066
-0.026868498 0.0023558072 -0.055699166 -0.0024493346 0.007360276 0.043243073 -0.008695239 0.0018459832
0.028358629 -0.05683416 0.021011468 -0.025777383 0.005156917 -0.037237324 0.044482153 0.018724967
0.11828429 0.07591636 0.11297867 0.039063387 0.066195466 0.037309747 0.11209604 0.06641434
0.0066678342 -0.00042246925 -0.0348078 -0.0044580703 0.0039049464 -0.00901577 -0.017939478 0.046683017
-0.047118943 -0.009027416 -0.06013872 -0.056369882 0.0023228426 -0.0053394716 -0.069061615 -0.0006045429

features_extractor.fc_merge.bias f4 [352]
00000000: 40a7 763d 5d26 c8bb 9e34 253d 5c41 8fb9
00000010: f3e9 dc3c b1d7 14bd 0fd9 d7bc 8374 b23c
00000020: 2f14 98bc 871d 0a3d 5957 063e 47cb e63d
00000030: 5a67 cebc 4204 eb3c d120 133d 61d4 ebbc
00000040: 1a23 873d 593f 483d ea0c 913c 90b1 00bc
00000050: fbb3 373d 4089 a13d 21e2 26bd 34e5 7b3c
00000060: 0fa4 b03a c3ec 55bd 5ef2 2b3d d577 183d
00000070: 0af8 83bd b5cb 023d 594f 6b3b 0515 26bd
00000080: 94f6 153e e58a 043d d8df df3c 8253 bd3b
00000090: 8f29 ba3d cbc2 083d 2c62 2fbd 37e3 03bc
000000a0: ed80 38b9 397a a3bc 95c1 8f3c d12d 1ebd
000000b0: 8287 673c f7d4 053d 270f 0a3d 794f 273d
000000c0: bf7e 82bc 9961 cb3b 867b 93bc 4704 903d
000000d0: f3cb 433d 356f 003c 1c45 803b e928 633e
000000e0: 6959 0c3c 44bf 953d d79d 3fbb 6566 9f3d
000000f0: c20b e13d 899b c4bb eeed 9ebc 9134 8d3d
00000100: fe93 7ebd 6051 bcbc 7a5c 843d 4860 63bb
00000110: bf67 89bd ec56 0d3b 3bc0 19bd 63b4 ba3c
00000120: a2f8 113d a007 733d 4779 1bbd d648 a33c
00000130: a84d 0c3e 71cd 27bd aed3 3b3d 86c1 3e3d
00000140: 15f5 56bd 15da a7bc ae88 0f3d cdbf 713d
00000150: 4bde e5bc 9f6d 153d 7d97 313c 2f92 8e3d
00000160: ef97 633c 05fa 27bc 0a67 363d e35a ca3c
00000170: 6189 803d 2802 cf3c 4136 253d adb0 643d
00000180: 1e22 4f3c 672c d2bb 3dd4 a1bc 2612 46bd
00000190: 3aae 20bd ba57 c03d 0e0c c43c 2639 a3bc
000001a0: c112 b83d 276c 1fbe 74d3 aebc 0889 223d
000001b0: e7c6 293d dd77 4a3c 8c9b 3fbd 7772 243c
000001c0: 9cdc cb3d af3d bbbc db1c 82bd 194e 50bd
000001d0: f955 1a3d 3ca4 6dbd 0ea4 dd3c c7a4 b9bb
000001e0: 16cf 123b 8811 933c 2e41 0abd 164e d63d
000001f0: f334 a5bc 585b a13c 67b9 f0bd 8fdd a13d
00000200: e09e 9e3d 4b55 8f3c 51fe 433d 024e 33bd
00000210: 50b7 6b3c b153 bcbc b6f4 d8bc ac1a 5a3d
00000220: 4b79 9f3d 41f8 18bd ae92 cabc 301d fe3b
00000230: 5200 183d f21d 8c3d 2cdb 10bd 0a29 0d39
00000240: 8b49 55bd a118 00bc fbe6 a43c e86d cb3a
00000250: 4ef9 003b 44bb 223d 559c 1bbd c8ba 703d
00000260: a6c6 fa3c 5bc4 1f3d 2421 993d 2303 4ebc
00000270: 28a6 213c a614 39bc a670 9b3c d724 cf3b
00000280: f7fe 35bc 230e 38bc 7048 0a3d c4c9 94ba
00000290: b642 91ba b572 3e3c 2026 cb3b 15c5 0ebc
000002a0: a3dc 073e a3c3 bc3d 670b 17bd 5e4c e13c
000002b0: 631c 3c3d b38a bebb 391b 033d dcd6 7b3c
000002c0: 1a82 563d e691 573d 2f2a a53d 2062 c33c
000002d0: 5355 743c 0943 123d c690 3c3d ba48 81bd
000002e0: c4a8 513d 6a8c f23d f75f 9b3d 6300 273d
000002f0: 01de 0e3c 8ee7 1bbd bdee 9d3c 429b 033d
00000300: 43e5 9c3d 4a1a cd3c 54bc 353d 554c b93c
00000310: 9870 b33d 3634 a43d 9138 f7bc 9371 97bc
00000320: e0de cfbb be01 3d3d c1b2 473b 3c78 a03d
00000330: 8299 6bbc 5af7 68bd 209b 423d 5820 ba3b
00000340: 1d76 1bbd b673 853b e5ff c23d 2fb6 943c
00000350: df54 e03c f57b 49bc 1114 903c cf62 883c
00000360: d0f8 993c d17a 36bd 2531 32bd bcdd e23c
00000370: 5793 ffbc 877c cdbc a51d 9e3c fc53 7e3c
00000380: b209 913c 4884 a03d 7af8 aa3c a6be 9dba
00000390: 2b40 df39 c1e9 4a3b b2c4 87bd dd41 373d
000003a0: 0e83 9bbc ef00 60bc 6aeb 0dbd 29d5 153d
000003b0: 1602 3d3d a241 59b9 bc03 ac3d 2fb0 863d
000003c0: 3ad0 62bc d62c 373d 03a7 b73b a03b 513d
000003d0: 057b acbc 336a 9fbc d848 193d 369e 6dba
000003e0: a266 01bd 9822 823d 0324 c7bc 6635 60bd
000003f0: ab19 c63c c062 e03b 8e86 2c3e 04c9 f9bc
0.060218096 -0.006108089 0.040333383 -0.00027323782 0.026967024 -0.03633851 -0.026348619 0.021784073
-0.018564312 0.033719566 0.13119258 0.11269241 -0.025195766 0.028688554 0.035919968 -0.028787794
0.06598492 0.048888538 0.017706353 -0.007854834 0.044849377 0.078875065 -0.040742997 0.0153744705
0.0013476628 -0.052227747 0.041979186 0.037223656 -0.06443794 0.03193255 0.003590545 -0.04054739
0.14644843 0.032359023 0.027328417 0.005777777 0.09089958 0.033388894 -0.042818233 -0.008049778
-0.00017595636 -0.019955741 0.017548362 -0.038617913 0.014131429 0.032673802 0.033705857 0.040847275
-0.015929578 0.006206703 -0.018003237 0.07032066 0.047801923 0.007839014 0.0039144885 0.22183575
0.008566239 0.07311872 -0.0029238367 0.07783202 0.10988571 -0.0059999865 -0.019400563 0.06894792
-0.062152855 -0.022988021 0.06462951 -0.003469484 -0.06709241 0.0021566702 -0.03753684 0.022791093
0.035637505 0.059333444 -0.037957456 0.019932192 0.13701499 -0.04096741 0.04585617 0.046571277
-0.052479822 -0.020489732 0.035042457 0.059020806 -0.0280601 0.036481496 0.01083934 0.06961476
0.013891204 -0.01025248 0.04453186 0.024701541 0.06276203 0.025269583 0.040334944 0.055832554
0.0126424115 -0.0064139846 -0.019754523 -0.04835715 -0.039228655 0.093917325 0.02393153 -0.019924711
0.08987952 -0.155686 -0.021341063 0.039681464 0.041449454 0.012357679 -0.0467792 0.010037056
0.09954187 -0.022856561 -0.0635316 -0.05085573 0.037679646 -0.058017954 0.027055766 -0.005665395
0.0022401265 0.017952695 -0.033753566 0.104641125 -0.02016685 0.019696876 -0.11754113 0.07903587
0.07745147 0.017496726 0.047849957 -0.043775566 0.014386967 -0.022989126 -0.026483875 0.053248093
0.07786807 -0.03734613 -0.024728145 0.0077549443 0.03710968 0.06841649 -0.03536527 0.00013462096
-0.05207209 -0.007818372 0.020129671 0.0015520426 0.0019679847 0.03972937 -0.037990887 0.05877188
0.030612301 0.03900562 0.07477024 -0.01257399 0.009866275 -0.011296427 0.018974613 0.0063215303
-0.011108152 -0.011233839 0.033760488 -0.0011351635 -0.0011082503 0.011624028 0.006199613 -0.00871398
0.1326776 0.09217002 -0.03687611 0.027502235 0.04592551 -0.005814874 0.032008383 0.015371051
0.05237017 0.052629374 0.080646865 0.0238505 0.014912921 0.03570846 0.046036504 -0.063126996
0.051186338 0.11843188 0.07586663 0.040771853 0.008719922 -0.038062625 0.019278878 0.032130487
0.07660916 0.02503695 0.044369057 0.022619406 0.0876171 0.08017771 -0.03017834 -0.018486774
-0.0063437074 0.04614424 0.0030471536 0.07835433 -0.014379861 -0.056876518 0.04751122 0.005680125
-0.03795444 0.0040726317 0.09521464 0.018153278 0.02738422 -0.01229762 0.017587693 0.016648678
0.0187954 -0.04455072 -0.0435039 0.027693622 -0.031198187 -0.025083793 0.019301245 0.015522953
0.017704818 0.07837731 0.020870436 -0.0012034967 0.00042581683 0.0030962082 -0.066293135 0.044740546
-0.01898339 -0.013672098 -0.034648336 0.03658024 0.046144567 -0.00020719183 0.0839915 0.06576573
-0.01384359 0.044720493 0.005604626 0.051082253 -0.021054754 -0.01945982 0.037422985 -0.0009064408
-0.03159202 0.063542545 -0.024309164 -0.054738425 0.024182161 0.0068477094 0.16848204 -0.03049136

actor.weight f4 [10, 352]
00000000: b6f6 01bd 1eb6 1dbc e7e5 91bd dfaa fe3b
00000010: 7624 f03b 63e7 e03d e7b7 853b 9584 c3bc
00000020: 7534 2a3b 6eb8 c23d 72fe f33d a961 4f3d
00000030: 1927 873d 6987 083d c005 c5bb e06c 453d
00000040: a37b 773c 2799 56bc 86b3 0e3d c903 1d3c
00000050: 860a 0dbd c411 ba3c a4ef ca3c b490 89bb
00000060: fe3e 1d3d 1559 b93d 57e2 023d 6a73 41bb
00000070: 5bfc 0f3d a813 163d f15a 223d 54a7 a93d
00000080: 46f2 0fbd f798 6e3d f23e 17bd c4a4 93bc
00000090: 4fc9 a83d 3052 1d3b 4cee 0a3d 68c2 fc3d
000000a0: e6a1 b33d f6a6 e33b 870d 3d3d 039f bebc
000000b0: 30f4 053c c9a1 39bc 0c7f 1ebd 2e66 1ebc
000000c0: 6600 ea3c 390c 85bc 3188 303c d1c4 f13b
000000d0: 4124 f3bc 6a93 4abd 6fc9 17bd cbb0 acbc
000000e0: 3dc6 3d3c fe87 193c 5a57 2dbd a878 383d
000000f0: 2133 0e3c b768 b73b 3640 913c 4547 5ebd
00000100: c304 34bc c02f 8bbd e55b be3c 25e0 8f3d
00000110: 0c4f 973a 9cde dfbc e64c 403d 0aea c03d
00000120: 475b 3abd 224a dc3a 166b 64bb 77a7 353d
00000130: 6a3f df3c 1013 95bc 1ce3 2cbc 2acf 923d
00000140: f24b 3ebd db62 07bc 2ec3 903c 82f8 df3d
00000150: c813 4b3c 22e4 7abb 1ecc 553b 3c63 23bb
00000160: bede 9abc a4a2 4b3d 2074 9ebb 5b83 ca3d
00000170: 9361 323c 7b14 b93c 46d1 323d 25fe f03d
00000180: 60ca 58bd 7e1e c63d f6ba ee3b f98a e3bc
00000190: c957 84bc f0f6 bc3c a542 903b 2cb9 15bd
000001a0: de86 8a3d 69e8 1b3c dda2 72bd 1cfa 95bd
000001b0: c7ec 1dbd 2da9 8a3c e4b2 463d bb54 383d
000001c0: 4c2e 79bd d964 a3bc 88b3 1e3d 1cfa 453d
000001d0: 31b1 433d a8f2 28bb 27cc 743d bbcd cdb9
000001e0: 8188 1a3d d91f f9bc d6d2 283d 2c6d 39bd
000001f0: fc87 7e3d c4d4 e1bb 4dd4 9e3c 45f0 903b
00000200: 5076 88bc 0fbd 643c 2aef a23d fc2e 2fbd
00000210: a8c1 24bd 2977 82bc 3acc 043e d21d 323d
00000220: fa54 c03c c039 e2bc bf58 87bd 4953 de3c
00000230: b347 33bd 0fe4 96bd 10d3 08bb aef5 0b3d
00000240: 45b4 1cbc 4b89 033d 4c2a e93c 7cc8 5cbd
00000250: b13f 4d3d 864f 533d 1feb 793d c3e1 f83c
00000260: d108 25bd 7166 a03d f9cc 373d bd10 973b
00000270: a345 dd3d fb59 033c 2664 37bc 796f 6d3d
00000280: adf8 503b da56 363c 6b0e b2bd e4d7 b3bb
00000290: 3e71 2abd c08a 943d ed28 b6bc 88bf 0039
000002a0: 83c1 ad3b 2bbc dfbc 5e84 05bd 15a8 eb3c
000002b0: 7df4 473d 142e b73d 68e0 013d 76d8 f4ba
000002c0: e55e 513d c8a3 cb3b abe0 dd3d 43d6 85bb
000002d0: b8f3 c2bc ac15 403c bba3 c1bc 807e 053c
000002e0: 30b6 f63c 46e3 2f3d 7b59 4b3d 55bf 133d
000002f0: 7652 57bd cc9e d43d 0a62 6e3c 7de6 d13d
00000300: 8f5c f5bc 92f2 2c3d ae84 a5bc 8c10 763d
00000310: c5de 6d3b ba7f f63d e9c0 f13c 477a 063d
00000320: d0ce febc 6b5d d9bc bef1 2f3c 5edb 0d3d
00000330: ee9e 793d 4d41 f0bc 21e7 02bd 4907 be3b
00000340: a10b 3c3c 030c 95bc af42 da3a 4830 5d3d
00000350: a906 f33c 1d0e ac3d 4c16 863b d943 c33b
00000360: f46a 7dbc a403 c43c 28e6 233d 593e 393d
00000370: 3612 1a3d 9edb 93bd debe 653d 51af a53c
00000380: b024 debb 2da2 e13c a8cc d03d 14e0 3ebc
00000390: 422d fd3c e7c1 8cbc c1eb 9a3c 5de6 c5bc
000003a0: 3240 c8b9 fc93 89bc 4fb4 c2bb 91bc ac3d
000003b0: 9f59 4bbd 7e36 943c 63cb 103d b4c2 26bd
000003c0: 519c 533c 1f64 163d cee8 ad3d 3abf 953d
000003d0: ecd6 f83c 8cc2 253d 246d 1d3d 60f2 71bc
000003e0: 5a0a 243d 78f1 68bd 6bb0 443d 0c79 2dbd
000003f0: e6bc b2bc affc 263d bc91 273d ea46 663d
-0.031729423 -0.00962594 -0.071239285 0.0077718343 0.007328565 0.109816335 0.0040807608 -0.023866931
0.0025971208 0.095078334 0.11913766 0.050630245 0.06599254 0.033332262 -0.0060126483 0.048199534
0.015105161 -0.013098038 0.034839176 0.009583422 -0.034433864 0.02271355 0.024772473 -0.004198158
0.038390152 0.09050194 0.031954136 -0.0029518255 0.035152774 0.03663984 0.03963751 0.082838684
-0.03514316 0.058251347 -0.036925264 -0.018022902 0.082415216 0.0024005286 0.033918664 0.123417675
0.08771114 0.0069473935 0.04615548 -0.023269182 0.008175895 -0.0113300765 -0.03869538 -0.009667916
0.028564643 -0.01624118 0.010774658 0.0073781987 -0.029680373 -0.04945699 -0.037057336 -0.021080395
0.011582908 0.009370802 -0.042319633 0.04503694 0.008679182 0.0055972 0.017730813 -0.054267187
-0.010987463 -0.06796217 0.023237178 0.07025174 0.0011543944 -0.027327828 0.046948336 0.094196394
-0.045497205 0.0016806761 -0.0034853867 0.04434916 0.027251918 -0.018197566 -0.010552194 0.0716842
-0.046459146 -0.008263315 0.017671194 0.10936071 0.012394853 -0.003828295 0.0032622884 -0.0024930974
-0.01890504 0.049715653 -0.0048356205 0.09888335 0.010887521 0.022592774 0.04365661 0.11767224
-0.052927375 0.09673785 0.007285471 -0.027776228 -0.01615514 0.023066968 0.004402476 -0.036553547
0.06764005 0.00951586 -0.05923735 -0.07323095 -0.038555887 0.016926372 0.048510447 0.04500268
-0.060835168 -0.019945549 0.038745433 0.048334226 0.047776405 -0.00257794 0.059765007 -0.00039253928
0.037727837 -0.030410694 0.041216694 -0.04527013 0.062141404 -0.0068918187 0.019388342 0.0044231736
-0.016657978 0.013961091 0.07955773 -0.042769417 -0.040223747 -0.01592596 0.12968531 0.04348547
0.02347802 -0.027615428 -0.06608724 0.027139323 -0.04376955 -0.073677175 -0.0020877756 0.034169845
-0.009564464 0.032113355 0.028462552 -0.053902134 0.05010957 0.05158951 0.061015245 0.03038109
-0.04029161 0.07832039 0.04487321 0.0046101497 0.10804298 0.0080170585 -0.011193311 0.057967637
0.0031886504 0.011129105 -0.08694156 -0.0054883827 -0.041611902 0.07253027 -0.022236312 0.00012278382
0.0053026094 -0.027311405 -0.03259694 0.028766671 0.048817147 0.089443356 0.03170815 -0.0018680233
0.05111589 0.0062145926 0.10833868 -0.00408438 -0.023797855 0.011723917 -0.023637643 0.008147836
0.03011617 0.042941354 0.049645882 0.03607114 -0.052568875 0.103818506 0.0145497415 0.1024904
-0.029951362 0.04222352 -0.020204868 0.060074374 0.003629611 0.12036081 0.029510932 0.032831457
-0.031104475 -0.026533803 0.010738788 0.034633033 0.060942583 -0.029328013 -0.031958703 0.0057992083
0.011477382 -0.018194204 0.0016651953 0.054001123 0.029666262 0.084011294 0.0040920135 0.005959016
-0.015467394 0.023927517 0.040014416 0.045225475 0.037615024 -0.07219623 0.05609023 0.020225199
-0.006779276 0.027543152 0.10195285 -0.011650104 0.03090537 -0.017182304 0.018911244 -0.024157697
-0.00038194802 -0.016794197 -0.0059419046 0.08434404 -0.049646016 0.01809239 0.035350215 -0.040713027
0.012915687 0.036716577 0.084916696 0.07311864 0.03037592 0.040468737 0.038434163 -0.014767259
0.040048935 -0.056870908 0.048019808 -0.042351767 -0.02181859 0.04076832 0.040910468 0.056219973

actor.bias f4 [10]
00000000: 8138 39bd 5599 06bd 26d5 f1bb d6db 68bd
00000010: 3642 31bd 1798 b63c 165c b13c 3cdb 1b3d
00000020: 3249 1ebc 0161 0ebd
-0.045219902 -0.032861073 -0.0073801456 -0.056850277 -0.043276034 0.022289319 0.021650355 0.038050875
-0.009661006 -0.03476048

critic.weight f4 [1, 352]
00000000: a3cf 8b3d b29b 1b3d 5607 b73c 3caf 513d
00000010: c89d 003d f4b9 acbc 9f6b 163c d707 bd3c
00000020: 80cd ddba 9f2f 8cbc 4e24 d3bc ede4 97bd
00000030: 1052 0dbd 0b74 bb3c e24f 3f3c 9821 a03c
00000040: 7f1a 99bb 5321 16bd d64b 043d d143 553d
00000050: 0609 383c 918d 82bc 4234 c23c c780 183d
00000060: 7251 563c 0c09 85bd 6a52 0bbd e04a abbd
00000070: 6ffd fe3c ca8c cfbc d70f 6b3d 8ba5 8fbb
00000080: aaf5 08bd c0d1 1339 3d57 173d 6815 9c3c
00000090: e0e5 a2ba 56c8 18ba b7b4 c63c 0588 30bd
000000a0: fb50 2ebd 42e7 e93c 3c19 92bc c55a d13c
000000b0: beeb 05bd 8f4c 553d 4f6f 6dbb 41e6 f13c
000000c0: 697c ab3c 1eae 8abb 95fd 093d f03c 69ba
000000d0: 82f9 0b3d 71ba 3b3d ab8c 713d 0b17 01bd
000000e0: 03a3 10bd d953 21bd 168b a13d 6421 f4bc
000000f0: f13d fcbc 59c5 bb3c f639 fb3c e2e8 0ebc
00000100: 2348 1b3c 39dd ba3c 683e c3ba a143 22bd
00000110: 66b1 003a 531d a13c a3cc 7d3d ae6e 22bd
00000120: 0dad 543d c787 33bd 97ad 1c3d 0329 60bd
00000130: cadb ddba d3be ee3a 4102 f3bb ec35 f7bc
00000140: f323 3b3d 2df6 3239 5b23 9c3d aec7 7dbb
00000150: 61b7 fdbc 4391 2d3c eb3f c4bc 90b3 febc
00000160: b4a0 1f3d 5626 103d 09ec a73c 5ad9 8abb
00000170: 8097 f7b9 828e f63c f642 dbbc fd71 fabc
00000180: 3c42 2c3d 7209 58bb bb04 c93d c141 b639
00000190: 0799 193d c37d 36bc 25f4 843d eee5 183c
000001a0: 0a80 cabc b300 633c 46df fb3c ba1c 663d
000001b0: f2f1 003d 5906 213c 6ca5 423d 9f70 643b
000001c0: da05 adbd b0b3 4e3d 5185 5d3d 9d99 143b
000001d0: 8128 473d 8af1 d73c 06fe d93c dfc6 da3c
000001e0: 49c8 cabd 0d57 ba3c 32f8 7b3c 5b81 2bbd
000001f0: 4e20 8a3c e94c 873c 1a15 953c 6722 49bd
00000200: aa9b 04bd dd37 ac3c d783 1ebd e045 debb
00000210: bbc8 bebc e9bf 963d 4b91 4ebd 194f 5fb7
00000220: 62e7 b5bc 9d49 ed3c c93c 753d 6e1d 26bd
00000230: 5346 89bd 0d18 66bc fcb9 dd3b b351 57bb
00000240: 3378 1b3d f4e9 bcbb 45bb 523b ae3c 1f3d
00000250: 4ccc c1ba fbe4 343c da40 573b ea74 32bd
00000260: 750c 0f3d cee2 02bd 3704 a6bc 541d 063d
00000270: afeb 2fbd e69a 4d3d e584 033d 1a87 653d
00000280: 0e96 a53c 891e 2dbc 6b29 733c 36e9 413d
00000290: cb55 663d 4c8b 223d 9260 bfba 47f8 b13c
000002a0: 8ee2 c0bc 49d4 79bd 03e1 a3bc acb6 f13c
000002b0: a179 73bd 7310 a7ba 1e37 e33b 5d35 bb3b
000002c0: 3628 b0bc 1e31 573d ec18 20bd 7157 93bc
000002d0: 07f0 913d a2d2 983d bf90 693d 3b03 413a
000002e0: 29e5 bbbc 768f 3abd cc00 b9bc 53d3 42bd
000002f0: 8481 7bbc 8acb f5bb ffbb a2bc c4a0 f5bc
00000300: bd6d 3abc 3109 863b 6c6d 14bd e70f ddbb
00000310: 08b8 3cbd 9a7d b8bc da6f c33c 3f86 843d
00000320: 7b43 113c 8b79 423d 59d9 15bb 9fb1 01bd
00000330: 7f3f 86bd b846 b93b 13ca ffbd e87b 9c3c
00000340: 6b2e 043d 2882 3a3c bf80 edbc c4fb 20bd
00000350: 5794 f63c 6f62 21bd f517 a13c 2b6c d63b
00000360: fe70 54bc 7252 d03c f3ce 543d 32f0 2dbd
00000370: 44e3 093d 1bb9 923c 351a 91bc 1173 95bb
00000380: 792d 6b3d 9c8c b3bc 59d0 67bb 4c8c 2c3d
00000390: 780d 3f3d 11bf 903d 9844 8e3d f50b 8bba
000003a0: dd8b 383c 1cd6 703d 7468 533d fa5a 00bd
000003b0: 062d 723d 791f b23c a804 debc 7a43 573d
000003c0: cad5 14bc 0967 92bd fb0a d839 0b12 bfbc
000003d0: e080 543b b13a e2bc 5c8d c0bc efca 373a
000003e0: 078b 1d3d 4d5b 633d 2a7f 5e3d 39f3 173d
000003f0: 3c68 0cbd f9b4 943d 96ce 99bb b2c6 a4bc
0.06826713 0.03799028 0.022342365 0.051192507 0.031400472 -0.021084763 0.009180932 0.023075027
-0.0016922206 -0.017112551 -0.025774147 -0.07416711 -0.03450209 0.022882482 0.01167676 0.019547269
-0.004672348 -0.036652874 0.032298885 0.052066628 0.01123262 -0.015936645 0.02370656 0.037232187
0.0130809415 -0.06495866 -0.034014143 -0.08363891 0.031126706 -0.025335688 0.057388153 -0.004383748
-0.03343741 0.0001409715 0.03694843 0.019053176 -0.0012428127 -0.0005828192 0.024256093 -0.04309847
-0.042557698 0.028552655 -0.017834298 0.025555978 -0.032695524 0.052074965 -0.0036229675 0.029528739
0.020933347 -0.004232182 0.0336891 -0.0008897325 0.034173496 0.0458321 0.058972042 -0.031516116
-0.03531171 -0.039386604 0.07887857 -0.029801078 -0.030791255 0.022921251 0.030667286 -0.008722516
0.009477648 0.022810565 -0.0014895918 -0.039615277 0.0004909247 0.019667303 0.061962735 -0.039656334
0.051922847 -0.04383066 0.038251486 -0.05472661 -0.0016926464 0.0018214829 -0.00741604 -0.03017708
0.04568858 0.0001706711 0.07623931 -0.0038723755 -0.030971231 0.010593715 -0.02395626 -0.031091481
0.038971618 0.03519281 0.020498293 -0.004237336 -0.00047224388 0.03009725 -0.026765328 -0.030571932
0.042055354 -0.0032964614 0.098153554 0.00034762736 0.037499454 -0.011138382 0.064918794 0.009332163
-0.024719257 0.013855147 0.030746114 0.05617974 0.031480737 0.009828174 0.04752104 0.0034857166
-0.08448382 0.050464332 0.05408222 0.0022674568 0.048622612 0.026360292 0.026610386 0.026706157
-0.099014826 0.022746587 0.015378999 -0.04187141 0.016861107 0.016516166 0.018198539 -0.049105074
-0.032375015 0.021022731 -0.03869995 -0.006783232 -0.023289075 0.07360823 -0.05043153 -1.3310252e-05
-0.022205058 0.028965766 0.059872422 -0.04055541 -0.067028664 -0.01404382 0.006766556 -0.0032855093
0.037956428 -0.005765194 0.0032155078 0.038876228 -0.0014785617 0.011040921 0.003284505 -0.04356853
0.03492399 -0.03195458 -0.020265682 0.032742813 -0.042949375 0.05019655 0.03210916 0.056037046
0.020213153 -0.010566362 0.014841418 0.047341548 0.056234162 0.039683625 -0.0014600924 0.021724833
-0.02354553 -0.060993467 -0.020004755 0.02950605 -0.059442166 -0.0012745991 0.0069340607 0.0057131485
-0.02150355 0.052537076 -0.039086267 -0.017986031 0.0712586 0.0746205 0.057022806 0.0007362847
-0.02293642 -0.04554697 -0.022583388 -0.047564816 -0.015350703 -0.0075010704 -0.019865034 -0.029983886
-0.011378703 0.004090451 -0.036237165 -0.0067462805 -0.046073943 -0.022520829 0.023857046 0.06470918
0.008866186 0.047479194 -0.0022865145 -0.031663533 -0.0655508 0.0056541823 -0.124897145 0.019102052
0.03227083 0.011383571 -0.028992055 -0.039302602 0.03010003 -0.039400514 0.019664744 0.0065436563
-0.012966393 0.025429938 0.051955175 -0.042465396 0.033664003 0.01791053 -0.017712692 -0.004560836
0.057416413 -0.021917634 -0.0035371988 0.042125985 0.046643704 0.07067693 0.06946677 -0.0010608422
0.011263815 0.05879794 0.051613286 -0.031336762 0.05912497 0.021743523 -0.02710183 0.052554585
-0.009084174 -0.07148559 0.00041206912 -0.023324033 0.0032425448 -0.027615877 -0.023504905 0.00070111355
0.038462665 0.055506993 0.05432049 0.03709719 -0.034279093 0.0726108 -0.0046938164 -0.020114277
