gym_models/model_160.pth (torch, 526994 bytes, 11 tensors)

features_extractor.conv1.weight f4 [16, 4, 4]
000000 ce 16 28 3e 9e f8 54 be 00 75 59 3c 98 1d 05 3d
       0.1641495 -0.20797965 0.013272524 0.032498926
000010 ec 5e 48 3e d4 c3 99 bd 0c 57 7d be 10 f5 6e be
       0.1956746 -0.075080544 -0.24740237 -0.23335671
000020 e4 a5 b5 3d 12 0b 17 be 84 a2 65 3e c8 94 78 3d
       0.08869532 -0.14750317 0.22425276 0.060688764
000030 80 ee 7c be 58 f8 3c bd 88 e9 7f bd 38 d5 13 be
       -0.24700356 -0.046135277 -0.062478572 -0.14436805
000040 74 e9 0a be a4 5b d1 3c ed 2c 51 3d f7 a4 5e be
       -0.13565618 0.025556393 0.051068235 -0.21742617
000050 9f 4f 55 be 80 bc cb bc 5c f9 16 be 62 a7 d1 bd
       -0.20831154 -0.024870157 -0.1474356 -0.10237004
000060 35 c1 d9 bd 1a 8f a7 ba be a1 8f bc 3c 15 2f 3e
       -0.106325544 -0.0012783736 -0.01753318 0.17097944
000070 29 2c 74 be 07 98 05 3e 2c 41 80 3d d6 b2 a0 3d
       -0.23844971 0.13046275 0.062624305 0.0784661
000080 eb 82 9b bd 09 73 6b 3e be 2a 44 3e 8c 44 0b bd
       -0.0759333 0.22993101 0.1915693 -0.03400092
000090 e6 8e 61 3e ec d0 88 bd 4e a2 b0 3d 4c d0 4c 3e
       0.22027168 -0.06680474 0.08624707 0.20001334
0000a0 00 c5 53 3e b3 87 a2 bd 71 e1 01 3c 5b d9 54 3d
       0.20680618 -0.07936039 0.007927285 0.0519651
0000b0 96 08 26 be 68 d8 2c 3a 16 24 4a be 08 8e 4c 3e
       -0.16214213 0.00065935263 -0.19740328 0.19976056
0000c0 2b f2 77 3d 34 03 ce 3d df 41 fc 3d f4 cb 9c 3e
       0.060533684 0.10059205 0.123172514 0.30624354
0000d0 14 a1 d4 bd dd 03 7f bc 30 1f 68 bd 00 e9 08 3e
       -0.10382286 -0.015564886 -0.056670368 0.13370132
0000e0 eb f6 3c 3d cf 25 37 be 28 3c bf 3d 70 b9 ab bd
       0.046133917 -0.17885517 0.09337646 -0.08384979
0000f0 35 49 5a 3d be 4c 3f bd 80 80 f4 3d 0e 1f 1f 3e
       0.053292472 -0.046704046 0.11938572 0.1553919
000100 db db f6 3d 95 45 13 3d 85 17 97 3d 2c f6 24 bd
       0.12053653 0.03595503 0.07377533 -0.04027383
000110 de 1e 6b 3e cd fe 7e 3e 3a 07 30 bd 64 fb 79 3d
       0.22960994 0.24901886 -0.04297564 0.06103076
000120 8a fc c6 bd 0d 50 33 bd 51 11 83 3e 80 1a 9c bb
       -0.09716137 -0.043777514 0.2559915 -0.0047639012
000130 5f 09 0f 3e 7f ee cb 3d 0e 50 44 3e 8a e6 0c 3e
       0.13968419 0.09957599 0.19171163 0.13759819
000140 f3 8f 99 3e 53 0f 0c be 50 09 68 3e 19 76 e3 3d
       0.29992637 -0.1367772 0.22659802 0.1110651
000150 01 3d 45 3d 8e 3c 1d be 96 62 de bc 08 31 87 3c
       0.04815388 -0.15355131 -0.027146619 0.016502872
000160 97 2e e0 bd cd b8 7c 3e 26 db c1 bd b4 71 b8 bd
       -0.10946386 0.24679871 -0.09465627 -0.09006062
000170 45 6a 7f 3e 70 00 58 bd 86 54 25 3e 2e 04 66 3e
       0.24942882 -0.052734792 0.16145524 0.22462532
000180 7a a5 5c be b8 6d 3a be 25 ab 55 be 22 cc 4f 3d
       -0.215475 -0.18205917 -0.20866068 0.050731786
000190 46 60 1c be 98 ba 15 be e5 01 8a 3e 79 a9 ca 3d
       -0.152711 -0.14621961 0.2695457 0.098956056
0001a0 cd 77 51 3d 3d 47 8c 3e 2b ed 54 be f0 25 1b be
       0.05113964 0.273981 -0.20793597 -0.15151191
0001b0 7c 54 2a 3e df e5 2d 3d da 5a 9d 3d dd 68 f1 bc
       0.1663379 0.04245555 0.07683344 -0.029468948
0001c0 e6 7c 51 3e e8 10 b0 3d b2 29 55 3e d0 29 68 be
       0.20457801 0.085969746 0.20816687 -0.226722
0001d0 a0 f3 66 bd 30 1d 35 be f0 e3 88 3c d8 5a b4 bd
       -0.056384683 -0.17686915 0.016710252 -0.088063896
0001e0 56 ea 11 3e 58 8c 18 bd b4 55 c7 3d 92 4f 5b be
       0.14249548 -0.037243217 0.097331434 -0.21417072
0001f0 fa ae 0d be 40 80 07 bd e8 93 3d be 40 61 11 be
       -0.1383628 -0.033081293 -0.18513453 -0.14197254
000200 cc ab e7 bd 04 de 68 3e 04 8e 68 be 18 91 28 be
       -0.113120645 0.22740942 -0.22710425 -0.16461599
000210 7c ed 62 be f0 6a 6b 3d d0 61 38 bd c0 53 b2 3c
       -0.22160906 0.05747503 -0.045015156 0.02176845
000220 a4 43 c4 bd 48 1b 76 be 48 52 f4 bd 9a 13 5f 3e
       -0.09583214 -0.24033844 -0.119297564 0.21784821
000230 8e b0 7b be 94 56 25 be 84 f8 c8 bd 20 65 e1 bd
       -0.24579069 -0.16146308 -0.098130256 -0.11005616
000240 b5 b8 f4 3d 94 d2 20 3e 75 52 a5 3e 8e bf 85 3e
       0.119492926 0.15705329 0.32289472 0.26122707
000250 4d c0 1a bd 76 60 5f 3e b7 0f 19 3e 6e 68 18 3e
       -0.03778105 0.2181414 0.14947401 0.14883587
000260 dd 6a 87 3d 5c b1 32 be 11 a7 1f 3e 39 af cd bd
       0.066121794 -0.1745047 0.15591075 -0.10043187
000270 93 22 ba bd fc 06 68 bd e7 07 e3 3d a3 54 b7 3d
       -0.09088626 -0.056647286 0.110854916 0.0895169
000280 1a 4b c6 3d 29 d3 2e be 2e e8 8b 3e ca 7e 5b 3e
       0.09682293 -0.17072739 0.27325577 0.21435085
000290 43 4a 60 be 99 dc 3c be f1 60 97 3b 7b 50 12 3e
       -0.21903329 -0.18443526 0.0046197106 0.14288513
0002a0 bf e7 15 3e a6 82 d4 3d f5 1e 2d 3e 1a 91 06 3e
       0.14639185 0.10376482 0.1690634 0.1314129
0002b0 7a 5d 44 bd 8b 3b 4d be f5 45 42 3e 45 59 d8 3d
       -0.04794071 -0.20042245 0.18971999 0.10563902
0002c0 70 5e 3e be a0 cc d0 bc 14 37 d3 3d c4 46 23 3e
       -0.18590713 -0.025488198 0.1031324 0.15944964
0002d0 de 67 07 be 94 7e 64 3e 28 e4 b8 bd 5c c6 da bd
       -0.13223216 0.2231391 -0.09027892 -0.10682365
0002e0 30 73 28 3d ec 19 b1 3d b0 90 b3 3c 62 56 03 be
       0.041125476 0.08647522 0.021919578 -0.12825921
0002f0 f4 33 15 be fc f5 84 3d 84 38 62 be 0e 62 48 3e
       -0.145706 0.0649223 -0.22091872 0.19568655
000300 e2 d4 83 3d 71 21 0a be ec 0e d1 3c 9b e1 23 3e
       0.064370885 -0.1348932 0.02551981 0.1600403
000310 c0 35 18 be 66 6d d3 bd 6d e5 d3 3d f0 95 cd bd
       -0.14864254 -0.103236005 0.10346494 -0.10038364
000320 05 3a 77 3e 5e 58 9f 3d 71 80 20 3e f2 3e 83 3e
       0.24143226 0.077805266 0.15673997 0.2563396
000330 72 5d 61 be 9f 59 bd bc 01 e4 f8 3d b2 22 7c 3e
       -0.22008303 -0.023114024 0.12152863 0.2462261
000340 d8 5a d3 bd 88 29 06 be 84 65 ae bd 28 7c 32 3d
       -0.103200614 -0.1310178 -0.08515456 0.043575436
000350 a0 49 09 bd 16 98 3b be ee ec 09 be 9c 3a be bd
       -0.03351748 -0.18319735 -0.13469288 -0.092885226
000360 84 ee 6f 3e 02 53 1e be 78 4e 15 be e6 a8 4d 3e
       0.2343083 -0.15461352 -0.14580715 0.20083961
000370 c4 e7 05 be b6 d8 5a be 9c 1f 6e be 30 fe ed 3c
       -0.13076693 -0.21371731 -0.23254246 0.02905187
000380 c4 13 ff 3d f0 1c 40 bd 60 5d 70 bc c0 39 37 3c
       0.12454942 -0.046902597 -0.0146707 0.011183202
000390 3c e9 01 3e 08 d7 10 bd f4 7c cf bd 20 52 31 3d
       0.12686628 -0.03536132 -0.10131255 0.04329121
0003a0 f0 87 48 bd 52 cc 5d be 14 46 48 3e b0 5e 33 bd
       -0.048957765 -0.21659973 0.19557983 -0.043791473
0003b0 1a 40 15 be 68 29 53 3d 90 bc fa bd 30 50 56 bd
       -0.14575234 0.05155316 -0.12242997 -0.052322567
0003c0 23 08 a2 3e 1d 8e 9e 3e 90 94 14 3c e0 20 f4 bb
       0.31646833 0.309678 0.009068623 -0.007450208
0003d0 77 fa 45 3e cf 79 53 be d1 3a 27 bd 05 80 d2 3d
       0.19333826 -0.20651935 -0.040827576 0.10278324
0003e0 fd 72 6e 3e 36 43 37 3e 3b 0a 37 be e3 97 f0 bd
       0.23286052 0.17896733 -0.17874996 -0.1174772
0003f0 03 46 1f 3e 91 3d 50 be 15 51 33 be 71 61 c9 3c
       0.15554051 -0.20335986 -0.17511399 0.024582596

features_extractor.conv1.bias f4 [16]
000000 4c c2 97 3d 17 e7 cd 3d 55 11 9b 3d 15 04 16 3e
       0.07410106 0.100538425 0.07571665 0.14649995
000010 c6 61 ff bd 7d 24 04 be 18 6c 58 3e 08 45 d5 bd
       -0.12469821 -0.12904544 0.21134984 -0.10413557
000020 64 5d 67 be 05 6f 67 be 47 5b 9b bd 5c c3 2a be
       -0.2259422 -0.22600944 -0.07585769 -0.16676086
000030 11 e9 a0 bd 12 20 01 be 5c 92 ef bd 20 bb 89 3e
       -0.07856954 -0.1260989 -0.11697838 0.26900578

features_extractor.conv2.weight f4 [32, 16, 4]
000000 04 10 03 3d a0 f4 00 3c b8 42 ae bc 28 61 fe bc
       0.031997696 0.007870823 -0.021272048 -0.031052187
000010 1f 66 c2 bc 51 bc 83 3d 41 9e 3a bb 40 d6 c3 bc
       -0.023730336 0.06432403 -0.0028475674 -0.023905873
000020 73 35 16 3e 49 48 a8 bd 63 f6 d2 3c b3 18 b8 bc
       0.14668827 -0.08216912 0.025752252 -0.022472715
000030 d2 7f 34 3d 32 3c 1a 3e 8d 25 1b 3e a1 56 e7 bc
       0.04406721 0.15062025 0.15151043 -0.02823955
000040 dd 48 7d bd 97 87 8b 3d 6a 8b 06 3e 28 3e 75 bc
       -0.061837066 0.06812971 0.1313912 -0.0149684325
000050 25 65 22 bd 82 5d 89 bc 9d a6 a7 3d dd 5c 57 bd
       -0.03964724 -0.01676822 0.08186076 -0.052578796
000060 1f 12 c7 bc 63 73 1d 3d 64 d0 52 be 48 2a 11 be
       -0.024300633 0.03844012 -0.20587307 -0.14176285
000070 ac ae 60 3d 42 8a 92 bd 20 67 f7 3d 42 7d fe bd
       0.05485408 -0.07155277 0.120802164 -0.12426235
000080 0c ef 0d bd 92 fe ec 3d 60 28 0f bd 84 99 5b 3d
       -0.0346518 0.11571993 -0.034950614 0.0536132
000090 b5 c8 9d 3d 71 0f 8c 3d af 12 89 3d 97 13 21 3e
       0.077042975 0.06838883 0.06693017 0.15730129
0000a0 2d 32 99 3c 3d d1 73 3c eb fb 44 3d 3d d9 07 3e
       0.018700683 0.014881429 0.04809181 0.13266464
0000b0 60 79 ef bb c0 25 33 3b 80 c5 8f ba 60 b2 c1 3d
       -0.00730817 0.0027335733 -0.0010968894 0.094578505
0000c0 71 5b 37 bd e1 7f ae 3d 3a 41 c5 bd 6b 43 8d 3d
       -0.04476494 0.08520485 -0.096315816 0.068976246
0000d0 24 b7 3e 3d 52 14 b9 3d 28 c3 dc bc aa ab e4 bd
       0.046561375 0.09037079 -0.026948527 -0.11165555
0000e0 fe eb e0 3d 28 c7 6b bd 28 2d 07 bd 7e 5a bc 3d
       0.10982512 -0.057562977 -0.03300205 0.091969475
0000f0 47 6d c3 bd 8a 05 6b 3e cf f4 27 3e 5a 2a 97 3c
       -0.095423274 0.22951332 0.16401981 0.018452812
000100 c0 c3 42 3d 06 dd e6 bd e8 bd 8b 3d 88 51 a8 bc
       0.047549963 -0.112726256 0.06823331 -0.02054669
000110 bd 05 96 3d e6 33 da bd c9 6b ff bc 1c 63 2f bd
       0.07325313 -0.1065443 -0.031179326 -0.042819127
000120 0d 0c 01 3e 62 67 99 3b 00 a2 49 bd 8c 61 ba bd
       0.12602253 0.0046815136 -0.04922676 -0.09100637
000130 a2 9e 5d bd 9f 0a 3f 3d f6 93 17 3e 41 93 12 bc
       -0.054106362 0.04664099 0.14802536 -0.008946241
000140 f8 b0 7d bd 8d 53 e0 3d f7 32 0d 3c a7 e0 e6 3d
       -0.06193635 0.10953436 0.008618108 0.11273318
000150 a1 d4 b4 3d 96 7f 40 3d 13 67 6c bd 07 9d 9d 3d
       0.08829618 0.046996675 -0.057715487 0.07695966
000160 53 59 5b 3d 38 82 a4 bc 67 ba c0 bb d4 21 7b bd
       0.053551983 -0.020081624 -0.005881596 -0.061311558
000170 54 31 6b bd 40 d0 04 3d 64 fa 52 bd 2c ec 15 bd
       -0.05742009 0.032425165 -0.051508322 -0.036602184
000180 12 99 8a bd 9e 63 ad 3d 5c ca 8d bd e0 82 7a bc
       -0.06767477 0.08466266 -0.069233626 -0.015289992
000190 54 ca 1c 3e bf ef 5f bd b1 06 19 3e e8 17 8b bd
       0.15311557 -0.054672 0.14943959 -0.06791669
0001a0 b6 6d 0f ba c8 91 02 3d 77 f8 f9 3d 23 09 f8 3d
       -0.00054713653 0.03187731 0.12205594 0.12111118
0001b0 f0 fb 3e 3c 32 1e d0 bd 20 c8 90 3b d8 60 c7 bc
       0.011656746 -0.10162009 0.004418388 -0.02433817
0001c0 0d f6 a4 3b 86 73 24 bd 3f f0 e1 bb b6 ef 90 bd
       0.0050342144 -0.040149234 -0.0068950946 -0.07076971
0001d0 4a f4 f3 3d f6 4b 86 3d 6c fe f8 3d c8 9a be bc
       0.11911829 0.06557457 0.12157902 -0.023267165
0001e0 78 3d 9f 3d 7c 70 f2 bd 62 38 d3 bd 96 ad cd 3d
       0.07775396 -0.11837861 -0.103134885 0.100428745
0001f0 94 42 de bd 23 88 be 3b f3 8f 3d 3e c6 47 7a 3d
       -0.108525425 0.0058145686 0.18511944 0.061103605
000200 f8 37 5c bd c6 b3 99 3d d0 ab e1 bd 50 a1 85 3c
       -0.053764313 0.07504992 -0.11019099 0.016312271
000210 a3 29 a6 bd d1 c0 ea bd 07 55 04 bc 5c c8 52 bd
       -0.0811341 -0.11462558 -0.008076913 -0.05146061
000220 00 db f3 3d a1 db b6 bd 62 1b c4 bd 69 40 0d bd
       0.11907005 -0.0892861 -0.09575535 -0.034485254
000230 fa b4 7e bd 4a eb a6 3d d6 32 42 3d 50 f6 90 bd
       -0.06218431 0.081503466 0.047411762 -0.070782304
000240 2b db f4 3c 08 95 7b bd 07 94 c6 3c 64 fd a0 3d
       0.029889664 -0.061421424 0.024240507 0.078608304
000250 09 82 83 bc 01 19 09 3c 53 3c 21 bd de ec 09 3e
       -0.016053217 0.008367778 -0.03936417 0.13469264
000260 65 8c b8 3a 29 cf 38 be 92 17 ec bd e0 9e 2a bc
       0.0014079927 -0.18047775 -0.11527933 -0.010413855
000270 60 13 a5 3c 1c cd 5a bd c2 8d cc bd e2 d1 a6 3d
       0.02015084 -0.053418264 -0.09987976 0.08145501
000280 44 ad 47 3d 20 a1 a8 3c 3a a6 ed 3d 26 78 9c bd
       0.048749223 0.020584643 0.11603971 -0.07640104
000290 cd 39 94 3c 44 b4 09 3e 5b 1c 4e 3c ea 7f b3 bc
       0.018093968 0.13447672 0.012580003 -0.02191158
0002a0 a6 c1 4b 3b 62 cd 23 3e 35 42 0e 3e 89 64 6e 3d
       0.0031090765 0.15996316 0.13892443 0.058201347
0002b0 b4 d6 5e 3d 38 23 78 bd 54 0e 55 3d c0 02 50 3c
       0.054403976 -0.060580462 0.052015617 0.012695968
0002c0 ea 00 bc bc 74 44 c2 3d 27 58 72 3d 93 cc 21 3d
       -0.022949655 0.09485713 0.0591661 0.039501738
0002d0 78 c8 2e bd 80 fc 84 3d cc 5c fd 3d 10 22 dd 3d
       -0.04267165 0.06493473 0.12371215 0.107975125
0002e0 a6 8f e5 3d 40 55 ff bd 30 9e 21 3d e4 ae de bd
       0.112090394 -0.12467432 0.0394575 -0.108732015
0002f0 25 a9 89 3d ba 69 b7 3b 4a a9 ab 3d 6e f5 76 3e
       0.06721715 0.0055973204 0.08381899 0.24117061
000300 2e 73 85 bd 82 48 a7 3d 20 f1 ac bd a0 1c ee 3c
       -0.065161094 0.08168127 -0.084444284 0.029066384
000310 85 ba 77 3d ec 5a b3 bb aa 28 c3 bd 0e 06 b2 3d
       0.060480613 -0.005473485 -0.095292404 0.08692561
000320 c6 2d 99 bd 5f f8 7b 3d b8 57 87 3d 26 54 9b bd
       -0.07479434 0.061516162 0.06608528 -0.075844094
000330 87 45 7b bd 1f 0a b6 3d 9a 4b f4 bc 35 a2 f4 3d
       -0.061345603 0.08888649 -0.029821206 0.11945001
000340 35 ed 0f 3e 19 11 03 3e 19 53 ca bb 8d e0 74 bc
       0.14055331 0.12799491 -0.006174457 -0.014946115
000350 ad 3b 7e bd 46 65 70 ba 22 ac 19 3e dd 06 1c bd
       -0.06206863 -0.00091703644 0.1500707 -0.038092483
000360 70 13 23 be 1c 1a 02 be d6 78 fd bc 94 97 48 3d
       -0.15925384 -0.12705272 -0.030941408 0.04897268
000370 b6 0c 96 bd 98 4b 7f 3d e8 62 a5 3c 04 52 be 3d
       -0.07326643 0.06232795 0.020188764 0.09292987
000380 ae a5 a4 3d 14 56 b2 bd ac 1d f0 bd d0 8a 8d bd
       0.080394134 -0.08707824 -0.117244095 -0.06911242
000390 7d 74 c5 3c 4b 21 05 3e 09 78 2c 3e b9 b5 d3 3d
       0.024103398 0.13000982 0.16842665 0.10337395
0003a0 c4 6e 2c 3d 03 51 7c 3d a8 0e 35 3c b7 32 b2 3d
       0.04209782 0.061600696 0.011050858 0.08701079
0003b0 c0 d8 e2 bd 80 99 f7 ba da a0 9d bd 32 61 90 3d
       -0.11076498 -0.0018890351 -0.076966956 0.070497885
0003c0 4e 88 b1 3b bd 22 39 bd 03 d6 c5 3d ef ec c4 bd
       0.00541786 -0.045199145 0.0965996 -0.09615504
0003d0 88 f7 c7 bc 24 db ff bd 28 ab 71 bd b0 f5 b0 3c
       -0.024410024 -0.1249297 -0.059001118 0.021601528
0003e0 dc 6b a7 3d 2c 70 39 bd c0 bc d6 bd 5c 67 f7 bd
       0.081748694 -0.04527299 -0.1048522 -0.12080261
0003f0 75 69 70 bd 5e ed fb 3d db 43 2e 3e c0 c9 1e 3e
       -0.05869432 0.123011336 0.17018072 0.15506649

features_extractor.conv2.bias f4 [32]
000000 b1 7d a2 ba 2c 68 84 3d ec a3 f7 3c a2 00 92 3c
       -0.0012397078 0.06465182 0.030229531 0.017822567
000010 04 05 81 bd ae b0 cc 3d ad 1c 9e 3d f0 10 60 3c
       -0.06299785 0.099946365 0.07720313 0.013675913
000020 64 6b 20 3d 9c 57 ea bd d5 39 91 bc 9e 7a fd 3d
       0.039164916 -0.114424914 -0.017727772 0.12376903
000030 cb 9f 78 bd fd d0 55 3d 00 a9 dc 3a b8 6a f6 bd
       -0.060699265 0.05220126 0.0016835034 -0.12032074
000040 b4 b7 ac 3d b9 5f 29 bd 0f f5 b8 bc f4 ff fd bc
       0.08433476 -0.041351054 -0.02257779 -0.031005837
000050 ed 2d 06 3e ed 75 c7 bd 56 67 e2 bd b7 41 8c 3d
       0.13103457 -0.097392894 -0.11054866 0.068484716
000060 e0 e3 90 bc 25 d9 01 be e5 d6 d5 bc b0 3e 77 3d
       -0.017686784 -0.1268049 -0.026103446 0.060362518
000070 2a 56 d7 bd e4 e2 45 3c ae ca 4f 3d 6a 56 e9 3d
       -0.10514481 0.012078021 0.0507304 0.11393435

features_extractor.fc_op.weight f4 [32, 3]
000000 4f aa 2e bd b5 fe b3 3e 37 d9 f8 be 7e ce 9a bd
       -0.042642888 0.35155264 -0.48603222 -0.075589165
000010 9f 8f 8d 3e 9d a3 f6 be d8 9e ac 3e e8 bc d7 be
       0.27648637 -0.48171702 0.33714938 -0.42136312
000020 fa 14 02 3f 25 b7 d3 3d 76 ee 92 be b1 c4 1e bf
       0.5081326 0.103376664 -0.28697556 -0.6201888
000030 72 b5 80 be 26 17 c0 3d d1 97 ee 3e ea e0 f2 3e
       -0.25138432 0.09379415 0.46600202 0.4743722
000040 0d 82 97 be 5c 9b 1a bf 07 fc 50 bd 60 38 72 3d
       -0.29591408 -0.6039331 -0.051021602 0.059135795
000050 1d 2d 03 bf 5f ea 18 3e 22 b3 5e be 21 94 8f be
       -0.5124071 0.14933155 -0.21748021 -0.280427
000060 54 70 d1 3c bf e4 9f 3e db 83 9c be 37 d4 91 3d
       0.025566258 0.31229207 -0.30569348 0.07120555
000070 44 49 9e 3c e2 0f ea bd c7 7d 09 be e2 07 94 be
       0.019322045 -0.11428811 -0.13426886 -0.28912264
000080 a8 e5 81 3e e1 ce fd 3e 06 d2 50 3e 32 72 58 3d
       0.25370526 0.495719 0.20392618 0.05284328
000090 5a fe df bd 46 8a df ba fa 2c e5 3d f1 0e b1 be
       -0.109371856 -0.0017054759 0.11190219 -0.34581712
0000a0 79 a0 17 be 15 d8 db bc 52 8f 19 3e 35 51 ea 3e
       -0.14807309 -0.026836434 0.14996079 0.4576508
0000b0 a1 ff 04 3f 58 f7 79 be f6 53 de be fc 2b fc be
       0.5195256 -0.2441076 -0.43423432 -0.49252307
0000c0 fc a2 14 bf 6c 52 38 bd 6e b3 c8 bd f2 23 8e 3e
       -0.58061194 -0.04500048 -0.097998485 0.277618
0000d0 2f 2d 06 bf f6 1e a5 3e ed be f6 3e d2 94 d1 3e
       -0.52412695 0.32250184 0.4819254 0.40933853
0000e0 b4 18 da 3e 89 e6 17 3f 55 c9 d7 3e 89 ee ce 3c
       0.42596972 0.59336144 0.42145792 0.025260227
0000f0 d2 dc eb 3e 9a d2 fc 3e e2 75 18 bf e7 ec 10 3f
       0.4606691 0.49379426 -0.59554875 0.56611484
000100 2c a2 30 3e 4a 62 06 3f 9a 50 18 be fb f2 29 be
       0.17249364 0.5249373 -0.14874497 -0.16596596
000110 e7 af 8a 3e 16 5c ba be d4 94 06 3f d3 22 c5 be
       0.27087328 -0.3639838 0.52570844 -0.3850313
000120 8d 5e c1 3e b4 f1 29 be be 5c bc 3e 2e 5c fb be
       0.3776745 -0.16596109 0.36789507 -0.49093765
000130 f8 3b 82 be a8 79 fc 3d 2d 42 a4 3e f0 5d 8b be
       -0.25436378 0.123278916 0.32081738 -0.27220106
000140 c2 54 5b be c2 b6 0b bc e8 4e 87 bd 20 ab 03 bf
       -0.21419051 -0.00852746 -0.06606847 -0.5143299
000150 ad 69 06 be 30 05 2d 3c 92 eb a4 be ca dd 32 3d
       -0.1312625 0.010560319 -0.32210976 0.043668546
000160 9f 72 01 be 18 dd 46 3e c7 51 2f bd 40 e3 e7 3c
       -0.1264138 0.19420278 -0.0428026 0.028306603
000170 7a 42 37 be fc cd ec 3d ba 1a f5 3e 77 f3 04 3e
       -0.17896453 0.11562726 0.47871953 0.129835

features_extractor.fc_op.bias f4 [32]
000000 65 8a 4d be 0c 5f 74 be 48 6c e6 3c 9a fc ea 3e
       -0.20072325 -0.23864383 0.028127804 0.45895845
000010 7f b3 c8 3e 3d de 0b 3e 19 10 d9 3e b0 4f 64 3e
       0.39199445 0.13658996 0.42395094 0.22296023
000020 05 a3 a7 3e 52 8e 21 be 64 e8 b5 3e 00 71 7e be
       0.32741562 -0.15776947 0.35528862 -0.24847794
000030 48 0a bd 3e 4b a3 0f bf 42 43 03 3f 2a 14 93 3e
       0.36921906 -0.5610854 0.512745 0.2872632
000040 57 9b ca bd 73 92 aa 3e be e1 f6 be 2f 63 c8 be
       -0.0989291 0.33314857 -0.48219103 -0.3913817
000050 8f 9b bf be 0d da 03 bf d8 8e 50 3e 71 ae 06 3d
       -0.3742337 -0.51504594 0.2036699 0.032881204
000060 6c 8f 4f 3e e6 36 23 3e 85 76 59 be 1f 82 14 3e
       0.20269555 0.15938911 -0.21236618 0.14502762
000070 df f8 8c 3e 66 06 4c 3e aa fd 2b be e8 66 c6 3e
       0.27533624 0.19924316 -0.16795984 0.38750386

features_extractor.fc_merge.weight f4 [352, 352]
000000 e0 8a 76 3d e5 4b 63 3d d5 0c cb 3c dd 43 35 3d
       0.060191035 0.0554923 0.024786392 0.044254173
000010 73 54 9a 3d 66 81 45 3d 4c b0 83 3d b9 53 0f 3d
       0.07535639 0.048219107 0.0643011 0.034991954
000020 65 af 9b 3d 25 f9 9d 3d ea 7c 10 3d d8 8d 9b 3d
       0.07601813 0.07713536 0.035275377 0.07595414
000030 7f 4c 82 3d 49 ad 9a 3d 22 6f 6a bc c5 bb 96 3c
       0.06362247 0.07552583 -0.014308723 0.018400082
000040 ea ed 57 3d 10 a9 8e bb 93 27 8a bb c2 45 27 3d
       0.052717127 -0.00435365 -0.0042161434 0.04083801
000050 71 9f b5 3c dc da 5c 3d dc e8 05 3d 5d 3d 98 3c
       0.022170754 0.053919658 0.032692775 0.018583948
000060 3f df 87 3d 67 00 92 3d 6b d3 23 3d 78 4a f2 3c
       0.06634378 0.07128983 0.039996546 0.029576525
000070 e2 0a 8a 3d c3 eb 95 bc a2 02 84 3d 59 08 e5 3c
       0.06740357 -0.018300897 0.06445815 0.027958082
000080 29 f7 59 3d 18 39 32 3d 5b e3 d2 3c 0f 8b a0 3b
       0.053214226 0.04351148 0.025743177 0.0048993896
000090 76 71 01 3d c0 5b 04 3d 67 af 63 bc 1f b2 c3 3c
       0.031602345 0.032314062 -0.0138968 0.023888646
0000a0 f2 84 33 3d 6e 63 47 bd 35 19 85 3c ac e5 d6 3b
       0.04382796 -0.048678808 0.016247371 0.0065581407
0000b0 2c 55 50 bc aa 85 31 bd 27 8e 27 bd f6 2e b5 3c
       -0.012715619 -0.043340363 -0.04090705 0.02211712
0000c0 0a 7c 42 bd f5 75 e9 3c 0c 85 a7 3d 1c db ac b8
       -0.047481574 0.02849863 0.081796736 -8.2424114e-05
0000d0 9b b3 6f 3d 73 2b 58 3d ed 32 06 3d f6 e4 82 3c
       0.058520894 0.05277581 0.03276341 0.015978318
0000e0 a6 42 bf 3d 11 d3 9f 3d 61 3c 59 3d b5 57 9d 3d
       0.09338884 0.078039296 0.053036097 0.076827444
0000f0 20 31 5c 3d b4 1f b1 3d da a1 c6 bb b0 0d 28 3c
       0.053757787 0.08648625 -0.0060617747 0.01025717
000100 14 44 5b 3d 28 a6 81 3d 29 3f 48 bc 34 33 ef 3c
       0.05353172 0.0633052 -0.01222209 0.02919922
000110 2c c6 38 3d 6a 48 ae 3d 86 7f 0d 3c 71 16 4c 3d
       0.045110866 0.08509906 0.008636361 0.04982609
000120 81 cc c5 3c 2d 55 d7 bc 5b 3c a4 3b f2 66 dc 3c
       0.024145367 -0.026285732 0.0050120777 0.026904557
000130 49 12 c2 bc 13 fa 3c 3d da 01 3e 3d 77 cb 81 3c
       -0.02369036 0.046136927 0.046388485 0.01584409
000140 f0 1d 16 3c 2e 88 8b bb 38 9c 89 3b 41 8b 2f bd
       0.009162411 -0.0042581772 0.004199531 -0.042857412
000150 76 31 8a bc b9 80 54 3b a4 74 6b bb fc 6d ac 3b
       -0.016869288 0.0032425357 -0.0035927678 0.0052621346
000160 ca 9a 13 3c ab f1 2e bd 35 b6 54 bc 52 c9 02 3d
       0.009009073 -0.04271094 -0.012982895 0.031930275
000170 ba 51 33 bd 39 94 27 3d 24 95 dc bb f6 30 a2 3c
       -0.043779112 0.04091284 -0.006731646 0.019798737
000180 0a f1 e4 bc e5 10 d0 3b 8c a4 f1 bc ea 64 1a 3d
       -0.027946968 0.0063496702 -0.029497407 0.037693895
000190 d0 c5 62 3d dc c1 be 3d 40 3d b2 3c 92 0d a7 3d
       0.05536443 0.093143195 0.021757722 0.08156885
0001a0 11 65 ac 3c a2 be 2e 3d 21 b7 af 3d 02 4d 56 3d
       0.021044286 0.04266227 0.08579851 0.052319534
0001b0 6a 33 ea 3c 88 52 a9 bb 63 85 98 3d 93 06 77 3c
       0.02858897 -0.005167309 0.074473165 0.015077251
0001c0 b9 6d 94 bc da 55 a1 3d 66 64 71 bc 1c d3 5c 3d
       -0.018118726 0.07877703 -0.0147334095 0.053912267
0001d0 59 b3 e0 3b 20 6c 86 3d c4 5c 82 3d 77 33 be 3c
       0.0068573174 0.06563592 0.0636535 0.0232179
0001e0 87 9b 87 bc 40 75 86 3d 84 ad 88 3d de ea a5 3a
       -0.016553653 0.065653324 0.066737205 0.0012658497
0001f0 92 78 bb 3c f3 52 ac 3d 0b 33 ad 3d 0c 26 45 3d
       0.02288464 0.08414259 0.08457001 0.048131987
000200 04 1f bd 3a 66 0d aa 3c 13 86 8f 3d 88 d4 89 3d
       0.0014428799 0.020758342 0.070079945 0.0672999
000210 ed 86 29 3c 09 77 3e 3d cc 10 c7 bc f6 12 a9 3b
       0.01034711 0.04650024 -0.024300002 0.005159731
000220 e8 ee 87 3d bc 81 69 bc dc 2a 00 3d 4c 21 14 3d
       0.066373646 -0.0142521225 0.031290874 0.036164567
000230 e5 be 41 bd 0d ab ce bc 63 c9 01 bd 7d d3 c7 bb
       -0.04730119 -0.025228048 -0.031686198 -0.0060982094
000240 eb 40 9c 3c b6 3f 01 3c 90 f6 1a bd 8f bb 49 bd
       0.019073924 0.007888725 -0.037832797 -0.049251135
000250 a2 01 3a bd de 11 48 bd 51 fc 4a bc 7f 76 45 bd
       -0.045411713 -0.048845164 -0.0123892585 -0.04820871
000260 56 b3 a9 3c 03 d9 76 bb 10 69 a8 bc 71 a2 16 3c
       0.020715397 -0.003766597 -0.02055791 0.0091940025
000270 c7 dc 42 bd 65 ca 41 3c 7b 30 b4 3c 58 16 99 ba
       -0.04757383 0.01182804 0.021995774 -0.0011679633
000280 66 db 4a bd 4a c3 71 bc 4a 11 ee 3c 16 c8 0a bd
       -0.04952564 -0.014756033 0.029060978 -0.033882223
000290 b1 11 00 bd 06 2c 51 bb 06 a4 eb bc bd 82 a6 bc
       -0.03126687 -0.003191711 -0.028764736 -0.020326013
0002a0 27 c8 10 3d a9 8a af bc 96 17 6e bc 60 3c c7 3c
       0.03534713 -0.021428423 -0.0145319905 0.024320781
0002b0 b2 a3 a4 3a fe 51 24 3c 02 04 49 3d 1e cc 98 3c
       0.0012560992 0.010029314 0.049076088 0.018652018
0002c0 a0 75 c3 3d ef 04 9b 3d f4 49 4e 3c b2 08 79 3d
       0.095439196 0.075693004 0.012590874 0.060799308
0002d0 00 4c e4 3c 7f 35 bc 3c ac 45 ba bc 91 b7 96 3d
       0.02786827 0.022974728 -0.0227383 0.07359231
0002e0 35 34 ba bc 07 32 43 3d 9f d0 ab bb 25 6f 38 bc
       -0.022729972 0.04765513 -0.0052433754 -0.011256968
0002f0 37 36 ab 3d 9a c9 0a bb a3 9d 8c 3d fd 9e 4d 3d
       0.0835995 -0.0021177293 0.06866004 0.05020045
000300 aa 02 f4 ba 75 57 0a 3d e3 8b 9d 3d d4 3f 65 bb
       -0.0018616517 0.03377481 0.07692697 -0.0034980671
000310 d1 86 95 3d 83 3b a7 3c 86 90 dc ba f1 d2 1e 3b
       0.07301105 0.02041412 -0.0016827739 0.0024234618
000320 7f de 8a 3d 4d 1e 2c 3d c3 0f f6 3c 89 0f 57 3c
       0.06780719 0.042021085 0.030036813 0.013126262
000330 3f 4c 7a 3d da 5a 5d 3d 4b 71 80 3d d0 f4 e4 3c
       0.06110787 0.05404172 0.06271609 0.027948767
000340 fa 02 1e 3b be 91 18 3d 5e 27 36 3d 11 d6 37 bd
       0.002411066 0.037248366 0.044471137 -0.044881884
000350 c2 76 5f bc 9a cf 20 bd c3 64 17 3c 15 ce 12 3d
       -0.013639154 -0.039260484 0.009240332 0.035841066
000360 53 1b dc bc e3 63 1a 3b cf 24 64 bd 04 85 20 bb
       -0.026868498 0.0023558072 -0.055699166 -0.0024493346
000370 10 70 e1 3c c7 c2 3e 3d 13 4c 21 bb 6e 31 a9 3a
       0.027519256 0.046572473 -0.0024611994 0.0012908408
000380 df 40 25 3d 86 8d 24 bd 5a d4 20 3d 1c 78 2d bd
       0.04034507 -0.04017403 0.039265014 -0.042350873
000390 74 d4 9a bc e8 d7 17 bd cc 07 3b 3c 98 23 c5 bc
       -0.018900134 -0.03707114 0.011415433 -0.024064824
0003a0 1c 88 99 3d a3 96 12 3d 27 6d 9e 3d 1d 1a d3 3b
       0.07496664 0.03578819 0.07735663 0.006442322
0003b0 f6 c3 07 3d cd e6 08 3b 11 7c a2 3d 03 cf 30 3d
       0.033145867 0.002088952 0.0793382 0.04316617
0003c0 d9 7d da 3b dd 7e dd b9 a0 92 0e bd 01 15 92 bb
       0.0066678342 -0.00042246925 -0.0348078 -0.0044580703
0003d0 21 ea 7f 3b e1 b6 13 bc d0 f5 92 bc b1 36 3f 3d
       0.0039049464 -0.00901577 -0.017939478 0.046683017
0003e0 cb ff 40 bd ba e7 13 bc 84 7a e0 bc e3 f1 de bc
       -0.047118943 -0.009027416 -0.02740217 -0.02721495
0003f0 30 74 de 3c b8 4e 55 3c 3a e2 5d bd 27 e6 b1 3c
       0.027155012 0.013019256 -0.054170825 0.02171619

features_extractor.fc_merge.bias f4 [352]
000000 8f b5 87 3d 7a 7a c9 3c 4b b8 71 3d 2a 99 49 3b
       0.066264264 0.024594534 0.059013646 0.003076146
000010 14 96 81 3d c4 4b 87 bd dd b5 4a bd 90 a7 5d 3d
       0.06327453 -0.06606248 -0.049489845 0.05411488
000020 80 be 71 b8 c7 e6 84 bc 3a c6 a5 ba ea 68 77 3d
       -5.7636295e-05 -0.016223324 -0.0012647577 0.06040279
000030 df b6 89 bd 94 1c 83 3d a1 8d 4f 3d 1f f5 90 3b
       -0.06724333 0.06401935 0.050672177 0.004423752
000040 d6 af d6 3c 44 38 d4 ba d0 7a 4e 3d 85 a0 3d 3c
       0.026206892 -0.0016191085 0.050410092 0.011573915
000050 e5 d0 55 3d 4b b0 c5 3c 2c 73 2f bc e9 ad 3a 3d
       0.05220117 0.024131915 -0.010708611 0.04557601
000060 8b 34 c4 3b 51 38 86 bd bb 4a d6 bb cb 64 e7 bc
       0.005987709 -0.0655371 -0.0065396703 -0.028246304
000070 99 43 de bc 5c b3 d0 bc 0a 01 f7 3c 22 f8 2a bd
       -0.027131842 -0.02547615 0.030151863 -0.041740544
000080 46 e0 e9 3c 4e ed 80 3d f7 63 c0 3c 52 e9 2b 3d
       0.028549325 0.06295262 0.023485167 0.04197056
000090 b8 97 bd bc 90 a8 3d 3d aa 39 3b bc 15 ec a0 bc
       -0.023143634 0.04630333 -0.011427322 -0.019643823
0000a0 f0 2c c1 bc c5 ba 9c 39 19 09 de bc 84 dd 8a bc
       -0.023580998 0.00029893793 -0.027103947 -0.01695133
0000b0 e1 cc 3c bd b6 c8 2a 3d 5a fe 5b bc 77 36 4c 3d
       -0.046093825 0.04169532 -0.013427341 0.04985663
0000c0 25 ff af 3c 7d 0e 33 3d 03 87 db bb 2b e9 43 3c
       0.021483967 0.04371499 -0.0066994443 0.011957447
0000d0 ee 63 95 3d 31 9b 2b 3d 39 63 d4 3c d9 3a 1a 3d
       0.07294451 0.04189605 0.02592622 0.037653778
0000e0 69 59 0c 3c 97 d7 46 3c 32 03 47 3b 66 16 6f 3c
       0.008566239 0.012136362 0.0030366895 0.014592743
0000f0 90 0b 04 bd 4e 85 17 3d 14 85 b7 bc e5 9b 13 3d
       -0.03223759 0.036992364 -0.022402324 0.036037344
000100 1e f5 da bc cc 40 97 bc 15 49 2b 3c 2e 2a 44 bd
       -0.02672821 -0.018463515 0.010454436 -0.04789179
000110 43 a2 e7 bc f8 25 23 3d 88 9d 92 bb 2d ed 27 bd
       -0.028275615 0.03983113 -0.0044743456 -0.040997673
000120 27 f0 5a 3d 62 6d 23 ba 0a 78 ee bb 01 56 55 3b
       0.053451683 -0.0006234256 -0.0072774934 0.0032552483
000130 da b5 db bc 3b 6b 05 bd 21 7a bf 3b 26 af 67 3c
       -0.026820112 -0.032572966 0.0058434163 0.01414088
000140 f6 e5 85 bc 4d f6 87 bc 9a a4 5b 3d 51 95 5b 3c
       -0.016345005 -0.016596938 0.053623773 0.013402299
000150 dc 7f 88 bd 79 51 74 3d 7a ae 23 bd c7 db c3 3c
       -0.06665012 0.05964801 -0.039961316 0.023908509
000160 fe eb 14 3d 6a 5f 0a 3d b9 47 91 3d 9b 5a 99 bc
       0.036357872 0.0337824 0.07093758 -0.018719962
000170 3f a8 e7 3c b0 a7 4e 3d 4e 66 cb bc 21 4e 99 3b
       0.028278468 0.050452888 -0.024829056 0.004678503
000180 45 10 ac 3c bd c7 46 bd 0f 89 5f bc 55 c2 26 bd
       0.021003852 -0.04853033 -0.013643517 -0.040712673
000190 18 fe 77 bc 8f d1 a4 bc 63 24 12 3d c5 ca 8d bc
       -0.015136264 -0.020119457 0.035679232 -0.017308602
0001a0 e3 9b 05 3d e5 fe 2f bd f2 e3 49 3c 5f ef 30 3d
       0.03261937 -0.042967696 0.012322413 0.043197032
0001b0 b4 cc 96 3d 5f f1 4c 3d 71 5f c0 bc 75 91 9f 3c
       0.07363263 0.050034877 -0.02348301 0.019478539
0001c0 bf c1 b3 3c 5a 5b 94 bc 4b ba e5 bc 9d 63 45 bd
       0.021942971 -0.018109966 -0.028042933 -0.0481907
0001d0 05 b1 35 3d 15 a8 e2 bc 19 af 7b 3d cf ed f9 3c
       0.044358272 -0.027668038 0.061446283 0.030508904
0001e0 ca 86 19 bc 96 4f 54 3d 54 27 96 bb e2 a5 cf 3c
       -0.009370515 0.05183371 -0.004582325 0.025347654
0001f0 d9 09 06 bb 46 9e ae 3c 67 17 7a 3c ae 89 16 3d
       -0.0020452647 0.021315705 0.015264369 0.036752395
000200 df 2c 21 3d 1b 2d 47 3d 42 f6 4c bb 6a 96 95 bc
       0.039349433 0.048627 -0.003127471 -0.0182602
000210 50 b7 6b 3c f6 23 e3 bb e2 b4 32 bd 75 e4 b3 3c
       0.014386967 -0.006931777 -0.043629535 0.021959523
000220 36 3b 92 3c 41 f8 18 bd 11 41 d1 bc 30 1d fe 3b
       0.0178505 -0.03734613 -0.025543721 0.0077549443
000230 2a a7 56 bd 4c 62 f7 3c 54 f8 6e bd 3f 1a c2 bc
       -0.052405514 0.030198239 -0.058342293 -0.023694156
000240 a2 86 83 bc 6d c1 d5 3c 93 2f 08 bd 1f b3 dd 3c
       -0.016055409 0.02609321 -0.033248495 0.02706295
000250 e9 df 43 bd ac 14 90 3d 48 e1 15 bd f5 87 ac 3b
       -0.04782096 0.07035193 -0.036591798 0.005265231
000260 be 3e 5e 3d 9d 50 18 bd e4 75 0a 3d cd ca bd 3c
       0.054259054 -0.037186254 0.033803836 0.023167992
000270 5e 72 47 bd 09 c1 98 3c cf 35 5e 3d 35 6d 01 3d
       -0.048693053 0.018646734 0.054250535 0.03159829
000280 cf 35 c0 3c 38 ad 78 bd a9 7f 3d 3d e6 7d 1f 3d
       0.023463158 -0.06071207 0.046264324 0.038938425
000290 b1 21 6b 3a ca be 25 3d 54 d7 73 bd f0 b5 b9 3c
       0.0008969559 0.040465154 -0.059531525 0.022669762
0002a0 05 2a 88 3c 17 fc a7 3b 64 4a f4 bc 91 95 6d 3d
       0.016621599 0.005126487 -0.029820628 0.058003966
0002b0 18 0f 84 3c b8 be 1a bd a8 f0 96 3d ee 37 47 3d
       0.016120479 -0.03777954 0.0737012 0.048637323
0002c0 2c e8 d5 3c 1b b2 7e 3d 2b 3a 1d bd 7b f0 88 bc
       0.026111685 0.062181573 -0.03838555 -0.016716233
0002d0 d2 b0 a2 3c 33 d6 4a 3d 49 da 4f 3d 63 1d e9 bc
       0.019859705 0.049520683 0.050745282 -0.028456395
0002e0 fc 4f 42 bd 10 6d 83 bb f8 98 95 bb 27 e6 49 bd
       -0.04743956 -0.004010804 -0.0045653544 -0.049291756
0002f0 5c a0 fa bc 1c c6 8c bd b3 5a 06 bd a5 ab 1a bd
       -0.030594043 -0.06873724 -0.03280134 -0.03776135
000300 7d 5a 16 3d cd 65 d1 3c 2e 53 29 3c 06 0b 3b bc
       0.03670739 0.025561238 0.010334773 -0.011416202
000310 cb d5 96 3c 63 2b e7 3c 30 b5 82 3b b9 e0 af bb
       0.018412491 0.02821893 0.0039888844 -0.005367365
000320 34 b0 bc 3c 99 cd 87 3d 41 fe 2e bd 93 23 c0 3c
       0.023033239 0.066310115 -0.042722944 0.023454463
000330 10 b3 22 bd 6f c4 08 bd 31 5d 29 bc ae 19 35 3d
       -0.03972155 -0.03339046 -0.01033716 0.044213943
000340 57 50 a6 bc 57 ce 90 3c 5c 73 03 bd 9a fd fe bc
       -0.02030198 0.017676516 -0.032092437 -0.031126786
000350 a9 c9 45 3d c1 bb f9 bc 01 f4 0c 3d 45 72 1f bc
       0.04828802 -0.030485036 0.034412388 -0.009731834
000360 c0 ff c6 bc 5e 3b 66 bc 5a fb 5a bc a2 e5 33 3c
       -0.024291873 -0.01405224 -0.013365591 0.010980042
000370 9f 42 8a 3b f0 e7 88 bc fb c5 c6 bc 1b 47 43 bd
       0.0042193676 -0.016712159 -0.024264326 -0.047675233
000380 b7 9d c6 3c 73 2d 51 bd 53 7e 5f bd 25 7b 0d 3d
       0.024245126 -0.051068734 -0.05456383 0.034541268
000390 cb 36 fd 3c 32 4c 11 bc 8d ec f8 bc 12 a3 84 3d
       0.030909916 -0.008868264 -0.030386234 0.06476416
0003a0 40 78 8d 3c 46 2f e7 3c bb d1 02 bd b2 92 0c 3b
       0.017269254 0.028220784 -0.031938296 0.0021449742
0003b0 96 75 56 3d 78 f2 26 3d a5 52 00 3d 05 75 88 3d
       0.052358232 0.04075858 0.031328816 0.06662945
0003c0 03 f7 5b bd 18 4b b9 bc 2a 21 d2 bb 4c 44 87 3c
       -0.053702366 -0.022618815 -0.006412645 0.016512059
0003d0 da f7 28 bd 08 33 82 bd b0 ef 87 bb 3d 28 99 3c
       -0.041251995 -0.0635739 -0.004148446 0.018695945
0003e0 34 a1 8e bb dc 57 90 3d e3 f5 4b bc cd 02 8c bc
       -0.004352713 0.07048008 -0.012448761 -0.01709118
0003f0 37 50 2b bd 77 5a 27 3d d2 12 38 3c 11 d1 7a bd
       -0.041824546 0.04085776 0.011234956 -0.061234538

actor.weight f4 [10, 352]
000000 6c b6 86 bc 69 bb 7e bc 21 8f 41 bd da 4b aa 3c
       -0.016444407 -0.015547612 -0.04725564 0.020788122
000010 2a 7b 92 3b d3 ad 7f 3d 84 42 62 bc e2 12 f5 bc
       0.0044702487 0.06242163 -0.013809804 -0.02991623
000020 98 64 06 3d 1a 47 51 3d 7c a4 92 3d d2 47 24 3d
       0.032810777 0.0510932 0.07160279 0.040107556
000030 a6 f6 95 3c 3f a5 15 3d 7b 9d c7 3c 62 0d 08 3d
       0.018306088 0.036534544 0.024367085 0.033215888
000040 4b 9c 99 3c 0d 3b 5b bc ff b2 10 3d 23 e0 00 3d
       0.018751284 -0.013380778 0.035326954 0.031463753
000050 44 3d 1d bc 6d 08 15 bb 86 f6 08 3d 5b b8 c8 39
       -0.009597126 -0.0022740618 0.033438228 0.00038284328
000060 3a 3f 1d 3d 3d 5c 2b 3d 24 8c 76 3c 79 67 d0 bb
       0.038390376 0.041836012 0.015048061 -0.006359991
000070 56 a2 fe 3c 32 b1 3b 3c d1 0c 14 3d b2 28 18 3d
       0.031083267 0.011455821 0.036145035 0.037148185
000080 96 15 f4 3b d8 77 54 3d ed 73 86 bc aa c8 a1 bc
       0.0074488623 0.051872104 -0.0164127 -0.019749004
000090 95 41 5e 3d 98 6c aa 3b a1 28 b2 3c ec 2f 9a 3d
       0.054261763 0.0052009337 0.021747889 0.075286716
0000a0 cb de 28 3d 72 16 0c 3d 8f 44 03 3d c9 a2 af 3b
       0.041228097 0.034201093 0.032047804 0.0053599817
0000b0 4c 21 09 bd 4d ad f8 bb 78 38 b5 bc e2 2f 17 3c
       -0.03347902 -0.0075890184 -0.022121653 0.009227725
0000c0 a3 a3 9f 3c 98 aa 8e bb 6c cc 17 3d e4 4f ce 3c
       0.019487208 -0.0043538325 0.037060186 0.02518458
0000d0 9f 87 44 bd 8d 1e 34 bd 22 03 20 bd 10 fc f2 bb
       -0.0479809 -0.043974448 -0.039065488 -0.007415302
0000e0 3d c6 3d 3c 6b 3b 48 bc 3f 77 c4 bc 8c c8 15 bc
       0.011582908 -0.012221198 -0.023982642 -0.009142052
0000f0 e2 38 32 bc 1e 7c 9a bc ec ba 37 3d 86 14 25 bd
       -0.01087782 -0.018858012 0.044855997 -0.040302776
000100 e9 05 a0 bc cb cc 2d bd 8d a8 bc bc f6 46 cf 3c
       -0.019534068 -0.042431634 -0.02302959 0.025302391
000110 cf 9d 02 bb b9 c8 da bc fe 01 16 3d bc 44 40 3d
       -0.0019930487 -0.02670704 0.036622994 0.04694055
000120 b8 6a 37 bd ff 0c e8 bb be 8d 22 bc 35 19 80 bb
       -0.04477951 -0.0070816274 -0.009921489 -0.003909255
000130 23 2a b6 bb 88 3f c1 bc a7 04 16 bd 9f e1 d7 3c
       -0.0055592223 -0.023589864 -0.03662553 0.026352702
000140 bb 06 3d bd 89 f0 48 bc 5e 70 34 3c ba 67 5c 3d
       -0.046148997 -0.012264379 0.011013119 0.05380986
000150 93 a2 80 3c ef f3 9e 3c b4 31 18 bc 6d 51 2e bd
       0.015702521 0.019403426 -0.009289194 -0.042558122
000160 e0 2f 9c 3b 2e 6c f8 3c dd 93 02 bc fa 5b 52 3d
       0.0047664493 0.030325022 -0.007969824 0.051357247
000170 28 b1 48 3b f5 76 90 3b bd b3 e1 3c a6 89 23 3d
       0.0030623171 0.004408712 0.027551526 0.039926194
000180 ef 64 18 bd b0 08 58 3d a9 68 98 3c 80 81 12 bd
       -0.037205633 0.05274266 0.018604593 -0.035768032
000190 e1 3a 08 bd de 89 c2 bc 72 a7 1a 3c 84 4e 68 bc
       -0.033259276 -0.02374738 0.009439336 -0.014178876
0001a0 9e 31 0f 3d 23 ff fc bc fc d8 72 bd b2 3a 51 bd
       0.034959428 -0.030883377 -0.059288964 -0.051081367
0001b0 f0 fd 05 bd 44 de 97 3c e9 f0 a5 3c d5 91 43 3d
       -0.032712877 0.018538602 0.020256476 0.0477465
0001c0 95 2e 0b bc 92 40 b9 ba cd 8d 0e 3d 1c fa 45 3d
       -0.008494993 -0.0014133623 0.0348032 0.048334226
0001d0 25 24 44 3d 94 e9 7e 3b b0 97 58 3d a4 ae 8a bb
       0.047886033 0.0038896548 0.052879035 -0.0042322446
0001e0 77 fc 3b 3c 6e 1d 28 bd 61 03 ae 3c 9e fe ec bc
       0.0114737665 -0.04104369 0.021241846 -0.028930005
0001f0 19 3e 6c 3d 45 83 21 3c e3 56 75 bc 74 c2 3d 3d
       0.05767641 0.009857957 -0.014974329 0.046328023
000200 a7 6d 4a bc c6 73 a3 3b 66 0f 47 3d e2 b8 73 bc
       -0.012355245 0.0049881665 0.04859867 -0.0148756225
000210 a8 c1 24 bd b6 e1 cf 3b 48 60 a1 3d 5b 2a ed 3a
       -0.040223747 0.0063440455 0.07879692 0.0018094288
000220 4f ad 90 3b c0 39 e2 bc 2b 59 1e bd 49 53 de 3c
       0.0044151912 -0.027615428 -0.038659256 0.027139323
000230 0c 3f 1c bb 50 67 8a bd fe e6 48 bc 7a 7d 24 bc
       -0.002384129 -0.067579865 -0.012262104 -0.010039682
000240 ab 49 81 bc 65 7a d9 3c 0f f0 8b bc e8 35 29 bd
       -0.015782198 0.02654762 -0.017082242 -0.041311175
000250 7e 96 3e 3b df f1 43 3d ea e6 55 3d 6f 5e 30 3d
       0.00290814 0.047838088 0.05222217 0.04305881
000260 de ab 4a bd bc 02 fb 3c 0a 4d c4 bb e9 05 06 3c
       -0.04948031 0.030640952 -0.005990629 0.00818012
000270 b0 16 66 3d fe 20 8d 3c 81 d0 9f bc 91 c8 0a 3d
       0.05617398 0.017227646 -0.019508602 0.03388268
000280 fa ce 0e 3b 4c 3e 15 bd 2d f3 2d bd 24 b0 ae bc
       0.0021790848 -0.036436364 -0.04246824 -0.021324225
000290 e6 73 3e bc e7 d7 37 3d 57 3a 9f bb fe e2 7a 3b
       -0.011624312 0.044883635 -0.0048592496 0.003828227
0002a0 4f 8a 1f bd af d4 e1 bb 5e 84 05 bd 84 87 e3 3c
       -0.03895026 -0.006891809 -0.03259694 0.02777458
0002b0 c3 44 9a 3a 64 7d 03 3d 50 31 0c 3d f2 d7 09 bc
       0.001176976 0.032102004 0.034226716 -0.008413302
0002c0 9e 05 33 3d 67 60 cb 3c e5 48 89 3d 19 75 c3 bb
       0.04370653 0.024826242 0.06703357 -0.005964887
0002d0 ec 25 00 bc a9 3e 3e 3c 62 db d3 bb 85 ba 86 3b
       -0.007821541 0.011611619 -0.0064653615 0.0041115903
0002e0 e6 2d bc bc d4 4c 16 3d 7e 1c 48 3a 4b 9b d9 3c
       -0.022971105 0.036694363 0.000763364 0.026563307
0002f0 2e d5 50 3c c1 a6 6a 3d bd c8 a7 bb e6 39 61 3d
       0.0127461385 0.057287935 -0.0051203654 0.054986857
000300 62 49 80 bc 53 00 1e 3d 4e 2e 2f bc 4d f6 85 3c
       -0.015659992 0.038574528 -0.010692192 0.016352797
000310 5f bb 30 3c f2 75 91 3d 92 d3 d6 3c b2 29 0b 3d
       0.01078686 0.071025744 0.026223931 0.03397531
000320 c7 96 01 bd b7 c6 19 3c dd e7 05 bd 74 37 02 3d
       -0.031637933 0.009385756 -0.032691825 0.031791165
000330 aa 25 8b 3c 23 12 a5 3b d3 b1 01 bd 74 5e 6b 3b
       0.016985733 0.0050375625 -0.031663727 0.0035914453
000340 c9 c0 27 3d 40 da 68 3c 8c 07 31 bd a5 41 f7 3b
       0.04095534 0.014212191 -0.043220088 0.0075456672
000350 06 37 4b 3d 89 c1 0c 3d 9a e2 ee 3b 5f ef 18 bc
       0.04961302 0.034364257 0.0072901966 -0.009334414
000360 05 22 ef 3c 27 31 04 3d b5 c0 22 3d 21 52 57 bb
       0.029191026 0.032273438 0.03973456 -0.003285535
000370 36 df 03 3d 36 3f 52 bd 0d b4 3e 3c 24 9b 12 3d
       0.032195292 -0.051329814 0.011639607 0.035792485
000380 71 f2 7c 3c 66 62 7d 3d 04 50 5b 3d 19 b7 53 bc
       0.015438662 0.06186142 0.053543106 -0.012922072
000390 78 68 1c 3d 83 48 d7 3a 5d 1a 9e 3c a5 7e 91 3c
       0.038185567 0.0016424808 0.01929968 0.017760584
0003a0 b4 46 e5 bb b1 e6 12 bd 8b 7c 8a 3c 50 0f 5b 3d
       -0.006996954 -0.035864536 0.01690509 0.0534814
0003b0 c8 db db bc 56 26 50 3a 13 ba ff 3c 3e e8 2a bd
       -0.026838198 0.0007940283 0.031216657 -0.04172539
0003c0 fc 54 6d bc 04 69 fd 3c f2 4d 89 3d 97 7e e1 3c
       -0.014485594 0.030933864 0.0670432 0.027526183
0003d0 12 44 e0 bb fa 1d 3d bb 45 33 33 bc 13 00 3a 3c
       -0.006844052 -0.0028856979 -0.010937517 0.011352557
0003e0 c1 58 fd 3c a1 67 20 bd da c7 31 3d ab 45 4b bd
       0.03092611 -0.03916133 0.043403484 -0.049626987
0003f0 e0 09 df bc 0d 4a d4 3c 61 17 03 3c 3c f0 1d 3c
       -0.027226388 0.025914216 0.008001179 0.009639796

actor.bias f4 [10]
000000 55 2b c7 bc a9 bb 4c bc 86 8f 80 bb 2d 59 e5 bc
       -0.024312655 -0.012495914 -0.0039233593 -0.027996624
000010 e9 86 21 bd 81 69 25 3c b9 23 b6 bc d6 22 dc b9
       -0.0394353 0.010095955 -0.02223383 -0.00041987625
000020 1d fd 74 3b c7 b5 bd bc
       0.0037382313 -0.023157967

critic.weight f4 [1, 352]
000000 ac 0a 6e 3d fe af 0f 3d 0f 18 9b 3c 3f e0 36 3d
       0.058115646 0.03507995 0.01893237 0.04464745
000010 46 ac 09 3d c2 7b 0d bd da 7f 4a bb 32 65 ee 3c
       0.03361156 -0.034541853 -0.003089896 0.029100988
000020 58 31 43 3c 97 87 d7 bc 19 9b 26 bd aa 7e 94 bd
       0.01191362 -0.026309771 -0.040675256 -0.07250722
000030 d6 14 1f bd 25 24 a9 3c 74 4b b3 3c 5d c2 bd 3c
       -0.03883823 0.020647118 0.021886565 0.023163969
000040 ad 9e 9b bc 08 02 63 bd 71 a0 f9 3c da b6 47 3d
       -0.018996561 -0.05542186 0.030472012 0.048758365
000050 f2 ec 6c 3c f0 98 00 bd cc 5f b8 3c 08 29 0a 3d
       0.014460789 -0.031395853 0.022506617 0.033730537
000060 76 82 5f 3c c7 8f 2e bd df 73 35 bd 74 d8 06 bc
       0.013641944 -0.042617586 -0.044299956 -0.008230317
000070 f3 14 e8 3c 37 4e 45 bd 51 a8 6b 3d 85 5b 1e bc
       0.028330302 -0.048170295 0.057533566 -0.009665375
000080 f4 5b 39 bd 60 ca 02 3c 4b d0 e6 3c 01 3f e7 3c
       -0.04525371 0.00798282 0.028175494 0.028228285
000090 6c 75 22 bc b2 cb 45 ba 33 6e da 3c a1 3e 8c bc
       -0.009915691 -0.00075453066 0.026663875 -0.017119708
0000a0 a1 19 47 bd 89 17 14 3d 31 bc 09 bd 62 90 98 3c
       -0.048608426 0.036155257 -0.03362674 0.018623535
0000b0 29 b5 41 bd 9c 52 d1 3b 07 fc 0a bc 66 a9 f4 3c
       -0.04729191 0.0063880216 -0.00848294 0.029865932
0000c0 d1 26 ce 3c 3b bc 64 3c 69 a5 03 3d 1f 23 e6 bb
       0.025164993 0.013960893 0.03214017 -0.0070232297
0000d0 77 ae 08 3d 98 07 65 3d dd c8 72 3d 58 17 f2 38
       0.033369508 0.055915445 0.05927359 0.00011543807
0000e0 03 a3 10 bd 93 b0 56 b9 c2 ae 9a 3d 81 59 21 bd
       -0.03531171 -0.0002047441 0.07552864 -0.039392
0000f0 1a c4 38 bd 0e 33 43 3b 68 67 a6 3c 26 92 c5 bc
       -0.045108892 0.002978507 0.02031298 -0.02411754
000100 3f 8e 40 3c a4 cd ac 3c 91 a3 8e bc 2e bd 43 bd
       0.011752664 0.02109415 -0.017411979 -0.047787838
000110 6e ff da 3b f8 56 c0 3c fd 00 a1 3b 4c 4d 36 bd
       0.0066832816 0.02347897 0.004913448 -0.04450731
000120 5a 3b a4 3c b0 26 2a bd 7b 79 4b 3d fd 6e 20 bd
       0.020047832 -0.0415408 0.0496764 -0.039168347
000130 ff 9c a6 bc 9c ce 2e bb 8b a2 e2 bb 00 4f 2a bc
       -0.020338533 -0.0026673442 -0.0069163493 -0.010394812
000140 00 c6 3a 3d 88 99 9c ba d9 ef 37 3d e4 53 10 bc
       0.045598984 -0.0011947611 0.04490647 -0.008809064
000150 63 91 57 bd ac d7 68 3c c0 4d eb bc 8d fa d7 ba
       -0.052628886 0.014211576 -0.028723598 -0.0016477868
000160 e0 91 5e 3d 7e b9 87 3c d1 22 bf 3c 23 37 5f bc
       0.054338336 0.016567942 0.023332031 -0.013623985
000170 7b aa ce bb 66 26 d4 3c 54 8d f1 bc f7 b0 35 bc
       -0.006306944 0.025897216 -0.029486336 -0.011089555
000180 1d 24 24 3d e4 07 12 bc 99 e0 b2 3d 24 18 b5 bc
       0.040073503 -0.008913014 0.08734245 -0.022106238
000190 d1 9b 04 3d ee b5 a8 bc cb 58 45 3d 5b a0 6b 3c
       0.03237516 -0.020594563 0.048180383 0.014381493
0001a0 49 82 58 bd 88 a8 bc 38 83 7a 30 3d ed 4a 40 3d
       -0.052858625 8.99593e-05 0.043085586 0.046946455
0001b0 95 a3 31 3d 8b 54 d0 3c 66 96 27 3d b6 23 44 3c
       0.043368895 0.025430938 0.040914916 0.011971405
0001c0 8d 8f 39 bd 3f 7d 34 3d 5d 19 50 3d 54 6b 12 ba
       -0.045302916 0.044064756 0.05080544 -0.0005585451
0001d0 5c d6 8e 3b 6a e4 d1 3c 88 c1 0b 3d f1 5f 0e 3d
       0.0043590497 0.025621612 0.034120113 0.034759466
0001e0 21 b9 0a bd bf 59 e1 3c 19 4f 83 3c 7d c9 42 bd
       -0.03386796 0.027508615 0.016028928 -0.047555435
0001f0 71 53 80 3c a6 89 62 3a 2e 10 03 bc 73 36 48 bd
       0.015664788 0.0008641727 -0.007999463 -0.04888005
000200 1c d8 3e bd e8 05 ca 3c 0f 32 27 bd 2f 88 57 3c
       -0.046592817 0.02466102 -0.040819224 0.013155027
000210 bb c8 be bc d4 6c 90 3d 00 1a f9 bc 46 22 f5 bb
       -0.023289075 0.07052007 -0.030407906 -0.0074808924
000220 bc db 1e bd 9d 49 ed 3c 2d c8 5c 3d 6e 1d 26 bd
       -0.038783774 0.028965766 0.05390184 -0.04055541
000230 14 be 5c bc 97 84 a6 bc 74 ae 9b bc fd 9d d2 bb
       -0.0134730525 -0.020326896 -0.019004084 -0.006427525
000240 30 e3 23 3d 40 34 a9 3c 55 54 3a bd 53 19 0a 3d
       0.040011585 0.020654798 -0.04549058 0.033715557
000250 09 78 86 bb 60 b9 82 3c d1 19 fd 3a ec 50 d1 bb
       -0.004103665 0.015957534 0.0019310062 -0.0063878205
000260 72 71 56 3d 45 95 1a bd 59 86 c8 bc a8 85 3b 3d
       0.052354284 -0.03774001 -0.024478124 0.04578176
000270 c2 e8 39 bd 51 b5 3b 3d 7a 8b 1a 3d b4 8c 51 3d
       -0.04538799 0.045827214 0.03773067 0.051159576
000280 71 ea 0b 3d d5 db 13 bd b5 3a d8 3c 8c ff 3a 3d
       0.034159128 -0.03609832 0.026395181 0.045653865
000290 8c 33 5f 3d 97 53 84 3b fc 5b fc bb 22 9d bf 3c
       0.05449252 0.004038285 -0.007701395 0.023390356
0002a0 ad 2f 16 bd 53 65 28 bd f4 7e d2 bc d1 8f 40 3d
       -0.03666656 -0.041112255 -0.025695302 0.047012154
0002b0 70 78 1c bd d4 18 e6 bb b3 62 0b 3c b3 0f b1 3b
       -0.038200796 -0.0070220027 0.008507418 0.005403483
0002c0 17 aa de bc 9e 8d 47 3d c5 46 46 bd 14 7b 26 bd
       -0.027180715 0.04871904 -0.048407335 -0.04064472
0002d0 83 24 7d 3d de 79 16 3d 1d 7c 4b 3d 9e 02 ff 3b
       0.0618024 0.036737315 0.04967891 0.0077822944
0002e0 ce c4 25 bd 81 9b 0e bd f5 ad 06 bd 6e e5 35 bd
       -0.04047089 -0.03481627 -0.032880742 -0.044408254
0002f0 d2 2a 03 bd db 71 46 bc 7b a4 0d bd 6a 47 2e bd
       -0.03202326 -0.012112106 -0.03458069 -0.042548575
000300 62 ed 8c bc 9b 6b 8e ba 1d 2b 30 bd d3 3b 92 bc
       -0.017203037 -0.0010865809 -0.043009866 -0.017850792
000310 5f 31 a7 39 31 cb cf bc 34 64 1e 3d 3c af 45 3d
       0.00031889506 -0.025365444 0.03866978 0.04826282
000320 16 ea 22 3d 45 74 56 3d 7a 6e 8b bc 3c d1 26 bd
       0.039774023 0.052356977 -0.017020453 -0.040726885
000330 bb 2d 1c bd 88 ff 49 3c 4c 78 e5 bc ed 06 9e 3c
       -0.03812955 0.01232899 -0.028011464 0.019290412
000340 16 53 2b 3d 92 c7 aa 3c fb 6b 29 bd 33 0b 3d bd
       0.041827284 0.020847116 -0.041362744 -0.04615326
000350 7d be f7 3c 9e 98 b2 bc 54 3d b9 3c e1 a4 0a bc
       0.0302422 -0.02180129 0.022612251 -0.008462162
000360 64 bd 8e bc 49 ad d0 3c 43 a9 6f 3d b7 b9 97 bc
       -0.017424293 0.025473254 0.05851103 -0.018521173
000370 53 12 2d 3d 9c 01 a6 3c d6 bb de bc f0 b8 5a bc
       0.042253803 0.02026444 -0.027189177 -0.013349757
000380 07 f1 1c 3d 8f 0d 07 bd 82 4a 5b bc e5 ad 2f 3d
       0.0383158 -0.032971915 -0.013384463 0.042890448
000390 38 c2 44 3d 5a 12 65 3d 3f 99 8a 3d 81 7d ac 3a
       0.048036784 0.055925705 0.067675106 0.0013159962
0003a0 6a 7b 3e 3b be 1f 75 3d 23 07 3c 3d 47 7c 12 bd
       0.002906526 0.059844725 0.045905244 -0.03576305
0003b0 a6 49 71 3d ff 29 d0 3c 35 9a 02 bd 8c 4e 65 3b
       0.058908127 0.02541065 -0.031885345 0.0034989445
0003c0 37 3c e9 bc af eb 92 bc 50 37 eb bb 56 96 c5 bc
       -0.028471095 -0.017934648 -0.0071782246 -0.024119537
0003d0 44 46 79 bc 5d 89 24 bd 1b c9 07 bd a6 ef 3c 3c
       -0.015214507 -0.040170062 -0.033150773 0.011531746
0003e0 90 9c 51 3d e3 a4 51 3d a6 03 49 3d 30 a4 ca 3c
       0.0511747 0.05118264 0.049075745 0.024736494
0003f0 c3 0a 25 bd b5 3b 4d 3d a9 e0 b2 bc 48 e7 4c bc
       -0.040293466 0.05010577 -0.021835642 -0.012506314
