gym_models/model_230.pth (torch, 526994 bytes, 11 tensors)

features_extractor.conv1.weight f4 [16, 4, 4]
000000 ce 16 28 3e 9e f8 54 be 00 75 59 3c 98 1d 05 3d
       0.1641495 -0.20797965 0.013272524 0.032498926
000010 ec 5e 48 3e d4 c3 99 bd 0c 57 7d be 10 f5 6e be
       0.1956746 -0.075080544 -0.24740237 -0.23335671
000020 e4 a5 b5 3d 12 0b 17 be 84 a2 65 3e c8 94 78 3d
       0.08869532 -0.14750317 0.22425276 0.060688764
000030 80 ee 7c be 58 f8 3c bd 88 e9 7f bd 38 d5 13 be
       -0.24700356 -0.046135277 -0.062478572 -0.14436805
000040 74 e9 0a be a4 5b d1 3c ed 2c 51 3d f7 a4 5e be
       -0.13565618 0.025556393 0.051068235 -0.21742617
000050 9f 4f 55 be 80 bc cb bc 5c f9 16 be 62 a7 d1 bd
       -0.20831154 -0.024870157 -0.1474356 -0.10237004
000060 35 c1 d9 bd 1a 8f a7 ba be a1 8f bc 3c 15 2f 3e
       -0.106325544 -0.0012783736 -0.01753318 0.17097944
000070 29 2c 74 be 07 98 05 3e 2c 41 80 3d d6 b2 a0 3d
       -0.23844971 0.13046275 0.062624305 0.0784661
000080 51 d1 91 bd 0b 3b 71 3e f0 2b 4a 3e fc 3d ea bc
       -0.07120002 0.2355768 0.19743323 -0.02859401
000090 ba 25 5f 3e a8 95 8d bd cc e9 ab 3d 40 79 4a 3e
       0.21791735 -0.0691331 0.083942026 0.19772816
0000a0 d4 5b 51 3e 6f 4c a7 bd 07 3b b8 3b 38 7d 4b 3d
       0.20445186 -0.081688754 0.005622271 0.049679965
0000b0 c2 71 28 be 12 c3 da ba 53 80 4c be fc 36 4a 3e
       -0.16449645 -0.0016690216 -0.19970827 0.19747537
0000c0 8c 21 8a 3d c3 bc dd 3d 13 07 06 3e 2e 69 a0 3e
       0.0674468 0.10827019 0.13088636 0.31330246
0000d0 88 af d6 bd d3 92 87 bc d8 16 6c bd 45 ee 07 3e
       -0.10482699 -0.016549503 -0.057638973 0.13274486
0000e0 f5 d9 38 3d ec 27 38 be 47 40 bd 3d d9 ae ad bd
       0.045129735 -0.17983979 0.092407756 -0.08480615
0000f0 3f 2c 56 3d 36 55 43 bd 9f 84 f2 3d 53 24 1e 3e
       0.05228829 -0.047688685 0.11841702 0.15443544
000100 b4 4f ff 3d ab 5b 27 3d b9 72 a1 3d de 1a 12 bd
       0.12466374 0.040858906 0.0788321 -0.035670154
000110 d1 b1 68 3e 81 98 7c 3e 1c 87 39 bd c4 8f 70 3d
       0.22724082 0.2466755 -0.045294866 0.058730856
000120 a3 d6 cb bd 3d e9 3c bd 59 e1 81 3e 61 77 e7 bb
       -0.09953048 -0.04612087 0.2536724 -0.0070637916
000130 52 9c 0c 3e eb 21 c7 3d 14 f0 41 3e 96 8b 0a 3e
       0.13731506 0.09723266 0.18939239 0.1352981
000140 0d 09 9d 3e ba 84 04 be 40 6d 6f 3e 53 89 f0 3d
       0.30670968 -0.12941256 0.2338152 0.117449425
000150 cc 5a 3f 3d b0 b1 1e be 97 f9 e9 bc 89 47 77 3c
       0.04671745 -0.1549747 -0.028561397 0.015092739
000160 b3 1f e3 bd ad 43 7b 3e e0 c0 c4 bd 04 55 bb bd
       -0.110900305 0.24537535 -0.096071005 -0.09147075
000170 b2 f1 7d 3e 0f d5 5d bd ac e1 23 3e 82 92 64 3e
       0.2479923 -0.054158267 0.16004056 0.22321513
000180 45 23 64 be 37 7b 42 be 1f 81 5d be c2 c0 3b 3d
       -0.2227908 -0.18992315 -0.21631287 0.045838125
000190 d5 cd 16 be bb 79 10 be 4e 87 8c 3e 01 88 d4 3d
       -0.14726956 -0.14108936 0.2744698 0.10377503
0001a0 75 c1 67 3d aa e7 8e 3e 68 e2 4f be b6 36 16 be
       0.05658098 0.2791112 -0.20301211 -0.14669308
0001b0 ed e6 2f 3e 47 e9 42 3d 5a 70 a7 3d ca ee c9 bc
       0.17177935 0.04758575 0.08175726 -0.024649996
0001c0 e6 7c 51 3e e8 10 b0 3d b2 29 55 3e d0 29 68 be
       0.20457801 0.085969746 0.20816687 -0.226722
0001d0 a0 f3 66 bd 30 1d 35 be f0 e3 88 3c d8 5a b4 bd
       -0.056384683 -0.17686915 0.016710252 -0.088063896
0001e0 56 ea 11 3e 58 8c 18 bd b4 55 c7 3d 92 4f 5b be
       0.14249548 -0.037243217 0.097331434 -0.21417072
0001f0 fa ae 0d be 40 80 07 bd e8 93 3d be 40 61 11 be
       -0.1383628 -0.033081293 -0.18513453 -0.14197254
000200 cc ab e7 bd 04 de 68 3e 04 8e 68 be 18 91 28 be
       -0.113120645 0.22740942 -0.22710425 -0.16461599
000210 7c ed 62 be f0 6a 6b 3d d0 61 38 bd c0 53 b2 3c
       -0.22160906 0.05747503 -0.045015156 0.02176845
000220 a4 43 c4 bd 48 1b 76 be 48 52 f4 bd 9a 13 5f 3e
       -0.09583214 -0.24033844 -0.119297564 0.21784821
000230 8e b0 7b be 94 56 25 be 84 f8 c8 bd 20 65 e1 bd
       -0.24579069 -0.16146308 -0.098130256 -0.11005616
000240 2e 90 01 3e 23 ec 28 3e 8a 70 a9 3e b6 92 89 3e
       0.12652656 0.16496329 0.33093673 0.26869744
000250 48 7c 1e bd ca 75 5e 3e c0 29 18 3e b3 86 17 3e
       -0.038692743 0.2172462 0.14859676 0.14797477
000260 e8 8c 85 3d 08 9c 33 be 1a c1 1e 3e 94 72 cf bd
       0.06521016 -0.1753999 0.1550335 -0.10129276
000270 88 00 bc bd d2 b1 6b bd fe 3b e1 3d 48 91 b5 3d
       -0.09179789 -0.05754263 0.10997771 0.08865601
000280 4b 43 d4 3d 5e 6f 27 be fa 6f 8f 3e dc 93 61 3e
       0.103643976 -0.16351077 0.2801512 0.2202906
000290 eb b1 61 be d2 44 3e be cd 0f 54 3b 4e e5 10 3e
       -0.22040527 -0.1858094 0.003235805 0.14149973
0002a0 17 80 14 3e 45 b2 d1 3d 26 b4 2b 3e ed 25 05 3e
       0.14501987 0.1023908 0.1676794 0.13002749
0002b0 2c fc 49 bd c4 a3 4e be 26 db 40 3e ee 82 d5 3d
       -0.049312755 -0.20179659 0.18833598 0.104253635
0002c0 70 5e 3e be a0 cc d0 bc 14 37 d3 3d c4 46 23 3e
       -0.18590713 -0.025488198 0.1031324 0.15944964
0002d0 de 67 07 be 94 7e 64 3e 28 e4 b8 bd 5c c6 da bd
       -0.13223216 0.2231391 -0.09027892 -0.10682365
0002e0 30 73 28 3d ec 19 b1 3d b0 90 b3 3c 62 56 03 be
       0.041125476 0.08647522 0.021919578 -0.12825921
0002f0 f4 33 15 be fc f5 84 3d 84 38 62 be 0e 62 48 3e
       -0.145706 0.0649223 -0.22091872 0.19568655
000300 f1 bb 8d 3d 4a b1 04 be ed 8d fb 3c 78 7f 28 3e
       0.069206126 -0.12958255 0.030707324 0.16454875
000310 a4 0d 1a be 79 19 d7 bd 9f 3c d0 3d 7c 3d d1 bd
       -0.15044266 -0.105029054 0.101678126 -0.10216805
000320 21 62 75 3e 4b ac 9b 3d 00 ac 1e 3e 0a 55 82 3e
       0.23963214 0.07601222 0.154953 0.25455505
000330 56 35 63 be e6 09 cc bc 33 3b f5 3d ec 4e 7a 3e
       -0.22188315 -0.024907064 0.11974182 0.24444169
000340 d8 5a d3 bd 88 29 06 be 84 65 ae bd 28 7c 32 3d
       -0.103200614 -0.1310178 -0.08515456 0.043575436
000350 a0 49 09 bd 16 98 3b be ee ec 09 be 9c 3a be bd
       -0.03351748 -0.18319735 -0.13469288 -0.092885226
000360 84 ee 6f 3e 02 53 1e be 78 4e 15 be e6 a8 4d 3e
       0.2343083 -0.15461352 -0.14580715 0.20083961
000370 c4 e7 05 be b6 d8 5a be 9c 1f 6e be 30 fe ed 3c
       -0.13076693 -0.21371731 -0.23254246 0.02905187
000380 c4 13 ff 3d f0 1c 40 bd 60 5d 70 bc c0 39 37 3c
       0.12454942 -0.046902597 -0.0146707 0.011183202
000390 3c e9 01 3e 08 d7 10 bd f4 7c cf bd 20 52 31 3d
       0.12686628 -0.03536132 -0.10131255 0.04329121
0003a0 f0 87 48 bd 52 cc 5d be 14 46 48 3e b0 5e 33 bd
       -0.048957765 -0.21659973 0.19557983 -0.043791473
0003b0 1a 40 15 be 68 29 53 3d 90 bc fa bd 30 50 56 bd
       -0.14575234 0.05155316 -0.12242997 -0.052322567
0003c0 1f 36 a6 3e 27 dc a2 3e fa 29 8b 3c b0 a0 2e ba
       0.32463166 0.31808588 0.01698779 -0.00066615175
0003d0 32 4a 45 3e 2a 29 54 be 25 f8 29 bd e0 21 d1 3d
       0.19266585 -0.20718828 -0.041496415 0.10211539
0003e0 b8 c2 6d 3e db 93 36 3e 8a b9 37 be 08 f6 f1 bd
       0.2321881 0.1782984 -0.17941871 -0.11814505
0003f0 be 95 1e 3e ec ec 50 be 64 00 34 be de e8 c3 3c
       0.1548681 -0.20402879 -0.17578274 0.02391475

features_extractor.conv1.bias f4 [16]
000000 4c c2 97 3d 17 e7 cd 3d bb 49 96 3d 37 fe 14 3e
       0.07410106 0.100538425 0.07338282 0.145501
000010 c6 19 02 be 5c a1 05 be 78 9d 5c 3e 08 45 d5 bd
       -0.12705144 -0.13049835 0.21544445 -0.10413557
000020 64 5d 67 be ed 5b 68 be dd 39 9e bd 5c c3 2a be
       -0.2259422 -0.22691317 -0.0772588 -0.16676086
000030 32 a0 a4 bd 12 20 01 be 5c 92 ef bd eb 5e 89 3e
       -0.08038367 -0.1260989 -0.11697838 0.2683023

features_extractor.conv2.weight f4 [32, 16, 4]
000000 04 10 03 3d a0 f4 00 3c b8 42 ae bc 28 61 fe bc
       0.031997696 0.007870823 -0.021272048 -0.031052187
000010 1f 66 c2 bc 51 bc 83 3d 41 9e 3a bb 40 d6 c3 bc
       -0.023730336 0.06432403 -0.0028475674 -0.023905873
000020 23 f2 17 3e 91 75 a4 bd 4f 08 e2 3c 75 d1 aa bc
       0.14838462 -0.080302365 0.027591852 -0.02085183
000030 1f 62 45 3d f1 a0 1e 3e 7a 4a 1f 3e 7d 0a cb bc
       0.04818928 0.15491082 0.15555754 -0.024785275
000040 3a 5e 7b bd 80 e8 8c 3d 69 59 07 3e 24 ec 67 bc
       -0.06136916 0.06880283 0.13217701 -0.014155421
000050 48 4f 16 bd 81 cf 5a bc c7 d2 ae 3d f2 fd 49 bd
       -0.036696702 -0.013355137 0.08536296 -0.049314447
000060 f3 de 15 bd 3e 98 ca 3c bf 7f 61 be 41 b6 1f be
       -0.036589574 0.024730798 -0.22021388 -0.15596868
000070 ac ae 60 3d 42 8a 92 bd 20 67 f7 3d 42 7d fe bd
       0.05485408 -0.07155277 0.120802164 -0.12426235
000080 0c ef 0d bd 92 fe ec 3d 60 28 0f bd 84 99 5b 3d
       -0.0346518 0.11571993 -0.034950614 0.0536132
000090 87 26 a8 3d 0b 19 97 3d fb d2 93 3d 1d e4 25 3e
       0.082104735 0.073778234 0.07217976 0.162003
0000a0 5d 13 b3 3c c1 0e 94 3c f5 c3 50 3d e4 30 0a 3e
       0.02185982 0.018073441 0.05096813 0.13495213
0000b0 60 79 ef bb c0 25 33 3b 80 c5 8f ba 60 b2 c1 3d
       -0.00730817 0.0027335733 -0.0010968894 0.094578505
0000c0 da 6a 36 bd 1b c1 ae 3d 83 68 c5 bd 01 9c 8c 3d
       -0.044535495 0.08532926 -0.09639075 0.06865693
0000d0 24 b7 3e 3d 52 14 b9 3d 28 c3 dc bc aa ab e4 bd
       0.046561375 0.09037079 -0.026948527 -0.11165555
0000e0 fe eb e0 3d 28 c7 6b bd 28 2d 07 bd 7e 5a bc 3d
       0.10982512 -0.057562977 -0.03300205 0.091969475
0000f0 85 3f bc bd 3b 9a 6f 3e f7 fe 2c 3e e1 0a bf 3c
       -0.09191803 0.23398678 0.16894136 0.023320617
000100 c0 c3 42 3d 06 dd e6 bd e8 bd 8b 3d 88 51 a8 bc
       0.047549963 -0.112726256 0.06823331 -0.02054669
000110 bd 05 96 3d e6 33 da bd c9 6b ff bc 1c 63 2f bd
       0.07325313 -0.1065443 -0.031179326 -0.042819127
000120 ba 28 02 3e a4 1d c2 3b a5 be 44 bd 80 68 b8 bd
       0.12710848 0.0059239436 -0.048033375 -0.09004307
000130 0c 29 50 bd b9 07 4d 3d 08 cd 1a 3e 2d 5c d1 bb
       -0.050820395 0.050056193 0.15117276 -0.006389162
000140 ee d2 7d bd b6 a5 e0 3d e2 65 11 3c 31 6f e7 3d
       -0.061968736 0.10969107 0.008874388 0.11300505
000150 ae 5a b9 3d 14 3d 4b 3d 9a 65 61 bd fb 9b a2 3d
       0.09050499 0.049618796 -0.055028535 0.07939907
000160 11 24 2a 3d b5 20 09 bd 3a 9b a2 bc 9c b5 99 bd
       0.0415383 -0.033478457 -0.019849408 -0.07505342
000170 54 31 6b bd 40 d0 04 3d 64 fa 52 bd 2c ec 15 bd
       -0.05742009 0.032425165 -0.051508322 -0.036602184
000180 12 99 8a bd 9e 63 ad 3d 5c ca 8d bd e0 82 7a bc
       -0.06767477 0.08466266 -0.069233626 -0.015289992
000190 75 0e 21 3e 80 b5 4d bd db 67 1d 3e 19 7b 83 bd
       0.15728171 -0.05022192 0.15371649 -0.064199634
0001a0 de 34 f4 3a f9 64 0c 3d 89 31 fe 3d 5a 15 fb 3d
       0.0018631478 0.034275983 0.12411792 0.12259932
0001b0 f0 fb 3e 3c 32 1e d0 bd 20 c8 90 3b d8 60 c7 bc
       0.011656746 -0.10162009 0.004418388 -0.02433817
0001c0 7d c5 9c 3b 3b f9 25 bd fe 93 f4 bb 5b 8e 92 bd
       0.0047842846 -0.040520888 -0.007463931 -0.071560584
0001d0 4a f4 f3 3d f6 4b 86 3d 6c fe f8 3d c8 9a be bc
       0.11911829 0.06557457 0.12157902 -0.023267165
0001e0 78 3d 9f 3d 7c 70 f2 bd 62 38 d3 bd 96 ad cd 3d
       0.07775396 -0.11837861 -0.103134885 0.100428745
0001f0 50 90 d8 bd 30 97 1c 3c e0 d4 41 3e 28 78 85 3d
       -0.105744004 0.00955753 0.18928862 0.065170586
000200 f8 37 5c bd c6 b3 99 3d d0 ab e1 bd 50 a1 85 3c
       -0.053764313 0.07504992 -0.11019099 0.016312271
000210 a3 29 a6 bd d1 c0 ea bd 07 55 04 bc 5c c8 52 bd
       -0.0811341 -0.11462558 -0.008076913 -0.05146061
000220 9b 56 f6 3d e1 e6 b3 bd 01 19 c1 bd b1 00 08 bd
       0.120282374 -0.08784271 -0.09428597 -0.033203784
000230 33 3b 70 bd cb b6 ae 3d 04 1b 51 3d 70 a1 8a bd
       -0.058650207 0.08530959 0.051051155 -0.06769073
000240 6b 0c f5 3c ee 88 7a bd bf d4 c9 3c 8c e8 a1 3d
       0.029913148 -0.061165743 0.024637578 0.07905683
000250 8a 1c 61 bc 6e 2d 38 3c 4a ca 14 bd 9e da 0c 3e
       -0.013739714 0.0112413 -0.03632573 0.13755271
000260 ba e8 35 bc 98 5a 47 be 74 63 05 be 2e a2 cf bc
       -0.01110285 -0.19468153 -0.1302622 -0.025345888
000270 60 13 a5 3c 1c cd 5a bd c2 8d cc bd e2 d1 a6 3d
       0.02015084 -0.053418264 -0.09987976 0.08145501
000280 44 ad 47 3d 20 a1 a8 3c 3a a6 ed 3d 26 78 9c bd
       0.048749223 0.020584643 0.11603971 -0.07640104
000290 f1 69 b8 3c 0b b0 0e 3e fa 91 8e 3c 44 fc 8f bc
       0.022511454 0.13934343 0.017403591 -0.017576344
0002a0 1c 98 bc 3b e2 a2 26 3e 1b d4 10 3e 83 5d 76 3d
       0.0057554375 0.16273072 0.14143412 0.060147773
0002b0 b4 d6 5e 3d 38 23 78 bd 54 0e 55 3d c0 02 50 3c
       0.054403976 -0.060580462 0.052015617 0.012695968
0002c0 a8 f9 bc bc b6 de c1 3d 0b c6 70 3d 75 3e 1f 3d
       -0.023068264 0.09466307 0.05878262 0.038877923
0002d0 78 c8 2e bd 80 fc 84 3d cc 5c fd 3d 10 22 dd 3d
       -0.04267165 0.06493473 0.12371215 0.107975125
0002e0 a6 8f e5 3d 40 55 ff bd 30 9e 21 3d e4 ae de bd
       0.112090394 -0.12467432 0.0394575 -0.108732015
0002f0 44 35 8f 3d 83 7b 1a 3c 92 bb b4 3d 82 8e 7b 3e
       0.069925815 0.009428862 0.08824839 0.24566081
000300 2e 73 85 bd 82 48 a7 3d 20 f1 ac bd a0 1c ee 3c
       -0.065161094 0.08168127 -0.084444284 0.029066384
000310 85 ba 77 3d ec 5a b3 bb aa 28 c3 bd 0e 06 b2 3d
       0.060480613 -0.005473485 -0.095292404 0.08692561
000320 eb e6 95 bd 8a a3 81 3d fc f3 8a 3d 31 30 98 bd
       -0.07319435 0.06330021 0.067848176 -0.07431067
000330 35 e7 6a bd 03 97 be 3d e5 26 d4 bc f1 63 fb 3d
       -0.057349402 0.09306147 -0.025897453 0.12274922
000340 10 54 10 3e 1d ae 03 3e 43 d8 b2 bb bf aa 68 bc
       0.14094567 0.12859388 -0.0054579093 -0.014200865
000350 94 a5 72 bd 0c fe 1b 3b b0 23 1d 3e f0 2d 0f bd
       -0.05923994 0.0023802547 0.15345645 -0.03495592
000360 6d be 2f be 8f 4d 10 be c3 3f 3a bd 11 b1 0d 3d
       -0.17162485 -0.14092086 -0.045470964 0.03459269
000370 b6 0c 96 bd 98 4b 7f 3d e8 62 a5 3c 04 52 be 3d
       -0.07326643 0.06232795 0.020188764 0.09292987
000380 ae a5 a4 3d 14 56 b2 bd ac 1d f0 bd d0 8a 8d bd
       0.080394134 -0.08707824 -0.117244095 -0.06911242
000390 26 bf ed 3c 69 84 0a 3e cc b6 31 3e 4e 06 dd 3d
       0.02902181 0.13527073 0.17354888 0.10792218
0003a0 73 f2 38 3d fe 80 84 3d 38 6c 62 3c 25 93 b6 3d
       0.045153093 0.06469916 0.013819747 0.08914784
0003b0 c0 d8 e2 bd 80 99 f7 ba da a0 9d bd 32 61 90 3d
       -0.11076498 -0.0018890351 -0.076966956 0.070497885
0003c0 b3 28 b7 3b 9c da 38 bd 22 8b c5 3d c3 c3 c5 bd
       0.0055895685 -0.045130357 0.09645678 -0.09656479
0003d0 88 f7 c7 bc 24 db ff bd 28 ab 71 bd b0 f5 b0 3c
       -0.024410024 -0.1249297 -0.059001118 0.021601528
0003e0 dc 6b a7 3d 2c 70 39 bd c0 bc d6 bd 5c 67 f7 bd
       0.081748694 -0.04527299 -0.1048522 -0.12080261
0003f0 6c 96 62 bd 5a 6e 02 3e d9 37 33 3e 69 b2 23 3e
       -0.055319235 0.12737408 0.17501773 0.15986027

features_extractor.conv2.bias f4 [32]
000000 2a f4 37 ba 7d 6e 84 3d 71 e7 f8 3c d6 d2 95 3c
       -0.0007017279 0.064663865 0.030383797 0.018289011
000010 04 05 81 bd 29 30 ce 3d 03 d7 9e 3d f0 10 60 3c
       -0.06299785 0.100677796 0.07755854 0.013675913
000020 64 6b 20 3d 9c 57 ea bd d4 7a 8d bc 7b 1c fd 3d
       0.039164916 -0.114424914 -0.017270483 0.12358948
000030 4e 12 77 bd 49 29 55 3d 00 a9 dc 3a b8 6a f6 bd
       -0.06032019 0.052041326 0.0016835034 -0.12032074
000040 b4 b7 ac 3d 08 1d 27 bd d3 5f b9 bc fa 85 fd bc
       0.08433476 -0.04079917 -0.0226287 -0.030947674
000050 86 54 06 3e ed 75 c7 bd 56 67 e2 bd 32 60 8c 3d
       0.1311818 -0.097392894 -0.11054866 0.06854285
000060 e0 e3 90 bc 25 d9 01 be 79 a5 d2 bc b0 3e 77 3d
       -0.017686784 -0.1268049 -0.02571367 0.060362518
000070 2a 56 d7 bd 3c b4 4b 3c e1 5e 51 3d 97 f7 e9 3d
       -0.10514481 0.012433108 0.051115874 0.11424177

features_extractor.fc_op.weight f4 [32, 3]
000000 93 a5 ea bc 48 fe b3 3e 88 60 fb be 21 35 66 bd
       -0.028643405 0.3515494 -0.49097085 -0.05620301
000010 44 90 8d 3e b4 e7 f2 be a3 5c b0 3e a8 bc d7 be
       0.27649128 -0.474424 0.34445676 -0.4213612
000020 74 50 07 3f d1 51 be 3d 94 ee 92 be bc f3 21 bf
       0.52857137 0.09292949 -0.28697646 -0.63262534
000030 8f 98 79 be e0 19 c0 3d a3 19 ed 3e 7f 10 f5 3e
       -0.24374603 0.09379935 0.46308622 0.47864148
000040 34 82 97 be 5f ee 18 bf 93 7d 32 bd 94 3e 72 3d
       -0.29591525 -0.59738725 -0.04357679 0.05914171
000050 0f 15 01 bf 56 b0 11 3e 7a b2 5e be 41 93 8f be
       -0.5042276 0.14227423 -0.21747771 -0.28042033
000060 94 c1 4d 3c 81 e5 9f 3e cf 90 a6 be c3 37 32 3d
       0.01255836 0.31229785 -0.32532355 0.04351021
000070 23 57 9e 3c 3e 81 cf bd 02 b7 08 be 24 08 94 be
       0.01932866 -0.10132073 -0.13351062 -0.2891246
000080 89 6b 82 3e 4c c7 fe 3e 1c d3 50 3e c2 24 a7 3d
       0.25472668 0.49761426 0.20393032 0.08161308
000090 22 f8 da bd d5 89 df ba cb 87 df 3d ff d2 ad be
       -0.10691859 -0.0017054627 0.10914572 -0.3395004
0000a0 e5 9f 17 be 01 e4 29 bc 44 dd 0d 3e ec 50 ea 3e
       -0.14807089 -0.010369302 0.13853937 0.45764863
0000b0 ae 41 05 3f b3 83 79 be 64 53 de be f4 a4 ff be
       0.52053344 -0.24366646 -0.43422997 -0.49930537
0000c0 d5 30 14 bf b7 55 38 bd dd 3b 4e bd 4c 3a 93 3e
       -0.5788701 -0.04500362 -0.05035006 0.28755414
0000d0 0f 2d 06 bf 61 5b ab 3e 88 06 ed 3e 0d 96 d1 3e
       -0.52412504 0.33468154 0.46294045 0.40934792
0000e0 2f 64 e1 3e b6 6d 10 3f b6 c9 d7 3e 5b b1 53 3d
       0.44021747 0.56417406 0.4214608 0.05168281
0000f0 94 d9 e4 3e d9 d2 fc 3e b0 f9 1e bf 77 cf 14 3f
       0.4469725 0.49379614 -0.6209974 0.58129066
000100 53 a2 30 3e 9e b5 08 3f c9 d1 11 be 77 f2 29 be
       0.17249422 0.53402126 -0.14240183 -0.16596399
000110 6c 34 8a 3e 41 0f b2 be 99 94 06 3f 7c 04 ce be
       0.2699312 -0.34777263 0.5257049 -0.40237796
000120 c5 b6 c3 3e ab ee 29 be 4d 42 c6 3e fc ab fb be
       0.3822538 -0.16594951 0.38722458 -0.4915465
000130 c5 3b 82 be 27 93 3f 3e 7b f5 a9 3e 03 5e 8b be
       -0.25436226 0.18708478 0.331951 -0.27220163
000140 7d dc 50 be 20 7d 6c bc 58 50 87 bd dc 0d 05 bf
       -0.2039661 -0.014434129 -0.06607121 -0.5197427
000150 1d 06 f7 bd 9a 0f 2d 3c d7 ea a7 be e4 58 3a 3d
       -0.12061713 0.010562802 -0.32796356 0.04549493
000160 df 72 01 be 7e 16 68 3e 3c 36 85 bc c5 e6 e7 3c
       -0.12641476 0.2266483 -0.016261213 0.028308282
000170 f1 93 22 be a0 f8 c4 3d 4e 1b f5 3e a0 fc 09 3e
       -0.15876748 0.09617734 0.47872394 0.13475275

features_extractor.fc_op.bias f4 [32]
000000 4c 63 45 be 54 12 64 be be 45 c5 3c 6c 71 e8 3e
       -0.1927616 -0.22272617 0.024081107 0.45399034
000010 5c 7d cd 3e 89 c1 13 3e 59 e5 d9 3e 90 1e 67 3e
       0.40134704 0.14429297 0.4255779 0.22570252
000020 56 d0 a8 3e c9 05 1f be 69 58 b7 3e f5 a4 7e be
       0.32971448 -0.1552955 0.3580964 -0.24867614
000030 c7 63 bc 3e fb 65 15 bf ea ba 02 3f cc c7 91 3e
       0.36794874 -0.58358735 0.5106646 0.28472745
000040 14 45 15 be 3f 1a ab 3e 67 c8 f5 be 9c 94 c8 be
       -0.14577132 0.33418462 -0.48004457 -0.3917588
000050 a2 7b c5 be 34 87 02 bf 10 06 50 3e 74 3e 55 3b
       -0.38570887 -0.50987554 0.20314813 0.0032538446
000060 92 3c 67 3e 7d ce 41 3e 6b 47 4f be a1 f5 11 3e
       0.225817 0.18926425 -0.20242088 0.14253856
000070 00 01 88 3e 46 b1 53 3e 2a ed 18 be 65 ef c4 3e
       0.26563263 0.20673093 -0.14934221 0.38463894

features_extractor.fc_merge.weight f4 [352, 352]
000000 67 6b 7e 3d 0f a0 70 3d a1 bc ea 3c ec a9 45 3d
       0.062114146 0.058746394 0.028654398 0.048257753
000010 d6 65 a2 3d a5 b2 55 3d 2a ff 8b 3d 43 29 1f 3d
       0.0792958 0.05217232 0.06835778 0.03885771
000020 7d d1 a1 3d 03 d4 a0 3d 79 8e 13 3d fa 3a 9f 3d
       0.07901285 0.07852938 0.036024544 0.07774921
000030 ea dc 86 3d 8e 45 9f 3d 99 60 47 bc 4f da a8 3c
       0.06585105 0.077769384 -0.012169027 0.02061191
000040 2d a1 61 3d 55 f3 06 bb 1e 92 22 bb bd 55 29 3d
       0.05508535 -0.0020591815 -0.002480633 0.041341532
000050 1c 62 bb 3c c9 59 65 3d 28 07 11 3d 21 e1 af 3c
       0.02287393 0.05599383 0.035407215 0.021469655
000060 9f e9 8d 3d 6a 42 98 3d 62 01 31 3d d2 19 06 3d
       0.06929325 0.074345425 0.04321421 0.032739468
000070 93 3c 8f 3d b3 12 8d bc 4f 31 87 3d 09 9a fc 3c
       0.069939755 -0.01722083 0.06601202 0.030835168
000080 ff 1a 68 3d 05 f6 40 3d 79 5a f0 3c 38 bf 0b 3c
       0.05666637 0.047109623 0.029340016 0.008529477
000090 07 73 10 3d 53 8d 12 3d eb 54 37 bc 02 4b ce 3c
       0.03526595 0.03577931 -0.01118968 0.02518225
0000a0 f2 84 33 3d 6e 63 47 bd 35 19 85 3c ac e5 d6 3b
       0.04382796 -0.048678808 0.016247371 0.0065581407
0000b0 2c 55 50 bc aa 85 31 bd 27 8e 27 bd f6 2e b5 3c
       -0.012715619 -0.043340363 -0.04090705 0.02211712
0000c0 0a 7c 42 bd f5 75 e9 3c da e9 aa 3d 02 bb 58 3b
       -0.047481574 0.02849863 0.08345385 0.003307045
0000d0 72 23 80 3d 60 01 69 3d 57 1c 17 3d c7 3d a6 3c
       0.06256761 0.056886077 0.03689226 0.02029313
0000e0 35 b4 c8 3d d8 53 a9 3d 51 90 69 3d 01 24 a2 3d
       0.09799997 0.08267945 0.057022396 0.079170235
0000f0 28 c3 60 3d 57 3b b6 3d cc f4 3c bb c0 5b 60 3c
       0.054873616 0.08898037 -0.0028832434 0.01369375
000100 05 bf 69 3d 96 0d 89 3d a7 ce 0b bc 22 66 06 3d
       0.057066936 0.066920444 -0.0085331565 0.032812245
000110 fd 8c 45 3d d9 77 b2 3d 86 7f 0d 3c 71 16 4c 3d
       0.04823016 0.087142654 0.008636361 0.04982609
000120 81 cc c5 3c 2d 55 d7 bc 5b 3c a4 3b f2 66 dc 3c
       0.024145367 -0.026285732 0.0050120777 0.026904557
000130 49 12 c2 bc 13 fa 3c 3d da 01 3e 3d 77 cb 81 3c
       -0.02369036 0.046136927 0.046388485 0.01584409
000140 f0 1d 16 3c 2e 88 8b bb 38 9c 89 3b 41 8b 2f bd
       0.009162411 -0.0042581772 0.004199531 -0.042857412
000150 76 31 8a bc b9 80 54 3b a4 74 6b bb fc 6d ac 3b
       -0.016869288 0.0032425357 -0.0035927678 0.0052621346
000160 ca 9a 13 3c ab f1 2e bd 35 b6 54 bc 52 c9 02 3d
       0.009009073 -0.04271094 -0.012982895 0.031930275
000170 ba 51 33 bd 39 94 27 3d 24 95 dc bb f6 30 a2 3c
       -0.043779112 0.04091284 -0.006731646 0.019798737
000180 0a f1 e4 bc e5 10 d0 3b 8c a4 f1 bc ea 64 1a 3d
       -0.027946968 0.0063496702 -0.029497407 0.037693895
000190 f0 e8 6b 3d 58 84 c5 3d 09 a1 d0 3c cb b7 ae 3d
       0.057595193 0.09644383 0.025467413 0.085311495
0001a0 59 e8 ca 3c 03 46 3e 3d 56 87 b7 3d 17 6d 64 3d
       0.024768995 0.046453487 0.0896136 0.0557681
0001b0 7b f6 fd 3c 4e 81 95 bb d8 a1 99 3d 63 6c 88 3c
       0.03100132 -0.0045625335 0.07501572 0.016653245
0001c0 2a d5 82 bc 18 22 a6 3d f7 b4 4a bc c2 a4 66 3d
       -0.015970785 0.081119716 -0.012372247 0.05630947
0001d0 fa e4 17 3c 9f f8 8a 3d f7 c9 85 3d 95 42 c4 3c
       0.009270901 0.06785702 0.06532662 0.02395753
0001e0 57 ab 89 bc c5 bf 89 3d 73 48 8e 3d 57 3e 94 3b
       -0.016805334 0.0672603 0.06947412 0.004524033
0001f0 c0 fe d6 3c b5 33 b3 3d 80 29 b4 3d c9 f0 52 3d
       0.026244521 0.08750097 0.08796978 0.051499162
000200 c8 df 92 3b 3d 4e bb 3c de e9 8f 3d f8 89 8c 3d
       0.004482243 0.022864455 0.070270285 0.06862253
000210 cf 8c 46 3c eb f0 45 3d 43 0c b8 bc ef 79 e7 3b
       0.012118532 0.04832546 -0.022466784 0.007064096
000220 96 23 8c 3d 6c 29 47 bc da 39 07 3d f5 46 17 3d
       0.06842725 -0.012155872 0.033014156 0.036932904
000230 e5 be 41 bd 0d ab ce bc 63 c9 01 bd 7d d3 c7 bb
       -0.04730119 -0.025228048 -0.031686198 -0.0060982094
000240 eb 40 9c 3c b6 3f 01 3c 90 f6 1a bd 8f bb 49 bd
       0.019073924 0.007888725 -0.037832797 -0.049251135
000250 a2 01 3a bd de 11 48 bd 51 fc 4a bc 7f 76 45 bd
       -0.045411713 -0.048845164 -0.0123892585 -0.04820871
000260 56 b3 a9 3c 03 d9 76 bb 10 69 a8 bc 71 a2 16 3c
       0.020715397 -0.003766597 -0.02055791 0.0091940025
000270 c7 dc 42 bd 65 ca 41 3c 7b 30 b4 3c 58 16 99 ba
       -0.04757383 0.01182804 0.021995774 -0.0011679633
000280 66 db 4a bd 4a c3 71 bc 4a 11 ee 3c 16 c8 0a bd
       -0.04952564 -0.014756033 0.029060978 -0.033882223
000290 b1 11 00 bd 06 2c 51 bb 06 a4 eb bc bd 82 a6 bc
       -0.03126687 -0.003191711 -0.028764736 -0.020326013
0002a0 27 c8 10 3d a9 8a af bc 42 83 69 bc 95 f8 d9 3c
       0.03534713 -0.021428423 -0.014252486 0.026607791
0002b0 9d d4 99 3b ca 8b 64 3c 16 91 59 3d 75 1f ba 3c
       0.004694535 0.013949344 0.05311688 0.022720078
0002c0 66 fd cb 3d 61 9a a3 3d c7 c0 86 3c 6b 5d 82 3d
       0.09960441 0.0798843 0.016449345 0.06365474
0002d0 13 7c d9 3c 51 56 c7 3c 7a 6c a3 bc fb 85 9d 3d
       0.026548421 0.024333151 -0.019949187 0.0769157
0002e0 39 6c 9e bc 00 31 51 3d b4 fb dc ba 7d c0 f7 bb
       -0.019338714 0.05107212 -0.0016859681 -0.007560788
0002f0 0a 3d b2 3d 30 da 89 39 6b 81 8d 3d 31 c2 54 3d
       0.087030485 0.0002629324 0.0690945 0.051943008
000300 e7 f2 13 3a b8 67 15 3d cb 2c a3 3d 51 47 41 ba
       0.00056438 0.036475867 0.07967528 -0.00073729927
000310 82 4b 9b 3d 91 c9 bd 3c 4d c8 1d 3a ac 34 76 3b
       0.07582761 0.023167403 0.0006018922 0.0037568016
000320 58 95 8e 3d 2a 56 36 3d b3 4c 06 3d 19 b0 82 3c
       0.06962079 0.044515766 0.03278799 0.01595311
000330 08 0f 83 3d 8d 67 69 3d 8a 66 86 3d 40 a6 f9 3c
       0.06399351 0.05698352 0.065625265 0.030474782
000340 e6 09 82 3b e8 c3 18 3d 5e 27 36 3d 11 d6 37 bd
       0.003968465 0.037296206 0.044471137 -0.044881884
000350 c2 76 5f bc 9a cf 20 bd c3 64 17 3c 15 ce 12 3d
       -0.013639154 -0.039260484 0.009240332 0.035841066
000360 53 1b dc bc e3 63 1a 3b cf 24 64 bd 04 85 20 bb
       -0.026868498 0.0023558072 -0.055699166 -0.0024493346
000370 10 70 e1 3c c7 c2 3e 3d 13 4c 21 bb 6e 31 a9 3a
       0.027519256 0.046572473 -0.0024611994 0.0012908408
000380 df 40 25 3d 86 8d 24 bd 5a d4 20 3d 1c 78 2d bd
       0.04034507 -0.04017403 0.039265014 -0.042350873
000390 74 d4 9a bc e8 d7 17 bd fb d7 41 3c 61 89 b5 bc
       -0.018900134 -0.03707114 0.011831279 -0.022160234
0003a0 4b 18 9f 3d 67 05 1f 3d bd c8 a4 3d 12 e4 1c 3c
       0.077683054 0.03882351 0.080461 0.009575861
0003b0 c0 e5 14 3d f1 95 a5 3b 7b 12 a7 3d 7c 80 34 3d
       0.03635192 0.005053275 0.08157822 0.044067845
0003c0 d9 7d da 3b dd 7e dd b9 a0 92 0e bd 01 15 92 bb
       0.0066678342 -0.00042246925 -0.0348078 -0.0044580703
0003d0 21 ea 7f 3b e1 b6 13 bc d0 f5 92 bc b1 36 3f 3d
       0.0039049464 -0.00901577 -0.017939478 0.046683017
0003e0 cb ff 40 bd ba e7 13 bc 84 7a e0 bc e3 f1 de bc
       -0.047118943 -0.009027416 -0.02740217 -0.02721495
0003f0 30 74 de 3c b8 4e 55 3c 3a e2 5d bd 27 e6 b1 3c
       0.027155012 0.013019256 -0.054170825 0.02171619

features_extractor.fc_merge.bias f4 [352]
000000 c1 a0 89 3d 9a cd d8 3c d0 5d 78 3d 7f 05 9f 3b
       0.067201145 0.026465226 0.06063634 0.00485295
000010 a5 f8 84 3d a2 4c 88 bd 73 29 4c bd b2 51 64 3d
       0.06492738 -0.066552415 -0.049844217 0.055741973
000020 b7 c0 c5 3a 84 0b 6b bc 67 fc cc 37 35 5a 7b 3d
       0.0015087341 -0.014346007 2.4436229e-05 0.061365325
000030 9f 62 8c bd 72 99 86 3d d0 b2 55 3d f5 5a c4 3b
       -0.06854748 0.06572236 0.052172482 0.0059922882
000040 62 a2 d8 3c e5 3a 4c 3a 99 0d 55 3d f5 0a 57 3c
       0.026444618 0.00077907584 0.05201492 0.013125171
000050 7e 11 5d 3d b4 53 c2 3c fa be 16 bc d7 35 41 3d
       0.05397176 0.023721553 -0.009200806 0.047170486
000060 8b 34 c4 3b e9 a7 88 bd cf 8d c7 bb 29 ec f7 bc
       0.005987709 -0.06672651 -0.006089903 -0.030263977
000070 ac b9 ce bc 01 0c dd bc 17 4b 03 3d 90 e2 2b bd
       -0.02523502 -0.026983263 0.032054033 -0.041964114
000080 46 e0 e9 3c c5 7f 84 3d 94 fd c1 3c 15 73 32 3d
       0.028549325 0.064696826 0.023680486 0.043566782
000090 08 54 b4 bc 48 99 3b 3d 9b ea 21 bc 31 8d a7 bc
       -0.022012725 0.045800477 -0.009882594 -0.020453067
0000a0 4d e6 c8 bc 9a eb ff 3a e7 4a e3 bc 96 b7 7a bc
       -0.024523878 0.0019525171 -0.027745677 -0.015302559
0000b0 42 ca 3e bd 8c 7e 30 3d 19 b4 4f bc d6 50 53 3d
       -0.046579607 0.043089435 -0.012677216 0.051590763
0000c0 53 88 bc 3c a0 26 39 3d c0 7c 9b bb 18 9e 52 3c
       0.023014223 0.04520285 -0.004745096 0.012855075
0000d0 0e 26 99 3d ff d4 32 3d a9 7a e3 3c d9 3a 1a 3d
       0.074779615 0.04366016 0.02776845 0.037653778
0000e0 69 59 0c 3c 97 d7 46 3c b0 60 93 3b 31 7d 6e 3c
       0.008566239 0.012136362 0.00449761 0.014556215
0000f0 cb 1a 00 bd 56 12 1c 3d 53 78 a7 bc 29 a1 11 3d
       -0.03127555 0.038103424 -0.020443117 0.035554085
000100 19 f2 cc bc fb e9 88 bc ea b8 41 3c 8f df 3a bd
       -0.025017785 -0.016713133 0.011823872 -0.04562336
000110 4a e7 da bc 50 00 2a 3d 54 25 40 3c be 65 26 bd
       -0.026721615 0.041504204 0.01172765 -0.040624373
000120 2e e4 61 3d 62 6d 23 ba c3 35 ba bb c0 40 28 3b
       0.05514925 -0.0006234256 -0.0056826784 0.002567336
000130 ee fe cb bc dc f9 08 bd 21 7a bf 3b 0a 30 58 3c
       -0.024901833 -0.03344141 0.0058434163 0.013195047
000140 ee 16 6e bc eb 9d 8f bc b3 6c 62 3d 26 07 51 3c
       -0.014531834 -0.017531356 0.055279445 0.012758052
000150 4d 85 84 bd be 03 7b 3d 58 5f 1f bd e0 c1 c4 3c
       -0.064707376 0.061282866 -0.038909286 0.024018228
000160 6e 75 1b 3d 24 19 12 3d d2 ba 94 3d 04 66 9f bc
       0.037953787 0.035668507 0.07262196 -0.019457825
000170 38 ca df 3c 85 db 55 3d 24 3c bd bc 7e eb 96 3b
       0.027318105 0.052211303 -0.023099966 0.0046057096
000180 0f 7d b9 3c 9a 5c 43 bd 47 48 4a bc 36 db 1f bd
       0.02264264 -0.047695734 -0.012346334 -0.039027415
000190 43 9c 5a bc 92 a6 99 bc 3f 08 1a 3d bb 8d 7e bc
       -0.01334292 -0.018756185 0.03760552 -0.015536721
0001a0 15 57 d9 3c e5 fe 2f bd e3 34 65 3c ba 33 34 3d
       0.026530782 -0.042967696 0.01398966 0.043994643
0001b0 de 16 9a 3d 08 bf 53 3d 94 a9 af bc 4b e2 a5 3c
       0.07523893 0.051695853 -0.021443166 0.020249506
0001c0 af ac 9f 3c 64 5b 85 bc 35 67 d7 bc 9d 63 45 bd
       0.019491522 -0.01627893 -0.02629433 -0.0481907
0001d0 3e 49 3b 3d eb 0f d5 bc 46 1e 81 3d d2 8e 03 3d
       0.045724146 -0.026008567 0.06304602 0.032118626
0001e0 45 25 1b bc 70 01 5b 3d 9e 81 34 bb e2 a5 cf 3c
       -0.009469335 0.053468168 -0.0027543078 0.025347654
0001f0 63 21 83 b9 e3 5d b0 3c fb 16 78 3c ae 89 16 3d
       -0.00025011142 0.021529144 0.015142198 0.036752395
000200 23 69 20 3d fd f7 4e 3d 82 05 1e bb f4 56 89 bc
       0.039162766 0.05052947 -0.002411217 -0.016765095
000210 50 b7 6b 3c d4 9d a8 bb 82 9e 34 bd f9 67 bd 3c
       0.014386967 -0.0051457677 -0.044096477 0.023120867
000220 e9 9b 99 3c 41 f8 18 bd 69 df c0 bc 30 1d fe 3b
       0.018751102 -0.03734613 -0.02354403 0.0077549443
000230 2a a7 56 bd 19 7e 08 3d 2b fa 73 bd 55 b7 bd bc
       -0.052405514 0.03332338 -0.05956475 -0.023158709
000240 3a 49 6c bc f4 01 e2 3c 3e a4 0b bd ed 03 ed 3c
       -0.014421755 0.027588822 -0.03409218 0.028932536
000250 64 81 45 bd 79 33 93 3d 48 e1 15 bd f5 87 ac 3b
       -0.0482191 0.07187552 -0.036591798 0.005265231
000260 94 aa 65 3d 5a d8 17 bd af df 01 3d 86 5a cb 3c
       0.05607088 -0.037071563 0.031707462 0.024823438
000270 09 41 46 bd e2 9e a5 3c 12 e2 65 3d f5 18 08 3d
       -0.048401866 0.020217363 0.0561238 0.033226926
000280 df 33 ce 3c e8 be 78 bd c9 3b 44 3d 2f 57 26 3d
       0.025171218 -0.060728937 0.047908578 0.04061049
000290 f0 a9 25 3b e2 2a 2c 3d b2 9e 71 bd 30 ae c6 3c
       0.0025278293 0.042033084 -0.058989234 0.024252981
0002a0 fd 33 8e 3c ef 28 a2 3b c0 a0 fb bc a5 31 74 3d
       0.017358774 0.0049487273 -0.0307163 0.059617657
0002b0 c1 de 7c 3c b9 ca 1f bd 47 08 9a 3d ea cc 4c 3d
       0.015433968 -0.03901169 0.0752111 0.05000011
0002c0 56 d9 d6 3c 91 8a 82 3d e8 28 1a bd 12 d8 a8 bc
       0.02622668 0.06374086 -0.037636667 -0.020610843
0002d0 9c 74 ab 3c 05 b2 52 3d c1 e5 56 3d 35 f3 dc bc
       0.020929627 0.051439304 0.052465204 -0.026971439
0002e0 49 fd 3a bd 10 6d 83 bb 55 88 86 bb 54 38 4a bd
       -0.045651708 -0.004010804 -0.0041056075 -0.049370125
0002f0 de 9b fc bc ff 2f 8b bd be 01 08 bd f5 f1 18 bd
       -0.030836042 -0.06796264 -0.033204786 -0.037340123
000300 73 b8 19 3d ef 06 cb 3c e4 66 10 3c c3 3e 3f bc
       0.03752942 0.02478358 0.008813594 -0.011672678
000310 cb d5 96 3c 02 c6 e2 3c e0 2b b7 3b 51 da 6f bb
       0.018412491 0.027682308 0.005589947 -0.0036598633
000320 50 d9 c9 3c d5 42 8b 3d 79 55 2d bd 84 1a d4 3c
       0.024639755 0.067998566 -0.04231784 0.02589155
000330 10 b3 22 bd d7 b1 02 bd ed 27 2b bc ba 7b 3b 3d
       -0.03972155 -0.031907883 -0.010446531 0.04577229
000340 ca d2 98 bc dc 1e 9d 3c aa 01 03 bd 64 09 00 bd
       -0.0186552 0.019179754 -0.03198401 -0.031258956
000350 bf 1d 4c 3d 03 c3 00 bd 13 45 14 3d 93 a2 30 bc
       0.049833056 -0.031435978 0.036198687 -0.010780948
000360 34 d1 01 bd 10 52 4d bc fc 76 40 bc bb 64 2f 3c
       -0.031693652 -0.012531772 -0.011747118 0.010705168
000370 9f 3b bf 3b 78 c8 73 bc c9 8a be bc 9b 24 45 bd
       0.005835965 -0.014879338 -0.023259537 -0.048130613
000380 b5 13 d5 3c 4e 2c 53 bd 0b 7b 5a bd 40 26 14 3d
       0.026010374 -0.051555924 -0.05334 0.03616929
000390 e8 0a 05 3d c3 94 d8 bb 8d d1 e9 bc 59 ca 85 3d
       0.032481104 -0.0066095307 -0.028542304 0.065327354
0003a0 d1 9a 9a 3c a3 44 f5 3c d8 a8 f6 bc 27 7d 18 3a
       0.01887265 0.029939955 -0.030109808 0.0005816989
0003b0 74 e1 5d 3d 71 9b 2d 3d bf 94 02 3d 95 93 8b 3d
       0.054170087 0.04238457 0.031880137 0.068152584
0003c0 28 fa 5e bd 18 4b b9 bc ec ed de bb e9 74 79 3c
       -0.054437786 -0.022618815 -0.006803265 0.015225627
0003d0 63 e3 27 bd db a3 82 bd b9 81 73 bb ad 69 a5 3c
       -0.040988337 -0.06378909 -0.0037156178 0.020191992
0003e0 31 98 30 bb c0 f0 93 3d c9 3b 2b bc 02 16 7a bc
       -0.0026946182 0.07223654 -0.010451266 -0.015264036
0003f0 c9 fd 2b bd 84 f1 2d 3d 7a dd 36 3c b3 c9 7b bd
       -0.041990075 0.042466655 0.011161203 -0.061471652

actor.weight f4 [10, 352]
000000 68 b8 95 bc f4 95 8f bc 27 d1 49 bd 88 1f 9a 3c
       -0.018276408 -0.017527558 -0.04927173 0.018813863
000010 d0 6d 23 3b 38 59 7d 3d 59 15 62 bc 14 38 02 bd
       0.002493728 0.061852664 -0.013799035 -0.03179176
000020 bd 8e fc 3c 3e f4 4d 3d 32 4e 91 3d 38 67 0a 3d
       0.030829782 0.050281756 0.07094993 0.033789843
000030 54 62 92 3c 22 bb 0d 3d 9a 41 b7 3c c6 60 00 3d
       0.017869152 0.034602292 0.022370148 0.03134229
000040 e0 9f 95 3c 0e 81 c9 bc 04 61 08 3d b1 44 f2 3c
       0.01826471 -0.02459767 0.033295646 0.02957377
000050 6f 2e 3e bc 39 3d 14 bb 48 63 01 3d 5c f8 d9 ba
       -0.01160775 -0.00226195 0.031588823 -0.0016629803
000060 3a 3f 1d 3d 89 f7 28 3d ba 7d 27 3c a8 77 90 bc
       0.038390376 0.041251693 0.010222847 -0.017635182
000070 29 d7 ef 3c 21 b1 3b 3c 9d c1 0b 3d 26 57 15 3d
       0.029277401 0.011455805 0.03412019 0.036460064
000080 96 15 f4 3b 81 5c 4c 3d 81 00 94 bc a4 94 b1 bc
       0.0074488623 0.049892906 -0.018066647 -0.021677323
000090 0a 45 5c 3d 3e da 8b 3b ef f2 a2 3c 28 fd 98 3d
       0.05377678 0.00426796 0.01989123 0.07470161
0000a0 38 17 27 3d ad 39 04 3d b2 ed d3 3c 99 60 57 3b
       0.040793628 0.032281566 0.025870178 0.0032863973
0000b0 86 fd 0a bd 34 bf 1c bc f5 70 b9 bc 3c 8c ed 3b
       -0.033933185 -0.009567071 -0.02263687 0.0072493833
0000c0 2a 0f 90 3c cf 9b ce bb 35 e7 10 3d ea d8 ca 3c
       0.017585356 -0.006305195 0.035376746 0.024761636
0000d0 d7 d1 4c bd 68 40 3c bd 06 72 28 bd 10 fc f2 bb
       -0.050004806 -0.04595986 -0.041124366 -0.007415302
0000e0 3d c6 3d 3c 6b 3b 48 bc 9e f9 d3 bc 74 be 15 bc
       0.011582908 -0.012221198 -0.025875863 -0.009139646
0000f0 e7 18 3e bc e2 82 a9 bc a6 9e 2f 3d be 03 25 bd
       -0.011602617 -0.020692293 0.04287591 -0.040286772
000100 13 87 b0 bc 71 17 36 bd bf e4 c3 bc 32 39 c8 3c
       -0.021548783 -0.04445595 -0.023912786 0.024441335
000110 2e 95 81 bb 07 44 eb bc 17 9b ee 3c a7 4b 3e 3d
       -0.003954551 -0.028718961 0.029126687 0.046458866
000120 8e 81 3f bd ff 0c e8 bb 7a fa 41 bc 32 c2 8f bb
       -0.046754412 -0.0070816274 -0.011839503 -0.0043871636
000130 16 25 cc bb 99 e0 d0 bc a7 04 16 bd 4f 94 d2 3c
       -0.006230007 -0.025497722 -0.03662553 0.025705485
000140 3e a4 44 bd ae af 54 bc e5 7d 13 3c 70 22 5a 3d
       -0.048008196 -0.012981338 0.009002184 0.0532555
000150 b4 ea 80 3c 40 2a 8f 3c f7 7e 4a bc 95 4c 2e bd
       0.015736915 0.017476201 -0.012359372 -0.042553503
000160 61 55 38 3b 3e 68 e7 3c 90 76 23 bc e7 59 4f 3d
       0.0028127062 0.028247949 -0.009976998 0.050622847
000170 8b 61 49 3b 3c f4 1f 3b b7 ee e3 3c e0 89 23 3d
       0.0030728306 0.002440705 0.027823789 0.03992641
000180 a3 f0 20 bd 6d 10 56 3d 17 e6 88 3c 9c 05 1a bd
       -0.03929199 0.05226176 0.016711278 -0.037603006
000190 74 b9 0f bd 0e 7e c7 bc aa db f2 3b 6a 95 84 bc
       -0.03508897 -0.0243521 0.00741144 -0.016184527
0001a0 57 91 0d 3d 23 ff fc bc 20 eb 7a bd 4c ac 58 bd
       0.034562435 -0.030883377 -0.06125939 -0.05289869
0001b0 c2 fc 0d bd fa f9 87 3c 16 0e 96 3c 50 f4 3e 3d
       -0.034664877 0.01659869 0.018317264 0.046619713
0001c0 40 a9 bf bb ac 49 5f bb 8b 37 07 3d 1c fa 45 3d
       -0.0058490336 -0.0034071011 0.033011954 0.048334226
0001d0 a3 0c 3c 3d 45 31 fb 3a 0f da 50 3d 36 fd c8 bb
       0.04591049 0.0019164464 0.050989207 -0.0061337007
0001e0 77 fc 3b 3c c5 b8 2f bd 17 9f 9d 3c 9e fe ec bc
       0.0114737665 -0.04290082 0.019240899 -0.028930005
0001f0 be 95 64 3d 30 fd 03 3c 74 23 75 bc 74 c2 3d 3d
       0.055806868 0.00805597 -0.014962066 0.046328023
000200 dd ac 4f bc 74 5a 46 3b 0c 6e 3c 3d df 92 89 bc
       -0.012675491 0.0030266317 0.046003386 -0.016793666
000210 a8 c1 24 bd 41 41 95 3b 19 d2 9f 3d d9 7a 9c 3a
       -0.040223747 0.004554898 0.07803745 0.0011938467
000220 3f 20 8a 3b c0 39 e2 bc e6 d5 26 bd 49 53 de 3c
       0.00421527 -0.027615428 -0.040731333 0.027139323
000230 0c 3f 1c bb 4f 53 8a bd ee d3 48 bc 1c 20 32 bc
       -0.002384129 -0.06754171 -0.012257559 -0.010871913
000240 e6 74 90 bc 67 56 c9 3c bb c4 8b bc 5e c7 30 bd
       -0.017633867 0.024577333 -0.017061582 -0.04315888
000250 12 ea 21 3b 8c 9b 3b 3d ea e6 55 3d 6f 5e 30 3d
       0.0024706167 0.045802638 0.05222217 0.04305881
000260 d6 0d 53 bd 52 7a f7 3c 47 09 d2 bb 38 72 cc 3b
       -0.051526867 0.030209694 -0.0064097974 0.006239202
000270 eb 8d 63 3d 27 9a 7c 3c 0b 0a b0 bc 26 1e 03 3d
       0.055555265 0.015417612 -0.021489164 0.032011174
000280 7c e5 5a 39 cd e2 14 bd d5 c2 35 bd 7b f7 be bc
       0.0002087559 -0.036349107 -0.04437526 -0.023311367
000290 16 89 5f bc b6 c8 2f 3d 81 36 b1 bb e3 78 ee 3a
       -0.013643524 0.042916022 -0.0054081087 0.0018193986
0002a0 b8 e2 21 bd a7 d4 e1 bb 5e 84 05 bd 45 1b d3 3c
       -0.039522856 -0.006891805 -0.03259694 0.025769839
0002b0 16 4e 1c 3a 0f a3 01 3d 27 32 04 3d 20 ec 28 bc
       0.00059625634 0.031649645 0.03227439 -0.010310203
0002c0 70 0e 33 3d 7e d7 bb 3c ed 41 88 3d 16 e9 e5 bb
       0.04371494 0.022929903 0.06653199 -0.0070163114
0002d0 1e 08 1f bc 21 00 1d 3c 7f e0 09 bc d5 58 12 3b
       -0.009706525 0.00958255 -0.00841534 0.002233078
0002e0 6c c3 c1 bc d4 4c 16 3d c4 dd 3f 39 88 9d d9 3c
       -0.023652755 0.036694363 0.00018297794 0.026564375
0002f0 b3 6f 51 3c eb 73 67 3d 7d 04 2b bc 08 e7 5e 3d
       0.012782979 0.056507032 -0.010438082 0.054419547
000300 01 4c da bc ef 65 1b 3d 55 06 40 bc a6 5d 80 3c
       -0.02664757 0.03793901 -0.01172026 0.015669655
000310 5f bb 30 3c 4d a1 90 3d a8 97 c6 3c e2 1f 03 3d
       0.01078686 0.07062016 0.024242237 0.032012828
000320 49 ed 09 bd 18 32 f1 3b 3f 62 08 bd 03 01 f5 3c
       -0.03367356 0.007360708 -0.03329682 0.029907709
000330 aa 25 8b 3c 01 27 47 3b 70 b1 01 bd 01 59 d4 3a
       0.016985733 0.0030388238 -0.03166336 0.0016200842
000340 b1 a5 1f 3d b2 4a 48 3c 15 f0 32 bd 41 f0 e0 3b
       0.038976375 0.01222484 -0.04368599 0.006864578
000350 3b 8c 43 3d 89 dd 0a 3d 54 71 ae 3b 04 69 20 bc
       0.047741156 0.03390268 0.0053235684 -0.009790663
000360 af 78 ef 3c 8c e8 f8 3c b3 8e 1a 3d 0f 35 7e bb
       0.029232351 0.030384324 0.037733745 -0.003878895
000370 6f e8 f7 3c dc 51 5a bd dd 3f 32 3c cc de 0f 3d
       0.0302622 -0.053300723 0.010879484 0.035124585
000380 05 99 5b 3c 1e e4 7b 3d 7e 3d 59 3d 96 30 71 bc
       0.013403182 0.061496846 0.05303716 -0.014721056
000390 6e 91 14 3d 79 cc cf b9 63 81 8f 3c 49 62 83 3c
       0.036271505 -0.0003963446 0.017517751 0.016038077
0003a0 20 ec 13 bc 54 0f 1b bd 72 35 73 3c be 33 59 3d
       -0.009028465 -0.037856415 0.014844285 0.05302786
0003b0 50 ca ec bc 4f 3d 89 ba b0 a1 cd 3c 7c 0c 33 bd
       -0.028905064 -0.0010470542 0.025101513 -0.043713078
0003c0 0d 56 6d bc 04 69 fd 3c e3 0e 80 3d 0a 94 db 3c
       -0.014485848 0.030933864 0.062528394 0.026803989
0003d0 10 c2 f2 bb 2f 80 6f bb 46 c5 3d bc e3 fd 19 3c
       -0.007408388 -0.003654491 -0.011582678 0.00939891
0003e0 bc 5a ed 3c c1 6c 28 bd 16 9b 29 3d 40 b6 53 bd
       0.02897393 -0.04111934 0.041407667 -0.05168748
0003f0 b1 f9 e3 bc 27 16 c4 3c d7 80 f1 3b a1 2d 12 3c
       -0.027829023 0.023936344 0.0073700952 0.008922012

actor.bias f4 [10]
000000 6d 86 d2 bc 7e e3 2e bc c3 58 7e bb 82 bb e4 bc
       -0.025698865 -0.010674356 -0.003881023 -0.027921442
000010 06 66 25 bd af 97 1b 3c 31 8d b0 bc ba 22 a5 3a
       -0.0403805 0.009496613 -0.0215517 0.001259885
000020 b4 bc 6a 3b 6f fa c1 bc
       0.0035818042 -0.023678986

critic.weight f4 [1, 352]
000000 b2 8f 7b 3d 65 0f 19 3d aa bc 93 3c 63 e7 36 3d
       0.061416335 0.037368197 0.018034298 0.04465426
000010 de 9d 09 3d c8 6e 0d bd 40 72 1a bb 0b a1 ed 3c
       0.03359782 -0.034529477 -0.0023566633 0.029007455
000020 3d 8e 40 3c fb fd d7 bc 24 66 27 bd be 8c 92 bd
       0.011752662 -0.026366225 -0.040868893 -0.07155751
000030 79 21 1f bd 01 64 97 3c 2a ab b0 3c 7e 1b bd 3c
       -0.03885028 0.018480303 0.021565992 0.023084398
000040 12 ea a6 bc 6d 60 40 bd 14 d6 f1 3c cb 71 47 3d
       -0.020375285 -0.04696696 0.029521026 0.048692506
000050 3d 15 6d 3c 99 b5 f9 bc 53 72 b7 3c 57 9b 03 3d
       0.014470396 -0.0304821 0.022393381 0.032130565
000060 76 82 5f 3c ee 8c 2e bd 9e 36 10 bd 05 18 a7 bc
       0.013641944 -0.04261487 -0.035208337 -0.020397196
000070 f6 e2 d6 3c e4 b5 3f bd ba 42 6d 3d 96 c3 1e bc
       0.02623127 -0.046804324 0.057924964 -0.009690186
000080 f4 5b 39 bd 90 da 03 3c 1a 6e fc 3c da ce e6 3c
       -0.04525371 0.008047715 0.03081422 0.028174806
000090 b7 92 24 bc 3f 19 59 ba 5c 07 da 3c 97 38 8c bc
       -0.010044745 -0.0008281655 0.026614837 -0.017116828
0000a0 ac 13 47 bd ea e9 fc 3c 41 f3 0a bd 0b c2 88 3c
       -0.048602745 0.030873258 -0.03392339 0.01669409
0000b0 8b f2 40 bd 5b b6 ce 3b 8a 8e 6f bc 11 be f4 3c
       -0.047106307 0.0063083596 -0.014621386 0.029875787
0000c0 86 f0 cc 3c e8 9b 60 3c 81 66 c6 3c c6 13 f0 bb
       0.025017034 0.013709046 0.0242188 -0.007326576
0000d0 58 0a 09 3d 57 6b 5f 3d fe a9 82 3d 58 17 f2 38
       0.03345713 0.054545727 0.0638008 0.00011543807
0000e0 03 a3 10 bd 93 b0 56 b9 1c 65 a1 3d bb 57 21 bd
       -0.03531171 -0.0002047441 0.07880613 -0.039390307
0000f0 df 1c 39 bd 74 6d 41 3b 74 7a a6 3c ac 0f c3 bc
       -0.04519355 0.0029514702 0.020322062 -0.023811184
000100 b5 f2 23 3c ff fa ac 3c 88 92 8e bc 5a ff 43 bd
       0.010006596 0.021115778 -0.017403856 -0.047850944
000110 19 27 ea 3b 16 43 be 3c 87 bf 41 3d 5f 8a 36 bd
       0.007145774 0.023225348 0.047301795 -0.044565555
000120 bf 70 9f 3c b0 26 2a bd a5 28 4a 3d ed 6b 20 bd
       0.019462941 -0.0415408 0.049355168 -0.039165426
000130 16 1f a8 bc bd 34 07 bb 8b a2 e2 bb 5c 43 2a bc
       -0.020522635 -0.00206308 -0.0069163493 -0.010392036
000140 78 f9 38 3d 43 6b cf ba ed 51 38 3d ac e1 0e bc
       0.045159787 -0.0015824813 0.045000006 -0.008720797
000150 dd a4 58 bd 2e e3 d7 3b a2 a3 dc bc 11 21 d4 bb
       -0.0528916 0.006588361 -0.026933495 -0.0064736684
000160 f3 02 5e 3d aa 3d 89 3c 5f 08 c2 3c 90 dc 5e bc
       0.05420203 0.016753037 0.023685632 -0.013602391
000170 59 84 7b bb 33 0e e1 3c ba 23 da bc 02 aa 35 bc
       -0.0038378446 0.027472591 -0.026628364 -0.011087896
000180 68 2f 25 3d 3c d4 12 bc 34 aa b9 3d 5d c1 81 bc
       0.040328413 -0.008961733 0.09065667 -0.015839273
000190 68 ab 04 3d 8f 99 a9 bc f0 13 46 3d 25 cc 6b 3c
       0.03239003 -0.020703105 0.048358858 0.014391934
0001a0 c3 5c 55 bd 88 a8 bc 38 d1 39 30 3d 36 45 4c 3d
       -0.052090418 8.99593e-05 0.043023888 0.049870692
0001b0 85 9d 30 3d 34 80 d0 3c 8f 85 29 3d 3e b6 ba 3a
       0.043118972 0.025451757 0.041387137 0.0014244986
0001c0 a3 f8 27 bd 11 84 34 3d 80 a9 47 3d 54 6b 12 ba
       -0.041008603 0.04407126 0.048745632 -0.0005585451
0001d0 2e 58 8e 3b ff 63 d1 3c 0b ad 0b 3d af ec 0d 3d
       0.004344008 0.025560377 0.034100574 0.034649547
0001e0 8c b7 0a bd dd ab e0 3c 77 03 84 3c 7d c9 42 bd
       -0.03386645 0.0274257 0.016114933 -0.047555435
0001f0 2f 74 80 3c 4c f5 56 3a c9 fc 58 3a 73 36 48 bd
       0.0156804 0.0008200004 0.0008277414 -0.04888005
000200 d8 6c 43 bd 78 17 d0 3c 52 f2 e8 bc 96 a6 54 3c
       -0.047711223 0.025401816 -0.02843586 0.01297917
000210 bb c8 be bc 24 11 81 3d cc 13 f9 bc e6 9c f7 bb
       -0.023289075 0.063020974 -0.030404948 -0.0075565455
000220 0c 84 1b bd 9d 49 ed 3c 43 d4 5c 3d 6e 1d 26 bd
       -0.037967727 0.028965766 0.053913366 -0.04055541
000230 14 be 5c bc 4b 80 b3 bc 44 93 95 bc c1 bb d3 bb
       -0.0134730525 -0.02191176 -0.018258698 -0.006461591
000240 cb c3 23 3d 6b ee a6 3c e0 89 38 bd f2 e0 e0 3c
       0.039981645 0.020377358 -0.045053363 0.027451012
000250 9f 9c 84 bb 42 67 7d 3c d1 19 fd 3a ec 50 d1 bb
       -0.004046991 0.015466513 0.0019310062 -0.0063878205
000260 72 1a 5e 3d be da 1a bd c0 43 c1 bc bb 74 3a 3d
       0.05422444 -0.037806265 -0.023591876 0.04552148
000270 a4 9b 39 bd 17 3f 3b 3d 4d ee 1a 3d 02 77 51 3d
       -0.045314446 0.045714464 0.037824918 0.051138885
000280 f7 5a 0b 3d a0 ca 11 bd 80 1e 96 3c ce 45 3a 3d
       0.034022298 -0.03559363 0.01832509 0.045476727
000290 6a 6d 61 3d 57 a3 87 3b 77 82 00 bc 24 ef b2 3c
       0.055035986 0.0041393447 -0.007843605 0.021842547
0002a0 16 a1 16 bd b0 63 28 bd e9 70 d2 bc 56 e9 3a 3d
       -0.036774717 -0.041110694 -0.025688605 0.045632683
0002b0 6e 75 1c bd 93 2c e0 bb 87 fd 04 3c 3c 83 a7 3b
       -0.038197927 -0.006841251 0.008117086 0.00511208
0002c0 e3 66 d1 bc 37 81 47 3d fe b7 46 bd 7b 9c 26 bd
       -0.025561756 0.048707213 -0.048515312 -0.040676575
0002d0 1f 04 85 3d 33 9d 16 3d ea 83 4b 3d 4c 7e ff 3b
       0.06494927 0.03677101 0.04968635 0.007797038
0002e0 8f a7 26 bd 81 9b 0e bd 20 e2 06 bd a4 e3 35 bd
       -0.04068714 -0.03481627 -0.032930493 -0.04440655
0002f0 20 d6 07 bd 78 d7 46 bc 56 84 ba bc 78 a4 2e bd
       -0.03316319 -0.012136333 -0.02276818 -0.04263732
000300 15 40 9f bc 02 64 c4 ba 1e ec 3a bd 0a 57 92 bc
       -0.019439736 -0.0014983418 -0.045635335 -0.01786377
000310 5f 31 a7 39 b6 91 ce bc 1c 0e 1e 3d 5f b9 45 3d
       0.00031889506 -0.025215965 0.038587674 0.048272487
000320 d5 83 20 3d 90 cb 3c 3d bf 6a 8b bc 30 b8 23 bd
       0.039188225 0.04609257 -0.017018674 -0.039970577
000330 bb 2d 1c bd 3c 51 45 3c cc 74 e5 bc 0d 4e 99 3c
       -0.03812955 0.012043294 -0.028009795 0.018713975
000340 9f ef 14 3d 2a eb a9 3c 63 f2 29 bd e9 34 3d bd
       0.036361333 0.020742018 -0.041490924 -0.046193037
000350 85 e4 f6 3c ed 92 b2 bc 3a 73 b9 3c d2 03 0a bc
       0.030138263 -0.021798575 0.022637952 -0.008423762
000360 07 e0 a7 bc fa b2 cf 3c b6 56 68 3d d4 b2 97 bc
       -0.020492567 0.025353897 0.05672332 -0.01851789
000370 51 88 2c 3d b6 15 a6 3c 2d 04 df bc 46 15 80 bc
       0.04212219 0.020274024 -0.02722367 -0.015635144
000380 ab 37 1d 3d 5d fb 05 bd c6 df 5c bc d6 59 2f 3d
       0.038383167 -0.03271042 -0.013481086 0.042810284
000390 d6 8e 43 3d ec eb 69 3d 0c 9c 82 3d fb 68 a5 3a
       0.04774364 0.05710976 0.0637742 0.0012619788
0003a0 0c 53 09 3b 31 c8 71 3d 7b 12 3c 3d 35 d8 11 bd
       0.002095404 0.059028808 0.04591606 -0.03560658
0003b0 34 df 71 3d 5e ff cf 3c 19 ec ba bc 1a c2 65 3b
       0.059050754 0.025390323 -0.022817658 0.003505832
0003c0 16 64 e1 bc af eb 92 bc 35 64 c6 3a f3 74 c5 bc
       -0.027513545 -0.017934648 0.0015136065 -0.024103617
0003d0 22 f2 79 bc ef bc 24 bd 3f ef 07 bd 49 7c 3b 3c
       -0.015255483 -0.040219244 -0.033187147 0.011443206
0003e0 05 d0 50 3d 39 ae 51 3d 09 0a 49 3d ea 3f cd 3c
       0.050979633 0.051191542 0.049081836 0.02505489
0003f0 73 e4 33 bd 85 40 4f 3d 22 3e e0 bc fa cc 4c bc
       -0.043919038 0.05059864 -0.027373377 -0.012500042
