gym_models/model_80.pth (torch, 526978 bytes, 11 tensors)

features_extractor.conv1.weight f4 [16, 4, 4]
000000 ce 16 28 3e 9e f8 54 be 00 75 59 3c 98 1d 05 3d
       0.1641495 -0.20797965 0.013272524 0.032498926
000010 ec 5e 48 3e d4 c3 99 bd 0c 57 7d be 10 f5 6e be
       0.1956746 -0.075080544 -0.24740237 -0.23335671
000020 e4 a5 b5 3d 12 0b 17 be 84 a2 65 3e c8 94 78 3d
       0.08869532 -0.14750317 0.22425276 0.060688764
000030 80 ee 7c be 58 f8 3c bd 88 e9 7f bd 38 d5 13 be
       -0.24700356 -0.046135277 -0.062478572 -0.14436805
000040 5a e9 0a be a4 5c d1 3c 74 2d 51 3d d6 a4 5e be
       -0.13565579 0.02555687 0.051068738 -0.21742567
000050 6d 4f 55 be da ba cb bc 2b f9 16 be ed a6 d1 bd
       -0.2083108 -0.024869371 -0.14743488 -0.10236917
000060 cc c0 d9 bd 86 74 a7 ba 1a a0 8f bc 74 15 2f 3e
       -0.10632476 -0.0012775816 -0.017532397 0.17098027
000070 f7 2b 74 be 39 98 05 3e 92 41 80 3d 4b b3 a0 3d
       -0.23844896 0.1304635 0.062625065 0.078466974
000080 9a 7c aa bd 5b 1e 62 3e f6 4c 3a 3e 77 fb 2f bd
       -0.08324547 0.22081892 0.18193421 -0.042964425
000090 5a bc 6c 3e 0e 2e 65 bd b9 c4 c6 3d 4c d6 57 3e
       0.23118725 -0.055952124 0.097054906 0.21077842
0000a0 74 f2 5e 3e ce 4d 8c bd b0 7a 99 3c bd 78 80 3d
       0.21772176 -0.068507776 0.01873526 0.06273029
0000b0 22 db 1a be c9 9c 3c 3c d4 12 3f be 08 94 57 3e
       -0.15122655 0.01151199 -0.18659526 0.21052563
0000c0 be aa 44 3d a6 3b b1 3d 81 18 df 3d 80 08 96 3e
       0.048014395 0.08653955 0.108933456 0.2930336
0000d0 16 36 c4 bd 8e 8e f8 bb 36 8a 47 bd 20 08 11 3e
       -0.095806286 -0.007585353 -0.048715793 0.14163256
0000e0 e9 cc 5d 3d 0e fa 2e be a3 86 cf 3d 2c 7b 9b bd
       0.054150496 -0.17087576 0.10133102 -0.075918525
0000f0 3b 1f 7b 3d 8f 9d 1e bd 84 65 02 3e 2e 3e 27 3e
       0.06130908 -0.03872448 0.12734038 0.16332313
000100 e0 42 ea 3d 06 cb e7 3c dd b0 86 3d e0 d2 42 bd
       0.11438537 0.028295051 0.06576703 -0.047564387
000110 41 ab 75 3e ad be 84 3e 54 37 06 bd 0f d5 91 3d
       0.2399111 0.25926724 -0.03276761 0.07120716
000120 c0 e3 b1 bd bd 55 09 bd 4e 4b 88 3e 62 5a b1 3b
       -0.08686018 -0.033529032 0.26619953 0.005412386
000130 c2 95 19 3e b5 eb e0 3d 09 c4 4e 3e 2f 52 17 3e
       0.14998534 0.109824575 0.20191969 0.14777444
000140 2a 7a 93 3e f7 6f 19 be d5 d4 5a 3e 9e c9 cb 3d
       0.2880414 -0.14984117 0.21370251 0.09950565
000150 3b 54 6a 3d 9b fa 13 be 95 58 94 bc d3 31 d1 3c
       0.057209235 -0.14451067 -0.018108645 0.025536453
000160 f4 a2 cd bd 5e fd 82 3e a8 58 af bd 88 f1 a5 bd
       -0.100408465 0.2558393 -0.08561832 -0.08102709
000170 0b 58 84 3e b9 f8 32 bd c9 95 2e 3e 44 44 6f 3e
       0.2584842 -0.04369423 0.17049326 0.23365885
000180 15 3c 42 be 72 40 1e be 22 cc 39 be 06 36 97 3d
       -0.18968232 -0.15454271 -0.18144277 0.07383351
000190 68 19 25 be da d1 1d be d3 38 86 3e 2d 53 bc 3d
       -0.16122973 -0.15412083 0.26215228 0.09195552
0001a0 4a 93 2e 3d 8e 3b 88 3e 69 7f 5c be 10 51 22 be
       0.042620935 0.26607937 -0.21532978 -0.15851235
0001b0 5a 9b 21 3e ad 88 0d 3d 72 36 8e 3d 0e 61 15 bd
       0.15781918 0.034554172 0.06943978 -0.03646951
0001c0 e6 7c 51 3e e8 10 b0 3d b2 29 55 3e d0 29 68 be
       0.20457801 0.085969746 0.20816687 -0.226722
0001d0 a0 f3 66 bd 30 1d 35 be f0 e3 88 3c d8 5a b4 bd
       -0.056384683 -0.17686915 0.016710252 -0.088063896
0001e0 56 ea 11 3e 58 8c 18 bd b4 55 c7 3d 92 4f 5b be
       0.14249548 -0.037243217 0.097331434 -0.21417072
0001f0 fa ae 0d be 40 80 07 bd e8 93 3d be 40 61 11 be
       -0.1383628 -0.033081293 -0.18513453 -0.14197254
000200 cc ab e7 bd 04 de 68 3e 04 8e 68 be 18 91 28 be
       -0.113120645 0.22740942 -0.22710425 -0.16461599
000210 7c ed 62 be f0 6a 6b 3d d0 61 38 bd c0 53 b2 3c
       -0.22160906 0.05747503 -0.045015156 0.02176845
000220 a4 43 c4 bd 48 1b 76 be 48 52 f4 bd 9a 13 5f 3e
       -0.09583214 -0.24033844 -0.119297564 0.21784821
000230 8e b0 7b be 94 56 25 be 84 f8 c8 bd 20 65 e1 bd
       -0.24579069 -0.16146308 -0.098130256 -0.11005616
000240 73 7e da 3d 00 e0 11 3e e0 a2 9d 3e aa fe 7c 3e
       0.106686495 0.14245605 0.30788326 0.24706522
000250 70 b1 f3 bc 7c 91 67 3e 36 39 21 3e 29 8b 20 3e
       -0.029747695 0.22614092 0.1574448 0.15678085
000260 a0 de 97 3d 56 80 2a be 90 d0 27 3e c3 69 bd bd
       0.07415509 -0.16650519 0.16388154 -0.09248688
000270 d0 ae a9 bd ef 42 47 bd 11 5b f3 3d 19 9a c7 3d
       -0.08285296 -0.048647817 0.11882604 0.09746189
000280 c0 61 ae 3d f5 98 3b be 14 c3 85 3e 76 c9 50 3e
       0.08514738 -0.18320067 0.26125395 0.20389351
000290 84 3b 57 be 6e c1 33 be 63 63 5e 3c 51 83 1b 3e
       -0.21018797 -0.17554256 0.0135735 0.15186812
0002a0 7e f6 1e 3e 10 b9 e6 3d 1a 4a 36 3e ed c3 0f 3e
       0.15523717 0.112657666 0.17801705 0.14039584
0002b0 9a 22 20 bd 60 20 44 be 1a 71 4b 3e d9 be ea 3d
       -0.0390955 -0.19152975 0.19867364 0.114621826
0002c0 70 5e 3e be a0 cc d0 bc 14 37 d3 3d c4 46 23 3e
       -0.18590713 -0.025488198 0.1031324 0.15944964
0002d0 de 67 07 be 94 7e 64 3e 28 e4 b8 bd 5c c6 da bd
       -0.13223216 0.2231391 -0.09027892 -0.10682365
0002e0 30 73 28 3d ec 19 b1 3d b0 90 b3 3c 62 56 03 be
       0.041125476 0.08647522 0.021919578 -0.12825921
0002f0 f4 33 15 be fc f5 84 3d 84 38 62 be 0e 62 48 3e
       -0.145706 0.0649223 -0.22091872 0.19568655
000300 25 9d 66 3d 51 5f 13 be 05 3c 88 3c fd e9 1b 3e
       0.05630221 -0.14391829 0.016630182 0.15225978
000310 ab 24 0f be af 4e c1 bd a9 02 e6 3d 36 7b bb bd
       -0.13978831 -0.09438836 0.11230976 -0.0915436
000320 8a 25 80 3e 15 77 b1 3d 0a 8f 29 3e 99 c5 87 3e
       0.2502864 0.08665291 0.16558471 0.26517943
000330 5d 4c 58 be a1 bd 69 bc 9a 80 05 3e 00 98 82 3e
       -0.2112288 -0.014266402 0.13037339 0.25506592
000340 d8 5a d3 bd 88 29 06 be 84 65 ae bd 28 7c 32 3d
       -0.103200614 -0.1310178 -0.08515456 0.043575436
000350 a0 49 09 bd 16 98 3b be ee ec 09 be 9c 3a be bd
       -0.03351748 -0.18319735 -0.13469288 -0.092885226
000360 84 ee 6f 3e 02 53 1e be 78 4e 15 be e6 a8 4d 3e
       0.2343083 -0.15461352 -0.14580715 0.20083961
000370 c4 e7 05 be b6 d8 5a be 9c 1f 6e be 30 fe ed 3c
       -0.13076693 -0.21371731 -0.23254246 0.02905187
000380 c4 13 ff 3d f0 1c 40 bd 60 5d 70 bc c0 39 37 3c
       0.12454942 -0.046902597 -0.0146707 0.011183202
000390 3c e9 01 3e 08 d7 10 bd f4 7c cf bd 20 52 31 3d
       0.12686628 -0.03536132 -0.10131255 0.04329121
0003a0 f0 87 48 bd 52 cc 5d be 14 46 48 3e b0 5e 33 bd
       -0.048957765 -0.21659973 0.19557983 -0.043791473
0003b0 1a 40 15 be 68 29 53 3d 90 bc fa bd 30 50 56 bd
       -0.14575234 0.05155316 -0.12242997 -0.052322567
0003c0 df f4 99 3e d7 2e 96 3e c9 69 d3 bb fe cf ab bc
       0.30069634 0.2933261 -0.0064518196 -0.020973202
0003d0 4b da 4e 3e 90 94 4a be 34 92 03 bd f5 59 e4 3d
       0.2020046 -0.19783235 -0.032121852 0.111499704
0003e0 d1 52 77 3e 75 28 40 3e 13 20 2e be f4 bd de bd
       0.24152686 0.18765433 -0.17004423 -0.108760744
0003f0 d7 25 28 3e 52 58 47 be ed 66 2a be 91 64 08 3d
       0.16420685 -0.19467285 -0.16640826 0.033299033

features_extractor.conv1.bias f4 [16]
000000 4c c2 97 3d 7f e7 cd 3d 22 30 b1 3d 67 24 1e 3e
       0.07410106 0.1005392 0.08651759 0.15443574
000010 5c 79 ea bd 46 c9 f5 bd ec e7 51 3e 08 45 d5 bd
       -0.11448929 -0.120012805 0.20498627 -0.10413557
000020 64 5d 67 be 1d 50 5f be 65 3b 89 bd 5c c3 2a be
       -0.2259422 -0.21807905 -0.06700782 -0.16676086
000030 df d4 8e bd 12 20 01 be 5c 92 ef bd eb 2b 8e 3e
       -0.06974196 -0.1260989 -0.11697838 0.27767882

features_extractor.conv2.weight f4 [32, 16, 4]
000000 04 10 03 3d a0 f4 00 3c b8 42 ae bc 28 61 fe bc
       0.031997696 0.007870823 -0.021272048 -0.031052187
000010 57 64 c2 bc 91 bc 83 3d c2 20 3a bb 40 d6 c3 bc
       -0.023729486 0.064324506 -0.0028400873 -0.023905873
000020 d3 91 17 3e c0 3f a6 bd bd 05 db 3c 31 9c ad bc
       0.14801721 -0.08117628 0.026736135 -0.021192642
000030 fa cc 20 3d bd f5 14 3e 03 32 16 3e f1 d9 03 bd
       0.03925798 0.14546867 0.14667515 -0.032190267
000040 4d ad 6c bd 1a 0b 93 3d 36 10 0a 3e 50 91 3e bc
       -0.05778246 0.07179852 0.13482746 -0.011631325
000050 2a c3 2a bd 93 45 a1 bc a3 19 a1 3d 39 66 63 bd
       -0.04169003 -0.019686496 0.07866218 -0.05551741
000060 28 5f cf 3b cc 4b 95 3d 3b 44 2d be 64 d9 d5 bd
       0.006328482 0.07289848 -0.16920559 -0.104418546
000070 ac ae 60 3d 42 8a 92 bd 20 67 f7 3d 42 7d fe bd
       0.05485408 -0.07155277 0.120802164 -0.12426235
000080 0c ef 0d bd 92 fe ec 3d 60 28 0f bd 84 99 5b 3d
       -0.0346518 0.11571993 -0.034950614 0.0536132
000090 be 4c 8e 3d 1b 8b 76 3d 2d 24 71 3d ff a4 19 3e
       0.06948231 0.060191255 0.05887239 0.15004347
0000a0 03 ca 87 3c 66 77 50 3c 71 ec 3d 3d 02 ef 06 3e
       0.016575819 0.012723779 0.046368066 0.13177112
0000b0 60 79 ef bb c0 25 33 3b 80 c5 8f ba 60 b2 c1 3d
       -0.00730817 0.0027335733 -0.0010968894 0.094578505
0000c0 c6 5f 22 bd 5e 7b b9 3d 9d a6 b9 bd 29 90 99 3d
       -0.039642118 0.090567335 -0.09064982 0.074981995
0000d0 24 b7 3e 3d 52 14 b9 3d 28 c3 dc bc aa ab e4 bd
       0.046561375 0.09037079 -0.026948527 -0.11165555
0000e0 fe eb e0 3d 28 c7 6b bd 28 2d 07 bd 7e 5a bc 3d
       0.10982512 -0.057562977 -0.03300205 0.091969475
0000f0 bf f9 c9 bd 21 9f 65 3e f7 83 21 3e ed d4 46 3c
       -0.098620884 0.22423984 0.15772997 0.012135726
000100 c0 c3 42 3d 06 dd e6 bd e8 bd 8b 3d 88 51 a8 bc
       0.047549963 -0.112726256 0.06823331 -0.02054669
000110 e8 05 96 3d b8 33 da bd df 5c ff bc 1c 63 2f bd
       0.07325345 -0.10654396 -0.031172214 -0.042819127
000120 c7 d8 03 3e e0 ab e9 3b 36 86 3f bd b1 b8 b4 bd
       0.12875663 0.007131085 -0.046758853 -0.088242896
000130 6d 0d 68 bd 76 86 33 3d a0 0a 15 3e b6 2e 2d bc
       -0.05665343 0.043829404 0.14554834 -0.010570219
000140 68 f8 68 bd 59 ff e9 3d 9c 3c 57 3c 45 f9 ef 3d
       -0.056877524 0.11425657 0.013137009 0.11717466
000150 e7 90 b4 3d d2 ed 3c 3d 32 ea 70 bd 34 f0 9b 3d
       0.088167004 0.04612524 -0.058817096 0.076141745
000160 da 1e a9 3d 04 a2 46 3c 3a 89 e5 3c fc 18 de bc
       0.082578376 0.0121235885 0.028019536 -0.027111523
000170 54 31 6b bd 40 d0 04 3d 64 fa 52 bd 2c ec 15 bd
       -0.05742009 0.032425165 -0.051508322 -0.036602184
000180 12 99 8a bd 9e 63 ad 3d 5c ca 8d bd e0 82 7a bc
       -0.06767477 0.08466266 -0.069233626 -0.015289992
000190 68 ae 17 3e 16 8d 76 bd 90 8c 13 3e 69 73 94 bd
       0.14812624 -0.060193144 0.14409089 -0.07248575
0001a0 0c fd 42 ba 18 e3 01 3d d6 80 fa 3d 46 34 fa 3d
       -0.00074382196 0.031710714 0.12231605 0.122170016
0001b0 f0 fb 3e 3c 32 1e d0 bd 20 c8 90 3b d8 60 c7 bc
       0.011656746 -0.10162009 0.004418388 -0.02433817
0001c0 8f 55 35 3c 37 cf 0a bd e0 3d bf b9 e0 f0 82 bd
       0.011067762 -0.03388902 -0.0003647646 -0.063935995
0001d0 4a f4 f3 3d f6 4b 86 3d 6c fe f8 3d c8 9a be bc
       0.11911829 0.06557457 0.12157902 -0.023267165
0001e0 78 3d 9f 3d 7c 70 f2 bd 62 38 d3 bd 96 ad cd 3d
       0.07775396 -0.11837861 -0.103134885 0.100428745
0001f0 87 4a e0 bd 38 b0 39 3b 14 8b 39 3e ef 6f 6a 3d
       -0.10951715 0.0028333794 0.1811946 0.057235654
000200 f8 37 5c bd c6 b3 99 3d d0 ab e1 bd 50 a1 85 3c
       -0.053764313 0.07504992 -0.11019099 0.016312271
000210 92 29 a6 bd b7 c0 ea bd c3 38 04 bc 5c c8 52 bd
       -0.08113398 -0.11462539 -0.008070174 -0.05146061
000220 df 47 fb 3d f4 5f b0 bd d9 e8 bd bd bf 10 00 bd
       0.12269568 -0.086120516 -0.09272928 -0.03126597
000230 05 0a 83 bd 92 13 a2 3d 59 de 38 3d 9d 3d 94 bd
       -0.063983954 0.07913889 0.045133922 -0.07238314
000240 fb 4c 13 3d 1b 89 64 bd ae 32 f2 3c 1a 92 ab 3d
       0.035962086 -0.055794816 0.029565182 0.08377476
000250 17 5c 77 bc 5c a3 07 3c c1 9d 23 bd 1d 68 09 3e
       -0.0150976395 0.008278694 -0.039945368 0.13418622
000260 1e 9c f9 3c 22 e8 16 be 50 69 a3 bd 2e af d4 3c
       0.03046995 -0.14736989 -0.07979071 0.025962438
000270 60 13 a5 3c 1c cd 5a bd c2 8d cc bd e2 d1 a6 3d
       0.02015084 -0.053418264 -0.09987976 0.08145501
000280 44 ad 47 3d 20 a1 a8 3c 3a a6 ed 3d 26 78 9c bd
       0.048749223 0.020584643 0.11603971 -0.07640104
000290 b2 31 64 3c 88 81 04 3e bb 81 f1 3b 8a ac d9 bc
       0.013927864 0.12940037 0.0073702014 -0.02657153
0002a0 21 86 6a 3b 2e 13 24 3e d1 c9 0e 3e 45 46 73 3d
       0.0035785513 0.16022941 0.13944174 0.059393186
0002b0 b4 d6 5e 3d 38 23 78 bd 54 0e 55 3d c0 02 50 3c
       0.054403976 -0.060580462 0.052015617 0.012695968
0002c0 38 92 84 bc ae 78 d0 3d 7e df 87 3d 63 65 40 3d
       -0.016183004 0.10179268 0.066344246 0.04697169
0002d0 78 c8 2e bd 80 fc 84 3d cc 5c fd 3d 10 22 dd 3d
       -0.04267165 0.06493473 0.12371215 0.107975125
0002e0 a6 8f e5 3d 40 55 ff bd 30 9e 21 3d e4 ae de bd
       0.112090394 -0.12467432 0.0394575 -0.108732015
0002f0 b7 43 8b 3d 12 30 82 3b da 6e a5 3d 50 7f 73 3e
       0.06800025 0.0039730156 0.08077784 0.23779035
000300 2e 73 85 bd 82 48 a7 3d 20 f1 ac bd a0 1c ee 3c
       -0.065161094 0.08168127 -0.084444284 0.029066384
000310 19 bb 77 3d af 56 b3 bb e5 24 c3 bd 0e 06 b2 3d
       0.060481165 -0.00547298 -0.095285214 0.08692561
000320 67 81 95 bd 18 f9 80 3d d3 4b 8a 3d 39 c3 97 bd
       -0.07300072 0.06297511 0.067527436 -0.07410283
000330 e2 0c 86 bd 8b f2 ac 3d ff 08 0b bd f2 01 ee 3d
       -0.06545426 0.08444699 -0.033944126 0.11621465
000340 f5 6d 14 3e cc 30 07 3e 38 c0 1b bb 72 3f 38 bc
       0.1449507 0.13202208 -0.0023765694 -0.011245595
000350 6a 11 82 bd a7 34 51 bb 2f 10 17 3e 83 67 25 bd
       -0.06350978 -0.0031922252 0.14752267 -0.04038192
000360 7c e3 03 be a6 36 be bd 69 b4 ae 3b e2 bd af 3d
       -0.12879747 -0.09287767 0.005331565 0.08581139
000370 b6 0c 96 bd 98 4b 7f 3d e8 62 a5 3c 04 52 be 3d
       -0.07326643 0.06232795 0.020188764 0.09292987
000380 ae a5 a4 3d 14 56 b2 bd ac 1d f0 bd d0 8a 8d bd
       0.080394134 -0.08707824 -0.117244095 -0.06911242
000390 c3 24 8e 3c b2 24 fb 3d 5d 0d 25 3e cc 82 c6 3d
       0.017351514 0.122628585 0.16118379 0.09692916
0003a0 a3 1e 26 3d dd e9 75 3d f0 cd 22 3c c5 a2 b1 3d
       0.04055656 0.060037483 0.009936795 0.08673624
0003b0 c0 d8 e2 bd 80 99 f7 ba da a0 9d bd 32 61 90 3d
       -0.11076498 -0.0018890351 -0.076966956 0.070497885
0003c0 1f 91 31 3c bc f1 21 bd b8 12 d2 3d 7c fb b7 bd
       0.010837822 -0.039537176 0.102574766 -0.08983514
0003d0 88 f7 c7 bc 24 db ff bd 28 ab 71 bd b0 f5 b0 3c
       -0.024410024 -0.1249297 -0.059001118 0.021601528
0003e0 dc 6b a7 3d 2c 70 39 bd c0 bc d6 bd 5c 67 f7 bd
       0.081748694 -0.04527299 -0.1048522 -0.12080261
0003f0 f6 a8 7a bd e3 9a f2 3d 0a 86 28 3e fb 03 19 3e
       -0.06119629 0.118459485 0.16457382 0.14942925

features_extractor.conv2.bias f4 [32]
000000 ea 2a 22 3b ca 16 8e 3d 85 4b 12 3d 59 2b b3 3c
       0.0024744817 0.069379404 0.035716552 0.021871256
000010 04 05 81 bd fc ee d2 3d e9 9a a6 3d f0 10 60 3c
       -0.06299785 0.10299489 0.081350155 0.013675913
000020 64 6b 20 3d 9c 57 ea bd ef 1d 65 bc 9e ab 04 3e
       0.039164916 -0.114424914 -0.0139841875 0.12956092
000030 45 2e 68 bd 41 9e 6b 3d 00 a9 dc 3a b8 6a f6 bd
       -0.05668475 0.05752397 0.0016835034 -0.12032074
000040 b4 b7 ac 3d 6d d2 19 bd 14 c1 88 bc 07 94 d4 bc
       0.08433476 -0.037554193 -0.01669363 -0.025949491
000050 1d 84 0a 3e 8c 5d c7 bd 56 67 e2 bd 08 6c 99 3d
       0.1352696 -0.097346395 -0.11054866 0.074913085
000060 e0 e3 90 bc 49 96 01 be c4 83 b6 bc b0 3e 77 3d
       -0.017686784 -0.12654985 -0.022279628 0.060362518
000070 2a 56 d7 bd 84 f4 84 3c d5 7e 60 3d 37 34 f2 3d
       -0.10514481 0.016229875 0.054808456 0.118263654

features_extractor.fc_op.weight f4 [32, 3]
000000 4f 5b 9f bd 90 fe b3 3e 9d 4e f0 be 7a 2e 12 be
       -0.077810876 0.35155153 -0.46934977 -0.14275542
000010 2b 90 8d 3e 74 22 fa be e8 a9 9c 3e ff e5 d7 be
       0.27649054 -0.4885441 0.30598378 -0.4216766
000020 55 7c 01 3f 0a 77 06 3e 46 d2 92 be be bf 19 bf
       0.5058034 0.13131347 -0.2867605 -0.600582
000030 20 ea a1 be 98 18 c0 3d 73 fb ef 3e 44 1d f0 3e
       -0.31623936 0.09379691 0.46871528 0.46897328
000040 ed 64 97 be 54 b8 19 bf f0 90 09 be 9d 37 72 3d
       -0.29569188 -0.6004689 -0.13434196 0.05913507
000050 25 b1 03 bf 80 0d 09 3e 44 10 5f be aa 85 8c be
       -0.51442176 0.13384056 -0.21783549 -0.27445728
000060 bc cf 84 bc 3d e4 9f 3e 94 85 95 be 79 26 a3 3d
       -0.016212337 0.3122882 -0.29203475 0.079663225
000070 66 4e 9e 3c e4 04 01 be eb dc 3a be 86 f5 93 be
       0.019324493 -0.12599522 -0.18248336 -0.28898257
000080 24 c5 7b 3e 82 fa fd 3e 0a d3 50 3e 41 d5 76 3c
       0.24586922 0.49605185 0.20393005 0.015065492
000090 ed 29 00 be 7f 7d cc ba 5b 69 e4 3d 79 72 a1 be
       -0.12515993 -0.0015601366 0.111529075 -0.31532648
0000a0 4d 1c 18 be 70 bf fb bc 7e c3 26 3e 01 51 ea 3e
       -0.14854546 -0.030730933 0.16285512 0.45764926
0000b0 53 1c 07 3f 49 af 90 be 44 57 de be 94 82 f6 be
       0.52777594 -0.28258732 -0.43425953 -0.48146498
0000c0 73 02 06 bf ac ea 3a bd 3f b8 f9 bd 85 24 83 3e
       -0.5234749 -0.045633957 -0.12193345 0.256138
0000d0 87 39 06 bf 45 d1 a7 3e c4 54 fe 3e 51 94 d1 3e
       -0.5243153 0.32776847 0.49674046 0.4093347
0000e0 03 30 d2 3e 91 27 17 3f b2 c8 d7 3e 6c f8 32 bb
       0.41052255 0.5904475 0.42145306 -0.0027308716
0000f0 af 08 f1 3e 08 d3 fc 3e 66 06 12 bf d4 f4 0a 3f
       0.47076938 0.49379754 -0.57041013 0.5427983
000100 f6 a2 30 3e 00 57 05 3f 75 3f 37 be 1b 38 2a be
       0.17249665 0.52085876 -0.178953 -0.16622965
000110 d0 56 8b 3e 66 4d b1 be cd 94 06 3f c1 14 c1 be
       0.2721467 -0.34629363 0.525708 -0.37711146
000120 7d e2 b2 3e fe c7 29 be ac 5c bc 3e 4a 4b d7 be
       0.34938422 -0.16580197 0.36789453 -0.42049628
000130 44 53 82 be 65 f8 b3 3d 5b e2 9e 3e cb 4b 8b be
       -0.25454152 0.08787612 0.3103207 -0.27206263
000140 05 33 54 be 2e 95 02 bd d8 f5 86 bd 13 4a 01 bf
       -0.20722587 -0.03188055 -0.0658986 -0.50503653
000150 d5 99 2d be 68 11 2d 3c a4 d5 a1 be 38 dc 0d 3d
       -0.16953214 0.010563232 -0.31608307 0.034633845
000160 ef 65 01 be ef 23 4d 3e bc 14 86 bd 51 e5 e7 3c
       -0.12636541 0.20033239 -0.065469235 0.028307589
000170 95 03 3e be 4b fb 09 3e 2a 1b f5 3e 4b 4d e3 3d
       -0.18556054 0.13474767 0.47872287 0.11098727

features_extractor.fc_op.bias f4 [32]
000000 b3 b7 54 be 84 3b 81 be 8b 03 1d 3d bc eb eb 3e
       -0.207732 -0.2524072 0.038333457 0.4607829
000010 3b 8c c5 3e a3 5b 0f 3e 6b 92 db 3e 0a c1 63 3e
       0.3858355 0.139998 0.42885146 0.22241607
000020 b0 73 a5 3e f0 30 25 be b4 bc b3 3e 9d 03 7d be
       0.32314825 -0.1613195 0.35104907 -0.2470841
000030 23 98 c0 3e e1 ed 10 bf 31 dd 02 3f 67 ff 93 3e
       0.3761607 -0.56612974 0.5111876 0.28905794
000040 2f 7b bd bd 48 d5 ac 3e 4f bf f8 be b2 dc c4 be
       -0.09252011 0.3375647 -0.48583457 -0.38449627
000050 2f 50 b9 be 4b 3c 05 bf 3a e8 51 3e 17 83 43 3d
       -0.36193988 -0.52045125 0.20498744 0.04773244
000060 76 e4 44 3e fd fc 0c 3e e3 0f 56 be 3b 63 1b 3e
       0.19227776 0.13768382 -0.20904498 0.15174572
000070 92 10 97 3e 5b bc 50 3e f7 4f 3e be 36 34 c9 3e
       0.2950483 0.20384352 -0.18585192 0.39297646

features_extractor.fc_merge.weight f4 [352, 352]
000000 7d 75 78 3d 8a 73 59 3d 4e 75 aa 3c 73 2e 22 3d
       0.06065892 0.053088702 0.020807888 0.03959508
000010 f6 77 90 3d ec bd 32 3d 09 8b 76 3d a6 c6 02 3d
       0.07054131 0.043638155 0.060191188 0.031927727
000020 46 f9 98 3d 04 7b a0 3d 86 ca 1d 3d ab 15 9e 3d
       0.0746942 0.07835963 0.03852322 0.077189766
000030 e5 b7 82 3d f3 47 9a 3d e7 f6 6d bc 10 07 95 3c
       0.06382731 0.075332545 -0.014524198 0.018191844
000040 f0 46 58 3d 76 50 6e bb 96 06 1b bb 53 72 36 3d
       0.052802026 -0.0036363876 -0.0023655049 0.04454262
000050 1e 28 d5 3c 3d 07 62 3d b7 95 03 3d ec f6 8b 3c
       0.026020106 0.055182684 0.0321252 0.017085515
000060 da 03 84 3d 48 fb 8d 3d 08 9d 1c 3d aa 36 e9 3c
       0.06446047 0.06932694 0.038235694 0.028468449
000070 5e ec 8a 3d e6 ba 7f bc 83 57 86 3d 4d b6 d8 3c
       0.06783365 -0.015608525 0.0655966 0.026454115
000080 73 cd 4d 3d de 2f 23 3d df 53 b2 3c a0 73 85 3a
       0.05024476 0.03984057 0.021768508 0.0010181554
000090 a1 72 e6 3c 89 d9 f3 3c 76 ad 74 bc 2a 7e cd 3c
       0.028130831 0.029766815 -0.014933934 0.025084574
0000a0 f2 84 33 3d 6e 63 47 bd 35 19 85 3c ac e5 d6 3b
       0.04382796 -0.048678808 0.016247371 0.0065581407
0000b0 2c 55 50 bc aa 85 31 bd 27 8e 27 bd f6 2e b5 3c
       -0.012715619 -0.043340363 -0.04090705 0.02211712
0000c0 0a 7c 42 bd f5 75 e9 3c 9a 50 a9 3d 6e 87 2a bb
       -0.047481574 0.02849863 0.08267327 -0.0026020664
0000d0 63 87 5d 3d 50 74 42 3d ea a4 dd 3c 7a 99 26 3c
       0.054084193 0.047474205 0.027056176 0.010168428
0000e0 48 9c b3 3d 2f 9b 95 3d b9 39 4c 3d da 8f 9c 3d
       0.08770043 0.073049895 0.049859736 0.07644625
0000f0 0d c3 61 3d a4 7b ae 3d a9 d0 13 bc e9 bb d0 3b
       0.055117656 0.08519676 -0.009021916 0.006370057
000100 49 a6 49 3d 6d 59 71 3d 01 16 86 bc da 86 d2 3c
       0.049230848 0.058923174 -0.016367914 0.025699068
000110 10 72 2f 3d 50 48 ad 3d 86 7f 0d 3c 71 16 4c 3d
       0.042833388 0.08461058 0.008636361 0.04982609
000120 81 cc c5 3c 2d 55 d7 bc 5b 3c a4 3b f2 66 dc 3c
       0.024145367 -0.026285732 0.0050120777 0.026904557
000130 49 12 c2 bc 13 fa 3c 3d da 01 3e 3d 77 cb 81 3c
       -0.02369036 0.046136927 0.046388485 0.01584409
000140 f0 1d 16 3c 2e 88 8b bb 38 9c 89 3b 41 8b 2f bd
       0.009162411 -0.0042581772 0.004199531 -0.042857412
000150 76 31 8a bc b9 80 54 3b a4 74 6b bb fc 6d ac 3b
       -0.016869288 0.0032425357 -0.0035927678 0.0052621346
000160 ca 9a 13 3c ab f1 2e bd 35 b6 54 bc 52 c9 02 3d
       0.009009073 -0.04271094 -0.012982895 0.031930275
000170 ba 51 33 bd 39 94 27 3d 24 95 dc bb f6 30 a2 3c
       -0.043779112 0.04091284 -0.006731646 0.019798737
000180 0a f1 e4 bc e5 10 d0 3b 8c a4 f1 bc ea 64 1a 3d
       -0.027946968 0.0063496702 -0.029497407 0.037693895
000190 ac e8 60 3d 99 4f b9 3d 45 33 93 3c a0 6f 9e 3d
       0.054909393 0.09048385 0.017968783 0.077361345
0001a0 17 e1 88 3c c5 29 1e 3d 2f b9 a8 3d c6 10 4d 3d
       0.016708894 0.038614053 0.08238446 0.050064825
0001b0 57 5c e7 3c 00 0b 38 bb f5 51 9f 3d 30 7d 86 3c
       0.028242273 -0.0028082728 0.07779304 0.016417116
0001c0 7a d5 93 bc 78 21 a0 3d 70 5c 7e bc 08 a6 59 3d
       -0.01804613 0.07818884 -0.0155249685 0.053136855
0001d0 60 fc d1 3b 43 b8 86 3d 45 ba 84 3d a2 07 d4 3c
       0.0064082593 0.06578114 0.064808406 0.025882546
0001e0 d1 51 3c bc 7b c0 89 3d a3 02 87 3d 0c 81 81 ba
       -0.011494116 0.06726166 0.065923 -0.0009880378
0001f0 2d 18 a4 3c c1 0b a6 3d 41 52 a7 3d d2 b3 3b 3d
       0.02003106 0.08107711 0.081699856 0.045825787
000200 60 89 c1 b7 c1 a0 aa 3c 7b 20 98 3d a1 69 8e 3d
       -2.3071363e-05 0.020828607 0.0742807 0.06953741
000210 dc df 3b 3c 03 30 41 3d 12 9c c3 bc a8 64 b6 3b
       0.011466946 0.04716493 -0.023878131 0.0055661984
000220 4a db 88 3d 62 89 5c bc 60 90 07 3d 8c 96 21 3d
       0.06682451 -0.013460489 0.03309667 0.039450213
000230 e5 be 41 bd 0d ab ce bc 63 c9 01 bd 7d d3 c7 bb
       -0.04730119 -0.025228048 -0.031686198 -0.0060982094
000240 eb 40 9c 3c b6 3f 01 3c 90 f6 1a bd 8f bb 49 bd
       0.019073924 0.007888725 -0.037832797 -0.049251135
000250 a2 01 3a bd de 11 48 bd 51 fc 4a bc 7f 76 45 bd
       -0.045411713 -0.048845164 -0.0123892585 -0.04820871
000260 56 b3 a9 3c 03 d9 76 bb 10 69 a8 bc 71 a2 16 3c
       0.020715397 -0.003766597 -0.02055791 0.0091940025
000270 c7 dc 42 bd 65 ca 41 3c 7b 30 b4 3c 58 16 99 ba
       -0.04757383 0.01182804 0.021995774 -0.0011679633
000280 66 db 4a bd 4a c3 71 bc 4a 11 ee 3c 16 c8 0a bd
       -0.04952564 -0.014756033 0.029060978 -0.033882223
000290 b1 11 00 bd 06 2c 51 bb 06 a4 eb bc bd 82 a6 bc
       -0.03126687 -0.003191711 -0.028764736 -0.020326013
0002a0 27 c8 10 3d a9 8a af bc 8f 81 2f bc 29 4a c7 3c
       0.03534713 -0.021428423 -0.0107120415 0.024327355
0002b0 70 1a bc ba 51 c2 be 3b 05 dd 34 3d 13 4c 5d 3c
       -0.0014351141 0.005821504 0.044156093 0.013506907
0002c0 da 32 b9 3d 24 a3 91 3d ba d5 14 3c e3 18 72 3d
       0.09042902 0.07111195 0.0090841595 0.059105765
0002d0 c4 80 14 3d 5a c1 d8 3c c5 d7 b7 bc af ae 93 3d
       0.036255613 0.026459385 -0.022441754 0.072110526
0002e0 59 52 cd bc f6 66 38 3d a0 97 01 bc e8 9b 5d bc
       -0.02506368 0.045020066 -0.007909685 -0.0135259405
0002f0 39 7f a8 3d 06 6f cb ba 50 e5 93 3d 40 c2 51 3d
       0.08227391 -0.0015520758 0.07221472 0.05121064
000300 92 56 1c bb d7 b7 04 3d ce ed 99 3d 25 c4 ad bb
       -0.002385531 0.032401886 0.07516061 -0.0053029233
000310 66 4c 92 3d ee b4 9e 3c 68 94 e9 ba 3a 20 79 3b
       0.07143478 0.019373383 -0.0017820718 0.0038013593
000320 26 33 8c 3d c9 ea 28 3d 07 ce e8 3c 5f 75 37 3c
       0.06845693 0.041239534 0.028418554 0.011197417
000330 a8 cc 71 3d ec ca 55 3d 2e ba 7b 3d 57 47 e3 3c
       0.059033066 0.052195475 0.06145685 0.027743978
000340 4e ab 7b 3b ef ea 26 3d 57 d1 35 3d fd c7 37 bd
       0.0038401666 0.040751394 0.044389095 -0.044868458
000350 c2 76 5f bc 9a cf 20 bd c3 64 17 3c 15 ce 12 3d
       -0.013639154 -0.039260484 0.009240332 0.035841066
000360 53 1b dc bc e3 63 1a 3b cf 24 64 bd 04 85 20 bb
       -0.026868498 0.0023558072 -0.055699166 -0.0024493346
000370 10 70 e1 3c c7 c2 3e 3d 13 4c 21 bb 6e 31 a9 3a
       0.027519256 0.046572473 -0.0024611994 0.0012908408
000380 df 40 25 3d 86 8d 24 bd 5a d4 20 3d 1c 78 2d bd
       0.04034507 -0.04017403 0.039265014 -0.042350873
000390 74 d4 9a bc e8 d7 17 bd f5 ed 7d 3c 6c 4c bb bc
       -0.018900134 -0.03707114 0.015498628 -0.02286359
0003a0 74 ed 97 3d 09 69 0b 3d d8 f3 99 3d 2f aa 8d 3b
       0.074183375 0.034035716 0.07517213 0.004323266
0003b0 f5 56 00 3d 76 b0 8a 3a bb 52 a3 3d 7b 32 3b 3d
       0.03133293 0.0010581154 0.07974764 0.04570244
0003c0 d9 7d da 3b dd 7e dd b9 a0 92 0e bd 01 15 92 bb
       0.0066678342 -0.00042246925 -0.0348078 -0.0044580703
0003d0 21 ea 7f 3b e1 b6 13 bc d0 f5 92 bc b1 36 3f 3d
       0.0039049464 -0.00901577 -0.017939478 0.046683017
0003e0 cb ff 40 bd ba e7 13 bc a3 b9 de bc cb 47 dd bc
       -0.047118943 -0.009027416 -0.027188128 -0.027011773
0003f0 16 04 e0 3c db 7b 58 3c ab 22 5d bd 37 4f b3 3c
       0.027345698 0.013213123 -0.05398814 0.021888359

features_extractor.fc_merge.bias f4 [352]
000000 fe 15 8a 3d 3e 3e bc 3c 12 ec 6a 3d 60 31 c4 3a
       0.06742476 0.022978898 0.05735404 0.0014968328
000010 51 91 7c 3d 46 4e 85 bd 26 9a 4c bd c1 df 56 3d
       0.061662022 -0.0650907 -0.049951695 0.052459482
000020 3c f8 e8 ba 7b 88 80 bc 42 c7 8b ba df ba 36 3d
       -0.0017774175 -0.015690079 -0.0010664242 0.044611808
000030 ab 61 7e bd 16 bb 7f 3d de 84 49 3d 55 fa 3a 3b
       -0.062104862 0.06243428 0.049198978 0.0028530557
000040 c7 c9 cf 3c a5 a7 42 bd df 84 47 3d b7 44 23 3c
       0.02536477 -0.04752316 0.0487107 0.009965113
000050 63 85 4f 3d 9e ef c2 3c b4 8f 49 bc 44 a3 33 3d
       0.050664317 0.023795899 -0.012302328 0.043856874
000060 8b 34 c4 3b 1d 82 7f bd 5c 22 d4 bc cb 64 e7 bc
       0.005987709 -0.062379945 -0.02589529 -0.028246304
000070 ea c7 eb bc 6b b0 cc bc 4e 88 ea 3c f2 42 23 bd
       -0.02878185 -0.024986466 0.028629448 -0.039858766
000080 46 e0 e9 3c d2 50 7b 3d 6a 16 e0 3c 50 32 25 3d
       0.028549325 0.061356373 0.027354438 0.040331185
000090 f3 58 c2 bc 1d d1 40 3d 47 d4 56 bc 08 16 8d bc
       -0.023724055 0.047074426 -0.013112134 -0.01722242
0000a0 48 9b a3 bc 4d 4e 90 ba 7e 77 48 bd d7 c7 98 bc
       -0.019971505 -0.0011009664 -0.04894208 -0.018649979
0000b0 60 24 39 bd 20 eb 24 3d b3 2a 56 bc fb 97 45 3d
       -0.045200706 0.040263295 -0.013071704 0.048240643
0000c0 c4 e6 a2 3c ad 9a 2c 3d 6a 52 85 bb ac 39 7f 3c
       0.019885428 0.042139698 -0.0040686624 0.015577715
0000d0 d2 03 92 3d f5 e0 24 3d a4 6b c8 3c d9 3a 1a 3d
       0.07129635 0.0402536 0.02446539 0.037653778
0000e0 69 59 0c 3c 4e de 45 3c fe 1d 52 3b 0a a2 6a 3c
       0.008566239 0.012076927 0.0032061334 0.01432086
0000f0 73 dc 02 bd 3f 76 12 3d 54 27 c6 bc 1e 53 10 3d
       -0.031948518 0.0357573 -0.024188675 0.035235517
000100 75 71 e8 bc ee 7e a3 bc b8 96 5e 3c dc c5 3c bd
       -0.028374413 -0.019957986 0.013585739 -0.04608713
000110 45 10 f5 bc d8 27 1c 3d 3a 9b 92 bb 98 ea 16 bd
       -0.029914984 0.038123935 -0.004474071 -0.03684482
000120 50 3d 54 3d 62 6d 23 ba 1e dc 12 bc f2 ec c1 3b
       0.051816285 -0.0006234256 -0.008963613 0.0059181387
000130 7e c0 d5 bc 17 9d 14 bd 21 7a bf 3b 1c 5b 84 3c
       -0.026092764 -0.036282625 0.0058434163 0.016156726
000140 2c cf 93 bc 9b 60 75 bc 86 97 54 3d aa c5 82 3c
       -0.018043123 -0.014976646 0.051902317 0.015963394
000150 77 30 7f bd 7d f3 71 3d a3 0c 25 bd e7 b4 e7 3c
       -0.06230208 0.0590701 -0.040295254 0.028284503
000160 c5 13 0e 3d d2 05 03 3d 32 0b 8e 3d 11 ff 8f bc
       0.034686822 0.031987973 0.06935729 -0.01757768
000170 40 25 e6 3c d7 eb 48 3d d8 78 10 bd 33 cb 98 3b
       0.028093934 0.04905304 -0.035271496 0.004662895
000180 bf c6 9f 3c 03 9e 3b bd 8f 69 5d bc 93 08 1c bd
       0.01950395 -0.04580499 -0.013513937 -0.038094115
000190 a5 bd 88 bc 16 a4 9d bc ef 87 0b 3d 65 8d 9a bc
       -0.016691992 -0.019243281 0.034065183 -0.01886625
0001a0 8d ca e3 3c e5 fe 2f bd 92 fb 2e 3c 82 c2 37 3d
       0.027806545 -0.042967696 0.010680096 0.04486323
0001b0 56 5b 93 3d 49 35 46 3d c8 2d c9 bc af eb f0 3c
       0.07195155 0.04839066 -0.024557963 0.029409258
0001c0 dc d3 b1 3c a8 6e a1 bc 27 60 f3 bc 9d 63 45 bd
       0.021707468 -0.019706085 -0.029708935 -0.0481907
0001d0 50 fe 2f 3d 3d f4 ef bc 44 0d 75 3d 7b a3 ec 3c
       0.04296714 -0.029291267 0.059827104 0.028886547
0001e0 b2 be 13 bc 32 6b 4d 3d 90 0f cc bb e2 a5 cf 3c
       -0.009017633 0.050151058 -0.006227441 0.025347654
0001f0 ca 18 6d bb 9a 50 ad 3c 73 3b 82 3c ae 89 16 3d
       -0.0036178106 0.021156598 0.015897488 0.036752395
000200 94 23 26 3d 7b a6 40 3d 64 7f 96 ba 76 86 a1 bc
       0.040561274 0.04703377 -0.0011482057 -0.019717436
000210 50 b7 6b 3c ad 8f 07 bc d5 b3 2d bd 95 76 bd 3c
       0.014386967 -0.008274001 -0.04240783 0.023127833
000220 f0 0c 88 3c 41 f8 18 bd f1 31 df bc 30 1d fe 3b
       0.016607732 -0.03734613 -0.027245494 0.0077549443
000230 2a a7 56 bd 53 61 0a 3d 0a 18 71 bd 39 cd b8 bc
       -0.052405514 0.03378422 -0.058860816 -0.022558795
000240 09 f8 90 bc fa 58 c8 3c 0c 5e 10 bd c3 01 d2 3c
       -0.017696397 0.02445649 -0.03524594 0.025635606
000250 3f 25 3e bd 93 8d 8c 3d 48 e1 15 bd f5 87 ac 3b
       -0.04642224 0.06862941 -0.036591798 0.005265231
000260 d8 a7 57 3d 70 95 0e bd c9 57 14 3d d0 41 b0 3c
       0.052650303 -0.034810483 0.03621653 0.021515757
000270 4b db 44 bd 9f ef 8a 3c f5 79 57 3d fe f4 f5 3c
       -0.048060697 0.016959963 0.05260654 0.030024048
000280 b0 43 b2 3c f5 84 82 bd 39 34 3d 3d 5b 39 19 3d
       0.021760792 -0.06373016 0.04619238 0.037408214
000290 c2 da f3 b9 8c 0a 20 3d 42 c0 79 bd 08 36 ac 3c
       -0.0004651156 0.03907256 -0.060974367 0.021021858
0002a0 a2 fa 85 3c db 3d b6 3b 50 6d f0 bc 69 4e 66 3d
       0.016354863 0.005561573 -0.029349 0.05622712
0002b0 13 b3 94 3c 64 af 13 bd df ad 93 3d 17 df 41 3d
       0.018151795 -0.036055937 0.07210898 0.047331896
0002c0 f9 b1 d5 3c a8 e3 77 3d b6 2c 18 bd 24 9c 14 bd
       0.02608584 0.060519844 -0.037152015 -0.03628172
0002d0 9f 64 a9 3c 52 e0 43 3d 0e 5e 49 3d d3 b6 f5 bc
       0.020677863 0.04782135 0.049161963 -0.029994404
0002e0 7a fc 40 bd 10 6d 83 bb 03 79 7b bb 7c 18 4b bd
       -0.04711578 -0.004010804 -0.003837169 -0.049583897
0002f0 82 33 ac bc 48 af 8b bd 7e 90 6f bd b7 0b 19 bd
       -0.021020655 -0.068205416 -0.058487408 -0.037364688
000300 2f a3 12 3d 82 1e db 3c 55 18 2d 3c 95 dc 2c bc
       0.035800155 0.026747946 0.010564883 -0.010550638
000310 cb d5 96 3c 3a 9a e9 3c 56 76 1b 3b e2 1f e7 bb
       0.018412491 0.028515924 0.0023721657 -0.0070533613
000320 3a 50 af 3c 60 65 84 3d ae 64 2d bd 6a ce cc 3c
       0.02140056 0.06464648 -0.042332344 0.02500077
000330 10 b3 22 bd 87 97 0e bd c2 d4 29 bc 02 a8 2e 3d
       -0.03972155 -0.034812476 -0.010365667 0.042640693
000340 3c a4 b2 bc 92 77 84 3c 8d 7b 03 bd 25 d8 f1 bc
       -0.021806829 0.016170297 -0.03210025 -0.029522011
000350 5b 5d 3f 3d 78 f8 d9 bc ea 4e 06 3d 12 34 28 bc
       0.04671989 -0.026607737 0.032790102 -0.010266321
000360 ef a6 e1 bc 60 95 80 bc a7 17 76 bc f4 da 44 3c
       -0.02754542 -0.015696228 -0.015020288 0.012015093
000370 e2 84 29 3b 5c 64 95 bc 75 5c c0 bc fa 8e 46 bd
       0.0025866558 -0.018236332 -0.023481587 -0.048476197
000380 4c c7 b8 3c c4 e7 4e bd 7b d2 5b bd b5 c3 06 3d
       0.02255597 -0.050513998 -0.053667527 0.032901485
000390 6f ac ef 3c 44 be 2d bc bb 1f 03 bd 35 8d 82 3d
       0.029257027 -0.010604445 -0.032012682 0.06374589
0003a0 ca 81 80 3c ed 32 d9 3c 8e 2a 09 bd ba 29 5f 3b
       0.015686888 0.026513541 -0.03348785 0.003405197
0003b0 33 d7 4f 3d 14 90 20 3d 97 cc 89 3c 42 89 85 3d
       0.05074234 0.039199904 0.016821189 0.065203205
0003c0 66 54 5a bd 18 4b b9 bc ff ed d3 bc 96 5b 90 3c
       -0.053303145 -0.022618815 -0.025870321 0.017621797
0003d0 b1 02 28 bd ac 2c 81 bd 64 78 60 bb 0e d3 8c 3c
       -0.04101819 -0.063073486 -0.0034251446 0.017190482
0003e0 6e 10 c5 bb 8d 1e 8d 3d 58 93 66 bc 73 c9 99 bc
       -0.0060139215 0.06890593 -0.014073215 -0.018772816
0003f0 e5 58 29 bd 74 6e 20 3d 50 dc 48 3c b8 f6 78 bd
       -0.041344542 0.039167836 0.012259558 -0.060782164

actor.weight f4 [10, 352]
000000 c8 2a 76 bc bf e4 5d bc 98 88 3c bd fa 43 b7 3c
       -0.015024848 -0.013543307 -0.046028703 0.022371281
000010 1b 24 d1 3b 95 0c 6f 3d 3f b5 fc bb 52 71 e9 bc
       0.006382478 0.05836161 -0.007712036 -0.028496418
000020 8b 71 0b 3d c3 49 38 3d 37 1a 87 3d aa a6 51 3d
       0.03404383 0.04499222 0.06596797 0.051184334
000030 e7 11 7c 3c 98 8c 1a 3d 5a 8a d3 3c f2 37 0d 3d
       0.015385128 0.037731737 0.025822807 0.03447718
000040 43 ee a5 3c 54 76 94 3b 96 42 17 3d 7a b0 06 3d
       0.020255214 0.0045307074 0.036928736 0.032883145
000050 c5 83 08 bc 54 1c a0 3b 62 21 0e 3d fc 08 c8 3a
       -0.008332198 0.0048861895 0.034699805 0.0015261467
000060 3a 3f 1d 3d 7d 52 10 3d 59 81 0c 3d 79 67 d0 bb
       0.038390376 0.035234917 0.034303043 -0.006359991
000070 e3 86 06 3d 7f a1 4f 3c f3 ec 1c 3d 45 73 f6 3c
       0.03284348 0.012672781 0.03831191 0.030084262
000080 96 15 f4 3b 11 2d 5d 3d f1 4e 7c bc 28 de 93 bc
       0.0074488623 0.053998057 -0.0153996805 -0.018050268
000090 bc 9a 55 3d e7 22 c8 3b 6f 63 bd 3c 32 b2 8c 3d
       0.05214952 0.0061076763 0.023118703 0.068699256
0000a0 01 11 1c 3d cb 3f 13 3d 0f 50 8c 3c 22 26 e0 3b
       0.038102154 0.03594951 0.017128019 0.0068404833
0000b0 85 87 0b bd 8f ee d0 bb 51 96 ce bc d2 f8 2f 3c
       -0.03406479 -0.0063760947 -0.02521816 0.010740476
0000c0 b6 02 aa 3c e5 8b 51 bb 68 8f 1c 3d e5 ad ba 3c
       0.020753246 -0.0031974253 0.0382227 0.022787997
0000d0 57 77 3d bd 27 e9 2c bd 33 f1 18 bd 10 fc f2 bb
       -0.04625639 -0.04221454 -0.0373394 -0.007415302
0000e0 3d c6 3d 3c 66 75 c8 bc 00 c8 b6 bc 71 f5 16 bc
       0.011582908 -0.024470042 -0.022312164 -0.009213791
0000f0 c2 e1 89 bc 19 a3 8c bc 94 3e 3b 3d 15 a8 17 bd
       -0.016831283 -0.017167615 0.045713976 -0.03702553
000100 c3 57 92 bc 33 b7 28 bd a2 7e e7 bc 80 ff 94 3c
       -0.017864114 -0.041190337 -0.028258625 0.018188238
000110 21 3b 3f b9 55 63 cd bc ce 01 16 3d 53 79 30 3d
       -0.00018237207 -0.02507178 0.036622815 0.043084454
000120 32 c9 31 bd ff 0c e8 bb 90 e8 0e bc 83 16 08 bc
       -0.043404765 -0.0070816274 -0.008722439 -0.008306148
000130 b6 42 25 bc 9b 37 be bc a7 04 16 bd 01 ea 97 3c
       -0.010086706 -0.023219874 -0.03662553 0.018544199
000140 cc 58 34 bd 44 e6 3f bc 2f 05 4f 3c 7f be 53 3d
       -0.044029996 -0.011712614 0.012635513 0.051695343
000150 28 cc cb 3c 6c b1 a8 3c 2f 7e 1b bc bd 80 26 bd
       0.024877623 0.020592414 -0.009490534 -0.04065012
000160 e0 1c c5 3b 2c ad 00 3d 7d 71 bf bb 64 fd 42 3d
       0.006015405 0.03141515 -0.0058423863 0.047604933
000170 0f e7 23 3c 70 38 cd 3b b3 9f 13 3d 90 81 23 3d
       0.010003819 0.0062628314 0.036040973 0.039918482
000180 de 97 12 bd 79 97 46 3d e3 14 a4 3c 3f 25 13 bd
       -0.035789363 0.0484843 0.02002949 -0.035924193
000190 a7 24 01 bd 58 07 f7 bc 55 44 36 3c c5 5e 4f bc
       -0.031529095 -0.030154869 0.01112469 -0.012656872
0001a0 91 87 33 3d 23 ff fc bc ed 85 6b bd 63 2c 4c bd
       0.043830458 -0.030883377 -0.05750077 -0.049847018
0001b0 18 a3 00 bd 50 48 a8 3c 36 59 b1 3c d4 2c 4a 3d
       -0.03140554 0.020542294 0.021648984 0.049359158
0001c0 0b 4d 89 bb de 7a 24 b9 77 86 14 3d 1c fa 45 3d
       -0.0041900924 -0.0001568603 0.03626105 0.048334226
0001d0 81 00 4a 3d 21 c8 ad 3b 58 91 5e 3d c0 8a 39 bb
       0.049316887 0.0053033982 0.05433783 -0.0028311461
0001e0 77 fc 3b 3c 16 c1 21 bd 94 10 be 3c 9e fe ec bc
       0.0114737665 -0.03949078 0.023201264 -0.028930005
0001f0 58 df 72 3d 17 db 36 3c c3 0c 0c bc 74 c2 3d 3d
       0.05929503 0.0111606335 -0.0085479645 0.046328023
000200 6f 14 e7 bb 9a c2 df 3b 33 5f 41 3d c4 c6 5c bc
       -0.0070519964 0.0068286182 0.04720993 -0.013475124
000210 a8 c1 24 bd d2 25 fe 3b 92 6c 92 3d b6 cd 99 bb
       -0.040223747 0.0077559734 0.071496144 -0.004693712
000220 52 7b 52 3c c0 39 e2 bc 7d 27 1a bd 49 53 de 3c
       0.012846785 -0.027615428 -0.037635315 0.027139323
000230 0c 3f 1c bb 5b ef 73 bd 83 27 bb bb dd 3a 8d bc
       -0.002384129 -0.05955444 -0.0057114973 -0.017239982
000240 83 9d 6b bc 36 fe e4 3c f3 b8 27 bc 26 0d 24 bd
       -0.014380815 0.027953248 -0.010236966 -0.0400516
000250 f3 62 a5 3a b8 ba 47 3d ea e6 55 3d 6f 5e 30 3d
       0.001261799 0.048762053 0.05222217 0.04305881
000260 fe 28 44 bd a7 95 e3 3c fd 4f ab bb e7 aa 20 3c
       -0.047890656 0.02778132 -0.005228041 0.009806371
000270 4d 39 60 3d 68 76 96 3c 65 d1 90 bc 79 6f 10 3d
       0.054742146 0.018367007 -0.017677972 0.03526256
000280 f2 4f 6c 3b 1f a2 ee bc 1e 68 28 bd 73 9c 9f bc
       0.0036058393 -0.02913004 -0.04111492 -0.01948378
000290 1f ac 2d bc 52 a1 3e 3d 73 85 19 bc 21 1b a1 3b
       -0.010600119 0.046540566 -0.009370196 0.004916564
0002a0 88 8e 33 bd 3f d5 e1 bb 5e 84 05 bd 72 29 ee 3c
       -0.0438371 -0.006891876 -0.03259694 0.029072497
0002b0 1c c7 b5 bb 2b 09 16 3d 6c 55 12 3d b7 01 e3 bb
       -0.0055474173 0.036629837 0.035725996 -0.0069276947
0002c0 6a 71 47 3d 09 6d d8 3c bc 70 7f 3d 8b 4e bb bb
       0.048692144 0.02641918 0.06236337 -0.00571615
0002d0 eb 5e d6 bb d1 5c 57 3c a1 ac a6 bb 30 00 c0 3b
       -0.006542077 0.013144688 -0.005086497 0.0058593974
0002e0 21 0e e4 bc d4 4c 16 3d 2a 33 a2 bb c8 4b d9 3c
       -0.027838768 0.036694363 -0.004949947 0.026525393
0002f0 38 03 62 3c 65 2c 4b 3d fd 22 49 3b c2 94 49 3d
       0.013794713 0.049602885 0.003069102 0.049214132
000300 eb 9c 3f bc c3 75 21 3d 32 53 02 bc 2a ef 19 3c
       -0.011695127 0.039418947 -0.007954406 0.0093954
000310 5f bb 30 3c b6 2a 99 3d 2b 7b e3 3c 3f 8c 11 3d
       0.01078686 0.074788496 0.027768692 0.03553414
000320 a3 d8 f8 bc 30 5a 29 3c 86 46 0e bd bc 6b fc 3c
       -0.030376738 0.010336444 -0.034735225 0.03081309
000330 aa 25 8b 3c 00 7c c5 3b e6 bd 01 bd 32 78 99 3b
       0.016985733 0.006026745 -0.031675242 0.004683518
000340 b8 5f 2d 3d 71 62 7a 3c 26 4d 43 bd e9 66 03 3a
       0.042327613 0.015282259 -0.047680996 0.0005012588
000350 03 b0 50 3d 56 dc fa 3c 2e 4b 0f 3c 82 6f 63 bb
       0.050949108 0.030622642 0.008745952 -0.0034703915
000360 7c bf eb 3c 55 39 0a 3d 93 c6 27 3d 64 01 1a bc
       0.02877783 0.033746082 0.04096086 -0.009399746
000370 47 7d 09 3d ae 53 4c bd 4c 00 9e 3b 4a eb 03 3d
       0.03356674 -0.04988449 0.0048218127 0.03220681
000380 92 79 8a 3c 54 5a 87 3d 92 35 46 3d fc 23 3c bc
       0.016903672 0.066090256 0.048390932 -0.011483189
000390 1f bc 20 3d 10 cf 36 3b 20 b6 ac 3c d2 bb 9b 3c
       0.039241906 0.0027894415 0.021082938 0.019010458
0003a0 73 0d be bb ae 4d 0d bd dd de 94 3c 18 e1 60 3d
       -0.005799943 -0.03449791 0.018172676 0.054902166
0003b0 1a 37 cf bc bd 7c 2a 3b d7 b2 37 3d c1 9a 25 bd
       -0.02529483 0.0026014291 0.04484829 -0.040430788
0003c0 24 fb 6d bc 04 69 fd 3c 40 0c 92 3d fc 69 a7 3c
       -0.014525209 0.030933864 0.07131243 0.02043628
0003d0 61 c4 0e bc 3c d2 1d bc 5f 26 8d bc 62 a4 4e 3c
       -0.008713813 -0.009632643 -0.01723021 0.012612434
0003e0 bb 05 05 3d b7 75 1a bd e0 49 38 3d b9 96 43 bd
       0.032476168 -0.037709918 0.044992328 -0.047751162
0003f0 70 c1 fe bc af 05 e2 3c 8e a7 81 3b b3 51 0d 3b
       -0.031098098 0.0275906 0.0039567417 0.002156359

actor.bias f4 [10]
000000 53 9d c7 bc c9 c9 4e bc c3 b1 fa ba 8a b6 ea bc
       -0.02436701 -0.0126213515 -0.0019126463 -0.028651495
000010 75 8e 18 bd e2 3a 12 3c bc 4a af bc 9a 44 62 bb
       -0.037245233 0.008925172 -0.02139794 -0.0034525753
000020 14 3f 33 3b dc 89 d8 bc
       0.002735083 -0.026432924

critic.weight f4 [1, 352]
000000 7f cf 6f 3d 20 a3 0e 3d 11 04 9b 3c b5 e0 36 3d
       0.058547493 0.034823537 0.018922837 0.04464789
000010 c6 50 09 3d 45 79 0d bd 55 40 59 bb 59 43 ee 3c
       0.033524297 -0.03453948 -0.0033149917 0.029084848
000020 51 21 43 3c 7a 95 d7 bc a0 98 26 bd 1b 07 42 bd
       0.011909799 -0.026316393 -0.0406729 -0.047370058
000030 ec 11 1f bd f1 8c a7 3c c3 45 b3 3c 17 b7 bd 3c
       -0.03883545 0.020452948 0.02188385 0.023158593
000040 a6 b4 9d bc 54 a3 0f bd 4f 9b f7 3c bd b7 47 3d
       -0.019251179 -0.03506787 0.030225424 0.04875921
000050 ff eb 6c 3c 49 94 01 bd 98 55 b8 3c 9f 70 09 3d
       0.014460563 -0.031635556 0.022501752 0.03355467
000060 76 82 5f 3c a0 8c 2e bd 50 05 14 bd 74 d8 06 bc
       0.013641944 -0.04261458 -0.03613788 -0.008230317
000070 76 a8 e6 3c 9d 4c 46 bd 3f a9 6b 3d 1f 72 1e bc
       0.0281565 -0.048412908 0.057534453 -0.009670763
000080 f4 5b 39 bd 5a c3 02 3c d4 c6 f3 3c e3 fe e6 3c
       -0.04525371 0.007981146 0.029757895 0.028197711
000090 1c c8 22 bc cb 92 4a ba 21 5d da 3c e6 37 8c bc
       -0.009935405 -0.00077275623 0.026655735 -0.017116498
0000a0 9c 16 47 bd ff 2d 14 3d 82 e8 0a bd 4c a0 98 3c
       -0.048605546 0.036176678 -0.033913143 0.018631123
0000b0 3b b1 41 bd 84 4a d1 3b a9 da 0e bc 61 71 f4 3c
       -0.04728816 0.006387057 -0.008719125 0.02983922
0000c0 a1 1a ce 3c b2 ef 63 3c 10 06 12 3d 3d 1d e8 bb
       0.025159182 0.013912128 0.035650313 -0.0070835636
0000d0 63 9e 08 3d d5 17 64 3d fb 16 73 3d 58 17 f2 38
       0.033354174 0.05568679 0.059348088 0.00011543807
0000e0 03 a3 10 bd bc 6b 17 bc be 9f 99 3d 51 55 22 bd
       -0.03531171 -0.0092419945 0.075011715 -0.039632145
0000f0 85 d2 38 bd f9 0f 43 3b f0 63 a6 3c 2a 92 c7 bc
       -0.045122642 0.002976416 0.020311326 -0.024361689
000100 34 9d 3c 3c 8f bf ac 3c bc c8 8e bc 0e d4 43 bd
       0.0115120895 0.021087436 -0.017429702 -0.047809653
000110 0e d3 d5 3b 32 60 be 3c 07 fd a0 3b bd 4a 36 bd
       0.006525404 0.023239229 0.0049129757 -0.04450487
000120 11 32 a2 3c b0 26 2a bd 75 5a 4b 3d de 6b 20 bd
       0.019799264 -0.0415408 0.049646813 -0.03916537
000130 1a 97 a6 bc e1 a2 2e bb 8b a2 e2 bb 05 42 2a bc
       -0.020335723 -0.0026647376 -0.0069163493 -0.010391717
000140 71 eb 39 3d 96 68 a8 ba 12 77 37 3d d2 46 10 bc
       0.04539055 -0.0012848552 0.04479129 -0.008805947
000150 0f 9b 58 bd ce d9 66 3c 93 cb 59 bd a6 c8 ae bb
       -0.05288225 0.014090015 -0.05317266 -0.0053339778
000160 2c 84 5e 3d 7a f2 85 3c ac 25 bd 3c 50 69 5f bc
       0.054325268 0.016350973 0.023089252 -0.013635948
000170 b7 ac d5 bb a9 c0 d3 3c ef d4 04 bd 5b 99 39 bc
       -0.0065208334 0.025848703 -0.03242963 -0.011328067
000180 e5 f7 23 3d 62 fb 11 bc ed 67 b2 3d e0 e0 25 bd
       0.040031333 -0.008910032 0.087112285 -0.04049766
000190 d6 9c 04 3d b5 b0 a8 bc 69 52 45 3d 31 9b 6b 3c
       0.032376133 -0.020592073 0.048174296 0.014380262
0001a0 96 7c 59 bd 88 a8 bc 38 ed 33 30 3d 10 8f 41 3d
       -0.05309733 8.99593e-05 0.04301827 0.047255576
0001b0 b0 85 31 3d cb ed cf 3c 1c 9a 2a 3d 7b 39 7d 3c
       0.043340385 0.025381943 0.041650876 0.015455599
0001c0 95 7e 38 bd f8 7d 34 3d 98 3a 4f 3d 54 6b 12 ba
       -0.045042593 0.044065446 0.05059299 -0.0005585451
0001d0 79 f8 8d 3b 1d b0 d1 3c 8b bb 0b 3d 08 45 0e 3d
       0.0043325988 0.025596673 0.0341144 0.034733802
0001e0 45 b9 0b bd f7 44 e1 3c 2e 37 83 3c 7d c9 42 bd
       -0.034112234 0.027498705 0.016017523 -0.047555435
0001f0 58 55 80 3c b4 73 62 3a 2d c2 a2 bc 73 36 48 bd
       0.015665695 0.0008638457 -0.01986798 -0.04888005
000200 df dc 3f bd 94 ea c7 3c d1 de 66 bd c5 84 57 3c
       -0.0468415 0.024403848 -0.056364838 0.013154213
000210 bb c8 be bc 6c 78 91 3d 24 13 f9 bc a9 0c f5 bb
       -0.023289075 0.07103047 -0.030404635 -0.007478316
000220 07 d8 1f bd 9d 49 ed 3c 88 c5 5c 3d 6e 1d 26 bd
       -0.03902438 0.028965766 0.053899318 -0.04055541
000230 14 be 5c bc 3a 99 a8 bc 61 9f 9d bc 76 a4 d2 bb
       -0.0134730525 -0.020580877 -0.019241037 -0.0064282967
000240 37 d3 23 3d fe 6e a8 3c 55 52 3b bd 04 04 0a 3d
       0.039996352 0.020560738 -0.045732815 0.033695236
000250 c1 01 87 bb 16 55 81 3c d1 19 fd 3a ec 50 d1 bb
       -0.004120082 0.015787642 0.0019310062 -0.0063878205
000260 d0 6b 55 3d 49 92 1a bd b0 8e ca bc af 58 3b 3d
       0.05210477 -0.037737165 -0.024726242 0.045738872
000270 7c ec 39 bd ce b0 3b 3d e1 6c 1a 3d ad 8d 51 3d
       -0.045391545 0.04582291 0.03770149 0.051160503
000280 33 d5 0b 3d 40 da 14 bd b7 56 d6 3c 34 fb 3a 3d
       0.03413887 -0.036340952 0.026164396 0.045649722
000290 2f 9b 5e 3d c9 fc 83 3b 5e 72 fd bb 5b 93 bd 3c
       0.054347213 0.004027937 -0.007734581 0.023141554
0002a0 c8 42 16 bd b2 63 29 bd 2b 72 d4 bc 81 8a 3f 3d
       -0.03668478 -0.041354842 -0.025933346 0.046762947
0002b0 1f 75 1c bd 87 fc e5 bb 29 60 0a 3c 34 66 af 3b
       -0.038197633 -0.007018629 0.008445778 0.0053527597
0002c0 06 8b e0 bc a4 8a 47 3d c3 43 46 bd 28 96 27 bd
       -0.027410042 0.048716202 -0.048404466 -0.040914685
0002d0 4f a4 7e 3d c2 21 16 3d 95 7b 4b 3d 22 e9 fe 3b
       0.062168416 0.036653288 0.049678404 0.0077792564
0002e0 07 c1 25 bd 81 9b 0e bd 23 b5 06 bd ce e4 36 bd
       -0.04046729 -0.03481627 -0.03288759 -0.0446518
0002f0 23 b5 57 bd 18 65 46 bc 37 ba ad bc d5 5c 2e bd
       -0.05266298 -0.012109064 -0.021206958 -0.042569
000300 aa 04 8f bc aa 52 a6 ba 4f 27 31 bd 14 56 92 bc
       -0.017458279 -0.0012689431 -0.04325038 -0.01786331
000310 5f 31 a7 39 28 d9 cf bc 05 31 1e 3d 90 9d 45 3d
       0.00031889506 -0.025372103 0.038620967 0.048245966
000320 f8 5d 22 3d 82 69 55 3d bc 7c 8b bc 5b 5b 73 bd
       0.039640397 0.052102573 -0.017027251 -0.059413295
000330 bb 2d 1c bd 2b f1 49 3c 8b 6f e7 bc 35 50 9d 3c
       -0.03812955 0.012325565 -0.02825143 0.019203285
000340 1f 1b 2b 3d 9a c9 aa 3c ba 7c 29 bd ae 12 3d bd
       0.04177391 0.020848084 -0.041378714 -0.046160392
000350 08 bf f7 3c 73 92 b2 bc c0 23 b9 3c bb ba 0b bc
       0.030242458 -0.021798348 0.022600055 -0.008528407
000360 92 b5 90 bc 1b a2 d0 3c 43 e0 6e 3d 19 b2 97 bc
       -0.017664704 0.025467923 0.05831934 -0.01851754
000370 af f6 2c 3d dd fe a5 3c 11 c1 de bc 4d d4 5e bc
       0.042227443 0.02026313 -0.02719167 -0.013600421
000380 b9 09 1c 3d 9f 09 07 bd d5 72 5b bc ba a2 2f 3d
       0.03809521 -0.03296816 -0.013394077 0.042879798
000390 91 b4 44 3d 54 d4 67 3d b5 6d 8a 3d 6a 93 ab 3a
       0.048023764 0.056598976 0.06759206 0.0013090197
0003a0 4f 25 30 3b 06 17 75 3d 28 06 3c 3d cd 78 12 bd
       0.0026877706 0.05983641 0.04590431 -0.035759736
0003b0 a7 38 71 3d c4 2b d0 3c e5 e1 79 bb 48 51 65 3b
       0.05889192 0.025411494 -0.0038129028 0.0034991074
0003c0 45 35 eb bc af eb 92 bc f3 d0 6b bc 1f a3 c5 bc
       -0.028711924 -0.017934648 -0.014393079 -0.024125634
0003d0 5d f1 79 bc 6c a2 24 bd 93 cc 07 bd 0b f3 3c 3c
       -0.015255299 -0.04019396 -0.03315408 0.011532555
0003e0 cd 5b 51 3d 61 a3 51 3d 45 04 49 3d 16 e2 c8 3c
       0.05111294 0.0511812 0.049076337 0.024521869
0003f0 75 13 26 bd 6c 3a 4c 3d d5 d4 b4 bc a5 dd 4c bc
       -0.0405459 0.049860403 -0.022074142 -0.012504016
