gym_models_4/model_550.pth (torch, 518546 bytes, 11 tensors)

features_extractor.conv1.weight f4 [16, 4, 4]
0	0xbe12aeda	-0.14324513
1	0xbea64eb7	-0.3248193
2	0xbe96c9ab	-0.29450735
3	0xbda3cdfc	-0.07998273
4	0x3e3045e3	0.1721416
5	0x3cc14dfc	0.023596756
6	0xbd183bee	-0.03716653
7	0xbe363c86	-0.17796525
8	0x3e9e0fcc	0.30871427
9	0xbdaa7ca8	-0.083245575
10	0xbe184ff8	-0.14874256
11	0x3e11c506	0.14235315
12	0x3e0e4179	0.13892163
13	0x3e9d6aad	0.3074545
14	0xbc183f6e	-0.009292467
15	0x3e1d1f70	0.15344024
16	0x3e13e999	0.14444579
17	0x3e8e5bc1	0.27804378
18	0xbd69c53a	-0.057072856
19	0x3e9e095f	0.30866525
20	0x3e72522d	0.2366416
21	0x3d75c233	0.059999656
22	0xbda5cd3d	-0.08095787
23	0xbd69f5c0	-0.05711913
24	0xbe45fbb9	-0.19334306
25	0xbd838f7b	-0.06423851
26	0xbdea5561	-0.11442066
27	0xbd6dd370	-0.05806297
28	0x3d77d26f	0.06050342
29	0x3e1140fb	0.14184944
30	0x3db28c6f	0.08718192
31	0x3e4ff7e1	0.20309402
32	0x3d442a70	0.047892034
33	0xbdf18fd4	-0.11795011
34	0x3db99a50	0.09062636
35	0xbc97d700	-0.018535137
36	0xbe5600a0	-0.20898676
37	0xbdb21160	-0.0869472
38	0x3d79c8f0	0.060982645
39	0xbdfcd254	-0.123448044
40	0x3bb75f00	0.0055960417
41	0x3d8e6ca4	0.06954315
42	0x3db146b0	0.08656061
43	0xbe1d16a4	-0.15340668
44	0x3e129732	0.14315489
45	0x3ce22160	0.027603805
46	0xbe5daefe	-0.21648785
47	0x3dbeeed8	0.093228996
48	0x3e0ff4d6	0.14058241
49	0xbd7df9a5	-0.062005658
50	0x3de4a096	0.11163442
51	0x3e0839f6	0.1330336
52	0xbe82e798	-0.25567317
53	0x3de3a91f	0.11116242
54	0x3e1db83e	0.15402314
55	0xbc1bdde9	-0.009513357
56	0x3dc95469	0.09830553
57	0x3cec876e	0.028873172
58	0x3d964c00	0.073387146
59	0xbe3f51ee	-0.18683597
60	0x3d356586	0.044286273
61	0xbe35f078	-0.17767513
62	0x3e6fdac4	0.23423296
63	0xbe7b977a	-0.24569502
64	0xbdd7f8f4	-0.10545531
65	0x3e0b199e	0.13583991
66	0xbe5c82aa	-0.2153422
67	0xbd3ec8d0	-0.04657823
68	0x3e61fe76	0.22069725
69	0x3e7daa3a	0.24771968
70	0xbe76ca12	-0.24100521
71	0x3e295a7a	0.1653842
72	0xbe2b4c42	-0.16728309
73	0xbd5871e0	-0.052842975
74	0x3dfc5588	0.12321001
75	0xbe4f3206	-0.20233926
76	0xbe0be96e	-0.13663265
77	0x3da01cac	0.07817969
78	0xbe154ee2	-0.14580873
79	0x3b4bcb80	0.0031096637
80	0xbe47c902	-0.19510272
81	0xbd80cac0	-0.062886715
82	0xbe22ca02	-0.15897372
83	0xbd9eb687	-0.07749658
84	0xbe0680f2	-0.13135126
85	0xb98cb078	-0.0002683436
86	0x3e1695bc	0.14705557
87	0x3e87c9f4	0.26521266
88	0x3d090ea8	0.033461243
89	0x3e4e8415	0.20167573
90	0xbdaf18c8	-0.085496485
91	0x3d95424f	0.07288038
92	0xbd60baec	-0.054865763
93	0xbb33a4e3	-0.0027411513
94	0x3e4fcac6	0.20292196
95	0x3cfb2d45	0.030661235
96	0x3d8dc1e8	0.0692175
97	0x3d1867dd	0.037208427
98	0x3e899af2	0.26876026
99	0x3e40116d	0.18756647
100	0x3cdf03cb	0.027223488
101	0x3e54bc65	0.20774992
102	0x3e5b20ab	0.2139918
103	0x3d2471d7	0.04014763
104	0x3e2a25d1	0.16615988
105	0x3d2ddce1	0.042446975
106	0xbc05b94c	-0.008161854
107	0xbe0b7fc3	-0.13622956
108	0x3e152fa7	0.14568959
109	0x3e1e6555	0.15468343
110	0x3e60489d	0.219027
111	0xbd4ffcd7	-0.050778236
112	0xbd8e53bc	-0.06949565
113	0x3d242788	0.040076762
114	0x3dce0c04	0.100608855
115	0xbe7b35d2	-0.2453225
116	0xbe7e5f0e	-0.24840948
117	0x3a66a000	0.00087976456
118	0xbe542398	-0.20716703
119	0x3e2d32f8	0.16913974
120	0xbe0b5ecc	-0.13610381
121	0xbdb23d4c	-0.08703098
122	0x3e4cdd3a	0.20006266
123	0xbd0ccc40	-0.034374475
124	0x3e589652	0.21151093
125	0xbe735a3c	-0.2376489
126	0xbc1631c0	-0.009167135
127	0xbdcd6308	-0.10028654
128	0x3d0ab58b	0.03386454
129	0xbc9e44d8	-0.019319937
130	0x3e8dcf2c	0.27697122
131	0xbe134f12	-0.14385632
132	0x3e2af74c	0.16695899
133	0xbd828a83	-0.06374075
134	0x3e213008	0.15740979
135	0x3e1367ca	0.14395061
136	0x3e0bdbf2	0.13658121
137	0xbdffd178	-0.12491125
138	0xbdf7a0c8	-0.120912135
139	0xbc1806ee	-0.009278996
140	0x3dc07a25	0.09398297
141	0xbe3b54c2	-0.18294051
142	0x3e0d7c08	0.13816845
143	0x3e0d72b5	0.13813289
144	0xbd605da4	-0.054776803
145	0xbdd35908	-0.10319716
146	0x3cb6a822	0.022296969
147	0xbe96a62f	-0.29423663
148	0x3cfb742f	0.03069505
149	0x3e86ac97	0.2630355
150	0xbd94ad6f	-0.07259642
151	0x3e67105f	0.22564839
152	0xbd0472e2	-0.032336123
153	0x3e523513	0.20528059
154	0xbd75a00e	-0.059967093
155	0xbdcb5b84	-0.099295646
156	0x3c830c6a	0.01599713
157	0xbd446cbc	-0.04795526
158	0xbddf88a6	-0.109147355
159	0x3e0c234f	0.13685344
160	0xbc8cb331	-0.017175289
161	0xbce72e41	-0.028220298
162	0xbe83a42a	-0.25711185
163	0xbd6bb72b	-0.05754773
164	0x3e0ce35c	0.13758606
165	0x3e7b1225	0.2451864
166	0x3c81da83	0.015851265
167	0xbdf06860	-0.11738658
168	0x3e1dde60	0.1541686
169	0xbd8aa2de	-0.06769346
170	0x3e41b706	0.18917474
171	0x3da97def	0.08275973
172	0x3e7db37c	0.24775499
173	0x3d70a7e0	0.058753848
174	0xbc5239ef	-0.012831195
175	0xbd7617cb	-0.060081284
176	0xbe294a18	-0.16532171
177	0xbe172dae	-0.14763519
178	0xbe6c5212	-0.23078182
179	0x3cc767b0	0.024341434
180	0x3e34d1a8	0.17658103
181	0xbe0e1c08	-0.1387788
182	0x3e237af2	0.15964869
183	0x3e7be132	0.24597624
184	0xbdf2f7e0	-0.11863685
185	0xbe221408	-0.15827954
186	0xbc7d9400	-0.0154771805
187	0xbda34984	-0.07973006
188	0xbdf47cbc	-0.11937854
189	0x3e6ab89e	0.22921988
190	0xbe735d40	-0.23766041
191	0x3d8789b4	0.06618062
192	0x3e59eacf	0.21280979
193	0x3e8e1786	0.27752322
194	0xbd637b22	-0.05553735
195	0x3ea45df6	0.32102937
196	0xbdf303c4	-0.118659526
197	0x3dff2a24	0.124592096
198	0x3ddc64f4	0.10761443
199	0xbe097d81	-0.13426782
200	0xbdf806bc	-0.121106595
201	0x3d96a151	0.073549874
202	0x3e2cc706	0.16872796
203	0x3e164aab	0.14676921
204	0xbe5b0984	-0.21390349
205	0x3e6cdd87	0.23131381
206	0xbd08dc54	-0.033413246
207	0xbd1d5cc1	-0.038418535
208	0x3e0136ed	0.12618609
209	0x3cc37c2b	0.023862919
210	0x3e11b292	0.14228275
211	0xbe627250	-0.2211392
212	0xbdf982ae	-0.12183128
213	0x3e484662	0.19558099
214	0x3e3a0e0f	0.18169425
215	0x3e78603e	0.24255463
216	0xbd815206	-0.06314473
217	0xbe691372	-0.22761324
218	0xbdcde4d1	-0.10053409
219	0xbdaae664	-0.08344725
220	0x3e2a1001	0.16607668
221	0x3d97d1d7	0.07413071
222	0xbe1e10fd	-0.15436168
223	0xbda03d54	-0.078241974
224	0xbd82821c	-0.06372473
225	0xbea295dd	-0.31754962
226	0x3c6d257c	0.014474269
227	0xbe9880c4	-0.2978574
228	0xbdaa3913	-0.08311667
229	0x3dcfc3f4	0.10144797
230	0x3e7a90e5	0.24469335
231	0x3e52fe44	0.20604807
232	0x3e2a872f	0.16653131
233	0xbe3450de	-0.17608973
234	0x3d043b50	0.032283127
235	0xbd02a5a8	-0.031896263
236	0x3e3a4b0b	0.18192689
237	0x3e57dd00	0.21080399
238	0xbd8fe7f5	-0.07026664
239	0xbd3502e0	-0.044192195
240	0xbec1948a	-0.3780864
241	0x3d88b742	0.06675579
242	0xbe874737	-0.2642152
243	0xbe3b1bfb	-0.18272392
244	0x3ca08022	0.019592348
245	0x3e656e3b	0.22405331
246	0x3e67ea5e	0.22647998
247	0xbc1818eb	-0.009283285
248	0x3c396be7	0.01131723
249	0x3d836326	0.064153954
250	0xbd6dee93	-0.05808885
251	0x3d949de7	0.0725668
252	0x3e677f5c	0.22607177
253	0xbd34463e	-0.0440123
254	0xbe36b34e	-0.17841837
255	0x3e252e64	0.16130978

features_extractor.conv1.bias f4 [16]
0	0x3e2b594d	0.16733284
1	0x3e3ec621	0.18630268
2	0xbe774320	-0.241467
3	0x3da93c14	0.08263412
4	0xbe57185a	-0.21005383
5	0xbe1037dc	-0.14083809
6	0x3d89e8f3	0.06733885
7	0xbd5936b8	-0.0530307
8	0xbe24a243	-0.16077523
9	0x3e84a891	0.25909856
10	0xbe44b450	-0.19209409
11	0xbe75b28c	-0.23993891
12	0x3e45a944	0.19302851
13	0xbdd2f2c6	-0.103002116
14	0x3e456ed1	0.19280554
15	0x3d2ec790	0.042670786

features_extractor.conv2.weight f4 [32, 16, 4]
0	0x3bb7a160	0.005603954
1	0x3d28a8a0	0.04117644
2	0x3cc2b920	0.023769915
3	0xbd2f1250	-0.042742074
4	0xbdc423de	-0.095771536
5	0x3d875848	0.06608635
6	0xbddc2afc	-0.10750386
7	0xbd80a97c	-0.062823266
8	0x3d9becf2	0.07613553
9	0x3da68958	0.08131665
10	0xbd33bc1c	-0.043880567
11	0x3d8bd720	0.06828141
12	0xbd6c5ab4	-0.05770369
13	0xbc951148	-0.018196717
14	0xbdd50f20	-0.104032755
15	0x3d900674	0.07032481
16	0xbdd1a32c	-0.10236201
17	0xbce187c8	-0.027530566
18	0xbd81fb84	-0.06346801
19	0x3de8d190	0.11368096
20	0xbddacb16	-0.10683267
21	0xbd0f3650	-0.034963906
22	0x3baca220	0.0052683502
23	0xbcc40e08	-0.023932472
24	0x3c41e370	0.0118340105
25	0x3dc73bbc	0.0972819
26	0xbdfe6936	-0.12422411
27	0xbdc73e30	-0.09728658
28	0xbdb091bc	-0.086215466
29	0xbdbf56be	-0.09342717
30	0xbdf565bc	-0.11982295
31	0x3cd99ba8	0.02656348
32	0x3abede80	0.001456216
33	0x3d3522f8	0.044222802
34	0x3cfdc7e0	0.030979097
35	0x3ca1c338	0.019746408
36	0x3cd0dbd0	0.02549544
37	0x3dca51ca	0.09878881
38	0x3cc2ed70	0.02379486
39	0x3de98ba2	0.11403586
40	0x3b300940	0.0026860982
41	0x3d80a7ac	0.06281981
42	0xbdd0e6a8	-0.10200244
43	0xbd8d55fe	-0.06901167
44	0x3cc60e28	0.024176672
45	0x3dbac67c	0.09119889
46	0x3d00f1bc	0.031480536
47	0xbdae5704	-0.08512691
48	0x3dfc181c	0.12309286
49	0xbda36636	-0.079784796
50	0xbd3b67ac	-0.045753166
51	0xbdf5af18	-0.11996287
52	0xbde6a65e	-0.11262201
53	0x3de2d402	0.110755935
54	0xbb2b7400	-0.002616167
55	0x3d848476	0.064705774
56	0x3de18d02	0.11013223
57	0xbd42ac8c	-0.047527835
58	0xbd3412e0	-0.043963313
59	0x3cf32aa0	0.029683411
60	0xbd490adc	-0.049082622
61	0x3d951ada	0.07280512
62	0xbc6e3250	-0.014538363
63	0xbdda9d4c	-0.10674533
64	0xbea12855	-0.31476083
65	0xbe62bf24	-0.22143227
66	0xbe731a67	-0.2374054
67	0xbe932c45	-0.28744712
68	0x3db69917	0.08915918
69	0x3e13669e	0.14394614
70	0x3c5dc8ed	0.013536674
71	0x3d97ba6c	0.07408604
72	0x3df0e122	0.11761691
73	0xbb7dbcc0	-0.003871724
74	0xbc276cb0	-0.010218784
75	0xbdaa6160	-0.08319354
76	0x3da0d198	0.07852477
77	0xbd6dd9bb	-0.058068972
78	0x3e018224	0.12647301
79	0x3d82e0e8	0.06390554
80	0x3decd590	0.11564171
81	0x3caa5238	0.020791158
82	0xbdbbcd76	-0.09170048
83	0x3d2774a8	0.040882736
84	0xbe6bcbf0	-0.23027015
85	0xbccbf987	-0.024899257
86	0xbe897368	-0.2684586
87	0xbe942776	-0.28936356
88	0x3d95a605	0.07307056
89	0x3da6914b	0.08133181
90	0xbd5f3e5b	-0.054502826
91	0x3ddd296a	0.10798915
92	0xbc247e30	-0.010039851
93	0xbccea188	-0.025223508
94	0xbdafea62	-0.08589627
95	0xbdc0991e	-0.09404205
96	0x3d5fa476	0.0546002
97	0x3d651706	0.05593016
98	0x3dd4af7a	0.10385032
99	0x3d8c3962	0.068468824
100	0xbea0857d	-0.31351843
101	0xbe365ac8	-0.17808068
102	0xbe961fee	-0.29321235
103	0xbe5ea8a3	-0.21744017
104	0xbded569f	-0.11588787
105	0x3a2686ae	0.00063524663
106	0xbe213774	-0.1574381
107	0xbe36726d	-0.17817087
108	0xbd3cd728	-0.046103626
109	0x3da25528	0.079263985
110	0xbd3d65b4	-0.04623957
111	0xbde8bdb8	-0.11364311
112	0xbc12fd5d	-0.008971539
113	0x3e018835	0.12649615
114	0x3dc191be	0.09451626
115	0x3ccf1b47	0.025281562
116	0xbec76b72	-0.38949162
117	0xbe90ba92	-0.28267342
118	0xbec2203c	-0.37915218
119	0xbece09e4	-0.4024192
120	0xbdecf49d	-0.11570094
121	0xbe177e08	-0.14794171
122	0xbe4a5b06	-0.19761285
123	0xbe8982a9	-0.26857498
124	0xbe623cee	-0.22093555
125	0xbede3b9b	-0.4340485
126	0xbec6a866	-0.38800353
127	0xbec340d9	-0.38135412
128	0xbdef44a9	-0.11683018
129	0xbe5436e9	-0.20724072
130	0xbe3e3384	-0.18574339
131	0xbe69d1f9	-0.22834004
132	0x3c07e84f	0.008295133
133	0x3cc727bf	0.024310945
134	0xbba1aca1	-0.004933909
135	0x3dce75ef	0.10081088
136	0x3ca22c80	0.01979661
137	0x3db896ac	0.090131134
138	0x3d8362ec	0.06415352
139	0xbdf9a568	-0.12189752
140	0xbd2f467d	-0.042791832
141	0xbcd2340c	-0.025659584
142	0x3d0d4ccd	0.03449707
143	0x3d8f3503	0.06992533
144	0xbd4ce930	-0.050027072
145	0x3b8a54c0	0.004221529
146	0x3dfb2d98	0.12264556
147	0x3dbe92be	0.093053326
148	0xbe36a7e7	-0.17837487
149	0xbe18290c	-0.14859408
150	0xbe2a1278	-0.16608608
151	0xbe025ed1	-0.12731482
152	0x3d6512e7	0.05592623
153	0x3cd8e606	0.026476871
154	0x3dc8521d	0.09781287
155	0x3c4c0e62	0.012454601
156	0xbdd9e640	-0.1063962
157	0xbcec8e88	-0.028876558
158	0x3d6e9234	0.0582449
159	0x3ceecee0	0.02915138
160	0x3c93ee27	0.018057896
161	0xbdd706c1	-0.10499335
162	0x3dadfd68	0.08495599
163	0x3d94c28b	0.072636686
164	0xbde9a1c9	-0.11407811
165	0xbe1ac7f5	-0.1511534
166	0xbe8ffe22	-0.28123575
167	0xbe774077	-0.24145685
168	0x3be158e2	0.0068770507
169	0xbd1a9f81	-0.03774977
170	0xbc2c7940	-0.010526955
171	0xbd031a3c	-0.03200744
172	0x3cc64f10	0.024207622
173	0x3da4b110	0.080415845
174	0xbc29dab0	-0.010367081
175	0x3d9f167a	0.07767959
176	0x3d9aa930	0.07551801
177	0xbcdc2ea3	-0.026877707
178	0x3e1ca4bc	0.15297216
179	0xbc686433	-0.014184046
180	0xbed3643e	-0.41287416
181	0xbed192c3	-0.40932283
182	0xbeacd221	-0.33754066
183	0xbea28037	-0.31738445
184	0xbd1a3154	-0.0376447
185	0xbd52d5e4	-0.051473513
186	0xbe05ba26	-0.13059291
187	0xbe394aec	-0.18094987
188	0xbed3f321	-0.4139643
189	0xbed05107	-0.4068682
190	0xbef546c9	-0.47905567
191	0xbec9827a	-0.39357358
192	0x3e4f5198	0.2024597
193	0x3e38612a	0.18005815
194	0x3e75ed83	0.24016385
195	0x3e1efc5e	0.15525958
196	0x3dd442ee	0.10364328
197	0x3ca33963	0.019924825
198	0x3d0aa1a7	0.03384557
199	0xbd970055	-0.0737311
200	0xbdd6860e	-0.10474788
201	0xbdd77d5c	-0.10521957
202	0x3dcada9e	0.09904979
203	0xbdd8a8f6	-0.10579102
204	0xbddb8080	-0.10717869
205	0xbdd71309	-0.105016775
206	0xbd867589	-0.06565387
207	0xbd76b3c4	-0.06023003
208	0xbdea1c24	-0.11431149
209	0xbc410a50	-0.011782244
210	0x3d9bfba2	0.076163545
211	0x3df3f188	0.11911303
212	0x3e20f0f6	0.1571692
213	0x3d42cc46	0.04755809
214	0x3d85f0ba	0.065400556
215	0x3db8c3b0	0.090216994
216	0x3e143249	0.14472307
217	0xbd98a1cc	-0.07452735
218	0x3ad0057e	0.0015870777
219	0x3dfafa76	0.12254803
220	0xbd2b27b4	-0.04178591
221	0xbc812490	-0.015764505
222	0xbd95bf92	-0.0731193
223	0x3dd89d6a	0.10576899
224	0x3d2b7562	0.04185999
225	0x3e0ff515	0.14058335
226	0x3e0ce6db	0.1375994
227	0x3d9ecf12	0.07754339
228	0x3e730ba6	0.23734912
229	0x3d9aa055	0.07550112
230	0x3e7d5411	0.247391
231	0x3e62cf83	0.22149472
232	0x3d264da4	0.040601388
233	0x3e45f449	0.19331469
234	0x3e027d35	0.12743075
235	0x3dab4e01	0.083644874
236	0x3c8537b8	0.01626192
237	0xbc8bda18	-0.017071769
238	0x3dfbc11e	0.122926936
239	0xbde04844	-0.109512836
240	0xbd1bdcdb	-0.03805242
241	0xbddb9494	-0.107216984
242	0x3d8659d3	0.06560101
243	0xbd822028	-0.063537896
244	0x3ee541cd	0.44776765
245	0x3eb185c5	0.3467237
246	0x3e58dcc3	0.21177964
247	0x3e6ee0ec	0.23327988
248	0x3d3384aa	0.04382769
249	0x3e5e4c5e	0.2170882
250	0x3e70baa5	0.23508699
251	0x3e76de35	0.24108203
252	0x3d56c991	0.052438322
253	0x3e8c8542	0.27445418
254	0x3e59e9e2	0.21280625
255	0x3e3b8b23	0.18314795

features_extractor.conv2.bias f4 [32]
0	0xbb9a3280	-0.004705727
1	0xbcafd7b8	-0.021465167
2	0x3d314572	0.04327912
3	0xbd82a127	-0.063783936
4	0xbddc38bd	-0.107530095
5	0x3d99925c	0.07498619
6	0x3e28e4da	0.1649355
7	0xbd405fee	-0.046966486
8	0x3cdbd758	0.026836082
9	0x3d86276a	0.065504864
10	0xbd1c06cc	-0.03809242
11	0x3e0388c1	0.12845136
12	0x3e0983c5	0.13429172
13	0xbd9a349a	-0.07529564
14	0xbdf63a7e	-0.12022875
15	0xbda3d686	-0.079999015
16	0xbdb064b0	-0.086129546
17	0x3d824864	0.06361464
18	0xbd60ae7b	-0.054853898
19	0xbdc3ba7a	-0.09557052
20	0x3b9aed36	0.004727985
21	0xbdc8eddd	-0.09810994
22	0xbd5b69e5	-0.053567786
23	0xbdb29f2a	-0.087217644
24	0xbd36f6e4	-0.044669047
25	0xbdc64044	-0.096802264
26	0x3da8daf2	0.082448855
27	0xbd7d6221	-0.06186116
28	0x3dd8482b	0.1056064
29	0xbdbe1d47	-0.09282928
30	0xbde7efd8	-0.113250434
31	0xbda36bd4	-0.07979551

features_extractor.fc_op.weight f4 [32, 3]
0	0xbe27d273	-0.16388874
1	0x3e108277	0.14112268
2	0xbe591784	-0.21200377
3	0xbd80261b	-0.06257268
4	0xbcce53c1	-0.025186421
5	0xbefc5b36	-0.49288338
6	0xbe4b1fcd	-0.1983635
7	0x3e8fcc8b	0.2808574
8	0x3e689200	0.22711945
9	0xbe47a01d	-0.19494672
10	0x3e87435f	0.26418588
11	0xbeb08493	-0.34476146
12	0xbed42721	-0.41436103
13	0xbeef758b	-0.46769366
14	0x3e67c6de	0.22634456
15	0xbedd789a	-0.43256074
16	0xbee40572	-0.44535404
17	0x3ea5e712	0.32402855
18	0xbe64dd49	-0.22350039
19	0xbf02716d	-0.50954324
20	0x3ed9230b	0.42409548
21	0xbef346bc	-0.47514904
22	0xbd3ee9f1	-0.046609823
23	0x3e980c91	0.29697087
24	0x3c28ac93	0.010295051
25	0xbe455812	-0.19271877
26	0xbed9e494	-0.42557204
27	0xbee79427	-0.4523022
28	0x3eb673cb	0.35635218
29	0xbe299192	-0.16559437
30	0xbdd95223	-0.106113695
31	0x3c1b77f3	0.009489047
32	0x3eefab23	0.46810254
33	0xbb026227	-0.001989493
34	0xbec788b5	-0.38971487
35	0x3f232735	0.637317
36	0xbdb2ca5f	-0.087300055
37	0xbe9a3865	-0.3012115
38	0x3b0f6156	0.0021878085
39	0x3a1e4fa6	0.000603909
40	0x3d0e74c9	0.034779344
41	0xbebb59cc	-0.36591947
42	0x3ec00552	0.3750406
43	0x3e84d72c	0.25945413
44	0xbf2d6848	-0.67737246
45	0x3e578f5d	0.21050783
46	0xbebeeb0e	-0.37288707
47	0x3e1876f4	0.14889127
48	0xbefa161c	-0.48844993
49	0xbf017deb	-0.5058276
50	0x3eee3582	0.46525198
51	0x3eff6c63	0.4988738
52	0xbe209d01	-0.15684892
53	0xbeaca038	-0.33715987
54	0x3e7b1198	0.2451843
55	0xbea7bec8	-0.32762742
56	0x3e66a3cd	0.22523423
57	0xbebdfbd4	-0.37106192
58	0x3e5ec852	0.21756104
59	0xbf06b057	-0.52612823
60	0x3e4bfd56	0.19920859
61	0xbe472b56	-0.19450125
62	0x3c8e64e6	0.017382096
63	0x3dff7171	0.12472809
64	0xbdd4b428	-0.103859246
65	0x3d19d899	0.03756008
66	0xbeefe142	-0.46851546
67	0xbeeea0b3	-0.4660698
68	0xbecaf333	-0.3963867
69	0xbed55be4	-0.4167167
70	0x3e9e3b8a	0.309048
71	0x3d15a18a	0.03653101
72	0x3e5f8512	0.21828106
73	0x3e1231cf	0.14276813
74	0xbde82598	-0.113352954
75	0xbcbea928	-0.02327402
76	0xbdad2132	-0.08453597
77	0x3e2f2b38	0.1710633
78	0x3e586f39	0.21136178
79	0xbed249d8	-0.41071963
80	0x3dfa9bd3	0.12236752
81	0xbe4ed49f	-0.20198296
82	0x3eaff4d0	0.34366465
83	0xbec63564	-0.3871261
84	0x3e6278b2	0.22116354
85	0x3e7d73b2	0.24751166
86	0x3f107c26	0.56439435
87	0xbe5df836	-0.21676716
88	0xbe8acff6	-0.27111787
89	0xbdb87866	-0.09007339
90	0xbe869c44	-0.26291096
91	0x3cc51483	0.024057632
92	0xbe53cb71	-0.20683075
93	0x3dfa990a	0.12236221
94	0xbde9a360	-0.114081144
95	0x3b7150dd	0.003682188

features_extractor.fc_op.bias f4 [32]
0	0xbe736607	-0.23769389
1	0x3f0b22a3	0.54349726
2	0x3e69cffb	0.22833245
3	0xbeae6c58	-0.34067035
4	0x3f091fc4	0.53564095
5	0x3eaf776e	0.34270805
6	0xbee5546f	-0.4479098
7	0xbdb9674a	-0.09052904
8	0x3f110177	0.5664286
9	0xbebefc02	-0.37301642
10	0x3ed08444	0.4072591
11	0x3f1c402d	0.61035424
12	0x3e8c3b98	0.27389216
13	0x3e051a1f	0.12998246
14	0xbde31483	-0.11087897
15	0xbdbac1bd	-0.09118984
16	0xbe16cfed	-0.14727755
17	0x3e017a2b	0.1264426
18	0x3e1d58fa	0.15365973
19	0xbe100156	-0.1406301
20	0xbee01daa	-0.43772632
21	0xbead02bf	-0.33791158
22	0xbd9aa70d	-0.07551394
23	0x3f030984	0.51186395
24	0x3ed5fe5e	0.4179563
25	0xbf199a5e	-0.6000117
26	0xbe50359c	-0.2033295
27	0xbee7bf23	-0.45263013
28	0xbd261dff	-0.04055595
29	0xbf1b138e	-0.60576713
30	0x3ebe5b15	0.37178865
31	0xbee9a52f	-0.45633838

features_extractor.fc_merge.weight f4 [352, 352]
0	0xbd343282	-0.04399348
1	0xbb81f888	-0.003966395
2	0x3bf9cfcb	0.007623648
3	0xbd149210	-0.03627211
4	0xbd182bdd	-0.037151206
5	0xbd177b14	-0.03698261
6	0x3ba23c9f	0.0049510743
7	0x3ce8a6a6	0.028399777
8	0xbd450156	-0.048096977
9	0xbccde0df	-0.025131641
10	0x3c093de0	0.008376569
11	0x391776e7	0.00014444777
12	0x3d3c4b48	0.04597023
13	0x3c8049a1	0.015660109
14	0x3c8b4b68	0.01700373
15	0xbd0a616f	-0.033784326
16	0xbcb8be8b	-0.022551795
17	0xbd4c20f5	-0.049836118
18	0xbc8c91da	-0.017159391
19	0xbd4ecb62	-0.05048693
20	0xbd37b7af	-0.04485291
21	0x3b8e61f6	0.004345174
22	0xbd2e48f8	-0.042550057
23	0x3b2ca07e	0.0026340778
24	0x3d1e99b9	0.03872082
25	0xbd4cbc3e	-0.04998421
26	0xbd2c7dc6	-0.042112134
27	0x3d350779	0.04419658
28	0x3ccb6d18	0.024832293
29	0xbd3896cc	-0.045065686
30	0xbcee5d79	-0.029097306
31	0xbb0a8641	-0.002113715
32	0xbc7c41a0	-0.015396506
33	0x3d419f4e	0.047271065
34	0xbd3281c8	-0.0435808
35	0x3b5f8a56	0.0034109554
36	0xbc2de576	-0.01061379
37	0xbd3d858d	-0.046269942
38	0xbcea159c	-0.028574757
39	0xbb9a53dc	-0.004709704
40	0xbd4ee2d4	-0.05050929
41	0xbc09ccb9	-0.008410626
42	0xbcd6e19c	-0.026230626
43	0x3cd67322	0.026177946
44	0x3d2d08de	0.042244785
45	0xbb7316a0	-0.0037092343
46	0xbb3d5639	-0.0028890504
47	0x3c0f9cce	0.0087654125
48	0xbc9650b4	-0.01834903
49	0xbc2141ab	-0.009842317
50	0x3b4cda5e	0.0031258087
51	0x3d324d00	0.043530464
52	0x3c87d170	0.01657936
53	0x3b9de5f3	0.004818672
54	0x3ced5a83	0.028973823
55	0xbd3253c5	-0.04353692
56	0x3d499928	0.049218327
57	0xbd1dd785	-0.038535614
58	0x3cd41bb4	0.025892116
59	0x3ca99a57	0.020703478
60	0xbb4ec576	-0.0031550801
61	0xbd6939d5	-0.05693992
62	0x3d040618	0.032232374
63	0xbd1f1c48	-0.03884533
64	0xbca658c6	-0.020306002
65	0xbc08f1e5	-0.008358453
66	0xbd23628f	-0.039888915
67	0xbcdd5a10	-0.027020484
68	0x3cb93b16	0.022611182
69	0xbc0ed633	-0.008718061
70	0xbca21f69	-0.019790368
71	0xbcc7c55b	-0.024386099
72	0x3d33b4cd	0.043873597
73	0xbc9d2400	-0.019182205
74	0xbcaa4d30	-0.020788759
75	0xbd5fbffb	-0.054626446
76	0xbc2632e9	-0.010143974
77	0x3ced40a5	0.028961489
78	0xbcfcb595	-0.030848304
79	0x3b0c62fc	0.0021421304
80	0xbce906c6	-0.028445613
81	0xbb978076	-0.004623468
82	0x3d3a2d30	0.04545325
83	0xbcaaab21	-0.020833554
84	0x3d290623	0.041265618
85	0xbce5c1a1	-0.028046431
86	0xbd11793e	-0.035516016
87	0x3d114849	0.035469327
88	0xbd15c0f1	-0.036560956
89	0x3bd4b1c2	0.006490917
90	0xbc658ed9	-0.014011108
91	0xbcaa1e18	-0.020766303
92	0x3d114167	0.035462763
93	0x3d30a265	0.04312362
94	0xb96ee877	-0.00022784049
95	0xbca6e658	-0.020373508
96	0x3c7129a9	0.014719405
97	0x3d0851e7	0.033281233
98	0x3cd2a100	0.025711536
99	0xbd315d4a	-0.043301858
100	0xbcf3230b	-0.029679796
101	0x3b9e25f7	0.004826303
102	0x3d382372	0.04495568
103	0xbc0ec455	-0.008713801
104	0x3d4c0527	0.0498096
105	0x3a432d4b	0.0007445409
106	0x3d34e184	0.04416038
107	0x3cc19bdd	0.023633892
108	0x3bc0c695	0.005883048
109	0x3bbf7a19	0.0058434126
110	0x3d1878c8	0.03722456
111	0x3d171fcc	0.03689556
112	0xbd54d4bf	-0.051960703
113	0x3d365a10	0.044519484
114	0xbac9d560	-0.0015398674
115	0x3d0d5c20	0.034511685
116	0xba6ede0f	-0.0009112069
117	0xbc7b483e	-0.015337048
118	0xbd4da165	-0.050202746
119	0x3d19600d	0.037445117
120	0x3d046405	0.03232195
121	0x3c6e9564	0.014561985
122	0x3cf5d520	0.030008852
123	0xbd12d3f7	-0.035846677
124	0xbb740c1d	-0.0037238665
125	0x3d31d1a6	0.043412827
126	0xbd52eef7	-0.051497426
127	0x3d13a855	0.036049206
128	0x3d1883d0	0.03723508
129	0x3d0959b4	0.033532813
130	0xbcb4814c	-0.02203431
131	0xbd13c634	-0.036077693
132	0xbcd017d3	-0.025401985
133	0xbd21e267	-0.039522555
134	0x3b55ba8e	0.0032612416
135	0xbc8d8c8e	-0.017278936
136	0x3d4adc6e	0.049526624
137	0x3d473d9b	0.048642736
138	0x3d2a6443	0.041599523
139	0xbcdca3e1	-0.026933612
140	0x3c1d173a	0.009588057
141	0xbc23a37d	-0.009987709
142	0xbcb29275	-0.021798352
143	0x3d089d81	0.033353332
144	0xbce03002	-0.027366642
145	0x3cae4155	0.021271387
146	0xbcd8aae9	-0.026448684
147	0xbce60f53	-0.028083479
148	0xbc2bef3c	-0.01049405
149	0xbd56b6b6	-0.05242034
150	0xbbe4e9f3	-0.0069858967
151	0x3d3891bb	0.045060854
152	0x3cab1a2e	0.020886507
153	0xbd2420dd	-0.040070403
154	0xbcc8ad6e	-0.02449676
155	0x3d1685ae	0.03674858
156	0x3d11d42c	0.035602733
157	0xbc8f7839	-0.017513381
158	0xbc39ed16	-0.01134803
159	0xbd15ef57	-0.036605205
160	0x3d436817	0.04770669
161	0xbd31edf2	-0.043439813
162	0xbc06d1eb	-0.008228759
163	0x3caa7c6a	0.020811278
164	0x3c9a1714	0.018809833
165	0xbc7d7833	-0.015470552
166	0xbcc64aaa	-0.024205524
167	0xbcda35ab	-0.026636919
168	0x3d21d9d2	0.03951437
169	0xbce2971e	-0.027659949
170	0xbd4aad68	-0.04948178
171	0x3d0eb4e4	0.03484048
172	0xbc912dcd	-0.017722035
173	0xbd1a6441	-0.037693266
174	0x3ba8f704	0.0051563997
175	0x3ceee73d	0.029162997
176	0xbc18be06	-0.009322649
177	0xbcc047b4	-0.02347169
178	0xbc14134d	-0.009037805
179	0x3c4500b6	0.012024095
180	0xbc7ef72d	-0.015561861
181	0x3bc50cfc	0.0060135107
182	0x3c868e2f	0.01642522
183	0xbbb7515d	-0.005594416
184	0xbd2a9163	-0.041642558
185	0xbd289f99	-0.04116783
186	0xbd03815d	-0.032105792
187	0x3b237e0a	0.0024946951
188	0x3ae7edcb	0.0017694769
189	0xbd26088b	-0.04053549
190	0xbbef8485	-0.0073094987
191	0xbd3fa2bc	-0.046786055
192	0x3d108bad	0.035289455
193	0xbc503147	-0.012707061
194	0xbc58100a	-0.013187418
195	0xbb8ead04	-0.004354121
196	0x3b31dce5	0.002713972
197	0xbd2e5ca5	-0.04256882
198	0x3ceb7c95	0.028745929
199	0xbc035d4b	-0.008017848
200	0xbd1a4167	-0.03766003
201	0xbcc727d3	-0.024310982
202	0xbcbf963d	-0.023387069
203	0x3d0e71ae	0.034776382
204	0xbc284fc3	-0.010272923
205	0xbd182991	-0.037149016
206	0x3c49ec23	0.012324366
207	0x3c5bda32	0.013418721
208	0x3c967f6f	0.018371312
209	0xbd30d536	-0.043172084
210	0x3d271278	0.040789098
211	0x3b334539	0.0027354492
212	0xbd388cc8	-0.045056134
213	0x3b2fde64	0.0026835436
214	0xbc2608e4	-0.010133956
215	0xbd323b02	-0.043513305
216	0x3d1ef250	0.038805306
217	0xbd40477e	-0.04694318
218	0x3ca2c38d	0.019868637
219	0xbcee5517	-0.029093308
220	0xbc842e17	-0.016135259
221	0x3d18534b	0.03718881
222	0xbc5d8f71	-0.013522969
223	0xbd3c438b	-0.04596285
224	0xbca13c0c	-0.019681953
225	0xbd50bcd2	-0.050961323
226	0xbcc02f05	-0.02345992
227	0x3b4e3ecf	0.0031470542
228	0xbb131a37	-0.0022446045
229	0x3cd27142	0.025688771
230	0xbc06d403	-0.0082292585
231	0xba8cf5c4	-0.0010754396
232	0x3d1b0ede	0.037855975
233	0x3d453b32	0.048152156
234	0xbc61949e	-0.013768343
235	0x3bcf3bd9	0.006324273
236	0x3d054cf7	0.032544103
237	0xbd4bf602	-0.04979516
238	0xbd0a7e1b	-0.03381167
239	0xbd0aa6c9	-0.033850465
240	0xbd430b3c	-0.047618136
241	0x3d309da5	0.04311909
242	0xbce562ce	-0.028001215
243	0x3cf73f97	0.03018169
244	0x3d1c731d	0.038195718
245	0xbc9e9cf8	-0.019361958
246	0x3cbd243a	0.023088563
247	0x3d0eb73f	0.034842726
248	0x3c642486	0.0139247235
249	0x3d282d6a	0.041058935
250	0x3cb66e12	0.022269282
251	0x3d517968	0.051141173
252	0x3d10561c	0.03523837
253	0x3d1b0108	0.03784278
254	0x3d38835c	0.04504715
255	0xbd1e28ca	-0.03861312

features_extractor.fc_merge.bias f4 [352]
0	0x3c5abeca	0.013351152
1	0x3ca7562d	0.020426834
2	0x3befef63	0.0073222383
3	0xbcf5a141	-0.029984118
4	0xbd27fd68	-0.04101315
5	0xbd67ffa2	-0.056640275
6	0xbe0e0660	-0.1386962
7	0xbd2e8256	-0.042604767
8	0x3cd82c87	0.02638842
9	0x3d923c29	0.07140381
10	0xbd6796cb	-0.05654029
11	0x3d2c0785	0.04199936
12	0xbde4d23d	-0.11172912
13	0xbdb1697e	-0.08662699
14	0xbdad09f0	-0.08449161
15	0x3d613abd	0.054987658
16	0xbd015569	-0.031575594
17	0xbccd9ad1	-0.025098236
18	0xba7b8ac3	-0.0009595567
19	0xbd8861a3	-0.06659248
20	0xbbc8aa53	-0.00612382
21	0x3d1068e6	0.03525629
22	0xbc3af45f	-0.011410802
23	0x3d88f3ed	0.0668715
24	0x3c42fd1b	0.011901165
25	0x3d0b026a	0.03393785
26	0x3cd00a80	0.025395632
27	0xbd8ea2e6	-0.06964664
28	0xbc00be98	-0.007857941
29	0x3cb5184e	0.022106316
30	0xbc596e98	-0.0132709965
31	0x3d0eb3ce	0.034839444
32	0xba98cc85	-0.0011657631
33	0xbd09c2de	-0.033633105
34	0x3d0e1fb1	0.034698192
35	0xbdc31e3b	-0.095272504
36	0x3c326b0c	0.01088978
37	0x3c250f29	0.010074415
38	0x3cada72a	0.021197874
39	0xbcc5408a	-0.024078626
40	0xbd2acaa9	-0.041697178
41	0xbd8f0209	-0.0698281
42	0xbd755784	-0.059897915
43	0x3db17655	0.08665148
44	0x3d4a88fd	0.04944705
45	0x3bc7d06d	0.0060978443
46	0x3d818ef1	0.06326092
47	0x3c69c0d1	0.014267162
48	0x3c6133ec	0.013745289
49	0x3c61ae38	0.013774447
50	0xbcc02064	-0.023452945
51	0xbd09e2be	-0.033663504
52	0xbb93aa55	-0.004506389
53	0x3da2c29c	0.07947275
54	0x3c8d66d4	0.017260946
55	0xbd3e6758	-0.046485275
56	0xbcd2ec39	-0.025747405
57	0xbb4a4fa5	-0.0030870226
58	0x3d126aa3	0.035746228
59	0x3d73fa49	0.059564862
60	0x3cc67ae2	0.024228517
61	0x3cdea7ec	0.02717968
62	0x3d08408a	0.033264674
63	0xba1fec91	-0.000610062
64	0xbd05a803	-0.03263093
65	0xbdba5fe8	-0.09100324
66	0x3d094de0	0.033521533
67	0x3cf17c4f	0.02947822
68	0xbd538307	-0.05163863
69	0xbd69c858	-0.05707583
70	0x3a20da1d	0.0006136017
71	0x3bf8e74d	0.0075959326
72	0x3d055c56	0.03255876
73	0xbc6bf228	-0.014400996
74	0x3c070474	0.008240808
75	0x3c8be103	0.017075067
76	0xbd54d17a	-0.051957585
77	0x3d29f154	0.041489914
78	0xbcf2a349	-0.029618876
79	0xbcb01e2e	-0.021498766
80	0xbd05156f	-0.032491144
81	0x3b127f27	0.002235362
82	0xbdb6d1f9	-0.08926768
83	0x3c201fe4	0.009773228
84	0xbcf97334	-0.030450441
85	0xbd9052e3	-0.070470594
86	0x3d5a88fa	0.053353287
87	0x3d524319	0.05133352
88	0xbcb168f0	-0.021656483
89	0xbcda873b	-0.026675811
90	0x3d77fe93	0.060545515
91	0x3d2e1f23	0.042510163
92	0xbd20aa77	-0.039225068
93	0x3bf5e7e6	0.007504451
94	0xbc377cd7	-0.011199198
95	0xbc548f3a	-0.012973601
96	0xbcaf6362	-0.021409694
97	0xbb97d84e	-0.00463394
98	0x3b90bccd	0.004417038
99	0xbd8b05bf	-0.06788205
100	0x3d792bdb	0.06083284
101	0xbd5257be	-0.05135321
102	0xbddf6409	-0.10907752
103	0x3b01c740	0.00198026
104	0xbd633602	-0.055471428
105	0x3d143710	0.036185324
106	0xbbfa8dba	-0.0076462897
107	0xbcc64806	-0.024204265
108	0xbb9697cc	-0.0045957323
109	0xbd31a891	-0.043373648
110	0xbd879cd3	-0.06621709
111	0xbbe595f2	-0.0070064003
112	0x3caf5e77	0.021407349
113	0xbccea4d0	-0.025225073
114	0x3bef4c98	0.007302832
115	0x3cc6f231	0.024285408
116	0xbd1faf98	-0.03898582
117	0xbce15394	-0.027505673
118	0xbc1588ba	-0.009126836
119	0xbd62162d	-0.05519693
120	0x3a8933ef	0.0010467748
121	0x3df04b37	0.11733096
122	0xbd3b3c35	-0.045711715
123	0x3c60b19e	0.013714222
124	0x3b241225	0.002503523
125	0xbd2de036	-0.042450152
126	0x3d66b110	0.056321204
127	0x3d01d4c2	0.031697042
128	0xbc6f4cb1	-0.014605687
129	0xbbca5379	-0.0061745015
130	0xbc6bb149	-0.01438553
131	0x3c951e18	0.018202826
132	0xbbb07afc	-0.0053857546
133	0x3d20f86a	0.039299406
134	0xbe15305c	-0.14569229
135	0x3b920e83	0.0044572963
136	0xbd7c0933	-0.06153221
137	0xba7ae19a	-0.00095703604
138	0xbde1e2a0	-0.110295534
139	0xbcbe1345	-0.023202548
140	0xbd433839	-0.04766104
141	0xbd57873b	-0.0526192
142	0xbdd8846c	-0.105721325
143	0xbc8c1030	-0.017097563
144	0x3a7350ed	0.0009281773
145	0xbd57d725	-0.052695412
146	0xbd5384f6	-0.051640473
147	0x3a178c19	0.0005781069
148	0xbc6ffe30	-0.014648005
149	0xbd24e56a	-0.04025785
150	0xbd81cc41	-0.063377865
151	0x3b10ce5a	0.0022095651
152	0xbd5ae333	-0.05343933
153	0xbc4091ba	-0.011753494
154	0x3ca15e79	0.019698368
155	0x3b9326b7	0.004490699
156	0xbc98acb7	-0.018637044
157	0x3c2367cb	0.009973477
158	0xbd83571f	-0.064131014
159	0xbc0c432b	-0.008560936
160	0x3d00e850	0.03147155
161	0xbd5dfd33	-0.054196548
162	0x3c96de00	0.018416405
163	0x3ba03fc9	0.0048904163
164	0xbdce1b3a	-0.10063787
165	0x3c1af3d4	0.009457547
166	0xbd7abbc5	-0.061214227
167	0x3c96f298	0.018426225
168	0xbd915d25	-0.07097844
169	0xbd211bda	-0.039333202
170	0xbd887beb	-0.066642605
171	0xbba89caa	-0.005145629
172	0xbd60c4c6	-0.054875158
173	0xbd9a0ff2	-0.075225726
174	0xbd2d95ef	-0.042379316
175	0x3ce68d1e	0.028143462
176	0xbd2bd013	-0.041946482
177	0xbd105be6	-0.03524389
178	0xbc4c1d3e	-0.012458144
179	0xbb883028	-0.0041561313
180	0xbc80d131	-0.01572475
181	0xbd200322	-0.039065488
182	0xbda17ddb	-0.07885333
183	0xbc4e3fb7	-0.012588433
184	0x3b6fbf5d	0.0036582567
185	0x3cd825ce	0.026385214
186	0xbd393b39	-0.045222495
187	0xbd845e43	-0.064632915
188	0x3c0f0e47	0.008731431
189	0xbd1c1f69	-0.038115893
190	0xbbc831c7	-0.0061094495
191	0xbd55141e	-0.05202114
192	0xbd19f6a6	-0.037588738
193	0x3b8f00fd	0.0043641315
194	0xbd0ebefd	-0.03485011
195	0xbce2aa4c	-0.027669095
196	0xbc221c47	-0.009894437
197	0xbc4c0e89	-0.012454637
198	0xbb99cbc0	-0.0046934783
199	0xbbfbf147	-0.0076886746
200	0xbc77fd6f	-0.015136107
201	0xbc3f29b1	-0.011667655
202	0xbd6d020b	-0.057863276
203	0x3d00ad0d	0.031415034
204	0x3d9b93cc	0.075965494
205	0xbae797ec	-0.0017669178
206	0xbd3d2cb1	-0.0461852
207	0xbd34a1de	-0.04409968
208	0xbcbcc7ce	-0.023044493
209	0x3c585fd5	0.013206442
210	0xbc1692cb	-0.009190272
211	0x3cbf633d	0.02336275
212	0x3cd5effa	0.026115406
213	0x3def850a	0.11695297
214	0xbd302fed	-0.043014456
215	0xbccdcaaf	-0.025121061
216	0xbb78bfc1	-0.003795609
217	0x3da180ce	0.07885896
218	0xbda376cf	-0.07981645
219	0x3c53a05a	0.012916649
220	0x3d99f1bf	0.075168125
221	0xbdee8d9b	-0.11648103
222	0xbd4e6178	-0.050385922
223	0x3db25009	0.08706672
224	0x3c16807d	0.009185907
225	0x3e2d3bb0	0.169173
226	0x3cc6ad38	0.024252519
227	0xbdcd943e	-0.100380406
228	0x3d0b4c7b	0.034008484
229	0xbc70e007	-0.01470185
230	0xbb15f9eb	-0.0022884558
231	0xbc4a68c7	-0.012354082
232	0xbd7c10fd	-0.06153964
233	0xbda6bcb8	-0.08141464
234	0xbce15c7d	-0.027509922
235	0xbd4774be	-0.04869532
236	0x3d92ce3f	0.071682446
237	0x3a423d43	0.00074096414
238	0x3c0a978d	0.008458984
239	0xbc768a42	-0.015047612
240	0xbd6a3f1f	-0.057189103
241	0xbdb51213	-0.08841338
242	0xbc92349e	-0.017847355
243	0x3dd9b13c	0.10629508
244	0xbd63a20d	-0.055574466
245	0x3d89f9d2	0.067371026
246	0x3cff2d58	0.031149551
247	0x3b30cba8	0.0026976857
248	0x3c821892	0.015880857
249	0xbd07c063	-0.03314246
250	0xbd92e0dd	-0.071717955
251	0xbd3f5045	-0.04670741
252	0x3c249abf	0.01004666
253	0xbd758f87	-0.05995133
254	0x3ad938f0	0.0016572755
255	0x3c682754	0.014169533

actor.weight f4 [4, 352]
0	0xbd21c114	-0.039490774
1	0xbc3451b8	-0.011005811
2	0xbd35b46c	-0.044361517
3	0xbd249708	-0.040183097
4	0xbc7679dd	-0.015043703
5	0x3c05a470	0.008156881
6	0x3cb7186a	0.022350509
7	0x3d3136b0	0.043265045
8	0xbd0c9724	-0.034323826
9	0x3d27c173	0.040955972
10	0x3d312463	0.04324759
11	0x3c735c10	0.014853492
12	0xbb326801	-0.0027222636
13	0x3d97df24	0.074156076
14	0x3da1d0b3	0.07901134
15	0xbbb3b789	-0.0054845256
16	0xbd66d94d	-0.056359578
17	0xba41725a	-0.00073794054
18	0xbd199026	-0.037490986
19	0xbc117e91	-0.008880273
20	0x3c4818a8	0.01221291
21	0x3d2d6fc8	0.04234293
22	0x3d28e103	0.041230213
23	0xbbd87abf	-0.0066064293
24	0xbc114ac0	-0.008867919
25	0xbd261afd	-0.04055308
26	0x3bebaaaf	0.007191978
27	0x3ccab473	0.024744248
28	0xbcb9ffc1	-0.02270496
29	0x3d339d9b	0.043851476
30	0xbc0ceb42	-0.008601012
31	0x3d2f35a3	0.04277576
32	0xbcbc5775	-0.022990922
33	0x3c708330	0.014679715
34	0x3c847fb1	0.01617417
35	0x3b87e73b	0.004147438
36	0xbc3bd6a9	-0.011464753
37	0xbd643f0d	-0.055724192
38	0xbd80783c	-0.06272933
39	0xbd4a9f26	-0.049468182
40	0xbd77bdad	-0.060483623
41	0x3cdccb9e	0.026952561
42	0x3ce05094	0.027382173
43	0x3d6ccfbd	0.057815302
44	0xbaf7d72a	-0.0018908728
45	0xba91ed03	-0.0011133257
46	0x3d062ada	0.03275571
47	0x3bf1603d	0.007366209
48	0xbd4a8b3f	-0.0494492
49	0xbbd04a08	-0.0063564815
50	0xbc80fcd0	-0.01574555
51	0xbd02bd38	-0.031918734
52	0xbd4f5973	-0.050622415
53	0x3cb918cd	0.022594834
54	0xbcef905c	-0.02924364
55	0xbc84dc3d	-0.016218299
56	0x3d1805d7	0.037114944
57	0xbcb63600	-0.022242546
58	0x3cb9bc10	0.022672683
59	0x3c99ddf8	0.0187826
60	0xbd6fb89f	-0.058525678
61	0x3d21d74e	0.03951197
62	0xbd46e399	-0.048556898
63	0x3d271acd	0.040797044
64	0xbd6a9fa7	-0.057281163
65	0x3d971c15	0.07378403
66	0x3c249b41	0.010046781
67	0xbcb1cf0b	-0.021705171
68	0xbb846d99	-0.0040413854
69	0xbd0f62ed	-0.035006452
70	0xbcc258d9	-0.023724006
71	0x3cd9dde5	0.026595065
72	0xbcbbbb61	-0.022916498
73	0xbd777535	-0.06041451
74	0x3d05493d	0.03254055
75	0xbc0cdfee	-0.008598311
76	0x394e458e	0.00019671602
77	0x3cddf050	0.027092129
78	0xbbcc9ee4	-0.006244527
79	0xba50ef53	-0.00079702324
80	0x3b1688c4	0.0022969702
81	0xbd5e5acc	-0.05428581
82	0x3d2ffce6	0.042965792
83	0x3cca8d30	0.024725527
84	0xbd288d97	-0.041150656
85	0xbc3f020c	-0.011658203
86	0xbc8f25b3	-0.017474031
87	0x3cb34e01	0.021887781
88	0x3b738380	0.0037157238
89	0x3b647593	0.0034860119
90	0xbc8cfc40	-0.017210126
91	0xbaa067f0	-0.0012238007
92	0x3d92e2e8	0.07172185
93	0xbb8c7f7b	-0.004287658
94	0xbd124761	-0.035712603
95	0x3cf9fbda	0.0305156
96	0xbc75f5e0	-0.015012234
97	0xbcd6f852	-0.026241455
98	0x3ce1fb1e	0.027585562
99	0xbd872f68	-0.06600839
100	0xbcbe779f	-0.0232504
101	0xbd43858f	-0.047734793
102	0x3d1e7a25	0.038690705
103	0xbd3ed3b2	-0.046588607
104	0x3c93ff6a	0.018066127
105	0x3b96c25c	0.004600806
106	0x3cff1065	0.031135747
107	0xbcf7cbc5	-0.030248532
108	0xbc5ea704	-0.013589624
109	0x3d068ecb	0.03285102
110	0x3cdb935b	0.026803663
111	0xbd3fc380	-0.046817303
112	0xbc9def65	-0.019279191
113	0xbd200f27	-0.03907695
114	0x3cf1de47	0.029524935
115	0xbcc5dc0b	-0.024152776
116	0x3c2e4f29	0.01063899
117	0x3d0bee73	0.03416295
118	0xbb92ff13	-0.0044859736
119	0xbd490543	-0.049077284
120	0xbd822dec	-0.06356415
121	0xba23031e	-0.0006218421
122	0x3d37858e	0.044805102
123	0x3d7fa979	0.06241748
124	0x3c593e56	0.013259491
125	0xbc825ce9	-0.015913444
126	0xbc9cbc26	-0.019132685
127	0xbca253f4	-0.019815423
128	0x3cc03006	0.0234604
129	0x3b0a99de	0.002114884
130	0x3cd2353d	0.025660152
131	0x3c45fad7	0.012083731
132	0xbcaf4053	-0.021392977
133	0x3cc8d8ff	0.024517534
134	0x3da89de0	0.08233237
135	0xbcf12c85	-0.029440174
136	0xbc9c05d5	-0.01904575
137	0xbd665533	-0.056233596
138	0x3d6d496e	0.057931356
139	0xbd3c1ab8	-0.04592392
140	0xbca276ae	-0.019831982
141	0xbd228eb2	-0.039686866
142	0xbcdd1643	-0.026988154
143	0xbb99c99d	-0.0046932236
144	0x3a55ead8	0.00081602996
145	0xbd513e74	-0.05108495
146	0x3d3b35af	0.045705494
147	0xbcdc7b66	-0.02691431
148	0xbd5a60dd	-0.053315032
149	0x3d56db1d	0.052455056
150	0xbc40f865	-0.011777972
151	0xbc9878f1	-0.018612357
152	0x3d5cd1a9	0.053910885
153	0xbc8c87fc	-0.017154686
154	0x3d04c426	0.032413624
155	0x3d2927ba	0.04129765
156	0x3c65dde7	0.014029956
157	0xbcd37b1a	-0.025815535
158	0x3c2800af	0.010254069
159	0x3d522c6e	0.051311903
160	0xbc543583	-0.012952211
161	0x3b0017f9	0.0019545539
162	0x3c299d97	0.010352514
163	0xbd3a23ab	-0.045444172
164	0x3d3769f2	0.04477877
165	0x3c630cd4	0.013858039
166	0xbd556bf6	-0.052104913
167	0xbcb90f87	-0.022590412
168	0x3cc9f6c1	0.024653794
169	0x3d5f7909	0.054558787
170	0x3ca007e4	0.019535013
171	0xbd4c9628	-0.049947888
172	0xbca57863	-0.020199006
173	0xbd15f9ab	-0.036615055
174	0xbcc6b205	-0.024254808
175	0x3cefa7fe	0.02925491
176	0x3d6d195c	0.057885513
177	0xbd173fdf	-0.036926147
178	0x3c390688	0.011293061
179	0xbd3dfb7b	-0.04638241
180	0xbd504df6	-0.0508556
181	0xbc99d313	-0.018777406
182	0x3d6a20da	0.057160236
183	0x3ce6cdd0	0.02817431
184	0xbd804a11	-0.06264127
185	0xbd1b9f34	-0.037993625
186	0x3d71a725	0.058997292
187	0x3d501f93	0.05081136
188	0xbb39ae2b	-0.0028332572
189	0xbc52faab	-0.012877147
190	0xbbd75234	-0.0065710787
191	0x3ddaa53e	0.10676049
192	0x3cf6ace6	0.030111741
193	0x3ce11786	0.027477037
194	0x3d48698f	0.048928794
195	0x3cf54828	0.029941633
196	0x3d26b1fd	0.040697087
197	0x3c8d7e35	0.017272094
198	0xbcd4e081	-0.025985958
199	0xbbf1f5c8	-0.0073840357
200	0xbcb40afd	-0.021977896
201	0x3d118c55	0.03553422
202	0xbcf2e205	-0.02964879
203	0x3d11bc99	0.03558025
204	0x3c345796	0.01100721
205	0xbce9ef78	-0.02855657
206	0xbd460402	-0.048343666
207	0x3da6141b	0.081093036
208	0xbcf5f94a	-0.030026097
209	0xbc84867f	-0.016177414
210	0x3c4308d3	0.011903959
211	0xbd59ae97	-0.053145017
212	0x3ccb24c8	0.024797812
213	0x3d1b7ea4	0.03796257
214	0xbd62ae57	-0.055342045
215	0x3b7fd5d6	0.0039037368
216	0xba0844a2	-0.00051982154
217	0x3d6b77e8	0.0574874
218	0xbd5e4b9a	-0.054271318
219	0xbd42ddfc	-0.047574982
220	0xbd57961e	-0.052633397
221	0x3cb0f6db	0.021602085
222	0x3d360f8e	0.044448428
223	0xbc8ebe7c	-0.017424814
224	0xbcf87d79	-0.030333268
225	0xbd3dd315	-0.04634388
226	0xbd999de1	-0.07500816
227	0x3b87f5f8	0.004149195
228	0xbca866e6	-0.020556878
229	0x3d1df289	0.038561378
230	0xbd1a27c9	-0.0376356
231	0xbcc3bc96	-0.023893636
232	0xbd0d46ec	-0.034491464
233	0x3d5cbf0f	0.053893145
234	0x3d26e311	0.04074389
235	0xbd8e5b2f	-0.06950986
236	0x3caafc32	0.02087221
237	0x3cfa7f14	0.030578174
238	0xbcfe35f1	-0.03103158
239	0xbcd774cf	-0.026300816
240	0x3c22dc17	0.009940169
241	0x3d2f4d8d	0.042798568
242	0x3d8e46ab	0.069470726
243	0xbd26023b	-0.04052947
244	0x3d79288b	0.06082968
245	0x3cc32c24	0.023824759
246	0x3b42031b	0.0029603902
247	0xbc42b666	-0.0118843075
248	0xbcc508b3	-0.024052
249	0xbb2bc203	-0.002620817
250	0x3d035a48	0.03206852
251	0x3ba45dc5	0.005016061
252	0xbcef1a1d	-0.029187256
253	0xbd250892	-0.040291376
254	0xba4f7f03	-0.00079153496
255	0xbc4930d8	-0.012279712

actor.bias f4 [4]
0	0xbc08cd90	-0.008349791
1	0xbcf3ccef	-0.029760806
2	0x3d14a468	0.036289603
3	0xbda0dd0d	-0.07854662

critic.weight f4 [1, 352]
0	0xbc9905ae	-0.018679466
1	0xbd272529	-0.040806923
2	0x3e58a220	0.21155596
3	0x3bb50a84	0.005524935
4	0x3d76114e	0.060075097
5	0xbb42958a	-0.0029691183
6	0xbbea0fa1	-0.0071429764
7	0x3d9d9081	0.076935776
8	0x3d828b61	0.06374241
9	0xbd98cc94	-0.07460895
10	0x3e6035a0	0.21895456
11	0x3d9af400	0.075660706
12	0xbd80f499	-0.06296653
13	0xbcc9c300	-0.024629116
14	0xbcf215e4	-0.029551454
15	0xbddded5f	-0.108362906
16	0x3dd74227	0.105106644
17	0x383a0f10	4.4359884e-05
18	0xbcc98e46	-0.024603974
19	0x3e608be7	0.21928369
20	0x3d5e71d1	0.054307763
21	0xbc64a198	-0.013954543
22	0x3d38644e	0.045017533
23	0xbdbff9f7	-0.09373849
24	0x3cce0c1b	0.025152257
25	0x3ab45419	0.0013757973
26	0x3d52d2ec	0.051470682
27	0x3d6a51cd	0.057206918
28	0xbbaf1fb6	-0.0053443564
29	0xbd14644f	-0.036228474
30	0x3d34c524	0.04413332
31	0xbd163637	-0.036672797
32	0x3b571ed6	0.0032824776
33	0xbd49be34	-0.049253657
34	0xbdec6d8e	-0.115443334
35	0xbc561c2f	-0.013068243
36	0xbc71a632	-0.014749097
37	0xbbaf91fa	-0.005357978
38	0x3e014cc7	0.12626944
39	0x3e5ab053	0.21356325
40	0x3e35f53a	0.17769328
41	0x3d8437b9	0.06455941
42	0x3cdf540a	0.027261753
43	0xbdb79c12	-0.08965315
44	0x3dae1ce4	0.08501604
45	0x3d1a27ca	0.037635602
46	0xbdb5bb34	-0.08873597
47	0x3e4a6936	0.19766697
48	0xbc1de369	-0.009636738
49	0x3dca967f	0.09891986
50	0x3dbe0571	0.092783816
51	0x3dc50343	0.09619763
52	0x3dba01e4	0.09082392
53	0xbd6951d7	-0.056962814
54	0xbe213634	-0.15743333
55	0x3c818625	0.015811035
56	0x3db9025a	0.09033652
57	0xbd05f8ae	-0.032707863
58	0xbda3d95e	-0.08000444
59	0xbe401b70	-0.18760467
60	0x3dbf1901	0.09330941
61	0xbd9d62ae	-0.07684837
62	0xbcef5d20	-0.02921921
63	0x3d10903d	0.035293806
64	0x3e57228c	0.21009272
65	0xbcca1079	-0.024666058
66	0xbbd17ee7	-0.0063933018
67	0x3dc76ddb	0.0973775
68	0x3b8e8a58	0.004349988
69	0x3e2ca33a	0.16859141
70	0xbd535569	-0.051595125
71	0x3d66d453	0.056354832
72	0x3d69a306	0.057040237
73	0xbc8c3362	-0.017114345
74	0xbda02b48	-0.07820755
75	0xbe2a910f	-0.16656898
76	0x3bd81c93	0.006595203
77	0xbc72e6b8	-0.014825515
78	0x3b01b49f	0.0019791496
79	0x3d5de577	0.054173913
80	0x3d5841e4	0.052797213
81	0x3daf3794	0.085555226
82	0xbcae7fb5	-0.02130113
83	0x3d064e83	0.03278972
84	0x3d567bbe	0.052364103
85	0x3d71c071	0.059021417
86	0xbdb265be	-0.08710812
87	0xbda50d16	-0.080591366
88	0xba5ef6c1	-0.0008505397
89	0x3d476618	0.04868135
90	0xbd0caefd	-0.03434657
91	0xbd778e93	-0.060438704
92	0xbd72e6e2	-0.05930222
93	0x3d405600	0.046957016
94	0xbd03f6b4	-0.032217696
95	0xbc43036e	-0.011902673
96	0x3d711529	0.05885807
97	0xbc73f86f	-0.014890774
98	0x3cb9d281	0.022683384
99	0x3d1cc5ce	0.03827458
100	0xbdf57fdc	-0.11987278
101	0x3d9fcfd0	0.07803309
102	0xbd832624	-0.06403759
103	0x3d3bab05	0.045817394
104	0x3e31811e	0.1733441
105	0xbdd7e3a4	-0.10541466
106	0x3d6b6ba5	0.057475705
107	0x3d3d42ec	0.0462064
108	0x3dd9c90c	0.1063405
109	0x3dd92894	0.10603443
110	0xbc8161c4	-0.015793689
111	0xbc5daa81	-0.013529421
112	0x3d9ce42e	0.07660709
113	0x3d8def32	0.069303885
114	0x3d2f46c2	0.04279209
115	0xbd687ecb	-0.056761544
116	0x39cf477c	0.00039535377
117	0x3dd4fe73	0.10400095
118	0x3cbad73d	0.022807712
119	0x3dc72ad7	0.09724968
120	0x3dd29ea6	0.10284166
121	0xbdf553a0	-0.11978841
122	0xbc44d936	-0.012014678
123	0xbd11eab6	-0.03562423
124	0xbc37b005	-0.0112114
125	0x3e40728a	0.18793693
126	0xbdafe050	-0.08587706
127	0x3d9970be	0.07492207
128	0x3d185c4c	0.037197396
129	0xbcbf93e3	-0.023385948
130	0xbcabc58a	-0.020968217
131	0x3daab11c	0.08334562
132	0x3dbe132e	0.09281002
133	0x3de8ef58	0.11373776
134	0x3b9b60bc	0.0047417562
135	0x3d90e0b7	0.07074111
136	0x3b8b5418	0.004251968
137	0x3d9f2d84	0.07772353
138	0x3c26435f	0.010147898
139	0x3d9c50a9	0.07632572
140	0x3cbc5e46	0.022994172
141	0x3a73d1d7	0.0009300983
142	0xbc9e6855	-0.019336859
143	0x3cdd990b	0.027050516
144	0x3aef33e9	0.0018249723
145	0x3d926d6f	0.07149779
146	0x3a56b091	0.00081897626
147	0x3d962235	0.07330743
148	0x3d6592f7	0.05604836
149	0x3cb05092	0.021522794
150	0x3dd6d1d9	0.10489244
151	0x3e25852e	0.16164085
152	0xbcb37195	-0.021904746
153	0x3b38412f	0.0028115024
154	0x3dc1f256	0.0947005
155	0x3d5e3d20	0.054257512
156	0x3e33ab55	0.17545827
157	0x3d772bab	0.06034438
158	0x3d40e522	0.047093518
159	0x3d2dd639	0.042440627
160	0x3dd62710	0.10456669
161	0xbd267091	-0.040634695
162	0x3da2fedc	0.07958767
163	0xbd89848a	-0.06714733
164	0xbcf50728	-0.029910639
165	0x3d26f559	0.040761326
166	0x3d631a95	0.055445272
167	0xbb413627	-0.002948174
168	0x3e205b3c	0.15659803
169	0xbce491a2	-0.027901474
170	0xbc61706b	-0.013759713
171	0x3c627978	0.013822906
172	0x3d840429	0.06446106
173	0xbce61409	-0.028085725
174	0xbd0ee2b2	-0.034884162
175	0xbd125cc2	-0.035732992
176	0xbbce19f6	-0.006289716
177	0xbbbcab84	-0.005757751
178	0xbacd634e	-0.0015669854
179	0xbbab47bb	-0.005227057
180	0x3ad8e835	0.0016548695
181	0x3d28c547	0.041203763
182	0xbc02517b	-0.007953997
183	0x3cb31ff7	0.021865828
184	0xbb4eada1	-0.0031536596
185	0x3dcf5e91	0.10125459
186	0xbd020ab3	-0.031748485
187	0xbbd312af	-0.0064414362
188	0x3cb4ff5c	0.022094421
189	0x3d81385b	0.06309577
190	0x3d896986	0.0670958
191	0xbc9c0273	-0.019044137
192	0x3e2b1859	0.16708507
193	0x3e32d0f2	0.17462519
194	0xbcdb1cb9	-0.026747094
195	0x3d501576	0.050801717
196	0xbc885f9a	-0.016647149
197	0x3c934b2e	0.017980184
198	0xbd1ccf1d	-0.038283456
199	0xbc8d2492	-0.017229352
200	0x3e0b23bc	0.1358785
201	0xbd941155	-0.07229868
202	0x3d9f08a8	0.07765323
203	0xbe011fb3	-0.12609749
204	0xbcbfc4ef	-0.023409335
205	0x3c46fea2	0.01214567
206	0x3ded1ace	0.11577378
207	0xb92cb2d1	-0.00016469813
208	0xbbbcf497	-0.005766462
209	0x3d016022	0.03158582
210	0x3e553a53	0.2082303
211	0x3e5b4b32	0.21415403
212	0xbbfdd96b	-0.0077468655
213	0xbcecf3c9	-0.02892484
214	0x3d927b00	0.07152367
215	0x3e68d686	0.22738084
216	0xbd3ac0a9	-0.04559389
217	0xbdd14c8d	-0.10219679
218	0x3afa9181	0.001911685
219	0x3cd83387	0.026391758
220	0xbda5a743	-0.08088543
221	0xbd0441cd	-0.032289315
222	0x3d501202	0.050798424
223	0xbd653248	-0.055956155
224	0x3ca85bce	0.020551588
225	0xbe2118dd	-0.15732141
226	0x3e382f4c	0.17986792
227	0xbc7fb43e	-0.015606938
228	0xbdb3041d	-0.08741019
229	0x3ded515b	0.11587783
230	0x3d243395	0.040088255
231	0x3e4dee78	0.201105
232	0x3e40cc09	0.18827833
233	0xbca1f59e	-0.01977044
234	0xba70c1f6	-0.0009184176
235	0x3e1b4cc5	0.15166004
236	0xbdf67881	-0.12034703
237	0x3cb12c5d	0.0216276
238	0x3d360077	0.044434037
239	0x3af3e241	0.0018606858
240	0x3e604a79	0.21903409
241	0x3af26c09	0.0018495332
242	0xbcef9227	-0.029244496
243	0xbe43ad8d	-0.19109173
244	0xbcaa510a	-0.020790596
245	0xbdbb52c4	-0.09146646
246	0x3d93aac4	0.07210305
247	0x3e3aee58	0.18254983
248	0xbd944fa1	-0.072417505
249	0x3e1d0b03	0.15336232
250	0xbce86033	-0.028366184
251	0x3d31da7a	0.043421246
252	0x3d294c46	0.041332506
253	0x3dcbe467	0.09955674
254	0x3e465c49	0.19371141
255	0x3d636d07	0.0555239
