gym_models_4/model_290.pth (torch, 518546 bytes, 11 tensors)

features_extractor.conv1.weight f4 [16, 4, 4]
-0.13236076 -0.30975208 -0.27710962 -0.06146248 0.16875061 0.023556896 -0.033267587 -0.16878328
0.30532292 -0.08328554 -0.14484346 0.15153512 0.13553065 0.30741543 -0.005393546 0.16262221
0.14980237 0.2787731 -0.05829439 0.3077931 0.25648767 0.077908084 -0.06577325 -0.04581098
-0.17349719 -0.046329897 -0.099236034 -0.04675482 0.080349445 0.1597582 0.102366544 0.21440208
0.047892034 -0.11795011 0.09062636 -0.018535137 -0.20898676 -0.0869472 0.060982645 -0.123448044
0.0055960417 0.06954315 0.08656061 -0.15340668 0.14315489 0.027603805 -0.21648785 0.093228996
0.14544347 -0.061948806 0.10874612 0.12947619 -0.24408698 0.12083821 0.16098295 -0.0062576244
0.10989177 0.038549036 0.08034735 -0.1835803 0.05587239 -0.16799904 0.24119277 -0.24243934
-0.10545531 0.13583991 -0.2153422 -0.04657823 0.22069725 0.24771968 -0.24100521 0.1653842
-0.16728309 -0.052842975 0.12321001 -0.20233926 -0.13663265 0.07817969 -0.14580873 0.0031096637
-0.18516245 -0.046445947 -0.13776872 -0.05378104 -0.12659527 0.004977214 0.152467 0.27213112
0.038217302 0.20692109 -0.08008491 0.079799555 -0.050109703 0.002504412 0.20833339 0.03758022
0.07547552 0.039668553 0.26922747 0.19062449 0.053895745 0.23205973 0.23525433 0.057137717
0.19283198 0.06675683 0.0131005775 -0.11923949 0.17236169 0.17899324 0.24028951 -0.033788145
-0.06949565 0.040076762 0.100608855 -0.2453225 -0.24840948 0.00087976456 -0.20716703 0.16913974
-0.13610381 -0.08703098 0.20006266 -0.034374475 0.21151093 -0.2376489 -0.009167135 -0.10028654
0.009357477 -0.027718076 0.28021565 -0.12523597 0.21040645 -0.023007052 0.1944552 0.1769477
0.18002868 -0.084177785 -0.08386669 0.02371838 0.13743046 -0.14220682 0.17521387 0.17112999
-0.058967933 -0.10124763 0.027676605 -0.28800422 0.021792052 0.25578624 -0.0775994 0.2239045
-0.041239183 0.19803113 -0.064969964 -0.101039335 0.0070941085 -0.05520463 -0.11415033 0.13510956
-0.015680036 -0.020223005 -0.24687873 -0.04702204 0.1342854 0.24389099 0.017528227 -0.11208521
0.15086795 -0.06898938 0.1908519 0.0880611 0.24445434 0.057458125 -0.011154218 -0.05477979
-0.16532171 -0.14763519 -0.23078182 0.024341434 0.17658103 -0.1387788 0.15964869 0.24597624
-0.11863685 -0.15827954 -0.0154771805 -0.07973006 -0.11937854 0.22921988 -0.23766041 0.06618062
0.21505079 0.2760823 -0.058753897 0.31858194 -0.10425349 0.13673165 0.11669557 -0.12924
-0.10670056 0.08568934 0.17780906 0.15179703 -0.19949763 0.2434534 -0.024332147 -0.03339048
0.12291517 0.02157402 0.13661645 -0.17759497 -0.11891791 0.19436571 0.17802401 0.23327069
-0.06023146 -0.22882852 -0.10420427 -0.09273124 0.16898961 0.07291527 -0.15803193 -0.087525964
-0.0662788 -0.31380522 0.022031132 -0.2893529 -0.08986611 0.09630986 0.24198347 0.20692113
0.15978211 -0.18122795 0.029573584 -0.031023452 0.1751777 0.20566577 -0.07297611 -0.043319408
-0.36251634 0.06383084 -0.24229711 -0.1606069 0.016137809 0.22387354 0.22445416 -0.010961131
0.007862705 0.06397414 -0.060114816 0.07088902 0.2226173 -0.044192143 -0.18044418 0.15963194
00000000: 9489 07be d397 9ebe 50e1 8dbe 15c0 7bbd
00000010: f6cc 2c3e 64fa c03c 9843 08bd 86d5 2cbe
00000020: 4953 9c3e 9c91 aabd d851 14be 062c 1b3e
00000030: 8cc8 0a3e 8e65 9d3e 58bc b0bb 7086 263e
00000040: cb65 193e 59bb 8e3e 19c6 6ebd 0f97 9d3e
00000050: 5a52 833e 468e 9f3d 20b4 86bd 4ba4 3bbd
00000060: 3fa9 31be 6bc4 3dbd 433c cbbd fb81 3fbd
00000070: 408e a43d a797 233e 8da5 d13d 388c 5b3e
00000080: 702a 443d d48f f1bd 509a b93d 00d7 97bc
00000090: a000 56be 6011 b2bd f0c8 793d 54d2 fcbd
000000a0: 005f b73b a46c 8e3d b046 b13d a416 1dbe
000000b0: 3297 123e 6021 e23c feae 5dbe d8ee be3d
000000c0: 22ef 143e 08be 7dbd 49b6 de3d 6895 043e
000000d0: f0f1 79be 067a f73d b7d8 243e c20c cdbb
000000e0: f00e e13d 98e5 1d3d 278d a43d 79fc 3bbe
000000f0: 72da 643d f107 2cbe 3dfb 763e 0542 78be
00000100: f4f8 d7bd 9e19 0b3e aa82 5cbe d0c8 3ebd
00000110: 76fe 613e 3aaa 7d3e 12ca 76be 7a5a 293e
00000120: 424c 2bbe e071 58bd 8855 fc3d 0632 4fbe
00000130: 6ee9 0bbe ac1c a03d e24e 15be 80cb 4b3b
00000140: 3a9b 3dbe 1b3e 3ebd 3e13 0dbe 8249 5cbd
00000150: 31a2 01be e617 a33b 4f20 1c3e c554 8b3e
00000160: bf89 1c3d 1fe3 533e 8f03 a4bd f36d a33d
00000170: d53f 4dbd 1021 243b 5955 553e b7ed 193d
00000180: e992 9a3d 7e7b 223d 2fd8 893e 1133 433e
00000190: c9c1 5c3d 11a1 6d3e 83e6 703e 3d09 6a3d
000001a0: bf75 453e ceb7 883d cea3 563c d533 f4bd
000001b0: 957f 303e 014a 373e 740e 763e 7065 0abd
000001c0: bc53 8ebd 8827 243d 040c ce3d d235 7bbe
000001d0: 0e5f 7ebe 00a0 663a 9823 54be f832 2d3e
000001e0: cc5e 0bbe 4c3d b2bd 3add 4c3e 40cc 0cbd
000001f0: 5296 583e 3c5a 73be c031 16bc 0863 cdbd
00000200: 1a50 193c 0511 e3bc 6d78 8f3e dc3d 00be
00000210: ca74 573e 4979 bcbc 441f 473e c731 353e
00000220: 7059 383e 6765 acbd 4dc2 abbd 0c4d c23c
00000230: 92ba 0c3e aa9e 11be 446b 333e b33c 2f3e
00000240: 5c88 71bd eb5a cfbd 0cba e23c 4a75 93be
00000250: 3f85 b23c 6af6 823e 6fec 9ebd 3947 653e
00000260: 6bea 28bd acc8 4a3e f90e 85bd b6ed cebd
00000270: b275 e83b 401e 62bd a6c7 e9bd 295a 0a3e
00000280: 6b73 80bc b7aa a5bc c7cd 7cbe 2f9a 40bd
00000290: 1d82 093e 8fbe 793e 5b97 8f3c ee8c e5bd
000002a0: 217d 1a3e 4e4a 8dbd ae6e 433e 6159 b43d
000002b0: 3d52 7a3e 3659 6b3d 2ec0 36bc c660 60bd
000002c0: 184a 29be ae2d 17be 1252 6cbe b067 c73c
000002d0: a8d1 343e 081c 0ebe f27a 233e 32e1 7b3e
000002e0: e0f7 f2bd 0814 22be 0094 7dbc 8449 a3bd
000002f0: bc7c f4bd 9eb8 6a3e 405d 73be b489 873d
00000300: 4636 5c3e a95a 8d3e eda7 70bd 2c1d a33e
00000310: db82 d5bd 6203 0c3e 16fe ee3d 7e57 04be
00000320: d385 dabd e57d af3d 9413 363e ae70 1b3e
00000330: 1b49 4cbe d94b 793e 3654 c7bc 75c4 08bd
00000340: f3ba fb3d 00bc b03c 2fe5 0b3e 75db 35be
00000350: 3c8b f3bd ce07 473e ed4b 363e 83de 6e3e
00000360: 43b5 76bd 0652 6abe 0c69 d5bd e0e9 bdbd
00000370: 9d0b 2d3e 9a54 953d 1fd3 21be d040 b3bd
00000380: 2ebd 87bd 14ab a0be a27a b43c 1026 94be
00000390: b90b b8bd 1b3e c53d 84ca 773e 22e3 533e
000003a0: ec9d 233e d293 39be 4d44 f23c e524 febc
000003b0: c861 333e 0c9a 523e 8074 95bd b16f 31bd
000003c0: be9b b9be beb9 823d bc1c 78be 2376 24be
000003d0: 7033 843c 1b3f 653e 50d7 653e 5196 33bc
000003e0: 93d2 003c e004 833d f43a 76bd 432e 913d
000003f0: caf5 633e d202 35bd 5cc6 38be 8e76 233e

features_extractor.conv1.bias f4 [16]
0.16994977 0.20565203 -0.241467 0.093824275 -0.21005383 -0.13422091 0.09376887 -0.0530307
-0.11660834 0.25073317 -0.19380738 -0.23993891 0.20771968 -0.10674821 0.1875754 0.044277992
00000000: 5007 2e3e 7296 523e 2043 77be f126 c03d
00000010: 5a18 57be 3571 09be e509 c03d b836 59bd
00000020: 5ad0 eebd 1960 803e 7175 46be 8cb2 75be
00000030: 78b4 543e ce9e dabd c413 403e d75c 353d

features_extractor.conv2.weight f4 [32, 16, 4]
0.005603954 0.04117644 0.023769915 -0.042742074 -0.095771536 0.06608635 -0.10750386 -0.062823266
0.07613553 0.08131665 -0.043880567 0.06828141 -0.05770369 -0.018196717 -0.104032755 0.07032481
-0.10236201 -0.027530566 -0.06346801 0.11368096 -0.10683267 -0.034963906 0.0052683502 -0.023932472
0.0118340105 0.0972819 -0.12422411 -0.09728658 -0.086215466 -0.09342717 -0.11982295 0.02656348
0.001456216 0.044222802 0.030979097 0.019746408 0.02549544 0.09878881 0.02379486 0.11403586
0.0026860982 0.06281981 -0.10200244 -0.06901167 0.024176672 0.09119889 0.031480536 -0.08512691
0.12309286 -0.079784796 -0.045753166 -0.11996287 -0.11262201 0.110755935 -0.002616167 0.064705774
0.11013223 -0.047527835 -0.043963313 0.029683411 -0.049082622 0.07280512 -0.014538363 -0.10674533
-0.25188822 -0.15945116 -0.177472 -0.23213677 0.09963918 0.15080497 0.019314958 0.07928072
0.11761691 -0.003871724 -0.010218784 -0.08319354 0.08847309 -0.051004607 0.13190559 0.071860895
0.11564171 0.020791158 -0.09170048 0.040882736 -0.21258987 0.003009659 -0.23350754 -0.25384584
0.08420779 0.09100575 -0.04611782 0.115402095 -0.010039851 -0.025223508 -0.08589627 -0.09404205
0.0623193 0.0625646 0.10797912 0.07060734 -0.2850181 -0.1436111 -0.26056486 -0.1915621
-0.08415235 0.028471068 -0.13123699 -0.15690579 -0.046103626 0.079263985 -0.04623957 -0.11364311
0.0013835351 0.13294937 0.09913977 0.028653288 -0.20376843 -0.0750511 -0.16766131 -0.20451872
-0.08170923 -0.10556572 -0.15726794 -0.23337494 -0.11152144 -0.32068434 -0.264877 -0.2597874
-0.043004375 -0.14077514 -0.12648854 -0.17251095 0.010054559 0.02119544 -0.008759424 0.09605588
0.01979661 0.090131134 0.06415352 -0.12189752 -0.041436754 -0.027066842 0.030241504 0.06960173
-0.050027072 0.004221529 0.12264556 0.093053326 -0.16619447 -0.12758933 -0.13684824 -0.09970668
0.05801454 0.027187245 0.096856035 0.01028788 -0.1063962 -0.028876558 0.0582449 0.02915138
0.020169877 -0.10272385 0.08305633 0.06798386 -0.096347846 -0.124868646 -0.2570542 -0.22349371
0.034955613 -0.017271612 0.009078104 -0.01678497 0.024207622 0.080415845 -0.010367081 0.07767959
0.076704085 -0.03072122 0.14778416 -0.02110783 -0.22540791 -0.16807467 -0.08715162 -0.068663985
-0.011453736 -0.013787397 -0.098090775 -0.15180627 -0.25435156 -0.24936768 -0.3149561 -0.2342408
0.22034116 0.18648414 0.23965786 0.15432298 0.09948455 0.019670641 0.036380667 -0.06957981
-0.10474788 -0.10521957 0.09904979 -0.10579102 -0.11704238 -0.109861806 -0.067699656 -0.061197497
-0.11431149 -0.011782244 0.076163545 0.11911303 0.19405015 0.072343096 0.079059005 0.09620697
0.14392869 -0.07278706 0.0051517533 0.12745781 -0.04178591 -0.015764505 -0.0731193 0.10576899
0.042842988 0.14356638 0.14229825 0.08384438 0.25493774 0.08593317 0.25517187 0.23127018
0.041768435 0.19412543 0.12947297 0.08900756 0.01626192 -0.017071769 0.122926936 -0.109512836
-0.04280144 -0.107714176 0.06841352 -0.058570333 0.23920447 0.14881806 0.03767863 0.08435109
0.06963061 0.23166284 0.24368136 0.24977401 0.068199135 0.27302247 0.19537152 0.15229836
00000000: 60a1 b73b a0a8 283d 20b9 c23c 5012 2fbd
00000010: de23 c4bd 4858 873d fc2a dcbd 7ca9 80bd
00000020: f2ec 9b3d 5889 a63d 1cbc 33bd 20d7 8b3d
00000030: b45a 6cbd 4811 95bc 200f d5bd 7406 903d
00000040: 2ca3 d1bd c887 e1bc 84fb 81bd 90d1 e83d
00000050: 16cb dabd 5036 0fbd 20a2 ac3b 080e c4bc
00000060: 70e3 413c bc3b c73d 3669 febd 303e c7bd
00000070: bc91 b0bd be56 bfbd bc65 f5bd a89b d93c
00000080: 80de be3a f822 353d e0c7 fd3c 38c3 a13c
00000090: d0db d03c ca51 ca3d 70ed c23c a28b e93d
000000a0: 4009 303b aca7 803d a8e6 d0bd fe55 8dbd
000000b0: 280e c63c 7cc6 ba3d bcf1 003d 0457 aebd
000000c0: 1c18 fc3d 3666 a3bd ac67 3bbd 18af f5bd
000000d0: 5ea6 e6bd 02d4 e23d 0074 2bbb 7684 843d
000000e0: 028d e13d 8cac 42bd e012 34bd a02a f33c
000000f0: dc0a 49bd da1a 953d 5032 6ebc 4c9d dabd
00000100: 7ef7 80be 2a47 23be 38bb 35be 43b5 6dbe
00000110: a00f cc3d 9e6c 1a3e 673a 9e3c ee5d a23d
00000120: 22e1 f03d c0bc 7dbb b06c 27bc 6061 aabd
00000130: 6131 b53d 35ea 50bd 4212 073e ce2b 933d
00000140: 90d5 ec3d 3852 aa3c 76cd bbbd a874 273d
00000150: 29b1 59be b33d 453b 9a1c 6fbe 15f8 81be
00000160: 2275 ac3d 3961 ba3d 0ae6 3cbd ef57 ec3d
00000170: 307e 24bc 88a1 cebc 62ea afbd 1e99 c0bd
00000180: 8642 7f3d de21 803d 2824 dd3d 959a 903d
00000190: e4ed 91be ca0e 13be c268 85be db28 44be
000001a0: 1158 acbd 283c e93c fd62 06be e9ab 20be
000001b0: 28d7 3cbd 2855 a23d b465 3dbd b8bd e8bd
000001c0: bc57 b53a e123 083e cb09 cb3d 4dba ea3c
000001d0: aca8 50be 64b4 99bd 68af 2bbe 5b6d 51be
000001e0: 2b57 a7bd d732 d8bd d90a 21be d7f9 6ebe
000001f0: 5a65 e4bd bd30 a4be f59d 87be db02 85be
00000200: 5b25 30bd 5c27 10be 3686 01be b6a6 30be
00000210: e1bb 243c 0fa2 ad3c b083 0fbc f2b8 c43d
00000220: 802c a23c ac96 b83d ec62 833d 68a5 f9bd
00000230: 96b9 29bd 48bb ddbc 08bd f73c 5a8b 8e3d
00000240: 30e9 4cbd c054 8a3b 982d fb3d be92 be3d
00000250: e22e 2abe c7a6 02be f221 0cbe 0433 ccbd
00000260: a7a0 6d3d c9b7 de3c 755c c63d 7f8e 283c
00000270: 40e6 d9bd 888e ecbc 3492 6e3d e0ce ee3c
00000280: 4c3b a53c e260 d2bd 7019 aa3d 1f3b 8b3d
00000290: 0552 c5bd 22bb ffbd 9c9c 83be 89db 64be
000002a0: 9e2d 0f3d 327d 8dbc 54bc 143c a280 89bc
000002b0: 104f c63c 10b1 a43d b0da 29bc 7a16 9f3d
000002c0: 0817 9d3d 11ab fbbc bb54 173e 54ea acbc
000002d0: 55d1 66be c41b 2cbe 8c7c b2bd b49f 8cbd
000002e0: 73a8 3bbc 89e4 61bc d1e3 c8bd 1a73 1bbe
000002f0: 5e3a 82be 3e5a 7fbe ed41 a1be d2dc 6fbe
00000300: 1da1 613e b3f5 3e3e df68 753e d806 1e3e
00000310: 8ebe cb3d 5324 a13c e503 153d dc7f 8ebd
00000320: 0e86 d6bd 5c7d d7bd 9eda ca3d f6a8 d8bd
00000330: eab3 efbd 3aff e0bd 1ea6 8abd 3aaa 7abd
00000340: 241c eabd 500a 41bc a2fb 9b3d 88f1 f33d
00000350: 15b5 463e 9e28 943d b0e9 a13d 2908 c53d
00000360: 0b62 133e 6211 95bd 0ad0 a83b 4d84 023e
00000370: b427 2bbd 9024 81bc 92bf 95bd 6a9d d83d
00000380: 217c 2f3d 1103 133e a2b6 113e 9ab6 ab3d
00000390: 3387 823e bbfd af3d e3a5 823e 17d2 6c3e
000003a0: 6115 2b3d d1c8 463e 9094 043e 9849 b63d
000003b0: b837 853c 18da 8bbc 1ec1 fb3d 4448 e0bd
000003c0: 9050 2fbd 4099 dcbd 631c 8c3d 72e7 6fbd
000003d0: 04f2 743e c363 183e e854 1a3d 44c0 ac3d
000003e0: 7e9a 8e3d 0639 6d3e 9b87 793e c2c4 7f3e
000003f0: fdab 8b3d 9ac9 8b3e 790f 483e 1af4 1b3e

features_extractor.conv2.bias f4 [32]
-0.004705727 -0.0070798886 0.048102424 -0.060869563 -0.107530095 0.07498619 0.17149618 -0.0380561
0.026836082 0.0745876 -0.03809242 0.13662283 0.14090057 -0.07529564 -0.12022875 -0.079999015
-0.086129546 0.08252736 -0.046655193 -0.07731383 0.015371796 -0.082456514 -0.04751008 -0.070523776
-0.044669047 -0.08993194 0.09056321 -0.06183211 0.115571365 -0.0790294 -0.093846664 -0.07979551
00000000: 8032 9abb 69fe e7bb 0c07 453d 5d52 79bd
00000010: bd38 dcbd 5c92 993d b29c 2f3e b7e0 1bbd
00000020: 58d7 db3c 62c1 983d cc06 1cbd dbe6 0b3e
00000030: 3d48 103e 9a34 9abd 7e3a f6bd 86d6 a3bd
00000040: b064 b0bd 1b04 a93d 8419 3fbd b756 9ebd
00000050: fcd9 7b3c f6de a8bd ee99 42bd c56e 90bd
00000060: e4f6 36bd 3d2e b8bd 3479 b93d ab43 7dbd
00000070: aeb0 ec3d 2bda a1bd ae32 c0bd d46b a3bd

features_extractor.fc_op.weight f4 [32, 3]
-0.1567733 0.19965817 -0.18520156 -0.076455295 -0.030035105 -0.5086381 -0.25248432 0.297467
0.2587971 -0.18459642 0.27393517 -0.2793596 -0.45977205 -0.49132788 0.15172905 -0.44778168
-0.45857948 0.29241306 -0.21014561 -0.518126 0.50167775 -0.4914331 -0.049701866 0.34111318
-0.020743283 -0.23315586 -0.49256042 -0.46754506 0.39028487 -0.14263132 -0.12387759 0.012129476
0.47947702 -0.014066551 -0.394763 0.66468537 -0.08458467 -0.31016034 -0.045761175 -0.007196427
0.05908859 -0.41106376 0.41028294 0.28474805 -0.5918234 0.22032508 -0.38046625 0.1920967
-0.47481522 -0.5104588 0.49978802 0.5236648 -0.16576177 -0.45557353 0.28395334 -0.33985165
0.26028705 -0.3844894 0.26695517 -0.5110418 0.24009189 -0.25872633 0.010336752 0.13439837
-0.11491889 0.10340938 -0.4528721 -0.4696651 -0.50535077 -0.4396607 0.32166994 0.08493231
0.23757169 0.16389869 -0.07691643 -0.02905716 -0.09530664 0.13439135 0.21917413 -0.4181685
0.16969897 -0.19120158 0.35290518 -0.34557816 0.26210502 0.27457982 0.49013492 -0.19979507
-0.27334958 -0.16201717 -0.28305164 0.028048437 -0.27746743 0.10862885 -0.1906987 0.059720833
00000000: 2e89 20be 3173 4c3e 7aa5 3dbe 9894 9cbd
00000010: 2e0c f6bc 1b36 02bf a045 81be 984d 983e
00000020: 0e81 843e d806 3dbe 3b41 8c3e 3908 8fbe
00000030: 3e67 ebbe 548f fbbe dc5e 1b3e a443 e5be
00000040: eeca eabe 2ab7 953e 6930 57be e8a3 04bf
00000050: f46d 003f 1f9d fbbe 2f94 4bbd 63a6 ae3e
00000060: d1ed a9bc 69c0 6ebe e130 fcbe 1162 efbe
00000070: 6bd3 c73e f20d 12be 89b3 fdbd b6ba 463c
00000080: 037e f53e 6477 66bc 601e cabe d228 2a3f
00000090: ba3a adbd 56cd 9ebe 1270 3bbd 01d0 ebbb
000000a0: e106 723d f376 d2be 9b10 d23e 7fca 913e
000000b0: bd81 17bf e69c 613e 79cc c2be ffb4 443e
000000c0: fb1a f3be 6ead 02bf 37e4 ff3e e50e 063f
000000d0: 74bd 29be ef40 e9be 5562 913e 0901 aebe
000000e0: 5844 853e cbdb c4be 59ae 883e a3d3 02bf
000000f0: a6da 753e c777 84be 7b5b 293c ba9f 093e
00000100: 985a ebbd 4cc8 d33d dade e7be f277 f0be
00000110: ab5e 01bf 351b e1be ecb1 a43e fef0 ad3d
00000120: fe45 733e 0fd5 273e 5c86 9dbd 4809 eebc
00000130: 2130 c3bd e39d 093e 2f6f 603e 2e1a d6be
00000140: 91c5 2d3e 59ca 43be fdaf b43e 9fef b0be
00000150: a132 863e ba95 8c3e f7f2 fa3e 1497 4cbe
00000160: 7af4 8bbe d4e7 25be 25ec 90be d6c5 e53c
00000170: 3610 8ebe cd78 de3d 8546 43be d59d 743d

features_extractor.fc_op.bias f4 [32]
-0.29576045 0.55587107 0.2883726 -0.36447585 0.54151607 0.24536057 -0.47566447 -0.08427386
0.56664836 -0.32958382 0.42976424 0.55790067 0.26616135 0.107244164 -0.1543452 0.015045003
-0.25088593 0.047964573 0.18821661 -0.123881035 -0.39070448 -0.29336724 0.035173867 0.5478211
0.39909095 -0.4911044 -0.07856313 -0.43648097 -0.016651383 -0.5343445 0.31839758 -0.47760078
00000000: ea6d 97be 914d 0e3f 93a5 933e 949c babe
00000010: cca0 0a3f cd3f 7b3e 4b8a f3be c697 acbd
00000020: de0f 113f 36bf a8be 0f0a dc3e 94d2 0e3f
00000030: 4d46 883e d4a2 db3d ab0c 1ebe 517f 763c
00000040: 1f74 80be 8076 443d dbbb 403e 57b5 fdbd
00000050: 6b0a c8be 3b34 96be 7912 103d 013e 0c3f
00000060: a655 cc3e 0972 fbbe b5e5 a0bd 6f7a dfbe
00000070: 7b68 88bc cdca 08bf 0205 a33e 1788 f4be

features_extractor.fc_merge.weight f4 [352, 352]
-0.04399348 -0.003966395 0.007623648 -0.03627211 -0.037151206 -0.03698261 0.0049510743 0.028399777
-0.048096977 -0.025131641 0.008376569 0.00014444777 0.04597023 0.015660109 0.01700373 -0.033784326
-0.022551795 -0.049836118 -0.017159391 -0.05048693 -0.04485291 0.004345174 -0.042550057 0.0026340778
0.03872082 -0.04998421 -0.042112134 0.04419658 0.024832293 -0.045065686 -0.029097306 -0.002113715
-0.015396506 0.047271065 -0.0435808 0.0034109554 -0.01061379 -0.046269942 -0.028574757 -0.004709704
-0.05050929 -0.008410626 -0.026230626 0.026177946 0.042244785 -0.0037092343 -0.0028890504 0.0087654125
-0.01834903 -0.009842317 0.0031258087 0.043530464 0.01657936 0.004818672 0.028973823 -0.04353692
0.049218327 -0.038535614 0.025892116 0.020703478 -0.0031550801 -0.05693992 0.032232374 -0.03884533
-0.020306002 -0.008358453 -0.039888915 -0.027020484 0.022611182 -0.008718061 -0.019790368 -0.024386099
0.043873597 -0.019182205 -0.020788759 -0.054626446 -0.010143974 0.028961489 -0.030848304 0.0021421304
-0.028445613 -0.004623468 0.04545325 -0.020833554 0.041265618 -0.028046431 -0.035516016 0.035469327
-0.036560956 0.006490917 -0.014011108 -0.020766303 0.035462763 0.04312362 -0.00022784049 -0.020373508
0.014719405 0.033281233 0.025711536 -0.043301858 -0.029679796 0.004826303 0.04495568 -0.008713801
0.0498096 0.0007445409 0.04416038 0.023633892 0.005883048 0.0058434126 0.03722456 0.03689556
-0.051960703 0.044519484 -0.0015398674 0.034511685 -0.0009112069 -0.015337048 -0.050202746 0.037445117
0.03232195 0.014561985 0.030008852 -0.035846677 -0.0037238665 0.043412827 -0.051497426 0.036049206
0.03723508 0.033532813 -0.02203431 -0.036077693 -0.025401985 -0.039522555 0.0032612416 -0.017278936
0.049526624 0.048642736 0.041599523 -0.026933612 0.009588057 -0.009987709 -0.021798352 0.033353332
-0.027366642 0.021271387 -0.026448684 -0.028083479 -0.01049405 -0.05242034 -0.0069858967 0.045060854
0.020886507 -0.040070403 -0.02449676 0.03674858 0.035602733 -0.017513381 -0.01134803 -0.036605205
0.04770669 -0.043439813 -0.008228759 0.020811278 0.018809833 -0.015470552 -0.024205524 -0.026636919
0.03951437 -0.027659949 -0.04948178 0.03484048 -0.017722035 -0.037693266 0.0051563997 0.029162997
-0.009322649 -0.02347169 -0.009037805 0.012024095 -0.015561861 0.0060135107 0.01642522 -0.005594416
-0.041642558 -0.04116783 -0.032105792 0.0024946951 0.0017694769 -0.04053549 -0.0073094987 -0.046786055
0.035289455 -0.012707061 -0.013187418 -0.004354121 0.002713972 -0.04256882 0.028745929 -0.008017848
-0.03766003 -0.024310982 -0.023387069 0.034776382 -0.010272923 -0.037149016 0.012324366 0.013418721
0.018371312 -0.043172084 0.040789098 0.0027354492 -0.045056134 0.0026835436 -0.010133956 -0.043513305
0.038805306 -0.04694318 0.019868637 -0.029093308 -0.016135259 0.03718881 -0.013522969 -0.04596285
-0.019681953 -0.050961323 -0.02345992 0.0031470542 -0.0022446045 0.025688771 -0.0082292585 -0.0010754396
0.037855975 0.048152156 -0.013768343 0.006324273 0.032544103 -0.04979516 -0.03381167 -0.033850465
-0.047618136 0.04311909 -0.028001215 0.03018169 0.038195718 -0.019361958 0.023088563 0.034842726
0.0139247235 0.041058935 0.022269282 0.051141173 0.03523837 0.03784278 0.04504715 -0.03861312
00000000: 8232 34bd 88f8 81bb cbcf f93b 1092 14bd
00000010: dd2b 18bd 147b 17bd 9f3c a23b a6a6 e83c
00000020: 5601 45bd dfe0 cdbc e03d 093c e776 1739
00000030: 484b 3c3d a149 803c 684b 8b3c 6f61 0abd
00000040: 8bbe b8bc f520 4cbd da91 8cbc 62cb 4ebd
00000050: afb7 37bd f661 8e3b f848 2ebd 7ea0 2c3b
00000060: b999 1e3d 3ebc 4cbd c67d 2cbd 7907 353d
00000070: 186d cb3c cc96 38bd 795d eebc 4186 0abb
00000080: a041 7cbc 4e9f 413d c881 32bd 568a 5f3b
00000090: 76e5 2dbc 8d85 3dbd 9c15 eabc dc53 9abb
000000a0: d4e2 4ebd b9cc 09bc 9ce1 d6bc 2273 d63c
000000b0: de08 2d3d a016 73bb 3956 3dbb ce9c 0f3c
000000c0: b450 96bc ab41 21bc 5eda 4c3b 004d 323d
000000d0: 70d1 873c f3e5 9d3b 835a ed3c c553 32bd
000000e0: 2899 493d 85d7 1dbd b41b d43c 579a a93c
000000f0: 76c5 4ebb d539 69bd 1806 043d 481c 1fbd
00000100: c658 a6bc e5f1 08bc 8f62 23bd 105a ddbc
00000110: 163b b93c 33d6 0ebc 691f a2bc 5bc5 c7bc
00000120: cdb4 333d 0024 9dbc 304d aabc fbbf 5fbd
00000130: e932 26bc a540 ed3c 95b5 fcbc fc62 0c3b
00000140: c606 e9bc 7680 97bb 302d 3a3d 21ab aabc
00000150: 2306 293d a1c1 e5bc 3e79 11bd 4948 113d
00000160: f1c0 15bd c2b1 d43b d98e 65bc 181e aabc
00000170: 6741 113d 65a2 303d 77e8 6eb9 58e6 a6bc
00000180: a929 713c e751 083d 00a1 d23c 4a5d 31bd
00000190: 0b23 f3bc f725 9e3b 7223 383d 55c4 0ebc
000001a0: 2705 4c3d 4b2d 433a 84e1 343d dd9b c13c
000001b0: 95c6 c03b 197a bf3b c878 183d cc1f 173d
000001c0: bfd4 54bd 105a 363d 60d5 c9ba 205c 0d3d
000001d0: 0fde 6eba 3e48 7bbc 65a1 4dbd 0d60 193d
000001e0: 0564 043d 6495 6e3c 20d5 f53c f7d3 12bd
000001f0: 1d0c 74bb a6d1 313d f7ee 52bd 55a8 133d
00000200: d083 183d b459 093d 4c81 b4bc 34c6 13bd
00000210: d317 d0bc 67e2 21bd 8eba 553b 8e8c 8dbc
00000220: 6edc 4a3d 9b3d 473d 4364 2a3d e1a3 dcbc
00000230: 3a17 1d3c 7da3 23bc 7592 b2bc 819d 083d
00000240: 0230 e0bc 5541 ae3c e9aa d8bc 530f e6bc
00000250: 3cef 2bbc b6b6 56bd f3e9 e4bb bb91 383d
00000260: 2e1a ab3c dd20 24bd 6ead c8bc ae85 163d
00000270: 2cd4 113d 3978 8fbc 16ed 39bc 57ef 15bd
00000280: 1768 433d f2ed 31bd ebd1 06bc 6a7c aa3c
00000290: 1417 9a3c 3378 7dbc aa4a c6bc ab35 dabc
000002a0: d2d9 213d 1e97 e2bc 68ad 4abd e4b4 0e3d
000002b0: cd2d 91bc 4164 1abd 04f7 a83b 3de7 ee3c
000002c0: 06be 18bc b447 c0bc 4d13 14bc b600 453c
000002d0: 2df7 7ebc fc0c c53b 2f8e 863c 5d51 b7bb
000002e0: 6391 2abd 999f 28bd 5d81 03bd 0a7e 233b
000002f0: cbed e73a 8b08 26bd 8584 efbb bca2 3fbd
00000300: ad8b 103d 4731 50bc 0a10 58bc 04ad 8ebb
00000310: e5dc 313b a55c 2ebd 957c eb3c 4b5d 03bc
00000320: 6741 1abd d327 c7bc 3d96 bfbc ae71 0e3d
00000330: c34f 28bc 9129 18bd 23ec 493c 32da 5b3c
00000340: 6f7f 963c 36d5 30bd 7812 273d 3945 333b
00000350: c88c 38bd 64de 2f3b e408 26bc 023b 32bd
00000360: 50f2 1e3d 7e47 40bd 8dc3 a23c 1755 eebc
00000370: 172e 84bc 4b53 183d 718f 5dbc 8b43 3cbd
00000380: 0c3c a1bc d2bc 50bd 052f c0bc cf3e 4e3b
00000390: 371a 13bb 4271 d23c 03d4 06bc c4f5 8cba
000003a0: de0e 1b3d 323b 453d 9e94 61bc d93b cf3b
000003b0: f74c 053d 02f6 4bbd 1b7e 0abd c9a6 0abd
000003c0: 3c0b 43bd a59d 303d ce62 e5bc 973f f73c
000003d0: 1d73 1c3d f89c 9ebc 3a24 bd3c 3fb7 0e3d
000003e0: 8624 643c 6a2d 283d 126e b63c 6879 513d
000003f0: 1c56 103d 0801 1b3d 5c83 383d ca28 1ebd

features_extractor.fc_merge.bias f4 [352]
0.013351152 0.041176807 0.017835075 -0.021908997 -0.027929332 -0.045450613 -0.12882806 -0.027681144
0.0363662 0.118159115 -0.04839416 0.038171913 -0.10542512 -0.08662699 -0.10213262 0.09828882
-0.028056003 -0.025098236 -0.0009595567 -0.056188833 -0.009354679 0.019546313 -0.0024784717 0.05753601
0.019582426 0.03393785 0.030528568 -0.06114003 -0.007857941 -0.011449827 -0.0047461116 -0.055485945
-0.0011657631 -0.022006128 0.057636652 -0.090071425 0.008085402 0.010074415 0.025325928 -0.016003856
-0.051799458 -0.058025636 -0.06646644 0.11649541 0.0018742514 0.012864524 0.05828548 0.027276166
0.032264125 0.025517646 -0.011048595 -0.036884166 0.0064717205 0.10787604 -0.08333442 -0.04194779
-0.016830737 -0.0030870226 0.08281431 0.060182545 0.04025431 0.04510457 0.033264674 0.005629766
-0.021662403 -0.076369196 0.03438501 0.026953643 -0.05163863 -0.04699546 -0.012064522 0.019004999
0.038317617 -0.014400996 0.021216856 0.055488076 -0.051957585 0.041489914 -0.012736587 -0.013690791
-0.03253375 0.007764659 -0.08926768 0.009773228 -0.03463908 -0.06044659 0.06057938 0.051792216
0.023611968 -0.01795818 -0.0064860345 0.04580395 -0.021063806 0.017237214 -0.011199198 -0.012973601
-0.0079619605 -0.00463394 0.010289957 -0.056577425 0.09888611 -0.052775558 -0.09831199 -0.0015795233
-0.046135996 0.042355653 0.00674015 -0.017468028 -0.0083764475 -0.039751314 -0.06621709 0.0014228036
0.017807169 -0.01065885 0.0038366746 0.010372421 -0.008683465 -0.029954212 -0.0006917355 -0.045721605
0.0076041925 0.13640493 -0.045711715 0.013714222 0.002503523 -0.029367754 0.053067464 0.04192174
-0.0018759147 -0.0061745015 -0.01438553 0.031117583 -0.0020130717 0.046400253 -0.094215155 0.014163289
-0.03741837 0.010355176 -0.083111964 -0.017741218 -0.04766104 -0.0526192 -0.10109323 -0.02143053
0.0009281773 -0.04740605 -0.039612718 0.00045590807 -0.009247218 -0.04025785 -0.04611062 0.0074969325
-0.049925532 -0.0055355723 0.02377904 0.007716313 -0.015418726 0.020946722 -0.058674987 -0.0008098268
0.036198504 -0.054196548 0.03051343 0.010945702 -0.09674414 -0.050491963 -0.044750076 0.018426225
-0.062258314 -0.03359704 -0.059474014 -0.021812456 -0.052656103 -0.075225726 -0.041220017 0.028143462
-0.038210936 -0.03524389 -0.012458144 0.01527433 0.005796475 -0.0307761 -0.070821665 -0.0046550967
0.0036582567 0.030417204 -0.039608497 -0.053956643 0.017018093 -0.03594451 -0.0012192836 -0.043072116
-0.029914057 0.018050415 -0.03485011 -0.020225078 -0.009894437 -0.0056437366 0.005097952 -0.0076886746
-0.002962737 -0.0081746075 -0.025820497 0.076436795 0.08315359 -0.0017669178 -0.04640216 -0.065603584
-0.006680428 0.02038677 0.0030818796 0.033590674 0.042931583 0.03153486 -0.025612226 -0.008848938
0.0006315076 0.12443977 -0.07981645 0.019393504 0.07067923 -0.10992949 -0.043790326 0.10684358
0.009185907 0.16968176 0.0355816 -0.09069951 0.020189086 -0.006144931 0.0039223563 0.00038852327
-0.05371316 -0.07488931 -0.027509922 -0.04052902 0.0899324 0.00074096414 0.018098172 -0.015047612
-0.04502356 -0.08841338 -0.09204164 0.10744074 -0.055574466 0.07240697 0.033218693 0.013842697
-0.0033626482 -0.016625328 -0.06589083 -0.034568075 0.018309694 -0.051395636 0.0133862365 0.027772592
00000000: cabe 5a3c 03a9 283d dd1a 923c 7f7a b3bc
00000010: 0ecc e4bc 6c2a 3abd 81eb 03be 91c3 e2bc
00000020: b9f4 143d 68fd f13d f438 46bd 275a 1c3d
00000030: 20e9 d7bd 7e69 b1bd e82a d1bd a64b c93d
00000040: b4d5 e5bc d19a cdbc c38a 7bba 4326 66bd
00000050: 5e44 19bc 971f a03c db6d 22bb e1aa 6b3d
00000060: 536b a03c 6a02 0b3d 0c17 fa3c f86d 7abd
00000070: 98be 00bc 0e98 3bbc 4585 9bbb 3b45 63bd
00000080: 85cc 98ba 3246 b4bc 6914 6c3d 5e77 b8bd
00000090: a278 043c 290f 253c 5278 cf3c 851a 83bc
000000a0: ab2b 54bd 4aac 6dbd 8f1f 88bd 2595 ee3d
000000b0: 71a9 f53a b9c5 523c c1bc 6e3d 4472 df3c
000000c0: 6327 043d 620a d13c 2b05 35bc da13 17bd
000000d0: ba10 d43b 1dee dc3d 3dab aabd 72d1 2bbd
000000e0: 9de0 89bc a54f 4abb 8d9a a93d f981 763d
000000f0: b4e1 243d 92bf 383d 8a40 083d e679 b83b
00000100: 5a75 b1bc 7467 9cbd 4cd7 0c3d e3cd dc3c
00000110: 0783 53bd 507e 40bd 46aa 45bc 5fb0 9b3c
00000120: eff2 1c3d 28f2 6bbc f9ce ad3c 7747 633d
00000130: 7ad1 54bd 54f1 293d 1ead 50bc 574f 60bc
00000140: 1c42 05bd ae6e fe3b f9d1 b6bd e41f 203c
00000150: b5e1 0dbd d896 77bd 1522 783d 1324 543d
00000160: e36d c13c 081d 93bc cd88 d4bb ec9c 3b3d
00000170: 018e acbc 0f35 8d3c d77c 37bc 3a8f 54bc
00000180: e272 02bc 4ed8 97bb 3597 283c bbbd 67bd
00000190: cd84 ca3d 2f2b 58bd cc57 c9bd 0208 cfba
000001a0: 19f9 3cbd 1f7d 2d3d 7adc dc3b 1c19 8fbc
000001b0: 5e3d 09bc 46d2 22bd d39c 87bd 5e7d ba3a
000001c0: 57e0 913c 75a2 2ebc b870 7b3b 16f1 293c
000001d0: 1845 0ebc 8962 f5bc 9555 35ba 9446 3bbd
000001e0: 972c f93b bcad 0b3e 353c 3bbd 9eb1 603c
000001f0: 2512 243b a594 f0bc 455d 593d 21b6 2b3d
00000200: 41e1 f5ba 7953 cabb 49b1 6bbc 4dea fe3c
00000210: bded 03bb 310e 3e3d e0f3 c0bd 240d 683c
00000220: 0144 19bd c2a8 293c 9b36 aabd 0856 91bc
00000230: 3938 43bd 3b87 57bd f809 cfbd 148f afbc
00000240: ed50 733a d92c 42bd f240 22bd f206 ef39
00000250: a581 17bc 6ae5 24bd 7dde 3cbd d4a8 f53b
00000260: b77e 4cbd bf63 b5bb 43cc c23c 20d9 fc3b
00000270: d39e 7cbc 7698 ab3c 2f55 70bd 8e4a 54ba
00000280: e244 143d 33fd 5dbd 4df7 f93c 9a55 333c
00000290: cb21 c6bd a9d0 4ebd db4b 37bd 98f2 963c
000002a0: 9302 7fbd 0d9d 09bd 069b 73bd 09b0 b2bc
000002b0: edad 57bd f20f 9abd 52d6 28bd 1e8d e63c
000002c0: 1283 1cbd e65b 10bd 3e1d 4cbc 2f41 7a3c
000002d0: 5bf0 bd3b 291e fcbc f30a 91bd c889 98bb
000002e0: 5dbf 6f3b 802d f93c 853c 22bd a401 5dbd
000002f0: 8769 8b3c 8d3a 13bd 5ed0 9fba 636c 30bd
00000300: 530e f5bc 77de 933c fdbe 0ebd 10af a5bc
00000310: 471c 22bc 18ef b8bb b90c a73b 47f1 fbbb
00000320: 7b2a 42bb caee 05bc 8285 d3bc e58a 9c3d
00000330: 6e4c aa3d ec97 e7ba 3110 3ebd 2c5b 86bd
00000340: 7ee7 dabb 2802 a73c 5cf9 493b 6096 093d
00000350: 07d9 2f3d b32a 013d bbd0 d1bc 23fb 10bc
00000360: c28b 253a 47da fe3d cf76 a3bd 20df 9e3c
00000370: 46c0 903d b622 e1bd 7c5d 33bd cfd0 da3d
00000380: 7d80 163c 0ec1 2d3e 03be 113d aac0 b9bd
00000390: 9563 a53c 6b5b c9bb 1c87 803b b6b2 cb39
000003a0: 5502 5cbd 915f 99bd 7d5c e1bc c201 26bd
000003b0: 7a2e b83d 433d 423a 9e42 943c 428a 76bc
000003c0: a06a 38bd 1312 b5bd 5480 bcbd e409 dc3d
000003d0: 0da2 63bd 1b4a 943d 5310 083d 7bcc 623c
000003e0: e05f 5cbb d731 88bc c5f1 86bd 4197 0dbd
000003f0: 36fe 953c 3b84 52bd f251 5b3c 5983 e33c

actor.weight f4 [4, 352]
-0.039490774 -0.008103872 -0.032556716 -0.040170155 -0.0043249466 0.0031991655 0.010150045 0.057793424
-0.031173864 0.04600785 0.053383928 0.01628389 -0.017630571 0.074156076 0.07822158 -0.00068061205
-0.053355463 -0.00073794054 -0.037490986 0.011240754 0.01080669 0.04732202 0.04545969 -0.0019862545
-0.0033532956 -0.04055308 0.010223927 0.02900768 -0.02270496 0.04928133 -0.005835926 0.034396756
-0.022990922 -0.00373218 0.019460797 -0.008820639 -0.025158867 -0.055724192 -0.058835372 -0.039811723
-0.040246848 0.03150133 0.029449502 0.06221486 0.033984337 0.0023122886 0.03774933 0.027586518
-0.0435964 -0.0016169521 -0.0073717777 -0.03236488 -0.03879504 0.027606005 -0.0023585095 -0.014426426
0.046885956 -0.022242546 0.027996982 0.023487065 -0.053500358 0.045092434 -0.048556898 0.042225186
-0.047824174 0.058938622 0.010094827 -0.02063322 -0.0040413854 -0.020265669 -0.021210425 0.030341098
-0.018363586 -0.06041451 0.035486586 -0.004047753 0.00019671602 0.027092129 0.0008465783 -0.00038003703
0.0055702333 -0.050068766 0.042965792 0.024725527 -0.04095899 -0.011272078 -0.01306327 0.029773982
-8.4317275e-05 0.006571449 -0.015388587 0.0014855631 0.05112124 0.0010003543 -0.035712603 0.0305156
-0.008714608 -0.026241455 0.027939312 -0.061293475 -0.018716842 -0.04771404 0.017360238 -0.046514023
0.029501129 0.009833859 0.035406224 -0.025788365 -0.013492982 0.032653075 0.026803663 -0.042229038
-0.02281894 -0.023428142 0.03227098 -0.017919041 0.01051776 0.03652733 0.0012532094 -0.030767908
-0.060954683 0.0042738672 0.044805102 0.06241748 0.013259491 -0.0030421284 -0.01540567 -0.013702519
0.033040494 0.002114884 0.025660152 0.022780417 -0.019750584 0.032538928 0.08095829 -0.02129791
-0.020744907 -0.052152246 0.054460958 -0.03790058 -0.019831982 -0.039686866 -0.0388851 -0.002401827
0.00081602996 -0.047228873 0.040859565 -0.026745608 -0.052793078 0.052455056 0.0010352961 -0.008192819
0.041976426 -0.017127065 0.036866084 0.045241598 0.021730728 -0.022844711 0.012105551 0.053515542
-0.009978894 0.0019545539 0.020958867 -0.04080723 0.027281178 0.05624729 -0.050174776 -0.022590412
0.036585685 0.038135327 0.005340884 -0.02441382 -0.014810899 -0.036615055 -0.036734916 0.02925491
0.041382603 -0.036926147 0.011293061 -0.03956268 -0.044538625 -0.016564688 0.04558687 0.029052343
-0.06264127 -0.03559438 0.047760114 0.03828675 0.0018645644 -0.010350677 -0.004563076 0.09210206
0.041661233 0.042509202 0.048928794 0.036501173 0.040697087 0.019216051 -0.022582613 -0.0073840357
-0.010076235 0.038342826 -0.013683237 0.040512122 0.013940046 -0.02855657 -0.047164798 0.074953906
-0.024770243 -0.013569451 0.02434901 -0.040524255 0.030363638 0.037385512 -0.051730793 0.016581712
0.002016747 0.06218693 -0.054271318 -0.045915492 -0.050385 0.0073005687 0.04659344 -0.012299935
-0.030333268 -0.04085308 -0.05274211 -0.010029163 -0.012410598 0.04036542 -0.034064148 -0.011255161
-0.025143992 0.043449767 0.04074389 -0.0601859 0.023767544 0.030578174 -0.023720816 -0.026300816
0.028755138 0.042798568 0.05862769 -0.03527602 0.06082968 0.028007839 0.00839962 -0.0007371715
-0.02099979 0.0046516517 0.012930949 0.006020076 -0.02534437 -0.030363316 0.008364792 -0.008812628
00000000: 14c1 21bd 1ac6 04bc 315a 05bd 7689 24bd
00000010: 48b8 8dbb 17a9 513b 604c 263c ccb8 6c3d
00000020: 5560 ffbc ba72 3c3d 1ba9 5a3d cb65 853c
00000030: fd6d 90bc 24df 973d a332 a03d 1a6b 32ba
00000040: 428b 5abd 5a72 41ba 2690 19bd 242b 383c
00000050: 8b0e 313c bcd4 413d f133 3a3d d22b 02bb
00000060: f7c2 5bbb fd1a 26bd 4282 273c 84a1 ed3c
00000070: c1ff b9bc 38db 493d 4c3b bfbb 9de3 0c3d
00000080: 7557 bcbc 9797 74bb 406c 9f3c 7184 10bc
00000090: f819 cebc 0d3f 64bd 5cfd 70bd 9e11 23bd
000000a0: e1d9 24bd 8a07 013d 1540 f13c 02d5 7e3d
000000b0: 2933 0b3d c489 173b 0b9f 1a3d 1ffd e13c
000000c0: 2492 32bd e9ef d3ba f48e f1bb 0991 04bd
000000d0: 8ce7 1ebd fd25 e23c 3991 1abb d15c 6cbc
000000e0: 7d0b 403d 0036 b6bc ed59 e53c f267 c03c
000000f0: 3123 5bbd d8b2 383d 99e3 46bd 51f4 2c3d
00000100: 48e3 43bd a069 713d c664 253c 0007 a9bc
00000110: 996d 84bb 3004 a6bc 7cc1 adbc e58d f83c
00000120: 3b6f 96bc 3575 77bd 625a 113d 03a3 84bb
00000130: 8e45 4e39 50f0 dd3c e8ec 5d3a b53f c7b9
00000140: 8186 b63b e814 4dbd e6fc 2f3d 308d ca3c
00000150: 9dc4 27bd 86ae 38bc 5307 56bc 91e8 f33c
00000160: 7ed3 b0b8 4f55 d73b 6920 7cbc 3ab7 c23a
00000170: 8164 513d 521e 833a 6147 12bd dafb f93c
00000180: b7c7 0ebc 52f8 d6bc fce0 e43c de0e 7bbd
00000190: 1054 99bc cc6f 43bd 0f37 8e3c 7d85 3ebd
000001a0: 5aac f13c 321e 213c 1e06 113d 1f42 d3bc
000001b0: ab11 5dbc 3bbf 053d 5b93 db3c 5bf8 2cbd
000001c0: c9ee babc 60ec bfbc 932e 043d f4ca 92bc
000001d0: af52 2c3c ae9d 153d bb42 a43a fb0c fcbc
000001e0: 9eab 79bd cc0b 8c3b 8e85 373d 79a9 7f3d
000001f0: 563e 593c 725e 47bb 1068 7cbc 8880 60bc
00000200: 7855 073d de99 0a3b 3d35 d23c ff9d ba3c
00000210: facb a1bc 8a47 053d 76cd a53d f478 aebc
00000220: 39f1 a9bc 989d 55bd 7412 5f3d a33d 1bbd
00000230: ae76 a2bc b28e 22bd fc45 1fbd f867 1dbb
00000240: d8ea 553a 1073 41bd 5c5c 273d 9b19 dbbc
00000250: 8e3d 58bd 1ddb 563d c6b2 873a 2c3b 06bc
00000260: 79ef 2b3d 0f4e 8cbc e400 173d 414f 393d
00000270: a404 b23c d524 bbbc 5c56 463c 1d33 5b3d
00000280: 847e 23bc f917 003b eeb1 ab3c 7b25 27bd
00000290: c77c df3c 8f63 663d 1184 4dbd 870f b9bc
000002a0: dfda 153d ca33 1c3d 9502 af3b 7eff c7bc
000002b0: 6aa9 72bc abf9 15bd 5a77 16bd fea7 ef3c
000002c0: ce80 293d df3f 17bd 8806 393c 7a0c 22bd
000002d0: 226e 36bd abb2 87bc 4cb9 3a3d 2eff ed3c
000002e0: 114a 80bd 6acb 11bd 1ca0 433d 91d2 1c3d
000002f0: 6664 f43a e395 29bc db85 95bb 01a0 bc3d
00000300: f8a4 2a3d 211e 2e3d 8f69 483d 4182 153d
00000310: fdb1 263d fb6a 9d3c 2cff b8bc c8f5 f1bb
00000320: cb16 25bc 5e0d 1d3d a82f 60bc 0af0 253d
00000330: ca64 643c 78ef e9bc e02f 41bd 6f81 993d
00000340: f7ea cabc 6752 5ebc 9377 c73c c3fc 25bd
00000350: 2abd f83c 8d21 193d abe3 53bd 5fd6 873c
00000360: 662b 043b b9b7 7e3d 9a4b 5ebd e211 3cbd
00000370: 8060 4ebd 9c39 ef3b c3d8 3e3d ab85 49bc
00000380: 797d f8bc 8f55 27bd 1c08 58bd 5c51 24bc
00000390: d255 4bbc 3656 253d d986 0bbd 9167 38bc
000003a0: c6fa cdbc 62f8 313d 11e3 263d 7e85 76bd
000003b0: 27b4 c23c 147f fa3c 2852 c2bc cf74 d7bc
000003c0: e58f eb3c 8d4d 2f3d 9723 703d 977d 10bd
000003d0: 8b28 793d b270 e53c 8f9e 093c be3e 41ba
000003e0: c007 acbc e26c 983b 55dc 533c 0f44 c53b
000003f0: ff9e cfbc 7dbc f8bc 7b0c 093c d762 10bc

actor.bias f4 [4]
0.0074355323 -0.036162924 0.032316864 -0.050452054
00000000: c4a5 f33b 931f 14bd b05e 043d d0a6 4ebd

critic.weight f4 [1, 352]
-0.018679466 -0.054898597 0.09769816 -0.0024340546 0.06616572 -0.008070305 -0.01166435 0.05555523
0.066344656 -0.09835233 0.12251653 0.08238019 -0.06673234 -0.024629116 -0.035889026 -0.11558907
0.10826663 4.4359884e-05 -0.024603974 0.10381071 0.051107556 -0.019321747 0.06007246 -0.09767767
0.03158192 0.0013757973 0.060720198 0.059357103 -0.0053443564 -0.04028257 0.05142321 -0.043382213
0.0032824776 -0.056918312 -0.120912194 -0.021179887 -0.02458888 -0.005357978 0.11897806 0.09229516
0.12957467 0.068363726 0.03000571 -0.099138826 0.030071108 0.04617041 -0.09522245 0.07130594
-0.015039843 0.10253112 0.09561639 0.09938197 0.066461556 -0.064661875 -0.003826486 0.021483164
0.068306684 -0.032707863 -0.095308654 -0.19293775 0.10156899 -0.080067724 -0.02921921 0.0460646
0.09899121 -0.030460227 -0.010573195 0.09835975 0.004349988 0.10067209 -0.060183328 0.05969569
0.058797386 -0.017114345 -0.08409842 -0.17139344 0.006595203 -0.014825515 -0.019923925 0.06128527
0.05725122 0.09104855 -0.02130113 0.03278972 0.052490104 0.062633604 -0.09137388 -0.084737815
0.009975656 0.058168594 -0.043999996 -0.06911829 -0.06478901 0.05490312 -0.032217696 -0.011902673
0.040553022 -0.014890774 0.03292471 0.04083855 -0.14096612 0.077513054 -0.068690605 0.046252012
0.08051019 -0.10889852 0.062403917 0.049447596 0.10610322 0.09427595 -0.015793689 -0.017656747
0.07639012 0.055668306 0.045893636 -0.060550187 -0.009424034 0.107772075 0.041884337 0.08749342
0.10272106 -0.12491686 -0.012014678 -0.03562423 -0.0112114 0.07842378 -0.09141181 0.05782257
0.041154485 -0.023385948 -0.020968217 0.087642565 0.0948027 0.1150978 0.011587144 0.07643135
-0.007853255 0.081457675 0.0017346104 0.08352678 0.022994172 0.0009300983 -0.028905444 0.030328643
0.0018249723 0.074120596 -0.003459293 0.073513284 0.06192574 0.021522794 0.08862378 0.10029021
-0.025831077 -0.002955634 0.0970224 0.059326615 0.08657587 0.06574758 0.05070937 0.04471691
0.10780985 -0.040634695 0.09213785 -0.07306278 -0.033713173 0.004675098 0.060563758 -0.002948174
0.07968073 -0.034371044 -0.01898479 0.010293484 0.07510697 -0.028085725 -0.038527664 -0.035732992
0.006602162 -0.005757751 -0.0015669854 -0.0030218423 -0.013001478 0.047018543 -0.016592612 0.026772395
-0.0031536596 0.09241248 -0.040934164 -0.010391665 0.021860495 0.06611901 0.06891897 -0.027520798
0.13868214 0.07678825 -0.026747094 0.06055876 -0.016647149 0.030091003 -0.04776995 -0.017229352
0.06244402 -0.0775396 0.08121983 -0.14219798 -0.03207037 0.01214567 0.10264341 -0.008072074
-0.014649829 0.040425003 0.095313706 0.1504339 -0.014801738 -0.038659345 0.07643897 0.12218924
-0.057635084 -0.124038026 0.001911685 0.03826901 -0.087324314 -0.041392762 0.05689699 -0.071122356
0.020551588 -0.16762757 0.081493124 -0.022102257 -0.0041893753 0.11627167 0.049657088 0.10561341
0.07454529 -0.02458945 -0.0009184176 0.07939244 -0.1317273 0.0216276 0.052698027 0.0018606858
0.10719766 0.0018494993 -0.03587714 -0.2001182 -0.020790596 -0.09989389 0.074922524 0.085489586
-0.07670597 0.1337733 -0.031858996 0.04932596 0.04861827 0.07523003 0.12930356 0.059198417
00000000: ae05 99bc 5add 60bd f915 c83d a984 1fbb
00000010: e581 873d 5039 04bc d41b 3fbc e18d 633d
00000020: b5df 873d f26c c9bd f2e9 fa3d f2b6 a83d
00000030: f7aa 88bd 00c3 c9bc 5f00 13bd f6b9 ecbd
00000040: e5ba dd3d 100f 3a38 468e c9bc b69a d43d
00000050: 2856 513d a448 9ebc 8a0e 763d 3b0b c8bd
00000060: 0b5c 013d 1954 b43a beb5 783d 6f20 733d
00000070: b61f afbb 56ff 24bd 25a1 523d 8cb1 31bd
00000080: d61e 573b 2d23 69bd d0a0 f7bd 7181 adbc
00000090: 9e6e c9bc fa91 afbb c5aa f33d 3f05 bd3d
000000a0: 39af 043e 4802 8c3d 89ce f53c 4c09 cbbd
000000b0: af57 f63c 2f1d 3d3d fd03 c3bd d908 923d
000000c0: ac69 76bc d6fb d13d 87d2 c33d c688 cb3d
000000d0: ff1c 883d 726d 84bd c8c5 7abb 76fd af3c
000000e0: 60e4 8b3d aef8 05bd 2f31 c3bd 7991 45be
000000f0: 6703 d03d 8cfa a3bd 205d efbc 3cae 3c3d
00000100: e7bb ca3d ba87 f9bc 323b 2dbc d670 c93d
00000110: 588a 8e3b 2b2d ce3d cb82 76bd 7883 743d
00000120: 87d5 703d 6233 8cbc cb3b acbd c381 2fbe
00000130: 931c d83b b8e6 72bc 8037 a3bc 4306 7b3d
00000140: 4180 6a3d aa77 ba3d b57f aebc 834e 063d
00000150: ddff 563d 0c46 803d 3b22 bbbd 058b adbd
00000160: ef70 233c 3142 6e3d 5739 34bd e48d 8dbd
00000170: 1ab0 84bd 18e2 603d b4f6 03bd 6e03 43bc
00000180: ed1a 263d 6ff8 73bc 10dc 063d 5346 273d
00000190: 6c59 10be 2abf 9e3d a9ad 8cbd c072 3d3d
000001a0: 87e2 a43d 3006 dfbd 409b 7f3d 9089 4a3d
000001b0: a54c d93d c013 c13d c461 81bc e2a4 90bc
000001c0: 6c72 9c3d 7304 643d f7fa 3b3d 7903 78bd
000001d0: 4367 1abc 9bb7 dc3d e98e 2b3d c02f b33d
000001e0: 6b5f d23d 69d4 ffbd 36d9 44bc b6ea 11bd
000001f0: 05b0 37bc a69c a03d 1d36 bbbd 5cd7 6c3d
00000200: 9b91 283d e393 bfbc 8ac5 abbc f27d b33d
00000210: eb27 c23d 65b8 eb3d 01d8 3d3c 0a88 9c3d
00000220: f0aa 00bc 48d3 a63d de5b e33a 1710 ab3d
00000230: 465e bc3c d7d1 733a 1ccb ecbc c673 f83c
00000240: e933 ef3a 8acc 973d 4eb5 62bb 228e 963d
00000250: d8a5 7d3d 9250 b03c 6280 b53d f464 cd3d
00000260: b29b d3bc 4fb3 41bb aeb3 c63d 7700 733d
00000270: b14e b13d aba6 863d a1b4 4f3d 1429 373d
00000280: 69cb dc3d 9170 26bd c5b2 bc3d f0a1 95bd
00000290: d316 0abd 9131 993b b411 783d 2736 41bb
000002a0: a72f a33d a7c8 0cbd fe85 9bbc 00a6 283c
000002b0: afd1 993d 0914 e6bc 2fcf 1dbd c25c 12bd
000002c0: f356 d83b 84ab bcbb 4e63 cdba 1a0a 46bb
000002d0: 2704 55bc 8496 403d 3bed 87bc c851 db3c
000002e0: a1ad 4ebb c142 bd3d 95aa 27bd cd41 2abc
000002f0: c814 b33c 6769 873d 6425 8d3d 4c73 e1bc
00000300: b102 0e3e 2843 9d3d b91c dbbc 760c 783d
00000310: 9a5f 88bc 6881 f63c 6caa 43bd 9224 8dbc
00000320: 4dc5 7f3d 15cd 9ebd 9556 a63d 599c 11be
00000330: 385c 03bd a2fe 463c b536 d23d bb40 04bc
00000340: d605 70bc b094 253d d533 c33d 580b 1a3e
00000350: fd82 72bc 4359 1ebd 098c 9c3d 5a3e fa3d
00000360: c412 6cbd a607 febd 8191 fa3a f7bf 1c3d
00000370: 17d7 b2bd 758b 29bd d10c 693d 99a8 91bd
00000380: ce5b a83c 90a6 2bbe dee5 a63d cb0f b5bc
00000390: 0747 89bb d71f ee3d 3b65 4b3d d84b d83d
000003a0: 33ab 983d d06f c9bc f6c1 70ba 8198 a23d
000003b0: 85e3 06be 5d2c b13c e3d9 573d 41e2 f33a
000003c0: 728a db3d e66a f23a e8f3 12bd c9eb 4cbe
000003d0: 0a51 aabc 2b95 ccbd fb70 993d 2a15 af3d
000003e0: 0518 9dbd defb 083e 947e 02bd 050a 4a3d
000003f0: f323 473d 3412 9a3d 2768 043e 0a7a 723d
