gym_models_4/model_830.pth (torch, 518546 bytes, 11 tensors)

features_extractor.conv1.weight f4 [16, 4, 4]
-0.16010706 -0.34101316 -0.3082786 -0.08952459 0.17257257 0.021846151 -0.04305435 -0.18668298
0.30914506 -0.08499611 -0.15463042 0.13363542 0.1393526 0.30570406 -0.015180242 0.1447225
0.14124325 0.2783445 -0.057267606 0.30352992 0.22564058 0.048220556 -0.09002171 -0.0600051
-0.20434408 -0.07601768 -0.1234845 -0.06094898 0.04950251 0.13007036 0.07811808 0.20020826
0.047892034 -0.11795011 0.09062636 -0.018535137 -0.20898676 -0.0869472 0.060982645 -0.123448044
0.0055960417 0.06954315 0.08656061 -0.15340668 0.14315489 0.027603805 -0.21648785 0.093228996
0.1393298 -0.06023237 0.11356463 0.13072987 -0.26447138 0.10237338 0.14911556 -0.008021718
0.0895071 0.020084228 0.06848 -0.18534401 0.035487846 -0.18646386 0.22932538 -0.24420306
-0.10545531 0.13583991 -0.2153422 -0.04657823 0.22069725 0.24771968 -0.24100521 0.1653842
-0.16728309 -0.052842975 0.12321001 -0.20233926 -0.13663265 0.07817969 -0.14580873 0.0031096637
-0.19809236 -0.07249901 -0.17184658 -0.09298004 -0.13569517 -0.00080496515 0.14920752 0.26843563
0.029117648 0.20113887 -0.08334448 0.07610312 -0.05920945 -0.0032777768 0.20507391 0.033883933
0.064405344 0.03791557 0.271086 0.18462293 0.015361628 0.19707337 0.20799899 0.04016066
0.15429793 0.031770788 -0.014154707 -0.13621633 0.13382764 0.14400688 0.21303418 -0.050765205
-0.06949565 0.040076762 0.100608855 -0.2453225 -0.24840948 0.00087976456 -0.20716703 0.16913974
-0.13610381 -0.08703098 0.20006266 -0.034374475 0.21151093 -0.2376489 -0.009167135 -0.10028654
0.06968231 -0.0024963808 0.2830944 -0.15792653 0.12532952 -0.094368756 0.15065825 0.15864924
0.09495176 -0.15553923 -0.12766375 0.005419336 0.052353457 -0.21356845 0.13141692 0.1528315
-0.047801603 -0.10319924 0.02045838 -0.29342484 0.033552494 0.2673728 -0.070045575 0.22300448
-0.029478697 0.20961748 -0.057416406 -0.10193937 0.018854579 -0.043618426 -0.106596515 0.13420953
-0.021427382 -0.040782608 -0.2685795 -0.06428772 0.13619058 0.24349925 0.009600452 -0.13006231
0.15277313 -0.06938027 0.18292396 0.07008383 0.2463595 0.057066813 -0.019082028 -0.07275728
-0.16532171 -0.14763519 -0.23078182 0.024341434 0.17658103 -0.1387788 0.15964869 0.24597624
-0.11863685 -0.15827954 -0.0154771805 -0.07973006 -0.11937854 0.22921988 -0.23766041 0.06618062
0.211324 0.27837276 -0.055156343 0.3153511 -0.12662491 0.11792625 0.10591014 -0.12924717
-0.12907213 0.06688403 0.16702367 0.15178986 -0.22186889 0.22464825 -0.035117507 -0.033397608
0.13081625 0.030347195 0.1550823 -0.2286329 -0.14653035 0.19286804 0.18447638 0.2607244
-0.087843865 -0.23032619 -0.09775178 -0.06527718 0.1413777 0.07141728 -0.15157956 -0.060071915
-0.058365956 -0.3181155 0.012782578 -0.29594254 -0.07980454 0.106025726 0.24716952 0.20329824
0.16984351 -0.17151149 0.034759182 -0.03464591 0.18523909 0.21538223 -0.067790456 -0.04694185
-0.39181688 0.06230693 -0.28321353 -0.19764869 0.027908603 0.22270444 0.23067999 -0.0017512977
0.019633535 0.06280471 -0.05388884 0.08009876 0.23438814 -0.04536146 -0.17421836 0.16884182
00000000: 1bf3 23be 4799 aebe b1d6 9dbe ab58 b7bd
00000010: ddb6 303e b3f6 b23c c259 30bd d329 3fbe
00000020: 4348 9e3e 7112 aebd 7057 1ebe b9d7 083e
00000030: 73b2 0e3e 3e85 9c3e 8db6 78bc 2332 143e
00000040: 12a2 103e 2c83 8e3e 7091 6abd 4668 9b3e
00000050: 530e 673e eb82 453d 4d5d b8bd e8c7 75bd
00000060: 933f 51be 28af 9bbd 71e5 fcbd a3a5 79bd
00000070: 25c3 4a3d 2a31 053e 5ffc 9f3d 6503 4d3e
00000080: 702a 443d d48f f1bd 509a b93d 00d7 97bc
00000090: a000 56be 6011 b2bd f0c8 793d 54d2 fcbd
000000a0: 005f b73b a46c 8e3d b046 b13d a416 1dbe
000000b0: 3297 123e 6021 e23c feae 5dbe d8ee be3d
000000c0: 79ac 0e3e 38b6 76bd 9394 e83d 0dde 053e
000000d0: cb68 87be 22a9 d13d c0b1 183e 866d 03bc
000000e0: 804f b73d ae87 a43c 3e3f 8c3d d2ca 3dbe
000000f0: b45b 113d 62f0 3ebe 46d4 6a3e 5e10 7abe
00000100: f4f8 d7bd 9e19 0b3e aa82 5cbe d0c8 3ebd
00000110: 76fe 613e 3aaa 7d3e 12ca 76be 7a5a 293e
00000120: 424c 2bbe e071 58bd 8855 fc3d 0632 4fbe
00000130: 6ee9 0bbe ac1c a03d e24e 15be 80cb 4b3b
00000140: b9d8 4abe 5c7a 94bd 8df8 2fbe 526c bebd
00000150: adf3 0abe 4c04 53ba dbc9 183e 6570 893e
00000160: 2288 ee3c 59f7 4d3e 83b0 aabd f4db 9b3d
00000170: 9c85 72bd f8cf 56bb e5fe 513e e1c9 0a3d
00000180: f3e6 833d 5b4d 1b3d c9cb 8a3e cb0d 3d3e
00000190: 56af 7b3c 9acd 493e b0fd 543e 817f 243d
000001a0: 4700 1e3e 1622 023d 25e9 67bc 4b7c 0bbe
000001b0: 1d0a 093e 8a76 133e a225 5a3e 2def 4fbd
000001c0: bc53 8ebd 8827 243d 040c ce3d d235 7bbe
000001d0: 0e5f 7ebe 00a0 663a 9823 54be f832 2d3e
000001e0: cc5e 0bbe 4c3d b2bd 3add 4c3e 40cc 0cbd
000001f0: 5296 583e 3c5a 73be c031 16bc 0863 cdbd
00000200: 99b5 8e3d 529a 23bb c0f1 903e 7eb7 21be
00000210: 6256 003e 6844 c1bd 2846 1a3e f274 223e
00000220: 1176 c23d ad45 1fbe 49ba 02be af94 b13b
00000230: 9470 563d b0b1 5abe 2892 063e dc7f 1c3e
00000240: 9dcb 43bd 205a d3bd 5598 a73c c83b 96be
00000250: 576e 093d 16e5 883e 0e74 8fbd 495b 643e
00000260: 4f7d f1bc f7a5 563e 772d 6bbd 97c5 d0bd
00000270: eb74 9a3c 3ca9 32bd 464f dabd 396e 093e
00000280: 7a88 afbc aa0b 27bd 4183 89be 48a9 83bd
00000290: 8b75 0b3e de57 793e 374b 1d3c 0e2f 05be
000002a0: 8f70 1c3e 3e17 8ebd 6b50 3b3e 1c88 8f3d
000002b0: aa45 7c3e e4be 693d ea51 9cbc c501 95bd
000002c0: 184a 29be ae2d 17be 1252 6cbe b067 c73c
000002d0: a8d1 343e 081c 0ebe f27a 233e 32e1 7b3e
000002e0: e0f7 f2bd 0814 22be 0094 7dbc 8449 a3bd
000002f0: bc7c f4bd 9eb8 6a3e 405d 73be b489 873d
00000300: 5265 583e e086 8e3e 9eeb 61bd b375 a13e
00000310: f6a9 01be 5183 f13d 6ae7 d83d 5f59 04be
00000320: 7c2b 04be 7ffa 883d 4108 2b3e cd6e 1b3e
00000330: 9931 63be 310a 663e 60d7 0fbd eecb 08bd
00000340: b2f4 053e ae9a f83c e5cd 1e3e be1e 6abe
00000350: 0d0c 16be 337f 453e 60e7 3c3e ab7d 853e
00000360: 7ce7 b3bd a1da 6bbe 1632 c8bd 0bb0 85bd
00000370: 51c5 103e 3943 923d ac37 1bbe f80d 76bd
00000380: 2411 6fbd 09e0 a2be 056e 513c c885 97be
00000390: 9070 a3bd 0424 d93d 021a 7d3e 6a2d 503e
000003a0: 75eb 2d3e b5a0 2fbe a55f 0e3d dfe8 0dbd
000003b0: 51af 3d3e 298d 5c3e b9d5 8abd 1946 40bd
000003c0: 399c c8be 8d35 7f3d 5d01 91be 6b64 4abe
000003d0: 95a0 e43c a20c 643e 6037 6c3e cd8b e5ba
000003e0: 82d6 a03c c19f 803d 8bba 5cbd d20a a43d
000003f0: 7203 703e f0cc 39bd 4c66 32be dfe4 2c3e

features_extractor.conv1.bias f4 [16]
0.16793606 0.16921026 -0.241467 0.069349155 -0.21005383 -0.13755597 0.04854223 -0.0530307
-0.20011854 0.26881993 -0.19170989 -0.23993891 0.17961545 -0.096777655 0.20257837 0.038425773
00000000: 6ef7 2b3e 7445 2d3e 2043 77be ee06 8e3d
00000010: 5a18 57be 79db 0cbe 38d4 463d b836 59bd
00000020: e0eb 4cbe c4a2 893e 994f 44be 8cb2 75be
00000030: 1ded 373e 5d33 c6bd b470 4f3e 5864 1d3d

features_extractor.conv2.weight f4 [32, 16, 4]
-0.0032103523 0.032366227 0.014990998 -0.051482845 -0.10448838 0.057380177 -0.11618565 -0.07148851
0.07613553 0.08131665 -0.043880567 0.06828141 -0.065222465 -0.023799054 -0.11100893 0.062815994
-0.10236201 -0.027530566 -0.06346801 0.11368096 -0.11541018 -0.043140028 -0.0023955156 -0.03110179
0.0030028555 0.08846627 -0.1330122 -0.106048554 -0.086215466 -0.09342717 -0.11982295 0.02656348
-0.006779154 0.03582989 0.022873845 0.012527456 0.016719058 0.09003503 0.015068842 0.105330035
-0.006093898 0.054061078 -0.11067325 -0.07752187 0.024176672 0.09119889 0.031480536 -0.08512691
0.11439931 -0.08832981 -0.054318763 -0.12857425 -0.11262201 0.110755935 -0.002616167 0.064705774
0.10133241 -0.05631286 -0.05271872 0.020957824 -0.057852324 0.06405834 -0.023229767 -0.1153727
-0.4167867 -0.30028522 -0.31336567 -0.3603932 0.08336835 0.1430849 0.0121976305 0.07110454
0.11761691 -0.003871724 -0.010218784 -0.08319354 0.06756383 -0.07029185 0.11429797 0.050777357
0.11564171 0.020791158 -0.09170048 0.040882736 -0.2035617 -0.06745677 -0.34013724 -0.3705878
0.07191925 0.078338824 -0.058009952 0.10546679 -0.010039851 -0.025223508 -0.08589627 -0.09404205
0.047293156 0.05379275 0.11356783 0.081048615 -0.31778648 -0.1927589 -0.30796212 -0.21736805
-0.11592743 -0.0050866446 -0.17394888 -0.19053102 -0.046103626 0.079263985 -0.04623957 -0.11364311
-0.018577158 0.121551625 0.09190973 0.026704863 -0.683526 -0.5966873 -0.676923 -0.61678624
-0.113705926 -0.1681861 -0.21620423 -0.27211797 -0.42019287 -0.6238258 -0.57307994 -0.5723437
-0.24784286 -0.31409585 -0.28627008 -0.3235674 0.0009761561 0.025076339 -0.0038423701 0.09981826
0.01979661 0.090131134 0.06415352 -0.12189752 -0.05771032 -0.03442765 0.026767991 0.057870712
-0.050027072 0.004221529 0.12264556 0.093053326 -0.07383565 -0.1541654 -0.2436944 -0.23921518
0.059222635 0.0287201 0.09809064 0.010522653 -0.1063962 -0.028876558 0.0582449 0.02915138
0.009873983 -0.108231544 0.09569079 0.08745959 -0.103411935 -0.15862994 -0.29258886 -0.24183416
0.012240485 -0.035464887 -0.021347413 -0.043445993 0.024207622 0.080415845 -0.010367081 0.07767959
0.064507835 -0.031162824 0.15034674 -0.013976372 -0.86235523 -0.84981906 -0.73178864 -0.5972037
-0.0077028717 -0.05823878 -0.14556462 -0.188986 -0.7002384 -0.691193 -0.7521608 -0.6718627
0.23028912 0.20632802 0.25574446 0.14551698 0.109600276 0.021368429 0.034390956 -0.07065799
-0.10474788 -0.10521957 0.09904979 -0.10579102 -0.09121174 -0.09645944 -0.05543523 -0.044950098
-0.11431149 -0.011782244 0.076163545 0.11911303 0.098014526 0.025942136 0.07887307 0.12829028
0.14187701 -0.07811804 -0.000489938 0.1232209 -0.04178591 -0.015764505 -0.0731193 0.10576899
0.043927286 0.13879754 0.13224415 0.070359275 0.21529418 0.06196204 0.2323148 0.19682059
0.032486867 0.18555701 0.1173528 0.067210086 0.01626192 -0.017071769 0.122926936 -0.109512836
-0.029993352 -0.103826016 0.06777449 -0.060072802 0.7272852 0.5729932 0.35456797 0.26510105
0.0021494236 0.19488205 0.21796703 0.21382004 0.114981726 0.3418498 0.28285888 0.2605807
00000000: c664 52bb 7392 043d ce9c 753c addf 52bd
00000010: 01fe d5bd 7a07 6b3d bef2 edbd 9168 92bd
00000020: f2ec 9b3d 5889 a63d 1cbc 33bd 20d7 8b3d
00000030: 5b93 85bd 3cf6 c2bc a658 e3bd aca5 803d
00000040: 2ca3 d1bd c887 e1bc 84fb 81bd 90d1 e83d
00000050: 2c5c ecbd 99b3 30bd 15fe 1cbb 2ec9 febc
00000060: 8ecb 443b ce2d b53d 5a34 08be fc2f d9bd
00000070: bc91 b0bd be56 bfbd bc65 f5bd a89b d93c
00000080: aa23 debb 5dc2 123d ee61 bb3c f53f 4d3c
00000090: 68f6 883c 4964 b83d 4ee3 763c 46b7 d73d
000000a0: 52af c7bb 266f 5d3d a8a8 e2bd c9c3 9ebd
000000b0: 280e c63c 7cc6 ba3d bcf1 003d 0457 aebd
000000c0: 2f4a ea3d 42e6 b4bd 5a7d 5ebd f8a8 03be
000000d0: 5ea6 e6bd 02d4 e23d 0074 2bbb 7684 843d
000000e0: 5e87 cf3d 50a8 66bd 96ef 57bd beaf ab3c
000000f0: 8ff6 6cbd 0531 833d 5a4c bebc 8648 ecbd
00000100: 1165 d5be fcbe 99be 7771 a0be 7585 b8be
00000110: 07bd aa3d d984 123e 92d8 473c 429f 913d
00000120: 22e1 f03d c0bc 7dbb b06c 27bc 6061 aabd
00000130: e85e 8a3d 2cf5 8fbd 0e15 ea3d ebfb 4f3d
00000140: 90d5 ec3d 3852 aa3c 76cd bbbd a874 273d
00000150: 7a72 50be c626 8abd 7826 aebe afbd bdbe
00000160: 664a 933d 1b70 a03d d89b 6dbd f9fe d73d
00000170: 307e 24bc 88a1 cebc 62ea afbd 1e99 c0bd
00000180: 78b6 413d c955 5c3d 4096 e83d d1fc a53d
00000190: e9b4 a2be 9762 45be 36ad 9dbe bb95 5ebe
000001a0: 5c6b edbd dead a6bb a81f 32be 901a 43be
000001b0: 28d7 3cbd 2855 a23d b465 3dbd b8bd e8bd
000001c0: 202f 98bc 0ff0 f83d 2b3b bc3d 28c4 da3c
000001d0: 8ffb 2ebf 80c0 18bf d34a 2dbf b4e5 1dbf
000001e0: a7de e8bd fa38 2cbe a464 5dbe 0c53 8bbe
000001f0: 8523 d7be 0cb3 1fbf 5eb5 12bf 1e85 12bf
00000200: 85ca 7dbe 2cd1 a0be fe91 92be a0aa a5be
00000210: bae4 7f3a e56c cd3c 46d0 7bbb 846d cc3d
00000220: 802c a23c ac96 b83d ec62 833d 68a5 f9bd
00000230: a861 6cbd 0204 0dbd 8c48 db3c d709 6d3d
00000240: 30e9 4cbd c054 8a3b 982d fb3d be92 be3d
00000250: 2537 97bd 89dd 1dbe 068b 79be d3f4 74be
00000260: 6f93 723d 6a46 eb3c bfe3 c83d 3567 2c3c
00000270: 40e6 d9bd 888e ecbc 3492 6e3d e0ce ee3c
00000280: 7dc6 213c 80a8 ddbd 88f9 c33d 031e b33d
00000290: a3c9 d3bd e36f 22be 35ce 95be 60a3 77be
000002a0: 518c 483c a143 11bd c5e0 aebc 6df4 31bd
000002b0: 104f c63c 10b1 a43d b0da 29bc 7a16 9f3d
000002c0: af1c 843d 2e49 ffbc 7ff4 193e 27fd 64bc
000002d0: 50c3 5cbf be8d 59bf 8056 3bbf 57e2 18bf
000002e0: 5f68 fcbb c98b 6ebd e40e 15be 8c85 41be
000002f0: d342 33bf 06f2 30bf 9c8d 40bf 32ff 2bbf
00000300: e9d0 6b3e a747 533e f0f0 823e 6702 153e
00000310: 1c76 e03d d80c af3c 88dd 0c3d 23b5 90bd
00000320: 0e86 d6bd 5c7d d7bd 9eda ca3d f6a8 d8bd
00000330: 39cd babd 878c c5bd 0d10 63bd 981d 38bd
00000340: 241c eabd 500a 41bc a2fb 9b3d 88f1 f33d
00000350: d7bb c83d 9a84 d43c 3488 a13d 875e 033e
00000360: 3548 113e 5afc 9fbd 2f6f 00ba 3d5b fc3d
00000370: b427 2bbd 9024 81bc 92bf 95bd 6a9d d83d
00000380: 19ed 333d f120 0e3e 036b 073e 8618 903d
00000390: 1476 5c3e e8cb 7d3d eee3 6d3e 568b 493e
000003a0: f310 053d a802 3e3e aa56 f03d 71a5 893d
000003b0: b837 853c 18da 8bbc 1ec1 fb3d 4448 e0bd
000003c0: 9eb4 f5bc bca2 d4bd 5acd 8a3d e60e 76bd
000003d0: 5d2f 3a3f afaf 123f ef89 b53e 53bb 873e
000003e0: 58dd 0c3b 298f 473e c032 5f3e a4f3 5a3e
000003f0: 8a7b eb3d f006 af3e e1d2 903e d56a 853e

features_extractor.conv2.bias f4 [32]
-0.013531408 -0.030189935 0.037944965 -0.06473101 -0.11426218 0.06606026 0.16159041 -0.056801725
0.026836082 0.05661322 -0.01303243 0.12372166 0.12964024 -0.07529564 -0.12022875 -0.079999015
-0.086129546 0.040973347 -0.061334938 -0.110589094 -0.005107685 -0.12214776 -0.063866675 -0.10366871
-0.044669047 -0.059149794 0.07487415 -0.052769534 0.09848126 -0.10242279 -0.13011596 -0.07979551
00000000: d7b2 5dbc e250 f7bc 2e6c 1b3d b191 84bd
00000010: 4a02 eabd 9a4a 873d f577 253e eda8 68bd
00000020: 58d7 db3c 44e3 673d f985 55bc c861 fd3d
00000030: 69c0 043e 9a34 9abd 7e3a f6bd 86d6 a3bd
00000040: b064 b0bd abd3 273d 583a 7bbd 897c e2bd
00000050: 5e5e a7bb 9b28 fabd 88cc 82bd 4350 d4bd
00000060: e4f6 36bd 0e47 72bd 9e57 993d de24 58bd
00000070: 8bb0 c93d 0ac3 d1bd 1e3d 05be d46b a3bd

features_extractor.fc_op.weight f4 [32, 3]
-0.16552836 0.1398511 -0.2860001 -0.05893855 -0.022978295 -0.68434566 -0.19192508 0.28041035
0.07777655 -0.19732496 0.2637587 -0.37054777 -0.42068905 -0.46232256 0.17995693 -0.4301934
-0.44041783 0.18998829 -0.22712693 -0.5115474 0.6352818 -0.4723804 -0.044256244 0.19377063
-0.0051000193 -0.184168 -0.67511433 -0.45055732 0.355511 -0.2618107 -0.10206673 0.0095555065
0.34342444 -0.0010276808 -0.38735864 0.4993541 -0.09100251 -0.30146632 -0.07865804 -0.0015027502
0.03428889 -0.52966344 0.3639037 0.25847784 -0.64841413 0.16979639 -0.3694913 0.14081345
-0.49117392 -0.50695395 0.3960002 0.50181866 -0.15409355 -0.37198266 0.24855018 -0.3242322
0.32120085 -0.36563888 0.21650684 -0.5842854 0.16648062 -0.19013637 0.12175111 0.09560897
-0.10082202 0.11206264 -0.4737627 -0.4676684 -0.71080655 -0.4113856 0.30889913 0.0018738313
0.21958661 0.14204761 4.2330466e-05 -0.027152808 -0.08549243 0.1728058 0.1790797 -0.40750277
0.20020266 -0.2041442 0.3432109 -0.40914112 0.21518554 0.24706472 0.78560454 -0.2212954
-0.27284735 -0.09701291 -0.258379 0.024065582 -0.45269302 0.11294825 -0.114519015 0.13638714
00000000: 4480 29be 2035 0f3e 9b6e 92be 8d69 71bd
00000010: fa3c bcbc 4731 2fbf 0288 44be f291 8f3e
00000020: 5049 9f3d 8e0f 4abe 610b 873e 70b8 bdbe
00000030: 8e64 d7be 8bb5 ecbe a146 383e 4f42 dcbe
00000040: 727e e1be 4a8c 423e f693 68be c5f4 02bf
00000050: d4a1 223f d8db f1be 0946 35bd cf6b 463e
00000060: 101e a7bb 8996 3cbe 4bd4 2cbf 73af e6be
00000070: 8a05 b63e 0d0c 86be 5d08 d1bd b38e 1c3c
00000080: 54d5 af3e 3fb3 86ba df53 c6be 57ab ff3e
00000090: 865f babd cb59 9abe 7717 a1bd eef7 c4ba
000000a0: 8272 0c3d 0698 07bf 9651 ba3e 3557 843e
000000b0: 78fe 25bf 1bdf 2d3e f72d bdbe 6731 103e
000000c0: 267b fbbe bcc7 01bf 8ac0 ca3e 3077 003f
000000d0: b3ca 1dbe 8374 bebe f083 7e3e c301 a6be
000000e0: 7074 a43e 0535 bbbe f8b3 5d3e ba93 15bf
000000f0: e579 2a3e 1cb3 42be a558 f93d a3ce c33d
00000100: c67b cebd 1981 e53d 0691 f2be 3c72 efbe
00000110: 6bf7 35bf 22a1 d2be 0728 9e3e 589b f53a
00000120: 50db 603e ee74 113e fe8b 3138 916f debc
00000130: a816 afbd 01f4 303e ab60 373e 34a4 d0be
00000140: ed01 4d3e 2d0b 51be 57b9 af3e f27a d1be
00000150: 9959 5c3e 89fe 7c3e 611d 493f 439b 62be
00000160: a6b2 8bbe b4ae c6bd 414a 84be 2f25 c53c
00000170: 61c7 e7be 6951 e73d f288 eabd 12a9 0b3e

features_extractor.fc_op.bias f4 [32]
-0.18174282 0.70372725 0.078279026 -0.34794664 0.45056182 0.4318531 -0.4680976 -0.017723631
0.7672642 -0.36428204 0.25859067 0.56212693 0.17056713 0.20962621 -0.13603616 -0.32554415
-0.068538845 0.34061024 0.19306348 -0.09317243 -0.7061627 -0.5219541 0.18592133 0.3183662
0.4126908 -0.59776014 -0.44496322 -0.4615618 0.12709491 -0.5356031 0.6148458 -0.62068635
00000000: ca1a 3abe 7827 343f c150 a03d 1026 b2be
00000010: 0ab0 e63e d91b dd3e 7daa efbe 2631 91bc
00000020: 6d6b 443f 2d83 babe ff65 843e 8de7 0f3f
00000030: 26a9 2e3e 41a8 563e 104d 0bbe b9ad a6be
00000040: 185e 8cbd 7764 ae3e 6fb2 453e 30d1 bebd
00000050: 14c7 34bf c99e 05bf 2962 3e3e e500 a33e
00000060: 354c d33e cf06 19bf 38d2 e3be d451 ecbe
00000070: 2b25 023e 491d 09bf 8966 1d3f 4de5 1ebf

features_extractor.fc_merge.weight f4 [352, 352]
-0.04399348 -0.003966395 0.007623648 -0.03627211 -0.037151206 -0.03698261 0.0049510743 0.028399777
-0.048096977 -0.025131641 -0.009793534 -0.015436419 0.03150523 0.0039442983 0.008665656 -0.039647482
-0.028249318 -0.04976873 -0.009618847 -0.038907923 -0.06393823 -0.011764948 -0.0566382 -0.0083065955
0.030535974 -0.055649992 -0.04849731 0.040212844 0.031895746 -0.035332974 -0.04157165 -0.015397858
-0.02862019 0.034904093 -0.05521177 -0.0073795123 -0.02055516 -0.05557663 -0.03687984 -0.012411484
-0.05050929 -0.008410626 -0.026230626 0.026177946 0.042244785 -0.0037092343 -0.0028890504 0.0087654125
-0.01834903 -0.009842317 0.0031258087 0.043530464 0.01657936 0.004818672 0.028973823 -0.04353692
0.049218327 -0.038535614 0.025892116 0.020703478 -0.015375732 -0.06943832 0.019803975 -0.050652236
-0.031584825 -0.019375278 -0.050106823 -0.036677413 0.013689195 -0.016786948 -0.03652908 -0.038524494
0.029524162 -0.030685408 -0.028809093 -0.060280133 -0.015929805 0.019224366 -0.03130107 0.010692073
-0.028445613 -0.004623468 0.04545325 -0.020833554 0.041265618 -0.028046431 -0.035516016 0.035469327
-0.036560956 0.006490917 -0.03240391 -0.036540415 0.02023425 0.030137364 -0.010530906 -0.027292179
0.0076954635 0.030639036 0.031354133 -0.0325542 -0.04051303 -0.0066437377 0.033078406 -0.020413425
0.0385138 -0.010321677 0.03364752 0.0135592595 -0.003736013 -0.0033703675 0.025482366 0.0248843
-0.064335704 0.03256657 -0.01272843 0.02349209 -0.011270367 -0.025138201 -0.059340794 0.028787568
0.019907797 0.0020891735 0.017276721 -0.047987483 -0.014963875 0.032611288 -0.061728712 0.02626521
0.02826292 0.025128776 -0.02203431 -0.036077693 -0.025401985 -0.039522555 0.0032612416 -0.017278936
0.049526624 0.048642736 0.041599523 -0.026933612 0.009588057 -0.009987709 -0.021798352 0.033353332
-0.027366642 0.021271387 -0.026448684 -0.028083479 -0.01049405 -0.05242034 -0.0069858967 0.045060854
0.020886507 -0.040070403 -0.02449676 0.03674858 0.035602733 -0.017513381 -0.01134803 -0.036605205
0.04770669 -0.043439813 -0.008228759 0.020811278 0.018809833 -0.015470552 -0.024205524 -0.026636919
0.03951437 -0.027659949 -0.06044844 0.024349006 -0.025644759 -0.04428726 0.0003894993 0.024240866
-0.014239875 -0.03256858 -0.01003468 0.017745335 -0.028025324 -0.0066307425 0.0040718927 -0.017114948
-0.052815028 -0.051918127 -0.042406887 -0.00737373 -0.007379522 -0.048916657 -0.021677727 -0.058435276
0.026203396 -0.020124221 -0.018397864 -0.009086384 -0.0024122945 -0.052059926 0.029475482 -0.00043152474
-0.056722138 -0.0399051 -0.03849535 0.022640387 -0.020048657 -0.044009928 0.004843582 0.016285177
0.022557735 -0.035262328 0.028474584 -0.007893519 -0.05436121 -0.006471956 -0.020082144 -0.053623907
0.02789271 -0.057866085 0.008988961 -0.040532354 -0.034163214 0.02168494 -0.02862448 -0.058669146
-0.030026253 -0.05736151 -0.029612696 0.0035665147 0.0012646364 0.031446327 -0.020440934 -0.012367224
0.02801524 0.03799563 -0.023658007 -0.003974994 0.02131687 -0.06103108 -0.044999033 -0.044698954
-0.047618136 0.04311909 -0.028001215 0.03018169 0.038195718 -0.019361958 0.023088563 0.034842726
0.0139247235 0.041058935 0.022269282 0.051141173 0.03523837 0.03784278 0.04504715 -0.03861312
00000000: 8232 34bd 88f8 81bb cbcf f93b 1092 14bd
00000010: dd2b 18bd 147b 17bd 9f3c a23b a6a6 e83c
00000020: 5601 45bd dfe0 cdbc 0f75 20bc 09e9 7cbc
00000030: a10b 013d 2c3f 813b 65fa 0d3c 6665 22bd
00000040: 1d6b e7bc 4cda 4bbd 5e98 1dbc ea5d 1fbd
00000050: 0cf2 82bd c5c1 40bc 75fd 67bd 6318 08bc
00000060: 9426 fa3c 3ff1 63bd 1ea5 46bd 39b6 243d
00000070: 1da5 023d 4fb9 10bd 0947 2abd 4c47 7cbc
00000080: e474 eabc 98f7 0e3d bd25 62bd d6cf f1bb
00000090: 4b63 a8bc 52a4 63bd 510f 17bd 8959 4bbc
000000a0: d4e2 4ebd b9cc 09bc 9ce1 d6bc 2273 d63c
000000b0: de08 2d3d a016 73bb 3956 3dbb ce9c 0f3c
000000c0: b450 96bc ab41 21bc 5eda 4c3b 004d 323d
000000d0: 70d1 873c f3e5 9d3b 835a ed3c c553 32bd
000000e0: 2899 493d 85d7 1dbd b41b d43c 579a a93c
000000f0: 7fea 7bbc ae35 8ebd f23b a23c b878 4fbd
00000100: 175f 01bd e7b8 9ebc d03c 4dbd 0e3b 16bd
00000110: a548 603c c884 89bc 849f 15bd dccb 1dbd
00000120: a8dc f13c f75f fbbc 0c01 ecbc 4de8 76bd
00000130: 397f 82bc 6b7c 9d3c 8d35 00bd ce2d 2f3c
00000140: c606 e9bc 7680 97bb 302d 3a3d 21ab aabc
00000150: 2306 293d a1c1 e5bc 3e79 11bd 4948 113d
00000160: f1c0 15bd c2b1 d43b f6b9 04bd 67ab 15bd
00000170: 4cc2 a53c a2e2 f63c d289 2cbc d993 dfbc
00000180: 3a2a fc3b b7fe fa3c 316d 003d 8e57 05bd
00000190: fef0 25bd b6b3 d9bb 397d 073d 0e3a a7bc
000001a0: a5c0 1d3d 401c 29bc fbd1 093d a827 5e3c
000001b0: e6d7 74bb 62e1 5cbb 65c0 d03c 29da cb3c
000001c0: 70c2 83bd 8664 053d e88a 50bc 7c72 c03c
000001d0: 58a7 38bc a1ee cdbc 550f 73bd e8d3 eb3c
000001e0: ad15 a33c 84ea 083b e987 8d3c 868e 44bd
000001f0: 0a2b 75bc 6a93 053d 3fd7 7cbd 232a d73c
00000200: a487 e73c ddda cd3c 4c81 b4bc 34c6 13bd
00000210: d317 d0bc 67e2 21bd 8eba 553b 8e8c 8dbc
00000220: 6edc 4a3d 9b3d 473d 4364 2a3d e1a3 dcbc
00000230: 3a17 1d3c 7da3 23bc 7592 b2bc 819d 083d
00000240: 0230 e0bc 5541 ae3c e9aa d8bc 530f e6bc
00000250: 3cef 2bbc b6b6 56bd f3e9 e4bb bb91 383d
00000260: 2e1a ab3c dd20 24bd 6ead c8bc ae85 163d
00000270: 2cd4 113d 3978 8fbc 16ed 39bc 57ef 15bd
00000280: 1768 433d f2ed 31bd ebd1 06bc 6a7c aa3c
00000290: 1417 9a3c 3378 7dbc aa4a c6bc ab35 dabc
000002a0: d2d9 213d 1e97 e2bc c998 77bd 9177 c73c
000002b0: f514 d2bc 8f66 35bd b635 cc39 c894 c63c
000002c0: 5d4e 69bc a266 05bd 8068 24bc aa5e 913c
000002d0: 5d95 e5bc b346 d9bb 836d 853b a634 8cbc
000002e0: 9254 58bd 1aa8 54bd d8b2 2dbd 559f f1bb
000002f0: ebcf f1bb d55c 48bd 7d95 b1bc d459 6fbd
00000300: 81a8 d63c 8ddb a4bc 1eb7 96bc 0fdf 14bc
00000310: 9617 1ebb ca3c 55bd 9176 f13c 453e e2b9
00000320: 7955 68bd 8873 23bd 4dad 1dbd 5578 b93c
00000330: 153d a4bc c143 34bd e9b6 9e3b 7e68 853c
00000340: 00cb b83c 3b6f 10bd 8843 e93c d153 01bc
00000350: dca9 5ebd b412 d4bb 4f83 a4bc bea4 5bbd
00000360: 417f e43c fd04 6dbd 6f46 133c 4105 26bd
00000370: baee 0bbd 9ea4 b13c e37d eabc 0f4f 70bd
00000380: 9ef9 f5bc e7f3 6abd 5396 f2bc 30bc 693b
00000390: 28c2 a53a ddcd 003d bf73 a7bc e69f 4abc
000003a0: 3780 e53c 4ea1 1b3d 70ce c1bc ab40 82bb
000003b0: b7a0 ae3c bafb 79bd e850 38bd 4016 37bd
000003c0: 3c0b 43bd a59d 303d ce62 e5bc 973f f73c
000003d0: 1d73 1c3d f89c 9ebc 3a24 bd3c 3fb7 0e3d
000003e0: 8624 643c 6a2d 283d 126e b63c 6879 513d
000003f0: 1c56 103d 0801 1b3d 5c83 383d ca28 1ebd

features_extractor.fc_merge.bias f4 [352]
0.0026538896 -0.0030685852 -0.00083405507 -0.029984118 -0.04083155 -0.025120437 -0.09949738 -0.043550536
0.020244773 0.044932317 -0.06979887 0.03194938 -0.08554129 -0.08662699 -0.12854674 0.017145034
-0.041794952 -0.025098236 -0.009906183 -0.06713162 -0.019397287 0.023662543 -0.012277494 0.04994289
0.009544168 0.03393785 0.022521604 -0.07140975 -0.007857941 -0.02214522 -0.017885275 -0.020880645
-0.0011657631 -0.0060529886 0.009520573 -0.062520415 0.018219164 0.010074415 0.009649092 -0.030250868
-0.07758684 -0.07356565 -0.06840505 0.085914716 0.10325168 0.003971343 0.05845977 0.010364744
0.000831649 0.0062689353 -0.033762205 -0.043925136 -0.009799545 0.04462726 0.030660458 -0.056262255
-0.03222985 -0.0030870226 0.007274792 0.043260198 0.020828132 -0.01482747 0.033264674 -0.0039988924
-0.036806166 -0.05843846 0.033521533 0.018042473 -0.05896734 -0.06001843 -0.02381696 0.0023148863
0.018461045 -0.014400996 -0.009717468 -0.022570005 -0.051957585 0.041489914 -0.02961751 -0.023642024
-0.042007647 -0.009872654 -0.08926768 0.009773228 -0.042569038 -0.07360924 0.034563184 0.038772788
-0.021656483 -0.029244818 0.0687849 0.022958508 -0.008569851 0.005231932 -0.011199198 -0.022000514
-0.031481016 -0.00463394 0.0017577078 -0.070586264 0.063909695 -0.062877186 -0.07507734 -0.0064873546
-0.060308952 0.02327135 -0.012079091 -0.030464867 -0.016151927 -0.05724324 -0.06621709 -0.020700436
0.009158837 -0.032237068 -0.004121934 0.0032842814 -0.03898582 -0.03631762 0.0010480941 -0.05564462
-0.010575868 0.08473713 -0.045711715 0.013714222 0.002503523 -0.046300065 0.03170402 0.029207842
-0.015702764 -0.0061745015 -0.022708194 0.022427632 -0.014898513 0.026963342 -0.15281688 0.005008809
-0.06153221 -0.006795976 -0.110295534 -0.029109381 -0.04766104 -0.0526192 -0.074286714 -0.023139302
0.0009281773 -0.059965882 -0.051640473 -0.010962143 -0.019076537 -0.04025785 -0.06156104 -0.0035455825
-0.023327904 -0.011753494 0.007154453 -0.011859472 -0.025500143 0.0063424855 -0.0744043 -0.012224701
0.021093946 -0.054196548 0.013864444 -0.0071272645 -0.069927305 0.051471528 -0.065180674 0.018426225
-0.07536195 -0.0083773155 -0.027850816 0.0413509 -0.06813767 -0.06744024 -0.010239359 0.019010646
-0.041946482 -0.03524389 -0.012458144 -0.01517205 -0.013413575 -0.04261011 -0.046303395 -0.016539998
-0.0057014865 0.011070632 -0.0133249005 -0.036082733 0.0015483163 -0.051222898 -0.016000034 -0.019263087
-0.039215356 -0.00048766515 -0.03485011 -0.030647144 -0.009894437 -0.01170819 -0.026789319 -0.0076886746
-0.024443412 -0.038150515 -0.058155313 0.002787219 0.055974666 -0.010639085 -0.059713706 -0.03982959
-0.030365258 0.0107061835 -0.014431712 0.021334577 0.019918088 0.112790175 -0.049854163 -0.025419567
-0.008464327 0.05279123 -0.07981645 0.01074925 0.05262593 -0.08686012 -0.054978095 0.04777793
0.009185907 0.15395431 0.020999223 -0.089464076 0.045814406 -0.019487066 -0.003213392 -0.014897192
-0.066923544 -0.048832264 -0.027509922 -0.05783741 0.04101994 0.00074096414 0.0048652594 -0.015047612
-0.059952952 -0.08841338 -0.06954047 0.08893035 -0.0643816 0.049560588 0.018674958 -0.0027273758
-0.0002959133 -0.037295174 -0.039458703 -0.04638484 0.005751687 -0.073410176 -0.009669638 0.0071765445
00000000: e1ec 2d3b 511a 49bb 7da4 5aba 41a1 f5bc
00000010: fc3e 27bd 60c9 cdbc 48c5 cbbd 0c62 32bd
00000020: 5ed8 a53c f30a 383d b6f2 8ebd 5add 023d
00000030: 4630 afbd 7e69 b1bd c2a1 03be be73 8c3c
00000040: 2f31 2bbd d19a cdbc 8b4d 22bc 4e7c 89bd
00000050: 0fe7 9ebc f3d7 c13c 8b27 49bc ea90 4c3d
00000060: 245f 1c3c 6a02 0b3d 3a7f b83c 463f 92bd
00000070: 98be 00bc e469 b5bc 2484 92bc e30d abbc
00000080: 85cc 98ba 2658 c6bb 2dfc 1b3c b40a 80bd
00000090: 5b40 953c 290f 253c 3a17 1e3c abd0 f7bc
000000a0: d9e5 9ebd 96a9 96bd f217 8cbd 0ef4 af3d
000000b0: 9e75 d33d 0a22 823b 8373 6f3d e3d0 293c
000000c0: 0503 5a3a a46b cd3b 3d4a 0abd d8ea 33bd
000000d0: 458e 20bc 13cb 363d a42b fb3c 4073 66bd
000000e0: 7203 04bd a54f 4abb 6161 ee3b 9b31 313d
000000f0: c29f aa3c ebee 72bc 8a40 083d 2409 83bb
00000100: 10c2 16bd 2b5d 6fbd e04d 093d cfcd 933c
00000110: bd87 71bd e3d5 75bd c91b c3bc 59b5 173b
00000120: 9e3b 973c 28f2 6bbc 0436 1fbc bbe4 b8bc
00000130: 7ad1 54bd 54f1 293d 6ca0 f2bc ebac c1bc
00000140: 3610 2cbd eac0 21bc f9d1 b6bd e41f 203c
00000150: df5c 2ebd 71c0 96bd 2092 0d3d 37d0 1e3d
00000160: f068 b1bc d492 efbc 19df 8c3d 7b13 bc3c
00000170: 8f68 0cbc a070 ab3b d77c 37bc 6c3a b4bc
00000180: 3df2 00bd 4ed8 97bb e362 e63a 888f 90bd
00000190: 16e3 823d c1c5 80bd 26c2 99bd e093 d4bb
000001a0: 8506 77bd 8fa3 be3c 61e7 45bc 7591 f9bc
000001b0: 0c51 84bc e377 6abd d39c 87bd f693 a9bc
000001c0: f20e 163c 040b 04bd 4a11 87bb 193d 573b
000001d0: 98af 1fbd c9c1 14bd 3460 893a 9deb 63bd
000001e0: 6846 2dbc a98a ad3d 353c 3bbd 9eb1 603c
000001f0: 2512 243b 23a5 3dbd 13dc 013d 4945 ef3c
00000200: 15a3 80bc 7953 cabb 8906 babc 27ba b73c
00000210: e518 74bc 3ae2 dc3c 077c 1cbe ef20 a43b
00000220: 3309 7cbd c7b0 debb a0e2 e1bd cc76 eebc
00000230: 3938 43bd 3b87 57bd a223 98bd a28e bdbc
00000240: ed50 733a c99e 75bd f684 53bd 8f9a 33bc
00000250: 6646 9cbc 6ae5 24bd 6e27 7cbd 015d 68bb
00000260: 291a bfbc ba91 40bc e76f ea3b 3b4e 42bc
00000270: ade5 d0bc a0d4 cf3b 4861 98bd 1d4a 48bc
00000280: 36cd ac3c 33fd 5dbd b127 633c d48b e9bb
00000290: 0c36 8fbd cfd3 523d 727d 85bd 98f2 963c
000002a0: 5e57 9abd 0241 09bc 6527 e4bc 905f 293d
000002b0: c38b 8bbd 1c1e 8abd fcc2 27bc 37bc 9b3c
000002c0: 13d0 2bbd e65b 10bd 3e1d 4cbc 3194 78bc
000002d0: 9cc4 5bbc f087 2ebd a1a8 3dbd e47e 87bc
000002e0: 89d3 babb 9961 353c af50 5abc 7dcb 13bd
000002f0: e0f0 ca3a 1acf 51bd 8112 83bc 9fcd 9dbc
00000300: 48a0 20bd 4fad ffb9 fdbe 0ebd b80f fbbc
00000310: 471c 22bc b5d3 3fbc 4675 dbbc 47f1 fbbb
00000320: 8d3d c8bc b743 1cbd 4434 6ebd c6a9 363b
00000330: b145 653d 8f4f 2ebc 5c96 74bd 5a24 23bd
00000340: 90c0 f8bc fd68 2f3c fd72 6cbc dac5 ae3c
00000350: 422b a33c 89fe e63d e133 4cbd b23c d0bc
00000360: f6ad 0abc 9e3b 583d cf76 a3bd 9f1d 303c
00000370: 4a8e 573d b8e3 b1bd b630 61bd cab2 433d
00000380: 7d80 163c 33a6 1d3e 9006 ac3c f138 b7bd
00000390: e3a7 3b3d 57a3 9fbc c697 52bb 5a13 74bc
000003a0: 360f 89bd 5704 48bd 7d5c e1bc ece6 6cbd
000003b0: 8604 283d 433d 423a c16c 9f3b 428a 76bc
000003c0: 3a91 75bd 1312 b5bd 3c6b 8ebd 1e21 b63d
000003d0: 80da 83bd 0b00 4b3d 3afc 983c c6bd 32bb
000003e0: d024 9bb9 d3c2 18bd 739f 21bd 08fe 3dbd
000003f0: a678 bc3b 1358 96bd 676d 1ebc 3829 eb3b

actor.weight f4 [4, 352]
-0.038372207 -0.018156657 -0.04684963 -0.040183097 -0.016487284 0.008156881 0.022350483 0.04138499
-0.03495929 0.03469448 0.042403895 0.014192924 -0.0025140431 0.074156076 0.07901134 -0.011156489
-0.057097156 -0.00073794054 -0.037933704 -0.012612914 0.01188565 0.030422593 0.03997839 -0.019168274
-0.009336576 -0.04055308 0.006288656 0.023955835 -0.02270496 0.042471755 -0.00929105 0.042980276
-0.022990922 0.014869947 0.010223406 0.004147186 -0.0111581525 -0.055724192 -0.063632235 -0.051416513
-0.061995015 0.026701203 0.027589783 0.050559584 -0.008860577 -0.0014900136 0.024748841 0.0021999592
-0.056334823 -0.0074093565 -0.016747786 -0.033009097 -0.051537085 0.015871352 -0.03212139 -0.016115708
0.03638093 -0.022242546 0.016643358 0.010281878 -0.059178364 0.032702204 -0.048556898 0.03983964
-0.058346733 0.07381019 0.010046781 -0.022590823 -0.0039923326 -0.037384506 -0.033702314 0.026068067
-0.02420428 -0.06041451 0.023866313 -0.014186237 0.00019671602 0.027092129 -0.006862798 -0.0009938157
0.0024925878 -0.055313133 0.042965792 0.024725527 -0.04208387 -0.011787446 -0.025495056 0.012893187
0.0037157238 0.003330228 -0.033427306 -0.010716484 0.07186529 -0.00480867 -0.035712603 0.0305156
-0.016616838 -0.026241455 0.02732723 -0.06644709 -0.030291118 -0.04844266 0.038803443 -0.04665366
0.015278982 -0.0058002095 0.030811194 -0.03086008 -0.014290549 0.032704614 0.026803663 -0.055352177
-0.018958371 -0.040669538 0.028884282 -0.037266552 0.01063899 0.033098 -0.0064006587 -0.050765242
-0.06471384 -0.0074349586 0.044805102 0.06241748 0.013259491 -0.018128462 -0.027841663 -0.021514952
0.0223545 0.002114884 0.10369263 0.010327643 -0.022076534 0.022909876 0.08233237 -0.03213935
-0.01904575 -0.056873694 0.057931356 -0.04677397 -0.019831982 -0.039686866 -0.02690894 -0.005289266
0.00081602996 -0.05234004 0.045705494 -0.027454767 -0.05400918 0.052455056 -0.013210531 -0.02039117
0.054022558 -0.017154686 0.031393256 0.040363032 0.012376407 -0.026185011 0.009087392 0.05129104
-0.01417306 0.0019545539 0.008898304 -0.056337792 0.044854365 0.003499743 -0.0521421 -0.022590412
0.022287574 0.054779056 0.019534746 -0.05452247 -0.02223155 -0.012273811 -0.024180632 0.029601369
0.057885513 -0.036926147 0.011293061 -0.051548008 -0.051211193 -0.0194369 0.057170715 0.028063761
-0.06264127 -0.03896392 0.05907418 0.050931707 -0.0033627336 -0.014117935 -0.007697559 0.10686216
0.028842604 0.023630241 0.048928794 0.028679354 0.040697087 0.016791865 -0.03504717 -0.0073840357
-0.024534257 0.025842281 -0.03076463 0.029786007 0.003299626 -0.026129363 -0.049131043 0.08109272
-0.036850143 -0.016419759 0.0096238665 -0.055304132 0.01824337 0.026151834 -0.056372784 0.0009800658
-0.010870301 0.051472057 -0.054271318 -0.047878005 -0.06294305 0.02170408 0.0441275 -0.024412856
-0.030333268 -0.054363657 -0.079802856 0.004391823 -0.024016699 0.037557513 -0.03811928 -0.02608266
-0.03722092 0.053942967 0.04074389 -0.07119651 0.014047357 0.030578174 -0.032110322 -0.026300816
0.007133859 0.042798568 0.069638625 -0.048707105 0.06082968 0.01559845 0.0016380993 -0.015042023
-0.03632694 -0.0034855278 0.032198396 0.004624733 -0.029172793 -0.04088081 -0.0014602678 -0.0129538365
00000000: 2d2c 1dbd 45bd 94bc 66e5 3fbd 0897 24bd
00000010: 5710 87bc 70a4 053c 5c18 b73c 4f83 293d
00000020: 7931 0fbd cd1b 0e3d b5af 2d3d 7089 683c
00000030: a5c2 24bb 24df 973d b3d0 a13d b5c9 36bc
00000040: b5de 69bd 5a72 41ba 5f60 1bbd 65a6 4ebc
00000050: 08bc 423c cd38 f93c 61c0 233d c906 9dbc
00000060: 70f8 18bc fd1a 26bd 1211 ce3b 073f c43c
00000070: c1ff b9bc ddf6 2d3d 7d39 18bc 160c 303d
00000080: 7557 bcbc 14a1 733c 1380 273c 1ee5 873b
00000090: afd0 36bc 0d3f 64bd 9e51 82bd 1f9a 52bd
000000a0: 7cee 7dbd 7bbc da3c f803 e23c 9117 4f3d
000000b0: f42b 11bc 8f4c c3ba 15be ca3c 312d 103b
000000c0: 58bf 66bd 30ca f2bb a732 89bc 8c34 07bd
000000d0: 8d18 53bd a304 823c b891 03bd 1705 84bc
000000e0: 2c04 153d 0036 b6bc a757 883c 5275 283c
000000f0: 0365 72bd bff2 053d 99e3 46bd e42e 233d
00000100: fcfc 6ebd cc29 973d 419b 243c 6410 b9bc
00000110: 1dd2 82bb 7f20 19bd 700b 0abd b38c d53c
00000120: 0e48 c6bc 3575 77bd 4983 c33c 646d 68bc
00000130: 8e45 4e39 50f0 dd3c 52e1 e0bb ec42 82ba
00000140: af5a 233b 0690 62bd e6fc 2f3d 308d ca3c
00000150: 2360 2cbd 2220 41bc 02db d0bc f23d 533c
00000160: 8083 733b f43f 5a3b 12eb 08bd 3194 2fbc
00000170: 1c2e 933d 0c92 9dbb 6147 12bd dafb f93c
00000180: 0920 88bc 52f8 d6bc 5bdd df3c 6915 88bd
00000190: 1425 f8bc d06b 46bd 5cf0 1e3d e817 3fbd
000001a0: b254 7a3c af0f bebb c267 fc3c 47ce fcbc
000001b0: e822 6abc 46f5 053d 5b93 db3c f7b8 62bd
000001c0: 964e 9bbc 1a95 26bd bb9e ec3c d0a4 18bd
000001d0: 294f 2e3c c591 073d 9ebc d1bb 37ef 4fbd
000001e0: b188 84bd f4a0 f3bb 8e85 373d 79a9 7f3d
000001f0: 563e 593c 2482 94bc 3314 e4bc 2040 b0bc
00000200: c920 b73c de99 0a3b cd5c d43d 4635 293c
00000210: d9d9 b4bc 7ead bb3c e09d a83d 8da4 03bd
00000220: d505 9cbc 64f4 68bd 6e49 6d3d 1096 3fbd
00000230: ae76 a2bc b28e 22bd 2370 dcbc 9451 adbb
00000240: d8ea 553a 8362 56bd af35 3b3d d2e8 e0bc
00000250: bb38 5dbd 1ddb 563d fc70 58bc 620b a7bc
00000260: c246 5d3d fc87 8cbc 3796 003d b553 253d
00000270: 6ac6 4a3c f381 d6bc 49e3 143c 8e16 523d
00000280: 1f36 68bc f917 003b 31ca 113c 75c2 66bd
00000290: 36b9 373d f25b 653b f492 55bd 870f b9bc
000002a0: 6e94 b63c 0160 603d 5507 a03c f452 5fbd
000002b0: f11e b6bc 1818 49bc 7616 c6bc 927e f23c
000002c0: 5c19 6d3d df3f 17bd 8806 393c 0124 53bd
000002d0: d4c2 51bd 223a 9fbc d72b 6a3d f9e5 e53c
000002e0: 114a 80bd a298 1fbd c4f7 713d c49d 503d
000002f0: 4f61 5cbb e94e 67bc ce3b fcbb 8cda da3d
00000300: 5347 ec3c 3594 c13c 8f69 483d f7f0 ea3c
00000310: fdb1 263d 188f 893c 9f8d 0fbd c8f5 f1bb
00000320: 11fc c8bc 31b3 d33c 1b06 fcbc c901 f43c
00000330: 8a3e 583b 3f0d d6bc a23d 49bd f113 a63d
00000340: 2df0 16bd bb82 86bc 6cad 1d3c 9686 62bd
00000350: 1f73 953c 5f3c d63c 26e7 66bd 8d75 803a
00000360: 5919 32bc 5dd4 523d 9a4b 5ebd ba1b 44bd
00000370: 49e8 80bd c1cc b13c 0abf 343d 78fd c7bc
00000380: 797d f8bc 6dac 5ebd ae6f a3bd 48e9 8f3b
00000390: abbe c4bc e8d5 193d f622 1cbd 4dab d5bc
000003a0: f774 18bd 4df3 5c3d 11e3 263d 7acf 91bd
000003b0: e326 663c 147f fa3c 1d86 03bd cf74 d7bc
000003c0: 26c3 e93b 8d4d 2f3d b29e 8e3d 1a81 47bd
000003d0: 8b28 793d a490 7f3c 7eb5 d63a d172 76bc
000003e0: 8fcb 14bd 746d 64bb 77e2 033d 128b 973b
000003f0: c8fb eebc a372 27bd 7566 bfba 543c 54bc

actor.bias f4 [4]
-0.019951034 -0.022712186 0.032170177 -0.081721194
00000000: 5a70 a3bc e80e babc e0c4 033d 715d a7bd

critic.weight f4 [1, 352]
-0.008764638 -0.040821504 0.42472175 0.005524935 0.062427595 -0.0029815023 -0.007193796 0.14532529
0.06592315 -0.07447515 0.21918674 0.07546875 -0.06303742 -0.024629116 -0.026982125 -0.10699611
0.10493594 4.4359884e-05 -0.015767233 0.41977578 0.054171227 -0.011580345 0.04678626 -0.091253154
0.027192082 0.0013757973 0.053292256 0.059423663 -0.0053443564 -0.033775255 0.045873653 -0.034687962
0.0032824776 -0.0493176 -0.11369409 -0.0131121045 -0.0147796 -0.005357978 0.12611708 0.37363252
0.17805406 0.066735 0.02751238 -0.09033108 0.16650824 0.039334714 -0.086177126 0.4144352
-0.00737964 0.10108704 0.09261369 0.09601118 0.1680942 -0.054416817 -0.14410003 0.016071193
0.16148499 -0.032707863 -0.07993479 -0.18497886 0.095413156 -0.07462632 -0.02921921 0.036521755
0.42721105 -0.024704728 -0.0063933018 0.09720955 -0.004704157 0.32671627 -0.0490177 0.05851208
0.056873094 -0.017114345 -0.075561486 -0.16495027 0.006595203 -0.014825515 0.0020205467 0.055292353
0.053158816 0.08535063 -0.02130113 0.03278972 0.052212875 0.060792394 -0.084545344 -0.07809152
-0.0008505397 0.05058579 -0.031902928 -0.057792276 -0.059370667 0.049165685 -0.032217696 -0.0028718433
0.08873052 -0.014890774 0.023333173 0.040393166 -0.11988343 0.07788296 -0.06410027 0.04589741
0.36605254 -0.10292272 0.059553593 0.048378445 0.1061734 0.10590989 -0.015793689 -0.011172365
0.07663894 0.102261275 0.043038193 -0.054272465 0.00039535377 0.10382513 0.024781488 0.12003144
0.10267452 -0.11715745 -0.012014678 -0.03562423 -0.0112114 0.3938548 -0.08326867 0.09725494
0.039541166 -0.023385948 -0.09781868 0.08510415 0.09263975 0.11355469 0.009925411 0.071221374
0.004251968 0.07991819 0.010147898 0.07894723 0.022994172 0.0009300983 -0.019365039 0.027315062
0.0018249723 0.07133112 0.00081897626 0.073151045 0.057101015 0.021522794 0.10534192 0.29302713
-0.021962924 0.0028115024 0.09451549 0.054067474 0.33073413 0.06243302 0.046931375 0.044698466
0.104390234 -0.040634695 0.07939251 -0.06473135 -0.029964076 0.0426888 0.057186138 -0.002948174
0.31591073 -0.027927756 -0.013804644 0.016023355 0.06425934 0.011604787 -0.03493887 -0.026528211
-0.006289716 -0.005757751 -0.0015669854 -0.0064019617 0.0016608723 0.04309642 -0.0079925135 0.02328043
0.006218554 0.10109198 -0.031776924 -0.0065179477 0.024095934 0.06293439 0.0669269 -0.019089982
0.23841712 0.37248355 -0.026747094 0.052941706 -0.016647149 0.018588515 -0.03573625 -0.017229352
0.31360865 -0.06982389 0.07996618 -0.12600632 -0.02328115 0.0032431101 0.11563228 -0.00024921072
-0.004259251 0.033008024 0.41193995 0.3646493 -0.005999244 -0.02642976 0.073600546 0.41739836
-0.048558768 -0.102113426 0.001911685 0.027387913 -0.07839575 -0.032323543 0.052581687 -0.05328611
0.020551588 -0.15437976 0.3724965 -0.015632007 -0.07502211 0.115731955 0.041953076 0.38504222
0.38868147 -0.019823292 -0.0009184176 0.31738257 -0.118404105 0.0216276 0.046675876 0.0018606858
0.4134943 0.0018495332 -0.027237589 -0.18834555 -0.011875402 -0.08871937 0.07192123 0.36626333
-0.06991159 0.20994312 -0.028429572 0.04475996 0.04309199 0.09961618 0.25399858 0.057728507
00000000: 8e99 0fbc 7334 27bd 2175 d93e 840a b53b
00000010: 14b4 7f3d 4f65 43bb efb9 ebbb 27d0 143e
00000020: b702 873d 6d86 98bd 7d72 603e 5c8f 9a3d
00000030: c319 81bd 00c3 c9bc 9e09 ddbc c720 dbbd
00000040: a7e8 d63d 100f 3a38 492a 81bc daec d63e
00000050: a6e2 5d3d 7dbb 3dbc f3a2 3f3d efe2 babd
00000060: eec1 de3c 1954 b43a fb48 5a3d 3a66 733d
00000070: b61f afbb ec57 0abd 03e6 3b3d f714 0ebd
00000080: d61e 573b 4001 4abd 72d8 e8bd 27d4 56bc
00000090: 2326 72bc fa91 afbb d624 013e c34c bf3e
000000a0: ce53 363e 5cac 883d a561 e13c 80ff b8bd
000000b0: 2381 2a3e 701d 213d a27d b0bd da30 d43e
000000c0: e8d0 f1bb b906 cf3d 3fac bd3d 82a1 c43d
000000d0: e320 2c3e 2be4 5ebd f58e 13be bca7 833c
000000e0: 525c 253e aef8 05bd dab4 a3bd 196b 3dbe
000000f0: f967 c33d afd5 98bd 205d efbc d697 153d
00000100: 68bb da3e 9261 cabc e77e d1bb cd15 c73d
00000110: 5425 9abb 5b47 a73e c9c6 48bd 5daa 6f3d
00000120: c3f3 683d 6233 8cbc fbbf 9abd b9e8 28be
00000130: 931c d83b b8e6 72bc 266b 043b 3c7a 623d
00000140: 0fbd 593d 50cc ae3d b57f aebc 834e 063d
00000150: 2bdd 553d 7201 793d 1c26 adbd 72ee 9fbd
00000160: c1f6 5eba 0c33 4f3d a5ac 02bd 98b7 6cbd
00000170: a82e 73bd f561 493d b4f6 03bd 8935 3cbb
00000180: 59b8 b53d 6ff8 73bc 3625 bf3c 4e73 253d
00000190: 7285 f5bd 1a81 9f3d 0147 83bd ecfe 3b3d
000001a0: 3d6b bb3e 26c9 d2bd 78ee 733d 7a28 463d
000001b0: 7171 d93d 49e7 d83d c461 81bc 4c0c 37bc
000001c0: e0f4 9c3d 5c6e d13d d148 303d ce4c 5ebd
000001d0: 7c47 cf39 45a2 d43d 8c02 cb3c 0bd3 f53d
000001e0: 0547 d23d 3ff0 efbd 36d9 44bc b6ea 11bd
000001f0: 05b0 37bc 56a7 c93e c488 aabd 992d c73d
00000200: ebf5 213d e393 bfbc 2955 c8bd 164b ae3d
00000210: e9b9 bd3d 5c8f e83d 319e 223c 83dc 913d
00000220: 1854 8b3b 26ac a33d 5f43 263c 16af a13d
00000230: 465e bc3c d7d1 733a 6ea3 9ebc d6c3 df3c
00000240: e933 ef3a 0d16 923d 91b0 563a 37d0 953d
00000250: c1e2 693d 9250 b03c 81bd d73d a707 963e
00000260: 97eb b3bc 2f41 383b 5691 c13d db75 5d3d
00000270: fc55 a93e c4b9 7f3d 1d3b 403d bd15 373d
00000280: 8cca d53d 9170 26bd 8a98 a23d df91 84bd
00000290: 3977 f5bc 73da 2e3d 033c 6a3d 2736 41bb
000002a0: 0dbf a13e c0c8 e4bc e02c 62bc 6943 833c
000002b0: 679a 833d 0122 3e3c 101c 0fbd b151 d9bc
000002c0: f619 cebb 84ab bcbb 4e63 cdba 8cc7 d1bb
000002d0: a0b1 d93a df85 303d 08f3 02bc 9ab6 be3c
000002e0: 03c5 cb3b 5009 cf3d 8528 02bd 8294 d5bb
000002f0: d664 c53c bfe3 803d f810 893d 9862 9cbc
00000300: 9e23 743e 2ab6 be3e b91c dbbc 67d9 583d
00000310: 9a5f 88bc f146 983c 2d60 12bd 9224 8dbc
00000320: 5091 a03e d4ff 8ebd 4fc5 a33d cd07 01be
00000330: 1cb8 bebc 5c8a 543b 9ed0 ec3d 7fa8 82b9
00000340: 3091 8bbb 6c33 073d cbe9 d23e 50b3 ba3e
00000350: 4e95 c4bb 3983 d8bc e2bb 963d 3db5 d53e
00000360: 8fe5 46bd d820 d1bd 8191 fa3a 9e5c e03c
00000370: f38d a0bd b165 04bd e55f 573d 8942 5abd
00000380: ce5b a83c ba15 1ebe dcb7 be3e b20e 80bc
00000390: 31a5 99bd e004 ed3d fdd6 2b3d 4124 c53e
000003a0: 4201 c73e 7564 a2bc f6c1 70ba f87f a23e
000003b0: da7d f2bd 5d2c b13c 342f 3f3d 41e2 f33a
000003c0: 86b5 d33e 096c f23a 5d21 dfbc a8dd 40be
000003d0: 0c91 42bc 80b2 b5bd 704b 933d de86 bb3e
000003e0: cf2d 8fbd 54fb 563e 22e5 e8bc 3856 373d
000003f0: 3a81 303d 9103 cc3d 1a0c 823e ba74 6c3d
