gym_models_4/model_690.pth (torch, 518546 bytes, 11 tensors)

features_extractor.conv1.weight f4 [16, 4, 4]
-0.15807748 -0.33987877 -0.30791274 -0.08951201 0.17064819 0.020306986 -0.043181967 -0.1868693
0.30722082 -0.08653539 -0.15475808 0.1334491 0.13742822 0.30416527 -0.01530791 0.1445362
0.14234167 0.2787145 -0.056719087 0.30568263 0.22929953 0.052321244 -0.087251045 -0.060443603
-0.20068513 -0.071916945 -0.12071384 -0.06138746 0.05316141 0.13417102 0.08088874 0.19976972
0.047892034 -0.11795011 0.09062636 -0.018535137 -0.20898676 -0.0869472 0.060982645 -0.123448044
0.0055960417 0.06954315 0.08656061 -0.15340668 0.14315489 0.027603805 -0.21648785 0.093228996
0.14062834 -0.059233952 0.11462516 0.13309357 -0.26027438 0.10686896 0.1517717 -0.00873981
0.09370415 0.024579765 0.07113582 -0.18606225 0.039684866 -0.18196854 0.23198152 -0.2449213
-0.10545531 0.13583991 -0.2153422 -0.04657823 0.22069725 0.24771968 -0.24100521 0.1653842
-0.16728309 -0.052842975 0.12321001 -0.20233926 -0.13663265 0.07817969 -0.14580873 0.0031096637
-0.1992892 -0.07205485 -0.17071268 -0.09071108 -0.13389888 -0.000878322 0.14764826 0.2658972
0.030913878 0.20106548 -0.084903665 0.0735647 -0.05741312 -0.003351132 0.20351465 0.03134554
0.06518573 0.03742348 0.27034208 0.18514475 0.017992001 0.19953823 0.20818877 0.03731834
0.15692827 0.03423545 -0.013964781 -0.1390588 0.13645798 0.14647174 0.21322396 -0.053607523
-0.06949565 0.040076762 0.100608855 -0.2453225 -0.24840948 0.00087976456 -0.20716703 0.16913974
-0.13610381 -0.08703098 0.20006266 -0.034374475 0.21151093 -0.2376489 -0.009167135 -0.10028654
0.049326155 -0.0139562925 0.27985227 -0.15140074 0.13965821 -0.0828482 0.1518787 0.14896731
0.10928027 -0.14401862 -0.1264433 -0.004262416 0.06668202 -0.20204784 0.1326374 0.14314958
-0.050457384 -0.10348058 0.021072822 -0.29330727 0.034498654 0.2674943 -0.06905959 0.22667177
-0.028532509 0.20973915 -0.05643023 -0.098272055 0.019800767 -0.04349682 -0.10561053 0.13787682
-0.020829996 -0.037661858 -0.2655847 -0.062193245 0.1380028 0.2452097 0.013278925 -0.12313587
0.15458535 -0.067669645 0.18660243 0.07701043 0.24817172 0.05877748 -0.015403529 -0.06583068
-0.16532171 -0.14763519 -0.23078182 0.024341434 0.17658103 -0.1387788 0.15964869 0.24597624
-0.11863685 -0.15827954 -0.0154771805 -0.07973006 -0.11937854 0.22921988 -0.23766041 0.06618062
0.21272518 0.27903605 -0.0543819 0.3179013 -0.124184884 0.11981166 0.10532245 -0.13333715
-0.1266321 0.06876945 0.16643596 0.14769988 -0.21942885 0.22653358 -0.035705235 -0.037487812
0.12969652 0.028217113 0.15176389 -0.229279 -0.13381581 0.19365695 0.18200032 0.25338057
-0.07512926 -0.22953728 -0.10022805 -0.07262121 0.15409224 0.07220664 -0.15405561 -0.06741594
-0.060713973 -0.31863564 0.012845992 -0.29675895 -0.07941822 0.10564553 0.24778263 0.20657791
0.17022982 -0.17189184 0.03537231 -0.031366218 0.1856254 0.21500188 -0.06717743 -0.04366216
-0.39061525 0.063725255 -0.27925745 -0.19329955 0.02418772 0.22360596 0.23004413 -0.0031327952
0.015912652 0.06370632 -0.054524884 0.07871728 0.23066725 -0.044459887 -0.17485422 0.1674602
00000000: 10df 21be 9704 aebe bda6 9dbe 1352 b7bd
00000010: 66be 2e3e d65a a63c 93df 30bd aa5a 3fbe
00000020: 0c4c 9d3e 7739 b1bd e778 1ebe e2a6 083e
00000030: fcb9 0c3e 8dbb 9b3e 07ce 7abc 4c01 143e
00000040: 04c2 113e abb3 8e3e 4652 68bd 6f82 9c3e
00000050: 7fcd 6a3e cd4e 563d adb0 b2bd b693 77bd
00000060: 6780 4dbe 3149 93bd d138 f7bd 6b71 7bbd
00000070: c7bf 593d 2164 093e ffa8 a53d 6f90 4c3e
00000080: 702a 443d d48f f1bd 509a b93d 00d7 97bc
00000090: a000 56be 6011 b2bd f0c8 793d 54d2 fcbd
000000a0: 005f b73b a46c 8e3d b046 b13d a416 1dbe
000000b0: 3297 123e 6021 e23c feae 5dbe d8ee be3d
000000c0: e000 103e 4d9f 72bd 99c0 ea3d ae49 083e
000000d0: af42 85be 1dde da3d 0a6a 1b3e 6c31 0fbc
000000e0: f6e7 bf3d 815b c93c a8af 913d 1a87 3ebe
000000f0: 998c 223d f655 3abe 908c 6d3e a6cc 7abe
00000100: f4f8 d7bd 9e19 0b3e aa82 5cbe d0c8 3ebd
00000110: 76fe 613e 3aaa 7d3e 12ca 76be 7a5a 293e
00000120: 424c 2bbe e071 58bd 8855 fc3d 0632 4fbe
00000130: 6ee9 0bbe ac1c a03d e24e 15be 80cb 4b3b
00000140: 7812 4cbe 7e91 93bd 4ecf 2ebe bbc6 b9bd
00000150: ca1c 09be 313f 66ba 1b31 173e ae23 883e
00000160: 1a3f fd3c 1ce4 4d3e f9e1 adbd 17a9 963d
00000170: 052a 6bbd aa9e 5bbb 2566 503e 2e64 003d
00000180: 1980 853d 5d49 193d 476a 8a3e 9696 3d3e
00000190: f663 933c c053 4c3e 702f 553e 1edb 183d
000001a0: ceb1 203e 793a 0c3d 89cc 64bc 6e65 0ebe
000001b0: a4bb 0b3e b0fc 153e 6257 5a3e 9093 5bbd
000001c0: bc53 8ebd 8827 243d 040c ce3d d235 7bbe
000001d0: 0e5f 7ebe 00a0 663a 9823 54be f832 2d3e
000001e0: cc5e 0bbe 4c3d b2bd 3add 4c3e 40cc 0cbd
000001f0: 5296 583e 3c5a 73be c031 16bc 0863 cdbd
00000200: 390a 4a3d efa8 64bc cc48 8f3e cc08 1bbe
00000210: 9002 0f3e 51ac a9bd 1786 1b3e e38a 183e
00000220: 56ce df3d 9e79 13be 5a7a 01be bdab 8bbb
00000230: 9590 883d a1e5 4ebe 19d2 073e ce95 123e
00000240: 67ac 4ebd a0ed d3bd e9a0 ac3c 5f2c 96be
00000250: 764e 0d3d 03f5 883e 1d6f 8dbd a51c 683e
00000260: 02bd e9bc dcc5 563e 6323 67bd dc42 c9bd
00000270: 3835 a23c b929 32bd 554a d8bd 952f 0d3e
00000280: aba3 aabc 5243 1abd b8fa 87be 58be 7ebd
00000290: 9b50 0d3e 4018 7b3e d98f 593c a92e fcbd
000002a0: 9f4b 1e3e 6296 8abd b514 3f3e a5b7 9d3d
000002b0: ba20 7e3e a8c0 703d 155f 7cbc 3cd2 86bd
000002c0: 184a 29be ae2d 17be 1252 6cbe b067 c73c
000002d0: a8d1 343e 081c 0ebe f27a 233e 32e1 7b3e
000002e0: e0f7 f2bd 0814 22be 0094 7dbc 8449 a3bd
000002f0: bc7c f4bd 9eb8 6a3e 405d 73be b489 873d
00000300: a1d4 593e d0dd 8e3e 8ebf 5ebd f6c3 a23e
00000310: a554 febd d15f f53d 4cb3 d73d 8989 08be
00000320: d8ab 01be ffd6 8c3d 306e 2a3e a33e 173e
00000330: f5b1 60be 6bf8 673e a73f 12bd d28c 19bd
00000340: 2acf 043e 9327 e73c fe67 1b3e 1dc8 6abe
00000350: 0307 09be 024e 463e 4b5e 3a3e 19bb 813e
00000360: 5fdd 99bd d20b 6bbe 5d44 cdbd 6eba 94bd
00000370: 5bca 1d3e 13e1 933d c1c0 1dbe 5e11 8abd
00000380: 37af 78bd 3624 a3be ff77 523c caf0 97be
00000390: 05a6 a2bd af5c d83d bbba 7d3e 2989 533e
000003a0: ba50 2e3e 6a04 30be 8ee2 103d dd79 00bd
000003b0: 9614 3e3e 7429 5c3e 5294 89bd 18d7 32bd
000003c0: b9fe c7be 6382 823d d5fa 8ebe 51f0 45be
000003d0: 5325 c63c f6f8 643e b090 6b3e 954f 4dbb
000003e0: 405b 823c 7678 823d 7c55 5fbd 8636 a13d
000003f0: 0934 6c3e 921b 36bd fc0c 33be b07a 2b3e

features_extractor.conv1.bias f4 [16]
0.16509862 0.1748379 -0.241467 0.07471112 -0.21005383 -0.14033578 0.053575695 -0.0530307
-0.18646897 0.26742083 -0.19057624 -0.23993891 0.18377735 -0.09925869 0.20048504 0.039735343
00000000: 9d0f 293e b508 333e 2043 77be 2502 993d
00000010: 5a18 57be 2fb4 0fbe 3072 5b3d b836 59bd
00000020: b9f1 3ebe 62eb 883e 6b26 43be 8cb2 75be
00000030: 2130 3c3e 2448 cbbd f34b 4d3e 87c1 223d

features_extractor.conv2.weight f4 [32, 16, 4]
-0.0032103523 0.032366227 0.014990998 -0.051482845 -0.10448838 0.057380177 -0.11618565 -0.07148851
0.07613553 0.08131665 -0.043880567 0.06828141 -0.065222465 -0.023799054 -0.11100893 0.062815994
-0.10236201 -0.027530566 -0.06346801 0.11368096 -0.11541018 -0.043140028 -0.0023955156 -0.03110179
0.0030028555 0.08846627 -0.1330122 -0.106048554 -0.086215466 -0.09342717 -0.11982295 0.02656348
-0.006779154 0.03582989 0.022873845 0.012527456 0.016719058 0.09003503 0.015068842 0.105330035
-0.006093898 0.054061078 -0.11067325 -0.07752187 0.024176672 0.09119889 0.031480536 -0.08512691
0.11439931 -0.08832981 -0.054318763 -0.12857425 -0.11262201 0.110755935 -0.002616167 0.064705774
0.10133241 -0.05631286 -0.05271872 0.020957824 -0.057852324 0.06405834 -0.023229767 -0.1153727
-0.3842889 -0.28215635 -0.29502353 -0.33505228 0.08493348 0.14312604 0.012169973 0.07201514
0.11761691 -0.003871724 -0.010218784 -0.08319354 0.07011401 -0.06499393 0.12168864 0.056237046
0.11564171 0.020791158 -0.09170048 0.040882736 -0.23085807 -0.0582121 -0.31755528 -0.34328407
0.07111206 0.078844205 -0.056640416 0.1063054 -0.010039851 -0.025223508 -0.08589627 -0.09404205
0.051609132 0.054918434 0.10842766 0.07407315 -0.31953475 -0.19172399 -0.30533287 -0.21934687
-0.121492535 -0.007040089 -0.16940038 -0.18468839 -0.046103626 0.079263985 -0.04623957 -0.11364311
-0.015365497 0.12389356 0.09325594 0.025671585 -0.5746692 -0.505008 -0.5852809 -0.55173004
-0.11984743 -0.16578698 -0.21223736 -0.2744149 -0.35693428 -0.57752585 -0.5313906 -0.51114285
-0.20198266 -0.28481063 -0.25841656 -0.28857446 0.004567872 0.025229618 -0.0046286224 0.09983551
0.01979661 0.090131134 0.06415352 -0.12189752 -0.050385658 -0.02871059 0.033350207 0.06357083
-0.050027072 0.004221529 0.12264556 0.093053326 -0.16048679 -0.18078442 -0.23053077 -0.20310843
0.056831095 0.026929304 0.09758467 0.010734976 -0.1063962 -0.028876558 0.0582449 0.02915138
0.016333632 -0.105841435 0.09036338 0.078752175 -0.114099115 -0.16276398 -0.29249695 -0.24447037
0.004421063 -0.041435663 -0.020224266 -0.039217755 0.024207622 0.080415845 -0.010367081 0.07767959
0.069535345 -0.028310899 0.15207452 -0.014382534 -0.6637821 -0.6945531 -0.5893015 -0.49966887
-0.03061642 -0.06573058 -0.14584401 -0.19126499 -0.60419196 -0.61299604 -0.6852111 -0.5857074
0.23198874 0.21179575 0.264024 0.15889013 0.105817415 0.019841477 0.0336935 -0.07190507
-0.10474788 -0.10521957 0.09904979 -0.10579102 -0.10104654 -0.10285644 -0.062015757 -0.053029362
-0.11431149 -0.011782244 0.076163545 0.11911303 0.1414722 0.05299593 0.08877556 0.12456486
0.14285645 -0.07655883 0.0008410306 0.12390182 -0.04178591 -0.015764505 -0.0731193 0.10576899
0.040783066 0.1377355 0.13368094 0.07370631 0.23098823 0.07359827 0.2434683 0.21103582
0.039954334 0.1931083 0.12495087 0.07662144 0.01626192 -0.017071769 0.122926936 -0.109512836
-0.03450341 -0.10619299 0.066317625 -0.061372824 0.5972661 0.46745142 0.28044543 0.24073909
0.028869528 0.21331017 0.23322387 0.2317263 0.11267241 0.34382975 0.28495336 0.25694555
00000000: c664 52bb 7392 043d ce9c 753c addf 52bd
00000010: 01fe d5bd 7a07 6b3d bef2 edbd 9168 92bd
00000020: f2ec 9b3d 5889 a63d 1cbc 33bd 20d7 8b3d
00000030: 5b93 85bd 3cf6 c2bc a658 e3bd aca5 803d
00000040: 2ca3 d1bd c887 e1bc 84fb 81bd 90d1 e83d
00000050: 2c5c ecbd 99b3 30bd 15fe 1cbb 2ec9 febc
00000060: 8ecb 443b ce2d b53d 5a34 08be fc2f d9bd
00000070: bc91 b0bd be56 bfbd bc65 f5bd a89b d93c
00000080: aa23 debb 5dc2 123d ee61 bb3c f53f 4d3c
00000090: 68f6 883c 4964 b83d 4ee3 763c 46b7 d73d
000000a0: 52af c7bb 266f 5d3d a8a8 e2bd c9c3 9ebd
000000b0: 280e c63c 7cc6 ba3d bcf1 003d 0457 aebd
000000c0: 2f4a ea3d 42e6 b4bd 5a7d 5ebd f8a8 03be
000000d0: 5ea6 e6bd 02d4 e23d 0074 2bbb 7684 843d
000000e0: 5e87 cf3d 50a8 66bd 96ef 57bd beaf ab3c
000000f0: 8ff6 6cbd 0531 833d 5a4c bebc 8648 ecbd
00000100: 84c1 c4be cc76 90be 530d 97be f98b abbe
00000110: 9bf1 ad3d a28f 123e 9164 473c ac7c 933d
00000120: 22e1 f03d c0bc 7dbb b06c 27bc 6061 aabd
00000130: ef97 8f3d 8a1b 85bd e537 f93d d158 663d
00000140: 90d5 ec3d 3852 aa3c 76cd bbbd a874 273d
00000150: 0f66 6cbe d06f 6ebd 9b96 a2be eec2 afbe
00000160: 33a3 913d 1279 a13d c8ff 67bd a5b6 d93d
00000170: 307e 24bc 88a1 cebc 62ea afbd 1e99 c0bd
00000180: 1964 533d 27f2 603d 520f de3d aab3 973d
00000190: 0f9a a3be 4b53 44be 9754 9cbe 779c 60be
000001a0: 14d1 f8bd 8cb0 e6bb 4b77 2dbe f41e 3dbe
000001b0: 28d7 3cbd 2855 a23d b465 3dbd b8bd e8bd
000001c0: 91bf 7bbc e8bb fd3d f8fc be3d 374d d23c
000001d0: 851d 13bf 3448 01bf f8d4 15bf 2e3e 0dbf
000001e0: 9272 f5bd 10c4 29be c054 59be 1c80 8cbe
000001f0: 17c0 b6be bcd8 13bf 3709 08bf 42da 02bf
00000200: 8bd4 4ebe b3d2 91be 2d4f 84be 08c0 93be
00000210: 16ae 953b 58ae ce3c b3ab 97bb 8f76 cc3d
00000220: 802c a23c ac96 b83d ec62 833d 68a5 f9bd
00000230: 3161 4ebd 7932 ebbc 3a9a 083d 6c31 823d
00000240: 30e9 4cbd c054 8a3b 982d fb3d be92 be3d
00000250: a656 24be 8d1f 39be 4210 6cbe a8fb 4fbe
00000260: b9c7 683d d89a dc3c 79da c73d c1e1 2f3c
00000270: 40e6 d9bd 888e ecbc 3492 6e3d e0ce ee3c
00000280: 1cce 853c 65c3 d8bd 7010 b93d d248 a13d
00000290: ccac e9bd 9aab 26be 29c2 95be 7156 7abe
000002a0: 90de 903b 71b8 29bd 5cad a5bc cca2 20bd
000002b0: 104f c63c 10b1 a43d b0da 29bc 7a16 9f3d
000002c0: 8c68 8e3d 42ec e7bc 6cb9 1b3e b8a4 6bbc
000002d0: a0ed 29bf 3bce 31bf 77dc 16bf 99d4 ffbe
000002e0: 49cf fabc c19d 86bd 2258 15be f8da 43be
000002f0: 53ac 1abf 4fed 1cbf ff69 2fbf ecf0 15bf
00000300: 758e 6d3e fce0 583e 272e 873e 18b4 223e
00000310: cdb6 d83d 988a a23c 3202 0a3d f742 93bd
00000320: 0e86 d6bd 5c7d d7bd 9eda ca3d f6a8 d8bd
00000330: 7df1 cebd 66a6 d2bd 3c04 7ebd 5135 59bd
00000340: 241c eabd 500a 41bc a2fb 9b3d 88f1 f33d
00000350: 17de 103e 4312 593d f6cf b53d dc1b ff3d
00000360: f648 123e e0ca 9cbd 9c78 5c3a 3dc0 fd3d
00000370: b427 2bbd 9024 81bc 92bf 95bd 6a9d d83d
00000380: 250c 273d 890a 0d3e a8e3 083e 55f3 963d
00000390: 2e88 6c3e b1ba 963d c14f 793e c619 583e
000003a0: 28a7 233d 2fbe 453e 3ee6 ff3d b4eb 9c3d
000003b0: b837 853c 18da 8bbc 1ec1 fb3d 4448 e0bd
000003c0: 7353 0dbd b67b d9bd 89d1 873d 1262 7bbd
000003d0: 6ee6 183f cb55 ef3e 8b96 8f3e 4f84 763e
000003e0: ca7f ec3c fb6d 5a3e 3dd2 6e3e a949 6d3e
000003f0: cbc0 e63d 740a b03e 68e5 913e 5e8e 833e

features_extractor.conv2.bias f4 [32]
-0.013531408 -0.028732937 0.037931297 -0.062811896 -0.11426218 0.06606026 0.16670232 -0.053656615
0.026836082 0.058288556 0.026880663 0.13027833 0.13623862 -0.07529564 -0.12022875 -0.079999015
-0.086129546 0.043982092 -0.052707262 -0.10758755 -0.004346573 -0.09472117 -0.061901536 -0.083460554
-0.044669047 -0.056932375 0.08554384 -0.0643078 0.099624485 -0.09393425 -0.12695077 -0.07979551
00000000: d7b2 5dbc 5661 ebbc d95d 1b3d 86a3 80bd
00000010: 4a02 eabd 9a4a 873d 03b4 2a3e 0ac7 5bbd
00000020: 58d7 db3c fbbf 6e3d d634 dc3c af67 053e
00000030: 2382 0b3e 9a34 9abd 7e3a f6bd 86d6 a3bd
00000040: b064 b0bd 9126 343d 92e3 57bd dd56 dcbd
00000050: b26d 8ebb 2cfd c1bd 778c 7dbd 5eed aabd
00000060: e4f6 36bd ec31 69bd 9c31 af3d cfb3 83bd
00000070: ec07 cc3d 9a60 c0bd 62ff 01be d46b a3bd

features_extractor.fc_op.weight f4 [32, 3]
-0.16535717 0.14103685 -0.28946418 -0.058809765 -0.023446223 -0.57340175 -0.19078325 0.2806528
0.17931414 -0.19730368 0.26428956 -0.3862469 -0.42170247 -0.46437046 0.189302 -0.43032837
-0.44158912 0.23141414 -0.22796038 -0.5115184 0.42142364 -0.47208714 -0.044727925 0.2524091
-0.007961864 -0.18719979 -0.51782346 -0.4501308 0.35625595 -0.19227916 -0.10165891 0.009391621
0.43880332 -0.0008919869 -0.38779974 0.56839085 -0.091884725 -0.30180094 -0.018100979 -0.0010277004
0.034672093 -0.39111063 0.36989936 0.25947848 -0.6850211 0.17867342 -0.37014064 0.15553132
-0.49182537 -0.5069902 0.42780536 0.4950532 -0.15477043 -0.32012823 0.23985897 -0.32491702
0.20407318 -0.36477843 0.21751423 -0.5411675 0.17516316 -0.19176435 0.0900428 0.093945086
-0.10161504 0.09324253 -0.4738393 -0.46748725 -0.610776 -0.410828 0.30886033 0.03311116
0.22178236 0.14288445 -0.063149706 -0.02799549 -0.08562575 0.171325 0.1821407 -0.40820104
0.16923429 -0.20404804 0.34374613 -0.4269995 0.21619654 0.24725616 0.5807229 -0.22189006
-0.27264336 -0.07763341 -0.25862962 0.023950957 -0.32722294 0.10720594 -0.11535397 0.11731707
00000000: 6453 29be f76b 103e a634 94be 82e2 70bd
00000010: 4b12 c0bc 75ca 12bf af5c 43be b9b1 8f3e
00000020: 209e 373e fa09 4abe f650 873e 27c2 c5be
00000030: 63e9 d7be f7c1 edbe 62d8 413e 0054 dcbe
00000040: f817 e2be d4f7 6c3e 726e 69be dff2 02bf
00000050: d7c4 d73e 68b5 f1be a134 37bd c43b 813e
00000060: 7a72 02bc 4db1 3fbe 1490 04bf 8b77 e6be
00000070: 2e67 b63e d4e4 44be 8c32 d0bd 50df 193c
00000080: d4aa e03e 3ad4 69ba b08d c6be 1082 113f
00000090: 0f2e bcbd a785 9abe 8148 94bc e7b3 86ba
000000a0: 5304 0e3d a73f c8be 7363 bd3e 5dda 843e
000000b0: 8b5d 2fbf 2af6 363e 1383 bdbe 9a43 1f3e
000000c0: 89d0 fbbe 1cca 01bf 4e09 db3e 9d77 fd3e
000000d0: 247c 1ebe d9e7 a3be 979d 753e 865b a6be
000000e0: 8ff8 503e 3dc4 babe 0dbc 5e3e f489 0abf
000000f0: f95d 333e e05d 44be 5c68 b83d 4866 c03d
00000100: 8c1b d0bd f1f5 be3d 119b f2be 7d5a efbe
00000110: d15b 1cbf 0c58 d2be f122 9e3e 919f 073d
00000120: ea1a 633e 4d50 123e a254 81bd cc56 e5bc
00000130: 8e5c afbd d26f 2f3e 1783 3a3e baff d0be
00000140: c14b 2d3e f8f1 50be 7eff af3e ae9f dabe
00000150: a062 5d3e b830 7d3e 42aa 143f 2637 63be
00000160: e997 8bbe 44fe 9ebd 1a6b 84be cc34 c43c
00000170: c489 a7be ca8e db3d b43e ecbd ef43 f03d

features_extractor.fc_op.bias f4 [32]
-0.18319309 0.563644 0.13817833 -0.34095618 0.4720753 0.3978581 -0.47323656 -0.028859243
0.61813366 -0.378592 0.3459513 0.60441977 0.23427603 0.13182893 -0.13037989 -0.22319141
-0.083249465 0.21428011 0.1951456 -0.11910882 -0.62287486 -0.47347033 0.10702521 0.39542463
0.41290417 -0.5992512 -0.35479698 -0.45929402 0.0014040631 -0.5988832 0.48503032 -0.57373697
00000000: f896 3bbe f94a 103f 9f7e 0d3e cf91 aebe
00000010: dbb3 f13e 0fb4 cb3e 104c f2be 386a ecbc
00000020: 023e 1e3f d0d6 c1be 8720 b13e 41bb 1a3f
00000030: 0ee6 6f3e 2afe 063e 4e82 05be 4a8c 64be
00000040: b27e aabd 3f6c 5b3e 40d4 473e 53ef f3bd
00000050: ba74 1fbf b46a f2be 0930 db3d 1975 ca3e
00000060: 2d68 d33e 8768 19bf f3a7 b5be 9628 ebbe
00000070: 8a08 b83a 6950 19bf e555 f83e 6de0 12bf

features_extractor.fc_merge.weight f4 [352, 352]
-0.04399348 -0.003966395 0.007623648 -0.03627211 -0.037151206 -0.03698261 0.0049510743 0.028399777
-0.048096977 -0.025131641 -0.009793534 -0.015436419 0.03150523 0.0039442983 0.008665656 -0.039647482
-0.028249318 -0.04976873 -0.009618847 -0.038907923 -0.06393823 -0.011764948 -0.0566382 -0.0083065955
0.030535974 -0.055649992 -0.04849731 0.040212844 0.031895746 -0.035332974 -0.04157165 -0.015397858
-0.02862019 0.034904093 -0.05521177 -0.0073795123 -0.02055516 -0.05557663 -0.03687984 -0.012411484
-0.05050929 -0.008410626 -0.026230626 0.026177946 0.042244785 -0.0037092343 -0.0028890504 0.0087654125
-0.01834903 -0.009842317 0.0031258087 0.043530464 0.01657936 0.004818672 0.028973823 -0.04353692
0.049218327 -0.038535614 0.025892116 0.020703478 -0.015375732 -0.06943832 0.019803975 -0.050652236
-0.031584825 -0.019375278 -0.050106823 -0.036677413 0.013689195 -0.016786948 -0.03652908 -0.038524494
0.029524162 -0.030685408 -0.028809093 -0.060280133 -0.015929805 0.019224366 -0.03130107 0.010692073
-0.028445613 -0.004623468 0.04545325 -0.020833554 0.041265618 -0.028046431 -0.035516016 0.035469327
-0.036560956 0.006490917 -0.03240391 -0.036540415 0.02023425 0.030137364 -0.010530906 -0.027292179
0.0076954635 0.030639036 0.031354133 -0.0325542 -0.04051303 -0.0066437377 0.033078406 -0.020413425
0.0385138 -0.010321677 0.03364752 0.0135592595 -0.003736013 -0.0033703675 0.025482366 0.0248843
-0.064335704 0.03256657 -0.01272843 0.02349209 -0.011270367 -0.025138201 -0.059340794 0.028787568
0.019907797 0.0020891735 0.017276721 -0.047987483 -0.014963875 0.032611288 -0.061728712 0.02626521
0.02826292 0.025128776 -0.02203431 -0.036077693 -0.025401985 -0.039522555 0.0032612416 -0.017278936
0.049526624 0.048642736 0.041599523 -0.026933612 0.009588057 -0.009987709 -0.021798352 0.033353332
-0.027366642 0.021271387 -0.026448684 -0.028083479 -0.01049405 -0.05242034 -0.0069858967 0.045060854
0.020886507 -0.040070403 -0.02449676 0.03674858 0.035602733 -0.017513381 -0.01134803 -0.036605205
0.04770669 -0.043439813 -0.008228759 0.020811278 0.018809833 -0.015470552 -0.024205524 -0.026636919
0.03951437 -0.027659949 -0.06044844 0.024349006 -0.025644759 -0.04428726 0.0003894993 0.024240866
-0.014239875 -0.03256858 -0.01003468 0.017745335 -0.028025324 -0.0066307425 0.0040718927 -0.017114948
-0.052815028 -0.051918127 -0.042406887 -0.00737373 -0.007379522 -0.048916657 -0.021677727 -0.058435276
0.026203396 -0.020124221 -0.018397864 -0.009086384 -0.0024122945 -0.052059926 0.029475482 -0.00043152474
-0.056722138 -0.0399051 -0.03849535 0.022640387 -0.020048657 -0.044009928 0.004843582 0.016285177
0.022557735 -0.035262328 0.028474584 -0.007893519 -0.05436121 -0.006471956 -0.020082144 -0.053623907
0.02789271 -0.057866085 0.008988961 -0.040532354 -0.034163214 0.02168494 -0.02862448 -0.058669146
-0.030026253 -0.05736151 -0.029612696 0.0035665147 0.0012646364 0.031446327 -0.020440934 -0.012367224
0.02801524 0.03799563 -0.023658007 -0.003974994 0.02131687 -0.06103108 -0.044999033 -0.044698954
-0.047618136 0.04311909 -0.028001215 0.03018169 0.038195718 -0.019361958 0.023088563 0.034842726
0.0139247235 0.041058935 0.022269282 0.051141173 0.03523837 0.03784278 0.04504715 -0.03861312
00000000: 8232 34bd 88f8 81bb cbcf f93b 1092 14bd
00000010: dd2b 18bd 147b 17bd 9f3c a23b a6a6 e83c
00000020: 5601 45bd dfe0 cdbc 0f75 20bc 09e9 7cbc
00000030: a10b 013d 2c3f 813b 65fa 0d3c 6665 22bd
00000040: 1d6b e7bc 4cda 4bbd 5e98 1dbc ea5d 1fbd
00000050: 0cf2 82bd c5c1 40bc 75fd 67bd 6318 08bc
00000060: 9426 fa3c 3ff1 63bd 1ea5 46bd 39b6 243d
00000070: 1da5 023d 4fb9 10bd 0947 2abd 4c47 7cbc
00000080: e474 eabc 98f7 0e3d bd25 62bd d6cf f1bb
00000090: 4b63 a8bc 52a4 63bd 510f 17bd 8959 4bbc
000000a0: d4e2 4ebd b9cc 09bc 9ce1 d6bc 2273 d63c
000000b0: de08 2d3d a016 73bb 3956 3dbb ce9c 0f3c
000000c0: b450 96bc ab41 21bc 5eda 4c3b 004d 323d
000000d0: 70d1 873c f3e5 9d3b 835a ed3c c553 32bd
000000e0: 2899 493d 85d7 1dbd b41b d43c 579a a93c
000000f0: 7fea 7bbc ae35 8ebd f23b a23c b878 4fbd
00000100: 175f 01bd e7b8 9ebc d03c 4dbd 0e3b 16bd
00000110: a548 603c c884 89bc 849f 15bd dccb 1dbd
00000120: a8dc f13c f75f fbbc 0c01 ecbc 4de8 76bd
00000130: 397f 82bc 6b7c 9d3c 8d35 00bd ce2d 2f3c
00000140: c606 e9bc 7680 97bb 302d 3a3d 21ab aabc
00000150: 2306 293d a1c1 e5bc 3e79 11bd 4948 113d
00000160: f1c0 15bd c2b1 d43b f6b9 04bd 67ab 15bd
00000170: 4cc2 a53c a2e2 f63c d289 2cbc d993 dfbc
00000180: 3a2a fc3b b7fe fa3c 316d 003d 8e57 05bd
00000190: fef0 25bd b6b3 d9bb 397d 073d 0e3a a7bc
000001a0: a5c0 1d3d 401c 29bc fbd1 093d a827 5e3c
000001b0: e6d7 74bb 62e1 5cbb 65c0 d03c 29da cb3c
000001c0: 70c2 83bd 8664 053d e88a 50bc 7c72 c03c
000001d0: 58a7 38bc a1ee cdbc 550f 73bd e8d3 eb3c
000001e0: ad15 a33c 84ea 083b e987 8d3c 868e 44bd
000001f0: 0a2b 75bc 6a93 053d 3fd7 7cbd 232a d73c
00000200: a487 e73c ddda cd3c 4c81 b4bc 34c6 13bd
00000210: d317 d0bc 67e2 21bd 8eba 553b 8e8c 8dbc
00000220: 6edc 4a3d 9b3d 473d 4364 2a3d e1a3 dcbc
00000230: 3a17 1d3c 7da3 23bc 7592 b2bc 819d 083d
00000240: 0230 e0bc 5541 ae3c e9aa d8bc 530f e6bc
00000250: 3cef 2bbc b6b6 56bd f3e9 e4bb bb91 383d
00000260: 2e1a ab3c dd20 24bd 6ead c8bc ae85 163d
00000270: 2cd4 113d 3978 8fbc 16ed 39bc 57ef 15bd
00000280: 1768 433d f2ed 31bd ebd1 06bc 6a7c aa3c
00000290: 1417 9a3c 3378 7dbc aa4a c6bc ab35 dabc
000002a0: d2d9 213d 1e97 e2bc c998 77bd 9177 c73c
000002b0: f514 d2bc 8f66 35bd b635 cc39 c894 c63c
000002c0: 5d4e 69bc a266 05bd 8068 24bc aa5e 913c
000002d0: 5d95 e5bc b346 d9bb 836d 853b a634 8cbc
000002e0: 9254 58bd 1aa8 54bd d8b2 2dbd 559f f1bb
000002f0: ebcf f1bb d55c 48bd 7d95 b1bc d459 6fbd
00000300: 81a8 d63c 8ddb a4bc 1eb7 96bc 0fdf 14bc
00000310: 9617 1ebb ca3c 55bd 9176 f13c 453e e2b9
00000320: 7955 68bd 8873 23bd 4dad 1dbd 5578 b93c
00000330: 153d a4bc c143 34bd e9b6 9e3b 7e68 853c
00000340: 00cb b83c 3b6f 10bd 8843 e93c d153 01bc
00000350: dca9 5ebd b412 d4bb 4f83 a4bc bea4 5bbd
00000360: 417f e43c fd04 6dbd 6f46 133c 4105 26bd
00000370: baee 0bbd 9ea4 b13c e37d eabc 0f4f 70bd
00000380: 9ef9 f5bc e7f3 6abd 5396 f2bc 30bc 693b
00000390: 28c2 a53a ddcd 003d bf73 a7bc e69f 4abc
000003a0: 3780 e53c 4ea1 1b3d 70ce c1bc ab40 82bb
000003b0: b7a0 ae3c bafb 79bd e850 38bd 4016 37bd
000003c0: 3c0b 43bd a59d 303d ce62 e5bc 973f f73c
000003d0: 1d73 1c3d f89c 9ebc 3a24 bd3c 3fb7 0e3d
000003e0: 8624 643c 6a2d 283d 126e b63c 6879 513d
000003f0: 1c56 103d 0801 1b3d 5c83 383d ca28 1ebd

features_extractor.fc_merge.bias f4 [352]
0.0026538896 0.03619361 0.008094112 -0.029984118 -0.03403743 -0.03973865 -0.117167644 -0.03466387
0.031289767 0.08737717 -0.059156965 0.04022584 -0.09531392 -0.08662699 -0.107527286 0.061012045
-0.032250594 -0.025098236 -0.009906183 -0.06263955 -0.009323258 0.046979558 -0.0039869607 0.08541848
0.018750798 0.03393785 0.031279486 -0.06286741 -0.007857941 0.018920742 -0.007298174 -0.00092573074
-0.0011657631 -0.017812224 0.041456334 -0.07771737 0.022967506 0.010074415 0.017883457 -0.022043956
-0.07580574 -0.06408216 -0.060993712 0.112372816 0.0443984 0.012476031 0.051430274 0.019180339
0.028394334 0.0172727 -0.026278652 -0.033096287 -0.0028704086 0.08578032 0.00825252 -0.0475341
-0.025252884 -0.0030870226 0.05095613 0.073251404 0.02940049 0.033982426 0.033264674 0.004085461
-0.028796004 -0.07308535 0.033521533 0.026583945 -0.05896734 -0.05417261 0.010613236 0.014145374
0.029082926 -0.014400996 0.024912868 0.025498249 -0.051957585 0.041489914 -0.039788842 -0.014820395
-0.03399786 -0.00018456478 -0.08926768 0.009773228 -0.032851692 -0.06279082 0.06455011 0.06916277
-0.021656483 -0.020800361 0.055320323 0.05695559 -0.02131843 0.0145391645 -0.011199198 -0.022000514
-0.021676125 -0.00463394 0.010626994 -0.06124176 0.088131666 -0.053359002 -0.08972561 0.0018942521
-0.052782867 0.058296558 -0.0017267102 -0.019663563 -0.0072482866 -0.0473609 -0.06621709 0.0113399625
0.019120153 -0.020295518 0.005760848 0.039350476 -0.03898582 -0.028403707 0.0019169806 -0.051843747
-0.00030622885 0.12163043 -0.045711715 0.013714222 0.002503523 -0.0389408 0.06625398 0.037716314
-0.008451175 -0.0061745015 0.020536326 0.026135452 -0.005839893 0.035018604 -0.15179752 0.007829223
-0.06153221 0.004642302 -0.110295534 -0.023681916 -0.04766104 -0.0526192 -0.0888804 -0.01785994
0.0009281773 -0.052067347 -0.051640473 -0.001612425 -0.009763816 -0.04025785 -0.058235705 0.0019547143
-0.036488015 -0.011753494 0.01628522 7.360889e-05 -0.017538281 0.015563101 -0.064601615 -0.0038731843
0.031200128 -0.054196548 0.019403841 0.026640102 -0.08347454 0.0065662004 -0.055352364 0.018426225
-0.06763449 -0.022146754 -0.045365136 -0.0059853573 -0.05862574 -0.09977412 -0.024565678 0.028143462
-0.041946482 -0.03524389 -0.012458144 0.0040622004 -0.023009995 -0.032192484 -0.06134852 -0.0063275103
0.0036582567 0.022746392 -0.02783609 -0.04868776 0.012142096 -0.042250805 -0.0062756995 -0.033872705
-0.034508996 0.007408162 -0.03485011 -0.02262635 -0.009894437 -0.004743043 0.010388484 -0.0076886746
-0.012925084 0.0033825138 -0.0573451 0.04662645 0.09097559 -0.010639085 -0.049539883 -0.042743906
-0.011161189 0.019265046 -0.00693221 0.026954236 0.03872584 0.13345164 -0.038411498 -0.01985345
0.016872758 0.09505473 -0.07981645 0.017771972 0.089864306 -0.09993754 -0.04461927 0.09381059
0.009185907 0.18371294 0.026965605 -0.08928398 0.02311262 -0.011213157 0.0052263965 -0.008863886
-0.05838229 -0.063548714 -0.027509922 -0.050124586 0.076286145 0.00074096414 0.0132919215 -0.015047612
-0.054540552 -0.08841338 -0.047273304 0.12024255 -0.0643816 0.079029515 0.028554607 0.005726983
0.030430384 -0.031125998 -0.05312877 -0.038438972 0.014677352 -0.06246545 0.0038640846 0.018565984
00000000: e1ec 2d3b c03f 143d 2b9d 043c 41a1 f5bc
00000010: d56a 0bbd ffc4 22bd 97f5 efbd b4fb 0dbd
00000020: b329 003d cdf2 b23d 934e 72bd dac3 243d
00000030: f233 c3bd 7e69 b1bd 4437 dcbd c4e7 793d
00000040: 3319 04bd d19a cdbc 8b4d 22bc 2a49 80bd
00000050: 94c0 18bc a36d 403d 0da5 82bb e2ef ae3d
00000060: 469b 993c 6a02 0b3d eb1e 003d a1c0 80bd
00000070: 98be 00bc acff 9a3c 8525 efbb bdac 72ba
00000080: 85cc 98ba f1ea 91bc 1ece 293d 492a 9fbd
00000090: 5a26 bc3c 290f 253c 5480 923c 8795 b4bc
000000a0: 0a40 9bbd 823d 83bd 8bd4 79bd b823 e63d
000000b0: 19db 353d 4468 4c3c 8da8 523d 1620 9d3c
000000c0: 3c9b e83c 7a7f 8d3c 5446 d7bc f98f 07bd
000000d0: 771d 3cbb 98ad af3d 9435 073c 1eb3 42bd
000000e0: 23df cebc a54f 4abb 60b7 503d d504 963d
000000f0: 4cd9 f03c 2831 0b3d 8a40 083d 55df 853b
00000100: 99e5 ebbc c6ad 95bd e04d 093d 93c6 d93c
00000110: bd87 71bd 19e4 5dbd 23e3 2d3c 00c2 673c
00000120: 513f ee3c 28f2 6bbc 1216 cc3c b4e1 d03c
00000130: 7ad1 54bd 54f1 293d a0f9 22bd 3ed1 72bc
00000140: 5741 0bbd bb87 41b9 f9d1 b6bd e41f 203c
00000150: 7f8f 06bd 7998 80bd d932 843d 36a5 8d3d
00000160: f068 b1bc 8565 aabc 9097 623d 444a 693d
00000170: fda3 aebc ad35 6e3c d77c 37bc 6c3a b4bc
00000180: 2192 b1bc 4ed8 97bb d81c 2e3c a4d8 7abd
00000190: 607e b43d f88e 5abd 10c2 b7bd 8e48 f83a
000001a0: d932 58bd 5fc8 6e3d c852 e2ba 7b15 a1bc
000001b0: 0983 edbb 81fd 41bd d39c 87bd 40cb 393c
000001c0: dea1 9c3c c942 a6bc 7fc5 bc3b f72d 213d
000001d0: 98af 1fbd e4ae e8bc 3243 fb3a 1c5a 54bd
000001e0: 578d a0b9 6019 f93d 353c 3bbd 9eb1 603c
000001f0: 2512 243b 6380 1fbd 2bb0 873d 6c7c 1a3d
00000200: cc76 0abc 7953 cabb cc3b a83c 041a d63c
00000210: 935c bfbb ab6f 0f3d cf70 1bbe 2446 003c
00000220: 3309 7cbd 741e 983b a0e2 e1bd 9400 c2bc
00000230: 3938 43bd 3b87 57bd ed06 b6bd 024f 92bc
00000240: ed50 733a 9244 55bd f684 53bd 0158 d3ba
00000250: 6af8 1fbc 6ae5 24bd 9088 6ebd aa1a 003b
00000260: 7574 15bd ba91 40bc 9568 853c 795e 9a38
00000270: 71ac 8fbc 60fc 7e3c da4d 84bd 40d5 7dbb
00000280: 6997 ff3c 33fd 5dbd cef4 9e3c 583c da3c
00000290: b3f4 aabd 4829 d73b 29b9 62bd 98f2 963c
000002a0: f483 8abd 1c6d b5bc cbd0 39bd d120 c4bb
000002b0: 8b21 70bd 6056 ccbd f63d c9bc 1e8d e63c
000002c0: 13d0 2bbd e65b 10bd 3e1d 4cbc 351c 853b
000002d0: 757f bcbc 44dc 03bd 9648 7bbd 0157 cfbb
000002e0: 5dbf 6f3b a456 ba3c 8308 e4bc d16c 47bd
000002f0: a4ef 463c 2e0f 2dbd 62a4 cdbb 1bbe 0abd
00000300: 4e59 0dbd 2bc0 f23b fdbe 0ebd e55a b9bc
00000310: 471c 22bc 876b 9bbb 7634 2a3c 47f1 fbbb
00000320: bbc3 53bc 2aad 5d3b b2e2 6abd 60fb 3e3d
00000330: 6951 ba3d 8f4f 2ebc 55ea 4abd 3c14 2fbd
00000340: 6bdd 36bc bbd1 9d3c 9827 e3bb 21cf dc3c
00000350: fd9e 1e3d 8ca7 083e 6055 1dbd b4a3 a2bc
00000360: bd38 8a3c 0eac c23d cf76 a3bd 8796 913c
00000370: c70a b83d 0eac ccbd b2c2 36bd c41f c03d
00000380: 7d80 163c 3f1f 3c3e f9e6 dc3c 85da b6bd
00000390: ad56 bd3c 64b7 37bc 3142 ab3b d539 11bc
000003a0: 4522 6fbd d425 82bd 7d5c e1bc 704f 4dbd
000003b0: e93b 9c3d 433d 423a 5cc6 593c 428a 76bc
000003c0: ea65 5fbd 1312 b5bd a7a1 41bd ba41 f63d
000003d0: 80da 83bd 3ada a13d 5aeb e93c 6aa9 bb3b
000003e0: 2449 f93c f3fb febc 8e9d 59bd 2f72 1dbd
000003f0: 4779 703c c6db 7fbd 953c 7d3b b117 983c

actor.weight f4 [4, 352]
-0.038372207 -0.014346958 -0.04310411 -0.040183097 -0.015747275 0.008156881 0.022350509 0.044006564
-0.03486868 0.0381201 0.043634154 0.015306064 -0.002722306 0.074156076 0.07901134 -0.008612036
-0.05618804 -0.00073794054 -0.037933704 -0.008239785 0.012168921 0.039494716 0.041085377 -0.010018016
-0.00913843 -0.04055308 0.006895796 0.02394416 -0.02270496 0.043848265 -0.008623808 0.042775325
-0.022990922 0.0146797085 0.013076087 0.004147438 -0.011465523 -0.055724192 -0.062315054 -0.04836837
-0.060423758 0.02638378 0.027246239 0.05533853 -0.0056080837 -0.0011415521 0.028416393 0.007824648
-0.05111194 -0.00671025 -0.015345075 -0.031953543 -0.04953191 0.01926932 -0.031791363 -0.01623471
0.03797493 -0.022242546 0.01976284 0.015636789 -0.05867502 0.03636041 -0.048556898 0.04054481
-0.0561135 0.07378403 0.010046781 -0.021301595 -0.0039923326 -0.034496732 -0.02733139 0.02597463
-0.023030637 -0.06041451 0.029753465 -0.011549552 0.00019671602 0.027092129 -0.0069402717 -0.0010667467
0.0023743433 -0.054063182 0.042965792 0.024725527 -0.041024152 -0.012110688 -0.020652652 0.019294443
0.0037157238 0.003330123 -0.020306535 -0.0039824443 0.07172185 -0.004606135 -0.035712603 0.0305156
-0.014386936 -0.026241455 0.02722471 -0.06648306 -0.025728596 -0.047562387 0.038690705 -0.046882454
0.019009374 0.0020152144 0.030790458 -0.030776547 -0.013292785 0.03305105 0.026803663 -0.048570078
-0.019715834 -0.038919777 0.029200576 -0.027790908 0.01063899 0.034517787 -0.0050211023 -0.04823789
-0.0638182 -0.003408675 0.044805102 0.06241748 0.013259491 -0.014854982 -0.022531038 -0.01976551
0.022746695 0.002114884 0.11771372 0.012147444 -0.02099519 0.024981158 0.08233237 -0.028705038
-0.01904575 -0.056633927 0.057931356 -0.045472603 -0.019831982 -0.039686866 -0.026988154 -0.004805879
0.00081602996 -0.050535824 0.045705494 -0.02654959 -0.05369986 0.052455056 -0.011256656 -0.017522812
0.053910885 -0.017154686 0.03308246 0.041736033 0.015073158 -0.026034333 0.010511696 0.05077285
-0.012589299 0.0019545539 0.010447578 -0.04856882 0.04477877 0.008069621 -0.052458707 -0.022590412
0.025768425 0.054558795 0.019535013 -0.05159617 -0.020244531 -0.008693695 -0.024254808 0.02925491
0.057885513 -0.036926147 0.011293061 -0.047752462 -0.05114669 -0.019329293 0.057160236 0.027657308
-0.06264127 -0.037532166 0.058997292 0.05081136 -0.003412451 -0.012837446 -0.0061828326 0.10676049
0.03072536 0.02842353 0.048928794 0.02952185 0.040697087 0.016738497 -0.028771654 -0.0073840357
-0.021217288 0.03239883 -0.029788245 0.032943413 0.0076287454 -0.026129363 -0.048107725 0.081093036
-0.03167752 -0.016776329 0.012783951 -0.052450106 0.023301346 0.038171083 -0.055623427 0.004544587
-0.0028147094 0.05473866 -0.054271318 -0.047502957 -0.05577579 0.021602085 0.044005554 -0.020731436
-0.030333268 -0.04935434 -0.07435028 0.004148694 -0.02381 0.038627125 -0.038048107 -0.023047995
-0.03360542 0.053893145 0.04074389 -0.068388194 0.017418595 0.030578174 -0.031579766 -0.026300816
0.010717835 0.042798568 0.06946762 -0.043582484 0.06082968 0.020569213 0.0031631582 -0.01079164
-0.027129354 -0.0022690038 0.03206852 0.004643849 -0.029368998 -0.03988287 -0.000699754 -0.012630546
00000000: 2d2c 1dbd 810f 6bbc ef8d 30bd 0897 24bd
00000010: 6e00 81bc 70a4 053c 6a18 b73c 3a40 343d
00000020: 76d2 0ebd d223 1c3d bab9 323d 49c6 7a3c
00000030: b768 32bb 24df 973d b3d0 a13d 7f19 0dbc
00000040: 6e25 66bd 5a72 41ba 5f60 1bbd 2a00 07bc
00000050: 2760 473c 36c5 213d 2449 283d 9b22 24bc
00000060: 5ab9 15bc fd1a 26bd 21f6 e13b 8b26 c43c
00000070: c1ff b9bc 3d9a 333d df4a 0dbc 2e35 2f3d
00000080: 7557 bcbc 2983 703c 163d 563c 3be7 873b
00000090: e4d9 3bbc 0d3f 64bd 123e 7fbd e91d 46bd
000000a0: e77e 77bd cc22 d83c 8133 df3c a8aa 623d
000000b0: 04c4 b7bb 22a0 95ba 7fc9 e83c f432 003c
000000c0: c15a 51bd a8e1 dbbb e969 7bbc b8e1 02bd
000000d0: f9e1 4abd b1da 9d3c a937 02bd a8fe 84bc
000000e0: 9a8b 1b3d 0036 b6bc aee5 a13c b918 803c
000000f0: 3855 70bd a7ee 143d 99e3 46bd 5112 263d
00000100: 45d7 65bd 151c 973d 419b 243c af80 aebc
00000110: 1dd2 82bb 724c 0dbd 14e6 dfbc bfc8 d43c
00000120: bfaa bcbc 3575 77bd 8abd f33c 553a 3dbc
00000130: 8e45 4e39 50f0 dd3c 386b e3bb 14d2 8bba
00000140: df9a 1b3b 5b71 5dbd e6fc 2f3d 308d ca3c
00000150: f108 28bd e86b 46bc c02f a9bc 610f 9e3c
00000160: 8083 733b 313e 5a3b e459 a6bc 2a7f 82bb
00000170: e8e2 923d 10ef 96bb 6147 12bd dafb f93c
00000180: 2fb7 6bbc 52f8 d6bc 5b06 df3c 4528 88bd
00000190: c7c4 d2bc c7d0 42bd 257a 1e3d d107 40bd
000001a0: 8cb9 9b3c b011 043b 453c fc3c 191f fcbc
000001b0: fbc9 59bc 8a60 073d 5b93 db3c 6bf1 46bd
000001c0: 1a83 a1bc 586a 1fbd 0c36 ef3c c2a9 e3bc
000001d0: 294f 2e3c 8662 0d3d 0f88 a4bb 1895 45bd
000001e0: 1eb3 82bd 1464 5fbb 8e85 373d 79a9 7f3d
000001f0: 563e 593c 4f62 73bc 0393 b8bc 47eb a1bc
00000200: 4757 ba3c de99 0a3b e413 f13d 1306 473c
00000210: 1bfe abbc 49a5 cc3c e09d a83d d426 ebbc
00000220: d505 9cbc faf8 67bd 6e49 6d3d 7b41 3abd
00000230: ae76 a2bc b28e 22bd 4316 ddbc a37a 9dbb
00000240: d8ea 553a a7fe 4ebd af35 3b3d 877e d9bc
00000250: 62f4 5bbd 1ddb 563d d66d 38bc 008c 8fbc
00000260: a9d1 5c3d fc87 8cbc 7981 073d 67f3 2a3d
00000270: 68f5 763c f445 d5bc 4039 2c3c 31f7 4f3d
00000280: 5943 4ebc f917 003b 512c 2b3c 19f0 46bd
00000290: f269 373d 7236 043c f1de 56bd 870f b9bc
000002a0: 4e18 d33c 0b79 5f3d e407 a03c 8156 53bd
000002b0: dcd7 a5bc 0070 0ebc 05b2 c6bc fea7 ef3c
000002c0: 5c19 6d3d df3f 17bd 8806 393c 1698 43bd
000002d0: 317f 51bd 7758 9ebc da20 6a3d 9491 e23c
000002e0: 114a 80bd 54bb 19bd 25a7 713d 931f 503d
000002f0: 6da3 5fbb 2754 52bc 5c99 cabb 3ea5 da3d
00000300: c0b3 fb3c 76d8 e83c 8f69 483d cfd7 f13c
00000310: fdb1 263d 2c1f 893c 88b2 ebbc c8f5 f1bb
00000320: e1cf adbc a3b4 043d 7a06 f4bc acef 063d
00000330: 8efa f93b 3f0d d6bc 9b0c 45bd 1b14 a63d
00000340: 4ac0 01bd 836e 89bc c773 513c ecd5 56bd
00000350: 77e2 be3c 4859 1c3d 64d5 63bd c2ea 943b
00000360: fd76 38bb a535 603d 9a4b 5ebd 7692 42bd
00000370: 2875 64bd dbf6 b03c 2b3f 343d f9d4 a9bc
00000380: 797d f8bc c727 4abd f644 98bd c5f1 873b
00000390: 300d c3bc 7a37 1e3d 55d8 1bbd 26cf bcbc
000003a0: d6a5 09bd 0fbf 5c3d 11e3 263d 1c0f 8cbd
000003b0: 71b1 8e3c 147f fa3c c959 01bd cf74 d7bc
000003c0: dc99 2f3c 8d4d 2f3d 0a45 8e3d 8c83 32bd
000003d0: 8b28 793d c480 a83c fd4c 4f3b 6bcf 30bc
000003e0: 613e debc 91b3 14bb 485a 033d 6e2b 983b
000003f0: 4197 f0bc 385c 23bd b26f 37ba 5af0 4ebc

actor.bias f4 [4]
-0.0116733005 -0.024809323 0.03194985 -0.079362206
00000000: 5f41 3fbc ec3c cbbc d9dd 023d a788 a2bd

critic.weight f4 [1, 352]
-0.008764638 -0.04069203 0.35888278 0.005524935 0.062096592 -0.0028862676 -0.0070275376 0.12355365
0.06569729 -0.07455914 0.21987766 0.0759863 -0.0628429 -0.024629116 -0.027472172 -0.107042275
0.10537654 4.4359884e-05 -0.015767233 0.35708344 0.05448658 -0.011975257 0.046703327 -0.091694236
0.027018044 0.0013757973 0.05326166 0.059168063 -0.0053443564 -0.034202628 0.045848556 -0.03489587
0.0032824776 -0.049114447 -0.113821425 -0.01294182 -0.014615214 -0.005357978 0.1265179 0.33171555
0.17867313 0.06650743 0.027890924 -0.09416965 0.09809793 0.039379984 -0.08657243 0.34937283
-0.007768717 0.10084895 0.09306767 0.09642349 0.14373201 -0.05484398 -0.14462201 0.016518181
0.14037402 -0.032707863 -0.079875104 -0.18547516 0.095167585 -0.07488173 -0.02921921 0.036683217
0.35862306 -0.024545278 -0.0063933018 0.097633556 -0.004704157 0.27693313 -0.049533665 0.058298185
0.057301227 -0.017114345 -0.07606981 -0.16503048 0.006595203 -0.014825515 0.0019720807 0.055444125
0.05360568 0.08585543 -0.02130113 0.03278972 0.052595537 0.06072393 -0.08502552 -0.078540854
-0.0008505397 0.050586183 -0.032304633 -0.058319833 -0.059173662 0.048897166 -0.032217696 -0.0028718433
0.081313156 -0.014890774 0.023592267 0.04017018 -0.119920544 0.07825706 -0.06390786 0.04624088
0.3027999 -0.10336299 0.059392132 0.04815688 0.10655091 0.10622362 -0.015793689 -0.011581598
0.07694698 0.099931 0.043480333 -0.05470165 0.00039535377 0.10429714 0.02464925 0.11351477
0.103073455 -0.117653415 -0.012014678 -0.03562423 -0.0112114 0.3307588 -0.083768375 0.09632746
0.03921423 -0.023385948 -0.101613864 0.08489312 0.09307433 0.113981076 0.011747549 0.07107422
0.004251968 0.07970052 0.010147898 0.07876504 0.022994172 0.0009300983 -0.019197369 0.027715722
0.0018249723 0.071782716 0.00081897626 0.07353538 0.057260543 0.021522794 0.10521675 0.2515171
-0.021783674 0.0028115024 0.09496184 0.054556172 0.28762624 0.062264167 0.0473798 0.0444389
0.10485482 -0.040634695 0.079994515 -0.06517599 -0.029788602 0.04254819 0.057163678 -0.002948174
0.26469406 -0.027786378 -0.013644471 0.015681721 0.06484502 0.0012973488 -0.03475791 -0.035732992
-0.006289716 -0.005757751 -0.0015669854 -0.0058003427 0.0016399224 0.043024592 -0.007829982 0.023347614
-0.0031536596 0.10148887 -0.03161232 -0.006324437 0.023918143 0.063389264 0.06734895 -0.018924134
0.2176939 0.30851632 -0.026747094 0.052693266 -0.016647149 0.01890102 -0.03624819 -0.017229352
0.25396967 -0.07028793 0.07965145 -0.12597601 -0.023114324 0.0032431101 0.11600126 -8.264832e-05
-0.004551506 0.033138424 0.3474239 0.31627196 -0.006323588 -0.026840324 0.07336922 0.3595396
-0.047367174 -0.10210511 0.001911685 0.027602784 -0.07887737 -0.032152046 0.052510735 -0.053817313
0.020551588 -0.15498531 0.31152427 -0.015408317 -0.07534309 0.11611956 0.041895706 0.32702032
0.32768494 -0.019650232 -0.0009184176 0.26250786 -0.118681654 0.0216276 0.046378434 0.0018606858
0.3523781 0.0018495332 -0.027465422 -0.18890338 -0.011875402 -0.08928467 0.072379924 0.3099295
-0.07036531 0.19336635 -0.028243016 0.044855077 0.043027997 0.10039032 0.2544946 0.057495426
00000000: 8e99 0fbc b0ac 26bd 7cbf b73e 840a b53b
00000010: ff58 7e3d 8927 3dbb 4247 e6bb b209 fd3d
00000020: 4d8c 863d 76b2 98bd 9c27 613e b59e 9b3d
00000030: c7b3 80bd 00c3 c9bc 520d e1bc fb38 dbbd
00000040: a8cf d73d 100f 3a38 492a 81bc a4d3 b63e
00000050: 522d 5f3d de33 44bc fd4b 3f3d 30ca bbbd
00000060: f254 dd3c 1954 b43a e628 5a3d 365a 723d
00000070: b61f afbb 0e18 0cbd b2cb 3b3d f9ee 0ebd
00000080: d61e 573b 3b2c 49bd 351b e9bd ed09 54bc
00000090: a774 6fbc fa91 afbb e98d 013e 9fd6 a93e
000000a0: 17f6 363e 0c35 883d 827b e43c 04dc c0bd
000000b0: 91e7 c83d e84c 213d e34c b1bd ffe0 b23e
000000c0: b990 febb e589 ce3d 439a be3d ae79 c53d
000000d0: 7c2e 133e 15a4 60bd cb17 14be 2351 873c
000000e0: 35be 0f3e aef8 05bd 8f95 a3bd 33ed 3dbe
000000f0: 39e7 c23d 985b 99bd 205d efbc 2441 163d
00000100: 719d b73e 2e13 c9bc e77e d1bb 1af4 c73d
00000110: 5425 9abb 2eca 8d3e d0e3 4abd 14ca 6e3d
00000120: b1b4 6a3d 6233 8cbc 7dca 9bbd c0fd 28be
00000130: 931c d83b b8e6 72bc 063e 013b 6119 633d
00000140: a191 5b3d f9d4 af3d b57f aebc 834e 063d
00000150: 6b6e 573d a8b9 783d dc21 aebd 07da a0bd
00000160: c1f6 5eba 7533 4f3d dd51 04bd c7e0 6ebd
00000170: 1560 72bd 6548 483d b4f6 03bd 8935 3cbb
00000180: 8387 a63d 6ff8 73bc 9244 c13c 7d89 243d
00000190: e798 f5bd 3d45 a03d 20e2 82bd 1467 3d3d
000001a0: 9708 9b3e faaf d3bd 2a45 733d 2640 453d
000001b0: 5d37 da3d c58b d93d c461 81bc bec0 3dbc
000001c0: 6196 9d3d a0a8 cc3d 6f18 323d d60e 60bd
000001d0: 7c47 cf39 bd99 d53d 39ed c93c 6f7a e83d
000001e0: 2d18 d33d 46f4 f0bd 36d9 44bc b6ea 11bd
000001f0: 05b0 37bc 3859 a93e c18e abbd 5547 c53d
00000200: 1a9f 203d e393 bfbc ee1a d0bd 72dc ad3d
00000210: c19d be3d e96e e93d cb78 403c 5c8f 913d
00000220: 1854 8b3b 073a a33d 5f43 263c 914f a13d
00000230: 465e bc3c d7d1 733a cd43 9dbc 150c e33c
00000240: e933 ef3a d102 933d 91b0 563a b899 963d
00000250: 088a 6a3d 9250 b03c e17b d73d d9c6 803e
00000260: ad73 b2bc 2f41 383b 5a7b c23d 4b76 5f3d
00000270: bf43 933e b608 7f3d 5211 423d 9005 363d
00000280: 20be d63d 9170 26bd 2ad4 a33d fd7a 85bd
00000290: 3a07 f4bc 0347 2e3d 7624 6a3d 2736 41bb
000002a0: fb85 873e 42a0 e3bc 0f8d 5fbc f476 803c
000002b0: 77cd 843d cd0b aa3a 4f5e 0ebd c25c 12bd
000002c0: f619 cebb 84ab bcbb 4e63 cdba cd10 bebb
000002d0: aaf2 d63a 8e3a 303d 5349 00bc 7f43 bf3c
000002e0: a1ad 4ebb 66d9 cf3d ec7b 01bd 393d cfbb
000002f0: fbef c33c 3bd2 813d 3fee 893d c906 9bbc
00000300: 26eb 5e3e daf5 9d3e b91c dbbc e5d4 573d
00000310: 9a5f 88bc 50d6 9a3c fb78 14bd 9224 8dbc
00000320: 5008 823e 1ef3 8fbd 4d20 a33d dbff 00be
00000330: 405a bdbc 5c8a 543b 1292 ed3d 7b53 adb8
00000340: cd24 95bb 28bc 073d 8ce1 b13e 66ee a13e
00000350: 1a36 cfbb 3de0 dbbc 9a42 963d 9315 b83e
00000360: 1504 42bd 7c1c d1bd 8191 fa3a 3c1f e23c
00000370: 758a a1bd ddb1 03bd 7f15 573d 8b6f 5cbd
00000380: ce5b a83c 78b4 1ebe 1c80 9f3e 2a73 7cbc
00000390: 7a4d 9abd 18d0 ed3d d59a 2b3d 356f a73e
000003a0: 52c6 a73e 86f9 a0bc f6c1 70ba 6e67 863e
000003b0: 5e0f f3bd 5d2c b13c 50f7 3d3d 41e2 f33a
000003c0: e76a b43e 096c f23a 2aff e0bc e36f 41be
000003d0: 0c91 42bc e2da b6bd ed3b 943d 14af 9e3e
000003e0: b01b 90bd d401 463e e65d e7bc f5b9 373d
000003f0: 203e 303d 7199 cd3d 1e4d 823e 5380 6b3d
