gym_models_4/model_650.pth (torch, 518546 bytes, 11 tensors)

features_extractor.conv1.weight f4 [16, 4, 4]
00000000: 13ff 1ebe 60af acbe 8e95 9cbe fcec b3bd
00000010: 0fd2 2e3e f718 aa3c 046b 2cbd 4b53 3ebe
00000020: dc55 9d3e ea49 b0bd c45b 1dbe 41ae 093e
00000030: a5cd 0c3e 6df7 9b3e c8fb 68bc ab08 153e
00000040: 5669 113e c44c 8e3e 112d 6bbd cd82 9c3e
00000050: 5008 6b3e 3e6b 583d b733 b2bd 802e 7abd
00000060: 9645 4dbe 003b 92bd dbbb f6bd 300c 7ebd
00000070: 07ab 5a3d 40eb 093e f525 a63d bee9 4b3e
00000080: 702a 443d d48f f1bd 509a b93d 00d7 97bc
00000090: a000 56be 6011 b2bd f0c8 793d 54d2 fcbd
000000a0: 005f b73b a46c 8e3d b046 b13d a416 1dbe
000000b0: 3297 123e 6021 e23c feae 5dbe d8ee be3d
000000c0: f39e 0f3e 12e1 75bd 8416 e93d f811 083e
000000d0: aa1a 85be bcc9 db3d ce57 1b3e 01cc 1ebc
000000e0: 1688 c03d e209 cd3c 318b 913d c880 3fbe
000000f0: decc 233d 27e0 39be 547a 6d3e 54c6 7bbe
00000100: f4f8 d7bd 9e19 0b3e aa82 5cbe d0c8 3ebd
00000110: 76fe 613e 3aaa 7d3e 12ca 76be 7a5a 293e
00000120: 424c 2bbe e071 58bd 8855 fc3d 0632 4fbe
00000130: 6ee9 0bbe ac1c a03d e24e 15be 80cb 4b3b
00000140: d4ba 4bbe 7b16 91bd b233 2dbe 39da b5bd
00000150: 9453 08be 3183 6fba 4d9c 163e 7dbf 873e
00000160: 59c4 013d ddda 4d3e 950b afbd 5a18 953d
00000170: 3b05 68bd aaef 5dbb 57d1 4f3e 8a85 fa3c
00000180: 9980 853d ecd8 153d f1d7 893e 68f5 3c3e
00000190: d2f6 963c dfb5 4c3e c1da 543e bb1d 143d
000001a0: 2624 213e f3c2 0d3d bc17 6abc c894 0fbe
000001b0: fc2d 0c3e cf5e 163e b302 5a3e f350 60bd
000001c0: bc53 8ebd 8827 243d 040c ce3d d235 7bbe
000001d0: 0e5f 7ebe 00a0 663a 9823 54be f832 2d3e
000001e0: cc5e 0bbe 4c3d b2bd 3add 4c3e 40cc 0cbd
000001f0: 5296 583e 3c5a 73be c031 16bc 0863 cdbd
00000200: dc12 233d 5a14 a8bc 58a1 8c3e 57ef 1ebe
00000210: c409 113e 8a0e a9bd b25c 173e 196b 103e
00000220: d6dc e33d c42a 13be bfa3 05be 38d2 47bc
00000230: 129f 8c3d c796 4ebe b2a8 033e 0476 0a3e
00000240: 26fc 52bd 2d2a d4bd ee10 ad3c 4856 96be
00000250: 47b7 0c3d 7aa8 883e 0156 8ebd 0b63 683e
00000260: 63eb eabc d72c 563e 31f1 68bd 1db6 c8bd
00000270: d706 a13c d38d 34bd 3931 d9bd fb75 0d3e
00000280: 318c a3bc 75a1 11bd 35fc 86be 8192 79bd
00000290: dfda 0d3e f594 7b3e 97d8 6c3c 61c8 f7bd
000002a0: e3d5 1e3e 0f9d 89bd 3e49 403e ed1d a23d
000002b0: feaa 7e3e 5eb3 723d 5616 69bc f46b 82bd
000002c0: 184a 29be ae2d 17be 1252 6cbe b067 c73c
000002d0: a8d1 343e 081c 0ebe f27a 233e 32e1 7b3e
000002e0: e0f7 f2bd 0814 22be 0094 7dbc 8449 a3bd
000002f0: bc7c f4bd 9eb8 6a3e 405d 73be b489 873d
00000300: d78e 593e 0696 8e3e 8fb3 60bd 58f9 a23e
00000310: cf9c fdbd d6f7 f53d bee2 d63d 87e0 09be
00000320: ea4f 01be 046f 8d3d e405 2a3e a5e7 153e
00000330: 0756 60be 7544 683e c1e0 13bd e8e8 1ebd
00000340: 276d 033e b08f da3c 34fb 183e f1a3 6abe
00000350: d865 05be 6f2a 463e 1501 3a3e 756d 803e
00000360: 0d9b 92bd 652f 6bbe bcfe cdbd fbf0 99bd
00000370: 866b 213e ef99 933d f71d 1ebe eb47 8fbd
00000380: 2bde 7bbd 6d23 a3be 9439 543c 3d28 98be
00000390: b12b a3bd 7912 d73d 5e4e 7d3e 7ddc 533e
000003a0: e10d 2e3e 95a9 30be 3931 0f3d 0c59 febc
000003b0: bdd1 3d3e 4984 5b3e fc6c 8abd cc89 31bd
000003c0: 7ee4 c6be 8a67 833d cbb6 8dbe 7eec 43be
000003d0: 8668 bc3c 3041 653e 10fa 6a3e 7c65 89bb
000003e0: d93c 713c f108 833d f1af 61bd a90a 9f3d
000003f0: 6afc 6a3e 99fa 34bd 9ca3 33be c864 2a3e
-0.1552699 -0.3372755 -0.3058285 -0.087854356 0.17072318 0.020763857 -0.042094246 -0.18586461
0.30729568 -0.08607848 -0.15367037 0.13445379 0.13750322 0.30462208 -0.014220186 0.14554088
0.14200339 0.27792943 -0.057416026 0.30568543 0.2295239 0.05283665 -0.0870127 -0.061079502
-0.20046076 -0.071401596 -0.12047549 -0.06202334 0.05338576 0.13468647 0.081127085 0.19913384
0.047892034 -0.11795011 0.09062636 -0.018535137 -0.20898676 -0.0869472 0.060982645 -0.123448044
0.0055960417 0.06954315 0.08656061 -0.15340668 0.14315489 0.027603805 -0.21648785 0.093228996
0.14025478 -0.060029097 0.11381248 0.13288105 -0.25996906 0.10731837 0.15170214 -0.009692193
0.09400956 0.025029127 0.07106627 -0.1870147 0.0399903 -0.18151914 0.23191196 -0.24587375
-0.10545531 0.13583991 -0.2153422 -0.04657823 0.22069725 0.24771968 -0.24100521 0.1653842
-0.16728309 -0.052842975 0.12321001 -0.20233926 -0.13663265 0.07817969 -0.14580873 0.0031096637
-0.19895488 -0.07084366 -0.16914251 -0.08879513 -0.13313133 -0.00091366755 0.14708062 0.2651328
0.031681392 0.20103021 -0.08547131 0.07280035 -0.056645613 -0.0033864775 0.202947 0.030581255
0.06518669 0.036583826 0.26922563 0.1845299 0.01842824 0.19991253 0.20786573 0.036161166
0.15736446 0.034609746 -0.014287885 -0.140216 0.13689417 0.14684604 0.21290092 -0.0547647
-0.06949565 0.040076762 0.100608855 -0.2453225 -0.24840948 0.00087976456 -0.20716703 0.16913974
-0.13610381 -0.08703098 0.20006266 -0.034374475 0.21151093 -0.2376489 -0.009167135 -0.10028654
0.039812908 -0.020517517 0.27466846 -0.15520988 0.14163882 -0.08254726 0.14781454 0.14103355
0.111261055 -0.14371783 -0.13050745 -0.012196116 0.06866278 -0.20174704 0.12857321 0.13521582
-0.05151 -0.10359607 0.021126237 -0.29362702 0.034354474 0.26691037 -0.06949998 0.22694032
-0.028676694 0.20915543 -0.056870643 -0.0980036 0.019656582 -0.044080567 -0.106050916 0.13814537
-0.01996431 -0.035554368 -0.26364294 -0.060930733 0.13853024 0.24568541 0.014455936 -0.12098766
0.15511279 -0.0671941 0.1877794 0.07915864 0.24869916 0.05925309 -0.014226517 -0.06368247
-0.16532171 -0.14763519 -0.23078182 0.024341434 0.17658103 -0.1387788 0.15964869 0.24597624
-0.11863685 -0.15827954 -0.0154771805 -0.07973006 -0.11937854 0.22921988 -0.23766041 0.06618062
0.21245895 0.27848834 -0.05485874 0.3183086 -0.123834245 0.120101616 0.104924664 -0.13464557
-0.12628141 0.0690594 0.1660381 0.14639147 -0.21907817 0.22682364 -0.036103014 -0.038796335
0.12834607 0.026679844 0.14939576 -0.22914101 -0.13027132 0.19352125 0.18164475 0.2508351
-0.0715848 -0.22967298 -0.10058352 -0.075166665 0.15763673 0.07207095 -0.15441118 -0.06996139
-0.061491173 -0.31862965 0.012953181 -0.297182 -0.07967318 0.1050157 0.24736926 0.20689578
0.16997482 -0.1725219 0.03495905 -0.03104832 0.1853704 0.21437182 -0.06759068 -0.043344304
-0.388462 0.06416233 -0.27678522 -0.19133183 0.02299906 0.22388148 0.22946954 -0.004193006
0.01472398 0.0639819 -0.05509943 0.07765705 0.22947851 -0.0441843 -0.17542881 0.16640007

features_extractor.conv1.bias f4 [16]
00000000: fdf6 283e 2aa5 343e 2043 77be 1492 9b3d
00000010: 5a18 57be f27a 10be 392b 633d b836 59bd
00000020: b8c2 3dbe 1b0c 883e 3f20 43be 8cb2 75be
00000030: 34ab 3d3e a67d cebd f599 4b3e a645 253d
0.16500469 0.1764113 -0.241467 0.075962216 -0.21005383 -0.141094 0.055461142 -0.0530307
-0.1853131 0.26571736 -0.1905527 -0.23993891 0.1852234 -0.10082559 0.19882949 0.040349625

features_extractor.conv2.weight f4 [32, 16, 4]
00000000: c664 52bb 7392 043d ce9c 753c addf 52bd
00000010: 01fe d5bd 7a07 6b3d bef2 edbd 9168 92bd
00000020: f2ec 9b3d 5889 a63d 1cbc 33bd 20d7 8b3d
00000030: 5b93 85bd 3cf6 c2bc a658 e3bd aca5 803d
00000040: 2ca3 d1bd c887 e1bc 84fb 81bd 90d1 e83d
00000050: 2c5c ecbd 99b3 30bd 15fe 1cbb 2ec9 febc
00000060: 8ecb 443b ce2d b53d 5a34 08be fc2f d9bd
00000070: bc91 b0bd be56 bfbd bc65 f5bd a89b d93c
00000080: aa23 debb 5dc2 123d ee61 bb3c f53f 4d3c
00000090: 68f6 883c 4964 b83d 4ee3 763c 46b7 d73d
000000a0: 52af c7bb 266f 5d3d a8a8 e2bd c9c3 9ebd
000000b0: 280e c63c 7cc6 ba3d bcf1 003d 0457 aebd
000000c0: 2f4a ea3d 42e6 b4bd 5a7d 5ebd f8a8 03be
000000d0: 5ea6 e6bd 02d4 e23d 0074 2bbb 7684 843d
000000e0: 5e87 cf3d 50a8 66bd 96ef 57bd beaf ab3c
000000f0: 8ff6 6cbd 0531 833d 5a4c bebc 8648 ecbd
00000100: 491d bcbe 60b1 89be 2963 90be 6760 a5be
00000110: 9526 af3d a68e 123e 1ce5 493c 0231 943d
00000120: 22e1 f03d c0bc 7dbb b06c 27bc 6061 aabd
00000130: 456c 933d 1509 81bd d012 fd3d 06e8 6c3d
00000140: 90d5 ec3d 3852 aa3c 76cd bbbd a874 273d
00000150: 73ee 6ebe 06df 4bbd 59ab 9cbe 6d0b a9be
00000160: 4013 913d 01e0 a13d 117e 66bd 6811 da3d
00000170: 307e 24bc 88a1 cebc 62ea afbd 1e99 c0bd
00000180: cfab 543d c5d2 5e3d b1ea d93d 258b 933d
00000190: 1ea1 a3be 64b2 42be 1f57 9bbe 5092 60be
000001a0: 437a fcbd 97c7 edbb 6894 2bbe 6292 3bbe
000001b0: 28d7 3cbd 2855 a23d b465 3dbd b8bd e8bd
000001c0: a584 64bc f65f ff3d 9cd4 bf3d cb5d cf3c
000001d0: 9216 07bf f3a3 eabe 5a92 0abf e3a6 03bf
000001e0: e28e f8bd cad8 27be af40 57be 8262 8cbe
000001f0: 1aba a6be e973 0bbf 07ad 00bf 7c94 f6be
00000200: 60ce 38be bbc7 88be 232f 77be 4be4 8bbe
00000210: f252 9e3b 13f3 c83c 81e6 a8bb 5d1d cc3d
00000220: 802c a23c ac96 b83d ec62 833d 68a5 f9bd
00000230: 764b 47bd ac0a e5bc bacb 0a3d 385e 843d
00000240: 30e9 4cbd c054 8a3b 982d fb3d be92 be3d
00000250: 3a14 30be 3ef7 32be e8d5 5cbe 8944 3cbe
00000260: 9690 623d e3f9 d33c c6bc c63d f484 2e3c
00000270: 40e6 d9bd 888e ecbc 3492 6e3d e0ce ee3c
00000280: 8950 863c 97ad d9bd bdcb b43d d2fd 9c3d
00000290: cb7b efbd 5e91 26be c13c 95be 6e99 7abe
000002a0: 4c0e 4f3a cd40 33bd c89a a3bc 00a2 1cbd
000002b0: 104f c63c 10b1 a43d b0da 29bc 7a16 9f3d
000002c0: 6baa 903d b88d e5bc 7ee4 1b3e 52e6 6fbc
000002d0: 39a6 19bf d2f9 21bf 76d5 08bf c1da e8be
000002e0: e239 17bd 80df 87bd 0e3f 14be 3a1a 43be
000002f0: 4da8 0fbf 330e 11bf ab9f 24bf 2a03 0bbf
00000300: b2cb 633e 2d59 4f3e d2b8 833e 8aa4 213e
00000310: f6dc d53d 26b3 9b3c 7672 063d 8040 96bd
00000320: 0e86 d6bd 5c7d d7bd 9eda ca3d f6a8 d8bd
00000330: f30c d4bd 9780 d5bd 2cc0 82bd 51a6 64bd
00000340: 241c eabd 500a 41bc a2fb 9b3d 88f1 f33d
00000350: 6799 153e 205f 533d 6493 a83d e67f eb3d
00000360: d222 123e 4637 9dbd 5c23 4a39 b119 fb3d
00000370: b427 2bbd 9024 81bc 92bf 95bd 6a9d d83d
00000380: 4645 263d 9746 0d3e 1d71 093e c519 983d
00000390: 5e94 6d3e 394b 963d 267a 793e 24cc 593e
000003a0: fdba 233d 548c 453e e938 003e e38b 9f3d
000003b0: b837 853c 18da 8bbc 1ec1 fb3d 4448 e0bd
000003c0: 4b00 15bd 4912 dcbd f53d 853d e02a 81bd
000003d0: e632 0f3f 1e1e e13e 9ea4 883e 9054 7a3e
000003e0: b4c0 053d f92d 5b3e d4e5 6e3e b422 6f3e
000003f0: db29 c53d 2b0a a73e c9ef 883e 47fc 743e
-0.0032103523 0.032366227 0.014990998 -0.051482845 -0.10448838 0.057380177 -0.11618565 -0.07148851
0.07613553 0.08131665 -0.043880567 0.06828141 -0.065222465 -0.023799054 -0.11100893 0.062815994
-0.10236201 -0.027530566 -0.06346801 0.11368096 -0.11541018 -0.043140028 -0.0023955156 -0.03110179
0.0030028555 0.08846627 -0.1330122 -0.106048554 -0.086215466 -0.09342717 -0.11982295 0.02656348
-0.006779154 0.03582989 0.022873845 0.012527456 0.016719058 0.09003503 0.015068842 0.105330035
-0.006093898 0.054061078 -0.11067325 -0.07752187 0.024176672 0.09119889 0.031480536 -0.08512691
0.11439931 -0.08832981 -0.054318763 -0.12857425 -0.11262201 0.110755935 -0.002616167 0.064705774
0.10133241 -0.05631286 -0.05271872 0.020957824 -0.057852324 0.06405834 -0.023229767 -0.1153727
-0.36741093 -0.2689314 -0.28200653 -0.32300112 0.08552281 0.14312229 0.01232269 0.0723591
0.11761691 -0.003871724 -0.010218784 -0.08319354 0.07198385 -0.063005604 0.12357104 0.057838462
0.11564171 0.020791158 -0.09170048 0.040882736 -0.23333149 -0.04977324 -0.30599478 -0.3301653
0.0708375 0.079040535 -0.05627257 0.10647851 -0.010039851 -0.025223508 -0.08589627 -0.09404205
0.051921662 0.054400224 0.10640467 0.07204274 -0.3195886 -0.19013363 -0.30339906 -0.21930814
-0.12328007 -0.007256459 -0.16755831 -0.1831756 -0.046103626 0.079263985 -0.04623957 -0.11364311
-0.013947641 0.12469475 0.09366724 0.025313279 -0.52768815 -0.45828208 -0.54129565 -0.51426524
-0.12136628 -0.16391292 -0.21020769 -0.27418905 -0.3256386 -0.5447374 -0.5026402 -0.4816016
-0.18047476 -0.26714882 -0.24139075 -0.2732261 0.004831665 0.02452997 -0.0051544313 0.09966538
0.01979661 0.090131134 0.06415352 -0.12189752 -0.04865595 -0.02795919 0.033885695 0.06463283
-0.050027072 0.004221529 0.12264556 0.093053326 -0.17195216 -0.17477128 -0.21565974 -0.18385519
0.05531367 0.025875991 0.097039744 0.010651816 -0.1063962 -0.028876558 0.0582449 0.02915138
0.016395824 -0.10628813 0.088279225 0.076656 -0.116935335 -0.1626639 -0.29147914 -0.24472591
0.0007898554 -0.04376297 -0.019971266 -0.038240433 0.024207622 0.080415845 -0.010367081 0.07767959
0.07063755 -0.028021678 0.15223882 -0.014642315 -0.6001926 -0.6327182 -0.53450716 -0.45479396
-0.036920436 -0.06634426 -0.14477178 -0.19052973 -0.5611618 -0.5666229 -0.64306134 -0.543017
0.22245672 0.20248862 0.25726944 0.15785423 0.104425356 0.019006323 0.032824002 -0.07336521
-0.10474788 -0.10521957 0.09904979 -0.10579102 -0.10354032 -0.10424917 -0.0638431 -0.055822674
-0.11431149 -0.011782244 0.076163545 0.11911303 0.146093 0.05160439 0.082312375 0.11499004
0.14271095 -0.07676558 0.00019277394 0.122607596 -0.04178591 -0.015764505 -0.0731193 0.10576899
0.040593408 0.13796459 0.13422056 0.0742679 0.23201129 0.07338566 0.24363002 0.2126928
0.039973248 0.19291812 0.1252171 0.07790353 0.01626192 -0.017071769 0.122926936 -0.109512836
-0.036377233 -0.10745675 0.06505958 -0.06307006 0.5593704 0.4396829 0.26688093 0.2444632
0.03265448 0.21404256 0.2332986 0.23353082 0.09627124 0.32624945 0.26745442 0.23924361

features_extractor.conv2.bias f4 [32]
00000000: d7b2 5dbc 207c e0bc a23f 1d3d fb1b 83bd
00000010: c9ff e9bd 9a4a 873d 7305 293e d40f 56bd
00000020: 58d7 db3c b17d 753d a543 a63c f186 033e
00000030: 7fae 093e 9a34 9abd 7e3a f6bd 86d6 a3bd
00000040: b064 b0bd 185d 403d 7025 60bd cb34 d8bd
00000050: 53c0 08bb 3f9b c0bd 76a1 76bd 1b3e abbd
00000060: e4f6 36bd 4440 c6bd 9185 aa3d 2150 83bd
00000070: 2ef5 cc3d 0049 c0bd 6583 febd d46b a3bd
-0.013531408 -0.027402937 0.038390763 -0.06401821 -0.1142574 0.06606026 0.16505985 -0.05226119
0.026836082 0.05993432 0.020295927 0.12844445 0.13445471 -0.07529564 -0.12022875 -0.079999015
-0.086129546 0.04696378 -0.054723203 -0.105569445 -0.0020866587 -0.09404611 -0.060212575 -0.08361455
-0.044669047 -0.096802264 0.08326257 -0.06411768 0.10007702 -0.09388924 -0.12427405 -0.07979551

features_extractor.fc_op.weight f4 [32, 3]
00000000: 654f 29be cd6d 103e 38c3 91be 03bc 70bd
00000010: 7b4e c1bc d39a 09bf 7647 43be 76b1 8f3e
00000020: b65c 4a3e f406 4abe 7352 873e 2968 c4be
00000030: 8cf1 d7be 0edf edbe 103f 473e 924e dcbe
00000040: dd3c e2be efff 7c3e e67f 69be 39e9 02bf
00000050: 2af5 d83e 06af f1be 7bd1 37bd 63cc 843e
00000060: 4e40 09bc f979 40be 951f f1be 1f76 e6be
00000070: ce67 b63e f53c 39be e21c d0bd 07c3 193c
00000080: 9fc5 e73e 3185 6dba bd9d c6be c1e2 173f
00000090: 8d67 bcbd 917c 9abe 2d2e c0bb d363 81ba
000000a0: 8d09 0e3d f348 bcbe 5686 be3e fadb 843e
000000b0: e5ca 32bf 9be2 393e 5197 bdbe ec77 283e
000000c0: 9ddc fbbe 4ec3 01bf 260f df3e 8bc5 fd3e
000000d0: 14a9 1ebe e6e8 96be a820 713e 486b a6be
000000e0: 5b52 4a3e 51bd babe 5ebe 5e3e 4302 09bf
000000f0: 0d10 3e3e b639 44be 954a b73d a857 ba3d
00000100: ac7f d0bd 5509 c33d 2e9e f2be 4046 efbe
00000110: c344 0ebf fd4f d2be 0822 9e3e 254d 823c
00000120: 5e04 653e 5555 123e 2793 aebd 3ce3 e5bc
00000130: c70f afbd 2e0c 303e b5f4 393e 4419 d1be
00000140: fc63 293e 5bed 50be 9700 b03e 8533 d9be
00000150: 6a84 643e fd2b 7d3e eddc 0d3f 4a47 63be
00000160: 9985 8bbe 124c 98bd b178 84be b838 c43c
00000170: 9e70 91be 0ebb d83d 4dbe ebbd 52cd f23d
-0.16534193 0.14104386 -0.28469253 -0.058773052 -0.023596993 -0.5375187 -0.19070229 0.2806508
0.19761929 -0.19729215 0.2643009 -0.38360718 -0.42176473 -0.4645924 0.1945765 -0.43028694
-0.4418706 0.24707006 -0.22802696 -0.5113712 0.42374545 -0.47203845 -0.04487751 0.25937185
-0.008377148 -0.18796529 -0.47094408 -0.45011994 0.35626072 -0.1808966 -0.10161759 0.009384877
0.4526796 -0.00090606796 -0.3879222 0.59330374 -0.09199438 -0.30173162 -0.0058648796 -0.0009871669
0.034677077 -0.36774406 0.37211865 0.2594908 -0.6984084 0.1815285 -0.37029508 0.16451997
-0.49191752 -0.50688636 0.43566245 0.49564776 -0.15494186 -0.29474562 0.23547614 -0.32503724
0.19757979 -0.36472562 0.21752307 -0.53519076 0.1856081 -0.1916264 0.08949772 0.0909875
-0.101806015 0.09523264 -0.47386307 -0.46733284 -0.5557367 -0.4107665 0.3088534 0.015905926
0.22364947 0.14290364 -0.08524161 -0.028062455 -0.08547931 0.17192146 0.18159755 -0.4083959
0.16542047 -0.20403044 0.3437545 -0.4242212 0.22316137 0.24723811 0.5541523 -0.22195163
-0.27250364 -0.07436384 -0.2587333 0.023952827 -0.28406233 0.10582553 -0.11510906 0.11855568

features_extractor.fc_op.bias f4 [32]
00000000: aa38 3dbe 50ae 0b3f d9b6 2f3e ce87 abbe
00000010: f812 f53e 99d3 c03e 0f85 e5be 4a8a 2ebd
00000020: 82b8 173f cc20 c1be 6a8b ba3e 580e 1c3f
00000030: cbbf 7d3e e514 043e f201 fabd 5b0d 48be
00000040: 80f3 c9bd ab51 433e df94 2d3e e931 ffbd
00000050: ca73 14bf 962b e6be 0248 913d f39c da3e
00000060: d16a d33e 11cd 19bf 91ea a2be 31f2 e7be
00000070: 26c2 00bc 3969 1bbf b6f2 e33e 57b2 0bbf
-0.18478647 0.54562855 0.17159595 -0.33502048 0.47866035 0.37661436 -0.44828078 -0.04261235
0.5926591 -0.37720335 0.3643449 0.60959387 0.24780194 0.12898596 -0.12207402 -0.19536345
-0.09860897 0.19074123 0.16951321 -0.124606915 -0.5798918 -0.44955128 0.070938125 0.42697868
0.41292432 -0.6007853 -0.31819585 -0.45301965 -0.007858789 -0.6070743 0.4452111 -0.54569

features_extractor.fc_merge.weight f4 [352, 352]
00000000: 8232 34bd 88f8 81bb cbcf f93b 1092 14bd
00000010: dd2b 18bd 147b 17bd 9f3c a23b a6a6 e83c
00000020: 5601 45bd dfe0 cdbc 0f75 20bc 09e9 7cbc
00000030: a10b 013d 2c3f 813b 65fa 0d3c 6665 22bd
00000040: 1d6b e7bc 4cda 4bbd 5e98 1dbc ea5d 1fbd
00000050: 0cf2 82bd c5c1 40bc 75fd 67bd 6318 08bc
00000060: 9426 fa3c 3ff1 63bd 1ea5 46bd 39b6 243d
00000070: 1da5 023d 4fb9 10bd 0947 2abd 4c47 7cbc
00000080: e474 eabc 98f7 0e3d bd25 62bd d6cf f1bb
00000090: 4b63 a8bc 52a4 63bd 510f 17bd 8959 4bbc
000000a0: d4e2 4ebd b9cc 09bc 9ce1 d6bc 2273 d63c
000000b0: de08 2d3d a016 73bb 3956 3dbb ce9c 0f3c
000000c0: b450 96bc ab41 21bc 5eda 4c3b 004d 323d
000000d0: 70d1 873c f3e5 9d3b 835a ed3c c553 32bd
000000e0: 2899 493d 85d7 1dbd b41b d43c 579a a93c
000000f0: 7fea 7bbc ae35 8ebd f23b a23c b878 4fbd
00000100: 175f 01bd e7b8 9ebc d03c 4dbd 0e3b 16bd
00000110: a548 603c c884 89bc 849f 15bd dccb 1dbd
00000120: a8dc f13c f75f fbbc 0c01 ecbc 4de8 76bd
00000130: 397f 82bc 6b7c 9d3c 8d35 00bd ce2d 2f3c
00000140: c606 e9bc 7680 97bb 302d 3a3d 21ab aabc
00000150: 2306 293d a1c1 e5bc 3e79 11bd 4948 113d
00000160: f1c0 15bd c2b1 d43b f6b9 04bd 67ab 15bd
00000170: 4cc2 a53c a2e2 f63c d289 2cbc d993 dfbc
00000180: 3a2a fc3b b7fe fa3c 316d 003d 8e57 05bd
00000190: fef0 25bd b6b3 d9bb 397d 073d 0e3a a7bc
000001a0: a5c0 1d3d 401c 29bc fbd1 093d a827 5e3c
000001b0: e6d7 74bb 62e1 5cbb 65c0 d03c 29da cb3c
000001c0: 70c2 83bd 8664 053d e88a 50bc 7c72 c03c
000001d0: 58a7 38bc a1ee cdbc 550f 73bd e8d3 eb3c
000001e0: ad15 a33c 84ea 083b e987 8d3c 868e 44bd
000001f0: 0a2b 75bc 6a93 053d 3fd7 7cbd 232a d73c
00000200: a487 e73c ddda cd3c 4c81 b4bc 34c6 13bd
00000210: d317 d0bc 67e2 21bd 8eba 553b 8e8c 8dbc
00000220: 6edc 4a3d 9b3d 473d 4364 2a3d e1a3 dcbc
00000230: 3a17 1d3c 7da3 23bc 7592 b2bc 819d 083d
00000240: 0230 e0bc 5541 ae3c e9aa d8bc 530f e6bc
00000250: 3cef 2bbc b6b6 56bd f3e9 e4bb bb91 383d
00000260: 2e1a ab3c dd20 24bd 6ead c8bc ae85 163d
00000270: 2cd4 113d 3978 8fbc 16ed 39bc 57ef 15bd
00000280: 1768 433d f2ed 31bd ebd1 06bc 6a7c aa3c
00000290: 1417 9a3c 3378 7dbc aa4a c6bc ab35 dabc
000002a0: d2d9 213d 1e97 e2bc c998 77bd 9177 c73c
000002b0: f514 d2bc 8f66 35bd b635 cc39 c894 c63c
000002c0: 5d4e 69bc a266 05bd 8068 24bc aa5e 913c
000002d0: 5d95 e5bc b346 d9bb 836d 853b a634 8cbc
000002e0: 9254 58bd 1aa8 54bd d8b2 2dbd 559f f1bb
000002f0: ebcf f1bb d55c 48bd 7d95 b1bc d459 6fbd
00000300: 81a8 d63c 8ddb a4bc 1eb7 96bc 0fdf 14bc
00000310: 9617 1ebb ca3c 55bd 9176 f13c 453e e2b9
00000320: 7955 68bd 8873 23bd 4dad 1dbd 5578 b93c
00000330: 153d a4bc c143 34bd e9b6 9e3b 7e68 853c
00000340: 00cb b83c 3b6f 10bd 8843 e93c d153 01bc
00000350: dca9 5ebd b412 d4bb 4f83 a4bc bea4 5bbd
00000360: 417f e43c fd04 6dbd 6f46 133c 4105 26bd
00000370: baee 0bbd 9ea4 b13c e37d eabc 0f4f 70bd
00000380: 9ef9 f5bc e7f3 6abd 5396 f2bc 30bc 693b
00000390: 28c2 a53a ddcd 003d bf73 a7bc e69f 4abc
000003a0: 3780 e53c 4ea1 1b3d 70ce c1bc ab40 82bb
000003b0: b7a0 ae3c bafb 79bd e850 38bd 4016 37bd
000003c0: 3c0b 43bd a59d 303d ce62 e5bc 973f f73c
000003d0: 1d73 1c3d f89c 9ebc 3a24 bd3c 3fb7 0e3d
000003e0: 8624 643c 6a2d 283d 126e b63c 6879 513d
000003f0: 1c56 103d 0801 1b3d 5c83 383d ca28 1ebd
-0.04399348 -0.003966395 0.007623648 -0.03627211 -0.037151206 -0.03698261 0.0049510743 0.028399777
-0.048096977 -0.025131641 -0.009793534 -0.015436419 0.03150523 0.0039442983 0.008665656 -0.039647482
-0.028249318 -0.04976873 -0.009618847 -0.038907923 -0.06393823 -0.011764948 -0.0566382 -0.0083065955
0.030535974 -0.055649992 -0.04849731 0.040212844 0.031895746 -0.035332974 -0.04157165 -0.015397858
-0.02862019 0.034904093 -0.05521177 -0.0073795123 -0.02055516 -0.05557663 -0.03687984 -0.012411484
-0.05050929 -0.008410626 -0.026230626 0.026177946 0.042244785 -0.0037092343 -0.0028890504 0.0087654125
-0.01834903 -0.009842317 0.0031258087 0.043530464 0.01657936 0.004818672 0.028973823 -0.04353692
0.049218327 -0.038535614 0.025892116 0.020703478 -0.015375732 -0.06943832 0.019803975 -0.050652236
-0.031584825 -0.019375278 -0.050106823 -0.036677413 0.013689195 -0.016786948 -0.03652908 -0.038524494
0.029524162 -0.030685408 -0.028809093 -0.060280133 -0.015929805 0.019224366 -0.03130107 0.010692073
-0.028445613 -0.004623468 0.04545325 -0.020833554 0.041265618 -0.028046431 -0.035516016 0.035469327
-0.036560956 0.006490917 -0.03240391 -0.036540415 0.02023425 0.030137364 -0.010530906 -0.027292179
0.0076954635 0.030639036 0.031354133 -0.0325542 -0.04051303 -0.0066437377 0.033078406 -0.020413425
0.0385138 -0.010321677 0.03364752 0.0135592595 -0.003736013 -0.0033703675 0.025482366 0.0248843
-0.064335704 0.03256657 -0.01272843 0.02349209 -0.011270367 -0.025138201 -0.059340794 0.028787568
0.019907797 0.0020891735 0.017276721 -0.047987483 -0.014963875 0.032611288 -0.061728712 0.02626521
0.02826292 0.025128776 -0.02203431 -0.036077693 -0.025401985 -0.039522555 0.0032612416 -0.017278936
0.049526624 0.048642736 0.041599523 -0.026933612 0.009588057 -0.009987709 -0.021798352 0.033353332
-0.027366642 0.021271387 -0.026448684 -0.028083479 -0.01049405 -0.05242034 -0.0069858967 0.045060854
0.020886507 -0.040070403 -0.02449676 0.03674858 0.035602733 -0.017513381 -0.01134803 -0.036605205
0.04770669 -0.043439813 -0.008228759 0.020811278 0.018809833 -0.015470552 -0.024205524 -0.026636919
0.03951437 -0.027659949 -0.06044844 0.024349006 -0.025644759 -0.04428726 0.0003894993 0.024240866
-0.014239875 -0.03256858 -0.01003468 0.017745335 -0.028025324 -0.0066307425 0.0040718927 -0.017114948
-0.052815028 -0.051918127 -0.042406887 -0.00737373 -0.007379522 -0.048916657 -0.021677727 -0.058435276
0.026203396 -0.020124221 -0.018397864 -0.009086384 -0.0024122945 -0.052059926 0.029475482 -0.00043152474
-0.056722138 -0.0399051 -0.03849535 0.022640387 -0.020048657 -0.044009928 0.004843582 0.016285177
0.022557735 -0.035262328 0.028474584 -0.007893519 -0.05436121 -0.006471956 -0.020082144 -0.053623907
0.02789271 -0.057866085 0.008988961 -0.040532354 -0.034163214 0.02168494 -0.02862448 -0.058669146
-0.030026253 -0.05736151 -0.029612696 0.0035665147 0.0012646364 0.031446327 -0.020440934 -0.012367224
0.02801524 0.03799563 -0.023658007 -0.003974994 0.02131687 -0.06103108 -0.044999033 -0.044698954
-0.047618136 0.04311909 -0.028001215 0.03018169 0.038195718 -0.019361958 0.023088563 0.034842726
0.0139247235 0.041058935 0.022269282 0.051141173 0.03523837 0.03784278 0.04504715 -0.03861312

features_extractor.fc_merge.bias f4 [352]
00000000: e1ec 2d3b 9174 f93c 77a8 073c 41a1 f5bc
00000010: f7b9 07bd 0908 3abd 6fcc febd 90bd 0fbd
00000020: 6a77 ff3c a15e a73d b188 76bd eced 203d
00000030: 6392 d0bd 7e69 b1bd efcf cbbd 8e44 6b3d
00000040: e37e 08bd d19a cdbc 8b4d 22bc e1ba 7ebd
00000050: b67a 2bbc d5b5 243d f12b 74bb dea9 a03d
00000060: e458 9b3c 6a02 0b3d 1200 003d dbc2 80bd
00000070: 98be 00bc a3cc a93c 5abd e1bb e218 9d3b
00000080: 85cc 98ba 48cd c3bc 8555 1b3d 97a6 abbd
00000090: 7f9b 943c 290f 253c 78ed 8f3c 9f13 b9bc
000000a0: 634b 9bbd 92fa 82bd 5513 80bd 6331 d63d
000000b0: 1f0d 4d3d 48c8 523c f0af 713d 298e a03c
000000c0: 4734 ac3c f076 903c 869b e3bc a0fd 09bd
000000d0: 32a3 57bb df82 a83d 214b c83b 150e 47bd
000000e0: e196 cebc a54f 4abb 20f9 383d 0c73 8a3d
000000f0: 81a0 f23c 409e f83c 8a40 083d 6066 8c3b
00000100: bdd7 e6bc 6498 a1bd e04d 093d a428 d13c
00000110: bd87 71bd 7932 5cbd 85e2 c63b d638 693c
00000120: 3865 e63c 28f2 6bbc 8309 9a3c 0283 b33c
00000130: 7ad1 54bd 54f1 293d ed94 15bd 0488 74bc
00000140: 8028 0ebd fb06 a3ba f9d1 b6bd e41f 203c
00000150: 58e6 08bd ef88 81bd 6a5c 723d 1480 803d
00000160: f068 b1bc 20e6 abbc b667 5e3d 9d5d 4d3d
00000170: a6f0 e3bc 414b 713c d77c 37bc 6c3a b4bc
00000180: 4dbc aebc 4ed8 97bb bd9f 313c 28ca 7abd
00000190: 4138 a33d f6ae 5bbd 2bdf c5bd f78d 4a3a
000001a0: dc8a 57bd b117 513d 024c 8aba b130 a2bc
000001b0: 14d9 f2bb cfbd 44bd d39c 87bd 72ea 7d3b
000001c0: 87a3 943c 0473 a9bc 79f5 9d3b 4ede 063d
000001d0: 98af 1fbd f464 ecbc a2cd 133b 2b81 55bd
000001e0: 86aa acba 794f f33d 353c 3bbd 9eb1 603c
000001f0: 2512 243b df85 1ebd 4c70 7c3d 4532 163d
00000200: 7612 01bc 7953 cabb 09e0 9a3c 3cef d93c
00000210: 8832 e0bb 471e 0e3d 81b5 1dbe 248c 033c
00000220: 3309 7cbd 4686 933b a0e2 e1bd 9a0c c0bc
00000230: 3938 43bd 3b87 57bd 5b74 c1bd 323a 9dbc
00000240: ed50 733a df92 56bd f684 53bd 75c0 32bb
00000250: 0cb4 27bc 6ae5 24bd 53b3 6ebd 80a8 d83a
00000260: 5401 2dbd ba91 40bc 9f56 873c b839 f9b9
00000270: 4ed8 95bc a864 833c a0ec 85bd 7332 5bbb
00000280: 2c89 fc3c 33fd 5dbd d951 993c cefd a13c
00000290: 65f6 b6bd da58 273c f256 61bd 98f2 963c
000002a0: 405d 8abd 1865 e5bc 271f 57bd edb3 8fbb
000002b0: 4fcc 71bd adb8 a8bd d04d fabc 1e8d e63c
000002c0: 13d0 2bbd e65b 10bd 3e1d 4cbc c06c 44ba
000002d0: dbd9 a4bc 7f19 03bd ebd1 89bd dd4f c4bb
000002e0: 5dbf 6f3b f653 b73c ebab 08bd 3537 61bd
000002f0: 1cc7 4c3c 0044 30bd 1a94 d5bb c120 24bd
00000300: 8dd6 0cbd c8de 013c fdbe 0ebd 1c5d b2bc
00000310: 471c 22bc 50fd 97bb 81dc f13b 47f1 fbbb
00000320: 87cd 4ebc 229f 49ba 3462 68bd 1ca6 293d
00000330: e69b ac3d 8f4f 2ebc f2d0 4cbd 0a96 30bd
00000340: 74b5 84bc 95d3 a13c 6476 e4bb 925f db3c
00000350: e55d 083d 8a7a 053e f7ab 1abd 4245 9fbc
00000360: 8dc4 d63b 11d9 b63d cf76 a3bd f258 913c
00000370: 16fd aa3d 50ae d8bd 52e1 36bd 2188 b93d
00000380: 7d80 163c 4226 363e 8a08 e03c e476 c4bd
00000390: fbdd ab3c b4fd 4abc 9ff9 ac3b df2d 0bbc
000003a0: 9ce3 6ebd 7306 8ebd 7d5c e1bc e184 4ebd
000003b0: f968 953d 433d 423a a88e 5e3c 428a 76bc
000003c0: 2506 5fbd 1312 b5bd 48aa 38bd b1e7 eb3d
000003d0: 80da 83bd 595c 963d ca1c e63c 6a1c be3b
000003e0: 1aef c93c 3414 01bd 6f0f 74bd 705b 1fbd
000003f0: e573 7a3c e083 80bd 0321 723b 3d8c 993c
0.0026538896 0.030451091 0.008279911 -0.029984118 -0.033136334 -0.04541782 -0.12441336 -0.03509289
0.03118487 0.08172346 -0.060188953 0.0392894 -0.10184171 -0.08662699 -0.099517696 0.057438426
-0.033324134 -0.025098236 -0.009906183 -0.06218994 -0.010466268 0.04021247 -0.0037257636 0.078448996
0.018963285 0.03393785 0.031250067 -0.06287166 -0.007857941 0.020727461 -0.0068890275 0.004794226
-0.0011657631 -0.023901597 0.037923355 -0.08381384 0.018140553 0.010074415 0.017569289 -0.022592364
-0.07582738 -0.06395449 -0.06253687 0.104586385 0.05006134 0.012865134 0.059005678 0.019599037
0.021021022 0.017634839 -0.02778412 -0.03368914 -0.0032903668 0.08228087 0.0061124717 -0.048597414
-0.025218429 -0.0030870226 0.04515946 0.06760225 0.02961755 0.030348897 0.033264674 0.004284665
-0.028179044 -0.07890394 0.033521533 0.025532074 -0.05896734 -0.053759072 0.0060694837 0.014234742
0.028124437 -0.014400996 0.018803364 0.021913055 -0.051957585 0.041489914 -0.03651898 -0.014925007
-0.034706593 -0.0012437993 -0.08926768 0.009773228 -0.033422798 -0.06324946 0.059170164 0.06274429
-0.021656483 -0.020983756 0.054298125 0.050138105 -0.027824711 0.014727415 -0.011199198 -0.022000514
-0.021330023 -0.00463394 0.010841307 -0.061227947 0.07969714 -0.053633653 -0.096617065 0.0007726843
-0.05262266 0.051047985 -0.0010551217 -0.019798608 -0.0074111316 -0.048032578 -0.06621709 0.0038744477
0.018144382 -0.020684727 0.0048205224 0.03292685 -0.03898582 -0.028856732 0.0022552987 -0.052125137
-0.0013173379 0.118803926 -0.045711715 0.013714222 0.002503523 -0.03870189 0.061630532 0.036669035
-0.007877937 -0.0061745015 0.018905656 0.026603334 -0.0068419613 0.034696843 -0.1540127 0.008029018
-0.06153221 0.0045020906 -0.110295534 -0.023443509 -0.04766104 -0.0526192 -0.09446021 -0.019192789
0.0009281773 -0.05238616 -0.051640473 -0.0027275358 -0.010235798 -0.04025785 -0.058276486 0.0016529709
-0.042237595 -0.011753494 0.016520796 -0.00047535985 -0.018291619 0.016039208 -0.06539273 -0.0033446818
0.030827127 -0.054196548 0.018715786 0.019774344 -0.08933715 0.010214055 -0.055014558 0.018426225
-0.06756067 -0.028002307 -0.052519944 -0.0043854625 -0.059032734 -0.08238349 -0.030554682 0.028143462
-0.041946482 -0.03524389 -0.012458144 -0.00074930117 -0.020123413 -0.032006737 -0.06729492 -0.0059909658
0.0036582567 0.022378903 -0.03336708 -0.05498429 0.012498643 -0.0430336 -0.006517899 -0.0400703
-0.0343843 0.00792665 -0.03485011 -0.021772914 -0.009894437 -0.0046383515 0.0073810224 -0.0076886746
-0.012622244 -0.0007691254 -0.05673428 0.04141818 0.08428173 -0.010639085 -0.050003953 -0.04311184
-0.016199805 0.01975421 -0.006972121 0.02677897 0.03329267 0.13035026 -0.037761655 -0.019442204
0.0065541924 0.08928121 -0.07981645 0.017742608 0.083490536 -0.105801225 -0.044648476 0.09059168
0.009185907 0.17788032 0.027347822 -0.09592989 0.020979872 -0.012389589 0.0052787806 -0.008494823
-0.058322534 -0.06934824 -0.027509922 -0.050419692 0.072954126 0.00074096414 0.013583817 -0.015047612
-0.05444922 -0.08841338 -0.045084268 0.11518801 -0.0643816 0.07341833 0.0280899 0.005801727
0.024650145 -0.031513408 -0.05958503 -0.03890556 0.0152864205 -0.06275153 0.0036945946 0.018743629

actor.weight f4 [4, 352]
00000000: 2d2c 1dbd e36c 84bc 5a56 34bd 0897 24bd
00000010: e1db 72bc 70a4 053c 6a18 b73c 95ca 313d
00000020: f32a 0cbd a5b2 143d 2727 333d 8bba 773c
00000030: 1168 32bb 24df 973d b3d0 a13d cbcb 23bc
00000040: 3feb 66bd 5a72 41ba 5f60 1bbd 396d 12bc
00000050: 6916 483c 6b0f 1b3d 86cd 273d 1999 4fbc
00000060: 26d5 13bc fd1a 26bd 4d93 e23b 048b cb3c
00000070: c1ff b9bc b119 2f3d 1992 0fbc 0335 2f3d
00000080: 7557 bcbc 4783 703c 137b 413c 3be7 873b
00000090: 75af 3bbc 0d3f 64bd 3674 7fbd 8f30 49bd
000000a0: 1a60 76bd 6094 db3c c756 e03c d941 593d
000000b0: 63f4 48bc 41a9 9fba bcec e83c 010c e03b
000000c0: f165 56bd c58b cebb a1a3 7bbc 67c7 03bd
000000d0: 6b41 4dbd 61bb 903c 56ea f6bc 3dc1 85bc
000000e0: 6c21 1a3d 0036 b6bc 4b43 943c c353 583c
000000f0: 57b7 6fbd df9f 0f3d 99e3 46bd ecad 253d
00000100: 330b 69bd 151c 973d 419b 243c 6a05 b0bc
00000110: 1dd2 82bb 24ac 0fbd d927 f2bc 41e9 d83c
00000120: e467 bfbc 3575 77bd 640f e13c a3d3 53bc
00000130: 8e45 4e39 50f0 dd3c 992b f9bb 0989 76ba
00000140: 09ba 183b f7cb 5ebd e6fc 2f3d 308d ca3c
00000150: d278 28bd 72a4 40bc 232b bbbc 357d 8a3c
00000160: 8083 733b 3ade 533b bea5 9dbc c555 c4bb
00000170: e8e2 923d 3200 92bb 6147 12bd dafb f93c
00000180: 0d0e 75bc 52f8 d6bc 7b28 e03c f10f 87bd
00000190: 36c5 e4bc 6d19 43bd 257a 1e3d 7200 40bd
000001a0: 342c 943c 79a2 d7b9 73db fd3c f37f f8bc
000001b0: 874f 5dbc 20b5 073d 5b93 db3c 2629 4ebd
000001c0: 24f6 9ebc 1e74 21bd 74fc ee3c 9e97 f7bc
000001d0: 294f 2e3c 6e49 0c3d b9a7 a6bb b3b0 47bd
000001e0: fd51 83bd 2fb6 a9bb 8e85 373d 79a9 7f3d
000001f0: 563e 593c d0b6 7ebc d60b cbbc e496 a6bc
00000200: 0919 c33c de99 0a3b 117c ee3d 5c67 433c
00000210: 9196 adbc 30d7 cb3c e09d a83d 8c7b efbc
00000220: d505 9cbc 02d9 66bd 6e49 6d3d 27c2 3bbd
00000230: ae76 a2bc b28e 22bd 4316 ddbc 4bd4 a0bb
00000240: d8ea 553a d320 50bd af35 3b3d 82b2 d9bc
00000250: 4f20 5cbd 1ddb 563d c429 3dbc 6151 94bc
00000260: a9d1 5c3d fc87 8cbc db4f 063d f1a7 293d
00000270: fbc3 6b3c 8ff6 d4bc 236f 293c b718 533d
00000280: b9dd 52bc f917 003b 559f 263c cd85 51bd
00000290: f269 373d c0de 573b fc3b 56bd 870f b9bc
000002a0: 1169 cc3c 0979 5f3d e407 a03c ac59 5fbd
000002b0: b5f7 a9bc 9cee 5bbc 05b2 c6bc fea7 ef3c
000002c0: 5c19 6d3d df3f 17bd 8806 393c 6c1d 48bd
000002d0: 91c1 54bd 63d1 9cbc da20 6a3d 54da e43c
000002e0: 114a 80bd 2ef0 1abd 25a7 713d 931f 503d
000002f0: 1a22 51bb 872d 57bc af1c d4bb 3ea5 da3d
00000300: 2935 f93c 4464 e13c 8f69 483d d091 f33c
00000310: fdb1 263d fd26 8a3c 933b febc c8f5 f1bb
00000320: ce44 b5bc e12a f73c 02b9 efbc 0be8 ff3c
00000330: f9ad b43b 3f0d d6bc dc1c 45bd 1b14 a63d
00000340: f598 08bd bece 87bc 9785 453c def5 58bd
00000350: 6e7b b33c 50f2 153d 59b7 62bd 9ae8 823b
00000360: e895 adbb d735 593d 9a4b 5ebd 9e96 43bd
00000370: 9110 6dbd dbf6 b03c 776e 343d 6bbc b8bc
00000380: 797d f8bc ddad 54bd 14fd 99bd 0df0 873b
00000390: 9d1c b7bc 41f5 1d3d 9127 1cbd d198 c1bc
000003a0: 710c 0dbd 0fbf 5c3d 11e3 263d 3ab0 8dbd
000003b0: 7198 813c 147f fa3c 5ef7 fcbc cf74 d7bc
000003c0: ec78 233c 8d4d 2f3d ef44 8e3d 4203 3dbd
000003d0: 8b28 793d b00a 953c f9ad 373b 2f85 3ebc
000003e0: e37c f1bc 8efc 21bb 485a 033d 480e 9b3b
000003f0: b495 f0bc dc48 23bd 483e 59ba 96c8 49bc
-0.038372207 -0.016165202 -0.044027664 -0.040183097 -0.014822931 0.008156881 0.022350509 0.043406088
-0.034220647 0.03630318 0.04373851 0.015120159 -0.0027222673 0.074156076 0.07901134 -0.0099973185
-0.056376692 -0.00073794054 -0.037933704 -0.0089371735 0.012212374 0.0378565 0.040967487 -0.012670779
-0.0090229865 -0.04055308 0.0069145323 0.024846561 -0.02270496 0.04274911 -0.00876286 0.042775165
-0.022990922 0.014679736 0.011809128 0.004147438 -0.011455406 -0.055724192 -0.062366687 -0.049118575
-0.060150243 0.02680415 0.027385129 0.053041313 -0.012265298 -0.0012181179 0.028433196 0.0068373685
-0.052343313 -0.006303283 -0.015358836 -0.032172587 -0.050111216 0.017667474 -0.030141037 -0.016327495
0.03762953 -0.022242546 0.018098494 0.013203564 -0.058524456 0.035064574 -0.048556898 0.040449068
-0.056895446 0.07378403 0.010046781 -0.021486957 -0.0039923326 -0.035076275 -0.029560016 0.026478412
-0.023364969 -0.06041451 0.02747316 -0.012928876 0.00019671602 0.027092129 -0.007604074 -0.0009404575
0.0023304245 -0.054393735 0.042965792 0.024725527 -0.04113085 -0.011757957 -0.022847718 0.016905406
0.0037157238 0.0032328502 -0.019244071 -0.00599167 0.07172185 -0.0044555897 -0.035712603 0.0305156
-0.014956963 -0.026241455 0.027363053 -0.065948375 -0.027926069 -0.04763167 0.038690705 -0.046875425
0.018087484 -0.00041129047 0.03098843 -0.030334448 -0.01350773 0.03313172 0.026803663 -0.05033221
-0.019404478 -0.03941738 0.029173113 -0.030223664 0.01063899 0.034249716 -0.005085912 -0.048752498
-0.064121224 -0.0051791887 0.044805102 0.06241748 0.013259491 -0.015546516 -0.024785917 -0.020335622
0.023815649 0.002114884 0.116447575 0.011926498 -0.02118996 0.024882883 0.08233237 -0.029233716
-0.01904575 -0.0563593 0.057931356 -0.045839455 -0.019831982 -0.039686866 -0.026988154 -0.00490812
0.00081602996 -0.050812554 0.045705494 -0.026574377 -0.05374175 0.052455056 -0.011545602 -0.01810521
0.053910885 -0.017154686 0.032791 0.041419927 0.014389987 -0.025996475 0.010341438 0.05153724
-0.012870246 0.0019545539 0.010169824 -0.051152993 0.04477877 0.0032939166 -0.0523033 -0.022590412
0.024952443 0.054558787 0.019535013 -0.054528877 -0.020747999 -0.013423588 -0.024254808 0.02925491
0.057885513 -0.036926147 0.011293061 -0.048856184 -0.05194241 -0.019142812 0.057160236 0.027936138
-0.06264127 -0.03782671 0.058997292 0.05081136 -0.0031911195 -0.013133413 -0.006473146 0.10676049
0.030420857 0.02751363 0.048928794 0.029732615 0.040697087 0.016864294 -0.031034267 -0.0073840357
-0.022127535 0.030171813 -0.029263023 0.031238576 0.005513903 -0.026129363 -0.048123226 0.081093036
-0.033348996 -0.016578075 0.012055776 -0.052968852 0.021909442 0.03660804 -0.055350635 0.0039950134
-0.0052974112 0.05302986 -0.054271318 -0.04775106 -0.057877127 0.021602085 0.04405066 -0.022550782
-0.030333268 -0.05192362 -0.07518974 0.0041484893 -0.022352511 0.03856397 -0.03812367 -0.023632439
-0.034435693 0.053893145 0.04074389 -0.06918378 0.01581976 0.030578174 -0.030879673 -0.026300816
0.0099775605 0.042798568 0.06946742 -0.046145685 0.06082968 0.018193573 0.002802728 -0.011628433
-0.029478496 -0.0024717185 0.03206852 0.004731927 -0.029368259 -0.039864406 -0.00082871737 -0.01231589

actor.bias f4 [4]
00000000: 28fc 7fbc 5779 c9bc 7568 063d 2c63 a9bd
-0.015624084 -0.024593992 0.03281446 -0.08270869

critic.weight f4 [1, 352]
00000000: 8e99 0fbc 0597 26bd 5379 a73e 840a b53b
00000010: 5fa1 7d3d 21f3 3cbb 2d08 e6bb 8dc7 e63d
00000020: 4934 863d c4a2 98bd 4a27 613e 9b91 9b3d
00000030: 41ae 80bd 00c3 c9bc 1d1a e2bc 0a4b dbbd
00000040: 5ec8 d73d 100f 3a38 492a 81bc e8f2 a63e
00000050: fd35 5f3d f868 46bc 7c8d 3e3d c119 bcbd
00000060: 8fe8 db3c 1954 b43a fa64 593d 13a9 713d
00000070: b61f afbb a4b5 0cbd 5d16 3b3d a247 0fbd
00000080: d61e 573b 481f 49bd 9f40 e9bd 9be5 53bc
00000090: c433 6fbc fa91 afbb e28b 013e 3efa 9e3e
000000a0: 4e06 373e 3cda 873d 498e e43c 4228 bcbd
000000b0: de64 c93d 3792 203d f796 b1bd 4407 a23e
000000c0: 9068 01bc 3730 ce3d ed91 be3d c275 c53d
000000d0: c2cd 063e 5b35 61bd 50bb 14be 8658 873c
000000e0: 2dd2 023e aef8 05bd 528a a3bd eb13 3ebe
000000f0: 998c c23d 139f 99bd 205d efbc 3d96 153d
00000100: 9b8c a53e 5600 c9bc e77e d1bb 78ed c73d
00000110: 5425 9abb 9aed 7f3e 7b53 4bbd 7715 6e3d
00000120: 68c1 6a3d 6233 8cbc 7513 9cbd 2b0d 29be
00000130: 931c d83b b8e6 72bc d736 013b 0b8a 623d
00000140: 2899 5b3d f7d7 af3d b57f aebc 834e 063d
00000150: 1e67 573d 031c 783d 256e aebd a129 a1bd
00000160: c1f6 5eba f867 4e3d 1ceb 04bd 0c59 6fbd
00000170: 0055 72bd 8489 473d b4f6 03bd 8935 3cbb
00000180: 05c2 9a3d 6ff8 73bc 6767 c03c 8edd 233d
00000190: d38b f5bd 3242 a03d a8dc 82bd 6e6f 3d3d
000001a0: 3007 8c3e 9e01 d4bd 658f 723d 8f8c 443d
000001b0: 2835 da3d ca8b d93d c461 81bc ad16 40bc
000001c0: 4e9b 9d3d 9c4a cc3d 2a1a 323d 69b0 60bd
000001d0: 7c47 cf39 3d8f d53d 0b23 c83c 2289 e03d
000001e0: b61e d33d 8541 f1bd 36d9 44bc b6ea 11bd
000001f0: 05b0 37bc f656 993e 04d7 abbd d5ba c43d
00000200: d3e7 1f3d e393 bfbc 828a d8bd ce79 ad3d
00000210: 0897 be3d 2268 e93d 174b 803c 6165 913d
00000220: 1854 8b3b fcdd a23d 5f43 263c e814 a13d
00000230: 465e bc3c d7d1 733a d92b 9dbc 851d e33c
00000240: e933 ef3a 30f7 923d 91b0 563a c795 963d
00000250: 1606 6a3d 9250 b03c df53 d73d 02c5 6c3e
00000260: ac5f b2bc 2f41 383b c372 c23d 9f77 5f3d
00000270: d486 873e 9c4b 7e3d 31fd 413d 2b55 353d
00000280: 0fb4 d63d 9170 26bd eedd a33d 9fbf 85bd
00000290: 38f3 f3bc 7994 2d3d f67f 693d 2736 41bb
000002a0: a007 763e 238d e3bc a86a 5fbc 7426 7e3c
000002b0: f1d2 843d dad9 afbc 2d54 0ebd c25c 12bd
000002c0: f619 cebb 84ab bcbb 4e63 cdba 01e8 b3bb
000002d0: 394e d73a 8989 2f3d 3726 00bc 0e39 be3c
000002e0: a1ad 4ebb 9cd4 cf3d ee6f 01bd 02ef cebb
000002f0: 7096 c23c a4d6 813d ace5 893d 01f3 9abc
00000300: ad14 523e c3ae 8e3e b91c dbbc 3b19 573d
00000310: 9a5f 88bc 65ff 993c 7ee2 14bd 9224 8dbc
00000320: 9bbb 673e d037 90bd f3c4 a23d 88fb 00be
00000330: 3832 bdbc 5c8a 543b 7e8e ed3d c97b 9db8
00000340: bff4 96bb c41b 073d d8ef a13e a3d3 943e
00000350: 6dc1 d1bb a700 ddbc 16e9 953d 9c4a a93e
00000360: b0e9 3dbd fd0e d1bd 8191 fa3a c6d4 e03c
00000370: 91c8 a1bd 83a7 03bd c062 563d d5f4 5cbd
00000380: ce5b a83c b9d8 1ebe 1a49 903e 743f 7cbc
00000390: d25a 9bbd 96cb ed3d 9fd3 2a3d 7d2d 993e
000003a0: 325e 983e 9de6 a0bc f6c1 70ba 9b9f 723e
000003b0: 1030 f3bd 5d2c b13c 9a3e 3d3d 41e2 f33a
000003c0: 1a0b a53e 096c f23a e4aa e1bc 6592 41be
000003d0: 0c91 42bc 7b1b b7bd 603f 943d e676 903e
000003e0: a369 90bd 67bb 3c3e e148 e7bc 7027 373d
000003f0: 4c8a 2f3d 5c93 cd3d 1e1c 883e 72c6 6a3d
-0.008764638 -0.040671367 0.3270975 0.005524935 0.061921474 -0.002883144 -0.0070200176 0.1126853
0.06552941 -0.0745292 0.21987644 0.075961314 -0.06283236 -0.024629116 -0.027600342 -0.10707672
0.10536264 4.4359884e-05 -0.015767233 0.32607198 0.054494847 -0.012109987 0.04652165 -0.091846
0.026844291 0.0013757973 0.053074814 0.058999132 -0.0053443564 -0.034352913 0.045675624 -0.034980424
0.0032824776 -0.049102098 -0.113892786 -0.01293316 -0.014599744 -0.005357978 0.12651017 0.31050295
0.17873499 0.06633422 0.027899878 -0.09187366 0.09833692 0.03920194 -0.086713724 0.31646168
-0.007898465 0.1006779 0.09305177 0.09641601 0.13164428 -0.054982524 -0.14524579 0.016521703
0.12775488 -0.032707863 -0.07985367 -0.18562286 0.09499473 -0.07501044 -0.02921921 0.03652023
0.32333836 -0.024536293 -0.0063933018 0.097620904 -0.004704157 0.24992982 -0.04964016 0.05812594
0.057313353 -0.017114345 -0.07620899 -0.1650893 0.006595203 -0.014825515 0.0019716525 0.05530743
0.053612858 0.08586114 -0.02130113 0.03278972 0.052588575 0.06057359 -0.08517102 -0.07869268
-0.0008505397 0.05039212 -0.03245078 -0.05843453 -0.059163094 0.04871513 -0.032217696 -0.0028718433
0.075565375 -0.014890774 0.023486806 0.040006213 -0.1198956 0.07825126 -0.06389743 0.046248846
0.27349234 -0.10351871 0.059218783 0.04798561 0.1065467 0.10622366 -0.015793689 -0.011724156
0.07695638 0.09975168 0.043481983 -0.054855738 0.00039535377 0.10427711 0.024430772 0.10963656
0.10308592 -0.11780075 -0.012014678 -0.03562423 -0.0112114 0.29949158 -0.0839062 0.09605948
0.039039444 -0.023385948 -0.10573293 0.08470498 0.09306151 0.11396815 0.015660806 0.070994146
0.004251968 0.079524964 0.010147898 0.07865316 0.022994172 0.0009300983 -0.019185947 0.027724037
0.0018249723 0.071760535 0.00081897626 0.073527865 0.05713471 0.021522794 0.10514044 0.23122028
-0.021774136 0.0028115024 0.09494545 0.05455744 0.26470053 0.062083825 0.047360603 0.044270676
0.10483562 -0.040634695 0.08001314 -0.065306894 -0.029779062 0.042377923 0.0570068 -0.002948174
0.24026346 -0.02777726 -0.013636269 0.015512098 0.064855464 -0.021466184 -0.034748245 -0.035732992
-0.006289716 -0.005757751 -0.0015669854 -0.0054903035 0.001642651 0.042855773 -0.007821611 0.023220565
-0.0031536596 0.10147974 -0.031600885 -0.006315113 0.023753375 0.063397676 0.067332596 -0.018914701
0.205157 0.27867708 -0.026747094 0.052514296 -0.016647149 0.01879854 -0.036348812 -0.017229352
0.2263016 -0.070418954 0.07947721 -0.12595952 -0.023095235 0.0032431101 0.11599444 -7.5094e-05
-0.0046068127 0.032985464 0.316283 0.29067716 -0.006401232 -0.02697785 0.07319848 0.33064735
-0.04636544 -0.10207937 0.001911685 0.027445208 -0.07899583 -0.032142173 0.05234027 -0.053944428
0.020551588 -0.1551236 0.28180772 -0.015395988 -0.07585682 0.116110966 0.041705724 0.29917517
0.29759365 -0.019641215 -0.0009184176 0.23693697 -0.118744016 0.0216276 0.04620228 0.0018606858
0.32235032 0.0018495332 -0.027547307 -0.18903501 -0.011875402 -0.08940788 0.0723865 0.28215712
-0.070513986 0.18430863 -0.028232994 0.044715345 0.0428565 0.10037872 0.26583952 0.05731816
