gym_models_4/model_710.pth (torch, 518546 bytes, 11 tensors)

features_extractor.conv1.weight f4 [16, 4, 4]
0	0xbe226d5e	-0.15862033
1	0xbeae4276	-0.3403508
2	0xbe9dc203	-0.30812082
3	0xbdb74fdf	-0.08950781
4	0x3e2f6ef3	0.17132168
5	0x3caa60cf	0.020798115
6	0xbd3023ad	-0.043002773
7	0xbe3f1992	-0.18662098
8	0x3e9da454	0.30789435
9	0xbdb037f3	-0.086044215
10	0xbe1e49ef	-0.15457891
11	0x3e08e7fa	0.13369742
12	0x3e0d6a89	0.13810171
13	0x3e9bfbea	0.30465633
14	0xbc77de5f	-0.015128701
15	0x3e144264	0.14478451
16	0x3e10d0ce	0.14142153
17	0x3e8e5ad7	0.2780368
18	0xbd6b82f5	-0.057497937
19	0x3e9bde9b	0.30443272
20	0x3e692bf1	0.22770669
21	0x3d4f02d8	0.05053982
22	0xbdb612c1	-0.08890296
23	0xbd7c55b0	-0.061605155
24	0xbe4f21f5	-0.20227797
25	0xbd96ef2e	-0.07369839
26	0xbdfa9ae5	-0.12236575
27	0xbd8019b3	-0.06254902
28	0x3d53397c	0.051568493
29	0x3e079125	0.13238962
30	0x3da246eb	0.07923683
31	0x3e4b5fef	0.19860815
32	0x3d442a70	0.047892034
33	0xbdf18fd4	-0.11795011
34	0x3db99a50	0.09062636
35	0xbc97d700	-0.018535137
36	0xbe5600a0	-0.20898676
37	0xbdb21160	-0.0869472
38	0x3d79c8f0	0.060982645
39	0xbdfcd254	-0.123448044
40	0x3bb75f00	0.0055960417
41	0x3d8e6ca4	0.06954315
42	0x3db146b0	0.08656061
43	0xbe1d16a4	-0.15340668
44	0x3e129732	0.14315489
45	0x3ce22160	0.027603805
46	0xbe5daefe	-0.21648785
47	0x3dbeeed8	0.093228996
48	0x3e0f7f7b	0.14013474
49	0xbd73bc9c	-0.059506044
50	0x3dea2ad5	0.11433951
51	0x3e07961f	0.1324086
52	0xbe85d835	-0.26141515
53	0x3dd852d1	0.10562671
54	0x3e1a6f3d	0.15081497
55	0xbc164d78	-0.009173743
56	0x3dbd91ca	0.09256323
57	0x3cbf2e59	0.02333753
58	0x3d8fba20	0.070179224
59	0xbe3ef8d9	-0.18649615
60	0x3d1de049	0.038543973
61	0xbe3b9b99	-0.18321075
62	0x3e6c91c3	0.23102479
63	0xbe7b3e65	-0.2453552
64	0xbdd7f8f4	-0.10545531
65	0x3e0b199e	0.13583991
66	0xbe5c82aa	-0.2153422
67	0xbd3ec8d0	-0.04657823
68	0x3e61fe76	0.22069725
69	0x3e7daa3a	0.24771968
70	0xbe76ca12	-0.24100521
71	0x3e295a7a	0.1653842
72	0xbe2b4c42	-0.16728309
73	0xbd5871e0	-0.052842975
74	0x3dfc5588	0.12321001
75	0xbe4f3206	-0.20233926
76	0xbe0be96e	-0.13663265
77	0x3da01cac	0.07817969
78	0xbe154ee2	-0.14580873
79	0x3b4bcb80	0.0031096637
80	0xbe4bf92d	-0.19919272
81	0xbd945048	-0.07241875
82	0xbe2f4df7	-0.17119585
83	0xbdbae5c1	-0.09125853
84	0xbe096539	-0.1341752
85	0xba3a639d	-0.00071101804
86	0x3e17b172	0.14813784
87	0x3e887940	0.26655006
88	0x3cfafba2	0.030637566
89	0x3e4e0ff8	0.20123279
90	0xbdace14b	-0.08441409
91	0x3d97ff6d	0.074217655
92	0xbd6c4bc3	-0.05768944
93	0xbb50a7cd	-0.0031838298
94	0x3e50e67c	0.20400423
95	0x3d0310d3	0.031998467
96	0x3d82f4e8	0.063943684
97	0x3d15ea68	0.0366005
98	0x3e8a0d24	0.2696315
99	0x3e3c7a38	0.18405998
100	0x3c83cdf8	0.016089424
101	0x3e4a6788	0.19766057
102	0x3e53b230	0.20673442
103	0x3d14e5d0	0.03635198
104	0x3e1ebf14	0.15502578
105	0x3d0489a1	0.032357816
106	0xbc7ca0cf	-0.015419199
107	0xbe0f62c2	-0.14002517
108	0x3e09c8ea	0.13455549
109	0x3e141078	0.14459407
110	0x3e58da22	0.21176961
111	0xbd5f88de	-0.054573886
112	0xbd8e53bc	-0.06949565
113	0x3d242788	0.040076762
114	0x3dce0c04	0.100608855
115	0xbe7b35d2	-0.2453225
116	0xbe7e5f0e	-0.24840948
117	0x3a66a000	0.00087976456
118	0xbe542398	-0.20716703
119	0x3e2d32f8	0.16913974
120	0xbe0b5ecc	-0.13610381
121	0xbdb23d4c	-0.08703098
122	0x3e4cdd3a	0.20006266
123	0xbd0ccc40	-0.034374475
124	0x3e589652	0.21151093
125	0xbe735a3c	-0.2376489
126	0xbc1631c0	-0.009167135
127	0xbdcd6308	-0.10028654
128	0x3d31c957	0.043404903
129	0xbcb48dd1	-0.02204028
130	0x3e8a7c1d	0.27047816
131	0xbe25fced	-0.16209765
132	0x3e01abb4	0.12663156
133	0xbdc3050f	-0.09522449
134	0x3e115333	0.14191894
135	0x3e10a442	0.1412516
136	0x3dc520ac	0.09625372
137	0xbe2025ff	-0.15639494
138	0xbe0bad3e	-0.13640305
139	0xbc444052	-0.011978226
140	0x3d5bc5d1	0.05365545
141	0xbe5b9202	-0.21442416
142	0x3dfb3e6e	0.12267767
143	0x3e0aaf2d	0.13543387
144	0xbd4d23e2	-0.05008305
145	0xbdd4427a	-0.10364242
146	0x3caa7059	0.020805525
147	0xbe962fbb	-0.2933329
148	0x3d0c6cf5	0.034283597
149	0x3e88f9bb	0.2675303
150	0xbd8d81d5	-0.06909529
151	0x3e67ab0f	0.22623847
152	0xbceb8010	-0.028747588
153	0x3e56cf43	0.20977502
154	0xbd6748d7	-0.05646595
155	0xbdca2609	-0.09870536
156	0x3ca0722a	0.019585688
157	0xbd320409	-0.04346088
158	0xbdd85d0d	-0.10564623
159	0x3e0cbdff	0.13744353
160	0xbcb2187a	-0.021740187
161	0xbd20ab55	-0.039225895
162	0xbe88be49	-0.26707676
163	0xbd81ad14	-0.0633184
164	0x3e0c5701	0.13705064
165	0x3e7a2bf7	0.24430834
166	0x3c44ed79	0.0120195085
167	0xbdffdfce	-0.12493859
168	0x3e1d5205	0.15363319
169	0xbd8c6efa	-0.068571046
170	0x3e3dca90	0.18534303
171	0x3d9a0680	0.07520771
172	0x3e7d2720	0.24721956
173	0x3d6d0f7b	0.05787609
174	0xbc8880bd	-0.01666295
175	0xbd8a8361	-0.0676334
176	0xbe294a18	-0.16532171
177	0xbe172dae	-0.14763519
178	0xbe6c5212	-0.23078182
179	0x3cc767b0	0.024341434
180	0x3e34d1a8	0.17658103
181	0xbe0e1c08	-0.1387788
182	0x3e237af2	0.15964869
183	0x3e7be132	0.24597624
184	0xbdf2f7e0	-0.11863685
185	0xbe221408	-0.15827954
186	0xbc7d9400	-0.0154771805
187	0xbda34984	-0.07973006
188	0xbdf47cbc	-0.11937854
189	0x3e6ab89e	0.22921988
190	0xbe735d40	-0.23766041
191	0x3d8789b4	0.06618062
192	0x3e59175d	0.21200319
193	0x3e8e9277	0.2784612
194	0xbd61463e	-0.05499863
195	0x3ea231d4	0.3167864
196	0xbe0087f7	-0.12551866
197	0x3df2b08e	0.118500814
198	0x3dd5d477	0.10440915
199	0xbe08eb2c	-0.13370961
200	0xbe03097d	-0.12796588
201	0x3d8a27bc	0.0674586
202	0x3e297ec9	0.16552271
203	0x3e16dd00	0.14732742
204	0xbe620f9a	-0.22076264
205	0x3e66a0d2	0.22522286
206	0xbd15fd4c	-0.036618516
207	0xbd1b1350	-0.037860215
208	0x3e052634	0.13002855
209	0x3cea37b8	0.028591022
210	0x3e1c6455	0.15272649
211	0xbe6adcf2	-0.22935846
212	0xbe0b42a3	-0.13599639
213	0x3e461308	0.19343197
214	0x3e3a4a1a	0.1819233
215	0x3e824981	0.25446704
216	0xbd9e54ad	-0.077309944
217	0xbe6b46cc	-0.22976226
218	0xbdcd6cc0	-0.10030508
219	0xbd9280d9	-0.07153482
220	0x3e1b8ebb	0.15191166
221	0x3d936b1f	0.07198166
222	0xbe1dd4f2	-0.15413263
223	0xbd87d7c9	-0.066329546
224	0xbd7898dd	-0.060692657
225	0xbea35b22	-0.31905466
226	0x3c4ab000	0.012371063
227	0xbe98048c	-0.2969097
228	0xbda3724f	-0.07980787
229	0x3dd80587	0.10547929
230	0x3e7d71cb	0.2475044
231	0x3e52d2c5	0.20588215
232	0x3e2dea92	0.16984013
233	0xbe302ff8	-0.17205799
234	0x3d0fbed3	0.035094094
235	0xbd035373	-0.032062005
236	0x3e3dae6e	0.18523571
237	0x3e5bfde6	0.21483573
238	0xbd8a262e	-0.067455634
239	0xbd35b0ad	-0.044357944
240	0xbec85403	-0.39126596
241	0x3d828566	0.063731
242	0xbe8f7a7e	-0.28023142
243	0xbe469f5d	-0.1939673
244	0x3ccd4bbf	0.025060533
245	0x3e64fd0b	0.22362153
246	0x3e6c0ab5	0.2305096
247	0xbb1d8e4b	-0.0024041112
248	0x3c8981ac	0.016785465
249	0x3d82809d	0.06372187
250	0xbd5d6d64	-0.0540594
251	0x3da2b491	0.079445966
252	0x3e6d18d6	0.23154005
253	0xbd360b42	-0.04444433
254	0xbe3292f7	-0.17438875
255	0x3e2c39bb	0.16818897

features_extractor.conv1.bias f4 [16]
0	0x3e29e14f	0.16589855
1	0x3e30a6e7	0.17251168
2	0xbe774320	-0.241467
3	0x3d95abe0	0.07308173
4	0xbe57185a	-0.21005383
5	0xbe0f0581	-0.13966943
6	0x3d508de7	0.05091658
7	0xbd5936b8	-0.0530307
8	0xbe4bfa7d	-0.19919772
9	0x3e893441	0.2679768
10	0xbe43e0a9	-0.1912867
11	0xbe75b28c	-0.23993891
12	0x3e3a3ca3	0.18187194
13	0xbdca4e82	-0.098782554
14	0x3e4d9de9	0.20079769
15	0x3d221c71	0.039577905

features_extractor.conv2.weight f4 [32, 16, 4]
0	0xbb5264c6	-0.0032103523
1	0x3d049273	0.032366227
2	0x3c759cce	0.014990998
3	0xbd52dfad	-0.051482845
4	0xbdd5fe01	-0.10448838
5	0x3d6b077a	0.057380177
6	0xbdedf2be	-0.11618565
7	0xbd926891	-0.07148851
8	0x3d9becf2	0.07613553
9	0x3da68958	0.08131665
10	0xbd33bc1c	-0.043880567
11	0x3d8bd720	0.06828141
12	0xbd85935b	-0.065222465
13	0xbcc2f63c	-0.023799054
14	0xbde358a6	-0.11100893
15	0x3d80a5ac	0.062815994
16	0xbdd1a32c	-0.10236201
17	0xbce187c8	-0.027530566
18	0xbd81fb84	-0.06346801
19	0x3de8d190	0.11368096
20	0xbdec5c2c	-0.11541018
21	0xbd30b399	-0.043140028
22	0xbb1cfe15	-0.0023955156
23	0xbcfec92e	-0.03110179
24	0x3b44cb8e	0.0030028555
25	0x3db52dce	0.08846627
26	0xbe08345a	-0.1330122
27	0xbdd92ffc	-0.106048554
28	0xbdb091bc	-0.086215466
29	0xbdbf56be	-0.09342717
30	0xbdf565bc	-0.11982295
31	0x3cd99ba8	0.02656348
32	0xbbde23aa	-0.006779154
33	0x3d12c25d	0.03582989
34	0x3cbb61ee	0.022873845
35	0x3c4d3ff5	0.012527456
36	0x3c88f668	0.016719058
37	0x3db86449	0.09003503
38	0x3c76e34e	0.015068842
39	0x3dd7b746	0.105330035
40	0xbbc7af52	-0.006093898
41	0x3d5d6f26	0.054061078
42	0xbde2a8a8	-0.11067325
43	0xbd9ec3c9	-0.07752187
44	0x3cc60e28	0.024176672
45	0x3dbac67c	0.09119889
46	0x3d00f1bc	0.031480536
47	0xbdae5704	-0.08512691
48	0x3dea4a2f	0.11439931
49	0xbdb4e642	-0.08832981
50	0xbd5e7d5a	-0.054318763
51	0xbe03a8f8	-0.12857425
52	0xbde6a65e	-0.11262201
53	0x3de2d402	0.110755935
54	0xbb2b7400	-0.002616167
55	0x3d848476	0.064705774
56	0x3dcf875e	0.10133241
57	0xbd66a850	-0.05631286
58	0xbd57ef96	-0.05271872
59	0x3cabafbe	0.020957824
60	0xbd6cf68f	-0.057852324
61	0x3d833105	0.06405834
62	0xbcbe4c5a	-0.023229767
63	0xbdec4886	-0.1153727
64	0xbec97d5c	-0.39353454
65	0xbe94300c	-0.28942907
66	0xbe9ae144	-0.3024999
67	0xbeaf5c74	-0.34250224
68	0x3dac303d	0.08407638
69	0x3e120e44	0.14263254
70	0x3c3e69c4	0.011621896
71	0x3d9202a3	0.07129409
72	0x3df0e122	0.11761691
73	0xbb7dbcc0	-0.003871724
74	0xbc276cb0	-0.010218784
75	0xbdaa6160	-0.08319354
76	0x3d8d06b5	0.06886045
77	0xbd882b45	-0.06648878
78	0x3df60663	0.12012937
79	0x3d60af5e	0.054854743
80	0x3decd590	0.11564171
81	0x3caa5238	0.020791158
82	0xbdbbcd76	-0.09170048
83	0x3d2774a8	0.040882736
84	0xbe6a7ad9	-0.22898425
85	0xbd815fa2	-0.06317069
86	0xbea63429	-0.3246167
87	0xbeb39843	-0.35077104
88	0x3d90d3c3	0.0707164
89	0x3da024dd	0.07819531
90	0xbd6b263a	-0.057409503
91	0x3dd84f1b	0.10561963
92	0xbc247e30	-0.010039851
93	0xbccea188	-0.025223508
94	0xbdafea62	-0.08589627
95	0xbdc0991e	-0.09404205
96	0x3d505757	0.050864544
97	0x3d6003f2	0.054691263
98	0x3ddfbcd7	0.1092469
99	0x3d99a7f8	0.075027406
100	0xbea400d7	-0.3203189
101	0xbe45e846	-0.19326887
102	0xbe9d3c2d	-0.30709973
103	0xbe6143b3	-0.21998481
104	0xbdf8568e	-0.12125884
105	0xbbf9aeb6	-0.007619704
106	0xbe2f38bb	-0.17111485
107	0xbe3ed654	-0.18636447
108	0xbd3cd728	-0.046103626
109	0x3da25528	0.079263985
110	0xbd3d65b4	-0.04623957
111	0xbde8bdb8	-0.11364311
112	0xbc8869c4	-0.016651995
113	0x3dfbc6e5	0.122937955
114	0x3dbd6fe2	0.092498556
115	0x3ccf73a5	0.025323698
116	0xbf19cf3c	-0.6008184
117	0xbf07a7e0	-0.5299053
118	0xbf1b9a38	-0.60782194
119	0xbf10c06a	-0.565436
120	0xbdf57311	-0.11984838
121	0xbe2bb730	-0.16769099
122	0xbe5b63e5	-0.21424825
123	0xbe8ceb62	-0.27523333
124	0xbebf293f	-0.37336156
125	0xbf18402b	-0.5947291
126	0xbf0c0519	-0.5469528
127	0xbf06f02f	-0.5271024
128	0xbe5af6e9	-0.21383251
129	0xbe96f478	-0.2948339
130	0xbe896dcc	-0.2684158
131	0xbe987811	-0.29779103
132	0x3b7c3211	0.003848199
133	0x3ccd89a0	0.025090039
134	0xbb9d6f67	-0.00480454
135	0x3dcb80af	0.09936654
136	0x3ca22c80	0.01979661
137	0x3db896ac	0.090131134
138	0x3d8362ec	0.06415352
139	0xbdf9a568	-0.12189752
140	0xbd53b0d2	-0.0516823
141	0xbcf144e4	-0.029451795
142	0x3d05c0b9	0.032654498
143	0x3d7fbde6	0.06243696
144	0xbd4ce930	-0.050027072
145	0x3b8a54c0	0.004221529
146	0x3dfb2d98	0.12264556
147	0x3dbe92be	0.093053326
148	0xbe1bbd8f	-0.1520903
149	0xbe3bf48b	-0.18355004
150	0xbe7513ac	-0.23933285
151	0xbe5b85a5	-0.214377
152	0x3d69fb4d	0.057124425
153	0x3cdd42ab	0.027009329
154	0x3dc75f18	0.097349346
155	0x3c265756	0.010152658
156	0xbdd9e640	-0.1063962
157	0xbcec8e88	-0.028876558
158	0x3d6e9234	0.0582449
159	0x3ceecee0	0.02915138
160	0x3c7fec7c	0.015620347
161	0xbdd97279	-0.10617537
162	0x3dba7766	0.09104805
163	0x3da30ca6	0.07961397
164	0xbde7e927	-0.11323767
165	0xbe274c11	-0.16337611
166	0xbe965ea7	-0.2936909
167	0xbe7aa998	-0.24478757
168	0x3bb9d1dd	0.0056707696
169	0xbd27717f	-0.040879723
170	0xbcabcadd	-0.020970756
171	0xbd25c264	-0.04046859
172	0x3cc64f10	0.024207622
173	0x3da4b110	0.080415845
174	0xbc29dab0	-0.010367081
175	0x3d9f167a	0.07767959
176	0x3d8c0de1	0.06838585
177	0xbced8955	-0.02899615
178	0x3e1b1571	0.15144898
179	0xbc73ae1f	-0.014873057
180	0xbf335860	-0.70056725
181	0xbf3a53f4	-0.7278435
182	0xbf1e2b97	-0.6178526
183	0xbf03dd58	-0.5150962
184	0xbce34f13	-0.027747666
185	0xbd8742f4	-0.06604567
186	0xbe16cc6d	-0.1472642
187	0xbe44e2be	-0.1922712
188	0xbf205fef	-0.62646383
189	0xbf233ac9	-0.63761574
190	0xbf354d65	-0.7082122
191	0xbf1be0c0	-0.60889816
192	0x3e6d8425	0.2319494
193	0x3e5914ee	0.2119939
194	0x3e86c236	0.26320046
195	0x3e1f06fb	0.15530007
196	0x3dd5550f	0.10416614
197	0x3c923b60	0.017850578
198	0x3d01c99a	0.031686403
199	0xbd96c636	-0.073620245
200	0xbdd6860e	-0.10474788
201	0xbdd77d5c	-0.10521957
202	0x3dcada9e	0.09904979
203	0xbdd8a8f6	-0.10579102
204	0xbdcfa897	-0.10139578
205	0xbdd4c926	-0.103899285
206	0xbd80cc5b	-0.06288978
207	0xbd5ac549	-0.053410802
208	0xbdea1c24	-0.11431149
209	0xbc410a50	-0.011782244
210	0x3d9bfba2	0.076163545
211	0x3df3f188	0.11911303
212	0x3e096d8c	0.13420695
213	0x3d4af96c	0.049554273
214	0x3db58de3	0.08864953
215	0x3e0195df	0.12654828
216	0x3e0f8c4c	0.14018363
217	0xbda236be	-0.079205975
218	0xbace4c7b	-0.0015739346
219	0x3df98693	0.12183871
220	0xbd2b27b4	-0.04178591
221	0xbc812490	-0.015764505
222	0xbd95bf92	-0.0731193
223	0x3dd89d6a	0.10576899
224	0x3d239b7a	0.039943196
225	0x3e0beab1	0.13663746
226	0x3e078b9d	0.13236852
227	0x3d942dc3	0.07235291
228	0x3e66f7f8	0.2255553
229	0x3d8d3ed2	0.06896748
230	0x3e747d08	0.2387582
231	0x3e528849	0.20559801
232	0x3d13b71c	0.0360633
233	0x3e421511	0.18953349
234	0x3df86dad	0.12130294
235	0x3d948d71	0.0725354
236	0x3c8537b8	0.01626192
237	0xbc8bda18	-0.017071769
238	0x3dfbc11e	0.122926936
239	0xbde04844	-0.109512836
240	0xbd1385ea	-0.036016382
241	0xbddd5779	-0.108077
242	0x3d83e3e7	0.06439953
243	0xbd81337c	-0.06308648
244	0x3f1c5714	0.6107037
245	0x3ef35a42	0.475298
246	0x3e8f4b05	0.27986923
247	0x3e6b8294	0.2299903
248	0x3caea59b	0.021319201
249	0x3e54a2a1	0.20765163
250	0x3e699b33	0.2281311
251	0x3e6748b4	0.22586328
252	0x3de592c7	0.11209636
253	0x3eb0728d	0.34462395
254	0x3e929237	0.28627178
255	0x3e8487f4	0.25884974

features_extractor.conv2.bias f4 [32]
0	0xbc5db2d7	-0.013531408
1	0xbcf553c6	-0.029947173
2	0x3d188567	0.037236597
3	0xbd8605f7	-0.065441065
4	0xbdea024a	-0.11426218
5	0x3d874a9a	0.06606026
6	0x3e26ef7a	0.1630229
7	0xbd618d63	-0.055066478
8	0x3cdbd758	0.026836082
9	0x3d6afad7	0.057368126
10	0x3c77e868	0.015131094
11	0x3e012cc5	0.12614734
12	0x3e0794d6	0.1324037
13	0xbd9a349a	-0.07529564
14	0xbdf63a7e	-0.12022875
15	0xbda3d686	-0.079999015
16	0xbdb064b0	-0.086129546
17	0x3d2c3559	0.042043064
18	0xbd6ad06b	-0.05732767
19	0xbddd16ed	-0.10795388
20	0xbbb0ea79	-0.005399045
21	0xbddaaf4c	-0.106779665
22	0xbd8135ef	-0.06309115
23	0xbdc04e56	-0.093899414
24	0xbd36f6e4	-0.044669047
25	0xbd91b755	-0.07115046
26	0x3da54d4a	0.08071382
27	0xbd84ec08	-0.06490332
28	0x3dca5d4d	0.09881077
29	0xbdc0e7f8	-0.094192445
30	0xbe03717f	-0.12836264
31	0xbda36bd4	-0.07979551

features_extractor.fc_op.weight f4 [32, 3]
0	0xbe295a06	-0.16538247
1	0x3e106c2c	0.14103764
2	0xbe9d230f	-0.3069081
3	0xbd710c21	-0.058849458
4	0xbcbfba4d	-0.023404265
5	0xbf142838	-0.5787387
6	0xbe43823f	-0.19092654
7	0x3e8fb1c6	0.28065318
8	0x3e32f86c	0.17477578
9	0xbe4a0b54	-0.19730884
10	0x3e8750b7	0.26428768
11	0xbecc2a09	-0.3987582
12	0xbed7d600	-0.42155457
13	0xbeedbaf3	-0.46431693
14	0x3e44931e	0.19196746
15	0xbedc53b6	-0.43032616
16	0xbee20cf0	-0.44150496
17	0x3e66642a	0.22499147
18	0xbe695292	-0.22785404
19	0xbf02f625	-0.51156837
20	0x3ed5cc25	0.41757312
21	0xbef1ba75	-0.47212568
22	0xbd370346	-0.044680856
23	0x3e7dc410	0.24781823
24	0xbbf519c9	-0.0074798805
25	0xbe3f7973	-0.18698673
26	0xbf06b987	-0.5262684
27	0xbee67c6a	-0.45016795
28	0x3eb666db	0.35625347
29	0xbe503a1b	-0.20334665
30	0xbdd04f04	-0.10171321
31	0x3c19e88e	0.009393824
32	0x3edd7520	0.43253422
33	0xba6929c5	-0.0008894469
34	0xbec688c8	-0.3877623
35	0x3f0f27c6	0.55920064
36	0xbdbbe4c9	-0.09174497
37	0xbe9a88df	-0.3018255
38	0xbc39ba77	-0.011335961
39	0xba8ce354	-0.0010748901
40	0x3d0e0108	0.034668952
41	0xbecc7af3	-0.39937553
42	0x3ebc91ba	0.3682993
43	0x3e84da1e	0.2594766
44	0xbf2f5024	-0.6848166
45	0x3e341afe	0.17588422
46	0xbebd7d2b	-0.37009558
47	0x3e1e66ad	0.15468855
48	0xbefbc438	-0.4917314
49	0xbf01cc64	-0.507025
50	0x3ed78873	0.4209629
51	0x3efe9771	0.49724916
52	0xbe1e6f2c	-0.15472096
53	0xbea00447	-0.31253263
54	0x3e781353	0.24226122
55	0xbea65749	-0.32488468
56	0x3e530376	0.20606789
57	0xbebad240	-0.36488533
58	0x3e5ebbb9	0.21751298
59	0xbf0d8b15	-0.5529035
60	0x3e306a73	0.17228107
61	0xbe44701d	-0.19183393
62	0x3de2d721	0.11076189
63	0x3dc1bb26	0.09459524
64	0xbdcffd10	-0.1015569
65	0x3de6357e	0.112406716
66	0xbef29a2d	-0.47383252
67	0xbeef6108	-0.46753716
68	0xbf23dbf4	-0.64007497
69	0xbed2627c	-0.41090763
70	0x3e9e2313	0.30886135
71	0x3d32ad6b	0.043622416
72	0x3e629646	0.22127637
73	0x3e124ee8	0.14287913
74	0xbd661f56	-0.056182228
75	0xbce46f3b	-0.02788507
76	0xbdaf7666	-0.085675046
77	0x3e2ff157	0.17181908
78	0x3e3945af	0.18092988
79	0xbed0f810	-0.40814257
80	0x3e429402	0.19001773
81	0xbe50f5e7	-0.20406304
82	0x3eafff5d	0.34374514
83	0xbee05b9e	-0.43819898
84	0x3e5b3c98	0.21409833
85	0x3e7d3390	0.24726701
86	0x3f19abc6	0.6002773
87	0xbe6321e2	-0.22180894
88	0xbe8b9dd4	-0.2726885
89	0xbd98311c	-0.07431242
90	0xbe846455	-0.25857797
91	0x3cc42f0c	0.023948215
92	0xbeafb80d	-0.34320107
93	0x3de07a47	0.109608226
94	0xbdec72ca	-0.11545332
95	0x3e0d70f2	0.13812616

features_extractor.fc_op.bias f4 [32]
0	0xbe2c9447	-0.16853438
1	0x3f10c61b	0.56552285
2	0x3df0a52d	0.11750255
3	0xbea99915	-0.33124605
4	0x3eee72fd	0.46572104
5	0x3ece753a	0.40323812
6	0xbefd3423	-0.4945384
7	0xbcf3ee25	-0.029776642
8	0x3f20cc77	0.6281199
9	0xbebbb305	-0.3666002
10	0x3eabb7af	0.33538577
11	0x3f1a53f9	0.6028438
12	0x3e6be503	0.2303658
13	0x3e083e86	0.13305101
14	0xbe04dc06	-0.12974557
15	0xbe7b3c70	-0.24534774
16	0xbda4a312	-0.08038916
17	0x3e6a933d	0.2290773
18	0x3e45a30a	0.19300476
19	0xbdd39863	-0.103318
20	0xbf2330f6	-0.63746583
21	0xbef54dab	-0.47910818
22	0x3e06d5bc	0.1316747
23	0x3ebf4b59	0.37362173
24	0x3ed3605d	0.41284457
25	0xbf195ef3	-0.59910506
26	0xbebeceb6	-0.37267083
27	0xbee6de35	-0.45091406
28	0x3c782a84	0.015146855
29	0xbf19664f	-0.59921736
30	0x3f004eb4	0.5012009
31	0xbf1398a9	-0.57654816

features_extractor.fc_merge.weight f4 [352, 352]
0	0xbd343282	-0.04399348
1	0xbb81f888	-0.003966395
2	0x3bf9cfcb	0.007623648
3	0xbd149210	-0.03627211
4	0xbd182bdd	-0.037151206
5	0xbd177b14	-0.03698261
6	0x3ba23c9f	0.0049510743
7	0x3ce8a6a6	0.028399777
8	0xbd450156	-0.048096977
9	0xbccde0df	-0.025131641
10	0xbc20750f	-0.009793534
11	0xbc7ce909	-0.015436419
12	0x3d010ba1	0.03150523
13	0x3b813f2c	0.0039442983
14	0x3c0dfa65	0.008665656
15	0xbd226566	-0.039647482
16	0xbce76b1d	-0.028249318
17	0xbd4bda4c	-0.04976873
18	0xbc1d985e	-0.009618847
19	0xbd1f5dea	-0.038907923
20	0xbd82f20c	-0.06393823
21	0xbc40c1c5	-0.011764948
22	0xbd67fd75	-0.0566382
23	0xbc081863	-0.0083065955
24	0x3cfa2694	0.030535974
25	0xbd63f13f	-0.055649992
26	0xbd46a51e	-0.04849731
27	0x3d24b639	0.040212844
28	0x3d02a51d	0.031895746
29	0xbd10b94f	-0.035332974
30	0xbd2a4709	-0.04157165
31	0xbc7c474c	-0.015397858
32	0xbcea74e4	-0.02862019
33	0x3d0ef798	0.034904093
34	0xbd6225bd	-0.05521177
35	0xbbf1cfd6	-0.0073795123
36	0xbca8634b	-0.02055516
37	0xbd63a452	-0.05557663
38	0xbd170f51	-0.03687984
39	0xbc4b5989	-0.012411484
40	0xbd4ee2d4	-0.05050929
41	0xbc09ccb9	-0.008410626
42	0xbcd6e19c	-0.026230626
43	0x3cd67322	0.026177946
44	0x3d2d08de	0.042244785
45	0xbb7316a0	-0.0037092343
46	0xbb3d5639	-0.0028890504
47	0x3c0f9cce	0.0087654125
48	0xbc9650b4	-0.01834903
49	0xbc2141ab	-0.009842317
50	0x3b4cda5e	0.0031258087
51	0x3d324d00	0.043530464
52	0x3c87d170	0.01657936
53	0x3b9de5f3	0.004818672
54	0x3ced5a83	0.028973823
55	0xbd3253c5	-0.04353692
56	0x3d499928	0.049218327
57	0xbd1dd785	-0.038535614
58	0x3cd41bb4	0.025892116
59	0x3ca99a57	0.020703478
60	0xbc7bea7f	-0.015375732
61	0xbd8e35ae	-0.06943832
62	0x3ca23bf2	0.019803975
63	0xbd4f78b8	-0.050652236
64	0xbd015f17	-0.031584825
65	0xbc9eb8e7	-0.019375278
66	0xbd4d3cd0	-0.050106823
67	0xbd163b0e	-0.036677413
68	0x3c6048a5	0.013689195
69	0xbc8984c8	-0.016786948
70	0xbd159f84	-0.03652908
71	0xbd1dcbdc	-0.038524494
72	0x3cf1dca8	0.029524162
73	0xbcfb5ff7	-0.030685408
74	0xbcec010c	-0.028809093
75	0xbd76e84d	-0.060280133
76	0xbc827f39	-0.015929805
77	0x3c9d7c6b	0.019224366
78	0xbd00358d	-0.03130107
79	0x3c2f2dce	0.010692073
80	0xbce906c6	-0.028445613
81	0xbb978076	-0.004623468
82	0x3d3a2d30	0.04545325
83	0xbcaaab21	-0.020833554
84	0x3d290623	0.041265618
85	0xbce5c1a1	-0.028046431
86	0xbd11793e	-0.035516016
87	0x3d114849	0.035469327
88	0xbd15c0f1	-0.036560956
89	0x3bd4b1c2	0.006490917
90	0xbd04b9f6	-0.03240391
91	0xbd15ab67	-0.036540415
92	0x3ca5c24c	0.02023425
93	0x3cf6e2a2	0.030137364
94	0xbc2c89d2	-0.010530906
95	0xbcdf93d9	-0.027292179
96	0x3bfc2a3a	0.0076954635
97	0x3cfafeb7	0.030639036
98	0x3d006d31	0.031354133
99	0xbd05578e	-0.0325542
100	0xbd25f0fe	-0.04051303
101	0xbbd9b3b6	-0.0066437377
102	0x3d077d39	0.033078406
103	0xbca73a0e	-0.020413425
104	0x3d1dc0a5	0.0385138
105	0xbc291c40	-0.010321677
106	0x3d09d1fb	0.03364752
107	0x3c5e27a8	0.0135592595
108	0xbb74d7e6	-0.003736013
109	0xbb5ce162	-0.0033703675
110	0x3cd0c065	0.025482366
111	0x3ccbda29	0.0248843
112	0xbd83c270	-0.064335704
113	0x3d056486	0.03256657
114	0xbc508ae8	-0.01272843
115	0x3cc0727c	0.02349209
116	0xbc38a758	-0.011270367
117	0xbccdeea1	-0.025138201
118	0xbd730f55	-0.059340794
119	0x3cebd3e8	0.028787568
120	0x3ca315ad	0.019907797
121	0x3b08ea84	0.0020891735
122	0x3c8d87e9	0.017276721
123	0xbd448e86	-0.047987483
124	0xbc752b0a	-0.014963875
125	0x3d05936a	0.032611288
126	0xbd7cd73f	-0.061728712
127	0x3cd72a23	0.02626521
128	0x3ce787a4	0.02826292
129	0x3ccddadd	0.025128776
130	0xbcb4814c	-0.02203431
131	0xbd13c634	-0.036077693
132	0xbcd017d3	-0.025401985
133	0xbd21e267	-0.039522555
134	0x3b55ba8e	0.0032612416
135	0xbc8d8c8e	-0.017278936
136	0x3d4adc6e	0.049526624
137	0x3d473d9b	0.048642736
138	0x3d2a6443	0.041599523
139	0xbcdca3e1	-0.026933612
140	0x3c1d173a	0.009588057
141	0xbc23a37d	-0.009987709
142	0xbcb29275	-0.021798352
143	0x3d089d81	0.033353332
144	0xbce03002	-0.027366642
145	0x3cae4155	0.021271387
146	0xbcd8aae9	-0.026448684
147	0xbce60f53	-0.028083479
148	0xbc2bef3c	-0.01049405
149	0xbd56b6b6	-0.05242034
150	0xbbe4e9f3	-0.0069858967
151	0x3d3891bb	0.045060854
152	0x3cab1a2e	0.020886507
153	0xbd2420dd	-0.040070403
154	0xbcc8ad6e	-0.02449676
155	0x3d1685ae	0.03674858
156	0x3d11d42c	0.035602733
157	0xbc8f7839	-0.017513381
158	0xbc39ed16	-0.01134803
159	0xbd15ef57	-0.036605205
160	0x3d436817	0.04770669
161	0xbd31edf2	-0.043439813
162	0xbc06d1eb	-0.008228759
163	0x3caa7c6a	0.020811278
164	0x3c9a1714	0.018809833
165	0xbc7d7833	-0.015470552
166	0xbcc64aaa	-0.024205524
167	0xbcda35ab	-0.026636919
168	0x3d21d9d2	0.03951437
169	0xbce2971e	-0.027659949
170	0xbd7798c9	-0.06044844
171	0x3cc77791	0.024349006
172	0xbcd214f5	-0.025644759
173	0xbd35668f	-0.04428726
174	0x39cc35b6	0.0003894993
175	0x3cc694c8	0.024240866
176	0xbc694e5d	-0.014239875
177	0xbd0566a2	-0.03256858
178	0xbc246880	-0.01003468
179	0x3c915eaa	0.017745335
180	0xbce5955d	-0.028025324
181	0xbbd946b3	-0.0066307425
182	0x3b856d83	0.0040718927
183	0xbc8c34a6	-0.017114948
184	0xbd585492	-0.052815028
185	0xbd54a81a	-0.051918127
186	0xbd2db2d8	-0.042406887
187	0xbbf19f55	-0.00737373
188	0xbbf1cfeb	-0.007379522
189	0xbd485cd5	-0.048916657
190	0xbcb1957d	-0.021677727
191	0xbd6f59d4	-0.058435276
192	0x3cd6a881	0.026203396
193	0xbca4db8d	-0.020124221
194	0xbc96b71e	-0.018397864
195	0xbc14df0f	-0.009086384
196	0xbb1e1796	-0.0024122945
197	0xbd553cca	-0.052059926
198	0x3cf17691	0.029475482
199	0xb9e23e45	-0.00043152474
200	0xbd685579	-0.056722138
201	0xbd237388	-0.0399051
202	0xbd1dad4d	-0.03849535
203	0x3cb97855	0.022640387
204	0xbca43d15	-0.020048657
205	0xbd3443c1	-0.044009928
206	0x3b9eb6e9	0.004843582
207	0x3c85687e	0.016285177
208	0x3cb8cb00	0.022557735
209	0xbd106f3b	-0.035262328
210	0x3ce94388	0.028474584
211	0xbc0153d1	-0.007893519
212	0xbd5ea9dc	-0.05436121
213	0xbbd412b4	-0.006471956
214	0xbca4834f	-0.020082144
215	0xbd5ba4be	-0.053623907
216	0x3ce47f41	0.02789271
217	0xbd6d04fd	-0.057866085
218	0x3c13466f	0.008988961
219	0xbd260541	-0.040532354
220	0xbd0beeba	-0.034163214
221	0x3cb1a49e	0.02168494
222	0xbcea7de3	-0.02862448
223	0xbd704f0f	-0.058669146
224	0xbcf5f99e	-0.030026253
225	0xbd6af3e7	-0.05736151
226	0xbcf29653	-0.029612696
227	0x3b69bc30	0.0035665147
228	0x3aa5c228	0.0012646364
229	0x3d00cddd	0.031446327
230	0xbca773bf	-0.020440934
231	0xbc4a9fe6	-0.012367224
232	0x3ce58037	0.02801524
233	0x3d1ba14e	0.03799563
234	0xbcc1ce70	-0.023658007
235	0xbb8240ab	-0.003974994
236	0x3caea0b7	0.02131687
237	0xbd79fbba	-0.06103108
238	0xbd3850e8	-0.044999033
239	0xbd371640	-0.044698954
240	0xbd430b3c	-0.047618136
241	0x3d309da5	0.04311909
242	0xbce562ce	-0.028001215
243	0x3cf73f97	0.03018169
244	0x3d1c731d	0.038195718
245	0xbc9e9cf8	-0.019361958
246	0x3cbd243a	0.023088563
247	0x3d0eb73f	0.034842726
248	0x3c642486	0.0139247235
249	0x3d282d6a	0.041058935
250	0x3cb66e12	0.022269282
251	0x3d517968	0.051141173
252	0x3d10561c	0.03523837
253	0x3d1b0108	0.03784278
254	0x3d38835c	0.04504715
255	0xbd1e28ca	-0.03861312

features_extractor.fc_merge.bias f4 [352]
0	0x3b2dece1	0.0026538896
1	0x3ce89d19	0.028395222
2	0x3c06664f	0.008203103
3	0xbcf5a141	-0.029984118
4	0xbd0a013c	-0.033692583
5	0xbd1b9383	-0.037982475
6	0xbdeb0ff4	-0.11477652
7	0xbd0e6247	-0.034761693
8	0x3d0340e9	0.032044325
9	0x3da2ff94	0.07958904
10	0xbd70be5f	-0.058775302
11	0x3d26a9ef	0.040689405
12	0xbdbe045d	-0.09278176
13	0xbdb1697e	-0.08662699
14	0xbde117eb	-0.1099089
15	0x3d55ffaf	0.052245792
16	0xbd021bab	-0.031764667
17	0xbccd9ad1	-0.025098236
18	0xbc224d8b	-0.009906183
19	0xbd7d58fc	-0.06185244
20	0xbc11c965	-0.008898114
21	0x3d21f0a5	0.039536137
22	0xbb6044a0	-0.0034220591
23	0x3da04375	0.078253664
24	0x3c9d6473	0.019212937
25	0x3d0b026a	0.03393785
26	0x3d042182	0.032258518
27	0xbd800c4e	-0.06252347
28	0xbc00be98	-0.007857941
29	0xbb0fecdb	-0.0021961245
30	0xbbe3082f	-0.006928466
31	0x3a9c141e	0.0011907851
32	0xba98cc85	-0.0011657631
33	0xbc78a402	-0.015175821
34	0x3d0647a9	0.032783184
35	0xbd9aeb19	-0.075643726
36	0x3cb887e2	0.022525731
37	0x3c250f29	0.010074415
38	0x3c954e0a	0.018225688
39	0xbcb3255e	-0.021868404
40	0xbd9a6ae6	-0.075399205
41	0xbd82883c	-0.06373641
42	0xbd73278c	-0.059363887
43	0x3dd6e31f	0.10492539
44	0x3d6291e4	0.055314913
45	0x3c5295dd	0.012853113
46	0x3d3390ff	0.04383945
47	0x3ca1dfbc	0.019760005
48	0x3cbc61e8	0.022995904
49	0x3c930093	0.01794461
50	0xbcd90538	-0.026491746
51	0xbd033760	-0.03203523
52	0xbb50322a	-0.0031768181
53	0x3d9e0bc6	0.07717089
54	0x3af0dfde	0.0018377264
55	0xbd3cd2e8	-0.046099573
56	0xbcced3f1	-0.025247546
57	0xbb4a4fa5	-0.0030870226
58	0x3d30c663	0.043157946
59	0x3d8613c0	0.06546736
60	0x3cf4d81e	0.029888209
61	0x3ccd7ae9	0.025083022
62	0x3d08408a	0.033264674
63	0x3b8f0478	0.0043645464
64	0xbceb64b8	-0.02873455
65	0xbd917fd3	-0.07104459
66	0x3d094de0	0.033521533
67	0x3cdcce19	0.026953744
68	0xbd7187bd	-0.05896734
69	0xbd5c1db3	-0.05373926
70	0x3b033d25	0.0020025459
71	0x3c6bad54	0.014384586
72	0x3cece704	0.02891875
73	0xbc6bf228	-0.014400996
74	0x3c8bf152	0.017082844
75	0x3c88d620	0.016703665
76	0xbd54d17a	-0.051957585
77	0x3d29f154	0.041489914
78	0xbd11a009	-0.035553012
79	0xbc7006ee	-0.01465009
80	0xbd059986	-0.032617114
81	0xb9e5b75f	-0.00043814906
82	0xbdb6d1f9	-0.08926768
83	0x3c201fe4	0.009773228
84	0xbd042302	-0.03225995
85	0xbd7dd450	-0.061970055
86	0x3d680485	0.056644935
87	0x3d7d6e82	0.061872967
88	0xbcb168f0	-0.021656483
89	0xbca80590	-0.020510465
90	0x3d4e6d60	0.050397277
91	0x3d4a3b6c	0.049373075
92	0xbc996d3c	-0.018728845
93	0x3c71d57e	0.014760373
94	0xbc377cd7	-0.011199198
95	0xbcb43a6c	-0.022000514
96	0xbcb28c8b	-0.021795532
97	0xbb97d84e	-0.00463394
98	0x3c3a553b	0.01137286
99	0xbd783dd3	-0.060605835
100	0x3da56515	0.080759205
101	0xbd59c806	-0.053169273
102	0xbdb2489d	-0.08705256
103	0x3b61f685	0.0034479212
104	0xbd570a18	-0.05249986
105	0x3d5289a9	0.051400814
106	0xba8859ca	-0.0010402736
107	0xbc995993	-0.01871947
108	0xbbd43266	-0.0064757345
109	0xbd41af69	-0.047286425
110	0xbd879cd3	-0.06621709
111	0x3b9e939b	0.0048393733
112	0x3ca7b499	0.020471858
113	0xbca608bd	-0.020267839
114	0x3be2cb4a	0.0069212066
115	0x3d033b06	0.03203871
116	0xbd1faf98	-0.03898582
117	0xbce57812	-0.028011356
118	0x3b0f9201	0.0021907093
119	0xbd557ec8	-0.05212286
120	0xba30a415	-0.00067383173
121	0x3de707b7	0.11280768
122	0xbd3b3c35	-0.045711715
123	0x3c60b19e	0.013714222
124	0x3b241225	0.002503523
125	0xbd1efa10	-0.038812697
126	0x3d6f991d	0.05849563
127	0x3d185f96	0.037200533
128	0xbc076064	-0.008262727
129	0xbbca5379	-0.0061745015
130	0x3c11d939	0.008901888
131	0x3cd2ed41	0.025747897
132	0xbbb664d2	-0.005566218
133	0x3d10e2a3	0.035372388
134	0xbe1b8575	-0.15187629
135	0x3c01183f	0.007879316
136	0xbd7c0933	-0.06153221
137	0x3b95a16b	0.0045663617
138	0xbde1e2a0	-0.110295534
139	0xbcc7a259	-0.024369406
140	0xbd433839	-0.04766104
141	0xbd57873b	-0.0526192
142	0xbdb14c7b	-0.086571656
143	0xbc8417b3	-0.016124582
144	0x3a7350ed	0.0009281773
145	0xbd54619d	-0.051850904
146	0xbd5384f6	-0.051640473
147	0xba937a75	-0.0011251705
148	0xbc1b0e4b	-0.009463857
149	0xbd24e56a	-0.04025785
150	0xbd6ecb13	-0.058299135
151	0x3b01e804	0.001982213
152	0xbd0bfefe	-0.034178726
153	0xbc4091ba	-0.011753494
154	0x3c846eef	0.016166179
155	0x393fa2c7	0.00018275819
156	0xbc8b73e6	-0.017023038
157	0x3c83ce8d	0.016089702
158	0xbd835edf	-0.064145796
159	0xbb276033	-0.0025539517
160	0x3d012a21	0.031534318
161	0xbd5dfd33	-0.054196548
162	0x3c9ea4d7	0.019365711
163	0x3ca0c7d3	0.019626534
164	0xbda633f5	-0.08115379
165	0x3c81f0bf	0.015861867
166	0xbd5d906c	-0.05409281
167	0x3c96f298	0.018426225
168	0xbd89ac60	-0.06722331
169	0xbca15c12	-0.019697223
170	0xbd3067b2	-0.04306764
171	0x3b690a46	0.0035559102
172	0xbd6fc621	-0.05853856
173	0xbdca7ef0	-0.09887493
174	0xbcb6a70e	-0.022296455
175	0x3cb0ff92	0.02160624
176	0xbd2bd013	-0.041946482
177	0xbd105be6	-0.03524389
178	0xbc4c1d3e	-0.012458144
179	0xbbb50576	-0.0055243326
180	0xbcb7c7be	-0.022434112
181	0xbd01b013	-0.031662058
182	0xbd728c18	-0.059215635
183	0xbbb6dee3	-0.0055807694
184	0x3b6fbf5d	0.0036582567
185	0x3cb9476b	0.022617063
186	0xbcd1bc96	-0.02560262
187	0xbd3d07bf	-0.046149965
188	0x3c4604d1	0.012086109
189	0xbd2e8b34	-0.042613223
190	0xbbc17dcc	-0.0059048887
191	0xbd01966b	-0.03163759
192	0xbd0e904d	-0.034805585
193	0x3bf431c8	0.0074522234
194	0xbd0ebefd	-0.03485011
195	0xbcb12a0f	-0.0216265
196	0xbc221c47	-0.009894437
197	0xbb82498b	-0.003976052
198	0x3adb0fcc	0.0016713082
199	0xbbfbf147	-0.0076886746
200	0xbc5218cd	-0.012823296
201	0xbbbb7aba	-0.0057214173
202	0xbd69e96c	-0.057107374
203	0x3d1f1507	0.038838413
204	0x3daba284	0.08380607
205	0xbc2e4f8f	-0.010639085
206	0xbd48c984	-0.049020305
207	0xbd2e8b26	-0.04261317
208	0xbc7d351a	-0.015454555
209	0x3ca3f212	0.020012889
210	0xbbe18d93	-0.006883332
211	0x3cdd6fe3	0.02703089
212	0x3d07d91a	0.03316603
213	0x3dff3351	0.1246096
214	0xbd1b343d	-0.037891615
215	0xbca09f7a	-0.019607294
216	0x3c12c8f5	0.008959045
217	0x3db26f4d	0.08712635
218	0xbda376cf	-0.07981645
219	0x3c926bf0	0.017873734
220	0x3da782be	0.08179234
221	0xbdc81a59	-0.097706504
222	0xbd35caf7	-0.044383015
223	0x3daec53e	0.08533715
224	0x3c16807d	0.009185907
225	0x3e345e60	0.17614126
226	0x3ce27437	0.027643306
227	0xbdb291ab	-0.0871919
228	0x3c89d6d2	0.016826067
229	0xbc35feb6	-0.011108091
230	0x3bbbce16	0.0057313545
231	0xbc12cd28	-0.008960046
232	0xbd6e4e07	-0.05817988
233	0xbd7aba09	-0.061212573
234	0xbce15c7d	-0.027509922
235	0xbd4cce17	-0.05000123
236	0x3d8a0878	0.067398965
237	0x3a423d43	0.00074096414
238	0x3c620a45	0.013796394
239	0xbc768a42	-0.015047612
240	0xbd607591	-0.05479962
241	0xbdb51213	-0.08841338
242	0xbd3ff4c1	-0.046864275
243	0x3de6866e	0.11256109
244	0xbd83da80	-0.0643816
245	0x3d9154b9	0.07096238
246	0x3ced0b42	0.028936032
247	0x3bc7ca63	0.0060971244
248	0x3cba0baa	0.02271064
249	0xbd004f61	-0.0313257
250	0xbd4e8095	-0.050415594
251	0xbd1be263	-0.038057696
252	0x3c6eb1fe	0.014568804
253	0xbd7ef0a6	-0.06224122
254	0x3b81bbcf	0.003959156
255	0x3c9c7feb	0.019103965

actor.weight f4 [4, 352]
0	0xbd1d2c2d	-0.038372207
1	0xbc80fbd3	-0.01574508
2	0xbd31801e	-0.043335073
3	0xbd249708	-0.040183097
4	0xbc82e60a	-0.015978832
5	0x3c05a470	0.008156881
6	0x3cb7186a	0.022350509
7	0x3d335043	0.043777715
8	0xbd0efe4c	-0.034910485
9	0x3d171521	0.036885384
10	0x3d328d2e	0.04359167
11	0x3c7c77e9	0.015409448
12	0xbb3267dd	-0.0027222552
13	0x3d97df24	0.074156076
14	0x3da1d0b3	0.07901134
15	0xbc1faad9	-0.009745323
16	0xbd66f99f	-0.0563904
17	0xba41725a	-0.00073794054
18	0xbd1b605f	-0.037933704
19	0xbc0ba3f7	-0.008522979
20	0x3c445e3c	0.011985358
21	0x3d17542c	0.036945507
22	0x3d26b60c	0.040700957
23	0xbc4a6917	-0.012354157
24	0xbc17bd0e	-0.009261383
25	0xbd261afd	-0.04055308
26	0x3bdcfb88	0.006743852
27	0x3cc41000	0.02393341
28	0xbcb9ffc1	-0.02270496
29	0x3d31485a	0.04328189
30	0xbc127be9	-0.008940675
31	0x3d2f3548	0.042775422
32	0xbcbc5775	-0.022990922
33	0x3c708368	0.014679767
34	0x3c41f739	0.011838728
35	0x3b87e73b	0.004147438
36	0xbc3c1574	-0.011479724
37	0xbd643f0d	-0.055724192
38	0xbd7f631f	-0.06235039
39	0xbd46c4b3	-0.04852743
40	0xbd79450c	-0.060856864
41	0x3cd99c60	0.026563823
42	0x3ce05d34	0.027388193
43	0x3d5c7d94	0.053830698
44	0xbc00a47a	-0.007851714
45	0xbabfc94b	-0.0014632134
46	0x3ce291d3	0.027657425
47	0x3bfe7347	0.007765207
48	0xbd56fcb2	-0.052487083
49	0xbbe4eb65	-0.006986069
50	0xbc7d69f9	-0.01546716
51	0xbd03af53	-0.032149624
52	0xbd4c8a25	-0.049936432
53	0x3c933712	0.017970596
54	0xbd02caeb	-0.0319318
55	0xbc8340eb	-0.016022166
56	0x3d199c40	0.037502527
57	0xbcb63600	-0.022242546
58	0x3c985996	0.018597405
59	0x3c667e97	0.014068267
60	0xbd7191cc	-0.058976933
61	0x3d0f7336	0.035021983
62	0xbd46e399	-0.048556898
63	0x3d23cdc8	0.03999117
64	0xbd65df23	-0.056121003
65	0x3d971c15	0.07378403
66	0x3c249b41	0.010046781
67	0xbcad63c4	-0.021165736
68	0xbb82d21d	-0.0039923326
69	0xbd0d60d7	-0.03451618
70	0xbcef1ef4	-0.029189564
71	0x3cd5a908	0.026081577
72	0xbcc28216	-0.02374367
73	0xbd777535	-0.06041451
74	0x3ce697a1	0.028148474
75	0xbc4f5947	-0.012655563
76	0x394e458e	0.00019671602
77	0x3cddf050	0.027092129
78	0xbbe6dbbe	-0.0070452383
79	0xbaa12a9b	-0.0012296023
80	0x3b288dbe	0.002571925
81	0xbd603ad7	-0.054743614
82	0x3d2ffce6	0.042965792
83	0x3cca8d30	0.024725527
84	0xbd27b1c1	-0.040941004
85	0xbc47d3ae	-0.012196464
86	0xbcb5542c	-0.022134863
87	0x3c8f9a93	0.017529761
88	0x3b738380	0.0037157238
89	0x3b55a5ff	0.0032600162
90	0xbcb344dc	-0.02188342
91	0xbbbf9380	-0.005846441
92	0x3d92e2e8	0.07172185
93	0xbb9d54b7	-0.0048013586
94	0xbd124761	-0.035712603
95	0x3cf9fbda	0.0305156
96	0xbc6bc4f8	-0.014390223
97	0xbcd6f852	-0.026241455
98	0x3cde836c	0.027162276
99	0xbd881454	-0.06644502
100	0xbcde66f3	-0.0271487
101	0xbd427c3d	-0.047481764
102	0x3d1e7a25	0.038690705
103	0xbd3f3f63	-0.04669131
104	0x3c999967	0.018749906
105	0x381dc51c	3.761529e-05
106	0x3cfbb21e	0.030724581
107	0xbcfbf7a1	-0.030757727
108	0xbc5f091d	-0.013613013
109	0x3d075845	0.033043165
110	0x3cdb935b	0.026803663
111	0xbd4def3e	-0.050276987
112	0xbca006d3	-0.019534504
113	0xbd2141ff	-0.03936958
114	0x3cf04d06	0.029333603
115	0xbcf85585	-0.030314216
116	0x3c2e4f29	0.01063899
117	0x3d0cb155	0.034348805
118	0xbb9fb76c	-0.0048741605
119	0xbd46ed4d	-0.04856615
120	0xbd83e655	-0.06440417
121	0xbb984fd4	-0.004648188
122	0x3d37858e	0.044805102
123	0x3d7fa979	0.06241748
124	0x3c593e56	0.013259491
125	0xbc777540	-0.015103638
126	0xbcc529c3	-0.024067765
127	0xbca5738d	-0.0201967
128	0x3cb9e3e1	0.022691669
129	0x3b0a99de	0.002114884
130	0x3de92b97	0.11385267
131	0x3c40fe7e	0.011779426
132	0xbcac5223	-0.02103526
133	0x3ccaf1cb	0.024773499
134	0x3da89de0	0.08233237
135	0xbceac250	-0.028657109
136	0xbc9c05d5	-0.01904575
137	0xbd688b70	-0.056773603
138	0x3d6d496e	0.057931356
139	0xbd3ce900	-0.046120644
140	0xbca276ae	-0.019831982
141	0xbd228eb2	-0.039686866
142	0xbcdd1643	-0.026988154
143	0xbb9b5afc	-0.004741071
144	0x3a55ead8	0.00081602996
145	0xbd4f632b	-0.050631683
146	0x3d3b35af	0.045705494
147	0xbcda202a	-0.026626665
148	0xbd5ddab7	-0.05416366
149	0x3d56db1d	0.052455056
150	0xbc3c42a5	-0.011490499
151	0xbc8fc20d	-0.017548585
152	0x3d5cd1a9	0.053910885
153	0xbc8c87fc	-0.017154686
154	0x3d06762f	0.032827552
155	0x3d29ddf8	0.04147145
156	0x3c74cf3d	0.014941988
157	0xbcd740d6	-0.026276033
158	0x3c2df79c	0.010618117
159	0x3d50abfc	0.050945267
160	0xbc4f9c43	-0.012671533
161	0x3b0017f9	0.0019545539
162	0x3c23950f	0.009984269
163	0xbd4f849c	-0.050663576
164	0x3d3769f2	0.04477877
165	0x3bb13748	0.0054082014
166	0xbd56d184	-0.052445903
167	0xbcb90f87	-0.022590412
168	0x3cd0c906	0.02548648
169	0x3d5f7926	0.054558896
170	0x3ca007e4	0.019535013
171	0xbd58fb3d	-0.052973974
172	0xbcad11e1	-0.02112669
173	0xbbd0c567	-0.0063711884
174	0xbcc6b205	-0.024254808
175	0x3cf1b151	0.029503496
176	0x3d6d195c	0.057885513
177	0xbd173fdf	-0.036926147
178	0x3c390688	0.011293061
179	0xbd48cda2	-0.04902423
180	0xbd517d8e	-0.05114513
181	0xbc9eccaa	-0.0193847
182	0x3d6a20da	0.057160236
183	0x3ce2cd30	0.027685732
184	0xbd804a11	-0.06264127
185	0xbd1982e8	-0.037478358
186	0x3d71a725	0.058997292
187	0x3d501f93	0.05081136
188	0xbb727788	-0.0036997516
189	0xbc5dcff2	-0.013538348
190	0xbbc805b5	-0.006104196
191	0x3ddaa53e	0.10676049
192	0x3cf8c370	0.03036663
193	0x3ce67d5c	0.028135948
194	0x3d48698f	0.048928794
195	0x3cf0b51b	0.029383233
196	0x3d26b1fd	0.040697087
197	0x3c8900a7	0.016723944
198	0xbcfab5f8	-0.030604348
199	0xbbf1f5c8	-0.0073840357
200	0xbcaefc6a	-0.021360595
201	0x3cfaab92	0.03059939
202	0xbcf56dd5	-0.029959599
203	0x3d0221fb	0.031770688
204	0x3bc301f6	0.0059511615
205	0xbcd60d3f	-0.026129363
206	0xbd453e9f	-0.048155423
207	0x3da6141b	0.081093036
208	0xbd07276a	-0.032996573
209	0xbc88792f	-0.016659347
210	0x3c51cbb0	0.012804911
211	0xbd57896d	-0.052621294
212	0x3cb49515	0.022043744
213	0x3d0ece8f	0.03486496
214	0xbd649f79	-0.055816147
215	0x3b90d18b	0.0044195107
216	0xbbad9265	-0.0052969926
217	0x3d5b53a3	0.05354656
218	0xbd5e4b9a	-0.054271318
219	0xbd441820	-0.04787457
220	0xbd6bee43	-0.05760027
221	0x3cb0f6db	0.021602085
222	0x3d348d7c	0.044080243
223	0xbcb450d2	-0.022011194
224	0xbcf87d79	-0.030333268
225	0xbd508c4c	-0.050915048
226	0xbd98eaf5	-0.074666895
227	0x3b87f08f	0.00414855
228	0xbcc5e6b3	-0.024157858
229	0x3d1ec0ab	0.03875796
230	0xbd1bc522	-0.038029797
231	0xbcbe0573	-0.023195958
232	0xbd09ba2d	-0.033624817
233	0x3d5cbf0f	0.053893145
234	0x3d26e311	0.04074389
235	0xbd8c16fa	-0.0684032
236	0x3c83c4c6	0.01608504
237	0x3cfa7f14	0.030578174
238	0xbd01aedf	-0.03166091
239	0xbcd774cf	-0.026300816
240	0x3c2918ec	0.010320883
241	0x3d2f4d8d	0.042798568
242	0x3d8e4513	0.069467686
243	0xbd390614	-0.045171812
244	0x3d79288b	0.06082968
245	0x3c9bed18	0.019033954
246	0x3b20a9c5	0.0024515253
247	0xbc395133	-0.011310863
248	0xbcf1993b	-0.029492011
249	0xbb2017d2	-0.002442826
250	0x3d035a48	0.03206852
251	0x3b8d758c	0.004316991
252	0xbcf0a083	-0.029373413
253	0xbd2500f5	-0.040284116
254	0xbaa912ab	-0.001289924
255	0xbc5213c0	-0.012822092

actor.bias f4 [4]
0	0xbc610fdd	-0.013736692
1	0xbcce4117	-0.025177522
2	0x3d05ee29	0.03269783
3	0xbd9c36a3	-0.076276086

critic.weight f4 [1, 352]
0	0xbc0f998e	-0.008764638
1	0xbd26a95d	-0.04068886
2	0x3ec0d49b	0.37662205
3	0x3bb50a84	0.005524935
4	0x3d7e9252	0.06215126
5	0xbb3d3983	-0.002887339
6	0xbbe65bd5	-0.00702999
7	0x3e04d3db	0.12971441
8	0x3d86a7dc	0.065749854
9	0xbd98aa24	-0.07454327
10	0x3e612b90	0.21989274
11	0x3d9ba726	0.076002404
12	0xbd80b59f	-0.062846415
13	0xbcc9c300	-0.024629116
14	0xbce0ba58	-0.027432606
15	0xbddb3180	-0.10702801
16	0x3dd7d4da	0.10538645
17	0x383a0f10	4.4359884e-05
18	0xbc812a49	-0.015767233
19	0x3ebfb8d3	0.37445697
20	0x3d5f2dff	0.054487225
21	0xbc43868f	-0.011933937
22	0x3d3f8846	0.04676082
23	0xbdbbb06c	-0.09164509
24	0x3cddc762	0.027072612
25	0x3ab45419	0.0013757973
26	0x3d5a665a	0.053320266
27	0x3d7291f2	0.059221216
28	0xbbaf1fb6	-0.0053443564
29	0xbd0be6cd	-0.034155656
30	0x3d3c0570	0.045903623
31	0xbd0ed43b	-0.034870367
32	0x3b571ed6	0.0032824776
33	0xbd492fed	-0.04911797
34	0xbde90e6d	-0.113797046
35	0xbc5415ca	-0.012944648
36	0xbc6f833b	-0.01461869
37	0xbbaf91fa	-0.005357978
38	0x3e018fc8	0.12652504
39	0x3eafaac5	0.34309974
40	0x3e36f3ef	0.17866491
41	0x3d88515a	0.066561416
42	0x3ce46acd	0.027882958
43	0xbdbe24de	-0.092843756
44	0x3dde3b2a	0.108511284
45	0x3d218909	0.039437328
46	0xbdb13606	-0.08652882
47	0x3ebc323c	0.36757076
48	0xbbfd3701	-0.0077275042
49	0x3dcea61c	0.100902766
50	0x3dbea03a	0.093079045
51	0x3dc57d43	0.096430324
52	0x3e1a2775	0.15054114
53	0xbd60736e	-0.054797582
54	0xbe13e70f	-0.1444361
55	0x3c87430b	0.01651146
56	0x3e16a011	0.14709498
57	0xbd05f8ae	-0.032707863
58	0xbda3918e	-0.07986747
59	0xbe3ddfcd	-0.18542404
60	0x3dc303e3	0.09522226
61	0xbd99458b	-0.074839674
62	0xbcef5d20	-0.02921921
63	0x3d167894	0.036736086
64	0x3ec13c15	0.3774115
65	0xbcc91963	-0.024548238
66	0xbbd17ee7	-0.0063933018
67	0x3dc7f90b	0.09764298
68	0xbb9a2554	-0.004704157
69	0x3e9556fc	0.29167926
70	0xbd4abcd6	-0.049496494
71	0x3d6f02da	0.05835233
72	0x3d6aba62	0.057306655
73	0xbc8c3362	-0.017114345
74	0xbd9bb175	-0.076022066
75	0xbe28f86f	-0.1650102
76	0x3bd81c93	0.006595203
77	0xbc72e6b8	-0.014825515
78	0x3b019623	0.0019773326
79	0x3d63480f	0.055488642
80	0x3d5b881d	0.053596605
81	0x3dafd95b	0.08586379
82	0xbcae7fb5	-0.02130113
83	0x3d064e83	0.03278972
84	0x3d577553	0.052602123
85	0x3d78eb48	0.060771257
86	0xbdae07bb	-0.08497568
87	0xbda0bfcc	-0.07849082
88	0xba5ef6c1	-0.0008505397
89	0x3d4f73c7	0.050647523
90	0xbd042382	-0.032260425
91	0xbd6eb8c4	-0.058281675
92	0xbd7263be	-0.059177153
93	0x3d4884d3	0.048954796
94	0xbd03f6b4	-0.032217696
95	0xbb3c3589	-0.0028718433
96	0x3dad2daa	0.08455975
97	0xbc73f86f	-0.014890774
98	0x3cc18a3b	0.023625484
99	0x3d24bf65	0.04022159
100	0xbdf59103	-0.119905494
101	0x3da04847	0.07826286
102	0xbd82e3ef	-0.06391131
103	0x3d3d61c4	0.046235815
104	0x3ea37895	0.31927934
105	0xbdd39592	-0.10331263
106	0x3d737ddb	0.059446197
107	0x3d457845	0.0482104
108	0x3dda39e7	0.10655575
109	0x3dd98d24	0.106226236
110	0xbc8161c4	-0.015793689
111	0xbc3d02ed	-0.011536342
112	0x3d9d93eb	0.07694229
113	0x3dd1462b	0.102184616
114	0x3d321340	0.04347539
115	0xbd5fdb25	-0.054652352
116	0x39cf477c	0.00039535377
117	0x3dd5a0be	0.1043105
118	0x3cca7c19	0.024717377
119	0x3decd2ae	0.115636215
120	0x3dd319bf	0.10307645
121	0xbdf0d9e5	-0.1176031
122	0xbc44d936	-0.012014678
123	0xbd11eab6	-0.03562423
124	0xbc37b005	-0.0112114
125	0x3eb22a47	0.3479788
126	0xbdab75c6	-0.08372073
127	0x3dc81b73	0.097708605
128	0x3d20d8af	0.039269146
129	0xbcbf93e3	-0.023385948
130	0xbdcd9b71	-0.10039414
131	0x3dadfcbc	0.08495471
132	0x3dbea2c0	0.09308386
133	0x3de973ed	0.11399064
134	0x3c3aac88	0.011393674
135	0x3d91a5ee	0.07111727
136	0x3b8b5418	0.004251968
137	0x3da356f0	0.079755664
138	0x3c26435f	0.010147898
139	0x3da1b5fb	0.07896038
140	0x3cbc5e46	0.022994172
141	0x3a73d1d7	0.0009300983
142	0xbc9d4a4c	-0.019200467
143	0x3ce2fb05	0.027707586
144	0x3aef33e9	0.0018249723
145	0x3d930a3f	0.07179689
146	0x3a56b091	0.00081897626
147	0x3d969d34	0.07354203
148	0x3d6ab648	0.057302743
149	0x3cb05092	0.021522794
150	0x3dd790ed	0.10525689
151	0x3e869815	0.26287904
152	0xbcb27a3a	-0.021786798
153	0x3b38412f	0.0028115024
154	0x3dc28149	0.094973154
155	0x3d5f8081	0.05456591
156	0x3e99f63a	0.30070668
157	0x3d7f4514	0.062321737
158	0x3d421f06	0.047392868
159	0x3d363bdb	0.044490676
160	0x3dd6c4f7	0.10486787
161	0xbd267091	-0.040634695
162	0x3da3da50	0.08000624
163	0xbd856408	-0.0651322
164	0xbcf40dc5	-0.029791722
165	0x3d2e87c7	0.042609956
166	0x3d6a5795	0.05721243
167	0xbb413627	-0.002948174
168	0x3e8e8f6d	0.278438
169	0xbce3a6b7	-0.027789457
170	0xbc5f985a	-0.013647163
171	0x3c80ea9a	0.015736867
172	0x3d84d562	0.06486012
173	0x3bf283d9	0.0074009714
174	0xbd0e619e	-0.034761064
175	0xbceec030	-0.029144377
176	0xbbce19f6	-0.006289716
177	0xbbbcab84	-0.005757751
178	0xbacd634e	-0.0015669854
179	0xbbbf5673	-0.005839163
180	0x3ad72b37	0.0016416077
181	0x3d3071dd	0.04307734
182	0xbc0054d8	-0.007832728
183	0x3cbf95f0	0.023386925
184	0xbb4eada1	-0.0031536596
185	0x3dcfdd61	0.101496466
186	0xbd017f03	-0.03161527
187	0xbbcf56d1	-0.006327488
188	0x3cc45e66	0.023970794
189	0x3d81d678	0.06339735
190	0x3d89f417	0.067360096
191	0xbc9b0c57	-0.018926783
192	0x3e65fea4	0.22460419
193	0x3ea66fdc	0.32507217
194	0xbcdb1cb9	-0.026747094
195	0x3d580fa1	0.05274928
196	0xbc885f9a	-0.016647149
197	0x3c9b172a	0.018931944
198	0xbd14528f	-0.036211547
199	0xbc8d2492	-0.017229352
200	0x3e89fb42	0.26949507
201	0xbd8fdc16	-0.070244
202	0x3da33cf6	0.07970612
203	0xbe00fdc2	-0.12596801
204	0xbcbd5c03	-0.023115164
205	0x3b548a5c	0.0032431101
206	0x3ded957a	0.11600776
207	0xb8b155e0	-8.456013e-05
208	0xbb947830	-0.004530929
209	0x3d07ed5b	0.033185344
210	0x3ebabb25	0.36470905
211	0x3ea903fc	0.33010852
212	0xbbce5a0f	-0.006297357
213	0xbcdb87f9	-0.026798235
214	0x3d965f04	0.073423415
215	0x3ec04200	0.37550354
216	0xbd41a7fe	-0.04727935
217	0xbdd11570	-0.10209167
218	0x3afa9181	0.001911685
219	0x3ce28b4b	0.02765431
220	0xbda17575	-0.07883731
221	0xbd03b545	-0.032155294
222	0x3d574e31	0.052564804
223	0xbd5c3fa0	-0.053771615
224	0x3ca85bce	0.020551588
225	0xbe1ea631	-0.15493084
226	0x3ea8192b	0.32831702
227	0xbc7c8753	-0.015413123
228	0xbd99fec5	-0.075192966
229	0x3dedd3fe	0.116127
230	0x3d2bd9be	0.041955702
231	0x3eaf4fe5	0.34240642
232	0x3eb04483	0.3442727
233	0xbca0ffbc	-0.019653194
234	0xba70c1f6	-0.0009184176
235	0x3e8dcde5	0.27696148
236	0xbdf301b2	-0.11865558
237	0x3cb12c5d	0.0216276
238	0x3d3e3156	0.04643377
239	0x3af3e241	0.0018606858
240	0x3ebcd8d9	0.36884192
241	0x3af26c09	0.0018495332
242	0xbce0cdbb	-0.02744185
243	0xbe4162e9	-0.18885387
244	0xbc42910c	-0.011875402
245	0xbdb6c1fb	-0.089237176
246	0x3d943fbe	0.0723872
247	0x3ea6a3b8	0.32546782
248	0xbd9002a1	-0.070317514
249	0x3e4b1972	0.19833925
250	0xbce764d6	-0.028246325
251	0x3d37e9e9	0.04490081
252	0x3d3077db	0.043083053
253	0x3dcda2d7	0.10040825
254	0x3e832bfd	0.25619498
255	0x3d6bbb07	0.05755141
