my_Adam_my_plus/model_900.pth (torch, 396556 bytes, 17 tensors)

conv_layers_ol.0.weight f4 [8, 4, 3]
0.05482043 -0.079407506 0.09549047 -0.30674228 -0.2402427 -0.013201698 -0.12852402 0.13989866
0.11584195 -0.17427838 -0.16040483 -0.25632346 -0.03187312 0.17646046 0.1829312 -0.24198459
0.23788221 0.31462276 -0.046570428 0.26658693 0.11277945 0.18452334 -0.10771907 0.20487158
0.109413646 0.17118254 0.039655436 0.29008427 -0.12834737 0.0037347486 0.03817265 0.10552575
0.06291552 0.10617858 -0.10562676 0.25479525 0.12990208 0.17068857 -0.1917207 0.18417254
0.26064357 -0.2174367 -0.007966435 0.07132404 0.090072766 -0.25469798 0.19119896 -0.13275945
-0.2251309 0.06479039 0.06660483 0.16833532 0.09346883 -0.25997204 0.012596232 -0.29570717
0.055967174 -0.22802852 -0.17823148 -0.20766559 -0.3069168 -0.23579629 -0.06952877 -0.13954535
-0.09871811 -0.06221129 0.23791681 0.24367474 0.16666909 -0.18803236 -0.15955499 -0.22927468
-0.01607537 -0.03216663 -0.12289783 0.15162842 -0.01845267 -0.28962705 -0.113612026 0.1537853
-0.19730215 0.06617811 -0.16738267 -0.08470985 0.2571751 0.030715652 -0.29758987 -0.012282835
-0.08524689 0.11750609 -0.26406536 -0.24423508 0.2131152 -0.21026424 -0.068717025 0.018777048
00000000: 638b 603d 67a0 a2bd 8290 c33d 530d 9dbe
00000010: 2f02 76be ef4b 58bc cd9b 03be 9841 0f3e
00000020: 8b3e ed3d 0876 32be 2a41 24be d43c 83be
00000030: 648d 02bd 0db2 343e 5152 3b3e cfca 77be
00000040: 6597 733e 3c16 a13e a2c0 3ebd 157e 883e
00000050: eaf8 e63d b0f3 3c3e d19b dcbd dbc9 513e
00000060: 4314 e03d 7a4a 2f3e bd6d 223d ed85 943e
00000070: 7e6d 03be afc2 743b ed5a 1c3d e21d d83d
00000080: dad9 803d 2874 d93d d852 d8bd 8674 823e
00000090: 0d05 053e fcc8 2e3e 6e52 44be ba97 3c3e
000000a0: 1373 853e baa7 5ebe a685 02bc 5712 923d
000000b0: 1278 b83d c667 82be a9c9 433e 18f2 07be
000000c0: b788 66be d3b0 843d 1d68 883d 1860 2c3e
000000d0: 966c bf3d 0e1b 85be 6d60 4e3c ee66 97be
000000e0: d63d 653d 4f80 69be 5082 36be 4aa6 54be
000000f0: 3324 9dbe 9574 71be 1a65 8ebd fae4 0ebe
00000100: b82c cabd 44d1 7ebd 77a0 733e df85 793e
00000110: 4dab 2a3e 8e8b 40be 6262 23be fbc6 6abe
00000120: 7fb0 83bc 28c1 03bd dcb1 fbbd 7b44 1b3e
00000130: 0e2a 97bc ff49 94be 6cad e8bd e579 1d3e
00000140: 9309 4abe 6488 873d 5d66 2bbe 5c7c adbd
00000150: 74ac 833e 649f fb3c b35d 98be f23d 49bc
00000160: ec95 aebd 08a7 f03d 9333 87be c318 7abe
00000170: df3a 5a3e 824f 57be 83bb 8cbd 53d2 993c

conv_layers_ol.0.bias f4 [8]
0.006826742 0.16466779 0.13699259 0.2877202 -0.19766009 -0.3110867 -0.1363589 -0.21811178
00000000: ddb2 df3b ac9e 283e c947 0c3e 1050 933e
00000010: 6867 4abe c246 9fbe aba1 0bbe b258 5fbe

conv_layers_ol.2.weight f4 [16, 8, 3]
-0.14609104 0.19870135 -0.16686746 -0.07207402 -0.185584 -0.10253377 -0.032639418 0.08853805
-0.09015093 -0.03330036 0.16199332 -0.033539686 -0.15394893 0.2005585 0.052642275 0.22568953
0.0868149 -0.13492955 0.09233342 0.17721346 -0.1243293 0.097024776 0.23020162 -0.116824135
0.2288398 0.17341475 0.04306503 0.015245871 -0.16301076 0.09556064 0.15330924 0.038829014
-0.20884432 -0.11364836 -0.17252041 -0.07918584 0.124715984 0.21324374 0.015508405 -0.096091986
-0.008155932 0.2293295 0.13687548 -0.009310244 -0.14684713 0.13985606 -0.06312771 -0.067679636
0.1863561 0.20139685 0.1325411 -0.1679654 -0.073164634 0.068320826 -0.18721433 -0.12394072
-0.038246278 -0.047853265 -0.08466131 -0.042744577 0.040538933 0.1505208 0.16704677 -0.12053571
-0.0042386726 -0.1424841 0.10624655 -0.104119495 0.12079449 0.21489234 0.10699128 0.18965322
-0.014043289 -0.0019369229 0.15728197 0.15816432 0.18959206 0.10159672 -0.12825795 0.039089456
-0.13875349 0.17665577 -0.1265029 -0.025164165 -0.06332962 -0.061342735 0.06623206 0.05402198
-0.04522198 -0.12220647 -0.13065687 -0.15199886 0.041504677 0.06046993 -0.05135736 -0.2037539
0.002548955 -0.1033877 -0.049871 -0.15194646 0.05945847 0.11314904 0.13135648 0.09019525
0.09854074 0.14111948 -0.017836004 -0.05770282 -0.12359177 -0.090496376 -0.21457526 0.16449293
0.15738048 -0.0019380284 -0.05797777 -0.14274606 -0.13661757 0.08208276 -0.041833103 0.17282961
-0.051954478 -0.1291255 -0.10848198 -0.109996215 -0.12692569 -0.1799812 0.09119235 -0.21440788
-0.1603509 -0.19680813 0.024110109 -0.1547893 0.032968722 0.10035379 0.17178379 0.18907985
-0.1573257 0.022300867 -0.080362 -0.13455804 -0.034410603 0.10788739 0.13933201 0.2165352
-0.021159645 -0.13577558 -0.051077116 -0.106744215 -0.075316936 -0.14852549 -0.12407963 -0.0987015
0.1356869 -0.22631893 -0.22362882 -0.16359662 -0.11437752 0.06852441 0.1878447 0.07725269
0.21427432 -0.10963415 -0.10402565 -0.17212279 -0.021837236 0.20548484 0.16266438 -0.11277545
-0.0044415984 -0.09908881 0.1130577 -0.14686438 -0.063258655 -0.20456178 -0.10799988 0.11256336
0.06698789 0.031375144 -0.08566769 0.07645972 -0.1677423 0.18895404 0.016882582 0.12682286
0.13902485 0.1119058 0.075542346 0.048227314 0.17627533 0.11280993 -0.14341067 0.08042462
0.0490187 0.11200216 -0.17857249 0.006012859 -0.010646817 0.17780857 0.07031384 -0.11479074
-0.0048561282 0.07689666 0.22392273 0.15400028 -0.19489188 0.011437417 0.023269093 -0.20400657
-0.048725653 0.056155466 0.085449405 -0.17597364 -0.073697075 0.12700191 -0.17105511 0.15855873
0.12102883 0.18136708 0.20937419 -0.06263204 -0.16667159 -0.16060604 -0.12978753 -0.20685725
0.1459402 -0.08796343 0.14531656 -0.030966345 0.16082357 -0.022411337 0.16427027 0.22805342
-0.060038142 0.19639775 0.07206088 -0.0079899635 -0.08467135 0.16426702 0.21935879 0.18047321
0.066224486 0.09990947 0.17344342 0.14459004 0.18090224 0.06322363 0.016738364 0.0015231749
0.17018512 0.14093624 0.21211252 0.041931264 0.0807201 -0.08106887 0.04011471 0.09760538
00000000: e498 15be 5e78 4b3e 4edf 2abe 8b9b 93bd
00000010: bb09 3ebe 3afd d1bd e9b0 05bd 7053 b53d
00000020: 0da1 b8bd f565 08bd 94e1 253e e960 09bd
00000030: caa4 1dbe 355f 4d3e 6d9f 573d 281b 673e
00000040: 03cc b13d f92a 0abe 4e19 bd3d 7277 353e
00000050: 5ca0 febd edb4 c63d f9b9 6b3e 7e41 efbd
00000060: fb54 6a3e a393 313e f564 303d d1c9 793c
00000070: 4bec 26be 4cb5 c33d 19fd 1c3e 2c0b 1f3d
00000080: 49db 55be 79c0 e8bd 31a9 30be 302c a2bd
00000090: 186b ff3d 915c 5a3e f716 7e3c e0cb c4bd
000000a0: 75a0 05bc 5ad5 6a3e 1629 0c3e fe89 18bc
000000b0: 185f 16be 6d36 0f3e 1a49 81bd 9f9b 8abd
000000c0: 22d4 3e3e fa3a 4e3e dbb8 073e 1fff 2bbe
000000d0: 57d7 95bd caeb 8b3d 1db5 3fbe a2d4 fdbd
000000e0: 21a8 1cbd c901 44bd e962 adbd f014 2fbd
000000f0: 270c 263d 2022 1a3e 4f0e 2b3e 6ddb f6bd
00000100: 90e4 8abb 5ae7 11be cb97 d93d 9a3c d5bd
00000110: 1a63 f73d bd0c 5c3e 3f1e db3d 7434 423e
00000120: d315 66bc 59e0 fdba 860e 213e d4f5 213e
00000130: 6c24 423e f111 d03d 0d56 03be 441c 203d
00000140: 6515 0ebe 40e5 343e fa89 01be 1425 cebc
00000150: f6b2 81bd 8542 7bbd ada4 873d 2746 5d3d
00000160: af3a 39bd 6347 fabd eaca 05be 97a5 1bbe
00000170: cf00 2a3d 51af 773d 185c 52bd dda4 50be
00000180: 5e0c 273b eebc d3bd 8945 4cbd da97 1bbe
00000190: ba8a 733d afba e73d 5082 063e 4ab8 b83d
000001a0: bacf c93d a081 103e d01c 92bc cb59 6cbd
000001b0: af1d fdbd 2a56 b9bd 9eb9 5bbe d670 283e
000001c0: 5928 213e 7105 feba 197a 6dbd 062c 12be
000001d0: 7ae5 0bbe 021b a83d 3059 2bbd 3ffa 303e
000001e0: 38ce 54bd 7a39 04be cd2b debd b245 e1bd
000001f0: cff8 01be fe4c 38be 0ec3 ba3d bd8d 5bbe
00000200: 0733 24be 1288 49be 9082 c53c 1681 1ebe
00000210: 360a 073d 4a86 cd3d 17e8 2f3e 269e 413e
00000220: fd19 21be 4fb0 b63c d594 a4bd 95c9 09be
00000230: 22f2 0cbd 10f4 dc3d 0dad 0e3e 67bb 5d3e
00000240: fe56 adbc c108 0bbe 3d36 51bd b69c dabd
00000250: c43f 9abd 1117 18be 761d febd 0324 cabd
00000260: 82f1 0a3e 26c0 67be f4fe 64be df85 27be
00000270: c33e eabd 8756 8c3d 5c5a 403e a936 9e3d
00000280: ba6a 5b3e df87 e0bd 660b d5bd f540 30be
00000290: 01e4 b2bc 9e6a 523e 7e91 263e d1f6 e6bd
000002a0: d48a 91bb 13ef cabd cc8a e73d 9e63 16be
000002b0: c18d 81bd a578 51be 0b2f ddbd 9e87 e63d
000002c0: f230 893d 3983 003d 8b72 afbd ea96 9c3d
000002d0: a3c4 2bbe 2b7d 413e 574d 8a3c dadd 013e
000002e0: 885c 0e3e de2e e53d f2b5 9a3d 018a 453d
000002f0: 8581 343e e508 e73d 3fda 12be aab5 a43d
00000300: d5c7 483d 6361 e53d b5db 36be 8407 c53b
00000310: fd6f 2ebc 7313 363e b400 903d 6817 ebbd
00000320: 2820 9fbb ff7b 9d3d 004c 653e 40b2 1d3e
00000330: bd91 47be 0164 3b3c d39e be3c 19e7 50be
00000340: 8d94 47bd 4603 663d 1900 af3d 6f32 34be
00000350: 7eee 96bd ca0c 023e 1229 2fbe 385d 223e
00000360: f7dd f73d 4bb8 393e 3066 563e 3a45 80bd
00000370: f5ab 2abe e975 24be 06e7 04be 63d2 53be
00000380: 5971 153e 2c26 b4bd ddcd 143e 22ad fdbc
00000390: efae 243e fb97 b7bc 7736 283e d686 693e
000003a0: 8eea 75bd 7e1c 493e a894 933d 56e8 02bc
000003b0: 2c68 adbd 9d35 283e 979f 603e f8cd 383e
000003c0: b4a0 873d 569d cc3d 279b 313e 690f 143e
000003d0: 703e 393e 647b 813d e51e 893c 45a5 c73a
000003e0: 0245 2e3e 9751 103e 0634 593e 1ec0 2b3d
000003f0: 9450 a53d 7007 a6bd 524f 243d 54e5 c73d

conv_layers_ol.2.bias f4 [16]
0.042023323 0.026391603 0.018599251 0.13312194 0.17160709 0.014413962 0.11843458 0.02889022
0.021407852 -0.001182014 0.15122718 -0.11013187 -0.122476295 0.1078272 -0.1475811 -0.042700917
00000000: a620 2c3d 3433 d83c 755d 983c 1e51 083e
00000010: c5b9 2f3e 8a28 6c3c d48d f23d 2fab ec3c
00000020: 855f af3c cfed 9aba 4cdb 1a3e d18c e1bd
00000030: dad4 fabd 82d4 dc3d 801f 17be 28e7 2ebd

fc_op.0.weight f4 [16, 3]
0.53272456 0.20117164 -0.06734142 0.03274689 -0.15718015 -0.3594619 -0.23339956 0.28123143
0.19856118 0.12054854 -0.27784848 0.45256102 -0.4436036 0.47309816 -0.55026805 0.1123233
0.19785014 -0.21768422 -0.27152497 0.49207687 0.5545716 -0.48603523 -0.5562878 0.5508465
-0.26826075 -0.055591203 0.1141394 0.0271917 -0.4560586 -0.21766764 -0.4425441 0.078871876
-0.40807685 -0.23839866 0.19078156 -0.34673566 -0.5349869 0.3234905 -0.41868648 -0.3686815
-0.099942096 0.4447608 0.28318155 -0.344458 0.06814824 -0.33396617 0.3550988 0.21657304
00000000: a360 083f f0ff 4d3e 4cea 89bd 9a21 063d
00000010: d5f3 20be 640b b8be 4b00 6fbe 91fd 8f3e
00000020: 9f53 4b3e 27e2 f63d 2842 8ebe 14b6 e73e
00000030: 0320 e3be ec39 f23e 5ede 0cbf c209 e63d
00000040: 3a99 4a3e 9de8 5ebe 5205 8bbe 80f1 fb3e
00000050: 68f8 0d3f 9cd9 f8be e168 0ebf 4704 0d3f
00000060: 7959 89be 9ab3 63bd ebc1 e93d 21c1 de3c
00000070: 8380 e9be 44e4 5ebe 2495 e2be 9487 a13d
00000080: 73ef d0be c71e 74be 3e5c 433e 5687 b1be
00000090: e7f4 08bf 8ca0 a53e 135e d6be d2c3 bcbe
000000a0: 71ae ccbd b0b7 e33e 2cfd 903e cd5c b0be
000000b0: 4e91 8b3d 9dfd aabe 83cf b53e 53c5 5d3e

fc_op.0.bias f4 [16]
-0.4876767 0.032869633 0.3375763 0.56372637 0.42320552 -0.29511386 -0.504396 -0.03271709
0.4195086 -0.03936678 -0.4563511 -0.36110795 0.11571619 -0.17960669 0.09986668 0.36892512
00000000: c3b0 f9be 4fa2 063d cdd6 ac3e 5f50 103f
00000010: 65ae d83e 2a19 97be 1920 01bf 5b02 06bd
00000020: d5c9 d63e 103f 21bd daa6 e9be 24e3 b8be
00000030: 9cfc ec3d d1ea 37be e786 cc3d c1e3 bc3e

fc_op.2.weight f4 [16, 16]
0.22177218 -0.20554687 -0.2287104 -0.183435 -0.18599252 -0.032757718 -0.12878521 -0.12882045
-0.20390601 0.22950613 0.035726327 -0.013479582 0.14016075 -0.020045249 0.12901942 -0.1890224
-0.08158199 -0.11771848 -0.14204034 -0.06425948 0.18530826 -0.08005967 0.066430055 0.104451366
-0.20480415 -0.13714902 0.1201653 -0.036597937 0.15583917 0.10659201 -0.050779827 0.069038734
0.052925143 -0.21629602 0.15027806 -0.14216374 0.1421141 0.033807296 -0.102692015 -0.13210304
-0.2497456 -0.05992666 -0.15173614 -0.24191344 -0.034690212 0.1978837 0.020696346 -0.09100702
0.1982487 0.0102106165 0.021816976 0.16777699 -0.14214452 -0.100241296 -0.0054012295 -0.04688865
-0.21620177 0.105552554 -0.13150299 0.01076664 -0.060798414 0.14686766 -0.12063604 -0.17289871
0.0006493286 -0.13990518 0.06334723 -0.103163846 0.24711543 0.16003786 0.08681007 0.10829758
0.07675015 -0.01966541 -0.042017166 0.025687013 0.14745533 -0.12156027 -0.023115803 0.11461581
0.2174323 -0.17773752 -0.13104117 0.21749067 0.20093301 0.19207916 -0.18241605 0.118751764
0.07022427 -0.19502051 0.19935028 -0.1622817 0.07588451 -0.25283664 0.065090045 0.12610836
-0.16433173 0.21569724 -0.10695666 -0.16658515 -0.16357186 -0.1350296 0.047884196 0.25510895
0.14525217 -0.10411549 0.16875538 -0.22240855 -0.14925326 -0.03570507 -0.08473259 -0.040504985
-0.011270723 0.18129681 0.16576444 0.042339586 0.18896945 0.089170225 0.06688768 0.071198784
-0.11408115 -0.19174404 -0.005364935 0.0702714 -0.20304741 0.057019237 0.16077004 -0.1849824
0.069794856 -0.0894784 0.0061579407 0.13258655 0.07623025 0.059153363 -0.109326676 -0.08536729
-0.16741855 -0.054092128 0.14355761 -0.15767987 -0.22769824 0.17285852 -0.048101954 -0.22353989
-0.17037691 0.22086653 0.09936556 0.04281775 0.16322304 0.14412266 -0.024003793 -0.031165311
-0.16242065 -0.1412138 0.048730038 0.070028976 -0.037927013 -0.03804302 -0.040460277 0.0697981
0.17423074 -0.05644967 -0.22536859 0.0910037 0.048001222 -0.18547517 0.0046592704 0.09656529
-0.22782455 0.24364756 0.23151074 -0.2555 -0.13401034 0.14228928 0.05113184 -0.05404704
0.24065414 -0.08038608 0.21886866 -0.088167034 -0.20055485 0.013814785 -0.045938555 0.1647079
0.2233262 -0.18755393 -0.107836954 -0.22940539 -0.1414318 -0.037079435 0.15988502 -0.10474368
-0.11347294 0.024521234 0.19812335 -0.1501523 0.07229323 0.1429226 0.040034913 -0.02569497
-0.2032961 -0.23311129 -0.093813725 -0.18771239 0.11888262 -0.2302849 0.075914405 -0.11751021
0.12803377 0.037299093 -0.14804314 0.11936755 0.22056837 0.08958531 -0.22002545 0.18829127
-0.18530978 0.24406737 -0.23843543 0.18390149 8.401536e-05 -0.17736407 0.058151197 -0.13042335
0.20357646 0.10185481 -0.06129568 -0.106809705 0.1615757 0.09894568 -0.09154859 -0.008273666
-0.07629044 -0.13032234 0.10189793 0.030928392 -0.037765987 -0.003561449 -0.100380816 -0.09091375
0.068099976 -0.21481267 0.16888121 -0.15593587 0.013441949 -0.15416941 -0.24350171 0.052733168
0.08593736 0.05952104 -0.011388932 0.08695005 0.18222561 -0.012653763 0.12616317 -0.17412867
00000000: 3f18 633e e17a 52be 0f33 6abe 62d6 3bbe
00000010: d374 3ebe f52c 06bd 45e0 03be 82e9 03be
00000020: bdcc 50be a803 6b3e c555 123d 77d9 5cbc
00000030: 4d86 0f3e ef35 a4bc ab1d 043e 178f 41be
00000040: 7514 a7bd 6316 f1bd 0673 11be 799a 83bd
00000050: 73c1 3d3e 53f6 a3bd 7b0c 883d 99ea d53d
00000060: 2eb8 51be cb70 0cbe 3a19 f63d b8e7 15bd
00000070: 4e94 1f3e e94c da3d 82fe 4fbd 2e64 8d3d
00000080: 09c8 583d b47c 5dbe 7ee2 193e 5f93 11be
00000090: 5c86 113e 8579 0a3d 3150 d2bd 0546 07be
000000a0: 50bd 7fbe a875 75bd b860 1bbe 28b8 77be
000000b0: 5317 0ebd 06a2 4a3e 628b a93c e361 babd
000000c0: b501 4b3e 6e4a 273c 84b9 b23c bbcd 2b3e
000000d0: 558e 11be 4f4b cdbd ccfc b0bb 500e 40bd
000000e0: ff63 5dbe f02b d83d b8a8 06be 9066 303c
000000f0: c207 79bd 7a64 163e 0710 f7bd 5c0c 31be
00000100: b437 2a3a 4e43 0fbe 31bc 813d 9147 d3bd
00000110: d40b 7d3e f7e0 233e 7ac9 b13d 1fcb dd3d
00000120: 2f2f 9d3d 5b19 a1bc 311a 2cbd 926d d23c
00000130: 88fe 163e 97f4 f8bd 5a5d bdbc b2bb ea3d
00000140: 93a6 5e3e d300 36be a82f 06be e0b5 5e3e
00000150: 62c1 4d3e 66b0 443e 46cb 3abe 2034 f33d
00000160: bed1 8f3d 75b3 47be 7b22 4c3e 2d2d 26be
00000170: 5769 9b3d ce73 81be ee4d 853d 8d22 013e
00000180: 9446 28be bddf 5c3e 180c dbbd 4c95 2abe
00000190: 627f 27be 3345 0abe 3822 443d a49d 823e
000001a0: fcbc 143e 813a d5bd 36ce 2c3e 11bf 63be
000001b0: d9d5 18be 7b3f 12bd 4888 adbd 8ee8 25bd
000001c0: d7a8 38bc dfa5 393e 27be 293e 466c 2d3d
000001d0: 3581 413e e19e b63d 68fc 883d abd0 913d
000001e0: 61a3 e9bd 8d58 44be 56cc afbb 74ea 8f3d
000001f0: a9eb 4fbe 018d 693d e7a0 243e 076c 3dbe
00000200: 9bf0 8e3d 7440 b7bd 8dc8 c93b c5c4 073e
00000210: 9b1e 9c3d cc4a 723d aae6 dfbd 0cd5 aebd
00000220: c56f 2bbe b58f 5dbd c400 133e d576 21be
00000230: ba29 69be d301 313e 8e06 45bd a4e7 64be
00000240: 4977 2ebe d62a 623e 2c80 cb3d aa61 2f3d
00000250: f123 273e e494 133e 9aa3 c4bc 654e ffbc
00000260: 9951 26be 5a9a 10be 2699 473d 5a6b 8f3d
00000270: 5b59 1bbd ffd2 1bbd adb9 25bd 4ef2 8e3d
00000280: 8b69 323e c537 67bd 06c7 66be 2660 ba3d
00000290: ee9c 443d 34ed 3dbe cbac 983b 06c4 c53d
000002a0: d74a 69be bf7e 793e 2711 6d3e e5d0 82be
000002b0: 023a 09be 48b4 113e 9f6f 513d 6e60 5dbd
000002c0: 0a6e 763e 75a1 a4bd 1b1f 603e eb90 b4bd
000002d0: 405e 4dbe 6857 623c 112a 3cbd 30a9 283e
000002e0: a0af 643e 230e 40be 9fd9 dcbd 3fe9 6abe
000002f0: 7fd3 10be 9be0 17bd e6b8 233e db83 d6bd
00000300: 8064 e8bd c1e0 c83c d9e0 4a3e 86c1 19be
00000310: 790e 943d 4d5a 123e a6fb 233d 427e d2bc
00000320: da2c 50be bab4 6ebe 6921 c0bd ad37 40be
00000330: bb78 f33d cecf 6bbe 0379 9b3d 31a9 f0bd
00000340: 491b 033e efc6 183d 9f98 17be f976 f43d
00000350: addc 613e 8178 b73d 5a4e 61be 6dcf 403e
00000360: d9c1 3dbe ccec 793e 6b28 74be ac50 3c3e
00000370: 6731 b038 ed9e 35be f32f 6e3d b38d 05be
00000380: 5976 503e 4199 d03d 2e11 7bbd 0cbf dabd
00000390: 1a74 253e 08a4 ca3d d47d bbbd 458e 07bc
000003a0: 2a3e 9cbd 3873 05be ddaf d03d 8a5d fd3c
000003b0: 82b0 1abd 3367 69bb 7594 cdbd fd30 babd
000003c0: 0078 8b3d daf7 5bbe 32ef 2c3e a7ad 1fbe
000003d0: 9f3b 5c3c 96de 1dbe 8358 79be bcfe 573d
000003e0: edff af3d 56cc 733d a598 3abc de12 b23d
000003f0: 5a99 3a3e bb51 4fbc eb30 013e c94e 32be

fc_op.2.bias f4 [16]
0.22094372 -0.21217328 -0.001158638 -0.09526303 -0.16200216 0.13720413 -0.08104499 0.15653424
0.24365292 -0.14898695 0.005060167 0.21433085 0.048049852 0.16623218 0.12392806 0.23293048
00000000: 123f 623e f443 59be 71dd 97ba 4319 c3bd
00000010: e5e3 25be 3d7f 0c3e eafa a5bd 834a 203e
00000020: 2780 793e 0990 18be c2cf a53b 8c79 5b3e
00000030: eccf 443d c538 2a3e ffcd fd3d 5485 6e3e

fc_merge.0.weight f4 [208, 208]
-0.05495753 -0.0027700332 -0.088453345 0.043896437 -0.03135464 0.024165448 0.024702327 -0.043546475
-0.050381254 -0.039753035 -0.029480094 -0.08727124 -0.077768035 0.009126181 -0.033435754 -0.0776386
0.028092591 -0.033498 -0.06429369 -0.051651314 -0.06591503 0.021942679 -0.03869709 0.04447241
-0.04587306 0.016663775 -0.024768885 -0.015924709 -0.00016268446 0.0039060016 -0.04505405 -0.056382302
0.032945253 -0.010728559 0.005577801 0.02761601 0.05282191 0.039016694 0.06293674 0.05945558
0.01932057 0.012570309 0.074715145 -0.006697195 0.06184161 0.05308211 0.08565819 0.043493684
-0.012457894 0.08306621 0.07513341 0.073638745 0.008910313 0.06185468 -0.017737543 0.00506408
-0.020016782 0.0247974 -0.03772616 0.06058266 -0.0341843 0.038513374 -0.06106442 0.003136843
-0.01529453 -0.015740111 -0.018907944 -0.030857513 -0.0018092346 -0.008319497 0.03990514 0.039260704
0.033327527 -0.06766185 -0.09218407 0.005110327 -0.009258178 0.031914983 -0.040405992 -0.0528651
-0.0045609497 -0.07766392 -0.056671057 0.042553473 -0.0052508973 -0.03138992 -0.06562798 0.023798354
-0.037852466 0.03853044 0.044346385 0.0096411295 -0.046062727 0.032913692 0.032236315 -0.0088507505
0.068523206 -0.002014347 0.08822006 0.03764298 0.069419935 0.07735248 0.016341167 -0.03859155
0.017537108 0.08732563 -0.03692437 0.046435714 -0.0015772354 -0.06658613 -0.04799783 -0.026697364
-0.041650485 -0.015907248 0.035440236 -0.055414952 -0.017807482 0.049044486 0.008775536 -0.0193294
0.024001846 0.007144891 0.023518572 0.01469112 0.0532058 -0.003365114 -0.025465304 0.0769699
0.063603625 0.016375031 -0.04168302 -0.043498106 0.02713896 -0.050632052 -0.007245378 -0.0031646083
0.026710175 0.029741302 -0.02393259 -0.08677155 -0.07717473 -0.025934337 -0.020576634 -0.07341308
-0.037008576 0.004497864 0.010334427 0.038273614 0.062193193 -0.015999818 -0.021681817 0.0648199
0.05126021 0.032666314 0.070498586 0.06183145 -0.050450854 -0.0039645443 -0.062463183 -0.033149194
0.0007133333 0.029193219 -0.09063285 -0.025127703 -0.03509082 -0.08469154 -0.070237085 -0.025294915
-0.051188808 -0.04284206 0.03840444 0.004234006 -0.05012507 -0.020870604 -0.02241952 0.02010243
0.042733416 0.021176834 -0.06465389 -0.06858391 -0.029842645 -0.03180106 0.0053640953 0.032612238
0.05511867 0.022635296 0.060790405 -0.037049484 0.062439773 0.047603145 0.07853496 0.03470996
0.082781784 0.03089923 -0.055306718 -0.026060114 -0.034272958 -0.03463726 -0.076266386 0.001171865
0.012298847 -0.06076886 -0.03123208 0.05893228 0.012104055 -0.0401827 -0.034188252 -0.06836575
0.0809192 0.06842917 0.05330879 0.091373846 0.08055501 0.064813085 0.01611916 0.08278895
-0.01657506 0.05817309 0.019399049 0.022718035 0.03778712 0.08788169 0.054584432 -0.014228769
0.047798563 0.0028523705 0.061961997 0.016975174 0.08104751 0.015593032 -0.044465333 0.090514585
0.0051364563 0.01731204 -0.0229002 0.068808086 -0.016509907 0.073087014 0.055541594 0.079336844
0.00408902 -0.0095556285 -0.0434795 0.070164055 -0.008638445 0.023784647 -0.05312953 0.0455567
0.025938949 0.047578145 0.0017088982 -0.08173635 0.03253452 -0.08463272 -0.080981016 0.022518082
00000000: 261b 61bd 7289 35bb 0727 b5bd c0cc 333d
00000010: b96d 00bd 9ef6 c53c 895c ca3c ca5d 32bd
00000020: 935c 4ebd 14d4 22bd 3d80 f1bc 44bb b2bd
00000030: d944 9fbd fa85 153c eef3 08bd fc00 9fbd
00000040: 6f22 e63c 3335 09bd 69ac 83bd 5490 53bd
00000050: 76fe 86bd 22c1 b33c d780 1ebd b428 363d
00000060: 64e5 3bbd 7882 883c 1ee8 cabc 8974 82bc
00000070: 4796 2ab9 d5fb 7f3b 988a 38bd 21f1 66bd
00000080: 9af1 063d d7c6 2fbc fcc5 b63b f83a e23c
00000090: c95b 583d f8cf 1f3d fae4 803d b287 733d
000000a0: 2c46 9e3c b3f3 4d3c 4104 993d 2574 dbbb
000000b0: a14d 7d3d a06c 593d 906d af3d 6f26 323d
000000c0: 321c 4cbc 9e1e aa3d 8cdf 993d e9cf 963d
000000d0: 90fc 113c 555b 7d3d 534e 91bc 95f0 a53b
000000e0: 3cfa a3bc eb23 cb3c bf86 1abd 8625 783d
000000f0: d604 0cbd 33c0 1d3d af1e 7abd 7e93 4d3b
00000100: e995 7abc 68f1 80bc d5e4 9abc e5c8 fcbc
00000110: d723 edba 804e 08bc 9273 233d d5cf 203d
00000120: 7282 083d 4c92 8abd 00cb bcbd 8874 a73b
00000130: 9daf 17bc 49b9 023d c180 25bd 1389 58bd
00000140: 0574 95bb 430e 9fbd e91f 68bd 8d4c 2e3d
00000150: b80f acbb b792 00bd f667 86bd c4f4 c23c
00000160: 300b 1bbd 18d2 1d3d 8ea4 353d d4f5 1d3c
00000170: 45ac 3cbd 82d0 063d 3a0a 043d bd02 11bc
00000180: e555 8c3d 2203 04bb b8ac b43d 872f 1a3d
00000190: 0a2c 8e3d fa6a 9e3d e9dd 853c 2c12 1ebd
000001a0: fba9 8f3c c8d7 b23d 023e 17bd 6033 3e3d
000001b0: 3dbb ceba 4f5e 88bd 5f99 44bd 6eb4 dabc
000001c0: b399 2abd eb4f 82bc c829 113d cafa 62bd
000001d0: ffe0 91bc dfe2 483d 44c7 0f3c b158 9ebc
000001e0: 859f c43c b11f ea3b 05aa c03c 06b3 703c
000001f0: 53ee 593d 3f89 5cbb 9d9c d0bc 65a2 9d3d
00000200: 9e42 823d ee24 863c d0bb 2abd 122b 32bd
00000210: 8652 de3c 8e63 4fbd a36a edbb 5165 4fbb
00000220: 4ccf da3c 08a4 f33c 470e c4bc 48b5 b1bd
00000230: c90d 9ebd 3f74 d4bc 5490 a8bc 9959 96bd
00000240: 4e96 17bd d162 933b ba51 293c cbc4 1c3d
00000250: 4abe 7e3d 0d12 83bc 119e b1bc 4cc0 843d
00000260: 3af6 513d 1dcd 053d 9061 903d f942 7d3d
00000270: 8ea5 4ebd 02e9 81bb 65d9 7fbd 73c7 07bd
00000280: fdfe 3a3a 9e26 ef3c b79d b9bd 9dd8 cdbc
00000290: 64bb 0fbd c272 adbd 76d8 8fbd 4837 cfbc
000002a0: 5bab 51bd 287b 2fbd f94d 1d3d 6bbd 8a3b
000002b0: f24f 4dbd d4f8 aabc 24a9 b7bc daad a43c
000002c0: 3c09 2f3d 0a7b ad3c 4269 84bd b975 8cbd
000002d0: 9078 f4bc d441 02bd 4bc5 af3b 6994 053d
000002e0: 1dc4 613d a86d b93c 5cff 783d 33c1 17bd
000002f0: d9c0 7f3d 84fb 423d f0d6 a03d 082c 0e3d
00000300: 7f89 a93d 6220 fd3c 4c89 62bd 057c d5bc
00000310: cd61 0cbd cddf 0dbd 8d31 9cbd 4499 993a
00000320: 1a81 493c c5e8 78bd 6bda ffbc f962 713d
00000330: 1650 463c 9d96 24bd fb08 0cbd 5803 8cbd
00000340: f7b8 a53d 9824 8c3d 515a 5a3d 3622 bb3d
00000350: 06fa a43d b9bc 843d 540c 843c 418d a93d
00000360: 6cc8 87bc e846 6e3d c1ea 9e3c 2c1b ba3c
00000370: abc6 1a3d 51fb b33d ed93 5f3d c81f 69bc
00000380: 6dc8 433d d6ee 3a3b ddcb 7d3d 850f 8b3c
00000390: 3dfc a53d eb79 7f3c 4821 36bd b65f b93d
000003a0: b84f a83b fbd1 8d3c 3399 bbbc 41eb 8c3d
000003b0: c93f 87bc a5ae 953d 957f 633d 5b7b a23d
000003c0: 30fd 853b 368f 1cbc 8f17 32bd 2cb2 8f3d
000003d0: 4488 0dbc 05d8 c23c 5a9e 59bd aa99 3a3d
000003e0: eb7d d43c 4de1 423d 1cfd df3a 6365 a7bd
000003f0: eb42 053d eb53 adbd 60d9 a5bd d777 b83c

fc_merge.0.bias f4 [208]
0.07962804 0.019032737 -0.023655865 0.0065758075 -0.013239067 0.05325665 0.00023523338 -0.025358627
0.04428771 0.08059306 -0.064519174 0.0005677738 0.06886012 -0.046189554 0.028596092 0.02599465
-0.036774945 -0.007860154 -0.021868229 -0.021517565 -0.05747341 0.033348106 0.08338507 -0.066885106
-0.009314108 0.03624663 -0.0062148366 0.06591869 0.024449967 0.07554875 -0.035669427 -0.041703828
-0.010737146 0.031311214 0.055875096 0.08071835 -0.0049600643 -0.051538225 0.04487388 0.053125698
0.07851824 -0.067229815 0.025277363 0.062272064 -0.039081354 0.027340991 -0.005935666 0.038081642
-0.052398358 0.030817594 -0.0231203 -0.03095144 -0.057726968 0.05777232 0.01658027 -0.014412745
0.06421663 -0.025505774 -0.035894316 0.03651844 0.03970879 0.080345854 -0.047569185 -0.013482335
-0.0012160792 -0.074214004 0.008618208 0.023310969 -0.03616267 -0.06558354 0.048658453 0.07694431
0.01758838 0.028904377 0.06280973 0.06339954 0.07287721 -0.077640854 0.008419323 0.0071463357
-0.07350273 0.016780265 0.03360047 -0.01756289 0.02253489 -0.06713195 0.008639209 0.0394099
0.07377856 -0.019293647 -0.01928203 -0.016942605 -0.029860104 0.070742846 -0.00059128995 0.006535449
-0.020945026 0.042696048 -0.05631694 -0.019253008 0.019021805 0.047433197 0.003300261 -0.07637846
-0.05899392 0.04211328 0.07414918 0.008028909 0.013760762 -0.006142131 0.027812034 0.07112399
-0.06915025 -0.043999318 -0.027350947 -0.0041947765 -0.070517614 0.062211968 0.0628574 0.05300346
0.00026539568 -0.051928077 -0.0397789 -0.024483303 -0.08355846 -0.08205841 0.03593188 -0.0056201704
0.011771285 0.061477747 0.008327935 -0.04129448 0.07243655 0.030601425 -0.03700773 0.03301653
0.037628062 -0.014500333 0.046918552 -0.048892207 -0.028660076 -0.021862267 -0.021617368 0.0041235294
-0.021603445 0.038549688 -0.02918748 -0.040459495 0.07637921 0.03678731 0.048739556 0.044429712
-0.06617224 -0.062209267 -0.04223368 -0.06585849 0.0045555574 -0.037677117 0.030208165 -0.007903176
0.041128855 0.08014456 0.022347704 -0.04819526 0.0033243592 -0.072018705 0.037877362 -0.010184285
0.08706576 0.048628494 0.013647367 0.042571317 0.039030965 0.018864822 0.05542191 -0.024979513
0.07352876 -0.01154217 -0.07855676 0.015464459 0.0016090934 0.043565013 -0.048483927 0.033997875
0.04600082 -0.040355626 0.031590037 0.01948757 -0.00086271524 -0.042578142 -0.029365577 -0.060447387
-0.07228485 -0.05248432 0.046511058 -0.028297946 -0.044273093 0.07835671 -0.00557538 0.05776603
-0.002712452 -0.05881658 0.034727994 0.018285368 0.0006987165 0.07726912 -0.018068446 0.0032450836
00000000: 0714 a33d 8bea 9b3c f2c9 c1bc df79 d73b
00000010: ace8 58bc a523 5a3d fba8 7639 e5bc cfbc
00000020: 0867 353d f90d a53d a122 84bd a8d6 143a
00000030: 8906 8d3d 4231 3dbd 5a42 ea3c bbf2 d43c
00000040: 53a1 16bd e0c7 00bc 0025 b3bc 9b45 b0bc
00000050: 3d69 6bbd 0698 083d cbc5 aa3d 0ffb 88bd
00000060: 339a 18bc 5977 143d d4a5 cbbb 6100 873d
00000070: 4c4b c83c 4eb9 9a3d 1b1a 12bd a2d1 2abd
00000080: dbea 2fbc 3040 003d 49dd 643d aa4f a53d
00000090: 0988 a2bb bf19 53bd accd 373d 559a 593d
000000a0: 2cce a03d c9af 89bd 7912 cf3c fe10 7f3d
000000b0: c513 20bd 37fa df3c fa7f c2bb 7ffb 1b3d
000000c0: a99f 56bd 2e75 fc3c c966 bdbc e08d fdbc
000000d0: 1d73 6cbd aba2 6c3d 59d3 873c 6f23 6cbc
000000e0: 0284 833d 7cf1 d0bc eb05 13bd 5c94 153d
000000f0: afa5 223d 5e8c a43d e8d7 42bd 03e5 5cbc
00000100: d964 9fba 83fd 97bd 6233 0d3c a5f6 be3c
00000110: 4f1f 14bd aa50 86bd 164e 473d fa94 9d3d
00000120: 8215 903c dfc8 ec3c 63a2 803d 9ed7 813d
00000130: a640 953d 2b02 9fbd 33f1 093c cf2b ea3b
00000140: 9988 96bd c476 893c a5a0 093d 0de0 8fbc
00000150: 179b b83c 7a7c 89bd 788b 0d3c 466c 213d
00000160: 3719 973d b60d 9ebc 59f5 9dbc 38cb 8abc
00000170: 2d9d f4bc a0e1 903d cc00 1bba 5227 d63b
00000180: e794 abbc 0de2 2e3d 97ac 66bd 7cb8 9dbc
00000190: 9ed3 9b3c 5049 423d 3149 583b 4f6c 9cbd
000001a0: 9ca3 71bd fa7e 2c3d 86db 973d af8b 033c
000001b0: d274 613c ee43 c9bb 10d6 e33c 74a9 913d
000001c0: a59e 8dbd a138 34bd 180f e0bc 5674 89bb
000001d0: 8a6b 90bd fad1 7e3d 61bb 803d 281a 593d
000001e0: ce24 8b39 89b2 54bd 33ef 22bd 3591 c8bc
000001f0: b320 abbd 3d0e a8bd 4f2d 133d 6829 b8bb
00000200: 59dc 403c 17d0 7b3d e471 083c 6724 29bd
00000210: 9d59 943d d7af fa3c 6b95 17bd 573c 073d
00000220: e21f 1a3d ce92 6dbc ab2d 403d 3243 48bd
00000230: 89c8 eabc 7f18 b3bc e816 b1bc ac1e 873b
00000240: b5f9 b0bc 47e6 1d3d 951a efbc dbb8 25bd
00000250: b46c 9c3d 4aae 163d 21a3 473d eefb 353d
00000260: 5085 87bd 25cf 7ebd 39fd 2cbd d1e0 86bd
00000270: c946 953b 5253 1abd 1d77 f73c 537c 01bc
00000280: bb76 283d d522 a43d 8812 b73c 6568 45bd
00000290: 7edd 593b 8b7e 93bd 4b25 1b3d fddb 26bc
000002a0: 884f b23d ac2e 473d 3599 5f3c 435f 2e3d
000002b0: efde 1f3d 668a 9a3c 1602 633d d6a1 ccbc
000002c0: 3f96 963d 5f1b 3dbc 5ee2 a0bd a45e 7d3c
000002d0: 37e8 d23a 3a71 323d 1597 46bd 5b41 0b3d
000002e0: 5b6b 3c3d f14b 25bd 8e64 013d 65a4 9f3c
000002f0: d727 62ba 6b66 2ebd 1490 f0bc ae97 77bd
00000300: 140a 94bd ccf9 56bd 6182 3e3d 18d1 e7bc
00000310: b457 35bd 7c79 a03d adb1 b6bb 139c 6c3d
00000320: 65c3 31bb a7e9 70bd f13e 0e3d 32cb 953c
00000330: 122a 373a 463f 9e3d 4704 94bc 78ab 543b

fc_velocity.0.weight f4 [126, 208]
-0.065248586 -0.009700634 -0.023318091 0.02860237 0.008128943 0.04339593 0.022810215 0.008440918
0.06869559 0.036646742 -0.046252433 -0.003982421 -0.06645871 -0.03733785 -0.022663532 0.043954086
0.03605659 -0.016076222 0.055385966 -0.029312896 0.008812016 -0.01504808 -0.0053481646 0.037137743
-0.04821923 0.012473383 -0.031844284 0.042406216 -0.07279375 -0.050543055 -0.051575504 -0.04270935
0.04887326 0.03613663 -0.010517475 -0.02143739 0.020422712 0.027250312 -0.06068864 0.008876384
0.048011277 -0.015518974 0.0013821017 -0.018379724 0.025505176 0.0012849919 0.020063438 0.04466948
0.06093891 -0.048019145 -0.062292375 -0.038918052 0.04789725 0.055143014 -0.014677207 0.028850544
-0.0751808 -0.07757393 -0.05995384 -0.07499433 -0.020478176 0.023586923 -0.0029228667 -0.03284586
-0.040648293 -0.053498592 -0.056342214 0.041859295 -0.04659399 0.0022454348 0.047895443 0.0025608982
0.054355554 -0.063289076 0.037954137 -0.038377423 -0.042151388 -0.00025577005 0.031115491 0.010101774
-0.019049268 -0.057741866 0.07257858 0.045338847 -0.0044282284 0.04734003 0.016256195 -0.0021647103
-0.0017522319 0.05940696 0.05763654 0.01176265 0.027748274 -0.048722286 -0.033214442 0.060685866
-0.042353462 -0.008828489 0.014594209 0.030973934 -0.02771992 0.042141713 -0.0066561913 -0.036187705
0.028033582 0.043494806 0.035346527 -0.026631763 0.019366615 0.024281738 -0.059034627 -0.013908824
0.008646956 0.014196353 0.028100472 0.063266486 0.07603167 -0.047589373 -0.0021048635 -0.072903514
-0.045756646 -0.014770511 0.024606675 0.0028141856 -0.020108676 0.019280257 0.00044986454 -0.045726046
-0.0564079 0.058339026 0.024985855 0.014218121 0.059624307 -0.039654214 0.012122594 -0.05214526
-0.016149582 0.029230926 0.009976654 -0.015025912 0.009286325 0.03793261 -0.034330115 -0.059295032
-0.029555129 0.050348632 -0.059608787 0.068194084 -0.02383091 -0.05644943 0.020524511 0.0030359307
0.023806062 -0.025098784 0.038989965 0.063587114 0.010862192 0.042509858 -0.012510633 -0.0057169194
0.033110186 0.044938892 -0.007045351 -0.06885418 -0.06435763 0.04400677 0.010251147 0.027878664
0.04483062 0.023981746 -0.056349065 -0.019718114 0.031859666 0.007679751 -0.03813269 0.051031966
-0.0665263 0.0567029 -0.044931035 0.023951974 0.0046939 -0.052327562 0.046945 0.051614165
-0.023465797 0.014826911 -0.0040292204 -0.023045788 -0.014240994 -0.07224414 -0.014550442 -0.00903241
0.0056865993 0.052826475 -0.054220635 0.015871136 0.010402392 -0.042637385 -0.031815216 -0.07524679
-0.00023382825 -0.034423772 0.00013514432 0.0050333445 -0.010541853 0.04203377 0.033342417 -0.054051597
-0.044976026 -0.054503974 -0.0071198177 0.004087838 -0.051203705 0.070223086 -0.063597165 0.007297337
-0.046308223 0.010467484 0.017253958 0.0055412566 -0.01732436 -0.003731455 0.0020002774 0.032366503
0.003370205 -0.008739401 0.045359254 0.015334002 0.058407973 0.0057640746 0.05054054 -0.03459213
0.01332123 -0.0188767 -0.06866195 -0.0019442228 -0.047173373 -0.04427444 -0.019269982 -0.010321683
-0.06512675 -0.023605196 0.033558886 0.0026037083 -0.06639887 0.012555641 0.057955157 -0.048046246
-0.018037409 -0.016709106 0.034855314 -0.04018592 0.061025664 0.04143516 -0.06858689 0.019657133
00000000: 0da1 85bd 68ef 1ebc 9505 bfbc 844f ea3c
00000010: 422f 053c eebf 313d 7ddc ba3c c74b 0a3c
00000020: 46b0 8c3d e51a 163d 3173 3dbd f87e 82bb
00000030: 811b 88bd 93ef 18bd dfa8 b9bc 3309 343d
00000040: 13b0 133d 48b2 83bc 65dc 623d 9921 f0bc
00000050: 4660 103c 398c 76bc a83f afbb bf1d 183d
00000060: 8781 45bd 295d 4c3c 276f 02bd 24b2 2d3d
00000070: e414 95bd 3c06 4fbd d640 53bd 00f0 2ebd
00000080: 542f 483d 0104 143d 7d51 2cbc 779d afbc
00000090: 884d a73c 0c3c df3c a794 78bd 416e 113c
000000a0: 79a7 443d 4b43 7ebc a327 b53a 1391 96bc
000000b0: 3bf0 d03c 2c6d a83a 145c a43c 58f7 363d
000000c0: 149b 793d b9af 44bd 4a26 7fbd 8968 1fbd
000000d0: e82f 443d a4dd 613d ab78 70bc fa57 ec3c
000000e0: 64f8 99bd 15df 9ebd 2892 75bd a196 99bd
000000f0: d9c1 a7bc 5d39 c13c 918d 3fbb 6189 06bd
00000100: d37e 26bd 5721 5bbd 18c7 66bd a774 2b3d
00000110: 57d9 3ebd 2528 133b 032e 443d bed4 273b
00000120: eea3 5e3d b49d 81bd cc75 1b3d a531 1dbd
00000130: efa6 2cbd e018 86b9 eae5 fe3c e981 253c
00000140: 360d 9cbc bc82 6cbd 14a4 943d 3ab5 393d
00000150: ac1a 91bb 9fe7 413d b62b 853c d0dd 0dbb
00000160: 25ab e5ba b654 733d 4b14 6c3d 21b8 403c
00000170: 5950 e33c 0591 47bd de0b 08bd be91 783d
00000180: d37a 2dbd 5ea5 10bc 8d1c 6f3c 0cbd fd3c
00000190: e314 e3bc ca9c 2c3d 2e1c dabb 8f39 14bd
000001a0: afa6 e53c 9c27 323d 85c7 103d db2a dabc
000001b0: bca6 9e3c 7fea c63c 4bce 71bd d6e1 63bc
000001c0: f6ab 0d3c d297 683c f632 e63c dc91 813d
000001d0: 7eb6 9b3d 13ed 42bd c0f1 09bb 704e 95bd
000001e0: 526b 3bbd 0300 72bc f093 c93c 336e 383b
000001f0: f3ba a4bc a1f1 9d3c ccdb eb39 3c4b 3bbd
00000200: f80b 67bd e7f4 6e3d 23af cc3c 1ff3 683c
00000210: 9e38 743d 756c 22bd d89d 463c 4596 55bd
00000220: 214c 84bc b275 ef3c 1f75 233c 3e2f 76bc
00000230: ac25 183c 395f 1b3d bc9d 0cbd 59df 72bd
00000240: 991d f2bc 5e3a 4e3d 5828 74bd 57a9 8b3d
00000250: 0a39 c3bc 8437 67bd 0523 a83c 77f6 463b
00000260: ee04 c33c f79b cdbc f1b3 1f3d f639 823d
00000270: 56f7 313c d11e 2e3d 66f9 4cbc ff54 bbbb
00000280: 8c9e 073d d811 383d b0dc e6bb 6c03 8dbd
00000290: efcd 83bd 7140 343d 6df4 273c cc61 e43c
000002a0: 50a0 373d 5e75 c43c 47ce 66bd e287 a1bc
000002b0: 487f 023d 6ca6 fb3b 0631 1cbd e506 513d
000002c0: f13e 88bd 4d41 683d 9b09 38bd ee36 c43c
000002d0: 49cf 993b 6d55 56bd 6649 403d 6069 533d
000002e0: 583b c0bc 92ec 723c 8d07 84bb 85ca bcbc
000002f0: 0f53 69bc bcf4 93bd fa64 6ebc acfc 13bc
00000300: a756 ba3b 9360 583d 7516 5ebd 2f04 823c
00000310: cb6e 2a3c 8aa4 2ebd ac50 02bd fd1a 9abd
00000320: cb2f 75b9 f1ff 0cbd 87b5 0d39 c1ee a43b
00000330: bcb7 2cbc 9a2b 2c3d 0f92 083d 3565 5dbd
00000340: c838 38bd 8f3f 5fbd 5c4d e9bb 45f3 853b
00000350: faba 51bd 1fd1 8f3d 3b3f 82bd 801e ef3b
00000360: b1ad 3dbd cf7f 2b3c 2c58 8d3c 6e93 b53b
00000370: d1eb 8dbc 6d8b 74bb 1617 033b bd92 043d
00000380: a8de 5c3b b42f 0fbc a0ca 393d 773b 7b3c
00000390: 333d 6f3d 90e0 bc3b 9903 4f3d 7ab0 0dbd
000003a0: 4a41 5a3c 4fa3 9abc a39e 8cbd 4bd5 feba
000003b0: de38 41bd 1d59 35bd 15dc 9dbc 471c 29bc
000003c0: 2c61 85bd af5f c1bc 0b75 093d faa2 2a3b
000003d0: 21fc 87bd 2db6 4d3c 6362 6d3d 24cc 44bd
000003e0: 30c3 93bc 89e1 88bc 72c4 0e3d fe99 24bd
000003f0: 0cf6 793d eab7 293d 4977 8cbd ff07 a13c

fc_velocity.0.bias f4 [126]
0.042063463 0.052174296 -0.00392829 0.020959405 -0.033917338 -0.028414525 0.01778955 0.06713144
0.019419692 0.06308309 -0.01862718 0.011506644 0.02377514 -0.050489336 0.024849735 0.070686914
-0.05538102 -0.064665444 -0.05828173 -0.047062725 -0.004287 0.026386613 0.0475663 0.04615842
-0.07059157 -0.04988939 -0.006308691 0.023558881 0.02954846 -0.032230653 0.037882544 0.012135628
0.06924096 -0.016868912 0.04997545 -0.056632135 0.023273423 0.04207888 0.060923103 0.0030769533
-0.037384536 0.009041983 -0.0029840337 0.05636536 0.038274582 -0.0752101 0.018273622 0.07530073
0.024485044 -0.036624264 -0.066601224 -0.06866123 -0.06691394 -0.004186716 0.031201616 -0.03355049
0.052157387 -0.00917836 -0.048088323 -0.021262031 -0.02777622 -0.043155808 -0.03798469 -0.030543827
0.062916666 -0.0001355002 -0.0023614692 -0.056189124 0.06513346 0.04266691 -0.037596453 0.047256067
0.06500706 0.040768564 0.0065406603 0.023722123 0.0545311 -0.060373172 0.02428578 -0.022167066
0.05206431 0.06873327 0.04711032 0.05995792 -0.07034532 0.04971475 0.063942336 0.063837156
0.060385983 -0.023166118 0.07020949 -0.045004025 0.03017548 -0.010339263 -0.03140221 0.0046741897
0.027119942 -0.020977514 0.021122064 -0.04686424 0.0063234395 0.022522554 0.026578568 -0.004531667
-0.019936835 -0.033606596 0.039131116 0.05198171 0.03310596 -0.07358664 0.040432476 0.045838643
0.0037679032 -0.035957612 -0.05743049 -0.04455502 0.023277767 0.04518585 0.02515003 -0.042068895
-0.0628309 -0.00021689535 -0.050321706 -0.0496891 0.020612974 0.044247486
00000000: bd4a 2c3d b7b4 553d e3b8 80bb 0fb3 ab3c
00000010: e8ec 0abd 94c5 e8bc 64bb 913c 357c 893d
00000020: 0c16 9f3c b531 813d 0798 98bc 5d86 3c3c
00000030: 15c4 c23c e8cd 4ebd ac91 cb3c 4dc4 903d
00000040: 35d7 62bd 516f 84bd d3b8 6ebd d8c4 40bd
00000050: f679 8cbb bd28 d83c e1d4 423d 9d10 3d3d
00000060: 5092 90bd d158 4cbd 23b9 cebb 8efe c03c
00000070: 9d0f f23c 4a04 04bd ba2a 1b3d 83d4 463c
00000080: 34ce 8d3d ac30 8abc 0fb3 4c3d 19f7 67bd
00000090: e8a7 be3c e75a 2c3d 818a 793d b6a6 493b
000000a0: 8720 19bd d324 143c c78f 43bb 5ddf 663d
000000b0: cfc5 1c3d c107 9abd 90b2 953c 4537 9a3d
000000c0: dc94 c83c 5303 16bd 3966 88bd 429e 8cbd
000000d0: 2d0a 89bd b830 89bb 889a ff3c 3d6c 09bd
000000e0: fca2 553d d560 16bc 43f8 44bd b62d aebc
000000f0: f58a e3bc 25c4 30bd d695 1bbd 0c37 fabc
00000100: 74da 803d 0f15 0eb9 e1c2 1abb 9126 66bd
00000110: b164 853d 7fc3 2e3d bdfe 19bd 948f 413d
00000120: 6c22 853d f0fc 263d 0953 d63b e654 c23c
00000130: 015c 5f3d dc49 77bd f9f2 c63c b597 b5bc
00000140: 6341 553d 07c4 8c3d c0f6 403d 7096 753d
00000150: 3511 90bd b2a1 4b3d 33f4 823d 0ebd 823d
00000160: 4b57 773d dfc6 bdbc fec9 8f3d 2456 38bd
00000170: 9132 f73c 0366 29bc 9b9f 00bd f229 993b
00000180: a42a de3c 09d9 abbc 2e08 ad3c b8f4 3fbd
00000190: db34 cf3b 3881 b83c 4cbb d93c 617e 94bb
000001a0: 9352 a3bc 12a7 09bd f347 203d c6ea 543d
000001b0: 1d9a 073d 98b4 96bd 869c 253d 4dc1 3b3d
000001c0: edee 763b 4a48 13bd 3c3c 6bbd 537f 36bd
000001d0: 04b1 be3c cc14 393d 7007 ce3c 6f50 2cbd
000001e0: 7dad 80bd 676e 63b9 221e 4ebd cc86 4bbd
000001f0: 8adc a83c da3c 353d

fc_velocity.2.weight f4 [4, 126]
0.0029601061 0.07861946 0.035045974 -0.07834162 -0.06713355 -0.056901816 -0.018399859 0.07156951
-0.06820254 -0.027844982 -0.06260604 0.06353382 0.04298549 0.023640132 -0.06670555 0.030988613
0.044442773 0.06673764 0.0070934063 -0.030060718 0.06993005 0.00240835 0.08589263 0.013617148
-0.08412242 0.041624233 -0.042257197 0.058311578 -0.014704736 0.008432192 0.084296726 -0.043156907
-0.042212695 -0.08029161 0.081750415 -0.018986735 -0.0069845603 -0.077154614 -0.060780697 -0.030703891
-0.08171326 0.041852497 0.020888004 -0.04226975 -0.024631467 -0.05306075 -0.07335876 -0.009740773
-0.08068493 0.07568809 -0.029068036 -0.04171603 -0.08347491 -0.005719414 -0.037697997 0.07191892
-0.0028554273 0.024495795 0.0771365 0.085875474 -0.02844941 -0.04401632 -0.008876617 -0.005971049
-0.062964186 0.030777797 -0.02428947 -0.022666425 0.070534356 -0.031043462 0.009620781 -0.021592308
0.026996573 -0.04829468 0.0053326967 -0.045558993 0.09070849 -0.020255746 -0.02718262 0.05873846
0.08003883 0.03674982 -0.038769368 -0.060191955 0.021583157 0.07326708 0.08500738 0.003559144
-0.07177032 0.05493825 -0.0023004813 0.07931512 0.06005075 -0.078943364 0.042327754 0.07945397
0.06143782 0.080985844 -0.02057514 -0.048738558 0.0029594877 0.0139963 0.0057080057 -0.0058541102
0.020606171 0.0040923418 -0.06507337 -0.07737421 -0.07837092 -0.024750775 -0.00019393835 0.027613273
-0.012480591 0.037319586 -0.07247818 0.005743382 -0.040187486 0.06802739 -0.052157395 0.037407916
0.019603673 0.067219086 0.05507969 -0.08540284 -0.033847857 -0.041359752 -0.068297856 -0.025804967
-0.08493507 -0.011720935 -0.044175617 -0.0012014665 -0.02150721 -0.031121735 0.006667486 0.06372057
-0.041665506 -0.0030618615 -0.05125707 0.07575156 -0.044941206 0.01365342 -0.086197905 -0.0309994
0.043551076 -0.042850234 -0.070763275 -0.014412473 0.01570566 0.005453815 0.07652135 -0.06102479
0.031197164 0.04525468 0.066567466 0.02450753 -0.042450752 0.038157098 0.07348725 -0.09036565
-0.022235544 0.047616754 -0.030780464 0.0154634975 -0.07224169 -0.0345267 0.04764417 -0.07354377
0.056310628 0.0084755765 -0.016790241 -0.057280276 -0.07830642 0.047442984 -0.026984842 -0.05021813
-0.05122178 0.044545285 -0.07799091 -0.0676623 0.0740684 0.012118895 -0.02268881 -0.049448512
0.058283407 0.048067108 0.04367897 0.06319809 0.008818501 0.005241449 0.082686104 0.059835743
0.071268946 0.057401463 -0.09463039 0.053322982 -0.08038009 0.03944508 -0.068245366 -0.032416917
0.04696959 0.05368832 0.0044939164 0.042409334 0.024231333 0.036840715 -0.03496596 0.03447564
-0.054687534 0.03897374 -0.07019585 -0.054371964 -0.021625962 -0.035741184 -0.03616534 -0.07198519
0.074380666 0.04481985 0.088067 -0.07035911 0.04532587 0.0907636 0.056730635 -0.093078926
-0.03712193 0.0605365 0.010760231 0.061883967 0.0057177786 -0.047244836 -0.029180601 -0.06337826
-0.08482493 0.052615076 0.01372621 -0.08120306 -0.032148052 0.02691111 0.031180954 -0.07536917
-0.021779792 0.0695672 0.09044021 -0.07541606 -0.08294758 -0.07303783 -0.030122146 0.059289116
-0.052073333 0.043222718 0.07659736 -0.047377847 -0.018159013 0.023614278 0.07940596 -0.01775745
00000000: 57fe 413b 3d03 a13d 5e8c 0f3d 9271 a0bd
00000010: 517d 89bd e111 69bd 4dbb 96bc 0993 923d
00000020: c6ad 8bbd 291b e4bc 9837 80bd 051e 823d
00000030: 8e11 303d f3a8 c13c eb9c 88bd d5db fd3c
00000040: a009 363d bead 883d ce6f e83b e541 f6bc
00000050: 7c37 8f3d 68d5 1d3b 7ae8 af3d 751a 5f3c
00000060: 6048 acbd 2c7e 2a3d e215 2dbd 1fd8 6e3d
00000070: 22ec 70bc 2d27 0a3c c3a3 ac3d 4cc5 30bd
00000080: 38e7 2cbd ed6f a4bd c36c a73d 128a 9bbc
00000090: bdde e4bb 3d03 9ebd 2ef5 78bd ba86 fbbc
000000a0: 4859 a7bd 866d 2b3d 521d ab3c 0c23 2dbd
000000b0: eec7 c9bc 3b56 59bd 1e3d 96bd c397 1fbc
000000c0: 243e a5bd 5b02 9b3d 1720 eebc 6ede 2abd
000000d0: e5f4 aabd ec69 bbbb 3769 1abd 3a4a 933d
000000e0: 1f22 3bbb 68ab c83c bef9 9d3d 7bdf af3d
000000f0: bd0e e9bc 754a 34bd 3b6f 11bc caa8 c3bb
00000100: 5ef3 80bd b821 fc3c b6fa c6bc f0ae b9bc
00000110: 5174 903d dc4e febc 7ba0 1d3c 5ae2 b0bc
00000120: eb27 dd3c a4d0 45bd e7bd ae3b 119c 3abd
00000130: 5fc5 b93d 61ef a5bc 16ae debc bd97 703d
00000140: 66eb a33d fb86 163d a1cc 1ebd d78b 76bd
00000150: 29cf b03c 0d0d 963d 5918 ae3d 8740 693b
00000160: 51fc 92bd ee06 613d acc3 16bb f76f a23d
00000170: c6f7 753d 0fad a1bd de5f 2d3d c3b8 a23d
00000180: 39a6 7b3d e8db a53d 328d a8bc 15a2 47bd
00000190: f7f3 413b bd50 653c 390a bb3b d6d3 bfbb
000001a0: 46ce a83c 0d19 863b 3045 85bd 5f76 9ebd
000001b0: ef80 a0bd 23c2 cabc ee5b 4bb9 3b35 e23c
000001c0: 657b 4cbc 6cdc 183d 716f 94bd fb32 bc3b
000001d0: a29b 24bd f251 8b3d fea2 55bd 0b39 193d
000001e0: e297 a03c 29aa 893d 3e9b 613d afe7 aebd
000001f0: 0da4 0abd d868 29bd bfdf 8bbd f064 d3bc
00000200: 70f2 adbd 2a09 40bc 7ef1 34bd 877a 9dba
00000210: e32f b0bc 02f3 febc ed7a da3b ee7f 823d
00000220: 73a9 2abd 83a9 48bb eff2 51bd a223 9b3d
00000230: 4514 38bd 98b2 5f3c 8788 b0bd 74f2 fdbc
00000240: 9d62 323d ba83 2fbd 56ec 90bd 4b22 6cbc
00000250: 28a9 803c ebb5 b23b 3ab7 9c3d 21f5 79bd
00000260: 3291 ff3c f95c 393d 8654 883d 04c4 c83c
00000270: d7e0 2dbd 9e4a 1c3d 7c80 963d a011 b9bd
00000280: 5127 b6bc c909 433d 5027 fcbc 9c5a 7d3c
00000290: 73f3 93bd de6b 0dbd 8826 433d 1e9e 96bd
000002a0: f9a5 663d 25dd 0a3c b08b 89bc b99e 6abd
000002b0: 1e5f a0bd 9353 423d 510f ddbc 87b1 4dbd
000002c0: eecd 51bd 1e75 363d b3b9 9fbd 8892 8abd
000002d0: 2cb1 973d 548e 463c e2dd b9bc 868a 4abd
000002e0: 95ba 6e3d 04e2 443d b8e8 323d 006e 813d
000002f0: 797b 103c 76c0 ab3b 5557 a93d 5316 753d
00000300: 74f5 913d cc1d 6b3d 94cd c1bd 3369 5a3d
00000310: 519e a4bd 2a91 213d 3ac4 8bbd 9ac7 04bd
00000320: 2f63 403d 49e8 5b3d b441 933b 69b5 2d3d
00000330: ca80 c63c 4ae6 163d 7738 0fbd 5436 0d3d
00000340: 0900 60bd eea2 1f3d d8c2 8fbd 23b5 5ebd
00000350: ee28 b1bc 5965 12bd 1c22 14bd f96c 93bd
00000360: e454 983d 0595 373d 795c b43d 7018 90bd
00000370: 9fa7 393d 44e2 b93d 625e 683d 2aa0 bebd
00000380: 2a0d 18bd 1ff5 773d ae4b 303c 0b7a 7d3d
00000390: 345c bb3b cd83 41bd 280c efbc 76cc 81bd
000003a0: b1b8 adbd e882 573d e6e3 603c ca4d a6bd
000003b0: adad 03bd b074 dc3c 336f ff3c 275b 9abd
000003c0: 896b b2bc 4079 8e3d b838 b93d bc73 9abd
000003d0: 6ce0 a9bd dc94 95bd b8c2 f6bc 25d9 723d
000003e0: d94a 55bd 4e0a 313d 14df 9c3d 460f 42bd
000003f0: 36c2 94bc bb72 c13c 989f a23d 1278 91bc

fc_velocity.2.bias f4 [4]
0.046704438 0.05015876 -0.012456403 -0.0020688027
00000000: 274d 3f3d 4673 4d3d f115 4cbc c094 07bb
