carlike_gym/model_200.pth (torch, 526994 bytes, 11 tensors)

features_extractor.conv1.weight f4 [16, 4, 4]
000000 60 93 f3 bd 37 49 9c 3c 78 a7 18 be d2 d6 af 3d
       -0.11893344 0.01907788 -0.14907634 0.085858956
000010 7f 8e 32 bd e6 79 35 3e 15 5b 6a 3d f3 ae be 3d
       -0.043592926 0.17722282 0.05721577 0.09310713
000020 1e 7e ba bc 18 87 6a be 1c 1c 80 be 4b cb 59 3d
       -0.022765215 -0.22903097 -0.25021446 0.05317239
000030 7f 27 79 3d 2e bf ef 3d 7a d3 7d bc 93 78 40 be
       0.060828682 0.117063865 -0.0154923145 -0.18795995
000040 c0 4d f2 3d a4 46 72 3e 4e 8d 69 be 38 41 a7 bd
       0.11831236 0.2365976 -0.2280781 -0.08166736
000050 fe 8d 45 be b4 1a b8 bd 54 13 4a be da a5 1f be
       -0.19292447 -0.08989468 -0.19733936 -0.15590611
000060 86 8c 13 be e2 9f 76 be 30 e5 0d 3d fc f8 49 be
       -0.14409074 -0.24084428 0.0346424 -0.19723886
000070 e8 fb 50 be f0 27 7d bd f8 74 0f bd e4 95 82 3d
       -0.20408595 -0.061805665 -0.03502366 0.063762456
000080 44 8b 66 bc 01 11 9a 3e cc da 0a 3b 9a 51 66 3e
       -0.014071289 0.30091098 0.0021187542 0.22492066
000090 bf 95 02 be f2 37 28 bd 54 0b 3b 3e 61 74 7d bd
       -0.12752436 -0.04106898 0.1826604 -0.061878566
0000a0 6a cb dd bd 28 b4 03 3d 31 2d 56 3d 93 7a 11 be
       -0.10829814 0.032154232 0.05228919 -0.14206915
0000b0 22 51 b9 3d 06 7b 20 be 93 df 1c 3d bd 17 a4 ba
       0.09048678 -0.1567193 0.038299154 -0.0012519282
0000c0 fc 06 40 be 38 67 e6 bd b0 e0 c1 3d e8 5f 2e 3d
       -0.18752664 -0.11250156 0.09466684 0.042571932
0000d0 98 5c be 3d b8 e9 52 bd 44 9b 66 be 80 a9 c4 bb
       0.092950046 -0.051492423 -0.22520167 -0.0060016513
0000e0 c0 cc 30 be 28 93 80 bd 60 56 97 3d f8 69 c1 bd
       -0.17265606 -0.06278068 0.073895216 -0.0944404
0000f0 c0 9b 4d 3d 00 45 70 3d 84 84 23 3e 40 24 93 bb
       0.050197363 0.058659554 0.1596852 -0.0044904053
000100 4f 05 43 3e 0a 35 4d 3e ed 1b 89 be 10 53 c7 bd
       0.19044994 0.20039764 -0.26779118 -0.0973264
000110 24 88 7b 3d 1a 17 08 3e 41 62 ca bc 95 98 e9 3c
       0.06140913 0.13290063 -0.024705054 0.02851514
000120 27 25 52 3e 30 f9 18 3d 90 08 0f 3e 0d dd 88 bd
       0.20521985 0.03734702 0.1396811 -0.06682787
000130 25 9d e4 3d de 55 d9 bc ca 62 d9 3d 8d eb 0d 3e
       0.111627854 -0.026530202 0.10614546 0.13859387
000140 49 2e bb bd ca aa cd 3d 82 b5 87 be 54 5c b2 bd
       -0.091396876 0.10042341 -0.26505667 -0.087090164
000150 56 8a 77 3e f6 8b 2c be 68 a6 0f 3d 2d 83 04 be
       0.24173865 -0.16850266 0.035070807 -0.12940665
000160 f7 4c 45 3d 0c 76 81 3e 4a 0c 78 3d 4d e6 6b 3e
       0.048169103 0.25285375 0.060558595 0.23037072
000170 e5 14 4a bd 82 a9 58 be 71 c1 3d 3e 0b 46 87 3e
       -0.049336333 -0.21158412 0.18530823 0.26420626
000180 42 1b 43 3e 74 50 23 3e 95 5d bd bd 27 05 cc 3d
       0.19053367 0.15948659 -0.09246365 0.0996192
000190 cd 04 83 3e 98 dc 28 be 09 26 d2 3d 40 a5 27 be
       0.255896 -0.164904 0.10261161 -0.16371632
0001a0 ea 3c 6e 3e 39 48 ee 3d b0 5c 87 bd aa 85 e2 3d
       0.23265424 0.11634869 -0.066094756 0.11060651
0001b0 75 8f 48 bc 41 09 91 bd 85 56 03 be c0 4a 95 3d
       -0.012241234 -0.07081843 -0.12825973 0.07289648
0001c0 59 1e 5f be 41 27 75 be d2 3f 3b be 94 9f 13 be
       -0.2178892 -0.23940755 -0.18286064 -0.14416343
0001d0 54 23 05 be 24 7b 7c 3e d2 7d 3a 3e b2 c5 27 3d
       -0.13001758 0.2465635 0.18212059 0.04096002
0001e0 6c d6 71 3e 10 92 7c 3e fb a6 63 bc d1 75 24 be
       0.23616952 0.24665093 -0.013894792 -0.16060568
0001f0 11 52 73 bd 71 a9 34 3d a7 f7 ee 3d 6f 7a 35 3e
       -0.059404436 0.044106904 0.1166833 0.17722486
000200 37 51 04 be 8b 92 ed bd e0 38 b8 bc 3d e2 29 3e
       -0.12921606 -0.116002165 -0.022488058 0.1659021
000210 5e 4b 8c 3d 3e 46 3c 3e 47 73 47 3d 3b 85 2b 3e
       0.06850313 0.1838617 0.04869392 0.16750042
000220 c8 5a 5a 3e 59 5a c1 3c 62 91 79 3e 57 76 c2 bd
       0.21323693 0.023602651 0.24371865 -0.09495228
000230 a2 fd 34 be bb ab 08 3e 7b 92 47 3e 33 3d 11 3e
       -0.17674878 0.1334676 0.19489472 0.14183502
000240 63 6e d5 bd 45 1b f2 bd f8 76 2b be 0b a7 9f 3e
       -0.10421445 -0.118216075 -0.16744602 0.3118213
000250 ff 82 c7 bd 60 97 f2 bd 1c 2a 8b bd 07 f2 38 3e
       -0.097417824 -0.11845279 -0.06795141 0.18061076
000260 1b a2 e5 bd 16 c1 7b bd df 73 32 3e 9a 6a 53 3e
       -0.1121256 -0.061463438 0.17427014 0.20646134
000270 16 18 f9 bc 38 83 4c 3d c9 6d ec 3b 2e f3 82 3d
       -0.030406993 0.049929827 0.007215236 0.06394039
000280 fe f8 52 be 10 f5 12 bd d2 14 2c be ec 22 89 bd
       -0.20602795 -0.03587824 -0.16804817 -0.06696114
000290 54 97 17 be 00 31 1f bd a4 8b 9a bd a8 87 4b be
       -0.14803821 -0.03886509 -0.075461656 -0.19875968
0002a0 40 e0 44 be bc aa 40 be 6e e4 59 3e 68 32 1e 3d
       -0.1922617 -0.1881513 0.21278545 0.03862229
0002b0 d6 6a 1b 3e e4 17 86 3d 08 4f 97 bd 68 dc 6f bd
       0.15177473 0.065475255 -0.07388121 -0.058559805
0002c0 bf 81 7a be c3 ad 99 be 9a aa 36 bd 79 1e 3a be
       -0.24463557 -0.30015382 -0.044596292 -0.18175687
0002d0 6e b2 c0 3d da 06 a5 bc 5c 91 00 be 52 3b d6 bd
       0.09409033 -0.020144869 -0.1255545 -0.10460533
0002e0 5b 6b 63 3d 93 6c 60 3e ea 6f 88 3e 1b 5c 2a 3e
       0.055522304 0.21916418 0.26647884 0.16636698
0002f0 0c d0 88 3c 45 24 36 3e 82 86 82 3e 51 de 3b 3e
       0.016700767 0.17787273 0.25493246 0.18346526
000300 34 bc 53 3e 79 05 a5 bd 27 68 03 3d 39 c7 a6 bc
       0.20677263 -0.080576845 0.03208175 -0.020358669
000310 80 69 04 be f8 28 6e bb 2c 82 d1 bd e3 4d a6 3d
       -0.1293087 -0.0036340337 -0.102299064 0.081203245
000320 31 4f f8 3d 21 d0 26 3d 58 37 f6 bd fb 98 69 3d
       0.121244796 0.04072583 -0.12022275 0.05703066
000330 4e 90 c1 bd ae 43 03 be 28 94 23 be 3d f7 7c 3e
       -0.09451352 -0.12818787 -0.15974486 0.24703689
000340 4f d4 b0 bd 35 9a 63 be cc 1f a0 3d 18 38 21 be
       -0.08634245 -0.22226794 0.07818565 -0.15744054
000350 51 22 f6 bd b8 ed 9b bb c9 ee 50 be e3 07 4a 3e
       -0.12018264 -0.004758563 -0.2040359 0.19729571
000360 d6 d6 12 bd 12 63 b5 3d e9 84 50 be 45 46 fa bd
       -0.035849415 0.08856787 -0.20363201 -0.12220434
000370 f6 b5 47 3e e3 4d 15 be c3 bd 74 be 8f 56 50 3e
       0.19503006 -0.14580493 -0.23900513 0.2034552
000380 9a 80 86 3e c5 ef 84 3d 34 bb 37 3e d7 b1 06 3d
       0.2626999 0.06491045 0.17942506 0.032884445
000390 58 0a 0d be 0d 39 3b be 4f 92 90 bd 78 46 52 bd
       -0.13773477 -0.18283482 -0.07059156 -0.051336735
0003a0 d2 43 29 3d da 9c f6 3d f6 13 3f be ab 9c 50 be
       0.041324444 0.12041636 -0.18659958 -0.20372264
0003b0 ef f6 f1 bd f9 22 30 3e 76 41 2d 3e 79 e7 9d 3d
       -0.11814677 0.17200841 0.16919503 0.077101655
0003c0 0a cb 08 3e 28 c7 8c 3e 89 68 d7 bc ed 99 9e bb
       0.13358703 0.27495694 -0.026294963 -0.0048401267
0003d0 a2 93 5c bd d2 04 7a 3e 6c 90 73 be 47 d9 4c 3d
       -0.05385173 0.24415901 -0.23785561 0.0500119
0003e0 b0 e2 79 3e f0 d6 ed bd 2f 60 93 bb c8 6c 4e bc
       0.2440288 -0.11613262 -0.00449755 -0.012599178
0003f0 18 00 53 be 8c 55 27 be 0e a2 cf bd 93 47 a9 3c
       -0.20605505 -0.16341227 -0.10138331 0.020664012

features_extractor.conv1.bias f4 [16]
000000 5f 66 5d bd c4 02 12 be e4 4f b8 3c 8e 24 0d be
       -0.054052707 -0.14258868 0.022499032 -0.13783476
000010 35 09 d5 bd c7 19 8f bd f5 c4 55 be 83 6a 02 3d
       -0.10402147 -0.069873385 -0.20875914 0.03183986
000020 98 cc 32 bd 2b e1 01 be 00 45 d6 3b 62 ba db 3d
       -0.043652147 -0.12683551 0.006538987 0.10728909
000030 64 bd ee 3c 06 11 03 bc 63 1c 6b 3d 7a f8 2c 3e
       0.029143043 -0.007999664 0.05740012 0.16891661

features_extractor.conv2.weight f4 [32, 16, 4]
000000 7a 21 e1 bd dc d9 40 3d ce c1 f0 3d 50 0a 69 bd
       -0.10992713 0.047082767 0.11755715 -0.0568946
000010 6c f5 35 bd cc 42 02 bd 16 14 bf 3d 38 ab 09 3d
       -0.044423506 -0.031801984 0.09330003 0.033610553
000020 c6 e6 d5 3d 31 5e 4a 3e 56 88 74 3d 7c fd 76 bd
       0.10444407 0.19762494 0.059700333 -0.060300335
000030 18 f0 b4 3d ac 33 b2 3d 70 e8 d1 3c c0 c5 ee 3d
       0.08834857 0.08701262 0.02562353 0.116588116
000040 65 60 bf 3c 08 d2 af 3c 3a 15 c5 3d f0 49 8f 3d
       0.023361394 0.021462455 0.09623189 0.06996524
000050 e1 03 8c bd 4a fa e2 3d f4 6d 81 bd ac ea 05 bd
       -0.06836677 0.11082895 -0.063198 -0.032694504
000060 ed 98 c9 3d 19 6e dd 3d 60 0d a4 3d 3a 8a a4 3d
       0.098436214 0.10812015 0.080103636 0.08034177
000070 9d f7 ba bd 1c a4 2f be 8b ad 9f bd 08 d2 52 3d
       -0.0912926 -0.17152447 -0.077967726 0.051469833
000080 2e 86 23 3d d3 30 c8 3d fd 88 37 3d 12 d0 1b bd
       0.039922886 0.097749375 0.044808377 -0.03804023
000090 a5 1a e3 3c 15 d7 e7 3b 2e bd bc bd 46 89 3b be
       0.027722666 0.0070752003 -0.09215771 -0.18314084
0000a0 90 46 5a bd d4 d5 c6 bd c0 67 79 3d 82 37 e6 3d
       -0.05328995 -0.09708753 0.06088996 0.11241056
0000b0 fe 84 15 be f6 69 0a be c5 41 03 be 57 fd c4 bc
       -0.14601514 -0.13516983 -0.12818058 -0.024046583
0000c0 75 4e 75 bc a4 c7 79 bc 9b 84 4c 3d 05 68 55 3e
       -0.014972319 -0.015245352 0.04993115 0.20840462
0000d0 c0 85 fe 3d 58 3c a9 3d 9c fa c7 bd 48 22 90 bc
       0.124278545 0.08263463 -0.09764597 -0.017594472
0000e0 81 00 46 3e 5b 41 66 3e 8d 64 0a 3e 45 89 01 3e
       0.1933613 0.22485869 0.1351492 0.1265002
0000f0 f0 1d f5 3c 30 1f 0d 3e ce 9f 44 3e b7 01 9e 3d
       0.029921502 0.13781428 0.19201586 0.07715171
000100 ae 7c dd 3d 84 3b 7e bd 4e ab c1 bd 42 ff c8 3d
       0.108147964 -0.062068477 -0.09456502 0.098143116
000110 68 8a fd 3c 6c 67 1f 3d 78 11 e2 bc 70 c1 a1 bd
       0.030949786 0.03891699 -0.02759622 -0.078982234
000120 0e cb 19 bd 6c 30 1e bc 02 d9 23 be 4b 0e 37 be
       -0.037547164 -0.009655099 -0.1600075 -0.17876546
000130 ae b1 e4 3d 92 76 9e 3d 18 37 6f 3d 50 13 71 3c
       0.11166702 0.07737459 0.05840215 0.014714077
000140 ff 0b b8 3a 1e 14 12 3e 42 3d ba 3d 51 da 4b 3d
       0.0014041661 0.14265487 0.09093715 0.04976875
000150 0d ff 62 bd 73 0a d6 3d 41 ce 75 3d b3 5c 54 3d
       -0.055419017 0.10451212 0.060011152 0.051846217
000160 10 d0 0d 3e d7 1f 9f bd 1c 38 99 ba e3 83 93 bd
       0.13848901 -0.07769745 -0.0011689696 -0.0720289
000170 69 8c 02 3d 7b 39 ab 3d ea a6 f3 3d 73 07 8d 3d
       0.031872187 0.08360573 0.11897071 0.068861865
000180 1d 29 83 3d 23 f4 37 3c 31 41 aa bd c5 a0 a9 bd
       0.06404326 0.01122764 -0.083132155 -0.082826175
000190 f6 06 b6 3d f4 22 4a 3e ca 68 d8 3b bf 06 0d 3e
       0.088880464 0.19739896 0.0066042887 0.13772105
0001a0 38 b7 96 bc 7c bd 82 bd a0 0a 7c 3c ec 4c 8d bd
       -0.018397912 -0.063837975 0.015383393 -0.06899437
0001b0 b3 f6 31 3d 2b 36 d7 3d e9 22 06 3d 68 d2 73 bd
       0.04344816 0.105083786 0.032748137 -0.05952683
0001c0 90 e4 50 3d cd e3 18 3e ca 0e 8b bd e1 5b f0 bd
       0.050999224 0.14930649 -0.0678993 -0.117362745
0001d0 18 27 d5 3c 40 f5 b8 3b 40 c5 63 3c 94 12 14 bd
       0.026019618 0.0056444705 0.0139020085 -0.03615053
0001e0 fe a9 3a 3d 09 66 0c be 71 ae 24 be ab 21 32 be
       0.045572273 -0.13710798 -0.16082169 -0.17395656
0001f0 24 d7 f5 3d 5f 61 40 3d 67 16 96 3d 24 46 34 bd
       0.120039254 0.04696786 0.07328492 -0.044012204
000200 e0 6d 05 3d cc 72 4b bd 64 27 98 3d 5e ad c4 bd
       0.032575488 -0.049670026 0.07429388 -0.0960338
000210 80 9e 81 3b 98 f5 4a 3d 30 0f 2c bd 5e 52 b9 bd
       0.0039556623 0.049550623 -0.04200667 -0.090489134
000220 31 5d 09 3e 0d 2b 3d 3e ea 74 43 3e 77 9c 0d 3e
       0.13414456 0.18473454 0.19087568 0.13829218
000230 30 c3 3f bd ec 96 60 bd 10 43 3d bd 50 ba 2d 3c
       -0.046817005 -0.05483143 -0.046206534 0.010603502
000240 5a 0f 83 3c 1d dd 1a 3e c8 00 96 bd a3 6a 70 3d
       0.015998531 0.1512341 -0.07324368 0.058695447
000250 c0 d9 f9 bd ee 70 87 bd ef 0a 92 3d 35 fe 94 3c
       -0.12199736 -0.066133365 0.07130992 0.018187622
000260 f7 05 21 3e 67 5a 13 3e 6a cb 91 bd e0 b6 e2 bc
       0.15724932 0.14389955 -0.07118876 -0.027675092
000270 a8 ab 1e 3d 1b 91 08 be 27 d9 8a bd 1a 1e 5c bd
       0.038737923 -0.13336603 -0.067797 -0.053739645
000280 90 13 8f 3d 62 7e 8c 3d 6c 7d 21 bd c1 b0 2a bd
       0.06986153 0.06860043 -0.039426252 -0.041672472
000290 4c fb 98 bd 88 31 0b be 39 04 48 bd 30 c6 ca bc
       -0.07469806 -0.13593113 -0.048832152 -0.024752706
0002a0 d4 dd 88 3d 4c ad f2 3d a2 49 c2 bd 4e a9 89 bd
       0.06682935 0.1184946 -0.094867006 -0.067217454
0002b0 93 b7 dc bd dc 74 04 3b d9 0a 16 be 39 72 91 3d
       -0.107772015 0.0020211255 -0.14652576 0.07101864
0002c0 08 43 9a 3d df 2b 2d 3c 15 19 2e bd 0f 23 88 3d
       0.075323164 0.010569542 -0.04250439 0.06647312
0002d0 80 c4 a7 bd 44 9d 18 3d 84 10 26 3d 3c e9 46 bd
       -0.08191776 0.037259355 0.040543094 -0.048562273
0002e0 92 2e 3f 3d 32 c9 0a 3d fc 51 07 3e 2f bf 4a bc
       0.046675272 0.03388328 0.13214868 -0.012374683
0002f0 43 6c 9c 3c 0f e5 32 bd 30 a6 2e 3e 30 46 49 3e
       0.019094592 -0.04367548 0.17055583 0.1965568
000300 52 09 c6 bd 34 bc 6d 3d 24 c3 d3 bd d0 a6 aa bd
       -0.096697465 0.058040813 -0.103399545 -0.08332598
000310 98 c2 2e 3d c0 6a 32 3b 78 66 cb 3c 14 aa cd 3d
       0.042666048 0.0027224272 0.024829134 0.100422055
000320 de 43 d8 bd a3 13 00 3c 47 64 ac 3d 45 8b 61 bd
       -0.1055982 0.007817182 0.08417564 -0.05506446
000330 bc ec f6 bd e0 b2 21 bd 02 3d 9d bd d0 63 a4 bd
       -0.12056872 -0.03947723 -0.07677652 -0.0802685
000340 12 08 a2 bd d8 37 55 3c e4 c3 d5 3c 91 a0 85 bd
       -0.079116955 0.0130138025 0.026094384 -0.06524766
000350 15 d7 d4 3d b7 01 c1 bd ac 29 31 bd e2 7e f0 3d
       0.10392586 -0.09424155 -0.043252632 0.11742951
000360 2b 3f 47 bb 80 45 48 3d 93 60 02 be d9 e3 43 bd
       -0.0030402641 0.048894405 -0.12732153 -0.047824714
000370 5b 84 37 3d 0b b9 5c 3c fa 60 f3 bb be d6 86 bd
       0.04480396 0.013471852 -0.007427332 -0.065839276
000380 22 d3 8c 3d 68 5f aa bd d4 fd c1 bd c8 ba f3 3d
       0.06876208 -0.083189785 -0.09472242 0.1190086
000390 f4 0c 84 3d 0c 98 9c 3d 1c 4c b7 bd c0 0b dd 3d
       0.06447783 0.07646188 -0.089500636 0.10793257
0003a0 18 1f cb bc ec 25 03 3d 38 96 88 bc b0 6a bf bd
       -0.0247951 0.032018587 -0.016673192 -0.09346521
0003b0 1b e2 c6 3d f6 9a c3 bd 6c 1e 00 3e d4 46 31 bd
       0.09711095 -0.09551041 0.12511605 -0.043280438
0003c0 4e 73 b1 bd 88 11 ad bd 63 43 42 3d 95 44 cc bd
       -0.08664571 -0.084506094 0.047427546 -0.099740185
0003d0 ba ae bd 3d 5c 9d cc 3d 78 e5 d9 3c 60 1c 42 bd
       0.09261842 0.099909514 0.026598677 -0.04739034
0003e0 1a 9a 7d 3d 3b dd 2c bd 45 99 4e 3d 16 46 f2 3d
       0.06191454 -0.04220317 0.050439138 0.11829774
0003f0 84 aa 2c 3d 04 0f dd bd b8 70 b5 bd d9 93 a1 3d
       0.042154804 -0.1079388 -0.0885939 0.07889528

features_extractor.conv2.bias f4 [32]
000000 fe 29 15 bd 0d 2b 89 bd 77 ea 58 bd 52 75 01 be
       -0.036417 -0.066976644 -0.052957978 -0.1264241
000010 e5 38 4e 3d df c9 c0 3d 28 51 e8 3d 80 6c 80 bd
       0.050347228 0.09413504 0.11343604 -0.06270695
000020 71 a6 d9 3d 9b 8a b1 3d 60 84 fb 3d dc 05 e5 bd
       0.10627449 0.08669015 0.12281108 -0.11182758
000030 63 6f 9c bc 07 9a 02 3e 4d f8 eb 3d 60 77 4a 3d
       -0.019096082 0.1275407 0.11521969 0.04943025
000040 5f a2 93 3c 85 76 a3 bd 52 3c b4 bd dd 5f 33 3d
       0.01802176 -0.0798159 -0.08800568 0.043792594
000050 2d a1 c9 3d a1 38 76 3b 41 c4 8d 3d c5 87 8c 3c
       0.09845195 0.0037570375 0.06922198 0.017154584
000060 4b 41 8f bd 84 56 c3 bc aa 5a 0f 3e 65 07 d2 3d
       -0.069948755 -0.023844965 0.1399943 0.10255317
000070 b1 6b 0c 3d e9 28 5d bd b9 2a cc 3d 6b a1 51 3d
       0.03428239 -0.053994093 0.09969086 0.05117933

features_extractor.fc_op.weight f4 [32, 3]
000000 d7 67 c1 bd 1d e8 c8 3d 3c 8b 71 be 0b 4f 87 be
       -0.09443634 0.09809897 -0.2358827 -0.26427492
000010 2e b0 a7 be 6f cd b6 be 30 07 f5 be 98 1f 0a be
       -0.32751602 -0.35703608 -0.47857046 -0.13488615
000020 da ae 99 be 30 ce 57 be 73 58 e1 3e 5a f7 e6 3e
       -0.30016214 -0.21074748 0.44012794 0.4511059
000030 a2 4e f0 be a3 74 a4 be 71 47 e5 3c 36 d9 90 3e
       -0.46934992 -0.32120237 0.027988167 0.2829072
000040 c4 08 05 3f fd 2a 73 3e 1f 12 ad bc a8 61 b8 bb
       0.519665 0.23746867 -0.021126805 -0.005626876
000050 0d 56 89 bd c0 83 19 be 01 30 13 bd cd ce cd bd
       -0.06705866 -0.14991665 -0.035934452 -0.1004921
000060 ec 77 36 3e 85 35 16 be 32 18 02 3f 10 13 08 bf
       0.17819184 -0.14668854 0.5081817 -0.5315409
000070 6f d3 95 3e 5e a9 60 be fe fe ff 3e cf a6 e2 3e
       0.29262874 -0.21939608 0.4999923 0.4426789
000080 fe b6 d8 3e 35 99 6c 3e ae 09 b9 3e cc cb 5c 3d
       0.42327112 0.23105319 0.36140198 0.053905293
000090 f8 00 8a 3c 2a d7 3d 3e 4b 04 a4 be 84 ea 58 3e
       0.016846165 0.1853911 -0.32034525 0.2118321
0000a0 3c 7b 13 bd a9 03 e8 be 55 b0 79 bc 4f 00 8b 3e
       -0.036006197 -0.45315292 -0.015239795 0.27148673
0000b0 80 a9 eb 3d b0 36 05 bf 3f 75 87 3e 96 e1 c2 be
       0.11506939 -0.5203657 0.2645664 -0.38062733
0000c0 63 c2 41 3e 7a 1e 96 be 5a a3 a1 be 3b dd d9 3e
       0.18921809 -0.29320127 -0.3156994 0.42551598
0000d0 a9 c0 ba bc 96 3d eb be 2f a4 c8 3e bc d7 1d bb
       -0.022796946 -0.45945424 0.39187762 -0.0024084887
0000e0 91 58 fa bd 15 8c c2 3d b7 c2 87 3e 93 cd c5 bd
       -0.12223924 0.09499375 0.26515743 -0.09658351
0000f0 3c fe dc 3d e7 2f a4 be 7e d6 18 3f 00 8b a5 3d
       0.10790679 -0.32067797 0.5970229 0.08083153
000100 b6 72 01 3f ce a2 64 be 24 23 bf 3e 44 14 4c 3e
       0.5056566 -0.2232773 0.37331498 0.19929606
000110 cd 4e 78 3c 41 66 fa 3e 02 ba b8 ba b2 bb 7e bc
       0.015155506 0.4890614 -0.0014093521 -0.01554768
000120 1f 50 15 3d 4f 25 f7 be ed 40 c7 3d 9f d7 94 be
       0.036453363 -0.48270652 0.097291805 -0.29070756
000130 ce e7 92 bc 12 44 ec be b3 72 f3 3e 2f ca 7a be
       -0.017932799 -0.46145684 0.47548446 -0.2449119
000140 42 2d 71 3e 68 2e 2e 3e 06 4d 2b 3b d4 19 e7 3e
       0.2355242 0.1700989 0.002613844 0.45136893
000150 c8 56 33 3e 81 89 86 3e 12 6e 6f 3e 2e 3d ce 3e
       0.17513573 0.26276782 0.23381832 0.4028105
000160 7a 50 e8 be 46 e0 08 3e a7 bf 75 3e ae 46 a1 3e
       -0.453739 0.13366804 0.23998891 0.31499237
000170 89 a2 87 be fc 7e 03 bf 52 2c 54 3e 15 42 de 3e
       -0.26491192 -0.5136564 0.20720032 0.43409792

features_extractor.fc_op.bias f4 [32]
000000 9c bb b3 3e 43 90 bf 3e 1a b7 93 3d aa 91 da be
       0.35104072 0.3741475 0.07212658 -0.42689258
000010 9c 29 a6 3e 8f 14 2f bd ec 77 52 3e 51 c6 f7 3e
       0.3245362 -0.042744216 0.20553559 0.4839349
000020 f4 c9 06 3f 0f a8 48 be 27 4a 90 3d 8e 79 95 bd
       0.52651906 -0.1959536 0.070453934 -0.07298575
000030 90 50 99 be 1f d2 a2 bd 8d c8 a9 bd a9 e7 a4 3d
       -0.29944277 -0.07950234 -0.08290205 0.08051998
000040 e2 fb 68 be f9 95 b1 be b9 a5 90 3e 06 71 90 bc
       -0.22752336 -0.34684733 0.28251436 -0.017632019
000050 54 82 58 bc 56 63 1b 3f 96 ef 04 3f 38 cf 04 3f
       -0.013214666 0.6069845 0.5192808 0.5187869
000060 59 f4 9e be 8c 7b 64 3d 0e 2a 0b 3e 3c 61 94 be
       -0.31045797 0.055781886 0.13590261 -0.28980434
000070 f9 48 2e 3e 0b 2b d1 bd 37 2c 04 bf a1 95 90 3e
       0.17020024 -0.10213288 -0.51629966 0.28239158

features_extractor.fc_merge.weight f4 [352, 352]
000000 ee 28 72 3d 7f 82 6b 3c e9 98 85 3b bb 1d d9 bc
       0.059121065 0.014374374 0.004077066 -0.026503434
000010 b3 02 9b bd bd 71 17 be ea ca 9d bd 7e a8 9a bd
       -0.07568874 -0.14789481 -0.077047184 -0.075516686
000020 80 0f fd bd a9 a5 ed bc 9d e8 b5 3d a1 b5 af 3d
       -0.12356472 -0.029009657 0.08882258 0.08579565
000030 0c 71 65 3d 4d 6d 97 3d cb 89 09 3d 71 db 3f 3d
       0.056016013 0.07393894 0.033578675 0.046840135
000040 3b 8a b0 3d 84 d9 9f 3d 40 2e d9 3c d3 96 41 bd
       0.08620115 0.0780516 0.026511312 -0.047262978
000050 0a c6 93 3c d9 aa 74 3c c1 11 31 bd 27 9c e4 bd
       0.018038768 0.014933311 -0.043229822 -0.11162596
000060 96 db e8 bd 05 0e dc bd 5f 0d e2 bd 13 ea 8a bd
       -0.11370008 -0.107448615 -0.110377066 -0.06782927
000070 28 7e c8 bc 10 bc 3a bd 42 27 56 3c d0 fc ce bc
       -0.024474218 -0.045589507 0.013070883 -0.025267035
000080 dd 4a d4 bc 4d cb d5 bc af 95 20 bb cb 28 49 bc
       -0.025914604 -0.026097918 -0.002450328 -0.012277792
000090 97 c7 ff bb 5b 98 06 3c a9 1a 9a bc 25 e3 0d bd
       -0.0078057754 0.008215035 -0.01881154 -0.03464045
0000a0 dc f2 5d 3d 09 e9 10 ba f1 c4 79 3d d5 57 5c 3d
       0.054186687 -0.0005527889 0.060978834 0.0537947
0000b0 84 ab da 3c e7 da 44 3c 5e 0b 9f 3d e4 5b 7f 3b
       0.026693113 0.012015081 0.0776584 0.0038964683
0000c0 2b da e6 3c df 21 07 bc 04 18 73 3d 87 3a a5 bc
       0.028180202 -0.008247822 0.059349075 -0.02016951
0000d0 38 af 3f 3d 32 60 09 3c 81 0c 47 bc 62 05 b8 3d
       0.04679796 0.008384751 -0.012148977 0.08985402
0000e0 76 84 b2 3c 27 ad 97 3b 11 66 22 3d 8b 32 db 3c
       0.021791678 0.0046287957 0.03964812 0.0267575
0000f0 d8 8b ba 3d c1 bd ce 3c 04 01 d6 bb 41 ea 5e bd
       0.09108704 0.025236966 -0.006530883 -0.05442262
000100 34 cf 0e be db d9 03 be 4e 92 df bd 9e 58 20 be
       -0.13946229 -0.12876074 -0.10916577 -0.15658805
000110 c9 4c f3 bd 5a 71 3b bd 6c 14 da bc 60 0c 8f 3d
       -0.1187988 -0.045762397 -0.026621066 0.06984782
000120 eb 33 8a bb b3 8a 5f 3d e0 fd 75 3d 49 03 ed 3c
       -0.004217615 0.054575633 0.060056567 0.02893223
000130 e6 23 2f 3c 93 ec 3a 3d e0 a5 65 3c 2c 60 bc 3b
       0.010689711 0.04563577 0.014016598 0.0057487693
000140 97 84 3d 3e 90 7d e5 3d 3c 73 92 3d c2 1c 81 3d
       0.1850761 0.1120559 0.071508855 0.06304313
000150 0c 16 c5 3c 6c 29 b8 bd 28 37 2e be ac fe 73 be
       0.024058364 -0.089922756 -0.17013228 -0.23827618
000160 7e a9 04 be 95 36 28 bd 32 c5 2d 3c ce db 4a 3c
       -0.12955281 -0.04106768 0.010606097 0.012381507
000170 51 a2 b6 3d f2 48 4b 3c d2 e4 a9 3c dc 6e d3 3c
       0.08917678 0.012407528 0.020738993 0.025809698
000180 76 b4 0d 3d 5f e4 33 3c c6 56 e2 3c 0c f8 14 3d
       0.03459593 0.010979741 0.027629267 0.03636937
000190 9d 90 b3 3a b2 13 75 3d 3c 2a 68 3d bf 83 45 3c
       0.0013699714 0.059833236 0.056680903 0.0120553365
0001a0 fe 5c 8b 3d 68 51 b3 3d 03 6f 8e 3d 25 a6 85 3c
       0.06804846 0.087557614 0.069547676 0.016314575
0001b0 7c 51 a1 3c b0 99 1e 3d 2d a1 71 3c 2c bb b9 bc
       0.019692175 0.038720787 0.0147479 -0.022672258
0001c0 b4 6a 87 bb 58 79 12 bc 46 dc 3c bb 2f 14 ba bb
       -0.004132593 -0.008940063 -0.0028817817 -0.0056786756
0001d0 41 a4 ab 3c d7 d2 3c 3d 43 cd 20 3d 33 04 8e 3c
       0.020952346 0.04609951 0.039258253 0.017335987
0001e0 33 99 fa bc 47 e3 7b 3d 95 33 42 3d 28 b4 ca 3c
       -0.03059063 0.061496045 0.047412474 0.024744108
0001f0 70 94 a9 3d ac 14 6a 3d 86 6c bc 3d 02 39 20 3c
       0.08280265 0.05714862 0.09200387 0.009779217
000200 0c dd a6 3d ec df 76 3d b2 da 4a 3c 40 ab 73 bc
       0.0814763 0.060272142 0.012381243 -0.014872372
000210 ab 08 a0 3d 3b cd 90 3d 44 94 c8 bb 8d a9 01 bc
       0.07814153 0.070703946 -0.0061211903 -0.007913959
000220 14 a2 5c ba b2 f0 2f bc 48 02 5d 3d 26 42 04 bd
       -0.00084164855 -0.010738539 0.053957254 -0.032289647
000230 06 5d 33 3d 29 ca 14 bd 9d 2c c3 3c 3b 20 09 3d
       0.043789886 -0.036325607 0.023824984 0.033478003
000240 91 a3 81 bc 1b 6f ac 3d 20 37 6a 3d 0f 83 99 3d
       -0.015825065 0.08419629 0.057181478 0.074957006
000250 98 4b 8e 3d 49 9c 2b bc 4e 6b 43 3b dc 93 16 bc
       0.06948012 -0.010474273 0.0029818597 -0.009190526
000260 e1 4e 53 bc c7 5c 8d 3d 09 73 0b 3d 26 d8 86 3d
       -0.012897224 0.069024615 0.034045253 0.06584196
000270 be 5e 97 3d f8 97 7e 3d 97 ce 1e 3d 89 e9 c0 3d
       0.073911175 0.062156647 0.03877124 0.09419543
000280 5d 2d 9f 3d 71 16 e1 3c b3 8b 8a 3b a8 50 21 bd
       0.07772324 0.027476521 0.004228079 -0.03938356
000290 c4 6a 49 bd 14 d5 c5 bd b9 89 00 be 66 2b 1f be
       -0.049174085 -0.09659782 -0.12552537 -0.15543899
0002a0 2f 79 b8 bd 6a a5 c0 bd 1f de 31 3d 0b b6 86 3d
       -0.09007489 -0.0940655 0.04342472 0.06577691
0002b0 f1 7c 91 3d fb fd 3d bc d7 86 96 3c eb 21 93 ba
       0.07103909 -0.011596198 0.018374844 -0.0011225318
0002c0 47 55 fe 3c f3 b4 7b 3d 1d 4b c0 bc f3 00 b3 3b
       0.031046523 0.061451863 -0.023473317 0.0054627596
0002d0 c6 5e 2d bd 22 3f f2 3c ce d6 81 3d 2d c9 9f 3d
       -0.04232671 0.02957112 0.06339799 0.07802043
0002e0 ef 2d 3b 3d 2d 93 2a 3d 88 47 9a 3d 0c b9 cd 3c
       0.045698103 0.041644264 0.07533175 0.025112651
0002f0 2d 87 34 3d d6 46 a1 3d 7e 1c 56 3d 86 3d d1 bb
       0.044074226 0.07874839 0.052273266 -0.006385508
000300 d3 dc c9 3c 5f f0 a4 3d 2f e1 2d 3d 2e a4 3a 3d
       0.02464143 0.0805366 0.04245108 0.04556673
000310 62 32 b5 3d 31 c7 6f 3c 3c 5a 88 3d 12 a6 d0 3b
       0.088475004 0.014634893 0.06657836 0.0063674534
000320 f6 23 90 bc 9b bb 7b 3d 98 8c c6 3c 1f 50 8b 3c
       -0.017595273 0.06145821 0.024236962 0.017005978
000330 1a 48 ef 3b f2 e5 0a 3c ae e2 76 3d 7d be a8 3c
       0.0073022963 0.008477675 0.060274772 0.020598644
000340 76 93 40 3d f3 d9 0a 3d 27 1d f3 3c dc 0d 8b 3d
       0.04701563 0.03389926 0.029676987 0.06789753
000350 d3 22 8b 39 a4 d0 47 3d bb fe 1d 3d 87 71 2a 3d
       0.00026538092 0.04878296 0.038573008 0.041612174
000360 37 40 d2 bb bb 9b 2f bc 40 7d 36 3c 8d 3e 87 3d
       -0.0064163464 -0.010718281 0.01113826 0.066037275
000370 3b 7f 5f ba bb ec 92 3d 63 e8 fb 3c c7 1e 37 3c
       -0.0008525734 0.07174059 0.030750459 0.0111767715
000380 49 d3 77 3d 27 37 2a 3d 52 da 9c 3d bb 44 a9 3d
       0.06050423 0.041556504 0.07658829 0.082650624
000390 cb bf 98 3d 45 a1 38 3d 96 0f 3b 3c a9 27 67 bc
       0.074584566 0.045075674 0.01141729 -0.014108577
0003a0 e9 0f b3 39 cf 6d cf 3d 0e a2 ce 3d f1 a9 de 3d
       0.00034153395 0.10128366 0.10089503 0.108722575
0003b0 06 15 c0 3c b5 a7 cb 3d b3 7e fd 3c 1f 45 9a 3d
       0.023447525 0.09944097 0.030944204 0.07532715
0003c0 a9 9f cc 3c 84 96 a3 3b 02 88 46 3d 40 90 7f 3d
       0.024978476 0.004992308 0.04846955 0.062393427
0003d0 87 77 96 3c 1b af a3 3d 61 63 be 3d 9c fa 80 3d
       0.018367542 0.07992383 0.09296299 0.062978
0003e0 6b 70 e9 3c b9 36 d0 3c 39 1e 34 3d 6b 2e e0 3a
       0.028495988 0.025416719 0.043974135 0.0017103677
0003f0 1b 27 69 3d 88 83 93 3d 72 97 92 3d e8 dc a1 3d
       0.05692206 0.07202822 0.07157792 0.07903463

features_extractor.fc_merge.bias f4 [352]
000000 29 ac 37 3d 60 7b 31 3d bf 5a 1e bd 21 ab 12 bb
       0.04484192 0.04333055 -0.03866076 -0.0022379833
000010 68 34 40 bd c2 d3 ad 3b 27 3a 81 3d 00 26 57 3d
       -0.04692498 0.0053047845 0.0630992 0.052526474
000020 14 12 e0 3c a4 06 11 3d 7d cc 8c 3d 5d 82 06 3d
       0.02735237 0.035406724 0.068749405 0.032839168
000030 1d 0a c1 bb 13 d9 5c 3c 79 ed 1c bd b9 f3 86 3d
       -0.005891098 0.013479489 -0.03831241 0.06589455
000040 0e f1 f9 3c 25 5d 94 bc bf ee c6 3c 62 6e 18 3d
       0.030510452 -0.018110821 0.024283765 0.037214644
000050 69 ad a6 3c 70 25 ac bb 52 60 84 3d 34 7c 88 3b
       0.02034636 -0.0052534863 0.06463684 0.004165197
000060 13 40 c6 bc 94 ac 38 3c 0f 06 f1 bb 81 42 59 3d
       -0.024200475 0.011271615 -0.0073554586 0.05304194
000070 23 22 7e bd bc 3c ab 3c a8 52 37 bc 0a 0c 6b 3c
       -0.062044274 0.020902984 -0.01118914 0.014346132
000080 07 74 94 3c 20 02 78 bc 59 18 1a 3d f0 34 cb bb
       0.018121732 -0.015137225 0.037620876 -0.006201379
000090 21 da 90 3b 52 48 39 bb 9c 74 9a 3c db 33 b1 3c
       0.0044205342 -0.0028271866 0.018854432 0.021631172
0000a0 1c ae 98 3d e8 ef 1e bd a3 2e a9 bb 86 2f 36 3d
       0.07455084 -0.03880301 -0.0051630302 0.044478916
0000b0 38 83 ab bc a5 30 b0 3c 38 f9 11 3d ef 4e 6b bc
       -0.020936593 0.02150757 0.035638064 -0.014362081
0000c0 cb d1 8b 3d 5e 17 ec 3b 14 9d 5b 3c b2 47 ee 3c
       0.06827124 0.007204934 0.01340415 0.029086921
0000d0 73 15 01 3c 5e 37 93 3c 4f bc ed bc cc 41 fd 3c
       0.007878649 0.017970737 -0.029020457 0.030915163
0000e0 74 39 36 3d 64 03 90 bc 6b 54 59 bd b3 b6 b8 bc
       0.044488385 -0.017579742 -0.053059023 -0.022548055
0000f0 e9 35 11 3c b5 10 9f bc 6c 40 af 3c 15 ee 1c 3d
       0.008862951 -0.019417146 0.021393023 0.03831299
000100 89 aa f1 3c bc 1f 16 bd dd 90 a8 bc 0b 71 10 3d
       0.029500263 -0.036651358 -0.020576889 0.035264056
000110 01 30 a3 3c bc d0 f6 3c 20 3c d5 3b 28 27 ee bc
       0.019920351 0.03012883 0.0065074116 -0.029071406
000120 73 47 5d 3d 73 90 83 3d 61 0d a5 bc 6b d6 26 bd
       0.054023217 0.06424036 -0.020147981 -0.04073183
000130 d8 64 96 bc e2 9b d9 3b 1c 6a 64 bc 0f 9c 71 3c
       -0.018358633 0.006640897 -0.013941314 0.01474668
000140 0d 5d 0a bd 5b 21 d6 bc cd eb 22 3d 34 c9 c6 3b
       -0.033780146 -0.026138952 0.03977566 0.0060664658
000150 98 58 ab bc 2b f5 93 b9 e3 57 00 bd 4b 3c 3e 3d
       -0.020916268 -0.0002822069 -0.031333815 0.04644422
000160 25 fa ce ba c7 2f 96 3c e6 8c aa 3b 9e c3 b2 3d
       -0.0015791102 0.018333329 0.0052047847 0.08728717
000170 b6 07 23 3d 72 b0 9e 3c 0f 57 a7 bc 76 fe 1f bc
       0.039802276 0.019371245 -0.020427255 -0.009765258
000180 c4 e3 c4 3b 77 ca 75 bd a0 8b 83 3d df 27 31 3d
       0.006008597 -0.06000754 0.06423116 0.043250915
000190 10 3d 0a bd 88 ae 8f 3d 84 49 dd bc bf 9b 3e bd
       -0.03374964 0.07015711 -0.027012594 -0.04653525
0001a0 6d d1 bf bc d0 08 bc bc 8d ee 0b bd 95 a5 eb 3c
       -0.023415292 -0.02295342 -0.034163047 0.02876548
0001b0 75 4d c8 bc 59 18 7e 3d cf c5 40 bd ba 06 36 bc
       -0.024450997 0.06203494 -0.047063645 -0.011110002
0001c0 e7 30 e3 bc 2b d8 3b 3b f0 17 1b 3c 85 b9 2a bc
       -0.02773328 0.0028662782 0.009466156 -0.010420208
0001d0 e3 5a 86 3b a7 c4 fb 3a a0 0b 46 3d f5 0a 54 3d
       0.00410019 0.0019208387 0.04835093 0.051768262
0001e0 70 34 f5 bc ff b0 93 bc 2e bd ac bc 88 84 86 3d
       -0.02993223 -0.018028734 -0.021086302 0.06568247
0001f0 4c cb dd 3c 53 b1 fd ba be 8c f7 bc 66 23 2c 3c
       0.027074479 -0.0019355215 -0.030218478 0.0105064865
000200 b6 e6 d0 ba dd 7b e1 bc 9e dd b4 3b b2 59 7f 3d
       -0.0015937898 -0.027524883 0.005519583 0.0623414
000210 73 da d7 3c ea f0 8e bb 0f 7b 1f 3b 23 4c 96 3d
       0.026349282 -0.0043622153 0.0024334823 0.07338741
000220 19 84 43 3d 56 64 d5 bc 1c c5 bc bc c1 0c 16 3d
       0.0477334 -0.02604882 -0.023043208 0.036633257
000230 49 a0 8d 3d 8e d7 8f bc a4 50 49 3d 8a cc 4b 3d
       0.069153376 -0.01755884 0.04914917 0.04975561
000240 25 ce 38 bc c5 0e 89 3d 1c 5e ca bc 9f 6d 69 bb
       -0.011279617 0.0669227 -0.024703078 -0.0035618318
000250 6e 00 d3 3c 1a 52 51 bb e8 06 94 3d 35 bc 2f 3d
       0.02575704 -0.0031939805 0.0722788 0.042904098
000260 c2 96 8a 3d 34 8b 43 bd 1c b7 8d 3d 56 1a 54 3c
       0.06767036 -0.047740176 0.06919691 0.012945732
000270 06 b2 14 bc ad b3 a0 bc ad b0 34 bd 4d b2 3b bd
       -0.009075647 -0.019616926 -0.044113804 -0.045824338
000280 da 6a 0f bd 12 06 0e 3d c4 45 82 bc a7 2e 4e bd
       -0.03501401 0.034673758 -0.015902407 -0.05033746
000290 f4 3c 07 3d c4 12 eb bc 00 aa 60 3d c9 c6 1c 3d
       0.033017114 -0.028695472 0.054849625 0.038275514
0002a0 4f bd 61 3d b9 1f 65 3d 8c ea a6 bc 1f 50 ac 3c
       0.05511218 0.055938456 -0.020375513 0.021034298
0002b0 86 d5 18 bd e3 80 71 3b 87 bb 4e ba d1 80 ef bc
       -0.037313007 0.0036850504 -0.000788622 -0.02923623
0002c0 19 be 58 bc 0a 59 88 bb fa 76 d8 3c d1 63 0b 3d
       -0.013228917 -0.004161005 0.02642392 0.03403074
0002d0 5d c8 41 bc 4c 8f fd 3c 2a 20 a3 bc 5d ed 6c 3d
       -0.0118275555 0.030952118 -0.019912798 0.057843555
0002e0 79 c6 89 bc af 79 23 3d 19 f6 52 3d 20 ae dd 3c
       -0.016818272 0.03991097 0.05150423 0.027060568
0002f0 33 d6 e0 b9 f6 85 b7 3b f2 08 35 3d fa 4e b6 bb
       -0.000428842 0.005600686 0.044197984 -0.005563614
000300 66 2d 43 bc 32 3a 39 3d e7 12 7a 3d 7b 8a 62 3d
       -0.011912679 0.045221515 0.061053183 0.055307847
000310 a8 1a ba 3c 76 9e 2c 3d 8f 50 cd 3c bf 12 21 bd
       0.022717789 0.042143308 0.025062827 -0.03932452
000320 f6 c0 80 bc 9d f8 83 3d a0 d0 bf 3c c0 4c b2 bc
       -0.015717011 0.064439036 0.02341491 -0.021765113
000330 cb dc 1a 3d 8a d9 69 3d 8b e1 93 3c 8a e3 94 3c
       0.03780822 0.057092227 0.018051883 0.018174905
000340 fa d6 e3 bc e5 2a 71 bc 90 8d 71 3d 10 ff cc bc
       -0.02781247 -0.0147196995 0.058972895 -0.025023967
000350 22 17 09 bd f4 44 9d 3c 97 5e 9f bd aa 91 cb bb
       -0.033469327 0.019197918 -0.077817135 -0.006212433
000360 1b 94 d1 ba 17 2a 49 3d 6f 9c 14 bb 94 70 22 3d
       -0.0015989573 0.049112406 -0.002267625 0.039658144
000370 12 2d 20 3d 9e 7f 4f bc ea 48 c0 bc ae 14 39 3d
       0.039105482 -0.012664704 -0.023472268 0.045185737
000380 3e f8 8a 3c 2c 68 83 3d a4 ed 43 3d 5f 68 e3 3c
       0.016964074 0.064163536 0.047834054 0.027759729
000390 a0 61 fc 3c bc 8f 31 3d 7d 44 16 3d 63 91 c2 3c
       0.03080827 0.043349966 0.03668641 0.023750966
0003a0 58 bd 03 3c 34 33 29 3d 4d 02 8f 3b 70 62 bb bc
       0.008040749 0.041308597 0.004364288 -0.022874087
0003b0 62 c8 47 bd 2b 99 8e 3d 4f 83 bb 3a 9d c4 03 3d
       -0.048775084 0.06962808 0.0014306101 0.032169927
0003c0 8a a4 a5 bc c1 7f 8a bb 58 78 98 bb 57 02 f3 bc
       -0.02022006 -0.0042266552 -0.004653018 -0.029664202
0003d0 05 81 7f bc c5 07 72 3d fe c5 10 bc f7 dc 87 3c
       -0.0155947255 0.05908944 -0.0088362675 0.016584856
0003e0 7e 34 d9 bc 7d 12 28 3d d5 e8 2a 3d 8f 13 f9 3c
       -0.026514288 0.041033257 0.041725952 0.030404834
0003f0 c9 bb 82 bb 26 88 46 bd 48 c4 86 bc 3f a0 7a 3d
       -0.003989671 -0.048469685 -0.016451016 0.06118798

actor.weight f4 [10, 352]
000000 5e 66 eb bc be 48 e6 3c f8 b0 bb bc ed 3b 3d 3d
       -0.028735336 0.028110858 -0.022911534 0.046199728
000010 81 98 e1 bb 9c 29 de 3c c4 8e ca 3b 05 0e dd 3b
       -0.006884635 0.02711945 0.00618157 0.006746056
000020 fe 23 f8 ba b0 71 0c bc f9 cc 67 bd 77 0d 25 bc
       -0.0018931625 -0.008572027 -0.05659196 -0.010074011
000030 6b 88 d7 3c 85 38 72 ba 9e 1d 2d bc 40 ac 9b bc
       0.026310166 -0.00092399894 -0.010566143 -0.019003034
000040 c5 a9 7b 3d 22 21 4b 3d e3 18 25 3d e2 85 2a bd
       0.0614412 0.049592145 0.040306937 -0.041631587
000050 4f ca 89 3d ae c5 32 bd e3 d2 1b bb a9 48 19 3d
       0.067280404 -0.043645553 -0.0023776821 0.03742281
000060 8c ad 2a bd cc 73 4f bd a7 d6 e2 3b 9b b3 4d 3d
       -0.041669413 -0.050647542 0.006922561 0.050220113
000070 b6 13 3d bd a1 fc 0a bd 9c e6 bf 3c 55 7a c3 3c
       -0.046161376 -0.033932332 0.023425393 0.023862043
000080 8d 70 94 3c b6 b8 a4 bc bc a7 8d bc 16 44 ee 3b
       0.018120075 -0.020107608 -0.017291896 0.0072713
000090 73 96 7a 3d 63 7d 5e 3d dd b9 7f bd a3 81 f8 3b
       0.061178636 0.054318797 -0.062433112 0.0075838133
0000a0 c8 1a 0e 3d 0a 14 43 bc 66 f9 b6 3c 35 45 6d 3d
       0.03469351 -0.011906633 0.02233572 0.05792733
0000b0 23 cd 5a bd c2 76 32 bc 48 4d 93 3c 2c 60 82 3c
       -0.05341829 -0.010892572 0.017981187 0.015914999
0000c0 33 d5 56 bd b6 92 38 bd f8 6a e3 bc 23 44 06 3c
       -0.052449416 -0.04506179 -0.027760968 0.008194956
0000d0 f5 2e c7 3c 0b 8b 5f 3d 67 15 61 3d 22 81 50 bb
       0.024314383 0.05457596 0.05495205 -0.003181525
0000e0 35 dc 6f bc 5e 2b 01 3d 63 33 39 3d bb c8 32 3c
       -0.014639904 0.0315355 0.04521502 0.010912116
0000f0 cc fe 0f 3d 16 48 07 3d da 2f 48 bd 84 cc 78 bc
       0.035155103 0.03302773 -0.04887376 -0.015185479
000100 fd df 1c 3d 32 cb b5 bc dc 2b 24 bb 0d c1 a0 3c
       0.03829955 -0.022191618 -0.0025050556 0.019623304
000110 2d 77 1d 3d ee 98 d0 bc 77 8a e7 bc c0 f8 ce 3a
       0.038443733 -0.025463548 -0.028264267 0.0015790686
000120 17 e9 41 bd d6 f6 06 3d b1 53 7d bc 0f bd 73 bc
       -0.047341432 0.032950245 -0.015461848 -0.014876618
000130 2d 36 3a 3c 85 9c 40 bd e5 25 46 bd d0 3c 63 bc
       0.011365456 -0.04702427 -0.048375983 -0.013869479
000140 9c fa c6 bd 21 fa 72 3d 54 65 a0 bc 08 39 14 bd
       -0.09715769 0.059320573 -0.019579567 -0.0361872
000150 09 eb 3a bc e6 f6 c2 3b 96 ec 31 3d 4c 55 2f 3d
       -0.011408576 0.0059498427 0.043438517 0.042805955
000160 0e a3 62 bd af 21 00 bd 83 51 fc 3c f8 be b3 bc
       -0.055331282 -0.031282123 0.030800587 -0.021941647
000170 f6 88 17 bd ef 27 d3 3c 21 c1 0e 3d e1 02 3f 3d
       -0.03699585 0.025775878 0.03485215 0.046633605
000180 a5 3d 8f bb cd 91 5a bd 0a 84 51 bd b6 5b 95 3b
       -0.0043713623 -0.053361703 -0.051151313 0.004558052
000190 36 59 ca 3c d3 5a 82 3c d6 72 56 3c 53 61 20 bc
       0.024700742 0.015912449 0.013088902 -0.009788829
0001a0 ff d3 de 3c af 7b 27 bd b4 ec 45 3d 46 d2 64 3d
       0.027200697 -0.04088944 0.04832144 0.055864595
0001b0 4c 12 01 3d aa 4b f9 bc 5f f9 8a 3b 41 53 38 bd
       0.03151159 -0.030431587 0.004241153 -0.045001272
0001c0 f1 8b 66 3c 8d 32 0e 3d 79 a3 b3 3c f8 5b f3 bc
       0.014071451 0.034716178 0.021928536 -0.02970694
0001d0 c4 6d 49 bd 9f 71 b7 bc 12 0f 8a bc 5c 16 28 3c
       -0.049176946 -0.022393046 -0.01685289 0.010259237
0001e0 0a d8 21 bb dd ab 87 bc fa 74 84 3d 1a d1 46 3d
       -0.002469542 -0.016561443 0.06467624 0.04853926
0001f0 86 b6 70 3c f1 30 27 3d 78 89 30 3d f5 cd 5e bd
       0.0146919545 0.04081816 0.04309985 -0.054395635
000200 30 ed 69 bc 54 44 24 bd ad f5 da bc 9d cd 2a bd
       -0.014277741 -0.040104225 -0.026728475 -0.041699994
000210 7c 0c d9 bc d5 31 a3 3c 4e 18 fc 3b f3 84 85 3a
       -0.02649521 0.019921223 0.007693327 0.0010186717
000220 10 60 9f 3b 78 27 44 bb 30 45 83 3c 0a da 37 bd
       0.0048637465 -0.0029930752 0.016024202 -0.044885673
000230 33 68 70 3c 50 06 5d 3b 17 c3 84 bc 07 14 28 bc
       0.0146732805 0.0033725686 -0.016206307 -0.010258681
000240 9c 25 3a bd 6b ae 34 3d fb 80 13 3b bc 33 54 bc
       -0.045446023 0.04411165 0.0022507298 -0.012951788
000250 d2 23 cd bc 33 e9 dc bc 36 59 81 bc e7 53 ea bc
       -0.025041495 -0.026966667 -0.01578961 -0.02860446
000260 37 81 52 3d 7f 00 16 bd d2 bb a1 bc 11 b4 a2 3c
       0.05139276 -0.036621567 -0.01974288 0.019861253
000270 4e 8a f3 bc d1 78 b6 bb 6f 18 24 bd 5d c7 b3 bc
       -0.029729035 -0.0055686017 -0.040062364 -0.02194565
000280 05 41 92 3c 47 31 76 bb de da 4a 3b 5b 54 d1 bc
       0.01785327 -0.0037565993 0.003095321 -0.02555292
000290 1e d6 ad 3c 9a af 05 bc 1d c3 0f 3d 9e 83 d5 bb
       0.021220263 -0.008159542 0.035098184 -0.006515934
0002a0 df 05 79 bc d6 3f e8 bc 68 d7 c4 bc c3 db 15 bd
       -0.015199154 -0.028350752 -0.024028495 -0.036586534
0002b0 d7 d9 91 bb fd 80 11 3c e9 96 f4 3c c4 bc 08 bd
       -0.0044510174 0.008880851 0.029857116 -0.033383146
0002c0 4f 56 1d bd 72 a2 8e bc f8 b2 f2 bc b7 73 3a bd
       -0.03841239 -0.017411444 -0.029626355 -0.04552051
0002d0 1d 9e fe bb 65 18 02 bc 90 56 18 bd 16 e9 26 3c
       -0.0077703134 -0.007940386 -0.037191927 0.010187408
0002e0 34 57 d4 3c 21 63 48 3d 56 f0 b8 bc a4 3d 35 3c
       0.025920488 0.04892266 -0.022575539 0.01106206
0002f0 6f ed 1f 3d 2d 52 b6 bc f1 54 99 3c a3 21 f3 bc
       0.039044794 -0.022255981 0.018717261 -0.029679125
000300 19 c4 33 bd 3e 0f 83 3c b9 78 ab 3d 9a 12 28 3d
       -0.043888185 0.015998479 0.083726354 0.041033365
000310 09 a0 33 bb 10 e8 84 3b 41 3f ca ba 90 05 ce 3c
       -0.002740862 0.0040559843 -0.0015430228 0.025149137
000320 59 30 54 bd 30 d5 28 bc e3 ef f4 3c 50 71 fd ba
       -0.05180392 -0.010304734 0.029899543 -0.0019336138
000330 b3 c4 99 bc fe a3 c0 3b a9 3c 59 bc bd c3 28 bd
       -0.018770551 0.0058789244 -0.013259091 -0.041202296
000340 7d 83 07 3d 36 4e 89 3b cd 3f 18 bd 6c 7a 12 3d
       0.03308438 0.0041902317 -0.03717022 0.03576128
000350 2d be 05 3c 01 4f 11 3d 7e 6f fd 3c 25 e9 d0 3c
       0.008163017 0.035475735 0.030936953 0.025501797
000360 df 03 1d 3d 60 da 13 bd 7d c8 4b 3d dd 03 13 bd
       0.03833377 -0.03609693 0.049751747 -0.035892356
000370 87 c8 e3 3c 4d 05 3c 3d 7d 4e 0f bd 5f 78 2b 3d
       0.02780558 0.045903493 -0.03498696 0.04186284
000380 08 02 46 3d 5f 51 de 3a 6d 5e f4 bc b7 75 a3 3d
       0.04834178 0.0016961506 -0.029830182 0.07981437
000390 e4 5f ae 3a 4c da 44 3d 4d ee f4 bc d7 3e ef bc
       0.0013303724 0.048059747 -0.029898787 -0.029204769
0003a0 67 6a 73 bc 48 37 f3 ba 4c 22 55 bc 68 48 97 3c
       -0.014856911 -0.0018555904 -0.013008665 0.018467143
0003b0 28 d7 be bc 8d 60 38 bd 6b 9a 35 3c 4f d4 f6 bc
       -0.023295954 -0.045013953 0.011084179 -0.030130534
0003c0 e6 16 c9 bb 84 e8 3d bd 28 d1 e2 bb be 93 37 3d
       -0.006136763 -0.046364322 -0.006921906 0.044818632
0003d0 81 bb a6 ba 99 fa f8 3c 8c 37 4c 3c 1c fb 64 bd
       -0.0012720675 0.030392932 0.012464415 -0.05590354
0003e0 fb 10 ea 3c ee 84 ba bc 4c 9e 1a 3d 60 a2 0e 3d
       0.02857255 -0.022768464 0.03774862 0.03482282
0003f0 2c 07 46 3d 8d d1 fc 3b 6d 5a dc 3c f3 f3 86 bd
       0.048346683 0.00771541 0.026898587 -0.06589498

actor.bias f4 [10]
000000 e7 06 c0 bc 93 22 96 3c 31 4b 21 bd 1a 25 b1 3c
       -0.023440791 0.018327033 -0.03937835 0.021624137
000010 5a c1 b0 3d e4 40 89 3c 3f f2 04 3d 0c 74 69 bd
       0.08630629 0.016754575 0.032457586 -0.056995437
000020 fd 35 e4 3c 4f 83 54 bc
       0.027857775 -0.0129707595

critic.weight f4 [1, 352]
000000 78 03 60 bd f6 48 3f bd 5b 13 0a 3d 8b 56 39 3d
       -0.054690808 -0.04670044 0.033709865 0.04524855
000010 56 01 d8 bb dd da 66 bd c1 64 4d 3d 82 f3 75 bd
       -0.006591956 -0.056361068 0.050144915 -0.06004668
000020 ad d1 b3 bd 02 48 a2 bd b8 69 87 bd 2b e8 70 3d
       -0.08780227 -0.07923891 -0.06611961 0.058815163
000030 14 f8 76 bd 1d a6 38 bd 22 db 1c 3d 73 7f a8 bd
       -0.06029518 -0.045080293 0.03829492 -0.08227434
000040 ce f5 34 3d 40 c0 39 bd 2d fb de bb 02 a9 9b bd
       0.04417973 -0.04534936 -0.006804845 -0.07600595
000050 43 d8 08 3d 45 e2 57 bd bd 9e aa bd bf ca 16 bd
       0.03340937 -0.05270602 -0.08331058 -0.036814447
000060 dd 13 b2 bd 74 28 39 3c e8 c3 ae bd 15 72 20 bd
       -0.08695195 0.011301149 -0.0853346 -0.039171297
000070 96 27 2f 3d af 65 ec bc 3a 25 7f bd a3 c9 45 bd
       0.04276236 -0.02885708 -0.06229136 -0.048288
000080 d1 b3 c1 3c c1 1e 49 bd 4b 86 82 3c ca b4 50 bd
       0.023645313 -0.049101595 0.015933177 -0.050953664
000090 8a d6 e1 3c 1b 5a 3c 3d a9 15 9c 3c ed b4 81 ba
       0.02756812 0.04598437 0.019053297 -0.0009895839
0000a0 ed ac 3f 3d b7 d4 5c 3c 14 51 07 3d b3 55 b9 3c
       0.046795774 0.01347845 0.033036307 0.022623872
0000b0 5f b3 19 bd 5b 79 47 3d 20 58 83 bd cc e2 42 bd
       -0.037524577 0.048699718 -0.06413293 -0.04757957
0000c0 53 0c 99 bd 42 66 64 3d 59 1b 8f bd 6b 41 94 bd
       -0.07473054 0.055761583 -0.06987638 -0.0723904
0000d0 0b 21 36 bd 44 7e 09 3d 87 20 5a 3d 02 51 6c 3d
       -0.044465106 0.033567682 0.053253677 0.057694443
0000e0 b5 b9 aa bd 95 4f 25 bd 19 39 27 3d 9b 1f 23 3d
       -0.08336202 -0.0403591 0.040825937 0.039825063
0000f0 ee eb bb 3b 9a 83 95 bd d1 83 61 bd 77 ab b5 bd
       0.005734912 -0.07300492 -0.05505735 -0.08870595
000100 37 50 96 3c 39 55 b4 3c f6 d2 92 bd 0d 1a 85 3d
       0.018348796 0.022013294 -0.07169144 0.064991094
000110 12 1a 80 bc fa 40 97 3d 66 b4 ea bc 77 6b 9f bd
       -0.015637431 0.0738544 -0.028650474 -0.07784169
000120 1c c7 6d bd ce b0 38 bd a9 6f 3a 3d 83 be 66 3c
       -0.058051214 -0.04509049 0.045516644 0.0140835075
000130 75 12 4f bd ef b3 13 3c cc 0f cb 3c bb 37 21 bd
       -0.05055471 0.0090150675 0.024787806 -0.03935979
000140 5f 82 be 3c 49 89 fd 3c 6b 65 5d bd 31 64 86 3d
       0.023255525 0.030949252 -0.054051798 0.06562079
000150 43 64 f5 3b 9a 88 8d 3c 62 86 0d 3d d4 0d 98 bd
       0.007488759 0.01727705 0.034551986 -0.074245125
000160 e3 0b cf bd 5e 8c 7e bd 15 3b 86 bd 47 4e a1 3d
       -0.10109689 -0.062145583 -0.06554238 0.07876258
000170 01 a5 38 bd 35 e4 58 3d b0 db d0 3c d7 89 80 3d
       -0.045079235 0.05295201 0.02549538 0.06276291
000180 c4 3d be 3d 96 38 6f 3c e3 0d 63 bd 33 87 6b 3d
       0.092891246 0.0146008935 -0.055433165 0.057501983
000190 5d f3 c4 bc ef d0 6c bd 70 69 9c bd 5a 84 f7 3c
       -0.024041826 -0.057816442 -0.07637298 0.030214477
0001a0 e5 ed 76 bd ae 05 98 bd 8c 0e 88 bd 01 51 14 3d
       -0.060285468 -0.07422958 -0.066433996 0.036210064
0001b0 3a 26 1a bd cf e0 a2 bd 5d b3 8a 3c 6e 68 9e bd
       -0.037634112 -0.07953035 0.01693123 -0.07734762
0001c0 9a 3a a8 bd c4 60 10 3d 33 31 63 3c 2e 21 a0 3d
       -0.08214302 0.035248533 0.0138667105 0.078188285
0001d0 11 b2 15 bd 01 37 4a 3d 98 52 73 3d 06 a3 09 bd
       -0.03654677 0.049368862 0.05940494 -0.033602737
0001e0 33 c5 2c bd 2b de 62 3d 10 bc 07 3d 10 18 34 bd
       -0.04218025 0.055387657 0.033138335 -0.04396826
0001f0 6b f4 fc bc da bb 1d 3d 23 fd 84 bc 08 ad 6c bd
       -0.030878266 0.038509227 -0.016233986 -0.057782203
000200 72 c5 73 3d a4 68 94 bd 83 f0 22 3d 19 25 4c bd
       0.05951447 -0.07246521 0.03978015 -0.049840067
000210 fd 4c 87 3d 77 3a 1d 3d d3 8a 33 bd ea 6a 9c bd
       0.06606481 0.038385835 -0.043833565 -0.0763758
000220 a9 0a e7 bc 96 64 9b bd d7 5e 54 bd cf c7 d8 bc
       -0.028203325 -0.075875446 -0.05184826 -0.026462464
000230 2f 11 89 bd 52 84 5b 3d 2c 56 3d bd ed 76 75 bd
       -0.06692731 0.053592987 -0.046224758 -0.05992787
000240 2e 19 02 bd b2 82 aa bd f1 2f c7 3d 45 37 d1 3c
       -0.031762294 -0.083257094 0.09725941 0.02553905
000250 90 e2 bf bd dd 01 2d 3d e5 cc b1 bd 8f 30 86 bd
       -0.09369385 0.042238105 -0.08681659 -0.065522306
000260 7b 83 4d 3d 94 a6 ee bc 2a fa 47 bd d4 a8 a2 bd
       0.050174218 -0.029132165 -0.04882256 -0.07942358
000270 67 29 87 3b 83 d2 66 bd b4 56 08 bd f4 af bd 3c
       0.0041248086 -0.056353103 -0.03328581 0.02315519
000280 b4 4c 9a bc 2f 1c 6a 3d a5 07 a3 3d 3f 79 d5 3b
       -0.018835403 0.057155784 0.079604425 0.006514698
000290 bf b0 e5 3c c6 9a 86 bd 7f 1e 8d bd f9 6f 28 bd
       0.02803838 -0.065724894 -0.06890582 -0.04112241
0002a0 8f ff 33 bd ff 95 45 bd b6 f1 83 3d 89 ce 32 bd
       -0.04394489 -0.04823875 0.06442587 -0.043654
0002b0 93 70 f2 3c da 1b 21 bd 28 8d ba 3c 48 b4 aa bd
       0.029594695 -0.039333202 0.022772387 -0.08335167
0002c0 3b fe 30 3d 72 a6 a8 bc b2 3b 3b bd 69 4f 24 bd
       0.043211203 -0.02058718 -0.045711227 -0.040114794
0002d0 63 c5 57 bd 24 91 69 bd b5 e4 44 bd c9 bc 19 bd
       -0.052678477 -0.057023183 -0.048069675 -0.037533555
0002e0 f4 de 07 bd 99 b2 3f 3d 45 89 93 3d 46 31 9a bd
       -0.03317161 0.046801183 0.072039165 -0.075289294
0002f0 81 12 9c 3d fc ee 72 bd a4 38 48 bd 5c 4c b7 bd
       0.07620717 -0.059309945 -0.04888214 -0.08950111
000300 bf 68 f8 3c bf 28 64 bd a5 f0 87 3d 22 5a dc 3c
       0.030323384 -0.05570292 0.06637696 0.026898447
000310 c7 c7 f6 bc 16 a9 6f bd ca 5b 8e 3c f6 ef e1 bb
       -0.030124558 -0.058510862 0.017377753 -0.0068950607
000320 46 10 2a 3c 48 da 38 3d f1 af 46 bd d3 cf e7 3c
       0.010379856 0.045130044 -0.048507635 0.02829734
000330 7b 77 c9 bd c0 86 6b 3d a2 33 9e bd 89 4c 80 bd
       -0.09837242 0.057501554 -0.07724692 -0.06264598
000340 bc f4 89 bd 0d 91 0d bc af a3 8f bd 85 0d a7 3c
       -0.067361325 -0.00864054 -0.07013642 0.020392189
000350 fe 25 d6 3c 6c f6 96 bd 43 23 1b 3d 5e 30 13 3d
       0.026141163 -0.0737122 0.037875425 0.0359348
000360 22 d6 15 bd 07 8d b9 bc af 41 1f bd 9d 24 85 bd
       -0.036581166 -0.022650255 -0.038881 -0.06501124
000370 82 ce 90 3d 5e d4 7e 3d d1 7a a3 3d 17 75 26 3d
       0.07070638 0.062214248 0.0798241 0.04063901
000380 b5 d3 d9 ba 60 ce 65 bd 5d 26 c2 3d b7 bf 6e 3d
       -0.001661888 -0.056105018 0.094799735 0.058288302
000390 4b 91 30 3d 89 5e 8a 3d 12 98 85 3c 79 25 d8 bc
       0.043107312 0.067563124 0.016307864 -0.026385056
0003a0 e8 27 4e 3b 0d f6 89 bd a5 0f e8 3c c4 b8 0d 3d
       0.0031456891 -0.067363836 0.028327772 0.034600034
0003b0 7b b7 57 39 32 41 3b bd 17 94 9b bd d5 c7 2e bd
       0.0002057235 -0.045716472 -0.07596605 -0.042671043
0003c0 52 61 76 bd 02 8c 70 bd 76 b1 13 3d cd 50 f1 3c
       -0.060151406 -0.05872727 0.03605791 0.029457474
0003d0 b0 d1 5b 3d 68 39 47 bd e4 c1 63 bd 1e 13 63 bd
       0.05366677 -0.04863873 -0.05560483 -0.055438153
0003e0 c5 1d 94 bd 0a 55 1d bd 2d 7d cd 3b d7 45 62 3d
       -0.072322406 -0.038411178 0.0062710256 0.055242386
0003f0 d1 96 f3 3c 8b 05 13 3c 73 1d d1 3d 68 48 34 bd
       0.029735 0.0089734895 0.10210695 -0.044014364
