carlike_gym/model_240.pth (torch, 526994 bytes, 11 tensors)

features_extractor.conv1.weight f4 [16, 4, 4]
0	0xbdf39360	-0.11893344
1	0x3c9c4937	0.01907788
2	0xbe18a778	-0.14907634
3	0x3dafd6d2	0.085858956
4	0xbd328e7f	-0.043592926
5	0x3e3579e6	0.17722282
6	0x3d6a5b15	0.05721577
7	0x3dbeaef3	0.09310713
8	0xbcba7e1e	-0.022765215
9	0xbe6a8718	-0.22903097
10	0xbe801c1c	-0.25021446
11	0x3d59cb4b	0.05317239
12	0x3d79277f	0.060828682
13	0x3defbf2e	0.117063865
14	0xbc7dd37a	-0.0154923145
15	0xbe407893	-0.18795995
16	0x3df24dc0	0.11831236
17	0x3e7246a4	0.2365976
18	0xbe698d4e	-0.2280781
19	0xbda74138	-0.08166736
20	0xbe458dfe	-0.19292447
21	0xbdb81ab4	-0.08989468
22	0xbe4a1354	-0.19733936
23	0xbe1fa5da	-0.15590611
24	0xbe138c86	-0.14409074
25	0xbe769fe2	-0.24084428
26	0x3d0de530	0.0346424
27	0xbe49f8fc	-0.19723886
28	0xbe50fbe8	-0.20408595
29	0xbd7d27f0	-0.061805665
30	0xbd0f74f8	-0.03502366
31	0x3d8295e4	0.063762456
32	0xbc3a78bb	-0.011381323
33	0x3e9b98eb	0.30390105
34	0x3b99e567	0.0046965363
35	0x3e67a0fc	0.22620004
36	0xbe03d489	-0.12874044
37	0xbd2cd6d5	-0.042197067
38	0x3e3a1316	0.18171343
39	0xbd7fe88d	-0.062477637
40	0xbde048ff	-0.10951423
41	0x3cfe2a7c	0.031026118
42	0x3d524c2d	0.051342178
43	0xbe12179e	-0.14266822
44	0x3db6d38d	0.08927069
45	0xbe21a2c3	-0.15784745
46	0x3d18fe8f	0.03735214
47	0xbaf29c31	-0.0018509683
48	0xbe4006fc	-0.18752664
49	0xbde66738	-0.11250156
50	0x3dc1e0b0	0.09466684
51	0x3d2e5fe8	0.042571932
52	0x3dbe5c98	0.092950046
53	0xbd52e9b8	-0.051492423
54	0xbe669b44	-0.22520167
55	0xbbc4a980	-0.0060016513
56	0xbe30ccc0	-0.17265606
57	0xbd809328	-0.06278068
58	0x3d975660	0.073895216
59	0xbdc169f8	-0.0944404
60	0x3d4d9bc0	0.050197363
61	0x3d704500	0.058659554
62	0x3e238484	0.1596852
63	0xbb932440	-0.0044904053
64	0x3e4927e4	0.19644123
65	0x3e5169ad	0.20450468
66	0xbe88c057	-0.26709244
67	0xbdcffeb6	-0.10156004
68	0x3d804b2f	0.0626434
69	0x3e09b34a	0.134473
70	0xbcbb883b	-0.022892108
71	0x3cf95f52	0.03044096
72	0x3e5368b5	0.20645411
73	0x3d1f69ea	0.038919367
74	0x3e10e3d1	0.14149405
75	0xbd84eb5c	-0.06490204
76	0x3de7243d	0.11286209
77	0xbccc746b	-0.024957856
78	0x3ddd194d	0.10795841
79	0x3e0fe458	0.1405195
80	0xbdc07464	-0.093972
81	0x3dc7e586	0.09760575
82	0xbe88f6fb	-0.2675093
83	0xbdb5300c	-0.08847055
84	0x3e780fcf	0.2422478
85	0xbe2c03bd	-0.16798301
86	0x3d118eb7	0.035536494
87	0xbe04471c	-0.12917751
88	0x3d4762fc	0.048678383
89	0x3e81ba2c	0.2533735
90	0x3d79f499	0.061024282
91	0x3e6c225e	0.23059985
92	0xbd47fee0	-0.048827052
93	0xbe582149	-0.21106447
94	0x3e3e3b86	0.18577394
95	0x3e87641e	0.2644357
96	0x3e4a0525	0.19728525
97	0x3e29bc19	0.1657566
98	0xbdb45bc9	-0.08806569
99	0x3dcddd42	0.10051967
100	0x3e82f9b9	0.25581148
101	0xbe287094	-0.16449195
102	0x3dd46c90	0.10372269
103	0xbe25ed3a	-0.16203776
104	0x3e6e26cc	0.23256987
105	0x3def203d	0.11676071
106	0xbd851629	-0.06498367
107	0x3de5f5b2	0.11228503
108	0xbc49f13b	-0.01232558
109	0xbd90313d	-0.070406415
110	0xbe02333d	-0.12714858
111	0x3d98bac8	0.07457501
112	0xbe62f93e	-0.22165391
113	0xbe7939c9	-0.2433845
114	0xbe3ec6b0	-0.18630481
115	0xbe15575f	-0.1458411
116	0xbe052328	-0.13001692
117	0x3e7ca9ba	0.2467412
118	0x3e3ad967	0.18246995
119	0x3d2940e7	0.04132166
120	0x3e71d698	0.23617017
121	0x3e7cc0a6	0.24682865
122	0xbc5ded9d	-0.013545421
123	0xbe2416fc	-0.16024393
124	0xbd735152	-0.059403725
125	0x3d3563d6	0.044284664
126	0x3defaed2	0.11703266
127	0x3e35d944	0.17758662
128	0xbe06495c	-0.13113922
129	0xbdef3db9	-0.116816945
130	0xbcb0ad0e	-0.021566894
131	0x3e2d887d	0.16946597
132	0x3d8d1cd4	0.06890264
133	0x3e3ca7db	0.18423407
134	0x3d4874ea	0.048939623
135	0x3e2bcd8d	0.1677763
136	0x3e5ac37f	0.21363638
137	0x3cc46738	0.023975
138	0x3e79d1cd	0.24396439
139	0xbdc1e5bc	-0.094676465
140	0xbe3494eb	-0.17634933
141	0x3e090d58	0.13383996
142	0x3e47d2e6	0.19514045
143	0x3e118585	0.1421109
144	0xbe045ca8	-0.1292597
145	0xbe164644	-0.14675242
146	0xbe40171b	-0.18758814
147	0x3e9c2909	0.30500057
148	0xbdba18a5	-0.09086732
149	0xbde91d32	-0.11382522
150	0xbd8026f6	-0.06257431
151	0x3e3f33cd	0.18672104
152	0xbdd837c1	-0.10557509
153	0xbd68ccd2	-0.056835957
154	0x3e37f576	0.1796473
155	0x3e59ac61	0.21257164
156	0xbcc36ea7	-0.023856474
157	0x3d5f777c	0.05455731
158	0x3c4e5037	0.012592367
159	0x3d8f76c2	0.07005073
160	0xbe52f8fe	-0.20602795
161	0xbd12f510	-0.03587824
162	0xbe2c14d2	-0.16804817
163	0xbd8922ec	-0.06696114
164	0xbe179754	-0.14803821
165	0xbd1f3100	-0.03886509
166	0xbd9a8ba4	-0.075461656
167	0xbe4b87a8	-0.19875968
168	0xbe44e040	-0.1922617
169	0xbe40aabc	-0.1881513
170	0x3e59e46e	0.21278545
171	0x3d1e3268	0.03862229
172	0x3e1b6ad6	0.15177473
173	0x3d8617e4	0.065475255
174	0xbd974f08	-0.07388121
175	0xbd6fdc68	-0.058559805
176	0xbe7d5fac	-0.24743527
177	0xbe9b3bbe	-0.30319017
178	0xbd41399b	-0.047174077
179	0xbe3b641b	-0.18299906
180	0x3dc215b1	0.094767936
181	0xbc9f8583	-0.019472843
182	0xbe0007a0	-0.12502909
183	0xbdd59780	-0.10429287
184	0x3d6631e1	0.056199912
185	0x3e611cbb	0.21983616
186	0x3e88b4c0	0.267004
187	0x3e2aae02	0.16667941
188	0x3c8e5d0a	0.017378349
189	0x3e36d46d	0.17854472
190	0x3e82cb58	0.25545764
191	0x3e3c3038	0.18377769
192	0x3e57b949	0.21066774
193	0xbda50cd3	-0.08059087
194	0x3cd38ea1	0.025824847
195	0xbd018e4d	-0.03162985
196	0xbe01e488	-0.12684834
197	0xbb3f2489	-0.0029166064
198	0xbdcd5a6e	-0.10027014
199	0x3da9fdb9	0.08300347
200	0x3dfd5921	0.123705156
201	0x3d29c069	0.041443262
202	0xbdf20f9a	-0.11819382
203	0x3d70f8b7	0.058830943
204	0xbdbc865e	-0.09205316
205	0xbe028798	-0.12747037
206	0xbe21804a	-0.15771595
207	0x3e7ecf27	0.2488371
208	0xbdb0d44f	-0.08634245
209	0xbe639a35	-0.22226794
210	0x3da01fcc	0.07818565
211	0xbe213818	-0.15744054
212	0xbdf62251	-0.12018264
213	0xbb9bedb8	-0.004758563
214	0xbe50eec9	-0.2040359
215	0x3e4a07e3	0.19729571
216	0xbd12d6d6	-0.035849415
217	0x3db56312	0.08856787
218	0xbe5084e9	-0.20363201
219	0xbdfa4645	-0.12220434
220	0x3e47b5f6	0.19503006
221	0xbe154de3	-0.14580493
222	0xbe74bdc3	-0.23900513
223	0x3e50568f	0.2034552
224	0x3e88d76b	0.2672685
225	0x3d8d8f55	0.06912104
226	0x3e3a865b	0.18215315
227	0x3d067223	0.032823693
228	0xbe0db927	-0.13840161
229	0xbe3ba1d0	-0.18323445
230	0xbd90892f	-0.07057416
231	0xbd4fe5ed	-0.050756384
232	0x3d268865	0.04065742
233	0x3df5cb4b	0.12001666
234	0xbe3f0f63	-0.18658213
235	0xbe500483	-0.20314221
236	0xbdf354a9	-0.11881382
237	0x3e2fba36	0.17160878
238	0x3e2d4609	0.16921248
239	0x3d9f17bc	0.07768199
240	0x3e10b787	0.1413251
241	0x3e8fc70e	0.28081554
242	0xbcc1f05a	-0.023674179
243	0xbbfd8b67	-0.0077375653
244	0xbd5cf7fe	-0.05394744
245	0x3e7a53f1	0.24446084
246	0xbe725758	-0.23666131
247	0x3d563e23	0.052305352
248	0x3e79c998	0.24393308
249	0xbded38b5	-0.11583082
250	0xbb587dab	-0.0033033888
251	0xbc28d94e	-0.010305716
252	0xbe531930	-0.20615077
253	0xbe27066d	-0.16311045
254	0xbdcd2ff9	-0.10018916
255	0x3cbc114d	0.022957468

features_extractor.conv1.bias f4 [16]
0	0xbd5d665f	-0.054052707
1	0xbe1202c4	-0.14258868
2	0x3cb190fd	0.021675581
3	0xbe0d248e	-0.13783476
4	0xbdd2deec	-0.10296425
5	0xbd8e9617	-0.06962221
6	0xbe5530e8	-0.20819438
7	0x3d025385	0.03181793
8	0xbd30adf7	-0.043134656
9	0xbdf43b88	-0.11925417
10	0x3bd64500	0.006538987
11	0x3ddc9344	0.10770276
12	0x3d13bd7d	0.036069382
13	0xbc031106	-0.007999664
14	0x3d6a546a	0.05720941
15	0x3e2d6415	0.1693271

features_extractor.conv2.weight f4 [32, 16, 4]
0	0xbde1217a	-0.10992713
1	0x3d40d9dc	0.047082767
2	0x3df0c1ce	0.11755715
3	0xbd690a50	-0.0568946
4	0xbd35f56c	-0.044423506
5	0xbd0242cc	-0.031801984
6	0x3dbf1416	0.09330003
7	0x3d09ab38	0.033610553
8	0x3de68c93	0.11257281
9	0x3e501ec0	0.2032423
10	0x3d769bd3	0.0602072
11	0xbd890440	-0.06690264
12	0x3db4f018	0.08834857
13	0x3db233ac	0.08701262
14	0x3cd1e870	0.02562353
15	0x3deec5c0	0.116588116
16	0x3cc11eb7	0.023574216
17	0x3cbb28f8	0.022846684
18	0x3dca65e0	0.09882712
19	0x3d97d8ac	0.07414374
20	0xbd90f1fb	-0.07077404
21	0x3de09055	0.10965029
22	0xbd7f2dd2	-0.062299557
23	0xbce82d01	-0.028341772
24	0x3dcf0b53	0.10109582
25	0x3de31128	0.11087257
26	0x3da82de2	0.082118765
27	0x3da547a4	0.08070305
28	0xbdcb1a41	-0.09917117
29	0xbe376836	-0.17910847
30	0xbdacffb2	-0.084472075
31	0x3d404357	0.04693922
32	0x3d227a8e	0.03966766
33	0x3dc7801e	0.09741233
34	0x3d36486b	0.044502657
35	0xbd1ca967	-0.038247492
36	0x3d3245a8	0.04352346
37	0xbc811f4d	-0.015761996
38	0xbdee0b0f	-0.11623203
39	0xbe53c198	-0.20679319
40	0xbd5a4690	-0.05328995
41	0xbdc6d5d4	-0.09708753
42	0x3d7967c0	0.06088996
43	0x3de63782	0.11241056
44	0xbe19a332	-0.1500366
45	0xbe0dfcf0	-0.13866019
46	0xbe05243d	-0.13002105
47	0xbcbae129	-0.022812443
48	0xbc53f277	-0.012936226
49	0xbc33fea6	-0.010986006
50	0x3d64e7ce	0.05588513
51	0x3e554033	0.20825271
52	0x3dfe85c0	0.124278545
53	0x3da93c58	0.08263463
54	0xbdc7fa9c	-0.09764597
55	0xbc902248	-0.017594472
56	0x3e506097	0.20349346
57	0x3e6f1413	0.23347501
58	0x3e0f4048	0.13989365
59	0x3e0086db	0.12551443
60	0x3d1c6702	0.038184173
61	0x3e14dff3	0.14538555
62	0x3e499b07	0.19688044
63	0x3da02b32	0.07820739
64	0x3ddd7cae	0.108147964
65	0xbd7e3b84	-0.062068477
66	0xbdc1ab4e	-0.09456502
67	0x3dc8ff42	0.098143116
68	0x3cfd8a68	0.030949786
69	0x3d1f676c	0.03891699
70	0xbce21178	-0.02759622
71	0xbda1c170	-0.078982234
72	0xbd2915a1	-0.041280393
73	0xbc8022ce	-0.015641596
74	0xbe2b5b95	-0.16734155
75	0xbe3d98f4	-0.18515378
76	0x3de4b1ae	0.11166702
77	0x3d9e7692	0.07737459
78	0x3d6f3718	0.05840215
79	0x3c711350	0.014714077
80	0x3b256332	0.0025236127
81	0x3e12df05	0.14342888
82	0x3dbad847	0.09123283
83	0x3d4aafe4	0.04948415
84	0xbd5e25bb	-0.0542352
85	0x3dd8ad74	0.105799586
86	0x3d7aba93	0.061213087
87	0x3d57e666	0.05270996
88	0x3e0e540f	0.13899253
89	0xbda05d6e	-0.0783032
90	0xbb289895	-0.0025725712
91	0xbd9734ee	-0.073831424
92	0x3d0a9798	0.033835977
93	0x3db05622	0.086101785
94	0x3df93ef8	0.121702135
95	0x3d9243f1	0.07141865
96	0x3d8312de	0.06400083
97	0x3c3884a2	0.011262091
98	0xbdaa0520	-0.08301759
99	0xbda932ea	-0.08261664
100	0x3d5352c5	0.051592607
101	0x3e273f9a	0.16332856
102	0xbc25dc32	-0.010123299
103	0x3e14c0ce	0.14526674
104	0xbc96b738	-0.018397912
105	0xbd82bd7c	-0.063837975
106	0x3c7c0aa0	0.015383393
107	0xbd8d4cec	-0.06899437
108	0x3d360f4a	0.044448175
109	0x3dda3641	0.10654879
110	0x3d0ce8b4	0.03440161
111	0xbd6d7e6d	-0.057981897
112	0x3d5406a0	0.05176413
113	0x3e1866f0	0.14883018
114	0xbd8b4824	-0.06800869
115	0xbdf0f23e	-0.11764954
116	0x3cd52718	0.026019618
117	0x3bb8f540	0.0056444705
118	0x3c63c540	0.0139020085
119	0xbd141294	-0.03615053
120	0x3d353549	0.04424027
121	0xbe10b4e1	-0.141315
122	0xbe2b7552	-0.16743973
123	0xbe39d260	-0.18146658
124	0x3df59f1d	0.11993239
125	0x3d35f962	0.044427283
126	0x3d8d0248	0.06885201
127	0xbd4acddb	-0.049512725
128	0x3d056de0	0.032575488
129	0xbd4b72cc	-0.049670026
130	0x3d982764	0.07429388
131	0xbdc4ad5e	-0.0960338
132	0x3b819e80	0.0039556623
133	0x3d4af598	0.049550623
134	0xbd2c0f30	-0.04200667
135	0xbdb9525e	-0.090489134
136	0x3e103b6e	0.1408517
137	0x3e42ceaa	0.19024149
138	0x3e45b315	0.19306596
139	0x3e0a726e	0.13520214
140	0xbd3fc330	-0.046817005
141	0xbd6096ec	-0.05483143
142	0xbd3d4310	-0.046206534
143	0x3c2dba50	0.010603502
144	0x3c80d458	0.015726253
145	0x3e1ba42c	0.15199345
146	0xbd92773e	-0.0715165
147	0x3d7c3d27	0.061581757
148	0xbdfe8a7f	-0.1242876
149	0xbd8aadaf	-0.06771409
150	0x3d91614e	0.070986375
151	0x3ca3f72d	0.020015324
152	0x3e230575	0.1592005
153	0x3e15e024	0.14636284
154	0xbd8d57e8	-0.069015324
155	0xbcd9ebac	-0.026601635
156	0x3d00daf6	0.031458817
157	0xbe102522	-0.14076665
158	0xbd98fb85	-0.074698485
159	0xbd735971	-0.05941147
160	0x3d8eede9	0.069789715
161	0x3d8c088f	0.0683757
162	0xbd22fa57	-0.039789524
163	0xbd2cd9ca	-0.042199887
164	0xbd3df90e	-0.046380095
165	0xbdf413f0	-0.11917865
166	0xbdefe03c	-0.11712691
167	0xbda8a503	-0.082345985
168	0x3d88ddd4	0.06682935
169	0x3df2ad4c	0.1184946
170	0xbdc249a2	-0.094867006
171	0xbd89a94e	-0.067217454
172	0xbde3cc38	-0.11122936
173	0xbab37f7e	-0.0013694612
174	0xbe18a00d	-0.14904805
175	0x3d901570	0.07035339
176	0x3d989583	0.07450392
177	0x3c2e7102	0.01064706
178	0xbd29a352	-0.04141552
179	0x3d86833f	0.06568002
180	0xbda7c480	-0.08191776
181	0x3d189d44	0.037259355
182	0x3d261084	0.040543094
183	0xbd46e93c	-0.048562273
184	0x3d5d352b	0.054005783
185	0x3d2906b7	0.04126617
186	0x3e0cbc41	0.13743688
187	0xbc3558f8	-0.011068575
188	0x3cc64ade	0.024205621
189	0xbd1b61a2	-0.037934907
190	0x3e334bc9	0.17509378
191	0x3e4b7929	0.19870438
192	0xbdc60952	-0.096697465
193	0x3d6dbc34	0.058040813
194	0xbdd3c324	-0.103399545
195	0xbdaaa6d0	-0.08332598
196	0x3d2ec298	0.042666048
197	0x3b326ac0	0.0027224272
198	0x3ccb6678	0.024829134
199	0x3dcdaa14	0.100422055
200	0xbe022e11	-0.12712885
201	0xbc4f08de	-0.012636391
202	0x3d8a1810	0.06742871
203	0xbd6e0ad8	-0.05811581
204	0xbdf6ecbc	-0.12056872
205	0xbd21b2e0	-0.03947723
206	0xbd9d3d02	-0.07677652
207	0xbda463d0	-0.0802685
208	0xbda22a87	-0.07918268
209	0x3c3ba2ec	0.011452418
210	0x3ce36fcc	0.02776327
211	0xbd874d1a	-0.06606503
212	0x3dd907e0	0.10597205
213	0xbdbe25cb	-0.09284552
214	0xbd1df394	-0.038562372
215	0x3deee871	0.116654284
216	0xbc9f59b3	-0.019451952
217	0x3d1d72e8	0.03843966
218	0xbe0c4148	-0.13696778
219	0xbd80124c	-0.0625349
220	0x3d6a9d30	0.057278812
221	0x3cbc314d	0.022972727
222	0xba746768	-0.000932327
223	0xbd6d240e	-0.057895713
224	0x3d8dbbbc	0.06920573
225	0xbdad4164	-0.08459738
226	0xbdc4ff7c	-0.09619042
227	0x3df0dc5f	0.117607825
228	0x3d859b5d	0.06523774
229	0x3d8ad306	0.06778531
230	0xbdb9d36b	-0.09073528
231	0x3dd94fad	0.106109
232	0xbccb1f18	-0.0247951
233	0x3d0325ec	0.032018587
234	0xbc889638	-0.016673192
235	0xbdbf6ab0	-0.09346521
236	0x3dd18769	0.102309056
237	0xbdba825c	-0.09106895
238	0x3e032bb9	0.12809648
239	0xbd2b19d6	-0.041772686
240	0xbdd4cbdc	-0.103904456
241	0xbdb81924	-0.0898917
242	0x3d3e51a6	0.046464585
243	0xbdfdef6c	-0.12399182
244	0x3dbdaeba	0.09261842
245	0x3dcc9d5c	0.099909514
246	0x3cd9e578	0.026598677
247	0xbd421c60	-0.04739034
248	0x3d2f6175	0.04281755
249	0xbd8ef2e4	-0.069799215
250	0x3cc01121	0.023445668
251	0x3de9c2d5	0.114141144
252	0x3cf6ce96	0.030127805
253	0xbdf26ab6	-0.1183676
254	0xbdcbe49c	-0.09955713
255	0x3d80f1f3	0.06296148

features_extractor.conv2.bias f4 [32]
0	0xbd136f6b	-0.03599493
1	0xbd892d6e	-0.06698118
2	0xbd58f2ac	-0.052965805
3	0xbe02259f	-0.12709664
4	0x3d542460	0.051792502
5	0x3dc3eb10	0.09566319
6	0x3de808f5	0.113298334
7	0xbd7fae78	-0.062422246
8	0x3de21101	0.110383995
9	0x3db39eb6	0.08770506
10	0x3dfba442	0.12287189
11	0xbde505dc	-0.11182758
12	0xbc9c5ec2	-0.019088153
13	0x3e043ed7	0.12914596
14	0x3deeb80b	0.11656197
15	0x3d503f09	0.050841365
16	0x3c9ef3ac	0.019403301
17	0xbd9fcd89	-0.078028746
18	0xbdb289d3	-0.08717694
19	0x3d3a39ac	0.045465156
20	0x3dca36e7	0.09873753
21	0x3bad8e82	0.0052965293
22	0x3d8f2031	0.06988562
23	0x3c9bd1c0	0.019020915
24	0xbd8ec288	-0.06970698
25	0xbcb801b8	-0.022461757
26	0x3e110dc5	0.14165409
27	0x3dd3c9ac	0.103412
28	0x3d10cbb0	0.0353505
29	0xbd5f618c	-0.054536387
30	0x3dcf0d8f	0.10110008
31	0x3d515f85	0.051116485

features_extractor.fc_op.weight f4 [32, 3]
0	0xbdc1fc5a	-0.0947196
1	0x3dc76b05	0.09737209
2	0xbe734503	-0.23756795
3	0xbe8743bd	-0.26418868
4	0xbea7b6e2	-0.32756716
5	0xbeb5141a	-0.353669
6	0xbef50c5c	-0.47860992
7	0xbe0a464f	-0.13503383
8	0xbe97bc0e	-0.29635662
9	0xbe57d98e	-0.21079084
10	0x3ee155ec	0.44010866
11	0x3ee43a24	0.44575608
12	0xbef04a1f	-0.4693155
13	0xbea48ecf	-0.32140204
14	0x3cdd177f	0.026988743
15	0x3e9216ad	0.28532925
16	0x3f04dc19	0.5189834
17	0x3e7fe851	0.24990965
18	0xbcad4ed8	-0.02115576
19	0xbba12aa8	-0.004918415
20	0xbd5f4b17	-0.05451497
21	0xbe198999	-0.14993896
22	0xbd135759	-0.035971973
23	0xbdc0ffc1	-0.09423781
24	0x3e36a234	0.17835313
25	0xbe1643e4	-0.14674336
26	0x3f024d56	0.50899255
27	0xbf081288	-0.53153276
28	0x3e9589b7	0.2920663
29	0xbe58f9bf	-0.2118902
30	0x3efff790	0.49993563
31	0x3ee27c71	0.44235566
32	0x3edae3f7	0.42752048
33	0x3e6fcacd	0.23417206
34	0x3eb8adc0	0.3607006
35	0x3da63c09	0.081169195
36	0x3c82919e	0.015938576
37	0x3e3d81c1	0.18506528
38	0xbea579f1	-0.32319596
39	0x3e5a4e8d	0.21319027
40	0xbd13e8b4	-0.036110595
41	0xbee7059f	-0.45121476
42	0xbc790fa1	-0.01520148
43	0x3e8aa957	0.2708232
44	0x3de6e89a	0.11274834
45	0xbf053476	-0.52033174
46	0x3e871d6b	0.26389632
47	0xbec12bac	-0.37728631
48	0x3e437e8f	0.19091247
49	0xbe960fbf	-0.29308888
50	0xbe9ecca9	-0.31015518
51	0x3edafeb6	0.42772454
52	0xbcbd0279	-0.023072468
53	0xbee22c35	-0.44174352
54	0x3ec9e59f	0.39433
55	0xbb4915e8	-0.0030683223
56	0xbdd7da08	-0.10539633
57	0x3dc64c16	0.09682481
58	0x3e87757d	0.26456824
59	0xbd9dcf2a	-0.07705529
60	0x3ddafdcc	0.10692939
61	0xbea4376d	-0.32073537
62	0x3f18d4d7	0.5969977
63	0x3dab8ce1	0.0837648
64	0x3f0150a9	0.505137
65	0xbe56e8cb	-0.20987241
66	0x3ebfbb9e	0.37447828
67	0x3e4bdec0	0.19909191
68	0x3cd06d2f	0.025442688
69	0x3efae0fa	0.48999768
70	0x3b00548a	0.001958164
71	0xbbd684e9	-0.006546606
72	0x3d14a3ab	0.0362889
73	0xbef746fb	-0.4829634
74	0x3dc5473e	0.09632729
75	0xbe94d97a	-0.2907217
76	0xbc9323ce	-0.017961409
77	0xbeecdd8d	-0.4626278
78	0x3ef3c631	0.47612146
79	0xbe7a6a48	-0.24454606
80	0x3e7641b3	0.240485
81	0x3e2eea20	0.17081499
82	0x3b1c4942	0.0023847376
83	0x3ee8633c	0.4538821
84	0x3e330cb3	0.17485313
85	0x3e8675d2	0.26261765
86	0x3e720025	0.23632868
87	0x3ecf18dc	0.40448654
88	0xbee81d05	-0.4533464
89	0x3e12523e	0.14289185
90	0x3e77b6f6	0.24190888
91	0x3ea11075	0.31457868
92	0xbe7b83ab	-0.24561946
93	0xbf037eae	-0.5136517
94	0x3e53fb8a	0.20701423
95	0x3edd20c1	0.43189052

features_extractor.fc_op.bias f4 [32]
0	0x3eafb0b5	0.34314504
1	0x3ec37d50	0.38181543
2	0x3d872a49	0.06599862
3	0xbedcb326	-0.4310543
4	0x3ea5f8ac	0.32416284
5	0xbd244bec	-0.040111467
6	0x3e51ec6e	0.20500347
7	0x3ef7be19	0.4838722
8	0x3f06e787	0.5269703
9	0xbe4bc638	-0.19899833
10	0x3d903e48	0.07043129
11	0xbd8db4b5	-0.06919233
12	0xbe99b9b8	-0.30024505
13	0xbdadb283	-0.08481314
14	0xbda787db	-0.08180209
15	0x3da45ef8	0.08025926
16	0xbe761019	-0.24029578
17	0xbeb86a42	-0.36018568
18	0x3e91cae1	0.28475097
19	0xbc921bcf	-0.017835526
20	0xbc4ec156	-0.012619337
21	0x3f1c9911	0.6117106
22	0x3f04e13c	0.5190618
23	0x3f04bfd5	0.5185521
24	0xbe9dea1a	-0.30842668
25	0x3d5a5496	0.053303324
26	0x3e118776	0.1421183
27	0xbe938f7d	-0.2882041
28	0x3e2e04ec	0.16994065
29	0xbdd10459	-0.102059074
30	0xbf05e591	-0.52303416
31	0x3e8f99c6	0.28047007

features_extractor.fc_merge.weight f4 [352, 352]
0	0x3d8a2619	0.06745548
1	0x3ca3999d	0.01997071
2	0x3bb40950	0.005494274
3	0xbcf6d179	-0.030129181
4	0xbdaca634	-0.08430138
5	0xbe229d23	-0.15880255
6	0xbdb362ef	-0.087591045
7	0xbdaaa5bb	-0.08332392
8	0xbe01529b	-0.12629168
9	0xbccafed9	-0.024779724
10	0x3dbeec26	0.093223855
11	0x3db916c8	0.09037548
12	0x3d75e2cf	0.060030755
13	0x3d9e6a4b	0.077351175
14	0x3d157abf	0.036494013
15	0x3d499627	0.049215462
16	0x3db3d84f	0.08781492
17	0x3da0ea5c	0.078572005
18	0x3cd01e69	0.025405126
19	0xbd4c29e1	-0.049844626
20	0x3ce3f749	0.027827876
21	0x3cb5f674	0.022212245
22	0xbd260d90	-0.040540278
23	0xbded6fc5	-0.11593584
24	0xbdff77f6	-0.124740526
25	0xbdf66a54	-0.12031999
26	0xbdf78bcc	-0.12087211
27	0xbd9628dd	-0.07332013
28	0xbcbf5241	-0.023354651
29	0xbd197012	-0.037460394
30	0x3cea743d	0.02861988
31	0xbcdc03d1	-0.026857289
32	0xbcdf4dd8	-0.027258798
33	0xbcc7451d	-0.024324948
34	0x3b3e3083	0.0029020614
35	0x3bb73648	0.0055911876
36	0x3b6b3f48	0.0035895873
37	0x3cec1b43	0.028821593
38	0xbd162ca2	-0.03666366
39	0xbd58f877	-0.05297133
40	0x3d5deb3b	0.05417941
41	0xb81988ad	-3.6605332e-05
42	0x3d7d147e	0.06178712
43	0x3d601478	0.05470702
44	0x3ce2c6e5	0.02768273
45	0x3c556461	0.0130244205
46	0x3da0ba76	0.078480646
47	0x3b8898ca	0.0041686045
48	0x3ce1f6be	0.027583476
49	0xbc226573	-0.009911883
50	0x3d754654	0.059881523
51	0xbc9a6ff6	-0.018852215
52	0x3d461776	0.048362218
53	0x3c20e652	0.009820538
54	0xbc31d8de	-0.010854928
55	0x3dba862e	0.09107624
56	0x3cbabed3	0.02279607
57	0x3ba5cb15	0.0050596097
58	0x3d1fea8c	0.03904204
59	0x3cc9a6c8	0.02461566
60	0x3dcaec43	0.099083446
61	0x3cffbfc0	0.031219363
62	0xbb96bc78	-0.004600104
63	0xbd6ef50a	-0.058339156
64	0xbe184524	-0.14870125
65	0xbe0eb358	-0.13935602
66	0xbdf18b5b	-0.11794158
67	0xbe252bfb	-0.16130058
68	0xbdf14260	-0.11780238
69	0xbd1e5c26	-0.0386621
70	0xbcdc4aed	-0.026891196
71	0x3d914428	0.07093078
72	0xbb2169d6	-0.0024629734
73	0x3d679a02	0.056543358
74	0x3d7e1d37	0.06203958
75	0x3cfc1bee	0.030775037
76	0x3c481ece	0.012214376
77	0x3d3fbd92	0.046811648
78	0x3c70cf88	0.014697917
79	0x3bbce705	0.0057648444
80	0x3e46f3fc	0.1942901
81	0x3df5f199	0.12008972
82	0x3d9e75c2	0.07737304
83	0x3d846083	0.06463721
84	0x3c892446	0.01674093
85	0xbddd4d51	-0.108057626
86	0xbe451c64	-0.19249111
87	0xbe8354ea	-0.25650722
88	0xbe0f2052	-0.13977173
89	0xbd2de260	-0.042452216
90	0x3c356ae5	0.011072849
91	0x3c65294d	0.013986898
92	0x3dbaf78e	0.091292486
93	0x3c6cdb9b	0.014456655
94	0x3cb9b908	0.022671238
95	0x3ce280ca	0.027649302
96	0x3d13caa4	0.036081925
97	0x3c420c9e	0.0118438285
98	0x3cdfc151	0.02731386
99	0x3d0f48f3	0.03498168
100	0x3b9d575a	0.004801673
101	0x3d824ed3	0.06362691
102	0x3d780b72	0.06055779
103	0x3c82199c	0.015881352
104	0x3d928585	0.07154373
105	0x3db95e79	0.09051222
106	0x3d933c14	0.07189193
107	0x3c92f611	0.0179396
108	0x3ca4429b	0.020051291
109	0x3d18abb8	0.03727314
110	0x3c71a12d	0.0147479
111	0xbcb9bb2c	-0.022672258
112	0xbb876ab4	-0.004132593
113	0xbc127958	-0.008940063
114	0xbb3cdc46	-0.0028817817
115	0xbbba142f	-0.0056786756
116	0x3caba441	0.020952346
117	0x3d3cd2d7	0.04609951
118	0x3d20cd43	0.039258253
119	0x3c8e0433	0.017335987
120	0xbd007b4f	-0.031367596
121	0x3d7e10af	0.06202763
122	0x3d47be85	0.048765678
123	0x3cd92750	0.026508003
124	0x3dad7ac4	0.08470681
125	0x3d71a339	0.058993552
126	0x3dbfa993	0.093585156
127	0x3c35221b	0.011055495
128	0x3da89ad5	0.08232657
129	0x3d77b5bb	0.060476046
130	0x3c57f321	0.013180525
131	0xbc608feb	-0.013706188
132	0x3da295d7	0.07938736
133	0x3d939090	0.072053075
134	0xbb9d35ba	-0.0047976645
135	0xbbdfe559	-0.0068327603
136	0xb928bd1e	-0.0001609218
137	0xbc30128a	-0.010746608
138	0x3d583db6	0.052793227
139	0xbd0f1878	-0.034935445
140	0x3d31832e	0.043337993
141	0xbd14021b	-0.03613482
142	0x3cca05bf	0.024660943
143	0x3d0e896c	0.034799024
144	0xbc6ba099	-0.014381551
145	0x3daf1a48	0.085499346
146	0x3d6e59d5	0.05819114
147	0x3d9aa50d	0.07551012
148	0x3d8dbe00	0.06921005
149	0xbc43ef85	-0.011958961
150	0x3afbd0a2	0.0019211958
151	0xbbf40550	-0.0074469224
152	0xbc161709	-0.009160765
153	0x3d968782	0.07350065
154	0x3d1c2f3c	0.038130984
155	0x3d8dcfda	0.0692441
156	0x3d9d8980	0.07692242
157	0x3d84c8ed	0.06483636
158	0x3d27056c	0.040776655
159	0x3dc225a4	0.09479836
160	0x3db238f8	0.08702272
161	0x3d0f95b6	0.035054885
162	0x3c11d636	0.0089011695
163	0xbd219f21	-0.039458398
164	0xbd66b5aa	-0.056325592
165	0xbddf5b19	-0.109060474
166	0xbe0dcc82	-0.13847545
167	0xbe2986c2	-0.16555312
168	0xbdc2ae24	-0.09505871
169	0xbdbd3827	-0.09239226
170	0x3d33fcfd	0.04394244
171	0x3d87d3f0	0.06632221
172	0x3d92cd0c	0.07168016
173	0xbc30c0cd	-0.010788155
174	0x3c9d43b4	0.019197322
175	0xb9f9ae85	-0.00047623008
176	0x3d008ac1	0.031382326
177	0x3d7b2845	0.0613177
178	0xbcc740ab	-0.024322828
179	0x3b7218a7	0.0036940963
180	0xbd37b355	-0.04484876
181	0x3ce9ab75	0.02852414
182	0x3d828a4a	0.06374033
183	0x3da27992	0.07933344
184	0x3d429540	0.047505617
185	0x3d3253a8	0.043536812
186	0x3d9dbee5	0.07702426
187	0x3cd91f7c	0.02650427
188	0x3d395030	0.04524249
189	0x3da31ed0	0.079648614
190	0x3d58d74b	0.052939694
191	0xbba85919	-0.0051375744
192	0x3cd783df	0.026307998
193	0x3da86c25	0.08223752
194	0x3d33ea60	0.04392469
195	0x3d3fc2d0	0.046816647
196	0x3db724d9	0.08942575
197	0x3c756ee2	0.01498005
198	0x3d86fcd4	0.06591192
199	0x3b8cf6fe	0.0043019047
200	0xbc95463a	-0.018221963
201	0x3d7da147	0.061921384
202	0x3cd05c68	0.025434688
203	0x3c9878ed	0.01861235
204	0x3c14e8c4	0.009088699
205	0x3c285df8	0.01027631
206	0x3d7d3e31	0.06182689
207	0x3cb2195a	0.021740604
208	0x3d42bd13	0.047543596
209	0x3d091322	0.033465512
210	0x3cf24ee2	0.02957863
211	0x3d8bbadc	0.0682275
212	0x3a845cef	0.0010098497
213	0x3d4c0e5c	0.04981838
214	0x3d22f30c	0.03978257
215	0x3d2f71a9	0.042833004
216	0xbbb2d9cb	-0.005458092
217	0xbc284931	-0.010271356
218	0x3c30b14f	0.010784461
219	0x3d8474fd	0.06467626
220	0x3908b984	0.0001303908
221	0x3d9666e8	0.073438466
222	0x3d08d992	0.033410616
223	0x3c68e3ce	0.014214469
224	0x3d820af8	0.063497484
225	0x3d353ced	0.044247556
226	0x3da144c1	0.07874442
227	0x3dac867f	0.084240906
228	0x3d9aaa71	0.0755204
229	0x3d39ec7f	0.045391556
230	0x3c4a3674	0.012342084
231	0xbc4fb9bb	-0.012678559
232	0x3b1a5ed6	0.0023555062
233	0x3dd4c8d2	0.10389866
234	0x3dd45b0a	0.10368927
235	0x3de37838	0.11106914
236	0x3ccffe87	0.025389923
237	0x3dce969e	0.10087322
238	0x3d0278c3	0.03185345
239	0x3d9be1ad	0.076114036
240	0x3ce21eff	0.02760267
241	0x3c0338e5	0.00800917
242	0x3d540131	0.05175895
243	0x3d86352f	0.06553113
244	0x3cac88f0	0.02106139
245	0x3da84088	0.08215433
246	0x3dc25140	0.094881535
247	0x3d840225	0.064457215
248	0x3cee9afa	0.029126633
249	0x3cd111cb	0.02552118
250	0x3d30959c	0.04311143
251	0x3b095b5e	0.0020959
252	0x3d6d88f1	0.057991926
253	0x3d96141d	0.07328055
254	0x3d9529ae	0.072833404
255	0x3da45db2	0.080256835

features_extractor.fc_merge.bias f4 [352]
0	0x3d39893d	0.045296896
1	0x3d34de76	0.044157468
2	0xbd1e5abf	-0.03866076
3	0xb963f097	-0.00021738034
4	0xbd403468	-0.04692498
5	0x3bee9441	0.007280857
6	0x3d85b87f	0.065293305
7	0x3d5d4e36	0.054029666
8	0x3cf7be93	0.03024224
9	0x3d14e17c	0.03634785
10	0x3d8e98f7	0.069627695
11	0x3d12063f	0.035650488
12	0xbba5bde3	-0.0050580367
13	0x3c827fe1	0.015930118
14	0xbd16155e	-0.03664147
15	0x3d8bbe79	0.06823439
16	0x3d0523b8	0.032504767
17	0xbc906ca3	-0.017629927
18	0x3cef7189	0.029228942
19	0x3d1db088	0.03849843
20	0x3cb53b0a	0.022122879
21	0xbbbff7dc	-0.0058584046
22	0x3d893507	0.06699567
23	0x3bba8f08	0.00569332
24	0xbcb2ff83	-0.021850353
25	0x3c38ac94	0.011271615
26	0xbb8089e0	-0.003922686
27	0x3d5e9714	0.054343298
28	0xbd7e2223	-0.062044274
29	0x3cab3cbc	0.020902984
30	0xbc28a5ca	-0.010293433
31	0x3c6b0c0a	0.014346132
32	0x3c9431f0	0.018090218
33	0xbc66a8cb	-0.014078329
34	0x3d1a1859	0.037620876
35	0xbbc83655	-0.0061099925
36	0x3bc65e7e	0.006053745
37	0xbaae2cdd	-0.0013288517
38	0x3ca36281	0.019944431
39	0x3cb133db	0.021631172
40	0x3d9dc018	0.077026546
41	0xbd1eefe8	-0.03880301
42	0xbb4bebc5	-0.0031115871
43	0x3d3bdcc6	0.045864843
44	0xbca0da3d	-0.019635314
45	0x3cc1a9e9	0.02364059
46	0x3d1dcad0	0.038523495
47	0xbc5d5063	-0.013507935
48	0x3d8faf40	0.07015848
49	0x3c129964	0.008947704
50	0x3c81ada3	0.015829867
51	0x3cfb4d3f	0.030676482
52	0x3c0f06f3	0.008729684
53	0x3ca3616b	0.019943913
54	0xbcddd407	-0.027078642
55	0x3d073e5d	0.03301846
56	0x3d45db11	0.04830462
57	0xbc6f8832	-0.014619874
58	0xbd59546b	-0.053059023
59	0xbcb8b6b3	-0.022548055
60	0x3c1135e9	0.008862951
61	0xbc8e86c7	-0.017398251
62	0x3cb74e31	0.022376152
63	0x3d27ba46	0.04094913
64	0x3cf1aa59	0.029500173
65	0xbcdbe3f0	-0.026842088
66	0xbc9b0392	-0.0189226
67	0x3d192ca5	0.037396092
68	0x3ca74173	0.02041695
69	0x3d05a9e0	0.03263271
70	0x3bd53c20	0.0065074116
71	0xbcd7c6a8	-0.026339844
72	0x3d623b07	0.055232074
73	0x3d8673a1	0.06565023
74	0xbc9034e6	-0.017603349
75	0xbd26d66b	-0.04073183
76	0xbc9617ab	-0.018321833
77	0x3bd99be2	0.006640897
78	0xbc646a1c	-0.013941314
79	0x3c79dd1c	0.0152504705
80	0xbcf519b7	-0.029919488
81	0xbcd1f804	-0.025630958
82	0x3d283cbd	0.04107355
83	0x3c0579d1	0.008146719
84	0xbcab5898	-0.020916268
85	0xb993f52b	-0.0002822069
86	0xbcf16d73	-0.029471135
87	0x3d46ba1f	0.048517343
88	0x3a4eced8	0.00078890985
89	0x3c9eef49	0.01940121
90	0x3bc3104d	0.005952871
91	0x3db7218c	0.089419454
92	0x3d2a81b3	0.041627597
93	0x3cb02bcf	0.021505265
94	0xbca7570f	-0.020427255
95	0xbbfd150d	-0.0077234567
96	0x3c0bf3e9	0.008542039
97	0xbd75ca77	-0.06000754
98	0x3d872eae	0.066007
99	0x3d398b6f	0.04529899
100	0xbce7f707	-0.028316034
101	0x3d92c89f	0.07167172
102	0xbcc1ae77	-0.023642762
103	0xbd3e9bbf	-0.04653525
104	0xbcb17a64	-0.021664806
105	0xbcb4133d	-0.02198183
106	0xbd0663cf	-0.03281003
107	0x3cfb69dc	0.030690126
108	0xbcc8ce06	-0.024512302
109	0x3d8254d2	0.063638344
110	0xbd40c5cf	-0.047063645
111	0xbc329b17	-0.010901234
112	0xbcd764b2	-0.026293132
113	0x3b9b85d7	0.0047461796
114	0x3c1b17f0	0.009466156
115	0xbc06b820	-0.00822261
116	0x3c01d2af	0.007923766
117	0x3aede501	0.0018149914
118	0x3d4e5923	0.050377976
119	0x3d559755	0.052146275
120	0xbce6ce2d	-0.028174484
121	0xbc7e13bf	-0.0155076375
122	0xbca06a75	-0.019582013
123	0x3d8a2ef2	0.06747235
124	0x3cffa0c0	0.031204581
125	0xb9063bd4	-0.00012801524
126	0xbce1fe9e	-0.027587231
127	0x3c407bd0	0.011748269
128	0x3a7c1b4e	0.0009617106
129	0xbcdb019f	-0.026734171
130	0x3bbc4d94	0.0057465527
131	0x3d828946	0.06373839
132	0x3cf325ff	0.029681204
133	0xbb8ef0ea	-0.0043622153
134	0x3b6c8b5e	0.0036093812
135	0x3d9b162d	0.07572589
136	0x3d484a53	0.048899006
137	0xbcc142b5	-0.023591379
138	0xbcb95049	-0.02262129
139	0x3d1f3b06	0.03887465
140	0x3d900dfe	0.07033919
141	0xbc7e7d18	-0.015532754
142	0x3d4a8612	0.049444266
143	0x3d4ff2d1	0.050768677
144	0xbc1c29e6	-0.009531474
145	0x3d8b2e43	0.06795933
146	0xbcb51dfb	-0.022109022
147	0xbb696d9f	-0.0035618318
148	0x3cecffc0	0.028930545
149	0xba92f780	-0.0011212677
150	0x3d968d77	0.07351201
151	0x3d366e4d	0.044538785
152	0x3d8e5ebf	0.06951665
153	0xbd438b34	-0.047740176
154	0x3d8ec160	0.06970477
155	0x3c6beff2	0.014400469
156	0xbc14b206	-0.009075647
157	0xbc9829ea	-0.018574674
158	0xbd34b0ad	-0.044113804
159	0xbd3dd859	-0.046348903
160	0xbcf742e3	-0.030183261
161	0x3d171eb7	0.036894526
162	0xbc50dd06	-0.012748009
163	0xbd4e2ea7	-0.05033746
164	0x3d0f14c2	0.034931906
165	0xbcdfe46c	-0.0273306
166	0x3d66832a	0.05627743
167	0x3d24cfe0	0.040237308
168	0x3d61f06b	0.05516092
169	0x3d6a9714	0.057272986
170	0xbc946f84	-0.018119581
171	0x3cb445a3	0.022005862
172	0xbd0aeda9	-0.033918057
173	0x3b6a58b5	0.003575844
174	0xba4ebb87	-0.000788622
175	0xbcdbb9f6	-0.026822072
176	0xbc5e3777	-0.013563029
177	0xbb88590a	-0.004161005
178	0x3cd9ccd1	0.026586922
179	0x3d0d2bf9	0.034465764
180	0xbc12f246	-0.008968895
181	0x3d03990e	0.032128386
182	0xbc9daa6f	-0.019246308
183	0x3d6ad667	0.057333376
184	0xbc7c29fa	-0.015390867
185	0x3d2b730b	0.04185776
186	0x3d5b4f66	0.053542517
187	0x3cf06713	0.029346025
188	0x3b3ddf25	0.0028972116
189	0x3bd2f623	0.006438033
190	0x3d3952fe	0.045245163
191	0xbb65aee0	-0.003504686
192	0xbc2274ca	-0.00991554
193	0x3d3aa997	0.04557189
194	0x3d8120d5	0.0630509
195	0x3d69ca5c	0.05707775
196	0x3cc06319	0.023484753
197	0x3d3a0076	0.045410596
198	0x3cca2ddc	0.02468007
199	0xbd0cab77	-0.03434321
200	0xbc80c0f6	-0.015717011
201	0x3d87c3dc	0.06629154
202	0x3cd1bd45	0.025602946
203	0xbcb24cc0	-0.021765113
204	0x3d23c7bf	0.039985415
205	0x3d724dbc	0.059156165
206	0x3c9c011b	0.019043496
207	0x3ca68324	0.020326205
208	0xbcd7d20e	-0.026345279
209	0xbc427c11	-0.0118704
210	0x3d77c7cb	0.06049327
211	0xbcccff10	-0.025023967
212	0xbd09cac7	-0.03364065
213	0x3ca0ac97	0.019613547
214	0xbd9fd07a	-0.078034356
215	0xbbcb91aa	-0.006212433
216	0x37e1d5a0	2.6921567e-05
217	0x3d461564	0.048360243
218	0xba7257d4	-0.0009244655
219	0x3d27c78b	0.040961783
220	0x3d2a03ed	0.04150765
221	0xbc300e1d	-0.010745552
222	0xbcaed5fa	-0.021342266
223	0x3d439f88	0.047759563
224	0x3c8af83e	0.016964074
225	0x3d86daf1	0.065847285
226	0x3d4d5e9b	0.05013905
227	0x3cf61ab9	0.03004204
228	0x3cfb397e	0.030667063
229	0x3d3b28ac	0.045693085
230	0x3d16447d	0.03668641
231	0x3cc9fac5	0.024655709
232	0x3c0466a9	0.008081117
233	0x3d2d0758	0.04224333
234	0x3b8f024d	0.004364288
235	0xbcbb6270	-0.022874087
236	0xbd47c862	-0.048775084
237	0x3d8f839d	0.07007525
238	0x3b150a35	0.002274168
239	0x3d0612c3	0.032732736
240	0xbca7cf09	-0.020484464
241	0xbb8312f3	-0.0040000617
242	0xbb987858	-0.004653018
243	0xbcf30257	-0.029664202
244	0xbc5cc595	-0.013474842
245	0x3d78e2e2	0.060763247
246	0xbbc8fa27	-0.006133336
247	0x3c9d7066	0.019218635
248	0xbcd2be15	-0.025725404
249	0x3d2a2644	0.0415404
250	0x3d2ae8d5	0.041725952
251	0x3d051374	0.032489255
252	0xbb0a5bf2	-0.0021111933
253	0xbd468826	-0.048469685
254	0xbc4a0c60	-0.012332052
255	0x3d7f8904	0.062386528

actor.weight f4 [10, 352]
0	0xbd282c4f	-0.04105788
1	0x3c96f888	0.018429056
2	0xbcbbb0f8	-0.022911534
3	0x3d353faa	0.044250168
4	0xbbe19881	-0.006884635
5	0x3c8f2521	0.01747376
6	0xba569eca	-0.00081871136
7	0xbb3f8b9e	-0.0029227505
8	0xbc6355f8	-0.013875477
9	0xbcabae7f	-0.02095723
10	0xbd8e6b75	-0.069540896
11	0xbc3c21e8	-0.011482693
12	0x3c7c4515	0.01539733
13	0xbc67a05f	-0.014137357
14	0xbc82d58d	-0.01597097
15	0xbcf518cc	-0.02991905
16	0x3d73c43f	0.059513327
17	0x3d19aeab	0.037520092
18	0x3d46c0c9	0.048523698
19	0xbd561b3d	-0.05227207
20	0x3d87527f	0.06607532
21	0xbd674f0b	-0.056471866
22	0xbc794244	-0.015213553
23	0x3ce3cf40	0.027808785
24	0xbd5bd4cf	-0.053669747
25	0xbd4f73cc	-0.050647542
26	0xbbd2b115	-0.006429801
27	0x3d23090d	0.039803553
28	0xbd3d13b6	-0.046161376
29	0xbd0afca1	-0.033932332
30	0x3c7c21de	0.015388934
31	0x3cc37a55	0.023862043
32	0x3c937f5d	0.018005067
33	0xbd07c4c0	-0.03314662
34	0xbc8da7bc	-0.017291896
35	0xbb148c8c	-0.002266678
36	0x3d6e4bab	0.05817763
37	0x3d343479	0.043995354
38	0xbd973684	-0.07383445
39	0x3bf881a3	0.0075838133
40	0x3d053dfe	0.032529823
41	0xbc43140a	-0.011906633
42	0x3c9a70cb	0.018852612
43	0x3d5a65e7	0.053319838
44	0xbd853574	-0.06504336
45	0xbc801ccc	-0.015638731
46	0x3c2e70c4	0.010647003
47	0x3b85d0bf	0.0040837224
48	0xbd81c93d	-0.06337211
49	0xbd6cc185	-0.057801742
50	0xbd261f6d	-0.040557314
51	0xbb2e9a76	-0.002664236
52	0x3c534590	0.012895003
53	0x3d47d64e	0.04878836
54	0x3d51b375	0.051196534
55	0xbbdafc0e	-0.0066828793
56	0xbcf2e56b	-0.02965041
57	0x3c8e1858	0.017345592
58	0x3d393363	0.04521502
59	0x3c32c8bb	0.010912116
60	0x3d0ffecc	0.035155103
61	0x3ca9ab94	0.020711698
62	0xbd739082	-0.059463985
63	0xbcd93059	-0.026512312
64	0x3d1cdffd	0.03829955
65	0xbd0bd4eb	-0.0341386
66	0xbc60977c	-0.013707992
67	0x3c8d6905	0.017261991
68	0x3cf4ed5b	0.029898336
69	0xbceaeb1f	-0.028676568
70	0xbce78a77	-0.028264267
71	0xbc3fd204	-0.0117077865
72	0xbd7a4d6f	-0.061109003
73	0x3cccc902	0.024998192
74	0xbcaadd90	-0.020857602
75	0xbc73bd0f	-0.014876618
76	0xb726d7a4	-9.944579e-06
77	0xbd409c85	-0.04702427
78	0xbd4625e5	-0.048375983
79	0xbcc2418b	-0.023712894
80	0xbdd6eefa	-0.104948
81	0x3d724563	0.059148204
82	0xbcf43586	-0.029810678
83	0xbd23c1fd	-0.039979924
84	0xbc3aeb09	-0.011408576
85	0x3bc2f6e6	0.0059498427
86	0x3d2937fc	0.041313156
87	0x3d0e585d	0.03475224
88	0xbd884898	-0.06654471
89	0xbd285b73	-0.041102838
90	0x3c9a3dc4	0.01882828
91	0xbcd79bd2	-0.026319418
92	0xbd410686	-0.04712536
93	0x3cb203b4	0.021730281
94	0x3d0ec121	0.03485215
95	0x3d31ff55	0.043456394
96	0xbbeeaf02	-0.007284046
97	0xbd5a91cd	-0.053361703
98	0xbd7e4144	-0.06207396
99	0xb8ce6ead	-9.8434604e-05
100	0x3ca41453	0.020029223
101	0x3c00d6f3	0.007863748
102	0x3b0db1a5	0.0021620777
103	0xbc206153	-0.009788829
104	0x3c83d3fa	0.01609229
105	0xbd4fe9f7	-0.050760236
106	0x3d18a640	0.037267923
107	0x3d55d72e	0.052207164
108	0x3c99d464	0.018778034
109	0xbd2bf913	-0.041985583
110	0x3b8af95f	0.004241153
111	0xbd68c5cf	-0.05682927
112	0x3b8f4402	0.004372121
113	0x3d021338	0.03175661
114	0x3cb3a379	0.021928536
115	0xbd088ef4	-0.033339456
116	0xbd76fcd3	-0.060299706
117	0xbcb7a266	-0.022416305
118	0xbca91ebd	-0.02064454
119	0xb9123cae	-0.0001394625
120	0xbc6f898d	-0.014620197
121	0xbcb45e9f	-0.022017775
122	0x3d7f248d	0.062290717
123	0x3d172d36	0.03690835
124	0x3b283c72	0.0025670794
125	0x3d20bc1f	0.039241906
126	0x3d061c69	0.032741938
127	0xbd830806	-0.06398015
128	0xbc60e79e	-0.013727097
129	0xbd4c15c8	-0.04982546
130	0xbce4de87	-0.02793814
131	0xbd59c5d7	-0.05316719
132	0xbceb6dcb	-0.028738877
133	0x3ca331d5	0.019921223
134	0xbac652ad	-0.001513084
135	0xbc21d4f2	-0.00987743
136	0xbbc2560d	-0.005930668
137	0xbc7e3a7e	-0.015516875
138	0x3bef4b03	0.0073026433
139	0xbd6c2a6e	-0.05765765
140	0x3b568ee9	0.003273899
141	0x3a047fc2	0.0005054438
142	0xbcdf57a4	-0.02726347
143	0xbca93cbc	-0.020658843
144	0xbd5cb63b	-0.053884726
145	0x3d07f89a	0.03319607
146	0x39e1278c	0.0004294481
147	0xbc5433bc	-0.012951788
148	0xbcd4003e	-0.025879022
149	0xbcf18e70	-0.029486865
150	0xbce43070	-0.027855128
151	0xbd22abca	-0.039714612
152	0x3d47355a	0.048634864
153	0xbd16007f	-0.036621567
154	0xbd00c893	-0.031441282
155	0x3c023447	0.007947034
156	0xbcf38a4e	-0.029729035
157	0xbc736f5f	-0.014858096
158	0xbd24186f	-0.040062364
159	0xbcb39384	-0.021920927
160	0x3c315759	0.010824048
161	0xbbae5f16	-0.0053213937
162	0x3b82cf99	0.0039920327
163	0xbcd1545b	-0.02555292
164	0x3c99dfe2	0.018783513
165	0xbc8e8d6d	-0.017401421
166	0x3cc2dc16	0.023786586
167	0xbc90f141	-0.017693164
168	0xbcd94023	-0.02651984
169	0xbd1b4836	-0.037910663
170	0xbccd22e0	-0.025041044
171	0xbd44349e	-0.047901742
172	0xbc21d12c	-0.009876531
173	0xba292df2	-0.0006453685
174	0x3cf496e9	0.029857116
175	0xbd37c0a0	-0.044861436
176	0xbd1d0ba8	-0.038341194
177	0xbc8ea272	-0.017411444
178	0xbd31919c	-0.043351755
179	0xbd6f2bf0	-0.05839151
180	0xbc97f783	-0.01855064
181	0xbca2a239	-0.019852744
182	0xbd46ec4a	-0.048565187
183	0xbaf41bb9	-0.0018623985
184	0x3c81afd0	0.015830904
185	0x3d3fb28c	0.046801135
186	0xbccd1f9e	-0.02503949
187	0xbb59b8b6	-0.0033221669
188	0x3d222815	0.039589006
189	0xbd1059a4	-0.035241738
190	0x3bebd980	0.007197559
191	0xbd2b6923	-0.041848313
192	0xbd4a0870	-0.049324453
193	0x3bcadeca	0.0061911093
194	0x3da3cc45	0.07997946
195	0x3d1e6fce	0.038680844
196	0xbc6de380	-0.014519572
197	0xbbfcdb08	-0.0077165402
198	0xbad7aa9f	-0.0016454047
199	0x3d313107	0.043259647
200	0xbd543059	-0.05180392
201	0xbc621589	-0.01379908
202	0x3cb5df56	0.022201221
203	0xbafd7150	-0.0019336138
204	0xbd011fcd	-0.03152447
205	0x3a2b679d	0.0006538572
206	0xbcc059cb	-0.023480317
207	0xbd5f3d5e	-0.054501884
208	0x3cb3f0b2	0.021965358
209	0xbb8686ee	-0.0041054403
210	0xbd4b4584	-0.049626842
211	0x3d127a6c	0.03576128
212	0x3c041e1a	0.008063817
213	0x3cd8b6a9	0.026454287
214	0x3cfc87bb	0.03082644
215	0x3cd0e925	0.025501797
216	0x3cf0c1f7	0.029389365
217	0xbd403948	-0.046929628
218	0x3d294578	0.041326016
219	0xbd3cf350	-0.04613048
220	0x3cc5cd9c	0.024145894
221	0x3d29d100	0.041459084
222	0xbd14d3ff	-0.036334988
223	0x3d1623f8	0.036655396
224	0x3d460208	0.04834178
225	0xbbae348d	-0.005316323
226	0xbd09104b	-0.033462804
227	0x3da33f76	0.079710886
228	0x3aa2b1cc	0.0012412607
229	0x3d394007	0.045227077
230	0xbcf4ee4d	-0.029898787
231	0xbd29c3c8	-0.041446477
232	0xbd0702e7	-0.032961752
233	0xbc567507	-0.013089425
234	0xbc55224c	-0.013008665
235	0x3c974868	0.018467143
236	0xbcbed728	-0.023295954
237	0xbd683639	-0.056692336
238	0x3b051689	0.0020307621
239	0xbd291327	-0.04127803
240	0xbc98c9f7	-0.018650992
241	0xbd708555	-0.058720905
242	0xbbe2d128	-0.006921906
243	0x3d3793be	0.044818632
244	0xbb917ab1	-0.004439675
245	0x3cb1bcb6	0.02169643
246	0x3adb149a	0.0016714514
247	0xbd894f5d	-0.067045905
248	0x3c8ef1c5	0.01744927
249	0xbd0cb1f0	-0.034349382
250	0x3d1a9e4c	0.03774862
251	0x3cf84cd8	0.03031008
252	0x3d3dea67	0.04636612
253	0x3bfcd18d	0.00771541
254	0x3ce3a532	0.027788732
255	0xbd9ebeaa	-0.0775121

actor.bias f4 [10]
0	0xbd05b9d1	-0.03264791
1	0x3c92853e	0.0178858
2	0xbd23b227	-0.03996482
3	0x3cb1d9f7	0.021710379
4	0x3dc2c681	0.09510518
5	0x3c86170b	0.01636841
6	0x3d01eac2	0.031718023
7	0xbd73cf44	-0.059523836
8	0x3ce35b57	0.027753515
9	0xbc897e2d	-0.016783798

critic.weight f4 [1, 352]
0	0xbd69bd48	-0.05706528
1	0xbd4594e5	-0.0482377
2	0x3d0a135b	0.033709865
3	0x3d3e4a6a	0.046457686
4	0xbbd80156	-0.006591956
5	0xbd711e96	-0.05886706
6	0x3d55a84a	0.052162446
7	0xbd7cb611	-0.06169707
8	0xbdb98dad	-0.09060226
9	0xbda7136f	-0.081580035
10	0xbd8b7434	-0.06809273
11	0x3d94774d	0.07249317
12	0xbd7e8426	-0.062137745
13	0xbd42d177	-0.047563042
14	0x3d274731	0.040839378
15	0xbdaccd88	-0.084376395
16	0x3d410e22	0.04713262
17	0xbd4254a6	-0.04744401
18	0xbc75caf0	-0.015001997
19	0xbd9fa7b3	-0.07795658
20	0x3d0f3c07	0.034969356
21	0xbd615582	-0.055013187
22	0xbdb031b1	-0.08603228
23	0xbd1c088d	-0.038094092
24	0xbdb720c4	-0.089417964
25	0x3c392874	0.011301149
26	0xbdb4216a	-0.08795436
27	0xbd2a2486	-0.041538738
28	0x3d2f2796	0.04276236
29	0xbcec65af	-0.02885708
30	0xbd81cefe	-0.06338309
31	0xbd45c9a3	-0.048288
32	0x3cc1ad33	0.023642158
33	0xbd51476f	-0.051093515
34	0x3c82864b	0.015933177
35	0xbd565eb5	-0.052336413
36	0x3cfa39b8	0.0305451
37	0x3d50e498	0.050999254
38	0x3cab1e8f	0.020888595
39	0xba81b4ed	-0.0009895839
40	0x3d5da2f1	0.05411047
41	0x3c5cd4b7	0.01347845
42	0x3d12e15f	0.035859462
43	0x3cc5edda	0.024161268
44	0xbd2019e7	-0.039087202
45	0x3d51a469	0.051182184
46	0xbd861d26	-0.065485284
47	0xbd4c307f	-0.049850937
48	0xbd9d6c4b	-0.07686671
49	0x3d64d5a3	0.055867802
50	0xbd93843d	-0.07202957
51	0xbd995bca	-0.074882105
52	0xbd3b6450	-0.045749962
53	0x3d1278b9	0.03575966
54	0x3d62d319	0.0553771
55	0x3d711836	0.05886098
56	0xbdb0f3c2	-0.08640243
57	0xbd307f1a	-0.043089963
58	0x3d273919	0.040825937
59	0x3d231f9b	0.039825063
60	0x3bbbebee	0.005734912
61	0xbd9a08f0	-0.07521236
62	0xbd673bea	-0.056453623
63	0xbdbafd45	-0.091303386
64	0x3c965007	0.018348707
65	0x3cb08c01	0.021551134
66	0xbd95547d	-0.072915055
67	0x3d880b47	0.06642776
68	0xbc89f92d	-0.01684245
69	0x3daa6df1	0.08321751
70	0xbceab466	-0.028650474
71	0xbda4429e	-0.08020519
72	0xbd76128d	-0.060076285
73	0xbd3da5ed	-0.046300817
74	0x3d4ce3e3	0.050022017
75	0x3c66be83	0.0140835075
76	0xbd55cce2	-0.052197345
77	0x3c13b3ef	0.0090150675
78	0x3ccb0fcc	0.024787806
79	0xbd2665a9	-0.040624294
80	0x3cd5d1ba	0.026100982
81	0x3cfd89d2	0.030949507
82	0xbd675f3e	-0.056487314
83	0x3d8cc319	0.068731494
84	0x3bf56443	0.007488759
85	0x3c8d889a	0.01727705
86	0x3d1543c3	0.036441576
87	0xbd9bf39e	-0.07614826
88	0xbdd4310c	-0.103609174
89	0xbd830a97	-0.06398504
90	0xbd896806	-0.06709294
91	0x3da8df88	0.0824576
92	0xbd3f54ef	-0.04671186
93	0x3d669e66	0.056303404
94	0x3cd0dbb0	0.02549538
95	0x3d82824d	0.06372509
96	0x3dde538a	0.108557776
97	0x3c6f3896	0.0146008935
98	0xbd6cdbb0	-0.057826698
99	0x3d78e6a5	0.060766835
100	0xbcd287f2	-0.02569959
101	0xbd7653a0	-0.060138345
102	0xbda1cc9d	-0.07900355
103	0x3cf7845a	0.030214477
104	0xbd7c948c	-0.061665103
105	0xbd9b2e12	-0.075771466
106	0xbd8cba11	-0.06871427
107	0x3d233208	0.039842635
108	0xbd22a8dc	-0.039711818
109	0xbda72045	-0.08160452
110	0x3c8ab35d	0.01693123
111	0xbda1886c	-0.078873485
112	0xbdabc502	-0.08387186
113	0x3d157d6a	0.036496557
114	0x3c633133	0.0138667105
115	0x3da34c66	0.07973556
116	0xbd209094	-0.03920038
117	0x3d49ff0e	0.049315505
118	0x3d827002	0.0636902
119	0xbd0e91ac	-0.034806892
120	0xbd32c092	-0.04364068
121	0x3d8745fd	0.06605146
122	0x3d16bdfe	0.036802284
123	0xbd3bc267	-0.045839693
124	0xbd08f8a0	-0.033440232
125	0x3d242162	0.0400709
126	0xbc91c73e	-0.017795201
127	0xbd72bcc7	-0.059262063
128	0x3d8050f3	0.0626544
129	0xbd969549	-0.07352693
130	0x3d20b3d0	0.039233983
131	0xbd56239a	-0.052280046
132	0x3dbadf91	0.09124673
133	0x3d1d3a77	0.038385835
134	0xbd3ab0dd	-0.045578826
135	0xbda180d2	-0.07885899
136	0xbcf508e4	-0.029911466
137	0xbda0af66	-0.078459546
138	0xbd58f088	-0.052963763
139	0xbce77f02	-0.028258804
140	0xbd8c0951	-0.068377145
141	0x3d6681f4	0.056276277
142	0xbd462b6c	-0.048381254
143	0xbd7ed431	-0.06221408
144	0xbd0726d8	-0.03299603
145	0xbdafba59	-0.08580465
146	0x3de65cb6	0.11248152
147	0x3cd13745	0.02553905
148	0xbdc3b875	-0.09556667
149	0x3d33ba24	0.04387869
150	0xbdb6f127	-0.08932715
151	0xbd8b30be	-0.06796406
152	0x3d561d0f	0.052273806
153	0xbceea694	-0.029132165
154	0xbd4e5bb1	-0.050380412
155	0xbda687b8	-0.08131355
156	0x3b872967	0.0041248086
157	0xbd6ce82a	-0.057838596
158	0xbd0856b4	-0.03328581
159	0x3cb8dcb0	0.02256617
160	0xbcb656aa	-0.022258122
161	0x3d6f7c88	0.05846837
162	0x3dcf25c6	0.101146266
163	0x3bd5793f	0.006514698
164	0x3cfa2546	0.030535351
165	0xbd89148c	-0.06693372
166	0xbd924802	-0.07142641
167	0xbd322696	-0.04349383
168	0xbd39242c	-0.04520051
169	0xbd4ed8e1	-0.0504998
170	0x3d86b47c	0.065773934
171	0xbd3961c6	-0.04525926
172	0x3d033b07	0.032038715
173	0xbd28ef65	-0.04124393
174	0x3cba8d28	0.022772387
175	0xbdafb068	-0.08578569
176	0x3d2f5488	0.042805225
177	0xbca8a672	-0.02058718
178	0xbd424a3f	-0.047434088
179	0xbd2cf36d	-0.042224336
180	0xbd62e37a	-0.05539272
181	0xbd70e390	-0.05881077
182	0xbd4dca70	-0.050241888
183	0xbd2371f6	-0.039903603
184	0xbd0eb30c	-0.03483872
185	0x3d47ffad	0.048827816
186	0x3d977023	0.07394435
187	0xbd9e15a1	-0.07718969
188	0x3dc671c1	0.096896656
189	0xbd7a5fe8	-0.06112662
190	0xbd500bd3	-0.050792526
191	0xbdbc8302	-0.09204675
192	0x3d046779	0.03232524
193	0xbd67f811	-0.05663306
194	0x3d8ecb79	0.06972403
195	0x3ce6bcca	0.028166194
196	0xbd039256	-0.03212198
197	0xbd7aa65d	-0.061193813
198	0x3c886b60	0.016652763
199	0xbc3a1aab	-0.011358897
200	0x3c2a1046	0.010379856
201	0x3d481589	0.048848663
202	0xbd4abe09	-0.049497638
203	0x3ce7cfd3	0.02829734
204	0xbdcf014f	-0.101076715
205	0x3d7249ac	0.05915229
206	0xbda2be5b	-0.07946464
207	0xbd85253e	-0.06501244
208	0xbd8c6b40	-0.06856394
209	0xbc2204b3	-0.009888816
210	0xbd93cecb	-0.07217177
211	0x3ca70d85	0.020392189
212	0x3cd5d72a	0.026103575
213	0xbd9a138e	-0.07523261
214	0x3d1b1f06	0.037871383
215	0x3d13305e	0.0359348
216	0xbd1f1725	-0.03884043
217	0xbcc50f54	-0.02405516
218	0xbd26cfac	-0.040725395
219	0xbd878329	-0.06616814
220	0x3d98b421	0.07456232
221	0x3d830816	0.06398027
222	0x3da7182a	0.08158906
223	0x3d39e467	0.045383837
224	0xbad9d3b5	-0.001661888
225	0xbd6b0dfe	-0.05738639
226	0x3dc611ea	0.096713856
227	0x3d72ba70	0.059259832
228	0x3d2e50a9	0.042557392
229	0x3d9fe150	0.07806647
230	0x3c859812	0.016307864
231	0xbce761ca	-0.028244872
232	0x3baf46bb	0.005349008
233	0xbd8d8c9f	-0.06911587
234	0x3ce80fa5	0.028327772
235	0x3d0db8c4	0.034600034
236	0x3957b77b	0.0002057235
237	0xbd430722	-0.047614224
238	0xbd9f0c77	-0.07766049
239	0xbd373d70	-0.044736326
240	0xbd7f6159	-0.062348697
241	0xbd793af1	-0.060847227
242	0x3d13b176	0.03605791
243	0x3cf150cd	0.029457474
244	0x3d6ad113	0.057328295
245	0xbd4c6d76	-0.049909078
246	0xbd6e87e8	-0.05823508
247	0xbd6d6976	-0.057961904
248	0xbd9737c3	-0.073836826
249	0xbd246aa6	-0.04014077
250	0x3bcd7d2d	0.0062710256
251	0x3d6bd5f1	0.057577077
252	0x3cffe152	0.03123537
253	0x3c13058b	0.0089734895
254	0x3e07d66d	0.1326539
255	0xbd3ba0f0	-0.04580778
