carlike_gym/model_120.pth (torch, 526994 bytes, 11 tensors)

features_extractor.conv1.weight f4 [16, 4, 4]
0	0xbdf39360	-0.11893344
1	0x3c9c4937	0.01907788
2	0xbe18a778	-0.14907634
3	0x3dafd6d2	0.085858956
4	0xbd328e7f	-0.043592926
5	0x3e3579e6	0.17722282
6	0x3d6a5b15	0.05721577
7	0x3dbeaef3	0.09310713
8	0xbcba7e1e	-0.022765215
9	0xbe6a8718	-0.22903097
10	0xbe801c1c	-0.25021446
11	0x3d59cb4b	0.05317239
12	0x3d79277f	0.060828682
13	0x3defbf2e	0.117063865
14	0xbc7dd37a	-0.0154923145
15	0xbe407893	-0.18795995
16	0x3df24dc0	0.11831236
17	0x3e7246a4	0.2365976
18	0xbe698d4e	-0.2280781
19	0xbda74138	-0.08166736
20	0xbe458dfe	-0.19292447
21	0xbdb81ab4	-0.08989468
22	0xbe4a1354	-0.19733936
23	0xbe1fa5da	-0.15590611
24	0xbe138c86	-0.14409074
25	0xbe769fe2	-0.24084428
26	0x3d0de530	0.0346424
27	0xbe49f8fc	-0.19723886
28	0xbe50fbe8	-0.20408595
29	0xbd7d27f0	-0.061805665
30	0xbd0f74f8	-0.03502366
31	0x3d8295e4	0.063762456
32	0xbcc3fab7	-0.023923261
33	0x3e95761c	0.29191673
34	0xbb9c82e6	-0.0047763465
35	0x3e627e97	0.22118603
36	0xbe0555b1	-0.1302097
37	0xbd324e54	-0.04353173
38	0x3e38eb8a	0.18058601
39	0xbd81f923	-0.06346347
40	0xbde34b54	-0.11098352
41	0x3cf33b88	0.029691473
42	0x3d4dadfa	0.050214745
43	0xbe131a08	-0.14365399
44	0x3db3d138	0.0878014
45	0xbe2300a3	-0.15918212
46	0x3d14605c	0.036224708
47	0xbb39e99a	-0.0028367997
48	0xbe4006fc	-0.18752664
49	0xbde66738	-0.11250156
50	0x3dc1e0b0	0.09466684
51	0x3d2e5fe8	0.042571932
52	0x3dbe5c98	0.092950046
53	0xbd52e9b8	-0.051492423
54	0xbe669b44	-0.22520167
55	0xbbc4a980	-0.0060016513
56	0xbe30ccc0	-0.17265606
57	0xbd809328	-0.06278068
58	0x3d975660	0.073895216
59	0xbdc169f8	-0.0944404
60	0x3d4d9bc0	0.050197363
61	0x3d704500	0.058659554
62	0x3e238484	0.1596852
63	0xbb932440	-0.0044904053
64	0x3e444337	0.19166265
65	0x3e519fa9	0.20471062
66	0xbe84ae49	-0.2591422
67	0xbdab2281	-0.083561905
68	0x3d882256	0.06647174
69	0x3e0d4423	0.13795523
70	0xbca07f1f	-0.019591866
71	0x3d0a5763	0.033774745
72	0x3e575451	0.21028258
73	0x3d2dad5d	0.04240166
74	0x3e1444f6	0.14479432
75	0xbd7c2efe	-0.061568253
76	0x3deefb6c	0.11669049
77	0xbcafed78	-0.021475539
78	0x3de3db94	0.111258656
79	0x3e134e56	0.14385352
80	0xbda6be4b	-0.08141764
81	0x3de09ba7	0.10967188
82	0xbe83c868	-0.25738835
83	0xbda786c1	-0.08179999
84	0x3e7c2ff4	0.24627668
85	0xbe2823c1	-0.16419889
86	0x3d1fe834	0.039039806
87	0xbe00c7c9	-0.12576212
88	0x3d57e38a	0.052707233
89	0x3e83aa28	0.25715756
90	0x3d842707	0.064527564
91	0x3e6fa1b1	0.23401524
92	0xbd377e52	-0.044798203
93	0xbe54414d	-0.20728035
94	0x3e41d1e9	0.1892773
95	0x3e8923bb	0.26785073
96	0x3e36cb82	0.1785107
97	0x3e19d07a	0.15020934
98	0xbdc70fd4	-0.09719816
99	0x3dd14b5e	0.10219453
100	0x3e837229	0.25673035
101	0xbe278746	-0.16360196
102	0x3dd69d45	0.104792155
103	0xbe23f18c	-0.16010112
104	0x3e6f17ae	0.23348877
105	0x3df0f2dd	0.117650725
106	0xbd82e572	-0.063914195
107	0x3de9ed14	0.11422172
108	0xbc3ae386	-0.011406785
109	0xbd8e5e9d	-0.0695164
110	0xbe011af0	-0.12607932
111	0x3d9cb22a	0.076511696
112	0xbe53f89b	-0.20700304
113	0xbe6b29eb	-0.22965209
114	0xbe336007	-0.175171
115	0xbe0f3dba	-0.1398839
116	0xbe0030c2	-0.125186
117	0x3e807573	0.25089607
118	0x3e3e1e1c	0.18566173
119	0x3d335fb5	0.043792445
120	0x3e76c8fe	0.2410011
121	0x3e8080e9	0.2509835
122	0xbc29a216	-0.010353586
123	0xbe218f4a	-0.15777317
124	0xbd5f87ed	-0.05457299
125	0x3d466862	0.04843939
126	0x3df63848	0.120224535
127	0x3e3860f6	0.18005738
128	0xbdede3cc	-0.116157144
129	0xbdd679f0	-0.104724765
130	0xbc617b44	-0.013762299
131	0x3e2fa071	0.17151047
132	0x3d9c6e95	0.07638279
133	0x3e4409f5	0.19144423
134	0x3d6573ec	0.056018755
135	0x3e32b379	0.17451276
136	0x3e626c67	0.22111665
137	0x3cff7807	0.031185163
138	0x3e8088ca	0.25104362
139	0xbdb419e9	-0.087940045
140	0xbe2cec03	-0.16886906
141	0x3e106f72	0.14105013
142	0x3e4f12a8	0.2022196
143	0x3e186b71	0.14884736
144	0xbe1d07c8	-0.15335
145	0xbe31a7cd	-0.17349167
146	0xbe637a15	-0.2221454
147	0x3e81990c	0.25312078
148	0xbe1ecb41	-0.15507223
149	0xbe319a81	-0.17344095
150	0xbdf99603	-0.121868156
151	0x3df902b9	0.121587224
152	0xbe2ddacf	-0.16978
153	0xbdee7e3b	-0.1164517
154	0x3df67bd2	0.120353356
155	0x3e16f9ee	0.14743778
156	0xbdb45983	-0.088061355
157	0xbba5c138	-0.005058434
158	0xbd3f4a15	-0.04670151
159	0x3ba11d6c	0.0049168374
160	0xbe52f8fe	-0.20602795
161	0xbd12f510	-0.03587824
162	0xbe2c14d2	-0.16804817
163	0xbd8922ec	-0.06696114
164	0xbe179754	-0.14803821
165	0xbd1f3100	-0.03886509
166	0xbd9a8ba4	-0.075461656
167	0xbe4b87a8	-0.19875968
168	0xbe44e040	-0.1922617
169	0xbe40aabc	-0.1881513
170	0x3e59e46e	0.21278545
171	0x3d1e3268	0.03862229
172	0x3e1b6ad6	0.15177473
173	0x3d8617e4	0.065475255
174	0xbd974f08	-0.07388121
175	0xbd6fdc68	-0.058559805
176	0xbe70270e	-0.23452398
177	0xbe94f9ef	-0.29096934
178	0xbd18ee27	-0.037336495
179	0xbe359e40	-0.17736149
180	0x3dc99b44	0.09844068
181	0xbc83c442	-0.016084794
182	0xbdf99e68	-0.12188417
183	0xbdcfc845	-0.1014562
184	0x3d753d0f	0.059872683
185	0x3e6494f2	0.22322443
186	0x3e8a50fc	0.2701491
187	0x3e2d95a1	0.1695161
188	0x3cac7375	0.021051148
189	0x3e3a4ca4	0.18193299
190	0x3e846794	0.25860274
191	0x3e3f17d7	0.18661438
192	0x3e541251	0.20710112
193	0xbd926493	-0.07148089
194	0x3d4e534c	0.050372407
195	0x3bf8f2f8	0.0075973235
196	0xbe031326	-0.12800273
197	0x3b2ef2e0	0.0026695058
198	0xbdc020ff	-0.093812935
199	0x3dbc35a9	0.09189922
200	0x3dfafc10	0.12255108
201	0x3d40a1d2	0.047029324
202	0xbde4d62b	-0.11173662
203	0x3d8ab448	0.06772667
204	0xbdbee36f	-0.09320723
205	0xbdf99e85	-0.12188438
206	0xbe1ae398	-0.15125883
207	0x3e83f59a	0.25773317
208	0xbdb0d44f	-0.08634245
209	0xbe639a35	-0.22226794
210	0x3da01fcc	0.07818565
211	0xbe213818	-0.15744054
212	0xbdf62251	-0.12018264
213	0xbb9bedb8	-0.004758563
214	0xbe50eec9	-0.2040359
215	0x3e4a07e3	0.19729571
216	0xbd12d6d6	-0.035849415
217	0x3db56312	0.08856787
218	0xbe5084e9	-0.20363201
219	0xbdfa4645	-0.12220434
220	0x3e47b5f6	0.19503006
221	0xbe154de3	-0.14580493
222	0xbe74bdc3	-0.23900513
223	0x3e50568f	0.2034552
224	0x3e814b5b	0.25252804
225	0x3d6a6066	0.05722084
226	0x3e33f9e3	0.17575793
227	0x3d0d6773	0.034522485
228	0xbe0ea961	-0.139318
229	0xbe3c5800	-0.18392944
230	0xbd91508f	-0.070954435
231	0xbd508923	-0.050912034
232	0x3d22c795	0.039741118
233	0x3df45ef1	0.11932171
234	0xbe3f731b	-0.18696253
235	0xbe502d5a	-0.203298
236	0xbdf53505	-0.11973003
237	0x3e2f0406	0.17091379
238	0x3e2ce251	0.16883208
239	0x3d9ec623	0.07752635
240	0x3df64a1c	0.12025854
241	0x3e89483d	0.26812926
242	0xbcc8a8ed	-0.024494613
243	0x3c0cc791	0.008592502
244	0xbd61ddcc	-0.055143163
245	0x3e7a7db0	0.24462008
246	0xbe70d211	-0.23517634
247	0x3d634a64	0.055490866
248	0x3e789026	0.24273738
249	0xbdece545	-0.11567167
250	0xbaee53bb	-0.0018182913
251	0xbbe950a2	-0.007120208
252	0xbe5452a2	-0.20734647
253	0xbe26dcae	-0.1629512
254	0xbdca255d	-0.09870408
255	0x3cd629d2	0.026142988

features_extractor.conv1.bias f4 [16]
0	0xbd5d665f	-0.054052707
1	0xbe1202c4	-0.14258868
2	0x3ca5e5fd	0.020251269
3	0xbe0d248e	-0.13783476
4	0xbdc9d27f	-0.09854602
5	0xbd86c602	-0.06580736
6	0xbe53b80e	-0.2067568
7	0x3d124813	0.035713267
8	0xbd159395	-0.0365177
9	0xbe3fde94	-0.1873725
10	0x3bd64500	0.006538987
11	0x3de3385a	0.110947326
12	0x3d0ea053	0.034820866
13	0xbc031106	-0.007999664
14	0x3d67d474	0.056599095
15	0x3e2e6131	0.17029263

features_extractor.conv2.weight f4 [32, 16, 4]
0	0xbde1217a	-0.10992713
1	0x3d40d9dc	0.047082767
2	0x3df0c1ce	0.11755715
3	0xbd690a50	-0.0568946
4	0xbd35f56c	-0.044423506
5	0xbd0242cc	-0.031801984
6	0x3dbf1416	0.09330003
7	0x3d09ab38	0.033610553
8	0x3db437de	0.08799718
9	0x3e3fcdd4	0.18730861
10	0x3d718e44	0.058973566
11	0xbd4ab609	-0.04949001
12	0x3db4f018	0.08834857
13	0x3db233ac	0.08701262
14	0x3cd1e870	0.02562353
15	0x3deec5c0	0.116588116
16	0x3c8e3cc5	0.017362962
17	0x3c6c4bdc	0.014422383
18	0x3db581f3	0.088626765
19	0x3d7de11c	0.06198226
20	0xbd8c22e2	-0.06842591
21	0x3de0e825	0.10981778
22	0xbd870556	-0.065928146
23	0xbd1d8a3f	-0.03846192
24	0x3db72911	0.0894338
25	0x3dcbed1c	0.099573344
26	0x3d96aff3	0.073577784
27	0x3d9f37c5	0.07774309
28	0xbda7a2d1	-0.08185352
29	0xbe27737b	-0.16352646
30	0xbd931376	-0.07181446
31	0x3d619f45	0.055083532
32	0x3d15668f	0.03647476
33	0x3dc37426	0.09543638
34	0x3d33c71f	0.04389107
35	0xbd19b045	-0.03752162
36	0x3daf0dc7	0.0854755
37	0x3da91251	0.08255447
38	0xbcb0889f	-0.021549521
39	0xbd96052b	-0.073252045
40	0xbd5a4690	-0.05328995
41	0xbdc6d5d4	-0.09708753
42	0x3d7967c0	0.06088996
43	0x3de63782	0.11241056
44	0xbe11de57	-0.14244972
45	0xbe075d4f	-0.13219188
46	0xbe01d874	-0.12680227
47	0xbcd1989c	-0.025585465
48	0xbc6d02d4	-0.014466006
49	0xbc424943	-0.011858287
50	0x3d616883	0.05503131
51	0x3e5f9d5a	0.21837369
52	0x3dfe85c0	0.124278545
53	0x3da93c58	0.08263463
54	0xbdc7fa9c	-0.09764597
55	0xbc902248	-0.017594472
56	0x3e315a4a	0.17319599
57	0x3e54d291	0.2078345
58	0x3dff5e14	0.12469116
59	0x3dffeeaa	0.124966934
60	0x3c7d1794	0.015447516
61	0x3dfe8f65	0.12429694
62	0x3e3a98a3	0.18222289
63	0x3d952bd1	0.07283748
64	0x3ddd7cae	0.108147964
65	0xbd7e3b84	-0.062068477
66	0xbdc1ab4e	-0.09456502
67	0x3dc8ff42	0.098143116
68	0x3cfd8a68	0.030949786
69	0x3d1f676c	0.03891699
70	0xbce21178	-0.02759622
71	0xbda1c170	-0.078982234
72	0xbd064514	-0.03278072
73	0xbbc24b0c	-0.0059293564
74	0xbe2265c7	-0.15859137
75	0xbe39a65a	-0.18129864
76	0x3de4b1ae	0.11166702
77	0x3d9e7692	0.07737459
78	0x3d6f3718	0.05840215
79	0x3c711350	0.014714077
80	0x3b8d6c0c	0.0043158587
81	0x3e14a3cd	0.1451561
82	0x3dbe6ab8	0.09297699
83	0x3d523108	0.05131629
84	0xbd5edc2e	-0.0544092
85	0x3dd70941	0.10499812
86	0x3d767859	0.060173366
87	0x3d5497ee	0.051902704
88	0x3e139361	0.1441169
89	0xbd95b2e2	-0.0730951
90	0x3b0bb4e1	0.002131753
91	0xbd9036b0	-0.07041681
92	0x3cffffdd	0.031249935
93	0x3da983f9	0.08277125
94	0x3df219ae	0.11821304
95	0x3d8c1ae9	0.0684107
96	0x3d86f11c	0.06588957
97	0x3c492531	0.0122769335
98	0xbda9c954	-0.082903534
99	0xbdaae801	-0.083450325
100	0x3d0d67c9	0.034522805
101	0x3dfdffdd	0.12402318
102	0xbd950df8	-0.07278055
103	0x3d90d4e8	0.07071859
104	0xbc96b738	-0.018397912
105	0xbd82bd7c	-0.063837975
106	0x3c7c0aa0	0.015383393
107	0xbd8d4cec	-0.06899437
108	0x3d320f73	0.043471765
109	0x3dd67204	0.104709655
110	0x3d03c52c	0.03217046
111	0xbd7656bc	-0.06014131
112	0x3d545f3c	0.051848635
113	0x3e19f6e5	0.15035589
114	0xbd8933fe	-0.0669937
115	0xbdee2e6e	-0.116299495
116	0x3cd52718	0.026019618
117	0x3bb8f540	0.0056444705
118	0x3c63c540	0.0139020085
119	0xbd141294	-0.03615053
120	0x3d5076e7	0.050894644
121	0xbe05b526	-0.13057384
122	0xbe1e45cf	-0.15456317
123	0xbe2d8953	-0.16946916
124	0x3dfb2392	0.12262644
125	0x3d4f6a2a	0.050638355
126	0x3d9e7c39	0.07738537
127	0xbd24e0db	-0.0402535
128	0x3d056de0	0.032575488
129	0xbd4b72cc	-0.049670026
130	0x3d982764	0.07429388
131	0xbdc4ad5e	-0.0960338
132	0x3b819e80	0.0039556623
133	0x3d4af598	0.049550623
134	0xbd2c0f30	-0.04200667
135	0xbdb9525e	-0.090489134
136	0x3df1a6be	0.11799382
137	0x3e30249f	0.1720147
138	0x3e3d4db2	0.1848667
139	0x3e10b404	0.1413117
140	0xbd3fc330	-0.046817005
141	0xbd6096ec	-0.05483143
142	0xbd3d4310	-0.046206534
143	0x3c2dba50	0.010603502
144	0x3c324867	0.01088152
145	0x3e143a1e	0.14475295
146	0xbda529c2	-0.08064605
147	0x3d4f2f3b	0.05058215
148	0xbdfa472e	-0.12220608
149	0xbd89bada	-0.06725092
150	0x3d8c9b7c	0.06865594
151	0x3c52a1b7	0.012855939
152	0x3e195e36	0.14977345
153	0x3e0b4d9e	0.13603827
154	0xbda009d1	-0.07814372
155	0xbd03a3ae	-0.03213852
156	0x3d47c1b4	0.048768714
157	0xbdfef12a	-0.12448342
158	0xbd78e8da	-0.06076894
159	0xbd4a4a3f	-0.049387213
160	0x3d863cb1	0.06554545
161	0x3d852aab	0.06502279
162	0xbd2c75e3	-0.042104613
163	0xbd31f31e	-0.043444745
164	0xbd51fbea	-0.051265635
165	0xbd85b6d3	-0.065290116
166	0x3d36a8a7	0.044594433
167	0x3db39b30	0.08769834
168	0x3d88ddd4	0.06682935
169	0x3df2ad4c	0.1184946
170	0xbdc249a2	-0.094867006
171	0xbd89a94e	-0.067217454
172	0xbdd70fd1	-0.105010636
173	0x3b920fff	0.0044574733
174	0xbe14e222	-0.14539388
175	0x3d8e9335	0.06961671
176	0x3d9757ad	0.0738977
177	0x3c278f3b	0.01022702
178	0xbd2a64f2	-0.041600175
179	0x3d8ec2da	0.06970759
180	0xbda7c480	-0.08191776
181	0x3d189d44	0.037259355
182	0x3d261084	0.040543094
183	0xbd46e93c	-0.048562273
184	0x3cf2921c	0.029610686
185	0x3c8e5312	0.017373595
186	0x3df523a2	0.11969687
187	0xbc938295	-0.018006602
188	0x3be673b8	0.0070328377
189	0xbd66db31	-0.05636138
190	0x3e23a76b	0.15981834
191	0x3e42535d	0.18977113
192	0xbdc60952	-0.096697465
193	0x3d6dbc34	0.058040813
194	0xbdd3c324	-0.103399545
195	0xbdaaa6d0	-0.08332598
196	0x3d2ec298	0.042666048
197	0x3b326ac0	0.0027224272
198	0x3ccb6678	0.024829134
199	0x3dcdaa14	0.100422055
200	0xbdd843de	-0.1055982
201	0x3c0013a3	0.007817182
202	0x3dac6447	0.08417564
203	0xbd618b45	-0.05506446
204	0xbdf6ecbc	-0.12056872
205	0xbd21b2e0	-0.03947723
206	0xbd9d3d02	-0.07677652
207	0xbda463d0	-0.0802685
208	0xbda20812	-0.079116955
209	0x3c5537d8	0.0130138025
210	0x3cd5c3e4	0.026094384
211	0xbd85a091	-0.06524766
212	0x3dd4d715	0.10392586
213	0xbdc101b7	-0.09424155
214	0xbd3129ac	-0.043252632
215	0x3df07ee2	0.11742951
216	0xbb473f2b	-0.0030402641
217	0x3d484580	0.048894405
218	0xbe026093	-0.12732153
219	0xbd43e3d9	-0.047824714
220	0x3d37845b	0.04480396
221	0x3c5cb90b	0.013471852
222	0xbbf360fa	-0.007427332
223	0xbd86d6be	-0.065839276
224	0x3d8cd322	0.06876208
225	0xbdaa5f68	-0.083189785
226	0xbdc1fdd4	-0.09472242
227	0x3df3bac8	0.1190086
228	0x3d840cf4	0.06447783
229	0x3d9c980c	0.07646188
230	0xbdb74c1c	-0.089500636
231	0x3ddd0bc0	0.10793257
232	0xbccb1f18	-0.0247951
233	0x3d0325ec	0.032018587
234	0xbc889638	-0.016673192
235	0xbdbf6ab0	-0.09346521
236	0x3dc6e21b	0.09711095
237	0xbdc39af6	-0.09551041
238	0x3e001e6c	0.12511605
239	0xbd3146d4	-0.043280438
240	0xbdb1734e	-0.08664571
241	0xbdad1188	-0.084506094
242	0x3d424363	0.047427546
243	0xbdcc4495	-0.099740185
244	0x3dbdaeba	0.09261842
245	0x3dcc9d5c	0.099909514
246	0x3cd9e578	0.026598677
247	0xbd421c60	-0.04739034
248	0x3d7d9a1a	0.06191454
249	0xbd2cdd3b	-0.04220317
250	0x3d4e9945	0.050439138
251	0x3df24616	0.11829774
252	0x3d2caa84	0.042154804
253	0xbddd0f04	-0.1079388
254	0xbdb570b8	-0.0885939
255	0x3da193d9	0.07889528

features_extractor.conv2.bias f4 [32]
0	0xbd240af0	-0.040049493
1	0xbd886f29	-0.06661827
2	0xbd6d3b2c	-0.05791776
3	0xbe017552	-0.1264241
4	0x3d67c93d	0.0565884
5	0x3dcd2ed7	0.100186996
6	0x3ddd0938	0.10792774
7	0xbd64118c	-0.055680797
8	0x3dfd3602	0.12363817
9	0x3dbe1e07	0.09283071
10	0x3dfbe96b	0.1230038
11	0xbde505dc	-0.11182758
12	0xbc3f6e3e	-0.011683999
13	0x3e08d6a5	0.1336313
14	0x3df89823	0.12138393
15	0x3d44cef6	0.048048936
16	0x3c9046c1	0.017611863
17	0xbd970a30	-0.0737499
18	0xbda826ca	-0.082105234
19	0x3d4bfab3	0.049799632
20	0x3dd8621e	0.10565589
21	0x3c200bf3	0.009768474
22	0x3d8e3c05	0.069450416
23	0x3ca076a9	0.019587832
24	0xbd8678be	-0.065659985
25	0xbc924c73	-0.01785872
26	0x3e156413	0.14588957
27	0x3ddc187d	0.10746858
28	0x3d05bbb0	0.032649696
29	0xbd6867b3	-0.05673952
30	0x3dd81bd9	0.105521865
31	0x3d6f9c61	0.058498744

features_extractor.fc_op.weight f4 [32, 3]
0	0xbdc044b1	-0.09388102
1	0x3df9b3bb	0.12192484
2	0xbe57f3cb	-0.21089093
3	0xbe875f99	-0.26440123
4	0xbea7628c	-0.32692373
5	0xbeb8bf4d	-0.3608345
6	0xbef4fc48	-0.47848725
7	0xbe0c544a	-0.13704029
8	0xbe9d1304	-0.3067857
9	0xbe57c9da	-0.21073094
10	0x3ee6e715	0.45098177
11	0x3ee8fb52	0.45504242
12	0xbef0533d	-0.46938506
13	0xbea419a7	-0.3205082
14	0x3d036c28	0.032085568
15	0x3e8c7338	0.27431655
16	0x3f0a81f2	0.5410453
17	0x3e5a1bd6	0.21299681
18	0xbcad2424	-0.021135397
19	0xbbfd8887	-0.0077372226
20	0xbdb268d9	-0.08711404
21	0xbe197a5f	-0.14988087
22	0xbd13df4d	-0.036101628
23	0xbdd8643c	-0.10565993
24	0x3e3794fa	0.17927924
25	0xbe1507a6	-0.14553699
26	0x3f03e763	0.51524943
27	0xbf080fdd	-0.53149205
28	0x3e995366	0.2994644
29	0xbe83049b	-0.2558945
30	0x3efea313	0.4973379
31	0x3eece97f	0.46271893
32	0x3ed53178	0.41639304
33	0x3e627528	0.22115004
34	0x3ec7c953	0.39020786
35	0x3bc84f2f	0.006112955
36	0x3c650cfe	0.013980148
37	0x3e50cf65	0.20391615
38	0xbeac879b	-0.3369721
39	0x3e56a2c3	0.20960526
40	0xbd1ed09f	-0.038773175
41	0xbee998b1	-0.45624307
42	0xbc799b08	-0.015234716
43	0x3e9668cd	0.29376832
44	0x3df2660c	0.1183587
45	0xbf05398e	-0.52040946
46	0x3e8bbe0d	0.27293435
47	0xbec8a3cb	-0.39187464
48	0x3e3f0987	0.18655978
49	0xbe9761cc	-0.295668
50	0xbea7360e	-0.32658428
51	0x3ed83a62	0.42232043
52	0xbcd05ed8	-0.02543585
53	0xbefb5894	-0.49091017
54	0x3ec6f0de	0.38855642
55	0x3d038b44	0.032115236
56	0xbe11fed4	-0.14257365
57	0x3db4d37b	0.08829399
58	0x3e8f9b19	0.28048018
59	0xbdfa8838	-0.12233013
60	0x3de2751f	0.11057495
61	0xbea3bbd3	-0.31979236
62	0x3f1ab634	0.6043427
63	0x3d949a02	0.07255937
64	0x3f07929b	0.5295808
65	0xbe79aaf6	-0.24381623
66	0x3ebab7c3	0.36468324
67	0x3e66dbff	0.2254486
68	0xbc5b68c2	-0.013391675
69	0x3efa81b8	0.48927093
70	0xbab9aa2f	-0.0014165099
71	0xbc895b85	-0.016767273
72	0x3d16ab30	0.03678435
73	0xbef6c118	-0.48194194
74	0x3dda97f9	0.10673518
75	0xbe94d1a3	-0.2906619
76	0xbca91d68	-0.020643905
77	0xbeeb577d	-0.45965186
78	0x3ef323b0	0.47488165
79	0xbe7ba60e	-0.24575064
80	0x3e70a160	0.2349906
81	0x3e2e5904	0.17026144
82	0x3c9cb196	0.019127648
83	0x3ee8a98c	0.45441854
84	0x3e31c883	0.17361645
85	0x3e8ec3aa	0.27883655
86	0x3e6aff1b	0.22948878
87	0x3eccacc6	0.39975566
88	0xbee9eca4	-0.45688355
89	0x3de2cd02	0.110742584
90	0x3e6fba08	0.23410809
91	0x3ea4fdb8	0.32224822
92	0xbea31bc0	-0.3185711
93	0xbf037c5b	-0.51361626
94	0x3e60dd00	0.21959305
95	0x3ee2211e	0.4416589

features_extractor.fc_op.bias f4 [32]
0	0x3ebd63cf	0.3699021
1	0x3ec01b7c	0.3752097
2	0x3d94142d	0.07230411
3	0xbed89809	-0.42303494
4	0x3ea9d996	0.33173817
5	0xbd581860	-0.05275762
6	0x3e51b11c	0.20477718
7	0x3ef9f197	0.4881713
8	0x3f088eec	0.5334308
9	0xbe40028f	-0.18750976
10	0x3d91c78d	0.071181394
11	0xbda1844e	-0.07886563
12	0xbe9adc91	-0.30246404
13	0xbda109f0	-0.078632236
14	0xbda40f07	-0.08010679
15	0x3da19fed	0.078918315
16	0xbe6460d6	-0.22302565
17	0xbeabee66	-0.3358032
18	0x3e911270	0.2833438
19	0xbcbd0ddd	-0.0230779
20	0xbbbe3324	-0.0058044363
21	0x3f194664	0.5987303
22	0x3f01ce21	0.5070515
23	0x3f06a3fe	0.5259398
24	0xbe9c49a1	-0.30524924
25	0x3d65a3e9	0.05606452
26	0x3e08bafc	0.13352579
27	0xbe923728	-0.28557706
28	0x3e2f5443	0.17121987
29	0xbdf2426f	-0.118290775
30	0xbf048553	-0.51765937
31	0x3e95403a	0.29150563

features_extractor.fc_merge.weight f4 [352, 352]
0	0x3d675a2a	0.05648247
1	0x3c85a6c7	0.016314877
2	0x3c4646d6	0.01210185
3	0xbc30af80	-0.01078403
4	0xbd560f46	-0.05226066
5	0xbdf8615a	-0.12127943
6	0xbd586ac6	-0.052836202
7	0xbd6e5c15	-0.058193285
8	0xbded09dc	-0.11574146
9	0xbd01551a	-0.0315753
10	0x3db28bae	0.08718048
11	0x3dad7ca4	0.08471039
12	0x3d6554cc	0.05598907
13	0x3d990bec	0.07472977
14	0x3d108837	0.035286155
15	0x3d4b4935	0.049630363
16	0x3db91cd7	0.09038704
17	0x3dab8325	0.08374623
18	0x3d088113	0.03332622
19	0xbd241551	-0.04005939
20	0x3c803c30	0.0156537
21	0x3c915424	0.017740317
22	0xbd0355cb	-0.03206424
23	0xbdb6a955	-0.08919016
24	0xbdabe156	-0.08392589
25	0xbd9e3ee2	-0.07726838
26	0xbdb18438	-0.08667797
27	0xbd5cdb66	-0.053920172
28	0xbcb0a0cf	-0.021561055
29	0xbd5690d3	-0.05238421
30	0x3c562742	0.013070883
31	0xbccefcd0	-0.025267035
32	0xbcd44add	-0.025914604
33	0xbcd5cb4d	-0.026097918
34	0xbb2095af	-0.002450328
35	0xbc4928cb	-0.012277792
36	0xbbffc797	-0.0078057754
37	0x3c06985b	0.008215035
38	0xbc9a1aa9	-0.01881154
39	0xbd0de325	-0.03464045
40	0x3d743f67	0.059630778
41	0x3b978aab	0.004624685
42	0x3d87538d	0.06607733
43	0x3d714378	0.058902234
44	0x3d02c22f	0.03192347
45	0x3c8ec96b	0.017430028
46	0x3daaf8d2	0.0834824
47	0x3c2a5883	0.010397079
48	0x3d11291b	0.03543959
49	0xb8624c5e	-5.395372e-05
50	0x3d81e98c	0.06343374
51	0xbc85448f	-0.016268043
52	0x3d50b9ae	0.050958328
53	0x3c543e95	0.012954374
54	0xbbebfc09	-0.007201676
55	0x3dc2d111	0.095125325
56	0x3ce1e3a8	0.027574375
57	0x3c38c854	0.011278231
58	0x3d423a22	0.04741872
59	0x3d12a64c	0.035803124
60	0x3dbb539c	0.091468066
61	0x3cf13e33	0.029448604
62	0x3b824548	0.003975544
63	0xbd13beba	-0.036070563
64	0xbdea5678	-0.11442274
65	0xbdd1baf9	-0.1024074
66	0xbdb233b2	-0.08701266
67	0xbe128c06	-0.14311227
68	0xbdea4ee5	-0.11440829
69	0xbd4da9fa	-0.05021093
70	0xbcb88e80	-0.022528887
71	0x3d95e10a	0.073183134
72	0xbaaefc4b	-0.0013350336
73	0x3d6b605a	0.057464935
74	0x3d8187cf	0.063247316
75	0x3d05e758	0.03269133
76	0x3c743f98	0.01490774
77	0x3d4e36b9	0.050345156
78	0x3c9d8df9	0.019232737
79	0x3c369184	0.011143092
80	0x3e3bce91	0.18340518
81	0x3de72e01	0.112880714
82	0x3d9cfc23	0.07665279
83	0x3d9ba59d	0.075999476
84	0x3d4f3f73	0.05059762
85	0xbd476786	-0.048682712
86	0xbdfe29af	-0.12410294
87	0xbe4cf3d3	-0.20014887
88	0xbdd9af4a	-0.10629137
89	0xbd06700d	-0.032821704
90	0x3c647e71	0.013946162
91	0x3c72efda	0.014827693
92	0x3dbb21e3	0.09137323
93	0x3c72e779	0.014825695
94	0x3cc0aa09	0.02351858
95	0x3ced56dd	0.028972084
96	0x3d1d71d0	0.03843862
97	0x3c830973	0.015995717
98	0x3d0a66dc	0.0337895
99	0x3d320418	0.043460935
100	0xbafcb868	-0.0019281032
101	0x3d69f042	0.057113893
102	0x3d60922f	0.05482691
103	0x3c3a90bd	0.011387047
104	0x3d8ce063	0.06878736
105	0x3db7adb5	0.08968679
106	0x3d9510fa	0.07278629
107	0x3ca8e0aa	0.02061494
108	0x3ccf410d	0.025299573
109	0x3d3af871	0.04564709
110	0x3c71a12d	0.0147479
111	0xbcb9bb2c	-0.022672258
112	0xbb876ab4	-0.004132593
113	0xbc127958	-0.008940063
114	0xbb3cdc46	-0.0028817817
115	0xbbba142f	-0.0056786756
116	0x3caba441	0.020952346
117	0x3d3cd2d7	0.04609951
118	0x3d20cd43	0.039258253
119	0x3c8e0433	0.017335987
120	0xbccaa044	-0.024734624
121	0x3d874d82	0.0660658
122	0x3d514d2a	0.05109898
123	0x3ce59cf0	0.028028935
124	0x3db068be	0.08613728
125	0x3d794459	0.060856197
126	0x3dc4fbc9	0.09618337
127	0x3c6df717	0.014524243
128	0x3db17f6e	0.086668834
129	0x3d86a9ae	0.065753326
130	0x3c8db29a	0.017297078
131	0xbc276612	-0.010217207
132	0x3da9adc7	0.082850985
133	0x3d9ab538	0.07554096
134	0xba7f2403	-0.0009732844
135	0xbb1235c2	-0.0022309874
136	0x3bb28d96	0.0054490073
137	0xbb6d89d0	-0.0036245473
138	0x3d7dfef9	0.06201074
139	0xbcbd4c27	-0.023107601
140	0x3d4f4237	0.050600257
141	0xbcfb3a84	-0.03066755
142	0x3ceb64cc	0.028734587
143	0x3d1bc5eb	0.038030546
144	0xbc392247	-0.011299676
145	0x3db651c1	0.08902312
146	0x3d7f5a8a	0.062342204
147	0x3da56108	0.08075148
148	0x3d9bd179	0.07608313
149	0xbb20228f	-0.002443466
150	0x3acfe3d9	0.001586075
151	0xbc3a4953	-0.011370021
152	0xbc800fd8	-0.015632555
153	0x3d894d0e	0.0670415
154	0x3d09e78d	0.03366809
155	0x3d8953e2	0.067054525
156	0x3d9cab8a	0.07649906
157	0x3d8715fd	0.06595991
158	0x3d321f38	0.043486804
159	0x3dcc07e1	0.0996244
160	0x3d992653	0.07478013
161	0x3ce3d9da	0.02781384
162	0x3c2186f8	0.009858839
163	0xbcd2460a	-0.025668163
164	0xbcd1ab84	-0.02559448
165	0xbd888f84	-0.066679984
166	0xbdc5ad14	-0.09652153
167	0xbe084d5d	-0.13310762
168	0xbd9f1acf	-0.07768785
169	0xbdbcd0c2	-0.09219505
170	0x3d484ce7	0.048901465
171	0x3d922221	0.07135416
172	0x3d9cfd89	0.076655455
173	0xbbc32dba	-0.0059563788
174	0x3cc5c727	0.024142815
175	0x3ba1a994	0.0049335454
176	0x3d187b5e	0.037227027
177	0x3d8b2d2f	0.067957275
178	0xbc89086b	-0.016727647
179	0x3c524cc2	0.012835683
180	0xbd10f0e2	-0.035385974
181	0x3d0ede0f	0.03487974
182	0x3d89f110	0.06735432
183	0x3da66f4b	0.08126696
184	0x3d478293	0.04870851
185	0x3d372495	0.04471262
186	0x3da14d4e	0.07876073
187	0x3cedff64	0.029052444
188	0x3d468847	0.048469808
189	0x3daadbcf	0.083427064
190	0x3d6820b6	0.05667182
191	0xbb122fa9	-0.002230624
192	0x3cebf9a0	0.028805554
193	0x3dadf28a	0.08493526
194	0x3d41a3b1	0.04727525
195	0x3d5010be	0.050797217
196	0x3dc0ef25	0.09420613
197	0x3cac7ad6	0.021054666
198	0x3d975501	0.0738926
199	0x3c7565c6	0.014977878
200	0xbc3e48d8	-0.011614047
201	0x3d87ba4d	0.06627331
202	0x3ce72834	0.028217413
203	0x3ca8a7ba	0.02058779
204	0x3c337bd2	0.010954814
205	0x3c4d0a81	0.012514711
206	0x3d84d7ae	0.0648645
207	0x3cd342d9	0.025788711
208	0x3d58edc0	0.05296111
209	0x3d2694d9	0.040669296
210	0x3d119590	0.035543025
211	0x3d95e7fc	0.07319638
212	0x3ba5bcc7	0.0050579044
213	0x3d5ab8bd	0.053398836
214	0x3d30f308	0.043200523
215	0x3d3e032a	0.046389736
216	0xbab64816	-0.0013906981
217	0xbbab447e	-0.0052266708
218	0x3c8e4cd2	0.017370615
219	0x3d95785b	0.072983466
220	0xbb2bcfe9	-0.0026216453
221	0x3d90554f	0.07047521
222	0x3cf56305	0.029954443
223	0x3c315007	0.010822303
224	0x3d79b5ac	0.06096427
225	0x3d2fe36a	0.04294149
226	0x3da263f5	0.079292215
227	0x3db15eb3	0.086606406
228	0x3da1c783	0.07899382
229	0x3d4a289d	0.049355138
230	0x3c72d9b6	0.014822414
231	0xbc41d311	-0.011830107
232	0x3adf91eb	0.0017057037
233	0x3dd1813a	0.10229726
234	0x3dd1eb7f	0.102499954
235	0x3de42bd5	0.11141173
236	0x3cde0d79	0.027106034
237	0x3dd424e5	0.103585996
238	0x3d0ecdc7	0.034864213
239	0x3da21032	0.07913245
240	0x3cc0176f	0.023448674
241	0x3b76b840	0.0037646443
242	0x3d43f8a1	0.047844533
243	0x3d802aad	0.0625814
244	0x3ca192cb	0.019723317
245	0x3da8978c	0.0823203
246	0x3dc524fa	0.09626193
247	0x3d8941f7	0.06702035
248	0x3d068c6d	0.032848764
249	0x3cf41955	0.029797236
250	0x3d49fe51	0.0493148
251	0x3bcd5df9	0.006267306
252	0x3d7aa3db	0.06119142
253	0x3d9c0c13	0.076194905
254	0x3d9b8680	0.07594013
255	0x3dab9b37	0.08379214

features_extractor.fc_merge.bias f4 [352]
0	0x3d5b7977	0.053582635
1	0x3d4ec806	0.050483726
2	0xbd1ea7e7	-0.038734343
3	0xbc0e690a	-0.008692035
4	0xbd403468	-0.04692498
5	0x3c4b59cb	0.012411545
6	0x3d3ac3ee	0.04559701
7	0x3d7037ed	0.058647085
8	0x3d06a952	0.03287632
9	0x3d2e013a	0.04248164
10	0x3d9d6304	0.07684901
11	0x3cc46843	0.023975497
12	0x3afc275e	0.0019237807
13	0x3c9c4c06	0.01907922
14	0xbd42a142	-0.04751707
15	0x3d93eb18	0.07222575
16	0x3cad507f	0.021156548
17	0xbc1f9790	-0.009740725
18	0x3c8a6409	0.016893404
19	0x3d3924ae	0.045200996
20	0x3c554a50	0.013018206
21	0x3b07c639	0.0020717515
22	0x3d8f5162	0.069979444
23	0x3c24891c	0.010042455
24	0xbc93478d	-0.017978454
25	0x3c38ac94	0.011271615
26	0xbb861ce4	-0.0040927995
27	0x3d79dac5	0.06099965
28	0xbd7e2223	-0.062044274
29	0x3cab3cbc	0.020902984
30	0xbb79fd44	-0.0038145343
31	0x3c6b0c0a	0.014346132
32	0x3c972174	0.018448569
33	0xbbd336a4	-0.0064457227
34	0x3d1a1859	0.037620876
35	0x3ad66c56	0.0016359191
36	0xbb3d1df6	-0.002885697
37	0xbc474b4a	-0.012163946
38	0x3c1c16ed	0.00952695
39	0x3cb133db	0.021631172
40	0x3d8d9f89	0.069151945
41	0xbd1eefe8	-0.03880301
42	0xbc74ba34	-0.014936972
43	0x3d116b15	0.035502512
44	0xbc7c8165	-0.015411709
45	0x3c6aed65	0.014338826
46	0x3d242a00	0.040079117
47	0xbbcc0a37	-0.0062268036
48	0x3d98b90a	0.074571684
49	0xbbce34b9	-0.006292906
50	0x3ca078f7	0.01958893
51	0x3d181d00	0.03713703
52	0x3c6d7393	0.014492887
53	0x3bd2194b	0.0064117066
54	0xbd1db922	-0.038506635
55	0x3ca308b8	0.019901618
56	0x3d2a0956	0.04151281
57	0xbc5e0fca	-0.013553569
58	0xbd59546b	-0.053059023
59	0xbcb8b6b3	-0.022548055
60	0x3c1135e9	0.008862951
61	0xbc5589c2	-0.013033332
62	0x3ce85cc0	0.02836454
63	0x3d33c476	0.04388853
64	0x3d18b91f	0.03728592
65	0xbd370f0e	-0.04469209
66	0xbc6f05c9	-0.014588782
67	0x3ceff242	0.029290322
68	0x3ccf9771	0.025340768
69	0x3cb59d79	0.022169815
70	0x3bd53c20	0.0065074116
71	0xbcc81c16	-0.024427455
72	0x3d78729b	0.06065617
73	0x3d90850b	0.07056626
74	0xbd02074a	-0.031745233
75	0xbd26d66b	-0.04073183
76	0xbc2d3b23	-0.010573181
77	0x3bd99be2	0.006640897
78	0xbc646a1c	-0.013941314
79	0x3cb72d91	0.022360595
80	0xbd3b65f3	-0.045751523
81	0xbcbb7cc4	-0.022886641
82	0x3d44eaeb	0.048075598
83	0xbb1d2acb	-0.0023981805
84	0xbcab5898	-0.020916268
85	0xb993f52b	-0.0002822069
86	0xbd1c9899	-0.038231466
87	0x3d5ad6ad	0.053427387
88	0x3b6490a4	0.0034876252
89	0x3cd62490	0.026140481
90	0x3c5a4e6f	0.013324364
91	0x3da28a33	0.07936516
92	0x3d3bbbc6	0.04583337
93	0x3c2a6a69	0.010401347
94	0xbca7368e	-0.020411756
95	0xbca89d6e	-0.02058288
96	0xba11d810	-0.0005563507
97	0xbd75ca77	-0.06000754
98	0x3d92c3e3	0.07166269
99	0x3d14b07f	0.036301132
100	0xbd17c2ee	-0.037051134
101	0x3da0bb77	0.07848256
102	0xbcb71332	-0.02234802
103	0xbd3a4538	-0.04547617
104	0xbc943b77	-0.018094761
105	0xbc80c91c	-0.015720896
106	0xbcd6fd14	-0.026243724
107	0x3c8d3eb7	0.017241819
108	0xbc7c88c1	-0.015413464
109	0x3d8cf643	0.06882908
110	0xbd40c5cf	-0.047063645
111	0xbb4b1e80	-0.0030993521
112	0xbca67729	-0.020320492
113	0xbbdecdbb	-0.0067994273
114	0x3c1d137f	0.009587168
115	0xbc8d8155	-0.017273584
116	0x3be1b2d1	0.0068877717
117	0x3b222b33	0.0024744987
118	0x3d1cf269	0.038317118
119	0x3d701114	0.058610037
120	0xbcd0de9c	-0.025496773
121	0xbcf21a41	-0.029553534
122	0xbcecaa07	-0.02888967
123	0x3d969135	0.07351915
124	0x3cce3309	0.02517082
125	0xbc10b1c6	-0.008831447
126	0xbce4d8e3	-0.02793545
127	0x3c8e6615	0.01738266
128	0xbb9c6e8d	-0.004773921
129	0xbca3b73c	-0.019984834
130	0x3ba13dff	0.0049207206
131	0x3d901b02	0.07036401
132	0x3ca3c62b	0.019991955
133	0xbb8ef0ea	-0.0043622153
134	0x3c21e2c4	0.009880725
135	0x3da2f3eb	0.0795668
136	0x3d5d6c4e	0.054058366
137	0xbc9ffc4b	-0.019529482
138	0xbc7e6eaa	-0.015529314
139	0x3d2b9caa	0.041897453
140	0x3d9d96dc	0.0769479
141	0xbcc4dda3	-0.024031466
142	0x3d6e5741	0.05818868
143	0x3d6f5150	0.058427155
144	0xbb97e9d3	-0.0046360283
145	0x3d9a3b7d	0.07530878
146	0xbd00dab9	-0.03145859
147	0xbb696d9f	-0.0035618318
148	0x3cd8e1a9	0.02647479
149	0xbc2fd20f	-0.010731234
150	0x3da43f98	0.08019942
151	0x3d4ebb85	0.0504718
152	0x3d748af5	0.059702832
153	0xbd438b34	-0.047740176
154	0x3d9d26ae	0.07673393
155	0x3ca42de5	0.020041415
156	0xbc14b206	-0.009075647
157	0xbc4b4036	-0.012405446
158	0xbd34b0ad	-0.044113804
159	0xbcf0c540	-0.029390931
160	0xbd28f537	-0.04124948
161	0x3cd63820	0.02614981
162	0xbcb33cf4	-0.02187965
163	0xbd4e2ea7	-0.05033746
164	0x3cc35afb	0.023847094
165	0xbcb508cf	-0.022098927
166	0x3d74ee14	0.05979736
167	0x3d3811d6	0.044938885
168	0x3d80e6e6	0.062940404
169	0x3d844968	0.06459314
170	0xbce100e3	-0.027466243
171	0x3ce1c4e6	0.027559709
172	0xbd631863	-0.05544318
173	0x3c43bf8e	0.011947526
174	0xba44bf7f	-0.0007505342
175	0xbcb96774	-0.022632338
176	0xbc02377f	-0.007947802
177	0x3a11de88	0.0005564471
178	0x3d0e6463	0.034763705
179	0x3d294cbb	0.04133294
180	0xbbe8f6dd	-0.0071095065
181	0x3d1d92bf	0.038470026
182	0xbc35d133	-0.01109724
183	0x3d891a75	0.066944994
184	0xbc238af9	-0.009981864
185	0x3d04ca0d	0.032419253
186	0x3d368d7d	0.044568527
187	0x3d05db7d	0.032680023
188	0xbb862a38	-0.0040943883
189	0x3c4f44fc	0.0126507245
190	0x3d58db9b	0.052943807
191	0x3aad6d18	0.0013231365
192	0xbc9e96a5	-0.019358942
193	0x3d590a04	0.052988067
194	0x3d50d7ce	0.050987057
195	0x3d478e72	0.04871983
196	0x3cf1aa08	0.029500023
197	0x3d3d44be	0.046208136
198	0x3d130d90	0.035901606
199	0xbd102254	-0.035188988
200	0xbc80ba85	-0.01571394
201	0x3d5b44dd	0.05353247
202	0x3cea4e99	0.028601931
203	0xbc725bf1	-0.014792428
204	0x3d32bc5a	0.043636657
205	0x3d487a83	0.04894496
206	0x3cda2ca9	0.026632624
207	0x3cc5f2e4	0.02416367
208	0xbcb25044	-0.02176679
209	0xbc5ec0f3	-0.013595807
210	0x3d87786c	0.066147655
211	0xbcccff10	-0.025023967
212	0xbcfb470f	-0.030673532
213	0x3cdeac7e	0.02718186
214	0xbd9c29ff	-0.076251976
215	0xbbcb91aa	-0.006212433
216	0x3bc423bf	0.0059857066
217	0x3d672e74	0.056440786
218	0x3b93c151	0.004509129
219	0x3d3da3ec	0.046298906
220	0x3d004c5b	0.03132282
221	0xbcab70a9	-0.020927744
222	0xbcfac615	-0.030612031
223	0x3d16b9c0	0.03679824
224	0x3c8af83e	0.016964074
225	0x3d906770	0.07050979
226	0x3d255146	0.04036071
227	0x3cc46645	0.023974547
228	0x3d0ce3d1	0.03439695
229	0x3d0f00db	0.034912925
230	0x3d16447d	0.03668641
231	0x3cfd4685	0.030917415
232	0x3c088bc2	0.008334102
233	0x3d4985d4	0.049199894
234	0x3b8f024d	0.004364288
235	0xbcbb6270	-0.022874087
236	0xbd47c862	-0.048775084
237	0x3d9d95d7	0.07694595
238	0x3c148325	0.00906447
239	0x3d22ac35	0.03971501
240	0xbc4512fc	-0.012028452
241	0x3b66679c	0.003515697
242	0xbb987858	-0.004653018
243	0xbcf30257	-0.029664202
244	0xbccf1377	-0.025277836
245	0x3d84e2e5	0.06488589
246	0xbb10e7c2	-0.0022110795
247	0x3cbbc68d	0.022921825
248	0xbc9b4097	-0.018951697
249	0x3d4407c4	0.04785897
250	0x3d2aeba6	0.041728638
251	0x3cbb8043	0.022888308
252	0xbc49804f	-0.012298658
253	0xbd46847d	-0.048466194
254	0xbc9c600b	-0.019088766
255	0x3d8bf982	0.06834699

actor.weight f4 [10, 352]
0	0xbc7612b7	-0.01501911
1	0x3d169e86	0.036772273
2	0xbcbbae9f	-0.022910414
3	0x3ce1a6e9	0.02754541
4	0xbbe19881	-0.006884635
5	0x3d0f2f82	0.034957416
6	0x3b99dc47	0.0046954486
7	0x3c859092	0.016304288
8	0x3c1ea7b5	0.009683539
9	0x3bc7fe4e	0.0061033135
10	0xbd363d16	-0.04449185
11	0xbcff9256	-0.031197708
12	0x3d1abc5f	0.0377773
13	0x3c50fbbe	0.0127553325
14	0xbc8ec5ae	-0.017428245
15	0xbc0bac28	-0.008524932
16	0x3d20ef32	0.039290614
17	0x3d7b24d5	0.061314423
18	0x3ca6a3fb	0.020341864
19	0xbcff397d	-0.031155342
20	0x3d32fcdb	0.043698173
21	0xbcf660a7	-0.030075384
22	0x3c3a91a3	0.011387262
23	0x3d4ace79	0.049513314
24	0xbd002b25	-0.031291146
25	0xbd4f73cc	-0.050647542
26	0x3c9e3a44	0.019314893
27	0x3d7236cf	0.0591343
28	0xbd3d13b6	-0.046161376
29	0xbd0afca1	-0.033932332
30	0x3d06a574	0.032872632
31	0x3cc37a55	0.023862043
32	0x3c90b907	0.017666353
33	0xbbda5027	-0.006662387
34	0xbc8da7bc	-0.017291896
35	0x3c8898af	0.016674368
36	0x3d58af2b	0.05290143
37	0x3d81050c	0.06299791
38	0xbd252c1c	-0.04032527
39	0x3bf881a3	0.0075838133
40	0x3c578e8e	0.013156546
41	0xbc43140a	-0.011906633
42	0x3c242023	0.010017428
43	0x3d4b42fe	0.049624436
44	0xbd28537f	-0.041095253
45	0xbca6459b	-0.020296862
46	0x3cd4f4fa	0.02599572
47	0x3ce58d5f	0.028021513
48	0xbd2024c1	-0.03909755
49	0xbcc2ed43	-0.023794776
50	0xbc6febdc	-0.014643636
51	0x3c9f2141	0.019425036
52	0x3d179d00	0.03701496
53	0x3d46925f	0.048479434
54	0x3d252df3	0.040327024
55	0xbc8aacad	-0.016928041
56	0xbb648dd5	-0.0034874578
57	0x3d46d21a	0.048540212
58	0x3d393363	0.04521502
59	0x3c32c8bb	0.010912116
60	0x3d0ffecc	0.035155103
61	0x3d3aefa6	0.045638703
62	0xbd13d4a7	-0.036091473
63	0xbb8a1d9b	-0.004214955
64	0x3d1bcb20	0.038035512
65	0x3af0a939	0.0018360979
66	0x3c396bcd	0.011317206
67	0x3b8a1b0e	0.004214651
68	0x3d38019b	0.044923406
69	0xbd34a6d7	-0.044104423
70	0xbce78a77	-0.028264267
71	0x3c841a3e	0.016125795
72	0xbd06cd0d	-0.032910395
73	0x3d2b2109	0.04177955
74	0xbcf6e078	-0.030136332
75	0xbc73bd0f	-0.014876618
76	0x3cbc1629	0.022959786
77	0xbd409c85	-0.04702427
78	0xbd4625e5	-0.048375983
79	0xbb8ed650	-0.004359044
80	0xbd5f0bb7	-0.05445453
81	0x3d424b50	0.047435105
82	0xbc0be2d8	-0.0085379705
83	0xbd54cb76	-0.051951848
84	0xbc3aeb09	-0.011408576
85	0x3bc2f6e6	0.0059498427
86	0x3ceb8ed7	0.028754635
87	0x3d4aac80	0.049480915
88	0xbd26d124	-0.040726796
89	0xbc96b75c	-0.01839798
90	0x3d2e058d	0.042485762
91	0xbd0b37ac	-0.03398864
92	0xbcd573b8	-0.026056156
93	0x3c4ae91d	0.01238468
94	0x3d106b0d	0.03525834
95	0x3d0ad127	0.03389087
96	0xbcc1552f	-0.023600189
97	0xbd5a91cd	-0.053361703
98	0xbd265924	-0.040612355
99	0xbbd46db0	-0.0064828023
100	0x3c9910d9	0.018684791
101	0x3cb4f754	0.022090591
102	0x3cbe8c06	0.023260128
103	0xbc15bf44	-0.00913984
104	0x3d29de59	0.041471813
105	0xbd0156e4	-0.031577006
106	0x3d6e50aa	0.058182396
107	0x3d24ee04	0.040266052
108	0x3d39235e	0.045199744
109	0xbca2d9e8	-0.019879296
110	0x3b8af95f	0.004241153
111	0xbd052fab	-0.032516163
112	0x3cc434da	0.023950983
113	0x3c927df5	0.017882327
114	0x3cae5ae0	0.021283567
115	0xbd3133ad	-0.043262172
116	0xbd17c5c8	-0.037053853
117	0xbd001939	-0.031274054
118	0xbd02af94	-0.031905726
119	0x3cbf6adf	0.02336639
120	0x3c5e47f2	0.013566958
121	0xbcec3eb0	-0.028838485
122	0x3d51cf2e	0.051222973
123	0x3d6d597c	0.057946667
124	0x3cb80477	0.022463067
125	0x3cb39125	0.021919796
126	0x3d5deca4	0.054180756
127	0xbd34cebf	-0.04414248
128	0xbd05b918	-0.032647222
129	0xbceedbfa	-0.029157627
130	0xbb9419a2	-0.004519657
131	0xbd07bbaa	-0.033137955
132	0xbd38210e	-0.0449534
133	0x3ca331d5	0.019921223
134	0x3c6705ea	0.014100531
135	0x3c3b4113	0.011429089
136	0x3c8cdf62	0.017196361
137	0x3c32615e	0.010887472
138	0x3ccf613e	0.025314923
139	0xbcf47704	-0.029841907
140	0x3ca98735	0.020694355
141	0xbc6b61e9	-0.014366605
142	0xbbb4d8b0	-0.005518995
143	0x3a8bdacd	0.0010670066
144	0xbd101d5a	-0.03518424
145	0x3d5b76b7	0.053580012
146	0xbc80970b	-0.015697023
147	0xbc5433bc	-0.012951788
148	0xbcdc63ef	-0.02690312
149	0xbd2e5da5	-0.042569775
150	0xbbb9c46b	-0.005669167
151	0xbca20b72	-0.019780848
152	0x3d0653e8	0.032794863
153	0xbd16007f	-0.036621567
154	0xbc067005	-0.0082054185
155	0x3d0a7d31	0.033810798
156	0xbcf38a4e	-0.029729035
157	0x3b43b2bc	0.0029861173
158	0xbd24186f	-0.040062364
159	0xbaec2ae0	-0.0018018149
160	0x3c9156b8	0.017741546
161	0xbccfdd61	-0.025374116
162	0xbce8b961	-0.028408708
163	0xbcd1545b	-0.02555292
164	0x3a3a83ae	0.0007114959
165	0x3b13c71e	0.0022549103
166	0x3d3fb35a	0.046801902
167	0x3b90a85b	0.004414601
168	0xbb49e659	-0.0030807464
169	0xbca1e0f0	-0.019760579
170	0xbd1d42cb	-0.038393777
171	0xbcbe8849	-0.023258345
172	0x3d144569	0.036199007
173	0x3c928ee9	0.01789041
174	0x3cf4a258	0.029862568
175	0xbc9e949a	-0.019357968
176	0xbc8e9e7c	-0.017409556
177	0xbcce8708	-0.025210872
178	0xbc893169	-0.016747193
179	0xbd085e2b	-0.03329293
180	0x3af845d0	0.0018941704
181	0x3bf0aa9f	0.0073445584
182	0xbcd362f8	-0.025804028
183	0x3cc13bfc	0.023588173
184	0x3d190f56	0.03736814
185	0x3d010582	0.031499393
186	0xbd12dac9	-0.03585318
187	0x3cd58183	0.026062733
188	0x3c7996ea	0.015233735
189	0xbc05e15d	-0.008171407
190	0x3cf3121f	0.029671727
191	0xbc830695	-0.01599435
192	0xbd4369e0	-0.047708392
193	0x3cd6f382	0.02623916
194	0x3d8c781a	0.06858845
195	0x3cdd4663	0.027011102
196	0x3c06fcdf	0.008239
197	0x3c9be384	0.019029386
198	0xb906c2d1	-0.0001285181
199	0x3c9a76b9	0.01885544
200	0xbd543103	-0.051804554
201	0xbcd61443	-0.026132708
202	0x3d269606	0.040670417
203	0xbb5e04dc	-0.0033877408
204	0xbc13a1df	-0.009010761
205	0xbb464e58	-0.00302591
206	0xbb67c37b	-0.0035364318
207	0xbce48c04	-0.027898796
208	0x3d3dd0ef	0.046341833
209	0x3c91de41	0.017806174
210	0xbcd58aa1	-0.02606708
211	0x3d127a6c	0.03576128
212	0x3c01a9d5	0.007914026
213	0x3d38887f	0.045052048
214	0x3cf69464	0.030100055
215	0x3cd0e925	0.025501797
216	0x3d35fc6e	0.04443019
217	0xbcc4cc18	-0.0240231
218	0x3d6993e7	0.057025816
219	0xbcd9e6b1	-0.02659926
220	0x3c1bf56b	0.009518961
221	0x3d137b6a	0.03600637
222	0xbd3e6623	-0.046484124
223	0x3cefaa5f	0.029256044
224	0x3d460208	0.04834178
225	0x3c107bd4	0.008818585
226	0xbd204a3b	-0.03913329
227	0x3d76f10d	0.060288478
228	0x3b30f23d	0.0026999854
229	0x3ce499e7	0.027905418
230	0xbcf4ee4d	-0.029898787
231	0xbc7d198c	-0.015447985
232	0x3c5ea043	0.013588014
233	0x3c2c15d5	0.010503252
234	0xbc55224c	-0.013008665
235	0x3c974868	0.018467143
236	0xbcbed728	-0.023295954
237	0xbd0d5215	-0.034502108
238	0x3c9f55ee	0.019450154
239	0xbca6ea96	-0.020375531
240	0x3c1c7ea4	0.009551678
241	0xbd0e9d49	-0.034817968
242	0xbbe2d128	-0.006921906
243	0x3d3793be	0.044818632
244	0xbc93445a	-0.017976929
245	0x3d1d39e6	0.038385294
246	0x3cc5956b	0.0241191
247	0xbd2ee4af	-0.04269856
248	0x3d27d86a	0.040977873
249	0xbc0ecab7	-0.008715323
250	0x3d1ab3bb	0.03776906
251	0x3cbf0908	0.023319736
252	0x3cf3c474	0.029756762
253	0x3bfa84f3	0.0076452433
254	0xbac30853	-0.00148798
255	0xbd54b9a6	-0.05193486

actor.bias f4 [10]
0	0xbcd0623f	-0.025437472
1	0x3ca36264	0.019944377
2	0xbcf180cf	-0.029480366
3	0x3c8ec14c	0.017426156
4	0x3d89ba67	0.067250066
5	0x3c9afbd2	0.018918905
6	0x3d17afc9	0.037032876
7	0xbd39d3e2	-0.045368083
8	0x3d08a032	0.0333559
9	0xbc3eaaf2	-0.011637436

critic.weight f4 [1, 352]
0	0xbd6b641a	-0.05746851
1	0xbd6560ae	-0.056000404
2	0x3d0a1159	0.03370795
3	0x3d300da3	0.042981755
4	0xbbd80156	-0.006591956
5	0xbd7197ef	-0.058982786
6	0x3d50f6d8	0.05101666
7	0xbd8e6233	-0.06952324
8	0xbdb858a9	-0.090012856
9	0xbd9a5c95	-0.0753719
10	0xbd8bbb3c	-0.068228215
11	0x3d420cb3	0.047375392
12	0xbd8e80aa	-0.069581345
13	0xbd41f7b0	-0.047355354
14	0x3d2454d8	0.040119976
15	0xbdba6fe8	-0.09103376
16	0x3d3e3eb2	0.04644651
17	0xbd444ade	-0.04792296
18	0xbbc83bdd	-0.006110652
19	0xbdada4d5	-0.08478705
20	0x3d015b1a	0.03158102
21	0xbd4216fb	-0.047385197
22	0xbdaf31eb	-0.08554443
23	0xbd36cfe0	-0.04463184
24	0xbdb72daa	-0.089442566
25	0x3c392874	0.011301149
26	0xbdb27137	-0.08713
27	0xbd2a70f9	-0.041611645
28	0x3d2f2796	0.04276236
29	0xbcec65af	-0.02885708
30	0xbd8facb7	-0.070153646
31	0xbd45c9a3	-0.048288
32	0x3cc322ad	0.023820246
33	0xbd521055	-0.051285107
34	0x3c82864b	0.015933177
35	0xbd77e318	-0.060519308
36	0x3cf35be7	0.029706908
37	0x3d257911	0.04039866
38	0x3ca0bc5e	0.01962107
39	0xba81b4ed	-0.0009895839
40	0x3d26cf1b	0.040724855
41	0x3c5cd4b7	0.01347845
42	0x3d03154b	0.03200273
43	0x3cb0bbaf	0.02157387
44	0xbd3d23d8	-0.04617676
45	0x3d46c76c	0.048530027
46	0xbd940b4a	-0.07228716
47	0xbd4df838	-0.050285548
48	0xbda9c3f1	-0.08289326
49	0x3d5c8e67	0.053846743
50	0xbd931bc5	-0.07183031
51	0xbd99d410	-0.07511151
52	0xbd552b9c	-0.052043542
53	0x3d0ae734	0.0339119
54	0x3d5c3875	0.05376478
55	0x3d652906	0.055947326
56	0xbdaf4ebb	-0.085599385
57	0xbd2dd4bc	-0.042439207
58	0x3d273919	0.040825937
59	0x3d231f9b	0.039825063
60	0x3bbbebee	0.005734912
61	0xbda656b7	-0.08122008
62	0xbd81f007	-0.0634461
63	0xbdbab765	-0.09117011
64	0x3cd5e2e7	0.026109172
65	0x3cb2604a	0.02177443
66	0xbda290b1	-0.07937754
67	0x3d811ec0	0.06304693
68	0xbcbf19c2	-0.023327712
69	0x3d870fd4	0.06594816
70	0xbceab466	-0.028650474
71	0xbda4038f	-0.08008491
72	0xbd88923a	-0.066685155
73	0xbd5b6fab	-0.05357329
74	0x3d2be299	0.041964147
75	0x3c66be83	0.0140835075
76	0xbd73397b	-0.05938099
77	0x3c13b3ef	0.0090150675
78	0x3ccb0fcc	0.024787806
79	0xbd401a45	-0.046900053
80	0x3cbd1452	0.023080979
81	0x3cfd7f4c	0.030944489
82	0xbd690c80	-0.056896687
83	0x3d8af95b	0.06785842
84	0x3bf56443	0.007488759
85	0x3c8d889a	0.01727705
86	0x3d07d172	0.033158727
87	0xbdab4ca4	-0.083642274
88	0xbdc45277	-0.095860414
89	0xbd9200d7	-0.071290664
90	0xbd957abb	-0.072987996
91	0x3da7b65f	0.081890814
92	0xbd5d04d6	-0.05395969
93	0x3d53ea98	0.051737398
94	0x3cd0ddb6	0.025496345
95	0x3d780f0a	0.060561217
96	0x3da2aa73	0.07942667
97	0x3c6f3896	0.0146008935
98	0xbd6c6d8d	-0.057721663
99	0x3d7444dc	0.059635982
100	0xbccfdd2a	-0.025374014
101	0xbd78a627	-0.06070533
102	0xbda13d96	-0.07873075
103	0x3d05dd8c	0.032681987
104	0xbd8cfc09	-0.068840094
105	0xbdaac9c4	-0.08339265
106	0xbd8d26ce	-0.06892167
107	0x3d159a50	0.036524117
108	0xbd24664f	-0.04013663
109	0xbdb415d4	-0.08793226
110	0x3c8ab35d	0.01693123
111	0xbdb07dda	-0.08617754
112	0xbdbc4f77	-0.09194844
113	0x3d07e38f	0.033176
114	0x3c635455	0.013875087
115	0x3d9d2ac6	0.07674174
116	0xbd1ef82a	-0.038810886
117	0x3d53e80c	0.05173497
118	0x3d790468	0.060795218
119	0xbd280414	-0.041019514
120	0xbd4fb4a4	-0.05070938
121	0x3d3f5bf5	0.046718556
122	0x3d07efb1	0.033187572
123	0xbd3c4e5d	-0.04597317
124	0xbd0754d6	-0.03303989
125	0x3d153af1	0.036433164
126	0xbcd152fe	-0.02555227
127	0xbd8925f4	-0.06696692
128	0x3d723065	0.059128184
129	0xbda2bd4e	-0.07946263
130	0x3d2d73db	0.042346817
131	0xbd55f08c	-0.052231357
132	0x3d3370db	0.0438088
133	0x3d1d3a77	0.038385835
134	0xbd55aded	-0.05216782
135	0xbda197a6	-0.07890253
136	0xbd17b9fc	-0.037042603
137	0xbda02c61	-0.078209646
138	0xbd73ea77	-0.059549775
139	0xbd0dfa6a	-0.03466264
140	0xbd8c0ce9	-0.068384
141	0x3d5cfa16	0.053949438
142	0xbd48984d	-0.04897337
143	0xbd80a36c	-0.0628117
144	0xbd21bf19	-0.039488886
145	0xbdafde0a	-0.085872725
146	0x3dac21e3	0.08404901
147	0x3cd13745	0.02553905
148	0xbda71d9e	-0.08159946
149	0x3d2697d7	0.04067215
150	0xbdb6bab0	-0.089223266
151	0xbd8b27c2	-0.067946926
152	0x3d4b1547	0.04958084
153	0xbceea694	-0.029132165
154	0xbd6a34c3	-0.057179224
155	0xbdb5fdef	-0.088863246
156	0x3b872967	0.0041248086
157	0xbd84cbf3	-0.06484213
158	0xbd0856b4	-0.03328581
159	0x3ccdcda0	0.025122464
160	0xbcac99a7	-0.02106936
161	0x3d623b3d	0.055232275
162	0x3d793847	0.060844686
163	0x3bd5793f	0.006514698
164	0x3ce7a377	0.028276188
165	0xbd9701e8	-0.073734105
166	0xbd7b4068	-0.06134072
167	0xbd331f97	-0.0437313
168	0xbd531e21	-0.051542405
169	0xbd5180da	-0.051148273
170	0x3d7eb0de	0.062180392
171	0xbd5757e2	-0.052574046
172	0x3d08788c	0.033318087
173	0xbd42354b	-0.047414105
174	0x3cbb8759	0.022891687
175	0xbdb03e8c	-0.0860568
176	0x3d364ab2	0.04450483
177	0xbc4d9f42	-0.012550177
178	0xbd43ae3d	-0.04777359
179	0xbd3eef9a	-0.04661522
180	0xbd614531	-0.054997627
181	0xbd870806	-0.06593327
182	0xbd4f4b0a	-0.050608672
183	0xbd24b656	-0.04021295
184	0xbd274e24	-0.040846005
185	0x3d39ad49	0.045331273
186	0x3d911b20	0.07085252
187	0xbda4a37f	-0.08038997
188	0x3d69dada	0.05709348
189	0xbd8c8746	-0.06861739
190	0xbd517ac9	-0.051142488
191	0xbdbcc477	-0.0921716
192	0x3cf6ce2a	0.030127604
193	0xbd7e7bfd	-0.062129963
194	0x3d8831b9	0.06650109
195	0x3ccb4aef	0.024816005
196	0xbd15f6ad	-0.0366122
197	0xbd78e023	-0.06076063
198	0x3cca4624	0.024691649
199	0xbbc492c9	-0.0059989435
200	0x3c2a1064	0.010379884
201	0x3d40f74c	0.04711084
202	0xbd62c446	-0.055362962
203	0x3d0b145e	0.03395497
204	0xbdce5ecb	-0.10076674
205	0x3d6ba47f	0.057529923
206	0xbda42915	-0.08015648
207	0xbd84ad50	-0.06478369
208	0xbd98b5dc	-0.07456562
209	0xbc8790ce	-0.01654854
210	0xbda0b367	-0.07846718
211	0x3ca70d85	0.020392189
212	0x3ce8d19c	0.028420262
213	0xbda90b24	-0.08254078
214	0x3d1c0c45	0.03809764
215	0x3d13305e	0.0359348
216	0xbd206a91	-0.03916413
217	0xbcfeddcb	-0.031111619
218	0xbd3f1fec	-0.046661302
219	0xbd93709e	-0.071992144
220	0x3d8a5f62	0.06756474
221	0x3d7c4127	0.06158557
222	0x3da0a621	0.078441866
223	0x3d17a8f1	0.03702635
224	0xbad9d3b5	-0.001661888
225	0xbd8455f6	-0.06461708
226	0x3dbf1b88	0.09331423
227	0x3d64345f	0.055714007
228	0x3d4cff53	0.050048184
229	0x3d71aeb1	0.05900449
230	0x3c859812	0.016307864
231	0xbd0d47e6	-0.034492396
232	0xb9ca4b7c	-0.00038584683
233	0xbd9d2e2c	-0.07674822
234	0x3ce80fa5	0.028327772
235	0x3d0db8c4	0.034600034
236	0x3957b77b	0.0002057235
237	0xbd5f771b	-0.054556947
238	0xbdaf04c2	-0.08545829
239	0xbd4f1676	-0.05055853
240	0xbd678ac9	-0.05652884
241	0xbd878ad5	-0.06618277
242	0x3d13b176	0.03605791
243	0x3cf150cd	0.029457474
244	0x3d5af2a3	0.053454053
245	0xbd6726e9	-0.056433592
246	0xbd6dde05	-0.058073062
247	0xbd6dcd81	-0.058057312
248	0xbda4d848	-0.08049065
249	0xbd420514	-0.047368124
250	0x3bcd8459	0.0062718806
251	0x3d664942	0.056222208
252	0x3ce44806	0.027866375
253	0x3c130ed4	0.008975703
254	0x3d9549c3	0.072894596
255	0xbd593217	-0.053026285
