carlike_gym/model_140.pth (torch, 526994 bytes, 11 tensors)

features_extractor.conv1.weight f4 [16, 4, 4]
00000000: b434 fcbd bac8 3c3e c479 9d3d c0f9 b6bc
00000010: 7450 7d3e b07d cebd 28d1 143e 5880 a03d
00000020: 68ef 73be 3c9a 72be dc3c 60be d8b0 043d
00000030: bc7c 6bbe 805c 483c 6c78 70be 5866 0c3d
00000040: 71b1 8a3e f19f 523e bd60 553e 7222 773d
00000050: 04a1 4fbe 5b84 e3bd 1ab1 713e d63c 22be
00000060: 4fcc 4cbd 00f3 15be b93e e53d 19f3 053e
00000070: 2776 e7bc c21f cfbc bdb2 e43d a00d 03bd
00000080: e605 b6bd f58a 303e 7d2d 49bd c489 d1bd
00000090: 6bb5 4d3e e94d f13d eac6 2ebe 0229 a53c
000000a0: cb3f 25bd e5f8 ecbd 151b 7b3e 7d93 52bd
000000b0: 9dd3 753e b8cd 573e 8ff9 d8bd f754 e43b
000000c0: bce3 f83d 1d91 453e 2f5b 9f3c 6e7b 5fbd
000000d0: ca27 03be 9fec 00be d3b2 54be 86a7 1cbc
000000e0: bed4 ce3d 799c 31bd 4516 b2bd 5553 23be
000000f0: 3e39 7a3e d81e c3bd bb49 813d b367 f6bc
00000100: 665a 7c3e 669a 0c3e 6d79 e73b fa0e 8d3d
00000110: b281 4fbd 29d1 e23c 9ee5 67bd 75e9 453d
00000120: 779f 57be 5a9e 113e 2e32 64bd fa5c 603e
00000130: 479d d23d 4294 60be f596 4b3e bc1e 9c3d
00000140: a9a0 85be 6660 9c3b 5dbd f7bd c147 003e
00000150: d91a 133e 909a 313e 5b84 163e a08c ca3d
00000160: d594 213d 6e82 22be de04 413e 197e 753e
00000170: ff95 3fbe d4f3 383e 79d9 7abc 2539 1d3e
00000180: 6431 6d3e 7a03 593e 7924 9a3e 9a66 f3bd
00000190: 24d7 6f3e 25e2 353e b123 943d 9738 73be
000001a0: f67c 52be e934 35be 63e6 733d f7e5 313e
000001b0: fca9 313c 5625 753e 7dc9 18be 97b0 473e
000001c0: 69db 30be 1253 2b3e 302b 053e d5d6 043d
000001d0: 84fc e5bd d8fe 463c 1965 72bc 905f f23d
000001e0: 9dda 073e a6bc 343e 9444 e3bd 48b2 f5bc
000001f0: 8b06 5bbe 90a8 3b3e 8bec 42be 5226 ca3d
00000200: 92f2 4b3d 2cfb 653d 6ee6 81be 4b6e fabd
00000210: 2fee 3dbe e928 843d e71a 803e 1314 33be
00000220: 2184 25be 2ddf 8f3e 9d36 a0bb c9c0 30be
00000230: d3b7 433e c165 2cbd be22 0b3e eb6b 183d
00000240: 6b85 513e 216e 093d 3934 67be 9351 4fbe
00000250: 4c32 113e bac3 e73c 1a0b cc3d 62a3 353e
00000260: cc78 34be 3679 cebc 707f bd3d 9a45 aebd
00000270: 66f8 9bbc 68e1 b9bd a84c d2bc 0c53 893e
00000280: dad6 0fbc 4999 04bc 20cb 35be c735 33be
00000290: c03f 8e3e 6422 0bbe 2e8a 26be 23be e8bd
000002a0: a5ee 8dbd f244 5d3d 619c 593d 06f2 733e
000002b0: 68e5 0c3d 65ed 813d 439f 1f3e f71f b2bd
000002c0: 7437 563e 916e 893e ced7 44bd 9268 aabd
000002d0: f071 ea3c 6986 19be 3b1b d43d d4ed 4a3e
000002e0: eb7d 103e f103 67bd f06b 1bbe 8874 2fbe
000002f0: 4b5e 6bbe eb8b 373e b14c 9dbd d616 4c3e
00000300: 5908 cd3d b2d4 753e 74c2 323e dbcb 363e
00000310: 378f 1e3e d6da 293d 01ce a8bd 9819 74bc
00000320: 9cb1 11be dc17 8f3d 1b91 b73d a978 e83c
00000330: c872 053d cd25 2dbe f2a8 24be 3fdf 0ebe
00000340: d35f 41be 80f2 293e eb76 dd3d ca86 5f3e
00000350: 8770 6abe 729b c73c 095a 373e c9ff 1d3e
00000360: 1981 13be 023d 26bd 0a38 b4bd 97b5 3abe
00000370: 8029 fdbc f557 a23d d1c3 2a3e ab4b 143e
00000380: 7197 d53a 46ef 073e 55fd 7cbc aeb9 06bd
00000390: 04d6 7fbd 19b3 9d3d 45c0 3c3c fbbb 71be
000003a0: 4d1f bcbd b534 033c 4ab4 1dbe 628e 933d
000003b0: 1761 993d d6ed 5e3e 8eb9 d83d e5ce 013e
000003c0: b05b 64bd 107d ec3c f49b 73be dabe 77be
000003d0: 40af 05be 08a2 8ebd 9841 9f3d e2d8 57be
000003e0: 4800 af3d f844 09be 40b8 42bd c081 46be
000003f0: 9ed1 203e 30f6 c8bc 0e4c 6ebe 7897 763e
-0.1231474 0.18435946 0.076892406 -0.022335887 0.24737722 -0.10082567 0.14532912 0.0783698
-0.23821795 -0.23691648 -0.21898216 0.032395214 -0.22996801 0.012229085 -0.23483437 0.03427729
0.27088502 0.20568825 0.20837684 0.060335584 -0.20276266 -0.11109229 0.23602715 -0.1584352
-0.04999953 -0.14643478 0.11193604 0.13081016 -0.028254582 -0.025283698 0.11166904 -0.031995416
-0.08887844 0.17240508 -0.049115647 -0.10231355 0.20088737 0.11782438 -0.17068067 0.020161156
-0.04034404 -0.1157091 0.2452205 -0.051410187 0.24006505 0.21074569 -0.105944745 0.0069681364
0.12152812 0.19293638 0.01945266 -0.05456107 -0.12808147 -0.12590264 -0.20771341 -0.009561425
0.10099171 -0.043362115 -0.08695654 -0.15949757 0.24435899 -0.09527367 0.06312891 -0.030078745
0.2464386 0.13730773 0.0070640356 0.06887622 -0.050660796 0.027687626 -0.056615464 0.048318345
-0.21056925 0.14220563 -0.055711918 0.21910468 0.102839045 -0.21931556 0.19881804 0.076230496
-0.26099136 0.004772234 -0.12096665 0.12527372 0.1436571 0.17344117 0.14698927 0.09890103
0.039448578 -0.15870067 0.18849513 0.23973884 -0.18709563 0.18061763 -0.015310639 0.1535383
0.23163372 0.21192732 0.3010595 -0.11884804 0.23421913 0.17762049 0.0723337 -0.23752056
-0.20555481 -0.17695965 0.059545886 0.17372881 0.01084375 0.23940024 -0.14920612 0.19500957
-0.17271198 0.16730908 0.13004756 0.032431442 -0.11229804 0.01214572 -0.014794611 0.11834633
0.13266988 0.17650089 -0.110970646 -0.029992238 -0.21389215 0.1832602 -0.19035546 0.0987059
0.04979188 0.05614774 -0.25371116 -0.12228068 -0.18547891 0.064531155 0.25020525 -0.17488126
-0.16163684 0.28099957 -0.004889323 -0.17261042 0.19113092 -0.042089228 0.13587472 0.037212294
0.20461051 0.033552293 -0.22578515 -0.20245962 0.14179343 0.028291572 0.09963055 0.17738107
-0.17624205 -0.025204282 0.092528224 -0.08509369 -0.019039344 -0.09076196 -0.025671318 0.26821172
-0.008779252 -0.008093187 -0.17753267 -0.17500983 0.27783012 -0.13587338 -0.16263649 -0.11364391
-0.069302835 0.05402083 0.05312765 0.23822793 0.034398466 0.063441075 0.15588097 -0.08697503
0.20919591 0.26842168 -0.04805737 -0.083207265 0.028618783 -0.1499268 0.10356756 0.19817287
0.14110534 -0.056400243 -0.15177894 -0.17134297 -0.22985189 0.17924468 -0.07680643 0.19930586
0.10011358 0.24006918 0.1745699 0.17851202 0.1548432 0.041468464 -0.08242417 -0.01489868
-0.14227909 0.06986973 0.089632235 0.028377848 0.032580167 -0.16908951 -0.16080073 -0.13952349
-0.1888421 0.16596413 0.108136974 0.21828762 -0.22894488 0.024366114 0.1790544 0.15429606
-0.14404716 -0.040585525 -0.08799751 -0.18233334 -0.030903578 0.07926933 0.1667626 0.1448199
0.0016295743 0.1327487 -0.015441258 -0.03289192 -0.06245996 0.07700176 0.01152045 -0.23606865
-0.09185658 0.008008172 -0.15400806 0.07204892 0.074892215 0.21770415 0.10582267 0.1267658
-0.055751503 0.028868228 -0.2378996 -0.24193898 -0.13055134 -0.06964499 0.07776183 -0.21078828
0.085449755 -0.13405216 -0.047538996 -0.19385433 0.15704963 -0.024531454 -0.232712 0.24081218

features_extractor.conv1.bias f4 [16]
00000000: 52ba 1bbe 941d d8bd 9d62 2ebe f9f7 8c3e
00000010: 6811 0e3e aa61 81bd 6509 d93a 79a8 ddbd
00000020: 49bb 4a3e 9bfd 25be 37fc 7d3e 2b66 babd
00000030: 0cc6 a4bd ff48 45be a37c dfbd 40ab e9bc
-0.15207794 -0.105525166 -0.17029805 0.27532938 0.13873827 -0.06317456 0.0016558586 -0.10823149
0.19798006 -0.16210024 0.24803244 -0.09101518 -0.08045587 -0.19266127 -0.109124444 -0.028524041

features_extractor.conv2.weight f4 [32, 16, 4]
00000000: 60d8 5e3c 20c9 73bc 9045 7a3d b47e 713d
00000010: 1924 2d3e 7ac8 373d 7a53 1ebd 58df 363e
00000020: 273a 9e3d d6a3 08bd f98e aabd ce4c 043d
00000030: 5970 bb3d be67 ba3d ea7d 2d3e 37f3 0e3e
00000040: eda7 52bb 8fcd aebd c7e4 103e 3cf6 353c
00000050: 7327 eab9 4070 8dbd 720a d73c 5971 efbd
00000060: 3289 b5bc 9501 273d 5a75 363c 5485 8dbc
00000070: a398 2bbc 0bcd 4ebb 49b6 0c3e c17a 14bd
00000080: 0f17 ebbd 21fd f5bc 23f6 423d a09c 7dbd
00000090: 02ca 59be ec82 16be 7402 e1bd b90f 0bbe
000000a0: a36f 1d3b 7f05 e0bd be13 79bd b0a4 973c
000000b0: 0965 f73d 9ac8 bdbb 850c 8b3d 960c 3f3c
000000c0: 406d 253e 2ec3 0f3e 02a1 b33c 94cd 043e
000000d0: ca79 41bd 9cba c6bc f698 1c3e 0472 84bd
000000e0: a903 f0ba e964 133d a322 f13d 841c 413b
000000f0: e479 7f3d 98e6 8fbc b445 91bd 40ca a5bd
00000100: 80c0 e43a 04ca 283d 6646 ff3d 74a3 02bd
00000110: 7311 c3bc 99ac de3d c4e5 223e 2574 803d
00000120: 701d d13d f85c e3bd 383e 06bd 1481 d8bd
00000130: 71c7 bf3d 0009 ad3d e0ec 5b3d d478 863d
00000140: c95e 30bd d2f2 b33d 8824 ed3d 985e 1ebd
00000150: dd21 39bd 4b65 84bd 1170 0b3d 1458 3abd
00000160: 4a0d c23c 7a58 ab3d bb0c c83d 7c63 b23d
00000170: 86b7 9dbc d30a 0f3e b866 5f3d d838 a2bd
00000180: 8406 57bd 3005 3dbe afa8 d7bd f032 e9bc
00000190: a940 e4bd 8c11 28be 9054 6ebd 7ce3 52be
000001a0: 7e31 2cbd ddfb 7cbd 10f1 ffbd cbf8 3dbc
000001b0: ca95 173e 7032 043e 80e9 b13c c030 f8bc
000001c0: fdd0 333e 5925 413e 7676 9e3d 3856 7c3d
000001d0: a46f 58bc 7b4b 053e a242 e23c d541 0f3d
000001e0: eedf f93d 3d7f 393d 7e32 2ebd 5800 903d
000001f0: 52bd 833d aeff fe3d 4e6c bdbd 8836 61bd
00000200: d890 8e3d b606 d3bd f4f6 51bd be2b f5bd
00000210: 10ab 053d 9045 0f3c 802e ee3b 4026 de3b
00000220: 4088 673d c060 58bc 46fe 93bd 5e33 bbbd
00000230: 00ca e439 e426 1abd fecc 923d 2083 be3c
00000240: d028 bebc 3492 0fbd 10e7 65bd 4cb3 6fbd
00000250: d814 be3d 789e e9bc 205a 25bc 6e8e 883d
00000260: 765d 893d 3c30 edbd a2aa c8bd 80ee a33a
00000270: 6041 2f3d feaf 813d 9e18 afbd 0474 50bd
00000280: 2063 8cbc 38ff da3c 2002 bdbd 4e30 91bd
00000290: 8061 013b a8e4 c63c 5861 e9bd 142f c33d
000002a0: 14c8 79bd 62ee b13d 760c b53d 787e c4bd
000002b0: 44ce 28bd f446 213d dae7 d0bd 10fe e5bd
000002c0: e4fa 26bd f8b4 5d3d c4c3 6ebd b662 95bd
000002d0: 28d6 efbc 08e1 753d 40ff 243d 98e2 18bd
000002e0: 1649 e83d 38a1 aa3c 5872 81bc 260f 90bd
000002f0: f0ac e0bd 4a5c 97bd 58b0 46bd c896 56bd
00000300: 8069 8e3a f81a 473d f672 fabd ace0 e23d
00000310: 81f9 ac3d abd9 fb3d 9a83 b63c ba99 0cbd
00000320: 4b0a f73b 35ec ec3d 0244 41ba 8c6e 063d
00000330: 9acc cb3d 46df ed3d 4dd0 0a3e 43fc 3a3e
00000340: 490c a43c 11b6 413d f810 23bc 9cd2 c9bc
00000350: 07e3 73bc c4ba acbd 3b97 40bd 47ab b1bd
00000360: f782 223d bb7b 5a3d 0c3f ad3d b931 503c
00000370: 2130 863d dd49 f03d 20b5 1ebd 6f8c 8dbd
00000380: 9dc3 a53c 86d5 d03d 9894 75bc d92c 323d
00000390: fd85 3cbe ea53 9abd 6728 7a3d 6bb4 98bd
000003a0: e7dd 00be d46c 1dbe 6312 0fbe 94a2 ccbb
000003b0: cbf0 8d3d 0724 533d 1eda 473e adc4 973d
000003c0: e993 7c3e ec56 ff3c a1cb 413d dab8 623d
000003d0: 1d52 e53d 2caf 1dbd 9e4a 84bd f011 9b3d
000003e0: 09e3 0e3e c649 03bd a907 2c3d 481e bcbd
000003f0: 348f 723d 603c 2c3d ec5a cdbd cec1 e1bd
0.0136013925 -0.014879495 0.061101496 0.058958724 0.16908301 0.044868924 -0.03865383 0.17858636
0.077259354 -0.03335937 -0.08328051 0.03229981 0.09152288 0.091018185 0.16942564 0.13959967
-0.0032143549 -0.08535301 0.14149772 0.01110607 -0.0004466135 -0.069061756 0.026250098 -0.11691541
-0.022160146 0.040772993 0.011136377 -0.01727549 -0.010473403 -0.003155532 0.13741411 -0.03624988
-0.114790075 -0.030027928 0.047598016 -0.061916947 -0.21268466 -0.1469838 -0.10986796 -0.13580216
0.002402284 -0.10938548 -0.060809843 0.018511146 0.12079818 -0.005791736 0.06789497 0.011660716
0.16154957 0.14039299 0.02192736 0.12969047 -0.047235288 -0.024258904 0.15292725 -0.06467059
-0.0018311638 0.035984907 0.117741846 0.002946646 0.062372103 -0.01756601 -0.07093373 -0.08095217
0.0017452389 0.041208282 0.12464599 -0.031894162 -0.023812031 0.10872764 0.15907961 0.06272153
0.10210693 -0.11101717 -0.03277418 -0.10571495 0.09364212 0.08448982 0.0536927 0.06566015
-0.043059144 0.08786549 0.115792334 -0.03866443 -0.04519831 -0.064646326 0.03404242 -0.045494154
0.023687977 0.08366485 0.09768053 0.087103814 -0.01925255 0.13968973 0.05454132 -0.07920998
-0.05249645 -0.1845901 -0.10530221 -0.028466672 -0.111451454 -0.16412944 -0.058186114 -0.20594591
-0.042039387 -0.061763633 -0.12497151 -0.011594961 0.14803234 0.12909865 0.021717787 -0.030296683
0.17560191 0.18861903 0.077374384 0.061605662 -0.013210211 0.13017075 0.027619664 0.03497489
0.12200914 0.04528736 -0.04252862 0.070313156 0.06432594 0.12451111 -0.09249173 -0.054983646
0.069612205 -0.103040144 -0.051260903 -0.11971234 0.03263384 0.008744612 0.007268727 0.006779462
0.056526423 -0.013206661 -0.07226233 -0.09140657 0.0004363805 -0.037634745 0.071680054 0.023255885
-0.02321282 -0.03505154 -0.05612856 -0.0585206 0.092813194 -0.028517947 -0.010092288 0.06667791
0.067072794 -0.115814656 -0.097981706 0.0012506992 0.042786956 0.06332396 -0.08549617 -0.05089189
-0.01713711 0.026733026 -0.09228921 -0.070892915 0.0019741952 0.024278954 -0.1139552 0.09530464
-0.060981825 0.08688046 0.08840267 -0.095944345 -0.041212335 0.039374307 -0.10200472 -0.11230099
-0.04076661 0.054127663 -0.058292165 -0.07294218 -0.029276922 0.06002906 0.040282488 -0.03732547
0.11342065 0.020828828 -0.015801594 -0.07034139 -0.10970485 -0.073906496 -0.04850802 -0.05238989
0.0010865182 0.048609704 -0.12228958 0.11078009 0.084460266 0.12297376 0.02227955 -0.034326293
0.007539069 0.115684904 -0.00073724997 0.03282027 0.09951134 0.11614852 0.13556023 0.18260293
0.02002539 0.047292773 -0.009952776 -0.02463656 -0.0148856705 -0.0843406 -0.047019225 -0.08675247
0.03967568 0.053340655 0.08459291 0.012707167 0.065521486 0.11732838 -0.038746953 -0.06911551
0.020234877 0.10196976 -0.014989041 0.0434998 -0.18410487 -0.075355366 0.061073687 -0.07456287
-0.12584649 -0.15373546 -0.13971858 -0.0062449668 0.06930693 0.05154803 0.19516799 0.0741056
0.24665798 0.031169377 0.047313336 0.05535207 0.111973025 -0.038497135 -0.064595446 0.07571781
0.13953795 -0.032052778 0.041999493 -0.09185463 0.0592186 0.042049766 -0.100271076 -0.110232934

features_extractor.conv2.bias f4 [32]
00000000: 09d0 a1bc 1e8f 8c3d 9414 d1bd 10b4 5bbc
00000010: 4aec edbd f876 883c ba28 aa3d 72f8 1fbc
00000020: 04f7 8bbd 6cb8 4f3d c8f4 01bc 69bd 22bd
00000030: 74c0 ab3d 4104 acbb d4d3 2f3e e065 ec3b
00000040: eb8f 00be 067a 993b ed23 42bc 0f7f c2bd
00000050: b09c 18bd 2bed 703d 754e 003d 008a f2bc
00000060: ae59 d63d 740b 983d 906b c33a 14cf c0bd
00000070: 2a54 84bd 9a26 eabd 51d6 debd 63c3 b1bd
-0.01975252 0.06863235 -0.10209003 -0.013409629 -0.11617334 0.016658291 0.08308549 -0.009763824
-0.06834224 0.050712988 -0.007931896 -0.039731417 0.08386317 -0.0052495305 0.1717065 0.007214293
-0.125549 0.004683736 -0.011849386 -0.09496891 -0.037258804 0.05881993 0.031324822 -0.02960682
0.10466324 0.074240595 0.0014909375 -0.09414497 -0.064613655 -0.11433144 -0.10880721 -0.08679845

features_extractor.fc_op.weight f4 [32, 3]
00000000: 9462 0c3f c1a6 b1be bde7 343e 91b7 f1be
00000010: bbb2 bbbe 9b34 063f 4f18 853d c5ee 553c
00000020: 7bc6 e33e f464 143f 644e 1fbd 7242 013f
00000030: 9fd3 10bf ac06 ad3d c524 983e a8e6 a5be
00000040: 21a4 903d 742c 693e 0068 70be ad1d f7bd
00000050: bbcf f43e 0681 033f 033c 40bd 71a7 dfbe
00000060: c920 e73c 6953 b1be 88f6 29bd ae64 0b3f
00000070: e464 8b3e 723f 79be 17b6 0ebf a865 de3b
00000080: 28dc 0dbf 0d0f 033d 60f7 0ebe 9916 ba3e
00000090: 13b6 bd3e ed60 8cbe 45e6 8f3d 54f2 abbe
000000a0: 52d0 8ebe dc03 06bf 948b d23e 2364 36be
000000b0: 8e48 41be e23b 59be 1db8 f23c 47d2 ff3e
000000c0: 9f2f f0be 2e68 76be 2200 333e ae9f 01bf
000000d0: b3e5 a43c bc66 57be 10c4 0ebf ea9c 93be
000000e0: 61b5 093f 0890 673d 33c4 febe 4992 a3be
000000f0: 8eb6 4abe 17de febe c7d6 973d dfcc e4be
00000100: 9216 08bd 0abe 743e 6326 403e 018e 0b3e
00000110: 1c07 ddbc 07ae e43e 9ab0 f33e d44c 003e
00000120: aa79 01bd ce65 b03e 946f 4ebb 6755 8e3e
00000130: e2f9 4a3e 70c9 49be 3cc0 3dbe 4594 503e
00000140: b03c 95be 2fa5 d23e 0e8e 03bf 7ddb 6cbc
00000150: d309 e83d 622c 1f3e 99b3 91be 7343 8d3e
00000160: 7c65 99be 3dc5 84be 4bb0 093f 507f a63e
00000170: ec0b a7bd 3864 60be 79cf fabe b14d 883e
0.5483792 -0.34697536 0.17666526 -0.47210363 -0.36659798 0.5242402 0.06498777 0.013057415
0.44487366 0.5796654 -0.03889312 0.5049201 -0.5657291 0.08448538 0.29715553 -0.3240254
0.07062555 0.22770864 -0.23477173 -0.12066207 0.47814736 0.5136875 -0.04693223 -0.43682435
0.028213875 -0.3463395 -0.041494876 0.544505 0.2722541 -0.24340609 -0.557466 0.0067870207
-0.55414057 0.031996775 -0.13961554 0.36345366 0.37052974 -0.27417699 0.07026342 -0.3358332
-0.2789331 -0.5234964 0.41122115 -0.17811637 -0.18875334 -0.2121425 0.029628808 0.49965116
-0.46911332 -0.24063179 0.1748052 -0.50634277 0.02012906 -0.21035284 -0.5576792 -0.28830653
0.5379239 0.056533843 -0.49759063 -0.31947544 -0.19796202 -0.49778816 0.074140124 -0.44687554
-0.03322465 0.23900619 0.18764643 0.13628389 -0.02698093 0.44664022 0.47595674 0.12529308
-0.03161017 0.3445267 -0.0031499611 0.27799532 0.19821885 -0.19705749 -0.18530363 0.2036906
-0.29147863 0.4114165 -0.51388633 -0.014456627 0.11329999 0.15544274 -0.28457335 0.27590522
-0.2996024 -0.2593173 0.53784627 0.32519007 -0.08156571 -0.2191323 -0.48986414 0.26621774

features_extractor.fc_op.bias f4 [32]
00000000: 3a3c 3c3e 0481 73be fb99 ebbc 94a8 a3be
00000010: f494 13bf abb4 d3be 4550 c63c 5558 b33e
00000020: 6e2b 6f3e 15d3 d53e e3c9 afbd 63fb c1bd
00000030: eb62 7f3e 813b f63d 5275 413e e4bb f5be
00000040: 511f 773c 4d44 d0bd cae0 a43e 49ee 17be
00000050: ca7c 983e 1a7c d13e a2cc 2cbe cfa9 f7be
00000060: e71f 43bd ff10 98be 514a 9fbe 1cea e6be
00000070: b459 e1be 0b09 2c3e f8f7 acbe 886e a3be
0.1838235 -0.23779684 -0.028759947 -0.31964552 -0.5764916 -0.41348776 0.024208197 0.3502833
0.23356411 0.41762605 -0.08583429 -0.09471776 0.24940078 0.12023068 0.1889241 -0.47994912
0.01508315 -0.10169277 0.3220275 -0.14836992 0.29782706 0.40914994 -0.16874936 -0.4837174
-0.047637846 -0.29700467 -0.31111386 -0.45100486 -0.4401375 0.16800325 -0.33782935 -0.31920266

features_extractor.fc_merge.weight f4 [352, 352]
00000000: 817b 233c 93f1 9dbc c22c 6b3d efa0 883d
00000010: f308 cc3d 2903 c13d 7711 753d 03f8 6f3d
00000020: 12d4 8b3d bbee d0bc 29ad c83c 07d8 d0bc
00000030: e6fe d23c 5167 87bc 097a a83d e622 0d3d
00000040: 35f0 af3d c998 7b3c 5cce 84bc 8245 833d
00000050: 7361 42bd 3015 afbc f404 dd3c 7fcb cb3b
00000060: bc39 3cbc 5219 8dba d820 f3bc 03b2 4c3d
00000070: c2ea 10bd 94d2 0fbd bb0b 1dbd 1155 203c
00000080: 6eaf 823c df11 25bc ea93 06bc c1c3 ba3d
00000090: c99d 723d ee46 b63c 062e 8b3d 51cd db3b
000000a0: 54ac eabc fa40 193d 90b9 883b ef19 823d
000000b0: 9474 c53d d819 ae3d 14d7 c63c d99d 0d3d
000000c0: a1e8 783c 1e40 16bd c5c0 fb3c 2165 21bc
000000d0: 31e8 8d3d 0492 7d3d 0aae 1f3d 5f42 a23d
000000e0: 8779 2d3c 5c3e 8d3c 133b fc3c 11d0 27bd
000000f0: f748 9d3d 47ea 46bc b38f bcba b69e 9bbd
00000100: 6a33 85bc 168a b7bd f220 86bd 5916 bbbd
00000110: 8b6d bbbb 7ff6 913b 29f1 2cbd 40b1 643c
00000120: 2f40 8f3c 122a 893d 1791 a33d 8b80 253d
00000130: d0e6 803d 599d 083d 884f bc3d 6bae 703d
00000140: 63a5 f03c c469 423c 58b4 a73a 087c ae3d
00000150: a796 2b3d 1867 4b3d 458c 5d3d 81c5 803c
00000160: 7416 0f3b 25ff c03c c1bb 0ebc 3db4 d33c
00000170: 4004 fa3c 9c3b 1e3d 5329 2f3d 977a 9c3d
00000180: ac7c 9c3d 3154 433d 3e48 233d 5d58 a2bc
00000190: 175c 2abc 103e 7cbd a872 97bc 1e4a 81bd
000001a0: 8901 dabd c6f6 9bbd 31de a2bd 2bc0 01be
000001b0: a39c 78bd 524c 3abd 95b0 29bd a70b 23bd
000001c0: f086 67bc 9e82 ac3d 5c23 253d 8b11 9e3c
000001d0: 0003 953d de97 233d f6ca 323d c2b6 a93b
000001e0: a0c1 21bd ab2a 02bd 030e c93c 2ebb 753c
000001f0: 4c54 213d a077 2c3b 98ad b43b 6d3b cdbb
00000200: d5a3 6a3d 415e 4abb 232e 0a3b 7a72 b13c
00000210: 0701 663c fc37 733c 8bf5 213d 5ba2 ae3d
00000220: d118 993d 8ed5 383c 33ae 8b3d 7bac f63c
00000230: 87ab 27bd 471a 21bd 9ddd c9bd 14fb 40bd
00000240: 481c 8ebd 334b 95bd ce47 7fbd c868 b5bd
00000250: d521 e1bb 9b8b a5bd c668 083d 01f0 dabc
00000260: 3b7e e43c 6ba5 aebb 71c2 30bd 92bd 52bd
00000270: 4e1f 583d a0a7 2cbc 1f05 d93a ad8e 4d3d
00000280: af0a 70bc cc00 e23c b519 34bd 769e 52ba
00000290: a86d 3d3d 75a5 d3bc e68a 24bd c2eb 2e3d
000002a0: dfd3 a13c 45f1 cabc 3cbb 123d 52ad f6bc
000002b0: 4d54 833d fa40 033d 07e1 2b3c 80ac 193d
000002c0: 3d82 f23c 2608 da3b 7d74 123d 50e2 f8bc
000002d0: 2854 803d b6f8 d83b 1abc 143d 7fc3 893c
000002e0: 15d6 1e3d 6081 913d 5218 783d 4e8a ccbc
000002f0: 3315 283c 1594 63bd 8e63 ecbc 3fda 893d
00000300: e558 783d b7ab 603d 7175 523c 616b 793d
00000310: 7024 8abc da65 d43b 5b97 eb3c 9664 62bd
00000320: 8d4b 3ebd 3db2 8e3c 85be ed3c dfbd 993d
00000330: 6ce2 813d 840d 693d 1eb9 783d d04f 8d3d
00000340: 68bb 943d 02d6 983b 2dd5 243c f979 6abc
00000350: 4a45 97bd bdcf c2bd 575e e5bd fbd1 e1bd
00000360: bc0d 65bd b1fe 1abe 45a4 9ebd 4242 e3bd
00000370: 11d4 bd3c f422 a03c cb2c 55bd ee75 a13c
00000380: bb03 41bd 5c0c c9b6 3690 173c e864 04bd
00000390: f210 883b ddc7 8ebc dca4 b43c d740 0cbd
000003a0: 2a12 25bc d522 4e3d 0977 6cba a14f 8f3d
000003b0: 6f31 a33c e897 4e3c c9a0 913d 876b a93c
000003c0: c5f4 f4bc fb97 063d dca5 6dbc a6c8 503d
000003d0: 37b9 c03c b357 803c aad8 4a3d c073 303c
000003e0: a2e0 853d ca2f 7c3c 8b3c ff3d 7c2b 9a3d
000003f0: 48c3 10bb 5d65 fd3b 07c9 a3bc f371 73bd
0.009978176 -0.01928023 0.05741573 0.06671321 0.099626444 0.09424431 0.05983111 0.05858613
0.068275586 -0.02550446 0.024496632 -0.025493635 0.02575631 -0.016528757 0.08226401 0.03445711
0.08590738 0.015356251 -0.016211681 0.06409742 -0.047456216 -0.021372408 0.0269799 0.006219327
-0.011488374 -0.0010764992 -0.029678747 0.049974453 -0.035380132 -0.035112932 -0.038341265 0.009785906
0.015952792 -0.010075062 -0.008213976 0.09119368 0.059232507 0.022250619 0.06795888 0.006707825
-0.028646626 0.037415482 0.0041725114 0.06352603 0.09641376 0.08501023 0.02427248 0.034574363
0.015192182 -0.03668224 0.030731568 -0.009850771 0.069290526 0.06190683 0.038984336 0.079228155
0.010588056 0.01724165 0.030789888 -0.040969912 0.076799326 -0.012140817 -0.0014386087 -0.07598631
-0.016259868 -0.08961885 -0.065492526 -0.09135122 -0.0057198456 0.0044544335 -0.042222176 0.013958275
0.01748666 0.066974774 0.07986658 0.04040579 0.06294024 0.033353183 0.09194857 0.058760088
0.029375738 0.011866037 0.0012794835 0.08519751 0.04189172 0.049658865 0.05408885 0.015719177
0.0021833451 0.023559162 -0.008711756 0.02584278 0.030519605 0.038631067 0.04276402 0.0764057
0.07640967 0.047687713 0.039863817 -0.019817526 -0.0103979325 -0.061582625 -0.01848729 -0.06312965
-0.10644824 -0.07615428 -0.07952536 -0.12670963 -0.060696255 -0.04548294 -0.041428167 -0.039806034
-0.014131293 0.08423351 0.040316924 0.019295475 0.07275963 0.039939754 0.04365059 0.005179257
-0.039491296 -0.031778973 0.024542814 0.01499824 0.039387032 0.002631642 0.005513858 -0.0062631876
0.05728515 -0.0030878934 0.0021084629 0.021661032 0.014038331 0.014844891 0.03954081 0.085270606
0.074754365 0.011281384 0.06820335 0.030111542 -0.040935066 -0.0393317 -0.098567225 -0.047114447
-0.06938988 -0.07289734 -0.062324338 -0.08857876 -0.006870488 -0.08083268 0.033303045 -0.02672577
0.027892223 -0.005329778 -0.043154184 -0.05145032 0.05276423 -0.010538012 0.0016557312 0.050184894
-0.014650985 0.02758827 -0.04396983 -0.0008034477 0.046247154 -0.025835732 -0.040171526 0.042705305
0.019754348 -0.02477325 0.035823092 -0.030111942 0.064125635 0.03204439 0.010490662 0.037518024
0.029603118 0.0066538034 0.035755623 -0.030381352 0.062660515 0.0066214455 0.0363122 0.016816853
0.038778383 0.071047544 0.06057007 -0.024968293 0.010258961 -0.055561144 -0.028856065 0.0673108
0.06063165 0.05485126 0.012845383 0.06089342 -0.016863078 0.006481868 0.028758695 -0.055271707
-0.04645877 0.017418975 0.02902151 0.07506918 0.06342015 0.056897655 0.060723417 0.06899989
0.072623074 0.0046641836 0.010060591 -0.014311307 -0.07386263 -0.09512279 -0.111996345 -0.11026379
-0.0559213 -0.1513622 -0.07746176 -0.11096622 0.02317241 0.019547917 -0.05204467 0.019709554
-0.0471227 -5.9917056e-06 0.009250691 -0.032322794 0.0041524107 -0.017429287 0.022051267 -0.034241524
-0.010075131 0.050326187 -0.0009020423 0.0699761 0.019921033 0.012609459 0.071107455 0.020681156
-0.029901871 0.032859784 -0.014504876 0.050972603 0.023525817 0.015666818 0.049523033 0.010769784
0.06536986 0.015392253 0.124627195 0.07527825 -0.0022089053 0.0077330307 -0.019993318 -0.059434842

features_extractor.fc_merge.bias f4 [352]
00000000: 922b 1ebd 4235 5e3d ed10 083c 55b2 0a3d
00000010: 2745 3e3d ae0b 313c 0883 9b3b 2561 d33c
00000020: 00e4 b83c 4ef5 823d 1dc6 d83c 3afa 71bd
00000030: 1ef4 c43a 7e4c d4bc 6aa2 01bc 1d36 1ebc
00000040: 077e b0bc ed57 523c 914c 8b3c 125e a8ba
00000050: 1723 493d 0936 ed3c f05a e6bc cfc4 5a3c
00000060: cb95 febc ee1b f1bc df9d 703c 2a66 1c3b
00000070: 5589 0f3c f74e 29bd 27cd a7bc c6b2 013c
00000080: 86c2 b1bc 1b08 3fbd 1ab7 2d3d 2d95 f23c
00000090: 74c1 573d 6135 09bd 49ec 5cbb 12fc 02bd
000000a0: 1763 273d 4a21 b33b cc2f 463b a952 2bbd
000000b0: 77a0 c03c fd4e 203d 080d 473c 26ca 5d3d
000000c0: 31f9 31bd 9bd0 4d3c 1825 10bc be7d 93bc
000000d0: cc28 893d 5e3c df3c c542 863a 6ac8 d8bc
000000e0: 891f c73c a318 5b3d 2c8e 81ba 5102 57bb
000000f0: b68b 9ebc 8209 f5bc 9078 14bd fd35 173c
00000100: 51a6 903b 6141 0dbd ac25 0ebd 95a1 8c3c
00000110: 3e23 463d ce29 1f3d b231 043d d48c 063d
00000120: e945 e13c cc4b 1bbd d423 933c 6e76 4ebd
00000130: caad 4e3d 73bf 0f3d 9204 f7bb 7915 3fbd
00000140: be5c 01bd ae20 513d ada8 fa3c 91d9 713d
00000150: b80d 87bc 9265 e73a 4421 9cbc b76d 9d3b
00000160: d550 053d 6e27 64bb 4b6b 463d dca6 0ebc
00000170: 29a8 14bc 175b 633d 1469 cebc 4cf1 0e3d
00000180: 9e31 0abc d441 31bc b13c a43c f099 38bd
00000190: cb49 15bd 9fd8 1fbc 5d73 843d bb2c 683c
000001a0: b96f d1bc ab68 193b 6277 4cbd e41c 88bc
000001b0: a744 f9bb 2704 7abc 065d 283d 35bc cf3c
000001c0: 533f f23c 889f 153d 812c 27bd 4bd8 d43c
000001d0: a40c 643c a852 813b 5951 0a3d 5626 ee3a
000001e0: 2756 373d 0f40 d6bc ec08 3a3d 2787 afbc
000001f0: 613d 35bd ef5f 663c 7d9f 413c 29ba 09bc
00000200: d266 33bc c282 99bc 0cc3 2d3d e6a2 3cbd
00000210: 3907 3f3d fe26 06bd 32f5 3fbc 9867 b73c
00000220: 5363 273d 4e6f d2bc 6eb5 083d 4928 543c
00000230: e520 10bd fc76 493c 81ec 2fbd 6da6 4ebd
00000240: 0d87 b43b 77f7 db3c 05fc 1abc b30b e43c
00000250: a8af 1b3c 81eb 22bd 3f44 ff3b 30ef b3bc
00000260: 5548 4d3d 9f19 44bd b1ef 753d 73dc 3c3d
00000270: 5e35 213d 654c b93c 6fee 3f3d 8880 a73c
00000280: 4be0 043c a60a ec3b 8ad7 0c3d b776 9f3b
00000290: b2bd 6f3c 27c6 3fbc 3b36 cf3c 24a0 2ebb
000002a0: 32b5 cf3c db56 2bbd e755 1b3c bcdf 15bd
000002b0: 9d75 453d fc11 423c 0ea6 f93c f403 b03c
000002c0: 4bf0 07bd e77a 0abb 0e76 0abb e268 0fbd
000002d0: 0b72 ec3c b035 2d3d 4f75 0c3d e8a1 21bd
000002e0: 0095 a33c 2661 ba3c 7bb4 edbc a373 cc3c
000002f0: 3b2f ebbb 5de8 263d 872a 14bd 6976 c6bc
00000300: f83b 26bc 7130 ee3c b129 ee3c 3dbc 593d
00000310: d0c4 1c3b dced 24bd 5b96 4b3c a1f3 9b3d
00000320: 66e4 2c3b 1161 3e3c ae5c fcbb 8ecc 4b3d
00000330: 1a99 233d ba33 5fbc 3af9 bfbb 0619 a23c
00000340: 9b3f 62bd 93e7 4d3d 664b 7f3d a571 fa3c
00000350: a894 01bc 6389 6f3c af25 593d 50eb 043d
00000360: c0e1 283b a998 3b3c 6d65 c5bc 9854 c13c
00000370: 94d4 1eba 4b93 f33b 5b8e cd3c 87eb 13bd
00000380: 66df 2bbc a737 ab3d e0a9 883b 513a 4c3d
00000390: 0470 353d 480a 483c b2b9 f43b dda0 c63d
000003a0: a726 383d 8e09 c7bb 339d 993c dacf 6b3d
000003b0: f28d 9e3d c59d 1fbd 7b21 2aba c3cc 373b
000003c0: aad4 b5bc 3e95 a5bc 34df 773c 87fc 47bd
000003d0: 9c9a 0d3b a57f 193d 631a 163d 2c80 3a3c
000003e0: 7f4c 4f3c 808c 3d3d 446d e03c c204 243c
000003f0: b893 32b9 9552 d6bc 18d1 523d 821f 073d
-0.03861577 0.05425001 0.008304817 0.033861477 0.046452668 0.010806007 0.0047458448 0.025803158
0.022569656 0.063944444 0.026461655 -0.059076525 0.0015026366 -0.02591538 -0.007912258 -0.009656456
-0.02154447 0.012838346 0.017004283 -0.0012845418 0.04910573 0.02895643 -0.028119534 0.013352587
-0.031077286 -0.029432263 0.014686077 0.0023864605 0.00876077 -0.041335072 -0.020483566 0.007916158
-0.021699201 -0.04663859 0.042410947 0.029612148 0.052674726 -0.03349817 -0.0033710173 -0.031978674
0.040865984 0.005466615 0.0030240892 -0.041826878 0.023514016 0.03913783 0.012149103 0.054147862
-0.043450538 0.012561942 -0.008797906 -0.018004294 0.066972345 0.027250465 0.0010243288 -0.026462752
0.02430703 0.053490292 -0.000988429 -0.0032807777 -0.019353729 -0.02991176 -0.03624779 0.00922918
0.0044143577 -0.03448618 -0.034703895 0.017166892 0.048373453 0.038858227 0.032273956 0.032849148
0.027499156 -0.037914082 0.01796142 -0.050405912 0.050458707 0.03509469 -0.0075383866 -0.046651337
-0.031582586 0.051056556 0.030598009 0.059045378 -0.016486034 0.0017654172 -0.019058831 0.004804339
0.03254779 -0.003481354 0.048442166 -0.008706775 -0.009073296 0.055506792 -0.02519659 0.034898087
-0.008434681 -0.010818917 0.020048471 -0.04506868 -0.036447328 -0.009756236 0.06467316 0.014170821
-0.025565969 0.0023408334 -0.04991854 -0.016615339 -0.007607061 -0.015259779 0.04110434 0.025358299
0.029571211 0.036529094 -0.040813927 0.025982043 0.013919029 0.003946621 0.033768985 0.0018169384
0.044759896 -0.026153592 0.045418665 -0.02142675 -0.04424799 0.014060958 0.01181781 -0.0084062
-0.010949807 -0.018739108 0.04242234 -0.04605379 0.046637747 -0.03275203 -0.011716174 0.022388265
0.040866207 -0.02568784 0.03337615 0.012949058 -0.03518762 0.0122964345 -0.042950157 -0.050451685
0.0055092634 0.026851399 -0.0094595 0.02783761 0.009502329 -0.039775375 0.007790118 -0.02196464
0.05011781 -0.047875997 0.06004304 0.046108674 0.039357536 0.022619436 0.046858247 0.02044703
0.008110116 0.007203418 0.03438524 0.004866447 0.014632629 -0.011704958 0.025294414 -0.0026645744
0.025354955 -0.04183088 0.00948093 -0.036590323 0.048207868 0.011845108 0.030474689 0.02148626
-0.033188146 -0.0021130384 -0.0021127495 -0.035012133 0.028862974 0.04228753 0.03429156 -0.039461046
0.01996851 0.022751402 -0.029016724 0.024957484 -0.007177261 0.040748943 -0.03617337 -0.024226384
-0.010146134 0.029075833 0.029072614 0.053158034 0.002392102 -0.040265903 0.012425984 0.07614828
0.0026381253 0.011619822 -0.007701478 0.049755625 0.03994093 -0.013623172 -0.0058585675 0.019787323
-0.05523644 0.050269675 0.062327765 0.030571768 -0.007908978 0.014620158 0.053014454 0.032450974
0.0025769323 0.011449971 -0.024096215 0.023599908 -0.0006058898 0.00743333 0.025092294 -0.03611329
-0.010490274 0.08360224 0.0041706413 0.049860302 0.04429628 0.0122094825 0.0074684257 0.09698651
0.044958737 -0.006074137 0.018751716 0.05757127 0.07741918 -0.03896882 -0.00064899743 0.0028045631
-0.022196133 -0.020212766 0.015128899 -0.048824813 0.0021607047 0.037475247 0.036646258 0.011383098
0.012652515 0.04627657 0.027395852 0.0100109 -0.00017030432 -0.026162425 0.05146894 0.032989033

actor.weight f4 [10, 352]
00000000: 917a 123d 14bd 8f3c af8f 0abd 9501 b9bc
00000010: 5b1c eb3b 58e8 873d 5d28 ffbc 6084 3ebb
00000020: 85bf cbbc f036 f83c a463 803d e9f6 85bd
00000030: 874a 893c ca22 1cbb 73c6 c0bb 5ef9 c53c
00000040: c14b 0e3d 39b4 023c 44a9 9e3b c84c f83c
00000050: cafb 773c 8236 83ba 32ab d33c 272e acba
00000060: 7e67 12bd 3f86 343d 7153 353c f877 473c
00000070: 13b9 20bd c5c1 aabc d582 8d3b 6a95 95bc
00000080: 6e2b 8cbc 5d59 07bd ce16 5b3d c0fb 413d
00000090: 0624 adbb a998 473d ee89 6ebd 1d9b 45bd
000000a0: ab3d 643a 3861 d8bc 75f2 96bc 807d 073c
000000b0: 8cf7 373d f540 433d 54bf 4fbd 7b59 eb3c
000000c0: 4333 16bc a6f6 a93b dfae abbb 4b45 8dbc
000000d0: ef06 c5bc 2227 313c cc08 8a3d a797 1d3c
000000e0: 7380 bf3b 5cb7 40bc 403c 58bc 6aa8 b13d
000000f0: 6489 8a3c 8e9b 2b3d 91cc a03c d369 c2bb
00000100: 7b8b 493d 1baf 30bd 888a 3a3d 1d70 70bc
00000110: b4d4 bc3c ba6a 2bbd 72d7 433d 5e97 c4bb
00000120: 4e61 193d 8118 df3b 9913 99bc a530 f1bc
00000130: 3667 383a a7c0 f7bc 5915 b23c 0850 acbc
00000140: d8eb 1d3d e126 33bd f30d 243d 30e6 abbc
00000150: b64b 7cbc 8188 083d 4694 c7bc a8e1 d5bc
00000160: cdd1 463a 6655 4bbb 3aed 26ba 7240 a5bc
00000170: 079a 4fbd 6161 333d 783e 143d d1c4 c83b
00000180: 114d cdbc d75a 07bd 573a fd3c 551b fcbc
00000190: 9f15 3d3d 5877 d9bc 9385 f53c d574 803c
000001a0: 1026 c23c eca3 d6bc 86b0 0fbd d9b6 043d
000001b0: 0c37 95bc 168f 5c3d 1b6d 90bc 2d1a eabc
000001c0: 7076 0b3d 16e8 b6bc 2814 a0bc 6187 6f3d
000001d0: bb17 3d3c 652d dc3c b3aa 253c 6886 683b
000001e0: 5cac 3f3d 060c 2f3d 2c17 19bd ee30 ee3c
000001f0: a6cb d73c 5fc8 9dbc e86d 823c 5bda 373d
00000200: c1d8 1bbd 9299 cfba 0281 cfbc f925 43bb
00000210: a6ea e4ba a436 6d38 1244 e6ba a441 08bd
00000220: 6bb3 f23c 612b 55bd 188d 5a3c e3a1 393d
00000230: 393a 123d 1dfb 4f3d 9362 303d bc8c a4bc
00000240: a950 2b3d ca95 07bc 7443 13bc ee5e 9d3c
00000250: 6de9 623d 1468 32bc 7980 693d 1cd0 1c3d
00000260: 79aa 653a f8d7 8a3b b007 a4bc 3095 413c
00000270: 9aa5 5abb d712 e83b ea3e 2b3d 5681 183d
00000280: 65c9 6a3d d600 13bc 1451 823d 8a0e 83bc
00000290: c30d 0cbd e95a 41bc 9c71 e63b 86c8 a53d
000002a0: aeb9 503d 50be d13c 61e4 8dbc 22cc 25bd
000002b0: 6353 9abc ac10 4c3d 907e c0bc 40a5 303d
000002c0: 0329 82bc fcba 633d 6b20 003d 963d d43c
000002d0: 373a 193d c6bd ec3b 8829 b6bc 2d1d c0bb
000002e0: 3861 42bd 5a8f b4bc 1bfb c3bb ceb7 8e3d
000002f0: 19d3 833c 5b16 453d a752 d33c bf02 25bd
00000300: 5414 8fbc b6df 813c df21 01bc 38e5 a63c
00000310: b33e 3c3d e763 fdbc cc5f fbbc 1bf7 36bd
00000320: cdef b83b 4ea2 3b3d 7c4c 353d cb7f 313d
00000330: 71a6 bcbc 91bf 433d b897 ce3c 6a11 9bbc
00000340: 01c0 883c 8687 0a3d a85c 13bd 0509 473c
00000350: bbc6 d53c c4f7 d7bb 7d96 133d cd0f e43c
00000360: 9247 4f3d 14d4 0d3c 5c97 1bbd e896 473d
00000370: dfce 1ebd 6d7d e13b d285 7dbd dee8 473d
00000380: 9c25 dfbb 8adf 003c b35b 3b3d ace6 a03d
00000390: 9015 e5bc d6a3 d43c 93f2 573d 8ae4 a43d
000003a0: 8b32 53bd ef08 423c ee63 1c3b fb70 943c
000003b0: e034 d4bb ac62 ec3c 667f 863d 7dcd dd3c
000003c0: c088 0e3d a364 f93c e074 b03c 5fc0 653d
000003d0: 2343 aebc ace9 253c 8167 d2bc be5b 43bb
000003e0: 98ac 413b 6300 0a3c 5bcc bcbc f336 243c
000003f0: 05be 013d 010c 5ebd 6176 3bbb d1e4 b53a
0.03576142 0.017546214 -0.033828434 -0.022583762 0.007175011 0.06636113 -0.031147176 -0.00290706
-0.024871597 0.030299634 0.06269005 -0.06541235 0.01675917 -0.0023824447 -0.005883032 0.02416676
0.034740213 0.007977539 0.0048419554 0.03031005 0.015135715 -0.0010010751 0.025838468 -0.0013136313
-0.03574323 0.04407334 0.011067257 0.012174599 -0.039239 -0.02084435 0.004318575 -0.018259723
-0.017110553 -0.033044208 0.053488545 0.047359228 -0.0052838353 0.048729572 -0.05823701 -0.04824363
0.0008706699 -0.026413545 -0.01842616 0.008269668 0.044913813 0.04766937 -0.050719574 0.028729191
-0.009167495 0.0051868735 -0.005239352 -0.017244956 -0.024051158 0.010812553 0.06739959 0.009618676
0.0058441698 -0.011762466 -0.0131979585 0.086747006 0.016911216 0.041896395 0.019628795 -0.0059330254
0.049205285 -0.043135744 0.04554227 -0.014675167 0.023050644 -0.04184983 0.047812887 -0.0059994897
0.037446313 0.006808341 -0.018686103 -0.02944214 0.00070344226 -0.030243231 0.021738695 -0.021034256
0.038554996 -0.04373825 0.040052366 -0.020983785 -0.01539891 0.033333305 -0.024362694 -0.026108578
0.00075843633 -0.0031026243 -0.0006367747 -0.020172331 -0.050684 0.04379404 0.036192387 0.006126978
-0.025061162 -0.033045616 0.030911608 -0.030774752 0.046163198 -0.026546165 0.02997092 0.01568071
0.02369979 -0.02620121 -0.035080455 0.03240094 -0.018214725 0.053847395 -0.01763015 -0.028576935
0.034048498 -0.022327464 -0.019540861 0.058478717 0.011541302 0.026877115 0.010111499 0.0035480503
0.046795234 0.042736076 -0.037375614 0.029076066 0.026342224 -0.019260583 0.015921548 0.044885974
-0.03804851 -0.0015838614 -0.02533007 -0.0029777272 -0.001746495 5.655609e-05 -0.0017567894 -0.033265725
0.029626569 -0.052043322 0.013339303 0.045320403 0.035700057 0.05077659 0.043062758 -0.020086639
0.04182497 -0.008275459 -0.00898825 0.019210305 0.055398393 -0.010889072 0.057007287 0.038284406
0.0008761059 0.0042371713 -0.020023197 0.011815354 -0.0033362866 0.007082324 0.041808046 0.03723272
0.05732097 -0.008972367 0.06363121 -0.015998144 -0.03419281 -0.01180146 0.0070325863 0.080948874
0.050958328 0.025603443 -0.017320814 -0.04047788 -0.01883859 0.049820587 -0.02349785 0.043126345
-0.015888697 0.055598244 0.031280916 0.025908273 0.037409034 0.007224771 -0.0222366 -0.005862853
-0.047455996 -0.022041012 -0.005980862 0.06968652 0.01609187 0.048117023 0.025796248 -0.040285822
-0.017465748 0.015853744 -0.007881611 0.020372972 0.045958232 -0.030931426 -0.030685328 -0.044669252
0.005643821 0.045809083 0.044262394 0.043334763 -0.023028584 0.047790114 0.02521883 -0.018929202
0.016693117 0.03382065 -0.035977036 0.0121481465 0.026095739 -0.0065908153 0.03603219 0.027839566
0.050605364 0.00865652 -0.037986144 0.0487279 -0.038771506 0.006881407 -0.0618952 0.048806064
-0.0068099033 0.007865796 0.045741748 0.07856497 -0.027964383 0.02595703 0.05272157 0.08051403
-0.051561873 0.01184295 0.0023863274 0.01812028 -0.0064760298 0.028855644 0.06567268 0.027075524
0.034798384 0.030443495 0.021540105 0.056091662 -0.021272248 0.0101265125 -0.02568412 -0.0029809321
0.0029552337 0.008422944 -0.023046663 0.010022867 0.031675357 -0.054210667 -0.0028604495 0.0013877397

actor.bias f4 [10]
00000000: 8bbc 12bc 2e99 8cbc 62f5 a2bb eaad f8bc
00000010: 1c01 393c cc6b 773c 2e60 2f3d a1a2 763c
00000020: beb3 08bd 02cd 463d
-0.008956085 -0.017162886 -0.0049730996 -0.030356366 0.011291768 0.015101384 0.042816333 0.015053422
-0.03337454 0.048535354

critic.weight f4 [1, 352]
00000000: 22c0 523d 8681 c53d fd03 443d d95c 9a3d
00000010: 9b90 293b 5c52 b0bd dc13 7f3d 4bfb 193d
00000020: 88a8 87bd dbab b5bd 3719 94bd bdaa c6bd
00000030: 93a9 aa3d 2e4d 5f3d b229 7c3d 578c 163d
00000040: 7572 82bd 9d69 063d 4bf4 573d c8fa ac3c
00000050: 1eae 8abd 5b7b 843d f690 873d 1cf0 f73c
00000060: 0c72 8d3d 3470 0c3d a7a9 0a3d 9cee 133d
00000070: d4ba 653d 269c 403d 2a64 673d 3305 803d
00000080: 1ccc 763d 9eff 803c 03b3 703d dc23 00bd
00000090: 08bb 43bd 0731 6c3d 5a72 803d 4a00 0a3d
000000a0: bc8c 38bd c8dd 99bd f064 6dbd 78c3 4c3d
000000b0: 382d c33c 263b a4bd 983d 2f3d 47ce 943d
000000c0: da02 823d bac7 aa3d 8425 543d a637 62bd
000000d0: 07bf 36bd 2e93 cabd 3526 b2bd f6bf 253c
000000e0: 8d6b 81bd 38fd 723d 22cf 8b3d f187 aabd
000000f0: 2870 18bc 9d6e 7e3d 144f 613d 74d4 7a3d
00000100: a43b 41bc 00bd 573d 371f a63c b025 83bd
00000110: d4f5 4bbd 5770 563d d0f0 973d cb39 c5bd
00000120: 222c 283d 593a 0f3d f9d8 3b3b 5eb0 9bbc
00000130: bac8 9bbd 2bfa 363d 9610 6abd e819 1c3d
00000140: a95f 6c3d 7ec7 423d 8a2f 773d 64a3 c8bc
00000150: 4ef7 83bd 22bf 433d c191 1f3d b0e3 1ebd
00000160: 487e 93bd 16ba 023b f7d4 a83d d821 613d
00000170: d737 483d 3e27 47bd 2492 a1bd 4168 5abd
00000180: 05f7 723d 4f16 1d3d 1fed 8e3d fe07 18bd
00000190: 2dbe 313d 3f95 023d 4dda 6abd cd36 77bd
000001a0: 49d7 06bd 8f09 8abd 0738 253c 05c3 5c3d
000001b0: 3d6b 713d 44f4 833a d5b6 e13c 2a3d 8fbd
000001c0: 2600 983d 86d6 883d 4b86 ad3d c795 7cbd
000001d0: 0629 ffbc ea4f 89bd 1527 8abd 1f9f 943d
000001e0: e789 493d 7082 a83d bdc9 9e3d 82c9 973d
000001f0: 68c5 8c3d 04fc 1b3d b86c b8bd 7fc2 29bd
00000200: 50b4 0a3d ebe5 023d dfdd 833d 67df 683d
00000210: 9cfb a3bd be7b 8cbc 1058 6cbd e74c 233d
00000220: cd4e d73c a1fd 403d 1c2c 833d 4944 743d
00000230: 3aef 453d 7952 493d 5751 293d 8231 923d
00000240: 81fd ff3c 635a a1bd 40a1 9abd 4f5f 443d
00000250: 5c91 30bd 0be8 a03c 1371 debd e41e ab3d
00000260: eb1f 82bd 1fd8 483d c9d1 32bd da0b 71bd
00000270: 745b 3b3d ae4a a43d b5fb 8d3d 51ea 25bd
00000280: 9855 d03c 52ca 673d de55 00be 3b47 01bd
00000290: fa6f 733d b319 c43c 47cd 92bd e0a7 8abd
000002a0: 9100 773d 809b 223d eaa4 833d 3a81 363d
000002b0: abfe 35bd e280 5d3d a4e7 98bd 2b36 65bd
000002c0: 565a e53c 3d32 27bd 0daf b63d 1b0f 173d
000002d0: 3349 2f3d cfb8 793d b6a0 90bd c293 2dbc
000002e0: a0d1 9d3c 0323 91bd 19c4 9c3c 38ff b2bd
000002f0: 850d 32bd c964 163d 03de 593d c214 4e3d
00000300: 658e 323d ae8f a93c fcd7 babd e33e 0f3d
00000310: 0b49 a0bd f0c4 a33d f143 01bc 6e6f 3dbd
00000320: e31f 8b3d 0311 f6bc 2a59 453d d227 0fbd
00000330: ed15 9e3d 97d4 eabc f660 a53d a345 09bd
00000340: e93e 173d b912 96bd 6f82 8dbd 401e 533d
00000350: d477 0c3d 5aaf 5b3d 8c47 40bd 8dc5 103d
00000360: cd47 acbb 2dbe 66bd 5865 943d c2fd e73c
00000370: ddf8 193d 6a57 f8bc 3b30 733d 7c11 ab3c
00000380: d99a 563d 53be a1bd 1139 8c3d c219 86bd
00000390: 2867 16bd 9877 4c3d dd6e 0ebd fb19 eebd
000003a0: 23d5 893d 721e c5bc ccb3 853d 52ee 4fbd
000003b0: bd2b 95bd e178 663d 545b 87bd 1be5 4a3d
000003c0: 0c76 32bd 617c dc3c 4b55 9539 b40f 29bd
000003d0: 8ef3 29bd 3919 18bd 3fa6 1c3d fd70 fa3b
000003e0: c319 0abc 5c40 913d ce5e 06bd abf2 5f3d
000003f0: f256 a1bb f51f 333d 4b1e adbd 4255 7f3d
0.051452763 0.09643845 0.047855366 0.075372405 0.0025873545 -0.08609459 0.0622748 0.037593167
-0.06623942 -0.088706695 -0.07231372 -0.097005345 0.08333125 0.054516964 0.0615632 0.036754932
-0.06369487 0.032815564 0.05272321 0.021115676 -0.067714915 0.06468841 0.06619446 0.03026586
0.06906518 0.034286693 0.0338532 0.036116228 0.056086376 0.047023915 0.05649201 0.06250992
0.060253248 0.015746888 0.05876447 -0.0312842 -0.04778579 0.057663944 0.06271811 0.033691682
-0.04505609 -0.075130045 -0.05795759 0.0499911 0.023825273 -0.08019094 0.04278335 0.07265907
0.063482 0.08338876 0.05179359 -0.05522885 -0.04461577 -0.098913535 -0.08698694 0.010116568
-0.06319342 0.05932352 0.06826617 -0.0832671 -0.009304084 0.062117208 0.055007055 0.061237767
-0.011794005 0.05267048 0.020278556 -0.06403673 -0.049794987 0.05235323 0.07418978 -0.09630164
0.041057713 0.034967754 0.0028663261 -0.019004997 -0.07606645 0.044672173 -0.057144724 0.038110644
0.057708416 0.04755353 0.06034807 -0.024491973 -0.06443654 0.0477897 0.03895736 -0.03879136
-0.072018206 0.0019947342 0.08243745 0.054963917 0.048881378 -0.04862141 -0.07889202 -0.05332208
0.059317607 0.038351353 0.06978821 -0.037116997 0.043394256 0.031880613 -0.057337094 -0.060354996
-0.032920156 -0.067401044 0.010084159 0.053896923 0.05894016 0.0010067304 0.027553001 -0.06994088
0.07421903 0.06681542 0.0847288 -0.061666276 -0.031147491 -0.067046955 -0.067457356 0.072569124
0.04920378 0.08228004 0.07753322 0.074114814 0.0687359 0.038082138 -0.090051115 -0.04144525
0.033863366 0.031957548 0.06438803 0.056853678 -0.08006975 -0.017148849 -0.05770117 0.03986826
0.026282692 0.04711688 0.064048976 0.059635434 0.048323847 0.049150918 0.041337337 0.07138349
0.03124881 -0.07878568 -0.07550287 0.047942456 -0.043107376 0.019641897 -0.10861411 0.08355501
-0.06353744 0.049034234 -0.043657098 -0.058849193 0.045741513 0.080220565 0.06932775 -0.040506665
0.02543144 0.056589432 -0.12532756 -0.03156207 0.05943296 0.023938036 -0.0716806 -0.06770301
0.060303275 0.039699078 0.06427939 0.044556834 -0.044432323 0.05407799 -0.07466057 -0.05595986
0.027997177 -0.040819395 0.08920107 0.03687964 0.042794418 0.060967263 -0.07061903 -0.01059431
0.019264996 -0.07086756 0.019136475 -0.08740085 -0.043469924 0.03671721 0.053190242 0.050312765
0.04359283 0.020698395 -0.09123227 0.034972083 -0.07826432 0.07996547 -0.007889734 -0.046248846
0.06793191 -0.030037409 0.048180737 -0.034950085 0.07719026 -0.028665824 0.080751345 -0.033513676
0.03692523 -0.0732779 -0.06909644 0.05154252 0.034293965 0.053634025 -0.046943232 0.03534465
-0.0052575828 -0.05633371 0.07245892 0.028319243 0.03759085 -0.03031512 0.059372168 0.02088236
0.052393768 -0.078976296 0.06846822 -0.06547882 -0.03671947 0.04991874 -0.034773696 -0.11626049
0.06730106 -0.024062369 0.06528434 -0.05076439 -0.07283733 0.056267623 -0.06609216 0.0495349
-0.04356961 0.026914777 0.00028483043 -0.04127474 -0.041492037 -0.03713343 0.038244482 0.007642864
-0.008428994 0.07092354 -0.032805257 0.054674786 -0.0049236948 0.04373165 -0.084530436 0.062337168
