carlike_gym/model_860.pth (torch, 526994 bytes, 11 tensors)

features_extractor.conv1.weight f4 [16, 4, 4]
0	0xbdfc34b4	-0.1231474
1	0x3e3cc8ba	0.18435946
2	0x3d9d79c4	0.076892406
3	0xbcb6f9c0	-0.022335887
4	0x3e7d5074	0.24737722
5	0xbdce7db0	-0.10082567
6	0x3e14d128	0.14532912
7	0x3da08058	0.0783698
8	0xbe73ef68	-0.23821795
9	0xbe729a3c	-0.23691648
10	0xbe603cdc	-0.21898216
11	0x3d04b0d8	0.032395214
12	0xbe6b7cbc	-0.22996801
13	0x3c485c80	0.012229085
14	0xbe70786c	-0.23483437
15	0x3d0c6658	0.03427729
16	0x3e998e9c	0.29991615
17	0x3e69a94b	0.22818486
18	0x3e608574	0.21925908
19	0x3d6ed017	0.05830392
20	0xbe5a25bc	-0.21303457
21	0xbdf3015b	-0.11865493
22	0x3e69f472	0.22847155
23	0xbe2b75d5	-0.16744168
24	0xbd76df0d	-0.06027131
25	0xbe1db183	-0.15399747
26	0x3dd5c58b	0.10438069
27	0x3df9743d	0.12180374
28	0xbd1dcde4	-0.03852643
29	0xbd0689aa	-0.03284613
30	0x3dd5398f	0.10411369
31	0xbd27f18e	-0.04100185
32	0xbdea34e7	-0.114358716
33	0x3e173296	0.14765391
34	0xbd99368e	-0.074811086
35	0xbe04d58f	-0.12972091
36	0x3e31ca63	0.1736236
37	0x3dba43dc	0.090949744
38	0xbe4b5cb1	-0.19859578
39	0xbbe17e27	-0.0068814936
40	0xbd8a75c0	-0.0676074
41	0xbe12016b	-0.14258353
42	0x3e5e854e	0.21730539
43	0xbda0abeb	-0.07845291
44	0x3e59e895	0.21280129
45	0x3e3c48c2	0.1838713
46	0xbe09127c	-0.13385957
47	0xbca4733c	-0.02007448
48	0x3e1c7523	0.15279059
49	0x3e5eca8b	0.21756952
50	0x3d140660	0.036138892
51	0xbd52f193	-0.051499914
52	0xbe0900ba	-0.13379183
53	0xbe03f131	-0.12884976
54	0xbe574653	-0.2102292
55	0xbc661ad6	-0.014044484
56	0x3dc32307	0.09528165
57	0xbd3dae7f	-0.04630899
58	0xbdb73d08	-0.08947188
59	0xbe27ea84	-0.16398054
60	0x3e74604d	0.23864861
61	0xbdc927ef	-0.0982207
62	0x3d7845f8	0.060613602
63	0xbd0d909d	-0.034561742
64	0x3e7e293c	0.24820417
65	0x3e0058cc	0.12533873
66	0xbce89c94	-0.028394975
67	0x3bf77fa0	0.007553056
68	0xbdb65db0	-0.08904588
69	0xbc00bc80	-0.007857442
70	0xbdbecc48	-0.09316307
71	0x3c042178	0.00806462
72	0xbe7eedcb	-0.24895398
73	0x3dda70f0	0.10666072
74	0xbdbcf28e	-0.09225951
75	0x3e3724ca	0.17885128
76	0x3d84007c	0.06445405
77	0xbe827d08	-0.25486016
78	0x3e262a37	0.16227041
79	0x3d135c62	0.035976775
80	0xbe9d003a	-0.30664235
81	0xbd12c02b	-0.035827797
82	0xbe237cee	-0.15965626
83	0x3db24012	0.08703627
84	0x3df9d289	0.121983595
85	0x3e1ba0d1	0.15198065
86	0x3e008b01	0.12553026
87	0x3d9e3c77	0.077263765
88	0x3c919d63	0.017775243
89	0xbe387c2d	-0.1801612
90	0x3e2b0b84	0.16703612
91	0x3e5f561e	0.21810195
92	0xbe55c79f	-0.2087693
93	0x3e22fa15	0.15915711
94	0xbd169bc5	-0.036769647
95	0x3e07112a	0.13190141
96	0x3e7f02e5	0.24903448
97	0x3e6380e6	0.2221714
98	0x3e9a65db	0.30155835
99	0xbe01203f	-0.12609957
100	0x3e662a5e	0.224771
101	0x3e2e5757	0.17025505
102	0x3d853e27	0.06505995
103	0xbe7c48da	-0.24637166
104	0xbe5c29bc	-0.21500295
105	0xbe3cbfb7	-0.18432508
106	0x3d561b99	0.052272413
107	0x3e28d5b4	0.16487771
108	0x3ab6f28f	0.0013957786
109	0x3e6d9a87	0.23203479
110	0xbe203c33	-0.15647964
111	0x3e3ea054	0.18615848
112	0xbdffcf27	-0.12490683
113	0x3e74e2d3	0.23914652
114	0x3e4c2c80	0.1993885
115	0x3dd21928	0.102587044
116	0xbe1ab2af	-0.15107225
117	0xbca04a9c	-0.019566827
118	0xbcf3c4c5	-0.029756913
119	0x3dd04abb	0.10170504
120	0x3dc04c16	0.09389512
121	0x3e14435d	0.14478822
122	0xbe00f488	-0.12593281
123	0xbd3f0284	-0.04663326
124	0xbe815d83	-0.25266656
125	0x3e1b2f47	0.15154754
126	0xbe523ed6	-0.20531783
127	0x3da8117d	0.082064606
128	0x3cec5739	0.028850185
129	0x3ce4362e	0.027857866
130	0xbe919aea	-0.28438503
131	0xbe1483e2	-0.14503434
132	0xbe3ee3e6	-0.18641624
133	0x3d758cc3	0.059948694
134	0x3e7b9747	0.24569426
135	0xbe39f6eb	-0.18160598
136	0xbe2679d8	-0.16257417
137	0x3e8d86ae	0.27641815
138	0xbc1a00aa	-0.009399572
139	0xbe37a3a1	-0.17933513
140	0x3e42c21c	0.1901936
141	0xbd3f2ae2	-0.046671756
142	0x3e06843b	0.1313638
143	0x3cf9c1e3	0.03048796
144	0x3e39854a	0.18117252
145	0x3c06f1c0	0.008236349
146	0xbe865895	-0.26239458
147	0xbe744ba3	-0.23856978
148	0x3e178931	0.14798428
149	0x3d18b8be	0.03728556
150	0x3ddffefd	0.10937307
151	0x3e3eec00	0.18644714
152	0xbe2e21e7	-0.1700512
153	0xbc84cb96	-0.016210359
154	0x3dd17353	0.102270745
155	0xbd9bb451	-0.07602752
156	0xbc5280ef	-0.012848123
157	0xbda775f6	-0.08176796
158	0xbc827cb9	-0.015928613
159	0x3e8df78d	0.2772793
160	0xbd317cfb	-0.04333208
161	0xbd1f5ec8	-0.03890875
162	0xbe4e97a7	-0.20175038
163	0xbe438dea	-0.19097105
164	0x3e8baaba	0.27278692
165	0xbe0f2ba1	-0.13981487
166	0xbe2bad59	-0.16765346
167	0xbdf605e0	-0.12012839
168	0xbd98424f	-0.07434522
169	0x3d4d20e4	0.050080195
170	0x3d450f7a	0.048110463
171	0x3e6d4e26	0.23174343
172	0x3cf07bca	0.029355902
173	0x3d73b6ae	0.05950039
174	0x3e1a7c17	0.15086399
175	0xbdbf67b4	-0.09345952
176	0x3e767128	0.24066603
177	0x3e938fca	0.2882064
178	0xbd2738bf	-0.0408256
179	0xbdb79bf0	-0.089652896
180	0x3cb04559	0.021517443
181	0xbe216b62	-0.1576362
182	0x3dc4096c	0.095721096
183	0x3e3f513d	0.18683334
184	0x3e093857	0.13400398
185	0xbd834bcc	-0.064109415
186	0xbe2374d9	-0.15962543
187	0xbe3b111f	-0.1826825
188	0xbe72a3df	-0.23695324
189	0x3e2fa6f2	0.17153528
190	0xbdad5e80	-0.0846529
191	0x3e407a3f	0.18796633
192	0x3e0301d3	0.12793665
193	0x3e870c4e	0.26376575
194	0x3e40570c	0.18783206
195	0x3e3780f8	0.17920291
196	0x3e0f69d6	0.14005217
197	0x3cfe8ae0	0.03107208
198	0xbdbb85c5	-0.09156374
199	0xbccb8cfc	-0.0248475
200	0xbe20d6fc	-0.1570701
201	0x3d739a7b	0.059473496
202	0x3da4d957	0.08049267
203	0x3c96f87b	0.018429032
204	0x3c91b99f	0.017788706
205	0xbe37cb3e	-0.17948624
206	0xbe2e04d5	-0.16994031
207	0xbe190f29	-0.1494719
208	0xbe321187	-0.17389499
209	0x3e3ba25e	0.18323657
210	0x3dff3c7d	0.12462709
211	0x3e6ca1fa	0.23108664
212	0xbe7e6bce	-0.24845812
213	0x3c489467	0.012242413
214	0x3e2ac3ef	0.16676305
215	0x3e11f922	0.14255193
216	0xbe277c5f	-0.16356038
217	0xbd57e593	-0.052709173
218	0xbdcd6458	-0.10028905
219	0xbe46bc3e	-0.19407746
220	0xbd4e820b	-0.050416987
221	0x3d8983ad	0.06714568
222	0x3e1e2db7	0.15447126
223	0x3e084504	0.13307577
224	0xbba42f7d	-0.005010544
225	0x3dfb632e	0.122747764
226	0xbcd43928	-0.02590616
227	0xbd389ef5	-0.04507347
228	0xbdb26d53	-0.08712258
229	0x3d6c8ea6	0.057753228
230	0xbbe27325	-0.006910699
231	0xbe82b597	-0.25529167
232	0xbdeea19d	-0.11651919
233	0xbc382925	-0.011240278
234	0xbe3093ff	-0.17243956
235	0x3d58601d	0.052826036
236	0x3d4dbda5	0.050229687
237	0x3e4b3810	0.19845605
238	0x3db2fa49	0.08739144
239	0x3ddc3f41	0.10754252
240	0xbd645bb0	-0.055751503
241	0x3cec7d10	0.028868228
242	0xbe739bf4	-0.2378996
243	0xbe77beda	-0.24193898
244	0xbe05af40	-0.13055134
245	0xbd8ea208	-0.06964499
246	0x3d9f4198	0.07776183
247	0xbe57d8e2	-0.21078828
248	0x3daf0048	0.085449755
249	0xbe0944f8	-0.13405216
250	0xbd42b840	-0.047538996
251	0xbe4681c0	-0.19385433
252	0x3e20d19e	0.15704963
253	0xbcc8f630	-0.024531454
254	0xbe6e4c0e	-0.232712
255	0x3e769778	0.24081218

features_extractor.conv1.bias f4 [16]
0	0xbe1bba52	-0.15207794
1	0xbdf5f66d	-0.120098926
2	0xbe49eeae	-0.19719955
3	0x3e8aa97b	0.27082428
4	0x3d9a651c	0.07538816
5	0xbdae253f	-0.08503198
6	0xbc12f61c	-0.00896981
7	0xbde8de76	-0.11370556
8	0x3e42909b	0.19000475
9	0xbe1db056	-0.15399298
10	0x3e783f54	0.24242908
11	0xbdc5ba21	-0.09654642
12	0xbdc50e84	-0.09621909
13	0xbe563149	-0.20917238
14	0xbe011495	-0.12605508
15	0xbce9ab40	-0.028524041

features_extractor.conv2.weight f4 [32, 16, 4]
0	0x3c5ed860	0.0136013925
1	0xbc73c920	-0.014879495
2	0x3d7a4590	0.061101496
3	0x3d717eb4	0.058958724
4	0x3e5ceac8	0.21573937
5	0x3d983981	0.07432843
6	0xbcc7ec7e	-0.02440476
7	0x3e2f8d00	0.17143631
8	0x3d9b057e	0.07569407
9	0xbcfc7dc0	-0.030821681
10	0xbda077b1	-0.07835329
11	0x3d1fea1c	0.039041623
12	0x3df548db	0.11976787
13	0x3dd8aec2	0.105802074
14	0x3e34fe4d	0.17675133
15	0x3e0cf6cc	0.1376602
16	0x3bb6ac7b	0.0055747605
17	0xbdaa2862	-0.08308484
18	0x3e0b5c15	0.13609345
19	0xb9be12fb	-0.00036253766
20	0xbc8e1f5a	-0.017348934
21	0xbdb9c665	-0.09071044
22	0x3947e750	0.0001906429
23	0xbe11db83	-0.14243893
24	0xbc23234c	-0.009957146
25	0x3d4ce3c1	0.05002189
26	0x3c6ec2d6	0.01457282
27	0xbca81705	-0.020518789
28	0x3af81d31	0.0018929598
29	0xbc98c205	-0.018647203
30	0x3d8b2e44	0.06795934
31	0xbdd43f01	-0.103635795
32	0xbe1521ee	-0.14563724
33	0xbd30fcb6	-0.043209754
34	0x3d5853d9	0.05281434
35	0xbd145ff8	-0.036224335
36	0xbe7ff678	-0.24996364
37	0xbe29845b	-0.16554396
38	0xbdeabb0a	-0.11461456
39	0xbe080c2e	-0.13285896
40	0xbce190e7	-0.027534915
41	0xbdf78bec	-0.12087235
42	0xbd6c6f64	-0.057723418
43	0x3d07b9a2	0.033136018
44	0x3e16f87e	0.1474323
45	0x3c9cead5	0.019154945
46	0x3da3a7e1	0.07991005
47	0x3c20b9d3	0.009809929
48	0x3e5b7f16	0.21435198
49	0x3e2eeb9f	0.1708207
50	0x3ce22e1d	0.02760988
51	0x3de7491b	0.11293241
52	0xbd44a98c	-0.048013255
53	0xbdd0c3be	-0.10193585
54	0x3d10a2df	0.035311576
55	0xbe0f8148	-0.1401416
56	0xbb7c84c1	-0.0038531276
57	0x3d0803b7	0.033206668
58	0x3dea16ce	0.11430131
59	0x3af8f792	0.001899468
60	0x3d7f79e4	0.062372103
61	0xbc8fe698	-0.01756601
62	0xbd9145b4	-0.07093373
63	0xbda5ca40	-0.08095217
64	0x3ae4c080	0.0017452389
65	0x3d28ca04	0.041208282
66	0x3dff4666	0.12464599
67	0xbd02a374	-0.031894162
68	0x3c72bcf5	0.014815559
69	0x3e073eef	0.13207601
70	0x3e1f97a1	0.15585186
71	0x3cc539f7	0.024075491
72	0x3da94dc6	0.08266787
73	0xbdf7250c	-0.12067613
74	0xbd1a8e05	-0.037733097
75	0xbde4132b	-0.111364685
76	0x3d844248	0.06457955
77	0x3d56c787	0.052436378
78	0x3cd95daa	0.02653392
79	0x3cf993c7	0.030465974
80	0xbd6194c4	-0.055073515
81	0x3d8a4e8a	0.067532614
82	0x3da82e4b	0.08211955
83	0xbdb3d18c	-0.08780202
84	0xbdacee14	-0.08443847
85	0xbdea47b2	-0.11439456
86	0xbce247fe	-0.02762222
87	0xbdf761b1	-0.1207918
88	0x3c2c917e	0.010532735
89	0x3d90fd44	0.070795566
90	0x3d9c818c	0.076418966
91	0x3d557550	0.05211383
92	0xba0622f5	-0.00051169033
93	0x3df9dba3	0.122000955
94	0xbce20206	-0.027588855
95	0xbe64a94b	-0.22330205
96	0xbe2edbde	-0.1707606
97	0xbe7e602d	-0.24841376
98	0xbe069218	-0.13141668
99	0xbceee709	-0.0291629
100	0xbe66267c	-0.22475618
101	0xbe811706	-0.25212878
102	0xbdefa432	-0.1170124
103	0xbe82bf13	-0.25536403
104	0xbe2840ec	-0.16431016
105	0xbe07e42c	-0.13270634
106	0xbe22014b	-0.15820806
107	0xbcbb8749	-0.022891657
108	0x3e2494bc	0.16072363
109	0x3e1b22d3	0.15150003
110	0x3d0f3cfb	0.034970265
111	0xbd2e8377	-0.042605843
112	0x3e6e706f	0.23285078
113	0x3e5f40db	0.21802084
114	0x3d8c889b	0.06861993
115	0x3c57926b	0.013157467
116	0x3c885711	0.016643079
117	0x3dcfeaa7	0.10152178
118	0xbd96d41c	-0.073646754
119	0xbde01150	-0.10940802
120	0x3df498e1	0.11943222
121	0x3d27e5cd	0.04099064
122	0xbd48d8aa	-0.049034752
123	0x3d834042	0.064087406
124	0x3d83bd52	0.06432594
125	0x3dfeffae	0.12451111
126	0xbdbd6c4e	-0.09249173
127	0xbd613688	-0.054983646
128	0x3d8e90d8	0.069612205
129	0xbdd306b6	-0.103040144
130	0xbd51f6f4	-0.051260903
131	0xbdf52bbe	-0.11971234
132	0x3d05ab10	0.03263384
133	0x3c0f4590	0.008744612
134	0x3bee2e80	0.007268727
135	0x3bde2640	0.006779462
136	0x3d678840	0.056526423
137	0xbc5860c0	-0.013206661
138	0xbd93fe46	-0.07226233
139	0xbdbb335e	-0.09140657
140	0x39e4ca00	0.0004363805
141	0xbd1a26e4	-0.037634745
142	0x3d92ccfe	0.071680054
143	0x3cbe8320	0.023255885
144	0xbcbe28d0	-0.02321282
145	0xbd0f9234	-0.03505154
146	0xbd65e710	-0.05612856
147	0xbd6fb34c	-0.0585206
148	0x3dbe14d8	0.092813194
149	0xbce99e78	-0.028517947
150	0xbc255a20	-0.010092288
151	0x3d888e6e	0.06667791
152	0x3d895d76	0.067072794
153	0xbded303c	-0.115814656
154	0xbdc8aaa2	-0.097981706
155	0x3aa3ee80	0.0012506992
156	0x3d2f4160	0.042786956
157	0x3d81affe	0.06332396
158	0xbdaf189e	-0.08549617
159	0xbd507404	-0.05089189
160	0xbc8c6320	-0.01713711
161	0x3cdaff38	0.026733026
162	0xbdbd0220	-0.09228921
163	0xbd91304e	-0.070892915
164	0x3b016180	0.0019741952
165	0x3cc6e4a8	0.024278954
166	0xbde96158	-0.1139552
167	0x3dc32f14	0.09530464
168	0xbd79c814	-0.060981825
169	0x3db1ee62	0.08688046
170	0x3db50c76	0.08840267
171	0xbdc47e78	-0.095944345
172	0xbd28ce44	-0.041212335
173	0x3d2146f4	0.039374307
174	0xbdd0e7da	-0.10200472
175	0xbde5fe10	-0.11230099
176	0xbd26fae4	-0.04076661
177	0x3d5db4f8	0.054127663
178	0xbd6ec3c4	-0.058292165
179	0xbd9562b6	-0.07294218
180	0xbcefd628	-0.029276922
181	0x3d75e108	0.06002906
182	0x3d24ff40	0.040282488
183	0xbd18e298	-0.03732547
184	0x3de84916	0.11342065
185	0x3caaa138	0.020828828
186	0xbc817258	-0.015801594
187	0xbd900f26	-0.07034139
188	0xbde0acf0	-0.10970485
189	0xbd975c4a	-0.073906496
190	0xbd46b058	-0.04850802
191	0xbd5696c8	-0.05238989
192	0x3a8e6980	0.0010865182
193	0x3d471af8	0.048609704
194	0xbdfa72f6	-0.12228958
195	0x3de2e0ac	0.11078009
196	0x3e3c63a8	0.18397391
197	0x3e32ee2e	0.17473671
198	0x3d096e99	0.03355274
199	0xbd3860c0	-0.045014143
200	0x3c670980	0.014101386
201	0x3dfee1ce	0.124454126
202	0x3b9c23b6	0.0047649993
203	0x3ce5c055	0.028045813
204	0x3e6e5afd	0.23276897
205	0x3e2988e3	0.16556124
206	0x3e239106	0.15973291
207	0x3e47230b	0.19446962
208	0x3d7ccfc5	0.061721582
209	0x3d999ad0	0.07500231
210	0xbbd961fe	-0.006633996
211	0xbd03605e	-0.032074325
212	0xbd6adc07	-0.05733874
213	0xbe1e43e0	-0.1545558
214	0xbde423b9	-0.11139626
215	0xbe092fc2	-0.13397124
216	0x3d8f7fea	0.070068195
217	0x3d947bbc	0.07250163
218	0x3db4fd24	0.08837345
219	0x3c0c2839	0.008554512
220	0x3d87a255	0.06622759
221	0x3d4fb03c	0.05070518
222	0xbe042c43	-0.1290751
223	0xbdf3e288	-0.11908442
224	0x3c09b21c	0.008404281
225	0x3dd27d1d	0.1027777
226	0xbbf6e673	-0.007534796
227	0x3d7903a3	0.060794484
228	0xbe3874ff	-0.1801338
229	0xbd734993	-0.059396338
230	0x3d131c51	0.035915677
231	0xbe120255	-0.14258702
232	0xbe10f596	-0.14156184
233	0xbe208309	-0.15674986
234	0xbe0eaea1	-0.13933803
235	0xbbca3c71	-0.006171756
236	0x3e2f81f0	0.17139411
237	0x3e0881af	0.1333072
238	0x3e5c596e	0.2151849
239	0x3d5d939b	0.054095846
240	0x3eb5c5b6	0.35502404
241	0x3da1f0ee	0.07907282
242	0x3d5f8efe	0.054579727
243	0x3d44c20f	0.04803663
244	0x3da00852	0.07814087
245	0xbdfafd62	-0.1225536
246	0xbe0327cf	-0.12808155
247	0x3d6de5d4	0.05808051
248	0x3e0bd3d9	0.13655032
249	0xbd15990d	-0.036522914
250	0x3d1d1833	0.038353156
251	0xbdb5b3f3	-0.08872213
252	0x3d728f34	0.0592186
253	0x3d2c3c60	0.042049766
254	0xbdcd5aec	-0.100271076
255	0xbde1c1ce	-0.110232934

features_extractor.conv2.bias f4 [32]
0	0xbcb696e2	-0.022288743
1	0x3c612763	0.013742301
2	0xbdd11494	-0.10209003
3	0xbc044847	-0.008073873
4	0xbe154885	-0.14578445
5	0xbd401e7d	-0.046904076
6	0x3d63c1e3	0.055604827
7	0xbc51aa14	-0.012796897
8	0xbdc0c160	-0.09411883
9	0x3d216203	0.039400112
10	0xbd3c2987	-0.04593804
11	0xbd482cba	-0.04887078
12	0x3c7b1509	0.015324839
13	0xbc468c04	-0.012118343
14	0x3e1ae8dc	0.15127891
15	0x3bec65e0	0.007214293
16	0xbe008feb	-0.125549
17	0xbc67b722	-0.014142783
18	0xbd3298b0	-0.043602645
19	0xbe0b6a4f	-0.13614772
20	0xbd335879	-0.043785546
21	0x3d06a37f	0.032870766
22	0x3cbcfb9b	0.023069194
23	0xbd4b2e5f	-0.04960477
24	0x3cc86d97	0.024466319
25	0x3d778126	0.0604259
26	0xbd0c0833	-0.034187507
27	0xbdf0ae48	-0.117519915
28	0xbddb681d	-0.107132174
29	0xbdea269a	-0.11433144
30	0xbdc170c3	-0.09445336
31	0xbdfdb732	-0.12388457

features_extractor.fc_op.weight f4 [32, 3]
0	0x3f02ad75	0.51045924
1	0xbea26452	-0.31717163
2	0x3eaf4593	0.34232768
3	0xbef48c24	-0.4776317
4	0xbebd8576	-0.37015885
5	0x3edf6930	0.4363494
6	0x3d70aaa3	0.05875648
7	0x3c918575	0.017763833
8	0x3ec11edf	0.37718865
9	0x3f0b0d89	0.5431753
10	0x3bceb39c	0.006308032
11	0x3f1cba68	0.61221933
12	0xbf1273c7	-0.5720791
13	0x3db4ec8a	0.08834179
14	0x3e8b39cc	0.27192533
15	0xbea6e32a	-0.32595187
16	0x3d96e963	0.07368734
17	0x3e400a13	0.18753843
18	0xbe407977	-0.18796335
19	0xbdd08ee9	-0.10183508
20	0x3ef49ce8	0.4777596
21	0x3eece51b	0.46268544
22	0xbd6356fa	-0.05550287
23	0xbec27000	-0.37976074
24	0x3c0ceb72	0.008601056
25	0xbeada8b4	-0.33917773
26	0xbe7b9569	-0.24568714
27	0x3f038791	0.5137873
28	0x3e8a61c3	0.2702771
29	0xbe318a13	-0.17337827
30	0xbef6b5ab	-0.48185477
31	0xbcc52978	-0.024067625
32	0xbed079ac	-0.40717828
33	0xbba1a7d2	-0.004933336
34	0xbdf2ea3c	-0.11861083
35	0x3ec6efab	0.38854727
36	0x3eaa8c21	0.33310035
37	0xbe7ffa5d	-0.2499785
38	0x3e54a09d	0.20764394
39	0xbea11a30	-0.31465292
40	0xbe82953b	-0.2550448
41	0xbf15550c	-0.58332896
42	0x3eb95716	0.36199254
43	0xbe1c6ffa	-0.1527709
44	0xbd3fe879	-0.046852563
45	0xbe69f14d	-0.22845955
46	0x3d0a68bf	0.0337913
47	0x3ecb7745	0.39739433
48	0xbedda1a3	-0.43287382
49	0xbe9e38fa	-0.30902845
50	0x3e7b86e2	0.24563172
51	0xbefb61dd	-0.490981
52	0x3c2eabb5	0.010661055
53	0xbe89b67c	-0.26897037
54	0xbf0417a2	-0.5159856
55	0xbe8d00c2	-0.2753964
56	0x3f0742a9	0.5283609
57	0x3d3bf543	0.045888197
58	0xbf03223e	-0.51224124
59	0xbeaa1dc5	-0.33225837
60	0xbe49c659	-0.1970457
61	0xbf023a90	-0.5087061
62	0xbc3f5d90	-0.011680022
63	0xbec7409b	-0.38916478
64	0xbcb0e63f	-0.021594165
65	0x3e72cd8c	0.23711222
66	0x3e3bc415	0.18336518
67	0x3e0593e6	0.130447
68	0x3e2c8640	0.16848087
69	0x3edcdfbd	0.4313945
70	0x3eeec21b	0.46632466
71	0x3ea49719	0.32146528
72	0x3c49d474	0.012318719
73	0x3eaf8de5	0.34287944
74	0x3d800d1e	0.06252502
75	0x3e847e86	0.2587778
76	0x3e42aa78	0.19010341
77	0xbda4df8c	-0.08050451
78	0xbe06bba1	-0.13157512
79	0x3e4a95bc	0.19783682
80	0xbe6d7669	-0.23189701
81	0x3ebbf573	0.367107
82	0xbf083859	-0.5321098
83	0xbda56c9f	-0.080773585
84	0x3da5bf71	0.08093155
85	0x3e1f8bd3	0.15580682
86	0xbeb7234b	-0.35769114
87	0x3e7441f4	0.23853284
88	0xbe8c5946	-0.2741186
89	0xbec9d4a7	-0.39420053
90	0x3f0901c7	0.53518337
91	0x3ea34519	0.31888655
92	0x3e6bc32a	0.23023668
93	0xbe2f2d75	-0.17107184
94	0xbf015a70	-0.5052862
95	0x3e76713c	0.24066633

features_extractor.fc_op.bias f4 [32]
0	0x3e6ebd80	0.23314476
1	0xbe853e83	-0.26024255
2	0xbdbef706	-0.0932446
3	0xbe6a0d4d	-0.22856636
4	0xbf14c68f	-0.58115476
5	0xbed6e5b5	-0.41972128
6	0x3c9f2814	0.01942829
7	0x3e9de7d8	0.30840945
8	0x3e75062a	0.23928133
9	0x3ebbd17a	0.36683255
10	0xbe65021c	-0.22364086
11	0xbd9cc0ab	-0.07653936
12	0x3e9a09ed	0.30085698
13	0x3e2cdfb4	0.16882211
14	0x3e6f39bd	0.23361869
15	0xbf0f6ef9	-0.56028706
16	0x3c819eaa	0.015822727
17	0xbdf595f0	-0.11991489
18	0x3ea65716	0.32488316
19	0x3de3de08	0.111263335
20	0x3e3618c2	0.17782882
21	0x3eda7ccd	0.4267334
22	0xbda23d3b	-0.07921835
23	0xbec77505	-0.38956466
24	0xbd4b34f7	-0.049611058
25	0xbed054e4	-0.40689766
26	0xbea186c2	-0.31548125
27	0xbecfcadd	-0.4058446
28	0xbee54a11	-0.4478307
29	0x3e823b96	0.25436085
30	0xbe8962a8	-0.2683308
31	0xbe91ab72	-0.28451115

features_extractor.fc_merge.weight f4 [352, 352]
0	0xbd68e2f0	-0.05685705
1	0xbd553aaa	-0.0520579
2	0x3d5f091e	0.054452054
3	0x3db2cfeb	0.087310635
4	0x3e0e24a8	0.13881171
5	0x3e0abb89	0.13548101
6	0x3db92388	0.0903998
7	0x3d8cead6	0.06880729
8	0x3d729478	0.059223622
9	0xbd0863e8	-0.033298403
10	0xbb27309d	-0.0025511154
11	0xbcc3ce2e	-0.023902025
12	0x3d2eec23	0.042705666
13	0x3c0ee848	0.008722372
14	0x3dedc678	0.116101205
15	0x3d8e354e	0.06943761
16	0x3ddeff6d	0.10888562
17	0x3c9ff4fd	0.019526
18	0xbd02562f	-0.031820472
19	0x3d2fdeb4	0.042936996
20	0xbd426173	-0.047456216
21	0xbcaf1530	-0.021372408
22	0x3cdd04f4	0.0269799
23	0x3bcbcb7f	0.006219327
24	0xbc3c39bc	-0.011488374
25	0xba8d1952	-0.0010764992
26	0xbcf320d8	-0.029678747
27	0x3d4cb203	0.049974453
28	0xbd10eac2	-0.035380132
29	0xbd0fd294	-0.035112932
30	0xbe0b2526	-0.1358839
31	0xbd1aa2ca	-0.037752904
32	0x3c19933c	0.009373482
33	0x3bdb26c9	0.006687973
34	0x3cd54fad	0.026038969
35	0x3e0b2818	0.13589513
36	0x3dd18c55	0.10231844
37	0x3d431f9c	0.047637567
38	0x3d915185	0.07095627
39	0xbb0a0684	-0.0021061013
40	0xbd4261cb	-0.047456544
41	0x3d413107	0.047165897
42	0x3cdc5752	0.026897106
43	0x3dc0fa17	0.09422701
44	0x3e0bf9e4	0.13669544
45	0x3e01bd2c	0.1266982
46	0x3d2c5b06	0.042078994
47	0x3c6173ff	0.013760566
48	0xbd294574	-0.041326
49	0xbdd1dc91	-0.10247148
50	0x3d181244	0.037126794
51	0x3cf91171	0.030403825
52	0x3df07822	0.117416635
53	0x3de4cde2	0.111720815
54	0x3dbeee19	0.09322757
55	0x3dfe0db0	0.124049544
56	0x3c7b579b	0.015340711
57	0xbd38c8e4	-0.04511346
58	0xbd9b8945	-0.075945415
59	0xbe061d4d	-0.13097115
60	0x3e03e2ae	0.1287944
61	0x3c7df769	0.015500882
62	0x3bda0d97	0.006654452
63	0xbda6468f	-0.08118927
64	0xbcbece67	-0.02329178
65	0xbdb3678c	-0.087599844
66	0xbd68200b	-0.056671184
67	0xbda693cf	-0.08133661
68	0xbb96988f	-0.004595823
69	0xbbbe84f2	-0.005814188
70	0xbdd2c4cc	-0.10291442
71	0xbb12c3ed	-0.0022394613
72	0x3cdb4600	0.026766777
73	0x3dbe320c	0.092868894
74	0x3df6af37	0.12045138
75	0x3db008e7	0.08595448
76	0x3dcb3488	0.09922129
77	0x3d3eb9dd	0.04656397
78	0x3da44cdc	0.08022472
79	0x3d16df4c	0.036834046
80	0xbb41c0c2	-0.0029564356
81	0x3b8313a9	0.0040001464
82	0x3c3c7e9f	0.011504798
83	0x3de18deb	0.11013397
84	0x3d9c4825	0.07630948
85	0x3db36a84	0.087605506
86	0x3d9c2084	0.07623389
87	0x3bf15a31	0.007365488
88	0xbd222f52	-0.03959591
89	0xbca063d3	-0.01957885
90	0xbd84d1fd	-0.064853646
91	0x3bbfb94b	0.005850946
92	0x3d14bb25	0.036311287
93	0x3d82c5b1	0.06385363
94	0x3dac99e1	0.084277876
95	0x3dfa3698	0.12217444
96	0x3dea2ad6	0.114339516
97	0x3d787302	0.060656555
98	0x3d0038f4	0.031304315
99	0xbcf42983	-0.02980495
100	0xbb2c216a	-0.0026265034
101	0xbd815949	-0.06315858
102	0xbccfdfd6	-0.025375288
103	0xbd8bba8e	-0.06822692
104	0xbde0b950	-0.109728456
105	0xbd97e29b	-0.074162684
106	0xbd8e41d3	-0.06946149
107	0xbde985c2	-0.114024654
108	0xbd34f467	-0.044178393
109	0xbcee7523	-0.02910859
110	0xbdabb552	-0.083841935
111	0xbd5c0349	-0.05371407
112	0xbbbe5c26	-0.005809325
113	0x3de81021	0.11331201
114	0x3dacc5a1	0.08436132
115	0x3d83535d	0.06412385
116	0x3dc51032	0.0962223
117	0x3cdd32fd	0.027001852
118	0x3b8a0308	0.004211787
119	0xbd093322	-0.03349603
120	0xbd61c578	-0.05511996
121	0xbc983b9d	-0.018583113
122	0x3d4e20be	0.050324194
123	0x3d4ec100	0.050477028
124	0x3dab0ca1	0.08352018
125	0x3d3881d3	0.045045685
126	0x3ccbce56	0.024878662
127	0xbcd981a1	-0.02655107
128	0x3b946c71	0.004529529
129	0xbd4ab78d	-0.049491454
130	0xbdb29528	-0.087198555
131	0xbc4c25eb	-0.012460212
132	0x3c98f752	0.018672619
133	0x3d1cd2a4	0.03828682
134	0x3d989b10	0.07451451
135	0x3dfa0df4	0.122096926
136	0x3dda5b57	0.10661953
137	0x3cf9b8ee	0.03048369
138	0x3d8e6e5a	0.06954642
139	0x3cb69202	0.022286419
140	0xbc9fc004	-0.01950074
141	0xbced7134	-0.028984644
142	0xbdc46f67	-0.09591561
143	0xbd51d482	-0.051228054
144	0xbd975d21	-0.0739081
145	0xbd8659a1	-0.06560064
146	0xbd5ec2b1	-0.05438489
147	0xbdae3195	-0.08505551
148	0xbc1e433e	-0.0096595865
149	0xbdae0ec5	-0.08498911
150	0x3d0868c6	0.033303045
151	0xbcdaf001	-0.02672577
152	0x3ce47e3b	0.027892223
153	0xbbaea56b	-0.005329778
154	0xbd30c271	-0.043154184
155	0xbd52bd92	-0.05145032
156	0x3d581f4e	0.05276423
157	0xbc2ca7a0	-0.010538012
158	0x3ad9051f	0.0016557312
159	0x3d4d8ead	0.050184894
160	0xbc700aaf	-0.014650985
161	0x3ce200cc	0.02758827
162	0xbd3419b5	-0.04396983
163	0xba529e76	-0.0008034477
164	0x3d3d6da8	0.046247154
165	0xbcd3a575	-0.025835732
166	0xbd248ae6	-0.040171526
167	0x3d2eebc2	0.042705305
168	0x3ca1d3df	0.019754348
169	0xbccaf145	-0.02477325
170	0x3cb1774c	0.02166333
171	0xbbde4ebf	-0.0067842896
172	0x3dd3e5c4	0.10346559
173	0x3d9a240e	0.07526408
174	0x3d446efd	0.04795741
175	0x3d69e24b	0.057100575
176	0x3c6ff017	0.014644644
177	0xbd89f17f	-0.06735515
178	0xbd8b44b8	-0.068002164
179	0xbdfe7f9a	-0.12426682
180	0x3dcf68b6	0.10127394
181	0x3d7adf19	0.06124792
182	0x3db9ddcc	0.090755075
183	0x3d924d4b	0.07143649
184	0x3dbcb6a8	0.092145264
185	0x3dd74ed1	0.1051308
186	0x3d4ed72e	0.05049818
187	0xbdcf1715	-0.101118244
188	0xbdc67728	-0.09690696
189	0xbe0d40f4	-0.13794309
190	0xbd1b618e	-0.037934832
191	0x3dccb71a	0.09995861
192	0x3dd089dc	0.101825446
193	0x3dbfe050	0.09368956
194	0x3d5e4cdf	0.05427253
195	0x3dcf43f4	0.10120383
196	0xbb9667fd	-0.004590033
197	0xbd100599	-0.03516159
198	0xbd879690	-0.066205144
199	0xbe22f7e6	-0.15914878
200	0xbe021df5	-0.1270674
201	0xbc96e603	-0.018420225
202	0x3cda9b0e	0.026685264
203	0x3db70385	0.08936218
204	0x3db6a3b1	0.089179404
205	0x3dbd8e66	0.09255676
206	0x3dc189db	0.09450122
207	0x3db5e2ce	0.0888115
208	0x3d886e1c	0.06661627
209	0xbcade5f3	-0.021227812
210	0x3d11ca95	0.035593588
211	0x3b078142	0.002067641
212	0xbd8f3ca4	-0.06993988
213	0xbdddee51	-0.10836471
214	0xbe0a29af	-0.13492464
215	0xbe02157d	-0.1270351
216	0xbd926a72	-0.07149209
217	0xbe317223	-0.17328696
218	0xbdc38850	-0.09547484
219	0xbdf5a6ef	-0.11994731
220	0x3caed4af	0.02134165
221	0x3ca022f4	0.019547917
222	0xbd552ccb	-0.05204467
223	0x3ca175ee	0.019709554
224	0xbd4103bb	-0.0471227
225	0xb6c90c5c	-5.9917056e-06
226	0x3c179036	0.009250691
227	0xbd0464e8	-0.032322794
228	0xbc502ede	-0.0127064865
229	0xbd1b64d7	-0.037937965
230	0xbbe04899	-0.006844592
231	0xbcf1ca0f	-0.029515294
232	0x3c830642	0.015994195
233	0x3db5726f	0.08859717
234	0x3d3764c4	0.044773832
235	0x3de6b773	0.11265459
236	0x3d3aa4e8	0.045567423
237	0x3c86e971	0.016468735
238	0x3d5ea264	0.054354087
239	0xb9dd0668	-0.00042157178
240	0xbd28ec7f	-0.041241165
241	0x3d6e4ff4	0.058181718
242	0x3c8eff25	0.017455647
243	0x3da9a7eb	0.08283981
244	0x3d7b5db2	0.06136865
245	0x3d6758bf	0.05648112
246	0x3d952bef	0.0728377
247	0xb9f45338	-0.0004660131
248	0x3ccb1b26	0.024793219
249	0xbcd97343	-0.026544219
250	0x3e599ba2	0.21250775
251	0x3de6a5c0	0.11262083
252	0x3b890859	0.0041819033
253	0xbb24c11c	-0.0025139516
254	0xbd0852ba	-0.03328202
255	0xbd98f139	-0.074678846

features_extractor.fc_merge.bias f4 [352]
0	0xbce2bb35	-0.027677158
1	0x3d81df29	0.063413925
2	0x3cff0df7	0.031134589
3	0x3dc2581d	0.094894625
4	0x3d19be7f	0.037535187
5	0xbcf649b4	-0.030064441
6	0x3c902dc9	0.017599957
7	0x3d20e0ca	0.039276876
8	0xbd228f85	-0.039687652
9	0x3c5925f8	0.013253681
10	0xbd179ede	-0.037016742
11	0xbe0aac7e	-0.13542363
12	0x3ccc7878	0.024959788
13	0xbb8976a9	-0.0041950536
14	0x3a992d4d	0.0011686474
15	0x3be82688	0.0070846714
16	0xbd4e876f	-0.05042213
17	0x3cf05429	0.029337006
18	0x3d1b4a02	0.037912376
19	0x3c9918db	0.01868861
20	0xbb971a12	-0.004611262
21	0x3d366eec	0.044539377
22	0x3cbd928d	0.02314117
23	0x3cf39839	0.029735671
24	0xbca3a5c2	-0.0199765
25	0xbd128be6	-0.03577795
26	0x3ccd96e8	0.025096372
27	0x3cba78c7	0.02276267
28	0x3c96e2f0	0.01841876
29	0xbcdfbb94	-0.027311124
30	0x3bc21a97	0.00592358
31	0x3d513a41	0.051080946
32	0xbb408168	-0.0029374007
33	0x3d81519f	0.06314396
34	0x3d555562	0.05208338
35	0xbba064ce	-0.0048948294
36	0x3c8b01f9	0.016968714
37	0xbc92dfd9	-0.017929005
38	0x3c8c5211	0.017128976
39	0xbc8f38f4	-0.017483212
40	0x3bd23ca8	0.006415922
41	0xbd41d8e0	-0.04732597
42	0xbccbefd4	-0.024894632
43	0xbcfaa36c	-0.030595504
44	0x3d54c7d1	0.051948372
45	0xbc91b83e	-0.017788049
46	0x3d299cd3	0.041409325
47	0x3da94427	0.08264952
48	0xbd00f122	-0.031479962
49	0x3cb3b02a	0.021934588
50	0x3cce8588	0.025210157
51	0xbd826aac	-0.06368002
52	0x3cb9536c	0.022622786
53	0xbcb73a3c	-0.022366636
54	0xbd3ed403	-0.04658891
55	0xbcd8c86a	-0.026462752
56	0xbc2c3a5f	-0.010511964
57	0x3da517db	0.08061191
58	0x3c844c1e	0.016149577
59	0xbd322164	-0.043488875
60	0xbdb3e258	-0.08783406
61	0xbc6b1dd2	-0.014350371
62	0xbc8e35f4	-0.017359711
63	0x3d068cad	0.032849003
64	0xbbc7f18c	-0.0061017927
65	0xbcc1a7d7	-0.023639603
66	0xbcc7dce0	-0.024397314
67	0xbcf7271c	-0.030170016
68	0x3b4c9615	0.0031217386
69	0x3d6e66db	0.05820356
70	0x3d30bb53	0.043147396
71	0xbca67be1	-0.020322742
72	0x3cac3866	0.021022987
73	0xbceebf49	-0.029143946
74	0x3c24bdbf	0.010055005
75	0xbd48bd6c	-0.04900877
76	0xbc127d00	-0.008940935
77	0x3d5154d4	0.05110629
78	0xbd27bcef	-0.040951665
79	0xbd28a2a3	-0.041170727
80	0xbc2e8d80	-0.010653853
81	0x3db3fc16	0.08788316
82	0x3db357f7	0.08757012
83	0x3cd942bd	0.026521081
84	0xbd83995d	-0.06425736
85	0x3ce898ca	0.028393168
86	0xbb8fd06e	-0.0043888604
87	0x3b5a693c	0.0033326885
88	0xbcaba509	-0.020952718
89	0xbca20537	-0.019777877
90	0x3da900e2	0.082521215
91	0x3c06204f	0.008186414
92	0x3bdb3224	0.006689327
93	0x3c99f621	0.018794121
94	0xbd9d5e57	-0.076840095
95	0xba99d60e	-0.0011736767
96	0x3b95f423	0.0045762225
97	0x3d4f58ef	0.050621923
98	0x3d9d1164	0.076693326
99	0xbd24a2ed	-0.04019444
100	0xbc90ea35	-0.017689804
101	0x3d848b2c	0.064718574
102	0x3c700fb6	0.014652183
103	0xbd04419d	-0.032289136
104	0xbcfabfd2	-0.030609045
105	0xbd32b78e	-0.043632083
106	0x3de307b2	0.11085452
107	0x3d3a191a	0.045434095
108	0x3b98cf03	0.0046633496
109	0xbcc44489	-0.023958461
110	0x3d6cc5dd	0.057805885
111	0xbce7c262	-0.028290931
112	0x3d2b3063	0.041794192
113	0x3d5021ce	0.05081349
114	0xbd01cf88	-0.031692058
115	0xbcc31dc8	-0.023817912
116	0xbc9672a0	-0.018365204
117	0xbd424279	-0.047426675
118	0x3bd46e3b	0.006482867
119	0x3c96948f	0.018381385
120	0x3d857d48	0.06518036
121	0xbcb51718	-0.022105739
122	0x3d5c5ba4	0.053798333
123	0xbb20dcee	-0.0024545747
124	0xbce934fa	-0.028467644
125	0x3ccb2d65	0.02480192
126	0xbd2f2556	-0.042760216
127	0xbd3b5976	-0.045739613
128	0x3a0c153c	0.00053437403
129	0xbb34e172	-0.0027600196
130	0x3dbc44d8	0.091928184
131	0xbceb62cb	-0.028733632
132	0xbbf6883c	-0.0075235646
133	0xbda73958	-0.08165234
134	0xbd55e59d	-0.05222093
135	0x3d1255d0	0.03572637
136	0x3d65d500	0.056111336
137	0xbc70ba75	-0.014692892
138	0x3d30680e	0.043067984
139	0x3c202f68	0.0097769275
140	0xbcce4962	-0.025181476
141	0x3cf2266e	0.02955934
142	0xbcbc4ac9	-0.02298488
143	0xbd08c1ba	-0.033387877
144	0xbb4715ec	-0.0030378057
145	0xbca6e457	-0.020372553
146	0xbd4101c6	-0.047120832
147	0x3d6f71f4	0.058458284
148	0xbc6a393e	-0.014295874
149	0xbcde1670	-0.027110308
150	0xbd427754	-0.04747708
151	0xbc1ae2ba	-0.00945347
152	0xbc082f2f	-0.008312031
153	0xbd1616ce	-0.036642842
154	0x3cab92ee	0.020944085
155	0x3c8202a2	0.015870396
156	0x3d6e28b5	0.05814429
157	0x3d293eca	0.041319646
158	0x3d7517f4	0.059837297
159	0xbc8e023e	-0.017335054
160	0x3cbd9bd4	0.023145594
161	0x3ce1682d	0.027515495
162	0xbbee09d2	-0.0072643543
163	0xbd027ce8	-0.0318574
164	0x3cd06642	0.025439385
165	0x3c05fe95	0.008178373
166	0xbc26c1d2	-0.010178046
167	0xbcec2b1b	-0.028829148
168	0x3d066f38	0.03282091
169	0xbc96c023	-0.018402165
170	0x3cc5add9	0.024130749
171	0xbd2c1e94	-0.04202135
172	0x3c71e4de	0.014764039
173	0x3d13d3a2	0.0360905
174	0xbcbaa6ef	-0.022784678
175	0xbc85baa1	-0.016324343
176	0xbcb333c5	-0.021875272
177	0xbd2462dd	-0.040133346
178	0x3c48ccc2	0.012255849
179	0xbc8fd228	-0.017556265
180	0x3d322825	0.043495316
181	0x3db47ba6	0.088126466
182	0xbcb7c729	-0.022433834
183	0xbd43b76d	-0.04778235
184	0x3d0c71e4	0.034288302
185	0xbcb86a36	-0.022511583
186	0xbc90b986	-0.01766659
187	0xbd1dafa8	-0.038497597
188	0xbd896659	-0.067089744
189	0x3d590925	0.052987237
190	0xbcf3a443	-0.029741412
191	0xbc47d8d9	-0.012197697
192	0xbaadce4b	-0.0013260333
193	0x3d2be5c1	0.041967157
194	0xbceafb1c	-0.028684191
195	0x3d917963	0.07103231
196	0xbd41c17b	-0.047303658
197	0xbcbdadd2	-0.023154173
198	0x3bbd9708	0.0057858266
199	0x3d35367a	0.044241406
200	0x3cd0b729	0.025477963
201	0xbc347356	-0.011013826
202	0x3c55ee9d	0.013057378
203	0xb99e5f7c	-0.0003020725
204	0x3d58baee	0.052912645
205	0xbd892bc8	-0.06697804
206	0x3c5cd341	0.013478101
207	0xbd0a51f8	-0.033769578
208	0xbd148afb	-0.036265355
209	0x3bbfec25	0.005857008
210	0x3b51277e	0.0031914408
211	0x3d5bbdf6	0.053647958
212	0x3c24c2db	0.010056223
213	0x3d1a7a00	0.037714005
214	0xbb835ddf	-0.004008993
215	0x3da820cb	0.0820938
216	0x3db0e72c	0.086378425
217	0xbd167c13	-0.03673942
218	0xbbcd375f	-0.0062627043
219	0x3cd11c18	0.025526091
220	0x3d5258ba	0.051354147
221	0x3a955e16	0.0011395838
222	0x3d35e0bc	0.044403777
223	0xbd13eb8a	-0.0361133
224	0x3c3f212d	0.011665625
225	0x3d31dfa0	0.043426156
226	0x3d4f6cd6	0.050640903
227	0x3c850dd1	0.01624194
228	0x3c6b2ff3	0.014354694
229	0x3bccfe3d	0.0062558935
230	0xbcc45c99	-0.023969935
231	0x3d3f6184	0.046723858
232	0x3d99d169	0.07510645
233	0xbc711d16	-0.014716407
234	0x3d09482a	0.033516087
235	0xba577447	-0.0008218926
236	0x3cb424ae	0.021990146
237	0xbc8b3ade	-0.016995843
238	0xbd0b6b71	-0.03403801
239	0x3d100a7f	0.03516626
240	0xbd7c2c19	-0.061565492
241	0xbad56e7d	-0.0016283538
242	0x3b87ae9a	0.004140687
243	0xbd47fc87	-0.048824813
244	0xbce15674	-0.027507044
245	0xbcb04788	-0.021518484
246	0x3d4e382c	0.05034654
247	0x3d0d4730	0.034491718
248	0x3b732d4c	0.0037105856
249	0x3d90c7c3	0.070693515
250	0xba474992	-0.00076022104
251	0x3d5642af	0.05230969
252	0xbde47dbb	-0.11156794
253	0xbc84ba3d	-0.016202087
254	0x3c5a28a1	0.013315351
255	0x3d79bc27	0.06097045

actor.weight f4 [10, 352]
0	0x3d590f65	0.052993197
1	0x3d1a454c	0.037663743
2	0xbd1480a9	-0.036255512
3	0xbcbb939e	-0.022897538
4	0x3c3e37d0	0.011609986
5	0x3e114d0f	0.14189552
6	0xbd014ab8	-0.031565398
7	0x3bac52e2	0.005258904
8	0x3ca81e3f	0.020522235
9	0x3dead73a	0.114668325
10	0x3e07c128	0.13257277
11	0xbe0035ec	-0.1252057
12	0xbcb5097f	-0.022099255
13	0x3c7ef869	0.015562155
14	0xbc0d9064	-0.008640382
15	0x3d0bda63	0.034143817
16	0x3dd06fb5	0.101775564
17	0x3c7e8f58	0.0155371055
18	0x3bb21b40	0.0054353774
19	0x3d384418	0.044986814
20	0x3dc63655	0.09678332
21	0x3cbde3a4	0.023179837
22	0x3c13746f	0.008999928
23	0x3c9385e2	0.018008176
24	0xbcf8f841	-0.030391814
25	0x3a7cd23a	0.00096443633
26	0x3beda1e9	0.007251967
27	0x3ceaa489	0.02864291
28	0xbcfc28fa	-0.030781258
29	0xbcf62e6f	-0.030051438
30	0x3c91a06a	0.017776687
31	0xbc063cc9	-0.008193203
32	0xbc8a9438	-0.01691638
33	0xbad61e4c	-0.0016335933
34	0x3d18ca89	0.037302528
35	0x3dfbe882	0.12300207
36	0x3da67fda	0.081298545
37	0x3d69901f	0.05702221
38	0xbd79bbfb	-0.060970288
39	0xbda4a60c	-0.080394834
40	0x3d047bdf	0.032344695
41	0x3cbb1aaf	0.022839872
42	0xbe17cb6e	-0.14823696
43	0x3b7fd50d	0.00390369
44	0x3d997d10	0.07494557
45	0x3dcdc728	0.10047752
46	0xbd5746f3	-0.052557897
47	0x3d5658ff	0.052330967
48	0xbb305d98	-0.0026911255
49	0x3b8f6ac0	0.0043767393
50	0xbcb9c923	-0.022678917
51	0x3cfb14bc	0.030649535
52	0x3c97260a	0.018450756
53	0x3dad4a7d	0.08461473
54	0x3e218297	0.15772472
55	0x3c1d97a7	0.009618676
56	0x3d7cdee9	0.06173602
57	0x3c1ebf2e	0.0096891355
58	0xbab41af4	-0.0013740943
59	0x3e2c7590	0.16841722
60	0xbd5456d9	-0.051840637
61	0x3d8efb32	0.069815055
62	0x3ce59d7e	0.0280292
63	0xbb35d002	-0.002774239
64	0x3e80aa5f	0.25129983
65	0x3b4990c3	0.003075645
66	0x3d901e2c	0.07037005
67	0x3c90ceba	0.0176767
68	0x3c42b475	0.011883845
69	0xbd5bb874	-0.053642705
70	0x3d4a1d3d	0.04934429
71	0x3de7df0b	0.11321839
72	0x3cc4002c	0.023925863
73	0xbc58d999	-0.013235473
74	0xbc991507	-0.018686784
75	0xbc9bee5d	-0.019034559
76	0x3d091661	0.033468608
77	0xbd1a94d8	-0.037739605
78	0x3cceac92	0.025228772
79	0xbc9cedd7	-0.01915638
80	0x3d7a6958	0.06113562
81	0xbd2727cd	-0.04080944
82	0x3cb9af2f	0.022666542
83	0x3d1d617e	0.038423054
84	0x3bbcf072	0.005765968
85	0x3d80f631	0.06296957
86	0xbc888b62	-0.016668025
87	0xbcdac3ad	-0.026704634
88	0x3d98ebe2	0.07466866
89	0xbbf1fcd8	-0.0073848777
90	0x3c835372	0.016031
91	0xbd422011	-0.047393862
92	0xbd2494af	-0.04018086
93	0x3dcb11cc	0.09915504
94	0x3e00925f	0.12555836
95	0x3d867ff1	0.06567372
96	0xbcef02e9	-0.029176192
97	0xbdf1bf2c	-0.11804041
98	0x3cd03672	0.025416587
99	0xbd578929	-0.05262104
100	0x3d3faf9c	0.046798334
101	0x3ce3a28d	0.027787471
102	0x3e12c497	0.14332806
103	0x3dba1203	0.09085467
104	0x3cc1e1ec	0.023667298
105	0x3d4398f9	0.047753308
106	0xbd862cd6	-0.065515205
107	0xbce8cc31	-0.028417679
108	0xbc51cf3c	-0.012805756
109	0x3d6edb75	0.05831476
110	0x3c672b9d	0.014109519
111	0x3bfea300	0.007770896
112	0x3d759707	0.059958484
113	0xbb8240ba	-0.003975001
114	0xbcb276a2	-0.021785084
115	0x3e1914a4	0.1494928
116	0x3d38162b	0.044943016
117	0x3dde1425	0.10843686
118	0x3d998d07	0.07497602
119	0xbb006942	-0.0019593989
120	0x3d57ad58	0.052655548
121	0x3d00de2b	0.031461876
122	0xbcacd83c	-0.021099202
123	0x3d3d5b9a	0.046229936
124	0x3d5a3a3e	0.0532782
125	0xbc97abee	-0.0185146
126	0x3dcc38ab	0.09971746
127	0x3de234c6	0.11045222
128	0xbd0ccd41	-0.034375433
129	0x3b7ce6d5	0.0038589735
130	0xbc510c95	-0.012759347
131	0x3ac4857f	0.0014993398
132	0x3db09a78	0.086232126
133	0x3d779be6	0.06045141
134	0x3d0aec38	0.033916682
135	0xbd113bf0	-0.03545755
136	0x3d12dc39	0.035854552
137	0xbd6c60e2	-0.057709582
138	0x3c8b1632	0.016978357
139	0x3d072ef6	0.03300377
140	0x3d1f7db6	0.038938247
141	0x3d7ab196	0.061204515
142	0x3d834fea	0.06411727
143	0xbcf75249	-0.030190604
144	0x3d3bba01	0.045831684
145	0x3d83ba22	0.064319864
146	0x3d089bc6	0.033351682
147	0x3c8fa770	0.017535895
148	0x3e125203	0.14289097
149	0xbd502433	-0.050815772
150	0x3e1f7cb5	0.15574916
151	0x3d76674d	0.06015711
152	0x3d444ea2	0.047926553
153	0xbc3a16ab	-0.0113579435
154	0x3d341daf	0.04397362
155	0x3d96f4b2	0.07370891
156	0xbca7f888	-0.020504251
157	0x3c905864	0.017620273
158	0x3d565c7e	0.0523343
159	0x3da01963	0.07817342
160	0x3dac1e88	0.08404261
161	0xbbc39a29	-0.005969305
162	0x3e157948	0.14597046
163	0x3d0fb2cc	0.035082623
164	0xbc32e48f	-0.01091875
165	0xbb99fd3d	-0.004699378
166	0x3cc239d3	0.023709213
167	0x3e4a988d	0.19784756
168	0x3d5ceb38	0.05393526
169	0x3c911560	0.017710388
170	0xbc0d67c2	-0.008630695
171	0xbd516aa9	-0.05112711
172	0x3d372b95	0.044719297
173	0x3dbb4837	0.09144633
174	0x3d17f595	0.03709944
175	0x3d5f8ef1	0.05457968
176	0xbd07fa40	-0.03319764
177	0x3dcca504	0.09992412
178	0x3cc2fd42	0.023802403
179	0x3d039f05	0.032134075
180	0x3d0282f8	0.031863183
181	0x3c949165	0.018135736
182	0x3d1f8def	0.038953718
183	0xbbcbe18c	-0.0062219556
184	0xbc7d379b	-0.015455152
185	0x3d0a1f4a	0.033721246
186	0x3d1bbd00	0.03802204
187	0x3e1d4c0b	0.1536104
188	0x3d7f6e1c	0.062360868
189	0x3da45dd4	0.08025709
190	0x3c8009bb	0.01562964
191	0xbd355523	-0.044270646
192	0xbd3c91b6	-0.0460374
193	0x3c56bae6	0.0131060835
194	0x3d80c50a	0.06287582
195	0x3c8e470c	0.017367862
196	0x3dd31df0	0.103084445
197	0xbcefa861	-0.029255094
198	0xbcffb457	-0.031213922
199	0xbca3e777	-0.020007832
200	0x3cb33530	0.021875948
201	0x3e438cb4	0.19096643
202	0x3d64dbcd	0.05587368
203	0x3dc8df30	0.09808195
204	0xbcfe3364	-0.031030364
205	0x3dd628fe	0.104570374
206	0x3d29a9b0	0.041421592
207	0x3cd2b5b4	0.025721408
208	0x3c625421	0.013814003
209	0x3d8cd36e	0.068762645
210	0xbc5bcaf4	-0.013415087
211	0x3cbce3d8	0.023057863
212	0x3d272f23	0.040816437
213	0xbc1fcd93	-0.009753603
214	0x3dd081a5	0.10180978
215	0x3d5dd848	0.05416134
216	0x3d80abbe	0.06282757
217	0x3d189000	0.037246704
218	0xbc937c89	-0.018003719
219	0x3d8ca0ea	0.068666294
220	0xbd384f56	-0.044997536
221	0x3bd9d58e	0.006647772
222	0xbda88c15	-0.082298435
223	0x3d47e8de	0.048806064
224	0xbafa7726	-0.0019108995
225	0x3da488a9	0.08033878
226	0x3d77e427	0.060520317
227	0x3e32400f	0.17407249
228	0x3cbfa77c	0.023395292
229	0x3cc67c92	0.024229322
230	0x3e06d6e1	0.13167907
231	0x3e34267c	0.17592806
232	0xbd0e1a77	-0.034693208
233	0x3c8f0bf9	0.017461764
234	0x3b2912ae	0.0025798487
235	0x3de189d0	0.11012614
236	0x3d745082	0.05964709
237	0x3d05dc38	0.03268072
238	0x3e207077	0.15667902
239	0x3cc9db16	0.024640601
240	0x3de5786f	0.112046115
241	0x3c4960bc	0.01229113
242	0x3cebddb2	0.028792236
243	0x3d65c05f	0.056091662
244	0x3d106dfc	0.03526114
245	0x3da40da8	0.08010417
246	0xbc6e8bfe	-0.014559744
247	0xbe014b95	-0.12626489
248	0xbb621136	-0.0034495122
249	0x3ce27658	0.027644321
250	0x3c8bcfab	0.017066797
251	0xbc1b634d	-0.009484124
252	0x3cb3adf2	0.02193353
253	0xbd84696a	-0.06465419
254	0x3d608461	0.054813746
255	0x3a71d1f1	0.0009224704

actor.bias f4 [10]
0	0x3c7712ae	0.015080137
1	0xbcc8eab9	-0.024525987
2	0xbd94ea39	-0.07271237
3	0xbdcc8226	-0.09985761
4	0x3e279d71	0.16368653
5	0xbd417644	-0.047231928
6	0x3cabf2ef	0.020989863
7	0x3c3238fd	0.010877845
8	0x3d9730d4	0.0738236
9	0xbda22ddc	-0.07918903

critic.weight f4 [1, 352]
0	0x3d4bac5a	0.049724914
1	0x3dc94a0f	0.09828579
2	0x3d877ac6	0.06615214
3	0x3db063ee	0.0861281
4	0xbbcdc6d2	-0.0062798047
5	0xbd8d00df	-0.06884932
6	0x3d3423e3	0.043979537
7	0x3d13c380	0.036075115
8	0xbd7d16fd	-0.0617895
9	0xbda86d2d	-0.08223949
10	0xbd8dd69d	-0.069257
11	0xbddd88a6	-0.10817079
12	0x3da44898	0.08021659
13	0x3d7ebc9b	0.062191587
14	0x3d7f6576	0.06235262
15	0x3cb0b59d	0.021570975
16	0xbd91a8a9	-0.071122475
17	0x3cee43c9	0.029085057
18	0x3d40193d	0.04689907
19	0x3c8069a6	0.015675377
20	0xbd83d49a	-0.06437035
21	0x3d806967	0.06270104
22	0x3d28e29e	0.041231744
23	0x3cefe08f	0.029281883
24	0x3d900a4e	0.070332155
25	0x3d3489b9	0.044076655
26	0x3d040579	0.03223178
27	0x3d0fab49	0.03507546
28	0x3d8e6bee	0.0695418
29	0x3d331f17	0.04373082
30	0x3d5fe940	0.054665804
31	0x3daa28a5	0.083085336
32	0x3df069d0	0.11738932
33	0x3db4a0a7	0.088197045
34	0x3d60e080	0.0549016
35	0xbc8049db	-0.015660217
36	0xbd054f1f	-0.03254616
37	0x3d6064e6	0.054783724
38	0x3d79635c	0.060885772
39	0x3d0747e3	0.03302754
40	0xbcad5afc	-0.021161549
41	0xbd93a9b8	-0.07210106
42	0xbd83c61b	-0.0643427
43	0x3d4463f2	0.047946878
44	0x3cb7a96c	0.022419654
45	0xbd9e97df	-0.07743811
46	0x3d2fc760	0.04291475
47	0x3d8fb3d2	0.0701672
48	0x3d75d2b6	0.060015403
49	0x3d9c356a	0.076273754
50	0x3d39fc28	0.04540649
51	0xbd55f64a	-0.052236833
52	0xbce14075	-0.027496556
53	0xbdbeacb1	-0.09310282
54	0xbdab2e21	-0.08358408
55	0x3c25bff6	0.010116568
56	0xbd59558d	-0.053060103
57	0x3d6b38f6	0.05742737
58	0x3d8ad28e	0.06778441
59	0xbd7cf21b	-0.061754327
60	0xbcb1e482	-0.021715406
61	0x3d97128a	0.07376583
62	0x3d514db6	0.0510995
63	0x3d6c0a67	0.057627108
64	0xbcf1912f	-0.029488174
65	0x3d4828a8	0.048866898
66	0x3c8a2281	0.016862156
67	0xbd46c766	-0.048530005
68	0xbd2a8df6	-0.04163929
69	0x3d341701	0.04396725
70	0x3d94d2dd	0.072667815
71	0xbdbd9b4c	-0.09258136
72	0x3d6e5e35	0.05819531
73	0x3d14c43b	0.036319952
74	0x3b0be855	0.0021348197
75	0xbc9356ea	-0.01798578
76	0xbd99f288	-0.07516962
77	0x3d35da34	0.044397548
78	0xbd4c7efd	-0.049925793
79	0x3d35c44c	0.044376656
80	0x3d661c38	0.056179255
81	0x3d4bf148	0.04979065
82	0x3d1ee88d	0.038795996
83	0xbbb8967c	-0.0056331735
84	0xbd3bdfc6	-0.045867704
85	0x3d35fa19	0.044427965
86	0x3d24ecf7	0.04026505
87	0xbd19bef6	-0.03753563
88	0xbd8eb6e7	-0.069684796
89	0xbbbf2134	-0.0058328155
90	0x3d7b235a	0.06131301
91	0x3d2fbe4b	0.042906087
92	0x3d410f11	0.04713351
93	0xbd0aaa12	-0.033853598
94	0xbd9e2d61	-0.07723499
95	0xbd2f5edd	-0.042815078
96	0x3d6a6e87	0.057234313
97	0x3d28c795	0.04120596
98	0x3db2916e	0.08719145
99	0xbd178448	-0.036991388
100	0x3d231944	0.039819017
101	0x3d2a21c2	0.0415361
102	0xbd5deffe	-0.054183953
103	0xbd67065b	-0.056402545
104	0xbd0415f1	-0.032247487
105	0xbd82b8ee	-0.06382929
106	0x3dcf20fc	0.10113713
107	0x3d6be7d7	0.057594147
108	0x3d638a1e	0.05555164
109	0xbbe156e1	-0.006876812
110	0x3c265816	0.010152837
111	0xbd87ac8d	-0.06624708
112	0x3d8d4414	0.068977505
113	0x3d85105d	0.06497262
114	0x3e07b8be	0.13254067
115	0xbd6b4f03	-0.0574484
116	0xbca51e05	-0.020155916
117	0xbd827182	-0.06369306
118	0xbd81b10f	-0.06332599
119	0x3d93fce5	0.0722597
120	0x3d428d1a	0.047497846
121	0x3dfbd237	0.12295955
122	0x3d9fb40b	0.07798012
123	0x3d96ad7d	0.07357309
124	0x3d87c305	0.06628994
125	0x3d1a94ab	0.037739437
126	0xbdb1c2cb	-0.08679732
127	0xbceba058	-0.028762981
128	0x3d0d43c9	0.034488473
129	0x3d05cba6	0.032664917
130	0x3da1ec08	0.079063475
131	0x3d5a760a	0.053335227
132	0xbd9e2b12	-0.07723059
133	0xbd66281a	-0.056190588
134	0xbd24dfb0	-0.040252388
135	0x3d212af4	0.039347604
136	0x3ccd2068	0.025039867
137	0x3d3b3a0e	0.045709662
138	0x3d7980e1	0.060913924
139	0x3d74bb60	0.059749007
140	0x3d467ba2	0.04845775
141	0x3d45d1a3	0.04829563
142	0x3d1f1b1c	0.038844213
143	0x3d8e0e72	0.06936349
144	0x3ccd1dc2	0.025038604
145	0xbd9ae71f	-0.07563614
146	0xbd823a99	-0.06358833
147	0x3d412bb3	0.047160815
148	0xbd407b1c	-0.046992406
149	0x3c8fabb4	0.01753793
150	0xbdd98b55	-0.106222786
151	0x3dbc9fd0	0.09210169
152	0xbd833fc4	-0.06408647
153	0x3d499237	0.049211707
154	0xbcc135c2	-0.023585204
155	0xbd6ce5ab	-0.057836216
156	0x3d407984	0.046990886
157	0x3da52b84	0.080649406
158	0x3d8bb722	0.06822039
159	0xbcce2419	-0.025163697
160	0x3cb58e69	0.022162633
161	0x3d5bfa44	0.05370547
162	0xbdcd6164	-0.100283414
163	0xbcad0132	-0.021118734
164	0x3dd99e8a	0.10625942
165	0x3cac7f5a	0.02105682
166	0xbd844109	-0.06457717
167	0xbd8ebbc1	-0.06969405
168	0x3d4e7e5a	0.050413467
169	0x3d3b1d43	0.045682203
170	0x3d817277	0.063206606
171	0x3d22cfdf	0.039749023
172	0xbd16d496	-0.03682383
173	0x3d561e3c	0.052274927
174	0xbd949f99	-0.07257003
175	0xbd007205	-0.031358737
176	0x3ccc0d37	0.024908645
177	0xbce72896	-0.028217595
178	0x3db7a00a	0.08966072
179	0x3d08ee4b	0.03343038
180	0x3d2141af	0.03936928
181	0x3d963960	0.07335162
182	0xbd89b941	-0.067247875
183	0xbbeed636	-0.0072887195
184	0x3c8d20a1	0.017227473
185	0xbd86ef58	-0.0658862
186	0x3c871e0f	0.016493825
187	0xbdacdede	-0.08440946
188	0xbd2ead3b	-0.042645674
189	0x3d371f63	0.044707667
190	0x3d9d3105	0.07675365
191	0x3d4dab1b	0.050212007
192	0x3d3360aa	0.043793358
193	0x3c8f1721	0.017467083
194	0xbdb5d9b7	-0.088794164
195	0x3d0c00e7	0.034180548
196	0xbd99ddfe	-0.07513045
197	0x3da24ae0	0.079244375
198	0xbaa60e40	-0.0012669042
199	0xbd591188	-0.052995235
200	0x3d8790a1	0.06619383
201	0xbcc21edc	-0.023696356
202	0x3d36eb25	0.044657845
203	0xbd0e78a1	-0.03478301
204	0x3e236eff	0.1596031
205	0xbcd34de4	-0.025793977
206	0x3dc74169	0.09729273
207	0xbd0351fe	-0.032060616
208	0x3d34bdff	0.044126507
209	0xbd5f778c	-0.05455737
210	0xbd8b8ad0	-0.06813586
211	0x3d4c08ce	0.049813084
212	0x3d052517	0.032506075
213	0x3d4c31e4	0.049852267
214	0xbd3dd172	-0.04634232
215	0x3cc0ad4d	0.023520136
216	0x3e073bfc	0.13206476
217	0xbd440311	-0.047854487
218	0x3d91ed8c	0.071253866
219	0x3c7325ce	0.014840556
220	0x3cf4cf66	0.029884052
221	0xbcddc7ad	-0.027072752
222	0x3d710381	0.058841232
223	0x3cab117c	0.02088236
224	0x3d57ce35	0.05268689
225	0xbd643e80	-0.055723667
226	0x3d975f60	0.07391238
227	0xbdb6019c	-0.08887026
228	0xbbb1a157	-0.0054208445
229	0x3d5a2790	0.053260386
230	0xbca70c84	-0.02039171
231	0xbddd083a	-0.10792585
232	0x3d86f0a0	0.06588864
233	0xbc7ed66f	-0.015554055
234	0x3d86a077	0.06573575
235	0xbd43aacb	-0.047770303
236	0xbd8ece10	-0.06972897
237	0x3d63b1b4	0.055589393
238	0xbd8300c9	-0.06396634
239	0x3cfd4748	0.030917779
240	0xbd24d825	-0.040245194
241	0x3ce44eeb	0.027869662
242	0xba5cba1b	-0.0008420066
243	0xbd290fb4	-0.04127474
244	0xbc985587	-0.01859547
245	0xbd18cb5e	-0.03730332
246	0x3d082d09	0.033246074
247	0x3c2e20a8	0.010627903
248	0x39d7be6a	0.00041149865
249	0x3d87e8a2	0.06636168
250	0xbd0576fa	-0.032584168
251	0x3d8c245b	0.06842872
252	0xbc2af7f2	-0.010435091
253	0x3d31b773	0.04338784
254	0xbd8c3c57	-0.068474464
255	0x3d6eda70	0.058313787
