carlike_gym/model_440.pth (torch, 526994 bytes, 11 tensors)

features_extractor.conv1.weight f4 [16, 4, 4]
-0.1231474 0.18435946 0.076892406 -0.022335887 0.24737722 -0.10082567 0.14532912 0.0783698
-0.23821795 -0.23691648 -0.21898216 0.032395214 -0.22996801 0.012229085 -0.23483437 0.03427729
0.28638878 0.21877468 0.215677 0.059387654 -0.2053731 -0.11263955 0.23466879 -0.16042885
-0.052609913 -0.14798218 0.11057769 0.12881647 -0.03086503 -0.026831016 0.11031069 -0.03398898
-0.11304804 0.14853278 -0.07192277 -0.12329833 0.18059288 0.097669914 -0.19073044 0.00043412938
-0.060638625 -0.13586354 0.22517073 -0.07113728 0.21977057 0.19059129 -0.12599424 -0.0127588855
0.13842402 0.20672503 0.02809778 -0.055758562 -0.12779102 -0.12402561 -0.20476319 -0.007285259
0.101282254 -0.041484978 -0.08400612 -0.15722162 0.24464943 -0.09339655 0.06607928 -0.02780256
0.24698627 0.13197412 -0.011127193 0.03283905 -0.07549246 0.0053459574 -0.07891641 0.023971079
-0.23540059 0.119864024 -0.07801285 0.19475727 0.078007445 -0.24165675 0.17651701 0.0518832
-0.2884317 -0.018175732 -0.13861121 0.11290383 0.12776506 0.15745503 0.13111156 0.08338106
0.023556583 -0.17468682 0.17261744 0.22421925 -0.20298767 0.16463149 -0.031188436 0.13801871
0.24244253 0.22030176 0.3043826 -0.12212847 0.23003095 0.17483537 0.07015844 -0.23991263
-0.209743 -0.17974477 0.057370737 0.17133674 0.0066555175 0.2366151 -0.15138116 0.1926175
-0.14557116 0.20533879 0.17168182 0.07753112 -0.12724684 -0.0017600032 -0.020937543 0.11189574
0.11772074 0.16259524 -0.11711363 -0.036442623 -0.22884098 0.16935456 -0.1964986 0.09225531
0.033676427 0.03867722 -0.2706524 -0.13546033 -0.19230843 0.05690449 0.24224955 -0.18325974
-0.16846636 0.27337307 -0.012844568 -0.1809889 0.1843014 -0.049715973 0.12791908 0.028833997
0.19411659 0.021314835 -0.24231952 -0.21707797 0.14004306 0.028037503 0.09975816 0.1780774
-0.17799242 -0.025458341 0.09265584 -0.084397174 -0.020789457 -0.09101609 -0.025543597 0.26890874
-0.024419414 -0.02271718 -0.1889736 -0.1813378 0.27265987 -0.14130057 -0.16798502 -0.11865319
-0.07447267 0.04859404 0.047779195 0.23321855 0.029228523 0.058014233 0.15053244 -0.09198432
0.22430909 0.27804092 -0.046557434 -0.09245607 0.026582189 -0.15211609 0.100752324 0.19363402
0.13906875 -0.058589336 -0.15459402 -0.17588182 -0.23188847 0.17705539 -0.07962167 0.19476701
0.11296871 0.25218502 0.18220243 0.17899558 0.14859195 0.037272498 -0.08559105 -0.018076945
-0.14853032 0.06567384 0.08646536 0.025199587 0.02632877 -0.17328544 -0.16396782 -0.1427016
-0.17737477 0.17700478 0.11735109 0.22529508 -0.23518845 0.019864667 0.17467819 0.15010208
-0.15029073 -0.045086935 -0.09237398 -0.18652731 -0.03714711 0.07476783 0.1623864 0.14062592
-0.006226496 0.12343414 -0.023817398 -0.04151109 -0.08141675 0.06106917 -0.0016796772 -0.24921526
-0.11081336 -0.0079243425 -0.16720815 0.05890212 0.055935346 0.20177174 0.0926225 0.11361893
-0.055751503 0.028868228 -0.2378996 -0.24193898 -0.13055134 -0.06964499 0.07776183 -0.21078828
0.085449755 -0.13405216 -0.047538996 -0.19385433 0.15704963 -0.024531454 -0.232712 0.24081218
00000000: b434 fcbd bac8 3c3e c479 9d3d c0f9 b6bc
00000010: 7450 7d3e b07d cebd 28d1 143e 5880 a03d
00000020: 68ef 73be 3c9a 72be dc3c 60be d8b0 043d
00000030: bc7c 6bbe 805c 483c 6c78 70be 5866 0c3d
00000040: 8da1 923e 7806 603e 6eda 5c3e 7840 733d
00000050: 534d 52be 90af e6bd 044d 703e 7647 24be
00000060: 7e7d 57bd a488 17be 8e76 e23d 77e8 033e
00000070: a9d8 fcbc b8cc dbbc 92ea e13d 0738 0bbd
00000080: bb85 e7bd fa18 183e 3f4c 93bd d683 fcbd
00000090: 57ed 383e 2a07 c83d d74e 43be dc9b e339
000000a0: 3560 78bd d01f 0bbe 2893 663e 6cb0 91bd
000000b0: 890b 613e 5d2a 433e a204 01be a50a 51bc
000000c0: 07bf 0d3e baaf 533e 512d e63c 1763 64bd
000000d0: a6db 02be 2401 febd 71ad 51be 2fb9 eebb
000000e0: 126d cf3d 27ec 29bd 670b acbd b4fe 20be
000000f0: 6185 7a3e b146 bfbd 9354 873d 32c2 e3bc
00000100: f8e9 7c3e 3924 073e d54e 36bc 3d82 063d
00000110: ca9b 9abd 242d af3b ed9e a1bd ff5e c43c
00000120: da0c 71be 457b f53d 33c5 9fbd 736e 473e
00000130: 5ec2 9f3d de74 77be e0c0 343e 7a83 543d
00000140: 52ad 93be 46e5 94bc 19f0 0dbe 203a e73d
00000150: d8d4 023e e43b 213e 1c42 063e b0c3 aa3d
00000160: bcf9 c03c 1ae1 32be a0c2 303e bb99 653e
00000170: 00dc 4fbe 2895 283e e47e ffbc c754 0d3e
00000180: db42 783e c996 613e 09d8 9b3e 7e1e fabd
00000190: 3c8d 6b3e 0b08 333e 3aaf 8f3d a8ab 75be
000001a0: dec6 56be 030f 38be 94fd 6a3d e672 2f3e
000001b0: 8716 da3b 3b4b 723e aa03 1bbe 863d 453e
000001c0: 9b10 15be 5544 523e 5ccd 2f3e a3c8 9e3d
000001d0: ff4c 02be e8af e6ba 3685 abbc 9829 e53d
000001e0: 9217 f13d 5e7f 263e 45d9 efbd dc44 15bd
000001f0: 4a55 6abe 486b 2d3e ee36 49be 5af0 bc3d
00000200: 4bf0 093d 016c 1e3d f492 8abe 1db6 0abe
00000210: 80ec 44be af14 693d 4410 783e 71a8 3bbe
00000220: 7282 2cbe 8ef7 8b3e 0672 52bc 2755 39be
00000230: 82b9 3c3e faa2 4bbd 38fd 023e 4635 ec3c
00000240: 80c6 463e 739c ae3c 9c22 78be b049 5ebe
00000250: 7367 0f3e e8ae e53c 024e cc3d ec59 363e
00000260: a543 36be 038e d0bc 58c2 bd3d 6dd8 acbd
00000270: a74e aabc a566 babd ce40 d1bc 68ae 893e
00000280: 390b c8bc 6119 babc 4c82 41be 9eb0 39be
00000290: 139a 8b3e 19b1 10be 4404 2cbe 7200 f3bd
000002a0: 2185 98bd 8b0a 473d 1eb4 433d d8d0 6e3e
000002b0: a870 ef3c 55a0 6d3d 2d25 1a3e 4662 bcbd
000002c0: 48b1 653e 615b 8e3e 02b3 3ebd 9c59 bdbd
000002d0: e4c2 d93c 52c4 1bbe 3c57 ce3d ff47 463e
000002e0: 0a68 0e3e 5ffb 6fbd e54d 1ebe 5d1a 34be
000002f0: 2c74 6dbe 024e 353e b010 a3bd 0171 473e
00000300: 245c e73d 651e 813e 4693 3a3e 9e4a 373e
00000310: 7d28 183e 0cab 183d 5c4a afbd 1a16 94bc
00000320: 5518 18be 0280 863d c014 b13d 5d6f ce3c
00000330: 6faf d73c bd71 31be 2ee7 27be 5e20 12be
00000340: bba1 35be be40 353e c555 f03d c1b3 663e
00000350: 3ed5 70be 3abb a23c d7de 323e 5cb4 193e
00000360: d0e5 19be 14ad 38bd 922e bdbd 0401 3fbe
00000370: 9127 18bd e01f 993d 9f48 263e 3e00 103e
00000380: a207 ccbb 0acb fc3d b41c c3bc 8807 2abd
00000390: d3bd a6bd aa23 7a3d 9d28 dcba 4932 7fbe
000003a0: 1df2 e2bd 1ad5 01bc 9d38 2bbe 5943 713d
000003b0: 761c 653d 409d 4e3e deb0 bd3d 0bb1 e83d
000003c0: b05b 64bd 107d ec3c f49b 73be dabe 77be
000003d0: 40af 05be 08a2 8ebd 9841 9f3d e2d8 57be
000003e0: 4800 af3d f844 09be 40b8 42bd c081 46be
000003f0: 9ed1 203e 30f6 c8bc 0e4c 6ebe 7897 763e

features_extractor.conv1.bias f4 [16]
-0.15207794 -0.10989604 -0.1905175 0.2744833 0.09908657 -0.07861713 -0.0039820126 -0.10795747
0.19003184 -0.16200069 0.24361013 -0.09592746 -0.08799769 -0.19927254 -0.122281425 -0.028524041
00000000: 52ba 1bbe 2d11 e1bd 0517 43be 1389 8c3e
00000010: e6ed ca3d 0502 a1bd 8b7b 82bb ce18 ddbd
00000020: b597 423e 82e3 25be ef74 793e 9e75 c4bd
00000030: 2238 b4bd 1a0e 4cbe af6e fabd 40ab e9bc

features_extractor.conv2.weight f4 [32, 16, 4]
0.0136013925 -0.014879495 0.061101496 0.058958724 0.19034278 0.06105871 -0.03126499 0.16965638
0.074745245 -0.031837825 -0.0786317 0.03903861 0.07236995 0.08677636 0.16698724 0.13352136
-0.002480582 -0.08551047 0.13817444 0.0033192567 -0.005191252 -0.07572996 0.01684622 -0.12790492
-0.018289678 0.044441737 0.012334747 -0.020610914 -0.0059064687 -0.010245836 0.109376825 -0.075348996
-0.1245725 -0.028840162 0.058337852 -0.042198375 -0.23607987 -0.15856604 -0.10845635 -0.119995706
-0.013753014 -0.1143187 -0.05482521 0.03388398 0.13263535 0.009866163 0.07950065 0.016579721
0.1850179 0.1536512 0.020798668 0.11250904 -0.03836912 -0.035171524 0.11951758 -0.12002142
-0.0010925587 0.03752288 0.11937877 0.0060152877 0.062372103 -0.01756601 -0.07093373 -0.08095217
0.0017452389 0.041208282 0.12464599 -0.031894162 -0.0063785557 0.12159413 0.15837608 0.03798354
0.08368559 -0.12186975 -0.038734097 -0.110904165 0.053966448 0.05138844 0.030417595 0.04160079
-0.056990303 0.07241139 0.095024504 -0.06816738 -0.06949073 -0.09482043 -0.00449567 -0.09389436
0.011064749 0.07272868 0.082735315 0.06363344 -0.011813833 0.1319218 0.015814336 -0.14540766
-0.10772974 -0.21849011 -0.11922171 -0.025416166 -0.18250427 -0.2340573 -0.10083211 -0.23120317
-0.11162048 -0.10894459 -0.14956695 -0.019289207 0.15075618 0.14374204 0.035578333 -0.02930883
0.20321637 0.2044225 0.07158583 0.03024317 0.010787231 0.12865117 -0.01135741 -0.04289809
0.12218283 0.046511628 -0.041518092 0.07251802 0.06432594 0.12451111 -0.09249173 -0.054983646
0.069612205 -0.103040144 -0.051260903 -0.11971234 0.03263384 0.008744612 0.007268727 0.006779462
0.056526423 -0.013206661 -0.07226233 -0.09140657 0.0004363805 -0.037634745 0.071680054 0.023255885
-0.02321282 -0.03505154 -0.05612856 -0.0585206 0.092813194 -0.028517947 -0.010092288 0.06667791
0.067072794 -0.115814656 -0.097981706 0.0012506992 0.042786956 0.06332396 -0.08549617 -0.05089189
-0.01713711 0.026733026 -0.09228921 -0.070892915 0.0019741952 0.024278954 -0.1139552 0.09530464
-0.060981825 0.08688046 0.08840267 -0.095944345 -0.041212335 0.039374307 -0.10200472 -0.11230099
-0.04076661 0.054127663 -0.058292165 -0.07294218 -0.029276922 0.06002906 0.040282488 -0.03732547
0.11342065 0.020828828 -0.015801594 -0.07034139 -0.10970485 -0.073906496 -0.04850802 -0.05238989
0.0010865182 0.048609704 -0.12228958 0.11078009 0.13989738 0.14798573 0.019086875 -0.06621993
0.012308747 0.12343214 0.007885433 0.039897587 0.14521681 0.1355039 0.1423154 0.18087575
0.03384439 0.056470428 -0.009604886 -0.03478896 -0.02777378 -0.103415735 -0.06693784 -0.11148105
0.057677615 0.066014454 0.08832955 0.0068874867 0.067285575 0.09501206 -0.1045049 -0.13419966
0.027312044 0.11840977 0.0066664973 0.07736729 -0.17322387 -0.048389714 0.08945922 -0.04850937
-0.13060592 -0.14478244 -0.12046789 0.020651706 0.13293876 0.10932224 0.221707 0.07002908
0.30275923 0.051650856 0.037825253 0.026466379 0.118330814 -0.080843925 -0.11868336 0.040791884
0.14212054 -0.028652601 0.045561515 -0.084658444 0.0592186 0.042049766 -0.100271076 -0.110232934
00000000: 60d8 5e3c 20c9 73bc 9045 7a3d b47e 713d
00000010: 38e9 423e b318 7a3d b80f 00bd 67ba 2d3e
00000020: 0914 993d 6168 02bd a809 a1bd f3e6 1f3d
00000030: b236 943d ceb7 b13d b4fe 2a3e d3b9 083e
00000040: 4391 22bb 1d20 afbd 9a7d 0d3e e387 593b
00000050: 611b aabb 4f18 9bbd 1501 8a3c 82f9 02be
00000060: 3cd4 95bc 8a08 363d ae17 4a3c 38d8 a8bc
00000070: 0d8b c1bb 27de 27bc f500 e03d 9350 9abd
00000080: de1f ffbd 3442 ecbc acf3 6e3d 34d8 2cbd
00000090: ecbe 71be 235f 22be 5d1e debd 4fc0 f5bd
000000a0: 5254 61bc ec1f eabd 6690 60bd eec9 0a3d
000000b0: 90d1 073e b0a5 213c 3dd1 a23d 32d2 873c
000000c0: 5575 3d3e bd56 1d3e f861 aa3c 246b e63d
000000d0: f028 1dbd 0410 10bd a2c5 f43d cacd f5bd
000000e0: 3034 8fba 97b1 193d db7c f43d e41b c53b
000000f0: e479 7f3d 98e6 8fbc b445 91bd 40ca a5bd
00000100: 80c0 e43a 04ca 283d 6646 ff3d 74a3 02bd
00000110: 3403 d1bb 5806 f93d 572d 223e a194 1b3d
00000120: 5a63 ab3d d996 f9bd a5a7 1ebd b921 e3bd
00000130: ec0b 5d3d af7c 523d 522e f93c 9765 2a3d
00000140: aa6e 69bd 6c4c 943d 359c c23d 579b 8bbd
00000150: 2851 8ebd 3731 c2bd 6a50 93bb b04b c0bd
00000160: ec48 353c c6f2 943d 2271 a93d 4052 823d
00000170: cf8e 41bc 8216 073e 118d 813c bfe5 14be
00000180: 69a1 dcbd dfbb 5fbe 832a f4bd 9035 d0bc
00000190: 66e2 3abe b8ac 6fbe 1181 cebd 86c0 6cbe
000001a0: 4799 e4bd 571e dfbd 1428 19be 6604 9ebc
000001b0: d45f 1a3e 1d31 133e 96ba 113d 1219 f0bc
000001c0: f417 503e 2254 513e 979b 923d 86c0 f73c
000001d0: edbc 303c 22bd 033e 6e14 3abc e8b5 2fbd
000001e0: fe3a fa3d fa82 3e3d e00e 2abd 5484 943d
000001f0: 52bd 833d aeff fe3d 4e6c bdbd 8836 61bd
00000200: d890 8e3d b606 d3bd f4f6 51bd be2b f5bd
00000210: 10ab 053d 9045 0f3c 802e ee3b 4026 de3b
00000220: 4088 673d c060 58bc 46fe 93bd 5e33 bbbd
00000230: 00ca e439 e426 1abd fecc 923d 2083 be3c
00000240: d028 bebc 3492 0fbd 10e7 65bd 4cb3 6fbd
00000250: d814 be3d 789e e9bc 205a 25bc 6e8e 883d
00000260: 765d 893d 3c30 edbd a2aa c8bd 80ee a33a
00000270: 6041 2f3d feaf 813d 9e18 afbd 0474 50bd
00000280: 2063 8cbc 38ff da3c 2002 bdbd 4e30 91bd
00000290: 8061 013b a8e4 c63c 5861 e9bd 142f c33d
000002a0: 14c8 79bd 62ee b13d 760c b53d 787e c4bd
000002b0: 44ce 28bd f446 213d dae7 d0bd 10fe e5bd
000002c0: e4fa 26bd f8b4 5d3d c4c3 6ebd b662 95bd
000002d0: 28d6 efbc 08e1 753d 40ff 243d 98e2 18bd
000002e0: 1649 e83d 38a1 aa3c 5872 81bc 260f 90bd
000002f0: f0ac e0bd 4a5c 97bd 58b0 46bd c896 56bd
00000300: 8069 8e3a f81a 473d f672 fabd ace0 e23d
00000310: 4241 0f3e 9289 173e 145c 9c3c 519e 87bd
00000320: a0aa 493c fdc9 fc3d e731 013c a76b 233d
00000330: b7b3 143e 89c1 0a3e 21bb 113e 7e37 393e
00000340: 6aa0 0a3d 894d 673d d05d 1dbc de7e 0ebd
00000350: d785 e3bc a1cb d3bd b516 89bd 2d50 e4bd
00000360: 5d3f 6c3d 9632 873d 20e6 b43d 6db0 e13b
00000370: 05cd 893d af95 c23d aa06 d6bd a36b 09be
00000380: 82bd df3c d280 f23d a272 da3b be72 9e3d
00000390: 9961 31be 4b34 46bd 6536 b73d c3b1 46bd
000003a0: 8fbd 05be d941 14be deb7 f6bd c42d a93c
000003b0: 1921 083e 57e4 df3d 2907 633e 686b 8f3d
000003c0: 4203 9b3e d98f 533d a7ee 1a3d 05d0 d83c
000003d0: 6d57 f23d 8091 a5bd 4310 f3bd 6415 273d
000003e0: 0c88 113e dcb8 eabc b69e 3a3d 6861 adbd
000003f0: 348f 723d 603c 2c3d ec5a cdbd cec1 e1bd

features_extractor.conv2.bias f4 [32]
-0.026164984 0.02712584 -0.10209003 -0.014197583 -0.1331694 -0.021240383 0.06320358 -0.013603904
-0.08518494 0.047409143 -0.027342347 -0.046162065 0.03118594 -0.032012433 0.15529954 0.007214293
-0.125549 -0.0074253036 -0.026353877 -0.119592495 -0.04706596 0.04071215 0.023069194 -0.037687518
0.048314035 0.0617196 -0.01621615 -0.11308552 -0.08603854 -0.11433144 -0.11168661 -0.111974984
00000000: f357 d6bc 0237 de3c 9414 d1bd fb9c 68bc
00000010: 8f5d 08be 5000 aebc e170 813d e9e2 5ebc
00000020: 7175 aebd 1730 423d 0ffd dfbc 6f14 3dbd
00000030: a879 ff3c 781f 03bd d806 1f3e e065 ec3b
00000040: eb8f 00be f64f f3bb 16e4 d7bc e9ec f4bd
00000050: 3cc8 40bd c9c1 263d 9bfb bc3c 3a5e 1abd
00000060: f0e4 453d b1cd 7c3d bbd7 84bc 6299 e7bd
00000070: f934 b0bd 9a26 eabd f3bb e4bd 2453 e5bd

features_extractor.fc_op.weight f4 [32, 3]
0.51422566 -0.33027574 0.21572751 -0.4791755 -0.35979882 0.47258818 0.054697875 0.017734539
0.41781342 0.5421963 -0.022937633 0.54562265 -0.57343215 0.08830254 0.3159446 -0.3271761
0.07366005 0.23893581 -0.18772477 -0.10208357 0.4471559 0.46195573 -0.05609559 -0.40552807
0.014300967 -0.3403322 -0.11550172 0.534616 0.27028018 -0.21996422 -0.4817661 -0.013938966
-0.4816383 0.0074761254 -0.12232513 0.34454808 0.33215663 -0.25933123 0.087282375 -0.3136895
-0.26566958 -0.5171315 0.38711876 -0.16578041 -0.1327941 -0.22967723 0.033755437 0.45139316
-0.43224922 -0.25969848 0.23016 -0.48982844 0.01070169 -0.21087974 -0.5152782 -0.2767901
0.49788964 0.04663677 -0.5131369 -0.29839578 -0.19614534 -0.5087085 0.012572248 -0.38873225
-0.025484813 0.21284467 0.19133891 0.13052447 0.087710634 0.4464374 0.46638954 0.1935806
0.016738122 0.34296846 0.033470917 0.27876315 0.19014308 -0.16237609 -0.12987433 0.19793013
-0.26677132 0.3709092 -0.53326106 -0.031199919 0.11600725 0.15579925 -0.32893836 0.2379935
-0.2943483 -0.30754492 0.5432162 0.31892803 0.035408825 -0.17331961 -0.49851996 0.23658842
00000000: 4ba4 033f e719 a9be ace7 5c3e 7e56 f5be
00000010: 8d37 b8be 14f7 f13e e10a 603d 0648 913c
00000020: a4eb d53e 60cd 0a3f b4e7 bbbc edad 0b3f
00000030: 73cc 12bf f6d7 b43d 7ec3 a13e a083 a7be
00000040: 15db 963d 97ab 743e ec3a 40be 3111 d1bd
00000050: 9ef1 e43e 7685 ec3e 7dc4 65bd 60a1 cfbe
00000060: 9a4e 6a3c 0640 aebe 2a8c ecbd 98dc 083f
00000070: 2a62 8a3e 4d3e 61be 0caa f6be 4360 64bc
00000080: 4c99 f6be 49fa f43b 9985 fabd 9b68 b03e
00000090: 6f10 aa3e 10c7 84be 1ac1 b23d e99b a0be
000000a0: d805 88be bb62 04bf 6e34 c63e 57c2 29be
000000b0: 2dfb 07be 8230 6bbe 2443 0a3d 011d e73e
000000c0: c54f ddbe 33f7 84be 10af 6b3e cbca fabe
000000d0: 2456 2f3c dcf0 57be 46e9 03bf 6fb7 8dbe
000000e0: 64eb fe3e 3306 3f3d f15c 03bf 55c7 98be
000000f0: 53da 48be b83a 02bf d4fb 4d3c ea07 c7be
00000100: 87c5 d0bc f4f3 593e 59ee 433e 35a8 053e
00000110: a2a1 b33d 7193 e43e 9cca ee3e fe39 463e
00000120: 631e 893c 9099 af3e cd18 093d 0bba 8e3e
00000130: deb4 423e eb45 26be c7fd 04be 32ae 4a3e
00000140: 4096 88be d0e7 bd3e cc83 08bf f996 ffbc
00000150: 3695 ed3d d789 1f3e 9c6a a8be 91b4 733e
00000160: d2b4 96be 8776 9dbe 3810 0b3f 894a a33e
00000170: d808 113d b27a 31be 023e ffbe 3c44 723e

features_extractor.fc_op.bias f4 [32]
0.20365939 -0.27076596 -0.052344657 -0.29334706 -0.5677408 -0.41199467 4.3452048e-05 0.31691673
0.19654584 0.40018484 -0.14813483 -0.11659792 0.26517704 0.117032245 0.20718054 -0.518596
0.0062992834 -0.11427859 0.29276982 -0.04703522 0.23791285 0.38127622 -0.13624874 -0.45288777
-0.06820709 -0.3381826 -0.29832518 -0.42224327 -0.4599517 0.18678847 -0.3107048 -0.32310647
00000000: 168c 503e d6a1 8abe 5a67 56bd 9631 96be
00000010: 7657 11bf f7f0 d2be 4840 3638 e942 a23e
00000020: 5043 493e 07e5 cc3e a8b0 17be e4ca eebd
00000030: 49c5 873e 9aae ef3d 2327 543e b5c2 04bf
00000040: 386a ce3b e50a eabd ede5 953e 01a8 40bd
00000050: 6d9f 733e a336 c33e ca84 0bbe e8e0 e7be
00000060: 29b0 8bbd 4526 adbe 14be 98be 4530 d8be
00000070: ca7e ebbe 7a45 3f3e b314 9fbe 366e a5be

features_extractor.fc_merge.weight f4 [352, 352]
-0.023613976 -0.03836548 0.05565404 0.083646424 0.12806734 0.11952722 0.07268306 0.052731935
0.046154402 -0.055416934 0.012254446 -0.02507081 0.036796354 0.0020165464 0.105077766 0.054589275
0.09629508 0.010042895 -0.036073614 0.037685666 -0.047456216 -0.021372408 0.0269799 0.006219327
-0.011488374 -0.0010764992 -0.029678747 0.049974453 -0.035380132 -0.035112932 -0.08982922 -0.021394538
0.00673892 -0.0012666452 0.016473671 0.12350608 0.08810552 0.034448843 0.061544925 -0.014317953
-0.045121513 0.036717653 0.016992422 0.08674522 0.12475449 0.110362664 0.03286646 0.01972784
-0.023351006 -0.087673366 0.02278 0.0026409745 0.0961077 0.09892417 0.08086776 0.10829932
0.006323951 -0.025277382 -0.03637323 -0.11074958 0.10236105 0.00046225125 0.00060278695 -0.081386566
-0.024452165 -0.0938504 -0.06269999 -0.07939247 0.013459885 0.028003555 -0.07680822 9.8109376e-05
0.02026199 0.08487804 0.10940341 0.071954906 0.08382497 0.032727815 0.07053249 0.024443185
0.011114125 0.0068329866 0.008808022 0.104482315 0.06889428 0.07295454 0.062212378 0.0016632319
-0.029226663 -0.014950053 -0.039121512 0.011806853 0.03249004 0.057111666 0.07477421 0.108749166
0.09783893 0.047563117 0.022518933 -0.046367206 0.002513582 -0.058690127 -0.021593388 -0.06915184
-0.11197027 -0.07546752 -0.067354314 -0.107351616 -0.035618287 -0.016873108 -0.06782088 -0.049717184
-0.007236705 0.10729874 0.074775636 0.048757706 0.08165757 0.02062225 0.005053458 -0.040192492
-0.052745014 -0.030678255 0.03703575 0.037902076 0.06792723 0.026146645 0.0110777365 -0.021672007
0.025988614 -0.040275108 -0.04640952 -0.0049707238 0.010811768 0.029400604 0.062827446 0.10579467
0.08560055 0.008426708 0.050587364 0.002045218 -0.023474805 -0.029927276 -0.094607115 -0.04896322
-0.07365002 -0.07005962 -0.046342745 -0.06306252 0.02546414 -0.04630878 0.033303045 -0.02672577
0.027892223 -0.005329778 -0.043154184 -0.05145032 0.05276423 -0.010538012 0.0016557312 0.050184894
-0.014650985 0.02758827 -0.04396983 -0.0008034477 0.046247154 -0.025835732 -0.040171526 0.042705305
0.019754348 -0.02477325 0.013057995 -0.030409986 0.08338587 0.06308212 0.04019297 0.053103164
0.017295673 -0.034213178 -0.02399134 -0.097610645 0.07655157 0.036687817 0.07467899 0.059102654
0.078459956 0.091894306 0.05037317 -0.07010776 -0.05649257 -0.12272673 -0.045241404 0.07236797
0.080525964 0.08375073 0.04567214 0.085851565 -0.017313916 -0.022107309 -0.028018214 -0.12405364
-0.08624927 -0.0046835453 0.024146292 0.084030576 0.08278179 0.082053706 0.07959955 0.073823094
0.05687015 -0.027405772 0.030246332 -0.0070569366 -0.078240596 -0.107808724 -0.13083003 -0.12763296
-0.06665475 -0.15228815 -0.07204507 -0.100666024 0.02134165 0.019547917 -0.05204467 0.019709554
-0.0471227 -5.9917056e-06 0.009250691 -0.032322794 -0.0127064865 -0.037937965 0.0026805087 -0.03489358
0.005913951 0.07719228 0.031463128 0.09811052 0.03233797 0.006014741 0.044896115 -0.014465558
-0.04214066 0.03516847 -0.0018253954 0.0720471 0.047671445 0.036243886 0.05594204 -0.0004623544
0.03969378 -0.01598049 0.16838415 0.10233967 0.011899898 0.008329543 -0.03479453 -0.08260623
00000000: 1972 c1bc 1f25 1dbd 7ef5 633d d14e ab3d
00000010: 1624 033e b0ca f43d dbda 943d 71fd 573d
00000020: 660c 3d3d defc 62bd dfc6 483c 4d61 cdbc
00000030: c6b7 163d 0928 043b 0333 d73d 0199 5f3d
00000040: 5b36 c53d f48a 243c edc1 13bd 495c 1a3d
00000050: 7361 42bd 3015 afbc f404 dd3c 7fcb cb3b
00000060: bc39 3cbc 5219 8dba d820 f3bc 03b2 4c3d
00000070: c2ea 10bd 94d2 0fbd 62f8 b7bd 9943 afbc
00000080: 29d2 dc3b 8f05 a6ba cbf3 863c c1f0 fc3d
00000090: ab70 b43d 3b1a 0d3d 8816 7c3d d995 6abc
000000a0: 56d1 38bd 4065 163d b133 8b3c 7aa7 b13d
000000b0: 487f ff3d d205 e23d fb9e 063d 479c a13c
000000c0: 9c4a bfbc 188e b3bd 1f9d ba3c 3314 2d3b
000000d0: 1dd4 c43d c198 ca3d ff9d a53d 09cc dd3d
000000e0: 2539 cf3b 8312 cfbc 19fc 14bd add0 e2bd
000000f0: aca2 d13d 505a f239 5904 1e3a 00ae a6bd
00000100: e84f c8bc a334 c0bd da68 80bd 8598 a2bd
00000110: d986 5c3c b667 e53c a14d 9dbd 12c0 cd38
00000120: 79fc a53c 8ad4 ad3d e50e e03d 185d 933d
00000130: 6dac ab3d 9a0d 063d 5773 903d 133d c83c
00000140: 0518 363c 3fe7 df3b 864f 103c d3fa d53d
00000150: 7218 8d3d 3169 953d 68d2 7e3d cd00 da3a
00000160: c16c efbc 11f1 74bc e13d 20bd 8871 413c
00000170: 4714 053d eced 693d 3923 993d e2b7 de3d
00000180: c75f c83d 8bd1 423d a079 b83c 8aeb 3dbd
00000190: e8ba 243b 0f65 70bd 9ee4 b0bc 7b9f 8dbd
000001a0: ab50 e5bd b78e 9abd 0ff1 89bd 2adb dbbd
000001b0: 7be4 11bd 7939 8abc ace5 8abd 3fa4 4bbd
000001c0: e221 edbb 71bf db3d f823 993d 29b6 473d
000001d0: 163c a73d feef a83c 7a97 a53b e2a0 24bd
000001e0: 280b 58bd f750 fbbc ccb2 173d 353f 1b3d
000001f0: 6e1d 8b3d 7d31 d63c 657f 353c 7e89 b1bc
00000200: 13e6 d43c 83f7 24bd e917 3ebd 74e1 a2bb
00000210: d723 313c 89d9 f03c adab 803d e0aa d83d
00000220: 574f af3d 2d10 0a3c b234 4f3d 1009 063b
00000230: 3c4e c0bc 0c2a f5bc 60c1 c1bd a88d 48bd
00000240: d2d5 96bd 6b7b 8fbd e4d1 3dbd ec26 81bd
00000250: 2c9a d03c 46ae 3dbd c668 083d 01f0 dabc
00000260: 3b7e e43c 6ba5 aebb 71c2 30bd 92bd 52bd
00000270: 4e1f 583d a0a7 2cbc 1f05 d93a ad8e 4d3d
00000280: af0a 70bc cc00 e23c b519 34bd 769e 52ba
00000290: a86d 3d3d 75a5 d3bc e68a 24bd c2eb 2e3d
000002a0: dfd3 a13c 45f1 cabc 33f1 553c 5d1e f9bc
000002b0: 36c6 aa3d 3331 813d 62a1 243d b482 593d
000002c0: a8af 8d3c 1e23 0cbd 7d89 c4bc 17e8 c7bd
000002d0: 12c7 9c3d f745 163d 4cf1 983d a015 723d
000002e0: 9daf a03d 1533 bc3d 1954 4e3d a894 8fbd
000002f0: c164 67bd 2758 fbbd 0d4f 39bd a935 943d
00000300: ccea a43d 8185 ab3d b612 3b3d f2d2 af3d
00000310: ead5 8dbc 631a b5bc 7486 e5bc d60f febd
00000320: 75a3 b0bd 6d78 99bb 72ce c53c 3918 ac3d
00000330: 8089 a93d c60b a83d 1705 a33d 9030 973d
00000340: adf0 683d 1282 e0bc 28c7 f73c e03d e7bb
00000350: 9b3c a0bd d2ca dcbd 4ff8 05be 37b2 02be
00000360: 4982 88bd 6df1 1bbe 5e8c 93bd fd29 cebd
00000370: afd4 ae3c f422 a03c cb2c 55bd ee75 a13c
00000380: bb03 41bd 5c0c c9b6 3690 173c e864 04bd
00000390: de2e 50bc d764 1bbd 79ab 2f3b 92ec 0ebd
000003a0: d1c9 c13b fc16 9e3d 7bdf 003d 2bee c83d
000003b0: d274 043d 4e17 c53b fde4 373d f300 6dbc
000003c0: af9b 2cbd d00c 103d 1b42 efba 6e8d 933d
000003d0: 2243 433d 7874 143d 7b23 653d 2868 f2b9
000003e0: f295 223d 84e9 82bc e56c 2c3e 7697 d13d
000003f0: caf7 423c a378 083c b684 0ebd 752d a9bd

features_extractor.fc_merge.bias f4 [352]
-0.027674178 0.06344699 0.015972123 0.0468537 0.046452668 -0.0055350517 0.011918364 0.037160557
0.0070169987 0.049201112 0.008943868 -0.07417456 0.009143509 -0.014997797 8.1602135e-05 -0.0018342256
-0.04068189 0.021720326 0.025198784 0.007070694 0.0341802 0.040942904 -0.020419853 0.022247525
-0.023758184 -0.027509905 0.026128761 0.012338085 0.018614499 -0.03127937 -0.008661823 0.01677451
-0.018493984 -0.04674083 0.049278393 0.011959929 0.03542664 -0.022289842 0.007649106 -0.02293362
0.022029 -0.008231655 0.019925427 -0.034593128 0.035915088 0.021680208 0.021922076 0.065695755
-0.032204892 0.018949192 0.0006202832 -0.033087682 0.052797783 0.011388467 -0.014363374 -0.026462752
0.003149147 0.06475637 0.0086015565 -0.019605054 -0.040251344 -0.021925274 -0.029333606 0.01632509
0.029563459 -0.024818502 -0.025706401 0.000485598 0.029224686 0.04818712 0.04101829 0.01640348
0.03019597 -0.031448405 0.010055096 -0.04900877 0.032550696 0.044557538 -0.025165018 -0.038170572
-0.019530278 0.064124435 0.0399161 0.04166408 -0.034139227 0.010619132 -0.010236766 0.0033326885
0.0157293 -0.0122987265 0.05843206 -0.001201468 0.0006167851 0.037188187 -0.041861586 0.015563276
0.0009870142 0.011699037 0.031892214 -0.04506868 -0.024399912 0.00035565844 0.04875076 -0.0011935217
-0.030609045 -0.011241677 0.042154748 0.0067038694 0.0010304316 -0.015259779 0.048765715 0.010242019
0.037931245 0.046127297 -0.03133638 0.0113770915 -0.0036106682 -0.010191926 0.014194753 0.013001154
0.058939405 -0.019425338 0.05380556 -0.009946387 -0.03169321 0.023741672 -0.004346532 -0.027483977
-0.0026294007 -0.008087353 0.05466877 -0.035728637 0.030742753 -0.060848102 -0.031211497 0.030701853
0.05205214 -0.01644329 0.043450378 0.017002095 -0.02600514 0.023763847 -0.033587057 -0.039006107
-0.0030378057 0.010603028 -0.027005684 0.038545188 -0.007424974 -0.031745415 -0.008525116 -0.012404984
0.03144004 -0.039185952 0.04339737 0.027112883 0.047298897 0.03232948 0.057181552 0.0008125911
0.01597664 0.017273981 0.019376403 -0.01444076 0.021870598 -0.0012624452 0.007612134 -0.020584011
0.031779367 -0.031189663 0.017117381 -0.04202135 0.030418424 0.02713587 0.01406874 0.0030458854
-0.027268274 -0.021420676 0.004919053 -0.025112946 0.037098397 0.055213243 0.017566578 -0.039469372
0.029179467 0.009559228 -0.02103198 0.007298895 -0.025208766 0.048773073 -0.029880935 -0.017499259
-0.002618546 0.03626686 0.0112262955 0.061696537 -0.012747285 -0.030765912 0.0057858266 0.0574196
0.012117338 -0.006441145 0.0039772475 0.036164064 0.046469305 -0.027055454 0.0023635773 0.006461258
-0.04751289 0.030828027 0.04368353 0.04344378 0.003852911 0.02259724 0.03585517 0.051497012
-0.0241803 -0.0055941883 -0.013482174 0.026660468 0.006605818 0.0011395838 0.034673356 -0.0361133
-0.002515304 0.06715355 0.014855347 0.025957337 0.030841911 0.01422026 -0.01000562 0.082161106
0.054201588 -0.014716407 0.029084535 0.041196357 0.059829917 -0.027992684 -0.0187604 0.011100873
-0.038202025 -0.008127337 0.0062309583 -0.048824813 -0.016350526 0.018924695 0.043759987 0.021334438
0.012652515 0.057226337 0.0085486695 0.018796586 -0.012167746 -0.018031742 0.03077917 0.044814583
00000000: f5b4 e2bc 7ff0 813d f8d7 823c aae9 3f3d
00000010: 2745 3e3d 615f b5bb 3e45 433c ab35 183d
00000020: daee e53b 1b87 493d 4d89 123c d5e8 97bd
00000030: a8ce 153c 52b9 75bc d021 ab38 666a f0ba
00000040: 0ea2 26bd d3ee b13c ae6d ce3c 48b1 e73b
00000050: 8a00 0c3d bfb3 273d 8947 a7bc 7140 b63c
00000060: 86a0 c2bc 745c e1bc fc0b d63c ae25 4a3c
00000070: 6f7d 983c cc1e 00bd 52ea 0dbc b26a 893c
00000080: b280 97bc 5073 3fbd 24d8 493d 94f3 433c
00000090: 861b 113d 3099 b6bc 5aa5 fa3b 49df bbbc
000000a0: 2976 b43c 10de 06bc a63a a33c 86b1 0dbd
000000b0: b31b 133d b19a b13c ed95 b33c 7f8b 863d
000000c0: 47e9 03bd 563b 9b3c 809a 223a f386 07bd
000000d0: 7d42 583d b196 3a3c 5b54 6bbc 6ac8 d8bc
000000e0: eb61 4e3b fd9e 843d 8bed 0c3c c79a a0bc
000000f0: 98de 24bd a29c b3bc 084d f0bc 32bc 853c
00000100: 112f f23c 2c50 cbbc 3b96 d2bc dc97 fe39
00000110: 9c68 ef3c dc5f 453d cb02 283d 9760 863c
00000120: 8a5d f73c 0bd0 00bd 21be 243c 6cbd 48bd
00000130: e153 053d f781 363d de26 cebc bf58 1cbd
00000140: f6fd 9fbc ac53 833d 117f 233d f4a7 2a3d
00000150: 93d5 0bbd defb 2d3c 1cb8 27bc 3c69 5a3b
00000160: bcda 803c 9980 49bc 7556 6f3d 947a 9dba
00000170: bfaf 213a a452 183d 0e77 2bbd 1cfd 7e3c
00000180: b35e 813a 51ad 3f3c 69a1 023d f099 38bd
00000190: 53e2 c7bc ab77 ba39 e0ae 473d f16f 9cba
000001a0: d2bf fabc 032f 38bc 75aa 2c3d 22ac db3b
000001b0: 8c0f 873a 2704 7abc 8fbe 473d 24ce 273c
000001c0: cb5d 1b3d faef 3c3d 935a 00bd fb66 3a3c
000001d0: f6a0 6cbb 09fc 26bc 1c91 683c cb02 553c
000001e0: 726a 713d e321 9fbc 3863 5c3d 2cf6 22bc
000001f0: bdd0 01bd e57d c23c 5a6d 8ebb 1426 e1bc
00000200: 0652 2cbb d180 04bc 5cec 5f3d 3158 12bd
00000210: 3ad8 fb3c dc3b 79bd 41af ffbc 7482 fb3c
00000220: a034 553d 14b4 86bc 06f9 313d fa47 8b3c
00000230: bb08 d5bc 66ac c23c 9592 09bd dec4 1fbd
00000240: ec15 47bb 53b8 2d3c 063b ddbc 8fe1 1d3d
00000250: 324d f3bb 7b07 02bd eeac 0bbc 463e 4bbc
00000260: 45c7 003d 7381 20bd 71c1 313d d61b de3c
00000270: 7dbc 413d eb6b 043d 3437 6a3d 1104 553a
00000280: 71e1 823c 2a82 8d3c 43bb 9e3c f098 6cbc
00000290: f829 b33c a278 a5ba 356f f93b cd9f a8bc
000002a0: 152b 023d 7781 ffbc c039 8c3c 941e 2cbd
000002b0: 0f30 f93c 0b4c de3c 9380 663c 7a9d 473b
000002c0: b761 dfbc 6a7a afbc 0230 a13b aab9 cdbc
000002d0: 7df4 173d 4827 623d c9e7 8f3c a3aa 21bd
000002e0: c709 ef3c 4f9e 1c3c 424b acbc 922b ef3b
000002f0: 9d82 cebc 46c6 473d ddc8 f4bc 9b5a 8fbc
00000300: e99b 2bbb 8f8c 143d 7fee 373c 82b5 7c3d
00000310: fdd9 50bc cb08 fcbc 0897 bd3b d130 6b3d
00000320: cd87 463c 3e10 d3bb 9253 823b c520 143d
00000330: 9956 3e3d 66a3 ddbc 3fe6 1a3b f6b8 d33b
00000340: e09c 42bd 0f8b fc3c 80ed 323d 1bf2 313d
00000350: 1f81 7c3b d91d b93c dfdc 123d 88ee 523d
00000360: c415 c6bc 744f b7bb 56e4 5cbc 0e67 da3c
00000370: 9e75 d83b 165e 953a a605 0e3d 8aeb 13bd
00000380: ccd7 24bb cd87 893d d763 733c 7ba4 d43c
00000390: 2da8 fc3c 18fc 683c 9dee 23bc 1544 a83d
000003a0: 7c02 5e3d 161d 71bc b142 ee3c 83bd 283d
000003b0: 3710 753d ea50 e5bc 69af 99bc 70e0 353c
000003c0: ba79 1cbd 8628 05bc 112d cc3b 87fc 47bd
000003d0: 8af1 85bc f607 9b3c ac3d 333d 8fc5 ae3c
000003e0: 7f4c 4f3c 2a66 6a3d b80f 0c3c 4cfb 993c
000003f0: 3a5b 47bc 4eb7 93bc 9924 fc3c 7f8f 373d

actor.weight f4 [10, 352]
0.051123705 0.032221977 -0.03595061 -0.018734446 0.007175011 0.12453104 -0.031802967 0.0039780284
0.01843111 0.083797745 0.11838939 -0.10571427 -0.007921997 0.011128625 -0.010003816 0.028214235
0.095539674 0.014400929 -2.082622e-05 0.03507966 0.06718556 0.015817327 0.008336174 0.012764562
-0.031192621 0.024374403 0.014811784 0.027102085 -0.03081667 -0.025460767 0.015773123 -0.010494412
-0.013092929 -0.03302429 0.041747164 0.104195826 0.06314296 0.055634685 -0.056660462 -0.06700047
0.040741798 -0.0026951854 -0.09516439 0.00036819634 0.06626104 0.08803991 -0.05072624 0.04532125
-0.0031048604 0.00146035 -0.020381993 0.019156585 0.010374904 0.056114018 0.12888213 0.009618676
0.054714173 0.0051157195 -0.0048352373 0.15205555 -0.068745345 0.057068687 0.01663095 -0.010904568
0.111366 -0.013076694 0.06132442 0.019224731 0.040043496 -0.04814942 0.051499914 0.057853878
0.032008987 -0.0022952843 -0.018686784 -0.019034559 0.02897443 -0.032370564 0.040437378 -0.02025748
0.05122713 -0.041184712 0.021644577 0.027547115 0.015406482 0.04967692 -0.016238693 -0.026704634
0.051553417 -0.009505103 0.010402699 -0.035063673 -0.04426386 0.09373763 0.09681455 0.060206912
-0.027976643 -0.0764224 0.02835403 -0.030774752 0.04903014 -0.018968567 0.098231405 0.07399506
0.023667298 0.024830144 -0.014516928 -0.00077270175 -0.012112183 0.053847395 -0.0052886074 0.005250556
0.047879983 -0.010256145 -0.018527243 0.10809574 0.0511128 0.066557765 0.070914894 0.0017200779
0.054703396 0.03333205 -0.026461834 0.041078236 0.0445342 -0.017668353 0.07196245 0.10111672
-0.033165976 0.0030620818 -0.017892169 0.003733683 0.056200653 0.049469877 0.035315778 -0.033982176
0.037328914 -0.05310263 0.01682091 0.037334517 0.040132787 0.05804005 0.05179876 -0.0241441
0.045831684 0.047887895 0.0306989 0.020234067 0.12807447 -0.03063978 0.120524675 0.054904785
0.020382093 -0.0025190932 0.032948457 0.06996229 -0.01349287 0.0141492905 0.052466538 0.075536445
0.07177258 -0.005045957 0.12393123 0.03230062 -0.02057409 -0.0061575165 0.03293097 0.1674676
0.04865638 0.02158093 -0.010072579 -0.05112711 0.034937926 0.07892717 0.016351962 0.06724626
-0.025742669 0.09753834 0.027198592 0.032056566 0.034779307 0.013563535 0.021760777 -0.005855035
-0.028644208 0.019104857 0.01826867 0.13345817 0.03165116 0.063810326 0.01883869 -0.046821326
-0.032788694 0.012768974 0.038552515 0.020067869 0.08650312 -0.027167728 -0.031213922 -0.012924084
0.01872835 0.15390824 0.052368492 0.068775326 -0.024136038 0.07708502 0.03497825 0.0086921295
0.016026309 0.07335346 -0.019414144 0.019746175 0.0378941 -0.0074979872 0.060843915 0.041716337
0.073349684 0.036011014 -0.024021605 0.056075655 -0.04222101 0.006647772 -0.07246139 0.048806064
-0.0037517142 0.0690026 0.055275556 0.16125959 0.018744182 0.0245657 0.11462765 0.14014205
-0.040143847 0.017461764 0.0049522845 0.07840292 0.039638862 0.031620782 0.13571014 0.021891724
0.09287192 0.01903099 0.033092655 0.056091662 0.023686036 0.034074593 -0.020762434 -0.037941273
0.0029552337 0.02309339 0.016788857 -0.0033777677 0.012305028 -0.060015008 0.046108704 0.0030145475
00000000: 1767 513d 31fb 033d f240 13bd fb78 99bc
00000010: 5b1c eb3b 210a ff3d d443 02bd 1f5a 823b
00000020: d7fc 963c 279e ab3d 2376 f23d b980 d8bd
00000030: 44cb 01bc d654 363c 0ce7 23bc 8a21 e73c
00000040: 4eaa c33d e0f1 6b3c f8b3 aeb7 b1af 0f3d
00000050: 9598 893d 5793 813c 7394 083c 7422 513c
00000060: ab87 ffbc d4ac c73c 20ad 723c 3105 de3c
00000070: 3e73 fcbc 1993 d0bc a336 813c c1f0 2bbc
00000080: b983 56bc 7a44 07bd 13ff 2a3d 9f64 d53d
00000090: 1951 813d 32e1 633d cd14 68bd 8b37 89bd
000000a0: dfe0 263d b5a1 30bb 8ce5 c2bd 7a0a c139
000000b0: deb3 873d 454e b43d 51c6 4fbd c6a2 393d
000000c0: ea7a 4bbb 3769 bf3a 23f8 a6bc 45ee 9c3c
000000d0: 80fb 293c d0d7 653d adf9 033e a797 1d3c
000000e0: f81b 603d c4a1 a73b e970 9ebb 73b4 1b3e
000000f0: 5cca 8cbd dbc0 693d a13d 883c 13a9 32bc
00000100: db13 e43d a13f 56bc 512f 7b3d 2f7d 9d3c
00000110: a604 243d 5438 45bd 93f1 523d 30f8 6c3d
00000120: db1b 033d 7b6c 16bb 0715 99bc 5dee 9bbc
00000130: c95b ed3c ff96 04bd aaa1 253d 04f3 a5bc
00000140: 8ad3 513d 4db1 28bd f84f b13c 7daa e13c
00000150: 786b 7c3c 077a 4b3d 0207 85bc adc3 dabc
00000160: ad29 533d 4bbb 1bbc 1570 2a3c ed9e 0fbd
00000170: 054e 35bd 84f9 bf3d b546 c63d 869b 763d
00000180: 462f e5bc 5983 9cbd b646 e83c 551b fcbc
00000190: d4d3 483d f863 9bbc 8c2d c93d b98a 973d
000001a0: ece1 c13c 9668 cb3c 69d8 6dbc 238f 4aba
000001b0: 2d72 46bc 168f 5c3d 0e4c adbb db0c ac3b
000001c0: cd1d 443d 6409 28bc 72c6 97bc 4d61 dd3d
000001d0: a85b 513d 704f 883d d43b 913d 3d74 e13a
000001e0: ab10 603d 3087 083d 7dc6 d8bc a741 283d
000001f0: 7e69 363d 39bd 90bc 0d61 933d 4816 cf3d
00000200: 0cd9 07bd 35ad 483b 9992 92bc ceb0 743b
00000210: a832 663d eda0 4a3d 47a7 103d e530 0bbd
00000220: 34e6 183d 2582 59bd 01cc 893c 14ec 183d
00000230: 4762 243d 67bb 6d3d f02a 543d d9c9 c5bc
00000240: 01ba 3b3d 1926 443d 427c fb3c eac1 a53c
00000250: f425 033e 4700 fbbc a4d5 f63d d7e3 603d
00000260: 59f8 a63c 5f17 25bb f6f4 063d 6448 8f3d
00000270: 3311 5dbc 6dd2 673c 27e7 563d dab2 9a3d
00000280: 81fd 923d 8e58 a5bb a8cf fd3d a84d 043d
00000290: fe8a a8bc fec4 c9bb a0e2 063d a07c 2b3e
000002a0: ea4b 473d 7eca b03c 7507 25bc a96a 51bd
000002b0: 121b 0f3d 91a4 a13d 8df4 853c 68b8 893d
000002c0: 4ae2 d2bc 2ec2 c73d 95cf de3c bf4d 033d
000002d0: bf74 0e3d 9739 5e3c a843 b23c 98db bfbb
000002e0: 42a7 eabc ca81 9c3c 2ea8 953c 42a9 083e
000002f0: a6a4 013d fdae 823d 9953 9a3c b8c7 3fbd
00000300: 704d 06bd f534 513c 3ee9 1d3d 5f65 a43c
00000310: 8c28 b13d db8e debc 57b4 ffbc 8abf 53bc
00000320: 326c 993c 1f9a 1d3e 5880 563d 14da 8c3d
00000330: f1b8 c5bc c0de 9d3d 5a45 0f3d 6f69 0e3c
00000340: 9b49 833c 573a 963d 690a 9fbc bbc2 a13c
00000350: d836 1b3d adb1 f5bb 7837 793d c0de 2a3d
00000360: 5c38 963d 4980 133d f5c8 c4bc 96af 653d
00000370: f0ef 2cbd 8ed5 d93b a366 94bd dee8 473d
00000380: 52df 75bb 3c51 8d3d 9f68 623d 3c21 253e
00000390: 668d 993c 023e c93c e7c1 ea3d 6681 0f3e
000003a0: e06d 24bd f90b 8f3c c646 a23b b691 a03d
000003b0: 5c5c 223d cb84 013d 99f7 0a3e 4656 b33c
000003c0: a233 be3d e1e6 9b3c 2a8c 073d 5fc0 653d
000003d0: 3809 c23c cd91 0b3d fb15 aabc 4f68 1bbd
000003e0: 98ac 413b 592e bd3c c988 893c 8a5d 5dbb
000003f0: 079b 493c 4cd2 75bd 7bdc 3c3d b78f 453b

actor.bias f4 [10]
0.020653509 -0.075937875 -0.044664107 -0.065962546 0.008446727 -0.0032984961 0.038913075 0.027132811
0.06864472 0.029706644
00000000: 8c31 a93c 5185 9bbd b6f1 36bd 5f17 87bd
00000010: 2464 0a3c 952b 58bb 5163 1f3d a145 de3c
00000020: 9a95 8c3d 595b f33c

critic.weight f4 [1, 352]
0.04964131 0.098184876 0.08946471 0.11269451 0.0025873545 -0.07067068 0.092229724 0.03609072
-0.061753422 -0.08263797 -0.06921367 -0.103831425 0.11689896 0.09076397 0.062193416 0.06776821
-0.058787733 0.029021714 0.046812013 0.0155950235 -0.064338 0.06269308 0.048625436 0.029284166
0.07019194 0.029411566 0.03223302 0.035042737 0.057437096 0.043775942 0.054645874 0.10383534
0.059226472 0.015651964 0.05488366 -0.016024757 -0.032201756 0.0548263 0.06086949 0.032985073
-0.03324663 -0.0714048 -0.059079524 0.0479011 0.02239447 -0.0773917 0.07958571 0.07021877
0.060062766 0.075447276 0.047272597 -0.05222891 -0.025656838 -0.093453474 -0.08356043 0.010116568
-0.049635254 0.057409342 0.06777131 -0.064674325 -0.017628819 0.09329571 0.051083695 0.05787625
-0.027180433 0.0486984 0.016912399 -0.05017 -0.045109566 0.047326267 0.072395734 -0.09260748
0.03701682 0.03631059 0.0021348274 -0.01798578 -0.07510677 0.04420383 -0.050401505 0.03747591
0.056156203 0.085065834 0.04537265 -0.00865599 -0.043236982 0.044288114 0.04015039 -0.03753563
-0.06964896 -0.014171012 0.1130062 0.07112563 0.047117542 -0.032507982 -0.07719011 -0.039570965
0.05722085 0.04587885 0.10493951 -0.037116997 0.039857436 0.06191992 -0.05420248 -0.056373212
-0.032247487 -0.063802585 0.10678703 0.062281832 0.05560914 0.0010067304 0.018166495 -0.06684924
0.06805036 0.06437422 0.10774551 -0.05754096 -0.01735904 -0.062884055 -0.055020243 0.07224403
0.04750234 0.10307313 0.077802256 0.07355434 0.06634944 0.03773984 -0.08676233 -0.026564896
0.03447112 0.03266305 0.10571498 0.053376954 -0.07719465 -0.027438683 -0.040258694 0.03934886
0.025027823 0.045713533 0.060962018 0.051736817 0.04845302 0.048288025 0.03871714 0.06938167
0.025038604 -0.07560622 -0.061403282 0.04713011 -0.036790244 0.017521821 -0.106218606 0.10892403
-0.061029166 0.049216293 -0.027427128 -0.04956173 0.046812817 0.08035082 0.068205334 -0.024466481
0.022212878 0.053744566 -0.10516422 -0.018581253 0.073274076 0.021093566 -0.061188195 -0.06964343
0.055988133 0.07430622 0.062813774 0.039749023 -0.032822777 0.052242257 -0.072521485 -0.043913838
0.024964564 -0.025547082 0.08940344 0.03342322 0.039414864 0.098015346 -0.06720902 -0.010585996
0.017264597 -0.06634994 0.016544148 -0.08436699 -0.04055201 0.04474049 0.078848496 0.049978226
0.04371148 0.017410366 -0.08874806 0.034158017 -0.07510369 0.07924311 -0.0012669042 -0.04222391
0.06593319 -0.017395899 0.044698495 -0.032497007 0.10630871 -0.025442692 0.12089871 -0.0301263
0.06616632 -0.055189904 -0.065926105 0.04980846 0.0324807 0.049923815 -0.044335607 0.031165266
0.002341433 -0.046287894 0.071215995 0.01431411 0.032536473 -0.027072752 0.05883181 0.02088236
0.052686147 -0.058331877 0.105468445 -0.06958312 -0.014483012 0.04374185 -0.018234607 -0.108573705
0.06589282 -0.015554055 0.065717936 -0.04776012 -0.06969271 0.05558031 -0.06388787 0.037868056
-0.040206384 0.027867677 -0.0027825881 -0.04127474 -0.02905809 -0.035181206 0.034760192 0.010627227
-0.008428994 0.06640794 -0.024999639 0.09031449 -0.010324816 0.043381847 -0.06739535 0.058378898
00000000: b054 4b3d 2715 c93d 4639 b73d 61cc e63d
00000010: 9b90 293b cabb 90bd f0e2 bc3d ddd3 133d
00000020: 28f1 7cbd 193e a9bd e6bf 8dbd 92a5 d4bd
00000030: b968 ef3d 76e2 b93d 86be 7e3d 0fca 8a3d
00000040: 68cb 70bd f2be ed3c f4bd 3f3d 4582 7f3c
00000050: a4c3 83bd 3b65 803d 772b 473d 59e5 ef3c
00000060: cbc0 8f3d 86f0 f03c c506 043d f988 0f3d
00000070: 2943 6b3d 674e 333d 5ad4 5f3d 9fa7 d43d
00000080: 7597 723d 8c38 803c b0cd 603d 5a46 83bc
00000090: fde5 03bd 8b91 603d 4952 793d 5b1b 073d
000000a0: 9e2d 08bd ae3c 92bd 5ffd 71bd f233 443d
000000b0: 9c74 b73c 8a7f 9ebd d5fd a23d dcce 8f3d
000000c0: 6004 763d 1a84 9a3d e9a0 413d fbed 55bd
000000d0: 4a2e d2bc 8964 bfbd bb21 abbd f6bf 253c
000000e0: 564e 4bbd 0f26 6b3d afcb 8a3d f973 84bd
000000f0: 506a 90bc d211 bf3d 233d 513d a60f 6d3d
00000100: 80a9 debc f977 473d df8b 8a3c 0f7f 4dbd
00000110: cfc4 38bd 30d9 413d 3744 943d fea8 bdbd
00000120: f39e 173d 6aba 143d 76e8 0b3b ea56 93bc
00000130: 94d1 99bd 130f 353d cf71 4ebd 5780 193d
00000140: 0c04 663d ff36 ae3d acd8 393d dad1 0dbc
00000150: 4319 31bd 7467 353d bc74 243d f6be 19bd
00000160: 1da4 8ebd 882d 68bc cb6f e73d 50aa 913d
00000170: 53fe 403d 1727 05bd d915 9ebd 2a15 22bd
00000180: 6960 6a3d 76eb 3b3d 87ea d63d fe07 18bd
00000190: 8d41 233d be9f 7d3d 6b03 5ebd 99e7 66bd
000001a0: f115 04bd eeaa 82bd 29b3 da3d 3c1b 7f3d
000001b0: 69c6 633d 44f4 833a e7d1 943c 41e8 88bd
000001c0: fd5d 8b3d a2d6 833d aea9 dc3d 12b0 6bbd
000001d0: 8c34 8ebc 5bc9 80bd e85c 61bd aef4 933d
000001e0: d091 423d 0118 d33d ca56 9f3d a8a3 963d
000001f0: 37e2 873d 1795 1a3d 73b0 b1bd a09e d9bc
00000200: 9731 0d3d b1c9 053d 1881 d83d cba1 5a3d
00000210: 3b18 9ebd 17c7 e0bc 4de6 24bd 452c 213d
00000220: 2607 cd3c 1d3e 3b3d 4fb3 793d fce9 533d
00000230: ad76 463d aac9 453d dd95 1e3d fa17 8e3d
00000240: c21d cd3c 6fd7 9abd 0282 7bbd 810b 413d
00000250: 5eb1 16bd ec89 8f3c 2489 d9bd 9013 df3d
00000260: b8f9 79bd 0697 493d dbae e0bc 3e01 4bbd
00000270: ccbe 3f3d f98e a43d 3daf 8b3d ee6d c8bc
00000280: c8f7 b53c 4323 5c3d 5760 d7bd b637 98bc
00000290: b810 963d 6acc ac3c 79a0 7abd 37a1 8ebd
000002a0: d053 653d dc2d 983d 82a4 803d dfcf 223d
000002b0: 2d71 06bd fafb 553d 2586 94bd ffde 33bd
000002c0: 7c82 cc3c 1d48 d1bc 2719 b73d c9e6 083d
000002d0: 7b71 213d 45bc c83d e2a4 89bd e370 2dbc
000002e0: 7c6e 8d3c 7ae2 87bd 9887 873c 9ac8 acbd
000002f0: dd19 26bd ce41 373d 527b a13d f8b5 4c3d
00000300: cf0a 333d 2fa0 8e3c 8bc1 b5bd 47e9 0b3d
00000310: f7cf 99bd 364a a23d 400e a6ba fbf2 2cbd
00000320: fb07 873d d881 8ebc c515 373d 951b 05bd
00000330: 62b8 d93d 316d d0bc be99 f73d 6ecb f6bc
00000340: 3582 873d cf0e 62bd 4404 87bd f503 4c3d
00000350: 7c0a 053d ea7c 4c3d 4199 35bd 4d4e ff3c
00000360: ba72 193b 6098 3dbd b1d9 913d bb85 6a3c
00000370: f744 053d adc7 ddbc a0f9 703d 7c11 ab3c
00000380: 6ecd 573d 68ed 6ebd d7ff d73d 9881 8ebd
00000390: 284a 6dbc a72a 333d be60 95bc e45b debd
000003a0: d1f2 863d 6fd6 7ebc 2097 863d 1ea0 43bd
000003b0: 0dbb 8ebd 2ea8 633d a5d7 82bd 891b 1b3d
000003c0: 73af 24bd c14a e43c 155c 36bb b40f 29bd
000003d0: 3b0b eebc 2b1a 10bd b460 0e3d d21d 2e3c
000003e0: c319 0abc e300 883d 0bcc ccbc cef6 b83d
000003f0: 6b29 29bc 2ab1 313d 9306 8abd b61e 6f3d
