carlike_gym/model_960.pth (torch, 526994 bytes, 11 tensors)

features_extractor.conv1.weight f4 [16, 4, 4]
00000000: b434 fcbd bac8 3c3e c479 9d3d c0f9 b6bc
00000010: 7450 7d3e b07d cebd 28d1 143e 5880 a03d
00000020: 68ef 73be 3c9a 72be dc3c 60be d8b0 043d
00000030: bc7c 6bbe 805c 483c 6c78 70be 5866 0c3d
00000040: 6439 9a3e a2e8 5f3e f7b3 513e 4d57 353d
00000050: b152 67be b314 f2bd 5ee4 6f3e cd9f 22be
00000060: 80c9 95bd 3d3b 1dbe 7ca5 e13d 2b90 053e
00000070: cd81 52bd 68b0 04bd 8019 e13d 5799 04bd
00000080: e819 edbd 442d 163e 31d8 9dbd f9c9 08be
00000090: 0f25 2b3e 462f ad3d 363d 51be c031 40bc
000000a0: 59c0 97bd bd8b 18be c9a4 583e 3b9a aabd
000000b0: 4143 533e 70be 353e 01f3 0ebe 9b2c ccbc
000000c0: 7330 303e 1b69 723e a4bb 633d 793a fdbc
000000d0: 7127 01be c872 f3bd 5c0c 4abe 6365 493b
000000e0: 8bd5 d23d 58cf 14bd 1dc9 9cbd 4263 16be
000000f0: 9639 7c3e 50b8 b4bd f496 963d 19e7 8ebc
00000100: 73f7 773e 862b de3d 48ab 47bd 64e0 23bc
00000110: f00f bbbd 8bab 7dbb fd21 b3bd 0eb9 133c
00000120: 73a3 80be 249b e23d 4348 b1bd 521e 383e
00000130: 899c 7e3d 8172 80be 4eff 2b3e 4a42 173d
00000140: c59e a5be 8e72 5dbd b5a4 39be e9cf 7e3d
00000150: 47de e33d 8a6f 0f3e a4e9 e73d ed01 883d
00000160: 4331 e73b 74ad 44be 5675 1e3e d538 543e
00000170: c2c1 60be cec8 163e 7df4 48bd cce7 f73d
00000180: 205b 843e 8ae7 613e 3a45 963e 7c80 08be
00000190: 238c 5c3e 6f98 283e f25f 6d3d e8bc 85be
000001a0: f7c7 65be 9f7e 42be 41ff 383d c6a4 193e
000001b0: 4f05 03bc 9fdb 673e 4083 27be 666f 2f3e
000001c0: f703 e8bd fb97 813e ead3 563e f609 e13d
000001d0: d51f 13be efa6 80bc 9a31 ebbc d14a ce3d
000001e0: c471 cf3d d137 183e 51c4 ffbd 6b02 43bd
000001f0: 2b28 7bbe bb23 1f3e 762c 51be 9311 a63d
00000200: 6c75 da3c 983f cc3c f965 93be 41f8 17be
00000210: 7b60 32be e77b 853d 18a6 7c3e 4203 40be
00000220: 6df6 19be 0534 903e 9d12 09bc f8af 3dbe
00000230: 8745 4f3e bcbf 29bd 0c93 073e 825f c93c
00000240: 2237 273e d950 1bbc 35cd 8fbe 4e27 84be
00000250: d47d 093e 61fd b93c 8426 c13d dfdc 2e3e
00000260: 442d 3cbe ae3f fcbc da9a b23d 87d2 bbbd
00000270: 4e9b d9bc 0153 c5bd 9ede fdbc ecef 853e
00000280: ac92 aebc 3c7a 7cbc 2991 35be 4680 2abe
00000290: 151f 9c3e de2a e1bd 5bb5 18be 7a86 ebbd
000002a0: e8e1 2cbd e0bc a33d b577 883d d28d 723e
000002b0: 94e0 7b3d c507 b73d 1574 2d3e 4ee8 b4bd
000002c0: 22eb 793e 1063 913e 70f2 30bd 3363 b5bd
000002d0: 2907 913c 7244 1bbe 8447 de3d 45af 4c3e
000002e0: 9a50 053e e5fb 6dbd de55 16be 17b3 2dbe
000002f0: 9c8b 76be e2cd 353e 6820 93bd 47d8 4d3e
00000300: 56a2 0e3e 4422 893e 0780 3b3e 3e55 303e
00000310: 5b7e 053e 326a 0b3d 4585 abbd 5da3 74bc
00000320: 77c2 2abe 4fbf 7f3d d7d9 b43d c433 e83c
00000330: e5ba 043c 0cc2 34be 9004 26be bae7 0ebe
00000340: 6ed7 2fbe b55b 413e 6595 053e 9cbe 713e
00000350: 810d 83be 629d 433c 8627 2d3e 8940 143e
00000360: 792b 2fbe 5323 59bd 1f9d c8bd d774 44be
00000370: a23e 6dbd cae4 883d 4e91 203e 6c8c 0a3e
00000380: ca57 9ebb 4cbb fb3d 99be d3bc 8a64 38bd
00000390: 7117 b2bd 722a 6d3d cedb e0bb 7caf 82be
000003a0: bb4b eebd e3b9 35bc 3c87 30be e290 583d
000003b0: 6969 4e3d fe5e 4b3e c013 b33d b557 dc3d
000003c0: b05b 64bd 107d ec3c f49b 73be dabe 77be
000003d0: 40af 05be 08a2 8ebd 9841 9f3d e2d8 57be
000003e0: 4800 af3d f844 09be 40b8 42bd c081 46be
000003f0: 9ed1 203e 30f6 c8bc 0e4c 6ebe 7897 763e
-0.1231474 0.18435946 0.076892406 -0.022335887 0.24737722 -0.10082567 0.14532912 0.0783698
-0.23821795 -0.23691648 -0.21898216 0.032395214 -0.22996801 0.012229085 -0.23483437 0.03427729
0.3012191 0.21866086 0.20478807 0.04427271 -0.22590138 -0.11820354 0.23426959 -0.15881272
-0.07313824 -0.15354629 0.11017892 0.13043277 -0.05139332 -0.032394797 0.10991192 -0.0323728
-0.11577207 0.14665705 -0.07707251 -0.13358296 0.16713355 0.08456282 -0.20433506 -0.011730611
-0.07409734 -0.14897056 0.2115661 -0.083301984 0.20631124 0.17748427 -0.13959886 -0.024923613
0.17205982 0.23672907 0.05559887 -0.030911671 -0.12612702 -0.11887127 -0.19731277 0.0030730597
0.10294636 -0.03633055 -0.07655547 -0.14686301 0.24631342 -0.08824217 0.07353011 -0.01744418
0.24215488 0.10848145 -0.04874733 -0.010002229 -0.09133899 -0.0038706984 -0.08746717 0.009016288
-0.25124702 0.11064747 -0.08656361 0.17980316 0.062161002 -0.2508736 0.1679661 0.036928453
-0.32347694 -0.054064326 -0.18129237 0.062209997 0.111263804 0.14007393 0.1132386 0.06640992
0.007055433 -0.19206792 0.15474448 0.20724805 -0.21948913 0.14725038 -0.049061287 0.121047586
0.25850773 0.22060981 0.2934969 -0.13330263 0.21537833 0.16464399 0.05795283 -0.26120687
-0.22439562 -0.18993615 0.045165304 0.15004262 -0.007996871 0.22642373 -0.16358662 0.17132339
-0.11328881 0.25311264 0.20979276 0.10988228 -0.14367612 -0.0157046 -0.028710175 0.10072864
0.10129121 0.14865042 -0.12488616 -0.047609728 -0.24527042 0.15540974 -0.20427117 0.08108821
0.02666732 0.024932668 -0.28788736 -0.14840795 -0.17419617 0.06517773 0.24672735 -0.18751243
-0.1503541 0.28164688 -0.008366254 -0.18524158 0.20241366 -0.041442618 0.13239688 0.024581674
0.16329625 -0.009479725 -0.28086248 -0.25811237 0.13426906 0.022703828 0.094311744 0.17076443
-0.18376642 -0.030792084 0.08720942 -0.09171014 -0.026563313 -0.09634972 -0.030989941 0.26159608
-0.021310173 -0.015410002 -0.17731155 -0.16650495 0.30492464 -0.109945044 -0.14912932 -0.11500259
-0.04220763 0.079950094 0.06663457 0.23686913 0.06149347 0.08937029 0.16938813 -0.08833371
0.24406102 0.2839589 -0.043199956 -0.088568114 0.01770361 -0.15162829 0.10853484 0.19988735
0.13019028 -0.058101553 -0.14681193 -0.16962849 -0.24076694 0.1775432 -0.071839154 0.20102035
0.13929114 0.26783955 0.18310557 0.17220017 0.13036482 0.034036823 -0.083750285 -0.014931527
-0.16675745 0.062438305 0.08830612 0.028344996 0.0081012 -0.17652148 -0.16212678 -0.13955584
-0.17172024 0.1888264 0.1304527 0.23607868 -0.2559624 0.011939378 0.16909608 0.14477743
-0.17106427 -0.053012203 -0.097955935 -0.19185196 -0.05792106 0.06684263 0.1568043 0.13530129
-0.0048322426 0.122915834 -0.02584772 -0.045017757 -0.08695877 0.057901807 -0.0068621403 -0.2552451
-0.11635538 -0.011091682 -0.17239088 0.052872546 0.050393496 0.19860455 0.087440014 0.10758916
-0.055751503 0.028868228 -0.2378996 -0.24193898 -0.13055134 -0.06964499 0.07776183 -0.21078828
0.085449755 -0.13405216 -0.047538996 -0.19385433 0.15704963 -0.024531454 -0.232712 0.24081218

features_extractor.conv1.bias f4 [16]
00000000: 52ba 1bbe 01c0 0ebe 7a31 50be 8405 8a3e
00000010: 291a 583d a8f1 c2bd 5367 f5bc 6078 e3bd
00000020: 4cd9 453e d7e3 2dbe 9734 8a3e f90d ccbd
00000030: c54a e3bd 4086 55be 2df0 00be 40ab e9bc
-0.15207794 -0.13940431 -0.20331374 0.26957333 0.052759323 -0.095187485 -0.029956495 -0.11106944
0.19321173 -0.16981445 0.26993248 -0.099636026 -0.110982455 -0.20851994 -0.1259162 -0.028524041

features_extractor.conv2.weight f4 [32, 16, 4]
00000000: 60d8 5e3c 20c9 73bc 9045 7a3d b47e 713d
00000010: 170c 743e e586 c93d 22c2 503b 08b0 493e
00000020: 7691 9b3d 2a45 fdbc 1beb a1bd 85be 1b3d
00000030: 600b 003e afcc b83d d48a 263e 5929 133e
00000040: 9512 063d bd2d 61bd 2842 033e dbd9 3ebc
00000050: 1085 fdbb 8076 a4bd 0f15 4d3c 0680 0abe
00000060: a8db 873b ddc7 823d 656d ea3c 2f27 9dbb
00000070: 4df7 a03c 0a18 e1bc aff1 593d 5e91 d1bd
00000080: 88f5 28be f200 95bd b379 c53c 33f2 67bd
00000090: d4f2 75be 9df8 1dbe 59a6 dcbd 1de6 2cbe
000000a0: d9fe 36bd 7a21 03be 58ee 81bd 8626 f63c
000000b0: 2800 2a3e 4ae8 1e3d 4ec9 c53d e213 f03c
000000c0: 1d66 7a3e 84d5 453e 9a4c 3f3d 208a 043e
000000d0: c0a6 03bc 02a0 e9bd 3f5e b53c 1927 0fbe
000000e0: c87f 7cbb 4804 083d c51c ea3d 5b1d fe3a
000000f0: e479 7f3d 98e6 8fbc b445 91bd 40ca a5bd
00000100: 80c0 e43a 04ca 283d 6646 ff3d 74a3 02bd
00000110: 26ed 1c3d 4c73 193e 34d7 163e 42ce 123c
00000120: 2ff9 a93d 0fdb f3bd f7c7 0ebd 2272 dcbd
00000130: 3a84 b13d 1e89 7b3d 4892 a43c 059d 903c
00000140: 9d63 08bd fb2a a73d 3eb7 853d bd44 dbbd
00000150: 4b64 a6bd de3a d7bd 1d2a 93bc adb8 ecbd
00000160: bfc2 a33c 430a 993d f13e 973d 306e 443d
00000170: cd2e ef3c 6357 f03d c2e9 1dbd 813d 69be
00000180: 1a74 44be 40df 8fbe 315d 22be 3c57 3dbd
00000190: 3e0c 58be 99d2 70be 31b9 d7bd 072b 8ebe
000001a0: 6950 42be 6d5b 05be 2569 17be 4730 4ebc
000001b0: d9a0 3a3e 7471 303e c143 a03c 5dc4 7fbd
000001c0: 768c 773e 4575 543e 11d7 623d 7c57 ff38
000001d0: 636f 453d e3f1 cc3d 18f9 b1bd 7b29 ecbd
000001e0: f198 f43d e2e5 273d bada 48bd c754 833d
000001f0: 52bd 833d aeff fe3d 4e6c bdbd 8836 61bd
00000200: d890 8e3d b606 d3bd f4f6 51bd be2b f5bd
00000210: 10ab 053d 9045 0f3c 802e ee3b 4026 de3b
00000220: 4088 673d c060 58bc 46fe 93bd 5e33 bbbd
00000230: 00ca e439 e426 1abd fecc 923d 2083 be3c
00000240: d028 bebc 3492 0fbd 10e7 65bd 4cb3 6fbd
00000250: d814 be3d 789e e9bc 205a 25bc 6e8e 883d
00000260: 765d 893d 3c30 edbd a2aa c8bd 80ee a33a
00000270: 6041 2f3d feaf 813d 9e18 afbd 0474 50bd
00000280: 2063 8cbc 38ff da3c 2002 bdbd 4e30 91bd
00000290: 8061 013b a8e4 c63c 5861 e9bd 142f c33d
000002a0: 14c8 79bd 62ee b13d 760c b53d 787e c4bd
000002b0: 44ce 28bd f446 213d dae7 d0bd 10fe e5bd
000002c0: e4fa 26bd f8b4 5d3d c4c3 6ebd b662 95bd
000002d0: 28d6 efbc 08e1 753d 40ff 243d 98e2 18bd
000002e0: 1649 e83d 38a1 aa3c 5872 81bc 260f 90bd
000002f0: f0ac e0bd 4a5c 97bd 58b0 46bd c896 56bd
00000300: 8069 8e3a f81a 473d f672 fabd ace0 e23d
00000310: a967 663e 1d96 793e d1fc b93d 657e 07bc
00000320: 4f01 7a3c 2262 ff3d 4b11 303b 5a0f b33c
00000330: c5df 833e 6e7a 333e ee2b 313e 5340 533e
00000340: 9ade 013e 8f18 cd3d 3f4e 9f3b a3d9 00bd
00000350: 96bf 2ebd 7b4a 03be b64f cabd fbda 02be
00000360: 6c95 b43d 148d be3d 1c13 e83d 8875 2b3d
00000370: 8f5c be3d 3725 3e3d 5b54 0bbe 01fd bebd
00000380: 7a08 0abb c464 9c3d f3e2 07bd 1125 193d
00000390: 9e65 30be 055b 44bd 2a82 a23b 4879 32be
000003a0: 2617 14be ba8d 20be a34d 0ebe 6bca 783a
000003b0: 242b 4a3e 80f6 2e3e 3c1d 823e cf06 d43d
000003c0: 8290 ce3e e986 ed3d 1cf1 9e3d eab9 833d
000003d0: 37ea bd3d e6d2 03be e97e 09be 2c2a 5d3d
000003e0: fbd3 0b3e a097 15bd ed48 1d3d 7269 b5bd
000003f0: 348f 723d 603c 2c3d ec5a cdbd cec1 e1bd
0.0136013925 -0.014879495 0.061101496 0.058958724 0.23832737 0.09840182 0.0031853993 0.19696057
0.07596104 -0.030916769 -0.07906171 0.03802349 0.12504339 0.09023415 0.16263896 0.14371242
0.032732565 -0.05497526 0.12818205 -0.0116486205 -0.0077368096 -0.080304146 0.012517228 -0.135254
0.004146058 0.06385777 0.028616617 -0.004795931 0.019649172 -0.027477283 0.053209003 -0.10232805
-0.16499913 -0.07275571 0.024105882 -0.056627464 -0.24018413 -0.1542687 -0.10773916 -0.16884656
-0.044676635 -0.12805739 -0.063442886 0.030047666 0.16601622 0.038795747 0.096575364 0.029306356
0.24453016 0.19319731 0.046703912 0.12943316 -0.008035362 -0.11407472 0.022139667 -0.13979758
-0.0038528312 0.033207208 0.114312686 0.0019387411 0.062372103 -0.01756601 -0.07093373 -0.08095217
0.0017452389 0.041208282 0.12464599 -0.031894162 0.0383121 0.14985389 0.14730531 0.0089603085
0.08299481 -0.119070165 -0.03485867 -0.107639566 0.08667798 0.061410062 0.020089284 0.017652998
-0.033298124 0.08162495 0.06529091 -0.1070647 -0.08124598 -0.10509275 -0.017964417 -0.115586616
0.019990323 0.074726604 0.07385052 0.047956645 0.029197121 0.11735418 -0.038553007 -0.22777368
-0.19184914 -0.28100014 -0.15855862 -0.04622577 -0.2109842 -0.23517837 -0.10533369 -0.27767202
-0.18975987 -0.13023157 -0.14786203 -0.012584752 0.18225421 0.17230779 0.019563558 -0.062443126
0.24174675 0.2074786 0.055380885 0.00012175643 0.04820193 0.10007074 -0.08690089 -0.11531349
0.11943234 0.040990718 -0.04903672 0.06412654 0.06432594 0.12451111 -0.09249173 -0.054983646
0.069612205 -0.103040144 -0.051260903 -0.11971234 0.03263384 0.008744612 0.007268727 0.006779462
0.056526423 -0.013206661 -0.07226233 -0.09140657 0.0004363805 -0.037634745 0.071680054 0.023255885
-0.02321282 -0.03505154 -0.05612856 -0.0585206 0.092813194 -0.028517947 -0.010092288 0.06667791
0.067072794 -0.115814656 -0.097981706 0.0012506992 0.042786956 0.06332396 -0.08549617 -0.05089189
-0.01713711 0.026733026 -0.09228921 -0.070892915 0.0019741952 0.024278954 -0.1139552 0.09530464
-0.060981825 0.08688046 0.08840267 -0.095944345 -0.041212335 0.039374307 -0.10200472 -0.11230099
-0.04076661 0.054127663 -0.058292165 -0.07294218 -0.029276922 0.06002906 0.040282488 -0.03732547
0.11342065 0.020828828 -0.015801594 -0.07034139 -0.10970485 -0.073906496 -0.04850802 -0.05238989
0.0010865182 0.048609704 -0.12228958 0.11078009 0.2250048 0.2437367 0.09081424 -0.008269881
0.015259101 0.12469889 0.0026865776 0.021857906 0.2575666 0.17527172 0.17301914 0.20630006
0.12682572 0.1001445 0.0048616226 -0.031457555 -0.04266318 -0.12821381 -0.09878485 -0.12778847
0.088175625 0.09304252 0.1133177 0.041860133 0.09294998 0.04642221 -0.13606398 -0.093256004
-0.0021062181 0.07636407 -0.03317542 0.037388865 -0.17226264 -0.047938365 0.0049593644 -0.17429078
-0.14461955 -0.15679064 -0.13896804 0.0009490612 0.1974302 0.1708622 0.2541293 0.10352861
0.40344626 0.11597998 0.07760832 0.06431945 0.092731886 -0.1287342 -0.13427319 0.053995296
0.13655083 -0.036521554 0.038399626 -0.08858003 0.0592186 0.042049766 -0.100271076 -0.110232934

features_extractor.conv2.bias f4 [32]
00000000: cbc5 14bc 7911 fa39 9414 d1bd 0e0e 9e3c
00000010: 0dcf 31be 271f 63bd cada 9b3d 8081 8fba
00000020: f2fb edbd d97e 453d 5e45 7cbd b838 2abd
00000030: cd6e 103c 97b4 423c 123a 0f3e e065 ec3b
00000040: eb8f 00be 50fd 70bc a93c 80bd f81e 1abe
00000050: 8733 babc 7b7b 483d d73a bc3c defc 33bd
00000060: 30c1 ab3b 0e56 963d 4664 e6bc e0fc 0abe
00000070: 30c9 debd 9a26 eabd ce23 a7bd e3df 11be
-0.009080361 0.00047696734 -0.10209003 0.019293811 -0.1736414 -0.05544963 0.0761009 -0.0010948628
-0.116203204 0.048216674 -0.06158959 -0.041557997 0.008815479 0.011883876 0.13986996 0.007214293
-0.125549 -0.014708832 -0.0626157 -0.15050876 -0.022729648 0.048945885 0.022977276 -0.043942325
0.0052415356 0.073406324 -0.028123986 -0.13573027 -0.10878217 -0.11433144 -0.08161126 -0.14245562

features_extractor.fc_op.weight f4 [32, 3]
00000000: 6500 fa3e 403a a2be 4ed2 b43e 6b18 f5be
00000010: cd88 bdbe 819e db3e 469a aa3d 2043 913c
00000020: 1f06 ba3e 228e 053f 258b 3f3c ba96 1f3f
00000030: 2395 12bf 0bde b43d 1fc1 943e 512f a7be
00000040: 28db 963d a52b 333e 4f57 3ebe da93 d0bd
00000050: 342d f83e f0ea e13e 02ee 61bd feb0 cabe
00000060: 971e 003d 81af adbe e55a 8cbe 25f6 fb3e
00000070: 3e56 8a3e 2571 45be 2ee9 f5be 3010 c5bc
00000080: 73d6 c7be 826a 0d3b 49f0 f2bd 6ae2 cb3e
00000090: fed5 9e3e 98d4 7fbe 8c81 7e3e 3bcb a0be
000000a0: a793 82be b9d7 1ebf 980b ae3e c24a 1cbe
000000b0: d86e 9abb ea5f 6abe c24e 0a3d 6ce1 b23e
000000c0: 1986 ddbe fb46 9ebe 94a6 813e 14f2 fabe
000000d0: 9b19 2f3c 40b2 8cbe a9d1 03bf c503 8dbe
000000e0: a0fd 0a3f 73fc 8d3d a62c 03bf fe63 aabe
000000f0: 97a9 49be d746 02bf a6b1 acbc 335a c6be
00000100: 7f2c b0bc 5fa7 773e cc2f 243e 5d98 053e
00000110: e558 383e 5c5e d13e a7c3 ee3e 3133 b03e
00000120: 8055 30bc 538e af3e 2990 3e3d 9313 733e
00000130: 7ba6 423e 0366 99bd 4fd2 02be 6ba6 4a3e
00000140: 4985 6cbe 7295 b63e 1c37 08bf 8acd eabd
00000150: 67dc d63d 5983 1f3e 6e27 bebe 7706 873e
00000160: 4d52 8cbe a89d d3be d517 033f 0a46 a33e
00000170: e492 833e 47d0 2fbe d35d 01bf 97d8 783e
0.48828426 -0.31685066 0.353167 -0.47870192 -0.37018433 0.42894366 0.083302066 0.017732203
0.36332795 0.5217 0.0116908895 0.62339365 -0.57258815 0.08831414 0.2905359 -0.32653287
0.073660195 0.17497118 -0.18587993 -0.101844504 0.48471987 0.44124556 -0.055158623 -0.3958816
0.031279173 -0.3392296 -0.27413097 0.4921123 0.27018923 -0.19281442 -0.48029464 -0.02405557
-0.390308 0.0021578376 -0.11862237 0.39821178 0.31022638 -0.24983442 0.24854106 -0.31405053
-0.25503275 -0.62047917 0.3399322 -0.15262893 -0.0047129206 -0.22888151 0.033766516 0.34937608
-0.4326637 -0.3091353 0.25322402 -0.49012816 0.010687257 -0.27479744 -0.5149179 -0.27541938
0.5429325 0.069329165 -0.51240003 -0.33279413 -0.196936 -0.50889343 -0.021080803 -0.38740692
-0.021505592 0.24184941 0.16033858 0.13046403 0.1800266 0.40892303 0.46633646 0.34414056
-0.010762572 0.34288272 0.0465242 0.23737936 0.1900882 -0.0749016 -0.12775539 0.19790046
-0.23097719 0.35660893 -0.5320909 -0.11464985 0.10491257 0.15577449 -0.37139457 0.2637212
-0.2740654 -0.4133122 0.5120824 0.31889373 0.25698006 -0.17169295 -0.5053379 0.24301372

features_extractor.fc_op.bias f4 [32]
00000000: 2390 6f3e 06bf 73be 268a d9bd be64 63be
00000010: 67ba 13bf 2b07 bdbe d14f bf3c 11d8 9f3e
00000020: 28ab 7b3e 25fd c93e 02ab 76be 405c 8cbd
00000030: f731 993e 2435 473e 3a19 713e 525c 1abf
00000040: 2508 133c 50c0 fbbd 6959 aa3e b641 0b3e
00000050: 9e70 203e cc84 de3e e133 8dbd 26d3 bebe
00000060: 82b6 22bd 2ed9 d4be f6ed 9fbe 948e b4be
00000070: ecc2 debe 175e 873e 7bc9 85be a566 8fbe
0.23394828 -0.23803338 -0.10622053 -0.22206399 -0.577063 -0.3691953 0.02335349 0.31219533
0.2457701 0.39450946 -0.24088672 -0.06853533 0.29920933 0.19453865 0.2354478 -0.6029712
0.00897411 -0.1229254 0.3327134 0.13599285 0.1566796 0.4346069 -0.06894661 -0.37270468
-0.039724834 -0.41571945 -0.31236237 -0.35265028 -0.4350809 0.26438972 -0.2613028 -0.28008

features_extractor.fc_merge.weight f4 [352, 352]
00000000: 105b 76bd 4372 57bd bb10 713d bfc3 ba3d
00000010: 5b7e 143e b037 163e 0887 da3d 8cdd b03d
00000020: 5c29 9a3d f667 98bc 0901 8c3b 845c 1bbc
00000030: 391d 663d d075 983c ebc5 023e b0c3 b23d
00000040: 3a92 043e a58d 203d 1d7c 81bc f842 653d
00000050: 7361 42bd 3015 afbc f404 dd3c 7fcb cb3b
00000060: bc39 3cbc 5219 8dba d820 f3bc 03b2 4c3d
00000070: c2ea 10bd 94d2 0fbd f6d2 16be ac5b 0abd
00000080: e065 933c c943 613c 89e0 fe3c d14c 123e
00000090: 39a2 e93d da74 803d 7208 b23d ee3e 573c
000000a0: e9bf f9bc f114 8f3d 7433 3e3d 177e e03d
000000b0: 6486 1a3e 5188 133e 71a7 7a3d 1407 003d
000000c0: bc33 d5bc b5e8 b5bd 31fb 753d 522e 653d
000000d0: b372 0c3e ab44 013e 8cab da3d 822c 103e
000000e0: 74a5 043d f80d 04bd 4aa1 87bd 3288 f8bd
000000f0: 222a 223e 82b8 0e3d 1386 513c f6a2 c1bd
00000100: ca9f 73bd 0457 1bbe a3a2 13be 80db 38be
00000110: b8e3 d7bd 90ea cdbd a27a d2bd 2d7b 153c
00000120: 56ad 193d 9415 ce3d 59d8 023e 489a c93d
00000130: 0411 ef3d 9e10 863d 5f6a c63d 8920 513d
00000140: b7d7 893c 8ac6 cd3c 9be6 f83c 2467 013e
00000150: 7cdf b83d c45b d53d 88af c43d bf0c ce3c
00000160: df4c cebc b28a c5bb a2a8 88bd bfa3 533c
00000170: d481 333d e699 8f3d 8b88 b53d 8d84 073e
00000180: 538f 063e 4ddb a23d 2ca1 473d 91c2 62bc
00000190: 8b52 2c3c f5fe 7abd e611 debc 37d7 8abd
000001a0: 0d19 dfbd 1fdd 96bd 0e71 92bd b2d7 f8bd
000001b0: 3ba9 62bd 12ad 32bd 0d2f 9dbd 5b60 23bd
000001c0: b4fe 8b3b 90df fb3d 00fa c13d 37b7 a43d
000001d0: f1d8 ef3d 359b 3a3d 48c4 9b3c 5c6e adbc
000001e0: 50a4 19bd 0f55 6e3a 3964 893d e1fe 853d
000001f0: d37e ca3d 881f 813d 6839 343d ca3e 3cbc
00000200: fabd 813c b383 21bd b8c0 b7bd a91f cabb
00000210: 71c1 f33c 7281 463d 8c0b ab3d cee5 063e
00000220: aae7 f43d 835e 3d3d 1932 ae3d 842a 153d
00000230: 6891 64bc 6383 e0bc 287d c1bd 1a3e 48bd
00000240: e2ce 9ebd 4598 a9bd 9aa7 c8bd 281c 1dbe
00000250: 85da a4bd 40f7 12be c668 083d 01f0 dabc
00000260: 3b7e e43c 6ba5 aebb 71c2 30bd 92bd 52bd
00000270: 4e1f 583d a0a7 2cbc 1f05 d93a ad8e 4d3d
00000280: af0a 70bc cc00 e23c b519 34bd 769e 52ba
00000290: a86d 3d3d 75a5 d3bc e68a 24bd c2eb 2e3d
000002a0: dfd3 a13c 45f1 cabc 419e 203d e9c3 6a3c
000002b0: ab89 fb3d ff1c ba3d 1776 833d e40a 9d3d
000002c0: 2d9e 0c3d a3b1 60bd b8b8 74bd cd6b f1bd
000002d0: dcb8 003e 7718 ab3d 160c dc3d 1465 aa3d
000002e0: f7d5 d63d fa3d f83d 523d 873d 184a b6bd
000002f0: cdfd b1bd ef4f 02be a25f 8abc 9bc3 003e
00000300: 17b0 fb3d ea59 dd3d 2cdf 883d d70f f13d
00000310: 7b09 5c3c 47df aebc bcc2 64bd 86e3 19be
00000320: 6f94 0dbe bc04 44bc f893 1a3d 4895 c83d
00000330: 93d4 c33d 8324 cf3d d534 de3d ac25 d93d
00000340: 35d1 aa3d ba1b d2bb 586f 3b3d af0a 5a3c
00000350: e825 67bd adba c7bd 3b40 04be c676 0bbe
00000360: 06a0 09be e08c 91be d5b8 4bbe 7d9d 59be
00000370: afd4 ae3c f422 a03c cb2c 55bd ee75 a13c
00000380: bb03 41bd 5c0c c9b6 3690 173c e864 04bd
00000390: de2e 50bc d764 1bbd 7175 5aba 7e0f 88bc
000003a0: 062c e13c cca2 c83d 0858 683d 4f0c 053e
000003b0: c008 873d d05d 133d 8ec1 903d 1018 553c
000003c0: 61c0 bdbc bc19 ac3d 37b8 253d 7140 cb3d
000003d0: a650 9c3d d0f2 973d ec20 bc3d 539d 823c
000003e0: f887 1f3d 2eb1 5cbc 11e7 723e dd8f fc3d
000003f0: e7dc c83a 8ff2 c2bb 6bb1 c6bc a58e afbd
-0.060145438 -0.052599203 0.058853846 0.09119367 0.14501326 0.1466968 0.106702864 0.08636007
0.0752742 -0.01860426 0.0042725843 -0.009482507 0.056180213 0.018610865 0.12770812 0.08728731
0.12946406 0.039197583 -0.015806252 0.05597207 -0.047456216 -0.021372408 0.0269799 0.006219327
-0.011488374 -0.0010764992 -0.029678747 0.049974453 -0.035380132 -0.035112932 -0.14728913 -0.03377883
0.017992914 0.013749071 0.031112926 0.14287116 0.11407895 0.06272288 0.08693017 0.013137562
-0.030487018 0.06986416 0.04643579 0.1096155 0.15090328 0.1440747 0.06119484 0.03125675
-0.026025645 -0.08882276 0.060054008 0.055952378 0.1371563 0.12623851 0.10677251 0.14079478
0.03238435 -0.032239884 -0.0662256 -0.12135352 0.15836385 0.03484393 0.012788313 -0.094549105
-0.05947856 -0.15169913 -0.1441751 -0.18052483 -0.10541481 -0.10054505 -0.102772966 0.009123606
0.03751882 0.100627095 0.12777843 0.0984388 0.11673167 0.06546138 0.096882574 0.05105642
0.016826494 0.025119085 0.030383399 0.12637001 0.09027001 0.104178935 0.096037924 0.025152562
-0.02518314 -0.0060284967 -0.06672789 0.012917458 0.043824986 0.07011776 0.08863934 0.13234158
0.13140611 0.079519846 0.04873769 -0.013840334 0.010517727 -0.061278302 -0.027108144 -0.0677933
-0.1089345 -0.07366394 -0.0715047 -0.121505156 -0.055337172 -0.043622084 -0.0767499 -0.039886814
0.0042723063 0.122985005 0.09471512 0.08042758 0.117113 0.045558173 0.019014493 -0.021170788
-0.037510216 0.0009091654 0.06708569 0.06542755 0.09887471 0.06304842 0.04400006 -0.011489579
0.015837658 -0.03943224 -0.08972305 -0.006168325 0.029755326 0.048463292 0.08351812 0.13173601
0.11958249 0.04623271 0.08505649 0.0364175 -0.013950683 -0.0274064 -0.094477 -0.04888735
-0.077543035 -0.08280996 -0.097975925 -0.15342772 -0.08049492 -0.14352131 0.033303045 -0.02672577
0.027892223 -0.005329778 -0.043154184 -0.05145032 0.05276423 -0.010538012 0.0016557312 0.050184894
-0.014650985 0.02758827 -0.04396983 -0.0008034477 0.046247154 -0.025835732 -0.040171526 0.042705305
0.019754348 -0.02477325 0.039213423 0.014328935 0.122821175 0.09087562 0.06419008 0.07668093
0.034330536 -0.054856908 -0.059746474 -0.117881395 0.12570518 0.08354276 0.10744493 0.0832006
0.10490029 0.12121196 0.06603493 -0.08900851 -0.08690987 -0.12725805 -0.016891304 0.12574618
0.12289446 0.10808165 0.06683192 0.11770599 0.013429995 -0.021346701 -0.055849776 -0.150282
-0.13826154 -0.011964019 0.03773877 0.09794098 0.0956203 0.10114386 0.10849921 0.106028885
0.08340684 -0.0064119967 0.045760483 0.013308211 -0.056432635 -0.097524025 -0.12915127 -0.13619527
-0.1343995 -0.28427792 -0.19894727 -0.21251483 0.02134165 0.019547917 -0.05204467 0.019709554
-0.0471227 -5.9917056e-06 0.009250691 -0.032322794 -0.0127064865 -0.037937965 -0.000833354 -0.01660895
0.027486812 0.09796676 0.05672458 0.12992977 0.06593466 0.03597814 0.070681676 0.013006225
-0.023163022 0.08403346 0.040458884 0.099244006 0.0763257 0.0741936 0.09185967 0.015944159
0.03894803 -0.013469977 0.23720957 0.12332127 0.0015324623 -0.0059493254 -0.024254521 -0.08572129

features_extractor.fc_merge.bias f4 [352]
00000000: 7bf2 c6bc f6b9 883d 3226 213d 2400 d43d
00000010: 7fbe 193d cbf4 22bd b542 d43c 1d18 373d
00000020: de13 56bd 53ac bf3b 20aa 0ebd bfc1 24be
00000030: f385 f03c 440e f53a 7699 cf3b 4934 a33c
00000040: 69d4 5fbd 7a1e 013d b490 233d 7511 b73c
00000050: 090f 5fbc 1df1 4d3d 0cf5 083d 242f 093d
00000060: d7f3 61bc 1649 ccbc fe9e f43c 3a00 f83c
00000070: 0103 c63c 5874 bbbc f083 593c 9748 7a3d
00000080: cea9 a7ba d065 8c3d f50f 633d f6b5 8fbc
00000090: 5c39 db3b dadc 66bc a9ad b33c b7a3 1fbc
000000a0: 857a 1bbc fea1 64bd 6e6c 18bd cd1c ebbc
000000b0: 7022 733d 72a7 dfbc 5a77 533d 1290 b63d
000000c0: c701 e1bc 3c91 d43c 105e 013d b499 92bd
000000d0: a836 7f3c 63f4 f2bc 3f47 5cbd 6ac8 d8bc
000000e0: d6c6 9cbc 7afa b33d 2b4e a93c ee0d 5bbd
000000f0: f772 e3bd 433b 1ebc 92d8 66bc 8655 253d
00000100: f511 473b 9768 b8bc e92d b9bc 66d2 29bd
00000110: 67ab 1abc f57a 763d 9579 4c3d 5c55 e4bc
00000120: 2b67 b53c 59f3 babc bfbd 243c 6cbd 48bd
00000130: 7129 86bc 691b 6c3d 8545 55bd 157c 1dbd
00000140: c2b7 8fbb 1765 c53d d7b3 c73d bd03 093c
00000150: bb05 99bd 358f 143d 50ed 103b 3c69 5a3b
00000160: 2c20 edbc 3705 a2bc ae8d bb3d bfd7 713c
00000170: 58f1 4d3c 7e01 e23b 8b85 aabd c1a0 37bc
00000180: 15d1 0b3c bd58 773d 2e48 ae3d eda2 24bd
00000190: 7a02 46bc e3f2 953d 316e ed3b d908 1cbd
000001a0: d2bf fabc b6bf 50bd 866d ec3d bf47 5f3d
000001b0: b8b4 0c3c 8944 c4bc 10a6 883d 07ea 17bd
000001c0: 600f 413d a5a7 6a3d 3878 ccbc 3f3e 09bd
000001d0: 1b40 e8bc c58e 61bd 1e91 6b3a 63cf b73c
000001e0: 78d9 8f3d da62 7ebc 8ee5 6f3d 3308 183b
000001f0: baf3 bbbc 74ec fb3c 54f9 52bd 3d2c 67bd
00000200: 652b e23b ba8c 7e3b 657b d03d 56cb c0bc
00000210: 930a 80bc f01b 9abd e185 83bd 40c6 253d
00000220: f40b 803d 058f 1abc 6bd8 3c3d 8685 7e3c
00000230: 64fa 95bc b295 0e3d b67e 91bc a6f5 e7bc
00000240: ec15 47bb 082b e5bc e418 66bd 6a7f 843d
00000250: abe6 36bc a321 92bc dbc2 66bd 178a 9cbb
00000260: 9d0d 93bc 6cc4 edbc 3397 e03b 5f57 253c
00000270: 392e 883d 59d2 4a3d 3ed1 843d 5303 efbc
00000280: 6892 d13c 5e91 fe3c 41ea 8ebc 3419 30bd
00000290: 205b ff3c c20f 513c 6aa8 93bc da50 01bd
000002a0: 00d8 083d 8666 39bc 8dbd f53c 941e 2cbd
000002b0: 7027 f53b 9113 2b3d dcae f7bc c424 f7bc
000002c0: 140a 6ebc eaa4 4dbd 1773 a33c cb90 60bc
000002d0: 60ec 413d 0705 c93d 9179 05bd c6b4 46bd
000002e0: 805c 213d c4c0 f0bc 7ddd 46bc 3b2b eebc
000002f0: a4f7 9ebd 1e7d 673d f7e1 cdbc 0905 a4bb
00000300: 9f8a b03b c6bc 363d f5a2 1bbd a244 9b3d
00000310: a6f3 61bd e859 94bc 0897 bd3b dd85 253d
00000320: 66d5 043d d46b bbbb 2969 923c d89e cabb
00000330: 5711 5e3d 48df 9cbd 5206 a73c 1bdb 2abd
00000340: 79f4 f5bc 1aaf c4bb f226 d8bb 4654 743d
00000350: 9516 873c 8a91 323d af8e 4abc 99ad bd3d
00000360: 4429 9d3d 8e85 48bd e353 6aba e5be e53c
00000370: 60b9 743d 165e 953a e993 503d 8aeb 13bd
00000380: dca0 983c ace9 fd3c b9db 753d 5f5d b23c
00000390: 81cc abbb f228 273c 31e9 0fbd 79da 1f3d
000003a0: ef6b a43d 161d 71bc 43dd 1f3d cdd7 12bc
000003b0: 18cb 6f3c 2020 17bc 0267 26bd e948 2b3d
000003c0: 0366 8cbd fc82 633b 986d 793b 87fc 47bd
000003d0: 3fa7 27bd 6b7b febc 943f 523d ee19 513d
000003e0: 4c2d 733b fc91 983d 06d6 83bb 907c 803d
000003f0: 2853 c4bd b2cd 41bc e5d3 8a3b f7b9 863d
-0.024285546 0.06676094 0.039343067 0.10351589 0.037535187 -0.039784234 0.025910715 0.04470073
-0.05226504 0.0058494 -0.034830213 -0.16089533 0.029360747 0.0018696268 0.0063354326 0.019922392
-0.05464593 0.031523205 0.03993292 0.022347191 -0.0136144245 0.05027877 0.03343682 0.033492222
-0.013791046 -0.024937194 0.02986097 0.030273546 0.024171354 -0.022882625 0.013276085 0.061104383
-0.0012791695 0.06855357 0.05543514 -0.01754282 0.0066901874 -0.014090741 0.021933394 -0.0097436225
-0.00948966 -0.05581855 -0.03721278 -0.028700257 0.059359014 -0.027301524 0.051627494 0.08914198
-0.027466668 0.02594816 0.031583846 -0.07158223 0.015576996 -0.029657548 -0.053778883 -0.026462752
-0.019137781 0.08788009 0.020667156 -0.05348008 -0.11105912 -0.009657684 -0.01408972 0.040364765
0.0030375693 -0.02251081 -0.0226049 -0.041460417 -0.00944028 0.060175855 0.049920637 -0.027872734
0.02214392 -0.022821115 0.010055005 -0.04900877 -0.016377183 0.057643328 -0.052068252 -0.038448412
-0.0043859193 0.09638422 0.097510986 0.008362708 -0.07471796 0.036269385 0.0022114106 0.0033326885
-0.028946005 -0.019777877 0.09157883 0.0147609105 0.012569748 0.0068971505 -0.083262525 -0.01120776
0.008533736 0.06038736 0.08509861 -0.04019444 -0.012085551 0.073217176 0.007245802 -0.038094375
-0.030609045 -0.05096408 0.115443274 0.05451178 0.008588009 -0.023958461 0.06672299 -0.03708842
0.047133803 0.057288785 -0.024959669 -0.033506628 -0.02835088 -0.055067796 0.0008986163 0.022437757
0.07023901 -0.015526498 0.05856853 0.0023198246 -0.022943366 0.030752398 -0.05150731 -0.056438673
0.0069021457 0.0038841204 0.10179786 -0.023534458 -0.015630042 -0.0752486 -0.0642202 0.04047227
0.0625228 -0.009433513 0.04610483 0.015534764 -0.018307872 0.03481073 -0.017760616 -0.028315376
-0.0030378057 -0.02797462 -0.05617608 0.06469615 -0.011163394 -0.017838305 -0.056338172 -0.004777204
-0.017950827 -0.029024325 0.006853962 0.010091632 0.06649441 0.04951701 0.06485222 -0.02917639
0.025582507 0.031075176 -0.017445685 -0.042992786 0.031171381 0.012760105 -0.018024642 -0.031571247
0.03340912 -0.011315947 0.029997611 -0.04202135 0.007481508 0.041766707 -0.030234747 -0.030168898
-0.01452877 -0.050206102 0.01995234 -0.013706396 0.047344565 0.09815412 -0.032586638 -0.048512243
0.039394855 -0.029388793 -0.012137768 -0.029073348 -0.077620775 0.056515805 -0.025132162 -0.005005483
0.0053876187 0.044613622 -0.037997205 0.0758145 -0.055164002 -0.018109277 0.0057858266 0.040410865
0.032430075 -0.005719641 0.01787241 -0.0061834864 0.054215755 -0.07659775 0.020388756 -0.04171286
-0.0300238 -0.006002319 -0.0065964395 0.059650682 0.01649026 0.043595828 -0.01236312 0.09261627
0.076738864 -0.048955493 -0.00089388917 0.028045127 0.0597471 0.0011395838 0.050922308 -0.0361133
0.018631391 0.030995212 0.060023997 0.021773038 -0.0052428846 0.010202633 -0.035134498 0.03902671
0.08028399 -0.014716407 0.03902937 -0.008962584 0.014635824 -0.009223968 -0.04062558 0.04181758
-0.06855395 0.0034715524 0.0038059708 -0.048824813 -0.040930983 -0.03106471 0.051330164 0.05105012
0.0037105856 0.07449719 -0.0040233163 0.062737584 -0.09586173 -0.011828827 0.0042366856 0.06578439

actor.weight f4 [10, 352]
00000000: d6ee 273d e56a c03c 5e12 3ebd 0dca bebc
00000010: d037 3e3c 60e5 0b3e 8502 29bd 368b 99bb
00000020: 2fe8 c53c 7949 ed3d ac95 013e 9734 05be
00000030: 8494 0cbd d210 c73b 9234 8fbc 448d bc3c
00000040: 771b b23d e531 993a df89 dabb 9259 0b3d
00000050: 3a0c bb3d b1e5 683c 1e0b 5e3b 5b99 d03b
00000060: 44d1 2cbd db46 c7b9 0fe9 9fbb a56c 803c
00000070: 2bc2 2dbd 77b7 2abd 4a47 b13b b687 41bc
00000080: 8a64 c7bc ed44 313c 2636 cb3c 474c f83d
00000090: ffbe 9f3d 1386 3e3d fc5b 9abd b05e c5bd
000000a0: 9cfb e43c 7f65 913c efa9 21be e619 a1bb
000000b0: a160 823d 9c36 b53d a451 7fbd e1a4 303d
000000c0: 62f1 4dbc 0c59 c7bb 33f2 11bd 3def c23c
000000d0: 9a80 f53b 72fb a73d f0e4 1d3e a797 1d3c
000000e0: 1d4f 613d 33de 09bb cb43 38bc cf39 283e
000000f0: 8bbe 57bd 4d6f 783d 5c58 933c 1026 48bc
00000100: 5a42 783e 2b06 c3bb de8b 7d3d 6433 393c
00000110: fdb2 08bb e476 8bbd 37d2 1e3d dbc9 f23d
00000120: 0bd3 313c b01b d3bc 0715 99bc 5dee 9bbc
00000130: 3a99 883c 25e7 52bd 0fd9 483c 2387 d6bc
00000140: acbb 503d 2878 4cbd 758f 913c 4446 183d
00000150: 4fa7 69bc 7e69 5c3d 3675 efbc adc3 dabc
00000160: 1f9d 8a3d d8fc f1bb e146 143c cd03 78bd
00000170: 2899 4dbd 39b1 bc3d 4048 eb3d a5d6 6b3d
00000180: f501 2abd 7f37 dfbd b9ef c03c 2989 57bd
00000190: d918 183d 70c5 173d a7ed 163e dc3a b53d
000001a0: ece1 c13c 668c 3e3d d402 f0bc c99e 56bc
000001b0: 0b6b c7bc 75db 6e3d 9696 cd3b b6e6 6dbb
000001c0: 8c67 503d c617 7dbc 0d46 07bd f940 193e
000001d0: 0930 083d 6f82 e83d ac6b 7b3d c037 59bc
000001e0: cf66 2c3d 26a7 a43c 69d7 0ebd 9137 143d
000001f0: fb1a 373d 7113 dfbc 9ab4 c83d c67b da3d
00000200: 1ec9 37bd 2d5e e8bb 04c4 86bc 463f 13bc
00000210: 3108 a43d 7061 2c3d 5e73 df3c bbfc 3fbd
00000220: 700c cf3c 0c75 8cbd 0c29 e33b 5aa8 c53c
00000230: 9a4d f93c cc3b 4a3d eebc 573d c90e 25bd
00000240: 01ba 3b3d 4cfc 763d 7675 bd3c e749 993b
00000250: 45a7 053e efef 88bd dbb8 1a3e b25e 5e3d
00000260: e071 113d 8ce2 9fbc 0466 2c3d 2de3 783d
00000270: af17 10bd d42a c43b 32af 273d 93e1 913d
00000280: 57e4 963d fab4 9bbc 1f08 133e e602 ed3c
00000290: 416b a7bc 813c 84bc 2521 493c b154 413e
000002a0: 539c 313d 1f9f be3b 16d0 b2bc a96a 51bd
000002b0: 2ada 0a3d ba26 a73d c4e5 a33c 622f 403d
000002c0: 4e5d 32bd 6144 c13d 01f3 303c e57b 9f3c
000002d0: ad10 a53c 2696 493c b805 e53c dded ccbb
000002e0: a4f5 c5bc e866 f13c cbea 033d ee7e 1a3e
000002f0: 8eeb 4e3d c3e3 943d 1537 0d3c 4759 50bd
00000300: 6f74 72bd ffb0 423a d9c7 4b3d 64d1 af3b
00000310: a93c c83d a0dd 32bd 57b4 ffbc fa48 15bd
00000320: 9e49 223c 7226 3b3e 02cd 3a3d 3205 ba3d
00000330: 3e23 3cbd 38ca c53d 55bf 003d 94c0 6a3c
00000340: 2505 063b b4eb 7a3d a071 e8bc a027 463c
00000350: 16b8 e83c e859 b2bc ca0e c53d f128 d53d
00000360: fbf2 f63d 5926 ed3c 71e9 e8bc 9842 773d
00000370: 2cd2 49bd 8ed5 d93b b196 c4bd dee8 473d
00000380: 81ef 69bc c975 9f3d cfeb 723d 8640 253e
00000390: 162b bd3c 75c2 913c 3be9 003e 5468 403e
000003a0: 2921 30bd f90b 8f3c d71f 37bc 6073 d73d
000003b0: 7ad9 513d eaf4 9c3c bb99 163e 8235 6a3c
000003c0: cd0c d53d 385d 053b 0d3c e53c 5fc0 653d
000003d0: c209 e43c 9e81 903d b505 d4bc 4629 f8bd
000003e0: 3611 62bb 941f 893c c750 05bb b20d 5abc
000003f0: fcfd 943c 59e9 a2bd 9074 503d d7d1 1dbc
0.040999256 0.023488471 -0.046404235 -0.023289705 0.011609986 0.13661718 -0.04126217 -0.0046857847
0.024158565 0.115862794 0.12654752 -0.13008343 -0.034321323 0.006075003 -0.017481122 0.02301658
0.08696645 0.0011687843 -0.0066692675 0.034020968 0.091331914 0.014214919 0.0033881138 0.0063659376
-0.04219176 -0.0003800903 -0.0048800777 0.015676806 -0.0424215 -0.041678872 0.0054101096 -0.011812141
-0.024339933 0.010819656 0.024806093 0.12123924 0.078001015 0.046514582 -0.07537076 -0.09637201
0.027952008 0.017748592 -0.15787481 -0.0049164174 0.06366087 0.088483065 -0.062333718 0.04312599
-0.012569757 -0.0060836133 -0.03563137 0.023795718 0.007492137 0.08202256 0.15419364 0.009618676
0.05500709 -0.0021036982 -0.011246632 0.16428302 -0.05267195 0.06065302 0.017986469 -0.012216106
0.24244061 -0.005951663 0.061900966 0.011303756 -0.0020858638 -0.06809786 0.038774695 0.11854907
0.010853539 -0.025770038 -0.018686784 -0.019034559 0.016674627 -0.051489968 0.012258782 -0.026187485
0.050960228 -0.049919277 0.017768601 0.037176386 -0.014261081 0.053811543 -0.029230695 -0.026704634
0.0676825 -0.0073848777 0.009050102 -0.0605505 -0.05019489 0.0921349 0.1148839 0.057577748
-0.041505773 -0.10899257 0.023551809 -0.05262104 0.03713307 0.037053525 0.14739095 0.08849117
0.023667298 0.046520613 -0.029298224 -0.013099381 -0.024343034 0.05831476 0.0062740548 -0.0036300845
0.05088 -0.015447563 -0.03302579 0.14966191 0.033248935 0.11353003 0.06138198 -0.013257921
0.042090233 0.020099234 -0.0348734 0.036185805 0.044703465 -0.02723095 0.09800072 0.10668139
-0.044869535 -0.0070913048 -0.01645089 -0.0089872535 0.08009375 0.04208511 0.027276691 -0.046871882
0.025274485 -0.068582624 0.0069323834 0.024128128 0.030432511 0.049373433 0.05267041 -0.040297303
0.045831684 0.060299203 0.023127299 0.0046779993 0.1305209 -0.06686389 0.1510958 0.054289527
0.03550899 -0.019517206 0.042089477 0.060763527 -0.035178836 0.005986551 0.040938564 0.07123103
0.07367771 -0.019007195 0.14358567 0.028932046 -0.020436885 -0.016142132 0.012275969 0.18879963
0.043361973 0.0058173086 -0.021827739 -0.05112711 0.033899464 0.081616834 0.020007022 0.046920188
-0.043546014 0.0943687 0.010800124 0.019468257 0.020149553 0.012303865 0.027956828 -0.0062539415
-0.024164982 0.029468015 0.032206338 0.15087482 0.05051761 0.072700046 0.00861909 -0.05086639
-0.05919307 0.0007426887 0.049751136 0.0053655375 0.09777195 -0.04366839 -0.031213922 -0.03644655
0.009905247 0.18276384 0.045605667 0.09083022 -0.045932047 0.09657711 0.03143247 0.014328141
0.0020449844 0.06125994 -0.028374493 0.012094408 0.028408092 -0.021771386 0.096219614 0.104081996
0.120580636 0.02894895 -0.028431626 0.060366243 -0.0492727 0.006647772 -0.095990546 0.048806064
-0.014278294 0.077861376 0.059306916 0.16137895 0.023091834 0.01779292 0.1258897 0.18789798
-0.043000374 0.017461764 -0.011177025 0.10520053 0.051232792 0.019159753 0.14707081 0.014294984
0.10402832 0.0020349752 0.027982736 0.056091662 0.027836684 0.070559725 -0.025881628 -0.12117247
-0.0034495122 0.01673869 -0.0020342337 -0.013308929 0.018187515 -0.07954664 0.050892413 -0.009632549

actor.bias f4 [10]
00000000: 5f7a ad3c 91c7 02bd 6d3a 8abd 39fd d7bd
00000010: 9a5e 263e 43ac 59bd 4a3a 2cbb 75ab 3cbc
00000020: 38e8 b13d 8521 b0bd
0.021176515 -0.031928603 -0.06749425 -0.10546345 0.16247025 -0.053142797 -0.002627986 -0.011515488
0.0868687 -0.08600143

critic.weight f4 [1, 352]
00000000: 9d62 093d 6766 9e3d d269 333d 56d1 803d
00000010: d2c6 cdbb 2599 7abd 3b93 bd3c 10a3 0e3d
00000020: adab 85bd cdcc a6bd f06f 93bd e0ce f4bd
00000030: 4558 6f3d a9dc 233d a108 813d 70b6 9c39
00000040: 2fca 94bd 3811 813c 790e 203d e797 243c
00000050: ee85 88bd 3665 733d 0b59 003d 7f10 a83c
00000060: 1ace 563d 72da c63c b5c1 e83c 3f28 993c
00000070: 610b 3f3d 4826 293d 2f45 283d 9f08 773d
00000080: 1280 d03d 842f b03d 5c20 503d 05ad 99bb
00000090: 7107 c0bc 0c35 553d 74f9 453d 4575 873c
000000a0: aa34 8fbc c961 9dbd 7695 9bbd 8399 443d
000000b0: 9931 173c af62 a7bd 2d70 ae3c db4f 863d
000000c0: 5b20 6a3d 30e1 933d 7324 323d 43b8 55bd
000000d0: 79bb 0fbd 8e32 bdbd 489c aabd f6bf 253c
000000e0: 6342 3dbd c228 3b3d 5d9d 803d 812b 58bd
000000f0: b1c1 edbc 9344 503d e072 4c3d 947c 293d
00000100: 1524 18bd 8d10 323d 1d42 653c 5267 45bd
00000110: 574f 29bd 426e 1b3d 7950 543d 3698 bdbd
00000120: d3ee 173d 52c5 ef3c 55e8 0b3b ea56 93bc
00000130: 0152 a5bd 1cd0 c63c 6bc0 1abd 97dd 823d
00000140: ad10 433d c9c3 e43c adbb f93c fa86 183c
00000150: 1981 5ebd 7d20 f03c bd9f bc3c f6be 19bd
00000160: 9e78 92bd 3421 bfbb 9e01 243d 1b49 ab3c
00000170: 5733 223d 3500 c0bc 5165 a4bd 1361 0ebd
00000180: bbbd 3a3d 4a81 293d 73dd 823d 4884 17bd
00000190: 09fd 1b3d 86b5 203d 4994 5dbd 4463 66bd
000001a0: f115 04bd e084 82bd 9cf3 c53d 4999 6c3d
000001b0: 7a7d 533d e156 e1bb a493 9d3b bb8f 94bd
000001c0: 0145 553d ba86 2b3d 4e62 e33d ee85 6abd
000001d0: 8f22 39bc 1e2e 82bd 80c3 7fbd 99fa 843d
000001e0: 4829 3c3d 90c2 ce3d 0e64 623d 23e9 863d
000001f0: e4c1 783d b5f8 1a3d acac b6bd d567 9dbc
00000200: e6b6 db3c d3c6 ec3c 31d8 673d 3603 4f3d
00000210: c7f6 a2bd 533a 66bd 5081 f3bc 7dbc 113d
00000220: 2622 a83c fcab 2a3d 2957 6e3d 5d0e 2a3d
00000230: 5b78 443d 09a4 1c3d 1821 f23c 482f 8e3d
00000240: c21d cd3c 22af 9abd 02ce 65bd bc4c 083d
00000250: e33a bfbd 2c2f a13b 4b75 e0bd 13cf ea3d
00000260: d8ae 8cbd eae2 493d 37cd 3abc bafe 67bd
00000270: 7781 cb3c 9f8a 6b3d 36f9 7d3d ba78 78bc
00000280: 450b 9b3c bb04 513d 5f74 b8bd 420b 44bc
00000290: 3cff ac3d 026d 993c 1d82 6fbd a22a 8ebd
000002a0: 5ecc 4e3d 7fd5 c03c 3585 223d dfcf 223d
000002b0: a284 01bd b2de 1b3d a50f 9cbd edaf d8bc
000002c0: c273 aa3c 44b1 99bc 85cb 8a3d 60a0 be3c
000002d0: db0f 173d 8268 4f3d 13f6 8ebd be5c e5bb
000002e0: 7a05 673c 9a62 8dbd 8b69 433c d7ee b1bd
000002f0: d7b9 42bd e803 003d ece6 d13d 7001 4e3d
00000300: 490a ee3c dd3c 823c 2909 bdbd 2d14 d03c
00000310: 89a7 99bd 3f95 8d3d 400e a6ba 5788 5cbd
00000320: 2a25 363d fe13 89bd fcd2 2e3d 0321 1fbd
00000330: 4f79 113e 32b3 ecbc e2d8 993d 3ca8 1abd
00000340: ba36 af3c 8ab7 38bd 122b 9bbd 826c 343d
00000350: 6586 a03c 9e51 333d a880 4cbd 5359 b03c
00000360: 5136 063e a282 43bd 1240 7a3d 9f72 593c
00000370: da5b d73c adc7 ddbc 1b76 563d 7c11 ab3c
00000380: aa76 363d 7717 34bd fd66 533d 60ac bfbd
00000390: ad1b 113c bea9 673d 996f 38bc 8e4e dbbd
000003a0: ba34 7d3d 6fd6 7ebc 75ae 5a3d b228 51bd
000003b0: b96f 95bd f78d 333d 9060 81bd dc24 de3c
000003c0: 18f1 23bd f4fc e13c ab84 6aba b40f 29bd
000003d0: a853 2dbc 70f2 2cbd 7777 023d c3aa 983a
000003e0: 6abe d739 8577 823d 06bd 0abd f7ac 3a3d
000003f0: cd9b a0bc bd59 033d 17ee 72bd b073 593d
0.03354131 0.077343754 0.04380209 0.06289928 -0.0062798047 -0.061181206 0.023141494 0.034823477
-0.06526885 -0.081445314 -0.07199085 -0.11953521 0.05843379 0.04000536 0.06300474 0.00029890565
-0.07265126 0.01575528 0.039076302 0.010045982 -0.0666617 0.059422694 0.031334918 0.020515678
0.052442648 0.024274085 0.02841268 0.018695949 0.04664171 0.041296273 0.041081604 0.060310956
0.101806775 0.08602813 0.05081211 -0.004689815 -0.023441048 0.052052543 0.0483336 0.01653541
-0.017481167 -0.07684667 -0.07596867 0.047997963 0.009228134 -0.08173119 0.021293724 0.065582
0.057159763 0.072206855 0.043491792 -0.05217768 -0.035090897 -0.09238158 -0.083305895 0.010116568
-0.04620589 0.045693167 0.06280015 -0.052775864 -0.029023023 0.050846647 0.04991424 0.041378573
-0.037143786 0.043472815 0.013992813 -0.048194237 -0.04133543 0.037946947 0.051834557 -0.092575476
0.037092995 0.029268894 0.0021348197 -0.01798578 -0.08072282 0.024269156 -0.03778116 0.06389921
0.047623325 0.027925389 0.030484999 0.009309525 -0.054322336 0.029312367 0.023025388 -0.03753563
-0.07151912 -0.0058328155 0.040040605 0.020908883 0.039599743 -0.023437599 -0.08027137 -0.034760546
0.045591097 0.041383065 0.06389894 -0.036991388 0.03808311 0.039235614 -0.054096494 -0.05624701
-0.032247487 -0.06373 0.096656054 0.05776337 0.051633336 -0.006876812 0.00480886 -0.07253977
0.05206776 0.041876532 0.111027345 -0.05725663 -0.011299743 -0.063564524 -0.062442303 0.0649311
0.045937806 0.100957036 0.0552712 0.06587436 0.060731784 0.03783484 -0.08919653 -0.01921455
0.026820611 0.0289034 0.05660266 0.05054017 -0.07957225 -0.056207966 -0.029724747 0.035580147
0.020524096 0.041667923 0.05818859 0.041517604 0.047966342 0.038242374 0.029556796 0.06942612
0.025038604 -0.07552935 -0.056104667 0.033276305 -0.093374036 0.0049189534 -0.10959872 0.114652775
-0.06869286 0.049288668 -0.011401466 -0.05663941 0.024842007 0.057505246 0.062005244 -0.015165502
0.018926272 0.051029902 -0.09006571 -0.011965575 0.084471196 0.018728737 -0.058473695 -0.06941725
0.05048787 0.023539303 0.039677817 0.039749023 -0.03162063 0.038054176 -0.076201715 -0.026451075
0.02080715 -0.018761285 0.067770995 0.023269832 0.036880355 0.050636776 -0.06980529 -0.006999581
0.014100427 -0.069035724 0.011927019 -0.08688133 -0.047540512 0.031253725 0.10249123 0.05029434
0.029057639 0.015898162 -0.09230263 0.025400246 -0.07502658 0.06913232 -0.0012669042 -0.05384096
0.044469036 -0.06693266 0.04268168 -0.03884984 0.14206432 -0.02889404 0.0751207 -0.037758097
0.0213884 -0.04509691 -0.075765744 0.044048794 0.019595334 0.043779008 -0.049927384 0.021526968
0.13106658 -0.047732003 0.06109626 0.013271957 0.026288915 -0.027072752 0.052358728 0.02088236
0.04454676 -0.04396769 0.05161189 -0.0935905 0.008856696 0.056558363 -0.011257076 -0.107083425
0.061817862 -0.015554055 0.05338903 -0.0510642 -0.072967 0.04383656 -0.06317246 0.027117185
-0.040024847 0.027586438 -0.00089461607 -0.04127474 -0.010579027 -0.042223394 0.03185221 0.0011647571
0.00041149865 0.06370453 -0.033871673 0.04557511 -0.019605542 0.032068003 -0.05930909 0.053088844
