carlike_gym/model_520.pth (torch, 526994 bytes, 11 tensors)

features_extractor.conv1.weight f4 [16, 4, 4]
00000000: b434 fcbd bac8 3c3e c479 9d3d c0f9 b6bc
00000010: 7450 7d3e b07d cebd 28d1 143e 5880 a03d
00000020: 68ef 73be 3c9a 72be dc3c 60be d8b0 043d
00000030: bc7c 6bbe 805c 483c 6c78 70be 5866 0c3d
00000040: 4276 923e 2137 5f3e 866b 5a3e fcc0 5e3d
00000050: a1f3 53be 1e47 eabd fd36 6e3e 1bf2 26be
00000060: c816 5ebd 7554 19be 6b4a de3d d23d 013e
00000070: 9f05 05bd f12a eabc 6fbe dd3d abe2 15bd
00000080: 8b89 efbd 7fd8 133e 0f79 9bbd 5cb2 01be
00000090: f409 353e a3a5 c03d 0f1d 47be c8b8 5abb
000000a0: e6f6 83bd 8fd0 0ebe f0c4 623e d069 99bd
000000b0: 2628 5d3e 9e79 3f3e dad2 04be e06a 87bc
000000c0: 0285 0d3e 333a 523e e5d4 c33c 260e 82bd
000000d0: 4d0f 05be 8a6f 01be 6701 55be 4c76 43bc
000000e0: d005 cb3d fca7 33bd 40b3 b2bd 46c0 25be
000000f0: ba51 783e a724 c4bd beac 803d 87e7 04bd
00000100: 450d 7b3e 28e4 033e 6a4c 97bc 6b9f a93c
00000110: 8277 a0bd a7bb 293b f680 a7bd 1d89 a83c
00000120: bcfa 73be 55d6 ef3d 3ca7 a5bd b9f3 433e
00000130: a6e6 993d 5b47 7abe dfcf 313e 8598 463d
00000140: 15c3 94be 554f a3bc ad30 0fbe 0dd8 e53d
00000150: 5080 fe3d b49c 1d3e 7fab 023e dcd1 a33d
00000160: 4a54 a43c 4a80 36be 032c 2d3e cb20 623e
00000170: b270 53be f8f5 243e d619 0ebd d7db 093e
00000180: ad89 783e e316 613e 5fe7 9a3e 905f 00be
00000190: 4063 6d3e 48ce 343e 4a20 933d eb1c 74be
000001a0: daf0 54be c648 36be c5df 713d a301 313e
000001b0: af6b 0a3c 7811 743e 184b 19be 43cc 463e
000001c0: a656 0fbe 052b 593e 58dd 373e 891a b03d
000001d0: 60eb fbbd e1f2 3039 b984 9abc 03cf e83d
000001e0: 2cc6 f93d f878 283e 1999 ebbd fcf9 0dbd
000001f0: fcfd 65be e264 2f3e de16 47be c595 c03d
00000200: 2b97 0f3d 3d64 213d 693b 8abe 609f 08be
00000210: 9d79 45be 1922 673d 1dba 773e 5dc7 3bbe
00000220: 8f0f 2dbe 3eb9 8b3e 6dd4 57bc 1374 39be
00000230: 652c 3c3e 9095 4dbd 11a7 023e dd3d eb3c
00000240: 58bc 473e 6652 b13c 539e 78be 5fff 5cbe
00000250: a471 113e b1a7 f93c f0d7 d13d 2d7f 393e
00000260: 7439 34be 4595 bcbc 464c c33d df8d a6bd
00000270: 2cfd 99bc 7968 b5bd da18 bbbc 1741 8b3e
00000280: ac71 e1bc 0a35 d1bc 0f96 43be 7d5c 3abe
00000290: c145 8a3e 162c 13be f957 2ebe 5754 f7bd
000002a0: 78d6 9dbd b71e 3d3d 5a65 3a3d e5a6 6c3e
000002b0: 662b da3c 81b4 633d 78d1 173e 2bb6 c0bd
000002c0: 4184 643e 15f8 8c3e ea4b 57bd a0dd d0bd
000002d0: 7e99 c43c 91fc 1ebe c57b c63d 3a16 413e
000002e0: d9c2 0b3e 61dc 7cbd ab3b 22be 224c 39be
000002f0: 5d19 70be c315 323e 27ec aabd 3c3f 423e
00000300: 263e e43d 5760 803e 9df7 373e 64eb 313e
00000310: 89ba 143e fd7f 0a3d 3ece b6bd 63a7 b6bc
00000320: 4986 1bbe 03d5 7e3d de90 a93d 13de ab3c
00000330: ba3f bc3c 80fc 34be 1da9 2bbe 8372 16be
00000340: d68e 38be fdfe 323e 5541 ed3d d738 653e
00000350: d6b3 73be 9923 8f3c 36ae 303e 7a6d 173e
00000360: 68c4 1cbe d978 42bd e28f c1bd e647 41be
00000370: e2a1 23bd f439 943d fe17 243e 5cb9 0d3e
00000380: 8aff aebb 1f8b fe3d 663f bfbc f85d 28bd
00000390: 3d51 a5bd f1d3 7c3d bfd6 9cba d3d3 7ebe
000003a0: 8785 e1bd f427 eebb fab9 2abe 3abd 723d
000003b0: b3f5 673d 5449 4f3e 17ae be3d f76d e93d
000003c0: b05b 64bd 107d ec3c f49b 73be dabe 77be
000003d0: 40af 05be 08a2 8ebd 9841 9f3d e2d8 57be
000003e0: 4800 af3d f844 09be 40b8 42bd c081 46be
000003f0: 9ed1 203e 30f6 c8bc 0e4c 6ebe 7897 763e
-0.1231474 0.18435946 0.076892406 -0.022335887 0.24737722 -0.10082567 0.14532912 0.0783698
-0.23821795 -0.23691648 -0.21898216 0.032395214 -0.22996801 0.012229085 -0.23483437 0.03427729
0.2860585 0.21798374 0.2133008 0.054383263 -0.20698406 -0.11439346 0.23263164 -0.16303293
-0.054220945 -0.14973624 0.10854038 0.12621239 -0.032476064 -0.02858493 0.10827338 -0.03659312
-0.11696156 0.14438055 -0.075914495 -0.12665695 0.17679578 0.09406593 -0.19444679 -0.0033374298
-0.064435765 -0.13946746 0.22145438 -0.07490885 0.21597347 0.18698737 -0.12971058 -0.016530454
0.1382027 0.20530014 0.023905227 -0.06350355 -0.12994118 -0.12640205 -0.20801316 -0.01193006
0.09913218 -0.043861374 -0.087255955 -0.16186628 0.24249926 -0.095773034 0.06282948 -0.032447364
0.2451678 0.12880003 -0.018469054 0.0207059 -0.07835294 0.0025899203 -0.08178894 0.020573193
-0.23826116 0.117108025 -0.08088538 0.19135942 0.07514696 -0.24441282 0.17364453 0.048485298
-0.29055086 -0.01993529 -0.13983412 0.11222849 0.124268174 0.15391809 0.12760733 0.07999012
0.020059723 -0.17822376 0.1691132 0.22082822 -0.20648459 0.16109455 -0.034692608 0.13462768
0.24271269 0.21981387 0.30254647 -0.12536454 0.23182392 0.17656815 0.07183893 -0.23839156
-0.20795003 -0.17801198 0.059051294 0.1728578 0.008448525 0.23834789 -0.14970052 0.19413857
-0.13997898 0.21207817 0.1795553 0.08598811 -0.123007536 0.00016875147 -0.018862115 0.11367609
0.121960014 0.16452396 -0.115038104 -0.03466223 -0.22460169 0.17128327 -0.19442317 0.09403566
0.035056274 0.039402235 -0.2699845 -0.13342047 -0.19284673 0.056429002 0.2419209 -0.1833777
-0.16900466 0.27289766 -0.013173205 -0.18110685 0.1837631 -0.050191462 0.12759043 0.028716022
0.19505441 0.021645736 -0.24279146 -0.21581791 0.14203507 0.03047547 0.10246265 0.1811492
-0.17600042 -0.023020396 0.095360324 -0.081325285 -0.01879748 -0.08857817 -0.022838999 0.27198097
-0.027520023 -0.025537986 -0.19100212 -0.18199344 0.27006343 -0.14372286 -0.17025746 -0.120766334
-0.07706922 0.04617187 0.045506813 0.2311054 0.026632022 0.055592064 0.14826 -0.09409746
0.22316076 0.27533022 -0.05256263 -0.101985216 0.023998972 -0.15526034 0.09691576 0.18856135
0.13648547 -0.061733607 -0.15843074 -0.18095449 -0.23447175 0.17391114 -0.08345824 0.18969434
0.111446664 0.250735 0.1796555 0.1737495 0.14524283 0.033813465 -0.08926056 -0.022296613
-0.15187944 0.062214863 0.08279584 0.020979917 0.022979606 -0.17674446 -0.1676373 -0.1469212
-0.18023238 0.17480083 0.11584727 0.22384964 -0.2379907 0.017473029 0.17253956 0.14787856
-0.15309298 -0.04747853 -0.094512716 -0.18875083 -0.039949305 0.07237616 0.16024777 0.1384024
-0.005340521 0.12428879 -0.02334566 -0.04110524 -0.080721356 0.06172556 -0.0011965855 -0.24885492
-0.110117964 -0.0072679464 -0.16672507 0.05926249 0.0566308 0.20242816 0.09310549 0.11397927
-0.055751503 0.028868228 -0.2378996 -0.24193898 -0.13055134 -0.06964499 0.07776183 -0.21078828
0.085449755 -0.13405216 -0.047538996 -0.19385433 0.15704963 -0.024531454 -0.232712 0.24081218

features_extractor.conv1.bias f4 [16]
00000000: 52ba 1bbe a18b e5bd 8ec7 46be 129a 8b3e
00000010: c858 c23d e0e9 a8bd 9cf1 b3ba f38d d6bd
00000020: 1ac5 413e ce63 23be c2a4 763e 749d c9bd
00000030: 0e31 bcbd 3e71 4ebe 6835 f9bd 40ab e9bc
-0.15207794 -0.11208273 -0.19412062 0.27265984 0.0948959 -0.08247733 -0.0013728621 -0.104762934
0.18922845 -0.15956041 0.24086288 -0.09844485 -0.09189044 -0.20160386 -0.121683896 -0.028524041

features_extractor.conv2.weight f4 [32, 16, 4]
00000000: 60d8 5e3c 20c9 73bc 9045 7a3d b47e 713d
00000010: b158 3f3e d21b 6a3d 43f9 18bd cac4 223e
00000020: b1a4 993d e97e ffbc c324 9fbd 0174 223d
00000030: 1991 963d 4bd3 b23d 54f9 2a3e 1144 073e
00000040: c8a3 e4bb 0c48 b8bd 544f 083e 1efa 4cbb
00000050: ad2a 19bc 1b0b a6bd 037e 1e3c a6b8 0cbe
00000060: 0f1b b2bc ef8b 273d a3d9 003c eb5e dcbc
00000070: 298f 3dbc be0d 8cbc 2855 c03d 8d97 c5bd
00000080: f6d5 03be af64 f0bc 85c6 793d f91c 1cbd
00000090: 06a0 73be b20c 1cbe afbb c5bd 70c5 ddbd
000000a0: 8179 79bc 74af e9bd 0283 56bd 6f6f 193d
000000b0: 9cb3 023e 7a9c d13b 4a4d 9c3d d856 2a3c
000000c0: f891 3b3e 6ba2 193e 8e6a 693c 0545 d33d
000000d0: a980 4dbd fb76 4bbd a573 d73d 1d14 07be
000000e0: fe3b 90ba ccc7 193d 7990 f43d b2c3 ca3b
000000f0: e479 7f3d 98e6 8fbc b445 91bd 40ca a5bd
00000100: 80c0 e43a 04ca 283d 6646 ff3d 74a3 02bd
00000110: 1937 1ebc f443 f23d 5e5c 1b3e 21ed cb3c
00000120: 8196 ab3d adaf f7bd 7b07 18bd 4866 e0bd
00000130: 0118 2c3d f05d 393d d258 e23c a194 193d
00000140: 4981 80bd 5df9 873d 5d7a b33d 9f11 a0bd
00000150: 4051 97bd 196f cebd eb93 52bc 0d64 d7bd
00000160: b7f3 ca3b b8f6 8b3d 9f83 9e3d f3a4 643d
00000170: 7de1 76bc 328e 013e 948f a639 c590 31be
00000180: fb93 f5bd 01c6 62be dc1b edbd 72e7 a2bc
00000190: 0806 45be 3c07 6dbe 9af9 b3bd 28b8 5fbe
000001a0: e4ec f6bd fcb9 e5bd 04a6 16be d61a 64bc
000001b0: 41a3 133e 6889 0f3e cae5 083d 7bcc 0ebd
000001c0: 7ada 4d3e fafd 4c3e d666 7f3d 193b 793c
000001d0: bc12 a93b 13fa f63d a63f d5bc cb92 85bd
000001e0: d424 fa3d 2b59 3e3d b76f 2abd 7fbc 943d
000001f0: 52bd 833d aeff fe3d 4e6c bdbd 8836 61bd
00000200: d890 8e3d b606 d3bd f4f6 51bd be2b f5bd
00000210: 10ab 053d 9045 0f3c 802e ee3b 4026 de3b
00000220: 4088 673d c060 58bc 46fe 93bd 5e33 bbbd
00000230: 00ca e439 e426 1abd fecc 923d 2083 be3c
00000240: d028 bebc 3492 0fbd 10e7 65bd 4cb3 6fbd
00000250: d814 be3d 789e e9bc 205a 25bc 6e8e 883d
00000260: 765d 893d 3c30 edbd a2aa c8bd 80ee a33a
00000270: 6041 2f3d feaf 813d 9e18 afbd 0474 50bd
00000280: 2063 8cbc 38ff da3c 2002 bdbd 4e30 91bd
00000290: 8061 013b a8e4 c63c 5861 e9bd 142f c33d
000002a0: 14c8 79bd 62ee b13d 760c b53d 787e c4bd
000002b0: 44ce 28bd f446 213d dae7 d0bd 10fe e5bd
000002c0: e4fa 26bd f8b4 5d3d c4c3 6ebd b662 95bd
000002d0: 28d6 efbc 08e1 753d 40ff 243d 98e2 18bd
000002e0: 1649 e83d 38a1 aa3c 5872 81bc 260f 90bd
000002f0: f0ac e0bd 4a5c 97bd 58b0 46bd c896 56bd
00000300: 8069 8e3a f81a 473d f672 fabd ace0 e23d
00000310: 3053 0c3e 5751 113e 0cfd 2d3c 176f 9abd
00000320: fa26 683c 4be2 003e 591b 283c 1c4d 283d
00000330: b8d8 243e c7ee 103e 623e 153e db51 3b3e
00000340: fa6e f13c bd02 553d 8d9f 7cbc bc76 29bd
00000350: 99e4 03bd 2e34 e6bd 1227 9cbd 3712 efbd
00000360: a04d 6c3d 2104 843d aa03 ab3d 9d38 abba
00000370: 6a10 5e3d 562d ac3d b3c7 eabd b9ae 0ebe
00000380: 83f0 fc3c 7b8e ff3d e979 623c c92b ac3d
00000390: f397 21be 86b6 dfbc b411 d03d 03b9 60bd
000003a0: 7c6c 00be a405 0ebe f753 e9bd f6f3 d73c
000003b0: de13 083e 9d5f df3d 5a56 5c3e 7f6f 723d
000003c0: 3cf2 9a3e 0ed1 3e3d ece8 f73c 78cb 9f3c
000003d0: fe3a d93d 87a7 b1bd 594f f3bd 1fc5 383d
000003e0: 5495 113e c664 e9bc 08ea 3b3d 6dd0 abbd
000003f0: 348f 723d 603c 2c3d ec5a cdbd cec1 e1bd
0.0136013925 -0.014879495 0.061101496 0.058958724 0.18686177 0.057155438 -0.03734709 0.15895382
0.075021155 -0.031188445 -0.077706836 0.03966141 0.07351894 0.08731707 0.16696674 0.13209559
-0.006977532 -0.08998117 0.13311511 -0.003127701 -0.009348554 -0.08107587 0.009673598 -0.13742313
-0.021741418 0.040904935 0.007864389 -0.02690073 -0.011569777 -0.017096397 0.09391242 -0.09648047
-0.12874588 -0.029344885 0.06098034 -0.038113568 -0.23791513 -0.15239218 -0.096549384 -0.10828674
-0.015226723 -0.11410418 -0.052371033 0.037459787 0.12763828 0.0063968273 0.07631929 0.010396682
0.18317401 0.15003364 0.014246596 0.10315899 -0.050171528 -0.049674015 0.10520104 -0.13191266
-0.0011004207 0.037544057 0.119416185 0.0061878795 0.062372103 -0.01756601 -0.07093373 -0.08095217
0.0017452389 0.041208282 0.12464599 -0.031894162 -0.009656691 0.11829367 0.15171954 0.024893345
0.08378316 -0.12094054 -0.03711651 -0.109570086 0.04201508 0.0452556 0.027630243 0.03749526
-0.06274659 0.06639359 0.08763573 -0.07815861 -0.07388544 -0.10079784 -0.012852649 -0.1051713
0.006193604 0.06834167 0.077399485 0.05582137 -0.015068409 0.126519 0.0003176896 -0.17340381
-0.11991116 -0.22145845 -0.115775794 -0.019885752 -0.19240582 -0.23147291 -0.08787842 -0.21847594
-0.12056902 -0.11217114 -0.14711767 -0.013922414 0.14417745 0.1401726 0.03342227 -0.034862977
0.20102873 0.2001876 0.06235393 0.015211844 0.005159704 0.120594166 -0.026031327 -0.06522139
0.12214056 0.046471756 -0.041610446 0.07262515 0.06432594 0.12451111 -0.09249173 -0.054983646
0.069612205 -0.103040144 -0.051260903 -0.11971234 0.03263384 0.008744612 0.007268727 0.006779462
0.056526423 -0.013206661 -0.07226233 -0.09140657 0.0004363805 -0.037634745 0.071680054 0.023255885
-0.02321282 -0.03505154 -0.05612856 -0.0585206 0.092813194 -0.028517947 -0.010092288 0.06667791
0.067072794 -0.115814656 -0.097981706 0.0012506992 0.042786956 0.06332396 -0.08549617 -0.05089189
-0.01713711 0.026733026 -0.09228921 -0.070892915 0.0019741952 0.024278954 -0.1139552 0.09530464
-0.060981825 0.08688046 0.08840267 -0.095944345 -0.041212335 0.039374307 -0.10200472 -0.11230099
-0.04076661 0.054127663 -0.058292165 -0.07294218 -0.029276922 0.06002906 0.040282488 -0.03732547
0.11342065 0.020828828 -0.015801594 -0.07034139 -0.10970485 -0.073906496 -0.04850802 -0.05238989
0.0010865182 0.048609704 -0.12228958 0.11078009 0.13703609 0.14191185 0.010619413 -0.0754072
0.014169449 0.12586324 0.010260426 0.041089162 0.16098297 0.14153586 0.14574578 0.18292944
0.029471863 0.052004565 -0.015418899 -0.041373 -0.03220043 -0.11240421 -0.076246396 -0.11673396
0.057691216 0.064461 0.08350308 -0.0013063137 0.054214872 0.08407085 -0.11463871 -0.13933839
0.030876404 0.12478348 0.013823011 0.08406789 -0.1578062 -0.027308714 0.101596266 -0.05486394
-0.12541384 -0.13869339 -0.11392968 0.026361447 0.13288829 0.10906909 0.21517316 0.059188362
0.30262935 0.04658609 0.030262433 0.019506201 0.10606955 -0.086745314 -0.11880369 0.045109864
0.1421712 -0.028490435 0.045877486 -0.083893634 0.0592186 0.042049766 -0.100271076 -0.110232934

features_extractor.conv2.bias f4 [32]
00000000: 4f34 f2bc e102 a33c 9414 d1bd c142 3dbc
00000010: 975b 0dbe ca0f dcbc 35b2 6a3d 1a29 7bbc
00000020: 1b9d b8bd 6bc2 343d 3941 0bbd a6d2 4dbd
00000030: 6929 c83c 3206 20bd 9941 193e e065 ec3b
00000040: eb8f 00be c7f6 24bc 7ebf febc 1341 fdbd
00000050: 03e4 51bd fa74 0a3d 9bfb bc3c 5714 29bd
00000060: a75f 263d 0179 653d 58c5 adbc 4ee9 efbd
00000070: 577c bbbd 9a26 eabd 5c2c cebd d91b f2bd
-0.029565958 0.019898834 -0.10209003 -0.01155156 -0.1380447 -0.026862998 0.057298858 -0.015329624
-0.090143405 0.044130724 -0.033997748 -0.050249718 0.024433808 -0.03906841 0.1496643 0.007214293
-0.125549 -0.010068602 -0.03109717 -0.123659275 -0.05124284 0.033802964 0.023069194 -0.041279163
0.040618565 0.0560236 -0.021212265 -0.11714421 -0.09154575 -0.11433144 -0.10067055 -0.11821718

features_extractor.fc_op.weight f4 [32, 3]
00000000: 7470 033f 9c07 aabe 69bb 6a3e f34c f5be
00000010: a19a b5be 115e ed3e 2b8d 613d 9648 913c
00000020: 83a1 d13e 9e84 0a3f bc00 20bd 1b35 103f
00000030: 5dc7 12bf 18d8 b43d 5b37 a33e aa7a a7be
00000040: 1fdb 963d bc39 7a3e f645 40be b256 e2bd
00000050: 18a5 ea3e b779 ec3e 6544 7dbd afef cfbe
00000060: f596 6e3c 1935 b0be 1298 0abe ad31 083f
00000070: 1c62 8a3e 8975 56be 42a5 f6be 931f e0bc
00000080: 2bd6 f1be 386a e43b e895 02be 0aa1 b63e
00000090: f1f9 a93e 65cd 85be 1cfa 993d ada3 a0be
000000a0: eae4 89be 735f 07bf 413a c43e 3dff 1fbe
000000b0: aa15 0abe 8a1d 6bbe 7d43 0a3d 73fd e23e
000000c0: 7255 ddbe 0f07 89be 14c9 6d3e cfd2 fabe
000000d0: f653 2f3c f212 5abe faec 03bf 6f25 93be
000000e0: c5b4 003f 05b5 403d 5a6c 02bf 2b3f a0be
000000f0: 6eea 48be 68c1 00bf 8550 93bb 790a c7be
00000100: e701 10bd 4ff0 663e dbee 423e d8a7 053e
00000110: d750 de3d e99c e33e 81ca ee3e 3a06 5a3e
00000120: 6632 853c 2b99 af3e 683a 4a3d fafa 8c3e
00000130: afb4 423e 3e7c 20be 2f0a 05be c2ad 4a3e
00000140: 8992 89be b2d1 bd3e 070d 07bf 37a9 99bd
00000150: 110f e63d cd89 1f3e 9040 adbe a9f0 733e
00000160: 4361 96be 3c2e a8be 0fcf 0a3f 7d4a a33e
00000170: d6df 8b3d ae6a 31be d375 fabe 9057 673e
0.51343465 -0.3320893 0.22923054 -0.4791027 -0.35469535 0.4636083 0.05506627 0.017734807
0.40943536 0.5410861 -0.0390632 0.5633103 -0.57335454 0.08830279 0.3187817 -0.32710773
0.07366013 0.24436086 -0.18776688 -0.11051692 0.45829082 0.4618661 -0.061832804 -0.40612552
0.014562358 -0.3441551 -0.13534573 0.532008 0.27027977 -0.20943274 -0.48172957 -0.027358806
-0.4723371 0.00697067 -0.12752497 0.35669738 0.33198503 -0.26133266 0.07518408 -0.31374875
-0.2693246 -0.5288002 0.38325694 -0.1562471 -0.13484827 -0.22960487 0.033755768 0.4433399
-0.43229252 -0.26763198 0.23221236 -0.4898896 0.01070117 -0.2129629 -0.5153347 -0.28739497
0.5027583 0.047047634 -0.5094658 -0.31298193 -0.19620678 -0.50295115 -0.0044956827 -0.38875178
-0.035158064 0.22552608 0.19036429 0.13052309 0.10855263 0.4445565 0.46638873 0.21291438
0.016259383 0.34296545 0.049372107 0.2753523 0.19014238 -0.15672395 -0.12992166 0.19792846
-0.2686961 0.37074047 -0.52754253 -0.07502978 0.112333424 0.1557991 -0.3383832 0.23822273
-0.2937108 -0.32847774 0.54222196 0.31892768 0.06829803 -0.17325851 -0.48918018 0.22591996

features_extractor.fc_op.bias f4 [32]
00000000: 54c6 653e c0a8 8cbe a75b 7bbd e8d1 8abe
00000010: 76f8 10bf aa84 d4be 20dd 623c 0c4d a43e
00000020: 9db1 583e 21d3 c93e e716 21be e465 d3bd
00000030: 98a1 923e 80b7 013e 1e75 633e bb83 06bf
00000040: a809 b73b e05d f2bd 972f 9a3e 8292 cbbc
00000050: e537 703e 27ca c93e 3843 e6bd 6862 dcbe
00000060: 0553 7abd 303f afbe 9eb6 97be d582 ccbe
00000070: 6cf0 e6be f6dc 583e d24e 97be 945f a8be
0.22438937 -0.27472496 -0.061366703 -0.2711327 -0.5662912 -0.41507465 0.013846666 0.32090032
0.21161504 0.3941889 -0.15731393 -0.103221685 0.2863891 0.12667656 0.22212645 -0.52544755
0.005585868 -0.118343115 0.30114433 -0.024850134 0.23458822 0.39412042 -0.1124329 -0.43043828
-0.06111433 -0.34227896 -0.29631513 -0.39943567 -0.45105302 0.2117804 -0.29552323 -0.3288542

features_extractor.fc_merge.weight f4 [352, 352]
00000000: 0005 02bd 2f36 36bd da8d 523d ee2c a53d
00000010: 8958 013e 1abc f13d 3b22 903d 6558 463d
00000020: 9bed 253d 4b3a 72bd 4ba8 d53b 3464 f0bc
00000030: 605b 0c3d 86e4 523a cdee d43d f442 543d
00000040: be12 bc3d 1c6c 813b 0e51 34bd 2258 fd3c
00000050: 7361 42bd 3015 afbc f404 dd3c 7fcb cb3b
00000060: bc39 3cbc 5219 8dba d820 f3bc 03b2 4c3d
00000070: c2ea 10bd 94d2 0fbd 6229 cabd 216c e4bc
00000080: 8c2e 2b3b 6201 2fbb 88d7 923c 6878 013e
00000090: 49d6 b73d c02b 063d f71f 683d 2f45 a5bc
000000a0: 8ecf 4bbd 7090 063d 6ccf 6a3c b060 ae3d
000000b0: 2813 fc3d 9e34 d93d 264c ce3c 825e 0f3c
000000c0: 0db9 11bd 5326 c8bd 23f8 a03c 5402 dab8
000000d0: 290c c03d 510d c73d c0fb a03d f541 d43d
000000e0: 5ea5 07bb f6fe 1dbd 2b42 54bd afa6 f6bd
000000f0: 59df df3d 3260 d33b 0ccf 773b f9a9 a5bd
00000100: 54f8 cdbc 83d5 c0bd 7310 7ebd fbda 9dbd
00000110: 40cb 8d3c 2506 013d 6025 acbd e5c9 a2bb
00000120: 3221 8d3c 2e9b ab3d 08f8 e03d 6c12 943d
00000130: 2f24 a83d d129 ea3c 155d 813d 2d52 8e3c
00000140: 35fe 8a3b 4413 933a 3287 923b 054d cf3d
00000150: acba 863d 88f9 8c3d 8e48 663d 8a79 f5bb
00000160: 6b48 26bd 955c bdbc 1893 3cbd d233 d73b
00000170: 0ebf ee3c 1912 653d caab 9a3d f9f9 e03d
00000180: 6862 c63d 1144 323d d96b 843c d9ed 51bd
00000190: d818 d73b d34a 67bd 9f2a aebc 66a4 8dbd
000001a0: 1ed7 e4bd b8fb 99bd 1d63 85bd 7cf5 d2bd
000001b0: 93c5 02bd 9a63 4fbc 4b39 98bd 8346 61bd
000001c0: 3cb6 37bc e71b d73d f326 963d 758c 3d3d
000001d0: 42f6 9d3d 7dd6 503c d5ed 93bb 442d 3ebd
000001e0: 2049 6cbd bbeb 0dbd 9b64 0a3d 867f 113d
000001f0: fccb 853d beca b53c da44 9a3b b554 01bd
00000200: 5523 7a3c 7f72 40bd cdcb 5cbd c1a0 30bc
00000210: 0b9a a43b 9a55 c23c afe7 703d dc84 d33d
00000220: 5689 ab3d 9e32 a83b f30d 3b3d 75b2 3abb
00000230: 07b3 93bc d828 d6bc 36d4 bebd 3ed1 49bd
00000240: 72a7 97bd 935f 8bbd 60a4 2abd 2d6a 6abd
00000250: b6e7 f03c a3f8 31bd c668 083d 01f0 dabc
00000260: 3b7e e43c 6ba5 aebb 71c2 30bd 92bd 52bd
00000270: 4e1f 583d a0a7 2cbc 1f05 d93a ad8e 4d3d
00000280: af0a 70bc cc00 e23c b519 34bd 769e 52ba
00000290: a86d 3d3d 75a5 d3bc e68a 24bd c2eb 2e3d
000002a0: dfd3 a13c 45f1 cabc c6b9 123c 6e05 0dbd
000002b0: 971b a33d 278c 733d 92be 0f3d d4fd 353d
000002c0: c77e 943b 7b76 50bd 3d29 21bd 6ccf dcbd
000002d0: 9559 983d 050c 113d 1b17 983d 90b0 713d
000002e0: b209 9d3d ea1c b23d 8a87 283d 731e adbd
000002f0: 8f9c 92bd 16fb 04be 1129 47bd 0d06 8e3d
00000300: ab6a 9f3d 7e12 a73d 389a 303d 554b a63d
00000310: de26 cfbc 84d3 0bbd 9474 2fbd 7f5c 0cbe
00000320: 659d c1bd 3db1 39bc 20ac 9d3c c634 a53d
00000330: 8bdc a53d db4c a63d a2e9 9f3d cb19 903d
00000340: 1d05 4e3d 4513 13bd 9be2 183d fc99 0cba
00000350: 3325 98bd 2a9a dbbd bfda 07be 7f2a 04be
00000360: 42b8 85bd df9e 15be 0cfd 83bd ff91 bdbd
00000370: afd4 ae3c f422 a03c cb2c 55bd ee75 a13c
00000380: bb03 41bd 5c0c c9b6 3690 173c e864 04bd
00000390: de2e 50bc d764 1bbd 2050 efba 7865 19bd
000003a0: 1573 a03b 2683 9e3d 83de 023d 96c8 c63d
000003b0: 005a e93c 39fa 62b9 c215 183d 76ab a8bc
000003c0: 6361 3abd c85e 033d b00a a2bb f33a 8f3d
000003d0: 52c3 3c3d 45a4 073d aedc 4e3d 87bf 15bc
000003e0: 4fb9 f53c 74fc c0bc 20e5 333e 0c90 de3d
000003f0: f33f 953c 5ae1 463c 9a71 0ebd 715f abbd
-0.03174305 -0.044485267 0.05140481 0.0806521 0.1263143 0.11803456 0.07037779 0.048424143
0.0405098 -0.059137624 0.006520306 -0.029344656 0.03426683 0.0008044917 0.1039711 0.051821664
0.09183262 0.003949655 -0.044022612 0.030925814 -0.047456216 -0.021372408 0.0269799 0.006219327
-0.011488374 -0.0010764992 -0.029678747 0.049974453 -0.035380132 -0.035112932 -0.098711744 -0.027883591
0.0026120273 -0.0026703705 0.017925039 0.12643588 0.089764185 0.032756567 0.05667111 -0.02017459
-0.049758486 0.03285259 0.01433168 0.085145354 0.12308341 0.10605739 0.025182795 0.00875056
-0.03557687 -0.09772935 0.01964957 -0.00010395484 0.09377319 0.09719337 0.078605175 0.10364143
-0.0020697932 -0.038573228 -0.051820915 -0.12043511 0.10931272 0.0064506764 0.0037812619 -0.0808906
-0.025142826 -0.09415724 -0.062027406 -0.07707783 0.017308831 0.0315 -0.08405566 -0.0049679154
0.017227743 0.083792076 0.10984808 0.07230076 0.082100265 0.028584393 0.06316582 0.017373169
0.0042417296 0.0011220952 0.004471683 0.10122112 0.065785736 0.06883532 0.056221537 -0.007491295
-0.040596407 -0.023115436 -0.046038717 0.0065674568 0.029143836 0.055925462 0.075522974 0.109851785
0.09686738 0.043521944 0.016164707 -0.05125222 0.006564241 -0.056467842 -0.021260558 -0.06916122
-0.11173843 -0.07518715 -0.06513045 -0.10300729 -0.031926703 -0.012658024 -0.07432803 -0.054998886
-0.011212882 0.10503369 0.07331648 0.04627653 0.077129856 0.0127464505 -0.004514436 -0.046429887
-0.057686925 -0.03464864 0.03378735 0.035522006 0.065330476 0.022191402 0.004707915 -0.031574924
0.015267213 -0.046984192 -0.053905297 -0.010780514 0.005023246 0.023722459 0.0588147 0.10328075
0.08375804 0.005132987 0.0456676 -0.0028487716 -0.018029703 -0.026142523 -0.0931782 -0.049271815
-0.074049845 -0.06805339 -0.041660666 -0.057230163 0.029407363 -0.04345001 0.033303045 -0.02672577
0.027892223 -0.005329778 -0.043154184 -0.05145032 0.05276423 -0.010538012 0.0016557312 0.050184894
-0.014650985 0.02758827 -0.04396983 -0.0008034477 0.046247154 -0.025835732 -0.040171526 0.042705305
0.019754348 -0.02477325 0.008955425 -0.034429006 0.07964247 0.05945983 0.03509385 0.044431522
0.0045317146 -0.05089424 -0.03934597 -0.1078175 0.074389614 0.035411853 0.07426282 0.059006274
0.07667865 0.08696921 0.041144885 -0.08453073 -0.071587674 -0.12986407 -0.04862315 0.06934748
0.07784017 0.08157824 0.043115824 0.08119837 -0.025287088 -0.034137264 -0.042835787 -0.1370716
-0.09453849 -0.011333761 0.019247115 0.08066706 0.08098706 0.08120128 0.07808234 0.070361696
0.050297845 -0.03590705 0.037325483 -0.00053635216 -0.0742897 -0.10722764 -0.13267039 -0.12906836
-0.06529285 -0.14611386 -0.06444749 -0.09256362 0.02134165 0.019547917 -0.05204467 0.019709554
-0.0471227 -5.9917056e-06 0.009250691 -0.032322794 -0.0127064865 -0.037937965 -0.0018258132 -0.037450284
0.0048965313 0.07739858 0.031950485 0.097062275 0.028485298 -0.00021646255 0.037130125 -0.020589571
-0.04550303 0.032072812 -0.0049451217 0.069936655 0.04608471 0.033115644 0.050503425 -0.009139902
0.029995589 -0.023557879 0.17567873 0.108673185 0.01821897 0.012138689 -0.034776308 -0.083678134

features_extractor.fc_merge.bias f4 [352]
00000000: d801 d2bc e188 863d 7b01 c73c 464b 793d
00000010: 7fbe 193d 2beb 5fbc 1480 933c 1fdf 253d
00000020: 6b82 92bb 44e0 213d 0817 25bb b2a1 abbd
00000030: 9f67 8e3c 073e fbbb b8f8 383b d61f be3b
00000040: e7bd 30bd 5e19 c43c dd14 f63c 3763 493c
00000050: b558 c33c 4cd8 353d d342 12bc 5ce7 d03c
00000060: 5590 a8bc 31e5 e3bc 497b eb3c 11d8 803c
00000070: 4f54 ac3c 0fc9 dbbc 51a6 97bb 9111 e93c
00000080: 0b94 8fbc a108 d23c 286d 543d a259 de3b
00000090: b898 eb3c f900 94bc 0517 3e3c 1355 a5bc
000000a0: f390 813c de41 96bc 9cd0 1a3c 12e6 02bd
000000b0: 637b 243d 9ed8 343c 68cd 013d 91b2 923d
000000c0: f749 e8bc 386c b33c c72b 0c3c 227d 2fbd
000000d0: 4948 3b3d 0b82 ed3a 69fe c3bc 6ac8 d8bc
000000e0: b1dc 24bb f8ff 8c3d 70cb 4b3c c24b e2bc
000000f0: a7f9 48bd e67c 7abc f4cc c7bc 4cdf ba3c
00000100: 9565 8aba 2807 b4bc 218b b4bc 5db5 03bc
00000110: e8fb b53c 2d23 623d a996 353d af4d c33b
00000120: ef2f fc3c ecba ecbc bfbd 243c 6cbd 48bd
00000130: 55ea b43c e80f 443d bfcf 01bd 98f6 13bd
00000140: 0e64 87bc 7098 983d 3c38 5b3d 3ced 1b3d
00000150: 655e 26bd 13f0 603c 73b8 dcbb 3c69 5a3b
00000160: d1e3 b43b da33 94bc 3d5f 8a3d 56e9 bc3b
00000170: ff0c 7c3b 972c 003d 0df1 54bd 7b2f 1c3c
00000180: e453 973b a20f b83c aba3 353d f099 38bd
00000190: 3c33 9fbc 04d5 e13c 27ff 203d 0081 38bc
000001a0: d2bf fabc 56c6 abbc 7cf9 a23d 8afd 8d3c
000001b0: 23bb c63b 2704 7abc 0e2c 653d ba2e 4e3a
000001c0: 3997 293d 2346 4a3d 16fd eebc 121a de3a
000001d0: 3239 0dbc ebcf a1bc aba3 3b3c d9c8 8a3c
000001e0: 6aa1 803d 0ddb 90bc 1b12 663d 5781 cbbb
000001f0: 21a3 dfbc 02ad da3c 7794 7dbc 9c36 08bd
00000200: 8b7c d039 5910 8abb c963 8a3d 5e73 00bd
00000210: a1ad a73c 9451 80bd 430d 1abd 2664 0b3d
00000220: 4842 643d 6c52 59bc 5a19 3f3d 1692 933c
00000230: 2c47 babc a28f de3c b8a3 f2bc c52b 0bbd
00000240: ec15 47bb e188 483a 2e40 0cbd d61e 313d
00000250: 485d 1bbc 2da6 f3bc 1c7e 99bc d3f9 fcbb
00000260: 770e b13c 686e 12bd ebe9 163d 53a5 ba3c
00000270: 71a1 4f3d 05fe 133d ad54 783d 9bea a0bb
00000280: 012c a73c 2403 b53c 1e23 353c 370b a2bc
00000290: e27e c73c cdb1 743b d624 6439 001e c8bc
000002a0: dc8a 113d b8f8 b8bc f1fb aa3c 941e 2cbd
000002b0: 8b8f c53c b8c0 f63c 8e28 713b 30f0 84bb
000002c0: 5669 b8bc 385d dfbc 04ac f03b f0cc adbc
000002d0: b607 2a3d 64ab 853d 742c e93b a3aa 21bd
000002e0: 6a80 0a3d 719d afb8 f58f 8bbc d6b6 92bb
000002f0: fbe3 0fbd f70b 613d 30e8 dcbc 145d 64bc
00000300: 2b76 69b9 9c09 233d dfda 903a 7d68 853d
00000310: c4f5 b7bc bc5b ddbc 0897 bd3b 0426 5e3d
00000320: c525 7b3c cf53 05bc 19c8 0e3c 75b5 d63c
00000330: fd4d 483d 83a6 17bd 6bc3 223c d09a 5dbb
00000340: b8df 25bd a6fd bf3c 0889 0a3d 448f 453d
00000350: aa7b e03b e720 e73c fa59 d43c c35d 7c3d
00000360: 9f6a 32bc decd 64bc 33b8 25bc 911b eb3c
00000370: 04de 893c 165e 953a f72d 1b3d 8aeb 13bd
00000380: b4f4 a53a 1f4e 743d a121 d03c 09d2 b73c
00000390: a3e0 d53c 222b 723c 122c 75bc ee2c 943d
000003a0: 1c13 723d 161d 71bc 5592 043d 63a6 fb3c
000003b0: 2c51 493d df2d c9bc a3e0 d4bc 8b80 9c3c
000003c0: 3e8d 42bd f46b 68bb 203b bd3b 87fc 47bd
000003d0: be0a b7bc 32f9 133c fec7 4f3d d8dc df3c
000003e0: 4c2d 733b e405 7f3d 8f19 a93b 4181 f63c
000003f0: af59 e7bc 30a7 7dbc 7031 c43c 6fb2 4c3d
-0.025635645 0.06569076 0.024292698 0.060862802 0.037535187 -0.013666908 0.018005408 0.040495988
-0.0044711134 0.039520517 -0.002519073 -0.0838045 0.017383395 -0.0076673063 0.002822442 0.005802135
-0.043149855 0.023937877 0.030039245 0.012291721 0.02384601 0.04439573 -0.008927065 0.025500946
-0.020576635 -0.027819248 0.02874531 0.015728028 0.021036295 -0.02682927 -0.0046279808 0.02845076
-0.017526647 0.02563888 0.051861912 0.0067855874 0.028759345 -0.01806687 0.011602168 -0.020182168
0.015816187 -0.018341955 0.00944915 -0.031957693 0.040156733 0.011037974 0.03169003 0.07162965
-0.028355582 0.021902189 0.008555359 -0.042843945 0.045723233 0.0018120421 -0.023925023 -0.026462752
-0.0025155956 0.0688476 0.01243864 -0.027624015 -0.049066212 -0.015288567 -0.024389721 0.022811554
-0.0010558838 -0.021976069 -0.022038998 -0.008038846 0.022214845 0.055209327 0.044333134 0.0059601883
0.030784575 -0.028897725 0.010055005 -0.04900877 0.022084394 0.047866732 -0.031692263 -0.036123842
-0.016527202 0.0745095 0.053520426 0.03806804 -0.040617365 0.013729113 -0.0067358552 0.0033326885
0.005520322 -0.018091131 0.067564465 0.0057651205 0.0038459895 0.031292524 -0.051987696 0.009532805
0.004618155 0.022468392 0.04434554 -0.04506868 -0.01943361 0.027567394 0.039305832 -0.011261225
-0.030609045 -0.020968597 0.079577416 0.01733281 0.006064789 -0.015259779 0.055950217 0.0007865239
0.041403983 0.049383294 -0.029173415 0.0016945025 -0.008619593 -0.019752463 0.011452596 0.016941475
0.06280787 -0.017682577 0.05616961 -0.006210487 -0.027299466 0.026693825 -0.015477291 -0.033255205
0.00039765643 -0.0042133746 0.06757314 -0.031360023 0.020468535 -0.0626556 -0.037610304 0.034031056
0.055727273 -0.01326428 0.046655037 0.018013995 -0.022739016 0.027168099 -0.029619083 -0.03397729
-0.0030378057 0.0007649791 -0.034240894 0.043242298 -0.009482689 -0.029742325 -0.018736891 -0.007720211
0.021613343 -0.035749823 0.036844175 0.02278391 0.050691072 0.036130924 0.060627628 -0.0049107797
0.020406725 0.022096224 0.011055736 -0.019780738 0.024352495 0.0037337423 0.00021757497 -0.024428368
0.035532817 -0.022579536 0.020872088 -0.04202135 0.024116298 0.030121192 0.0036797854 -0.004056953
-0.022511166 -0.02726613 0.0073447246 -0.021215886 0.04151126 0.06526831 0.007115895 -0.039469372
0.03381387 -8.373976e-05 -0.017036417 -0.004477362 -0.03512953 0.05494305 -0.026966184 -0.013938207
-0.00022264633 0.039804086 0.0011051557 0.0651407 -0.022456057 -0.027021281 0.0057858266 0.054235473
0.015328829 -0.008137657 0.008714699 0.026209572 0.0489025 -0.037024032 0.009934287 -0.00338142
-0.040496558 0.023436379 0.03382209 0.048232332 0.0068506794 0.028213931 0.02592181 0.061612856
-0.010889678 -0.013965098 -0.010114717 0.028699668 0.016829498 0.0011395838 0.037885632 -0.0361133
0.0012661428 0.059644815 0.02540666 0.02243902 0.026108092 0.0147807915 -0.01496412 0.07235132
0.059100255 -0.014716407 0.032366116 0.030718988 0.049149677 -0.024558006 -0.025986021 0.019104263
-0.04749798 -0.0035464736 0.0057748705 -0.048824813 -0.02234399 0.009031581 0.050727837 0.027326986
0.0037105856 0.062261477 0.0051605175 0.03009093 -0.028241007 -0.015481755 0.023949355 0.049974855

actor.weight f4 [10, 352]
00000000: a3a3 403d ec01 ee3c 9a42 24bd 6474 bbbc
00000010: d037 3e3c 636b fc3d 9e37 11bd 2e11 bbb9
00000020: 47e1 863c 3dbf ae3d 6d5f f33d 2d47 e5bd
00000030: a787 7ebc f417 043c f3d6 69bc 369a cc3c
00000040: f432 bf3d 4186 2e3c 3b96 25bb b51c 0a3d
00000050: 352b 8f3d f60a 523c 934a d63b 4a10 1b3c
00000060: ddd1 15bd 3c8a 923c 963d 0f3c 954c b63c
00000070: 0266 11bd 62de f9bc 00bc 3b3c 3e68 6dbc
00000080: 50eb 8fbc bd7f f7bc 9790 163d 5a63 d33d
00000090: d683 803d 40b1 543d e75e 7dbd 7df4 99bd
000000a0: f964 143d e47f 03bb 1f5e debd a211 88bb
000000b0: 711b 833d 4893 b03d 0515 64bd 49e6 2f3d
000000c0: 0efa e9bb 7b91 03bb a609 bbbc 9792 8d3c
000000d0: a320 113c 3cce 6b3d 8125 063e a797 1d3c
000000e0: 4426 563d 2ff2 e63a 2f2a 11bc 72bc 1a3e
000000f0: eafa 7ebd e958 643d d3ff 783c 79b0 57bc
00000100: b523 0a3e e038 56bc 4987 733d a202 813c
00000110: 3926 073d 823b 55bd 5b2c 3a3d b9f1 823d
00000120: d5c3 df3c 1fb1 21bc 0715 99bc 5dee 9bbc
00000130: 9353 d23c 397e 1ebd c652 0b3d e54b c5bc
00000140: bf74 473d 66ba 38bd 5c1a a73c 5b84 d53c
00000150: f770 483c a5c5 453d 36b9 acbc adc3 dabc
00000160: c6b4 5a3d ae92 ecbb 6fd1 fd3b f747 28bd
00000170: 270d 45bd c379 bb3d 46cd ca3d 7bbb 6a3d
00000180: ff4b 0abd ba50 afbd 97e4 c63c 551b fcbc
00000190: a475 343d 816d 3ebc 3939 d23d 3363 953d
000001a0: ece1 c13c 1109 d23c 9024 d7bc 21cf e6bb
000001b0: bce7 8cbc 168f 5c3d 35bd adbb 4b86 303b
000001c0: 4acf 383d 8be7 64bc 1785 ccbc 5c94 e53d
000001d0: 768a 3e3d 81ba 903d f551 8b3d 013c 92bb
000001e0: 064f 4c3d e4e0 e53c 4237 f4bc 8e19 173d
000001f0: 9a46 2c3d 62ac b7bc fc89 953d ef7e ca3d
00000200: 58f1 1ebd 91a0 fdba cf42 adbc 18a9 91ba
00000210: 6cad 6f3d 5e00 383d 9ee1 003d da84 1fbd
00000220: 57ce 033d dc70 70bd aac7 583c 54c8 073d
00000230: a4c4 0b3d df04 5d3d e0ad 4e3d 41d5 f7bc
00000240: 01ba 3b3d 4179 413d 361b de3c 9277 7a3c
00000250: 7ec4 023e 686c 24bd e9d7 fe3d 0298 503d
00000260: c1ef c63c b0c5 24bc 230b f13c cc18 883d
00000270: 0150 a5bc c4bb 1f3c 00d4 473d 246c 933d
00000280: 969a 923d 9bd7 0dbc ac5e fd3d e5b8 ec3c
00000290: 1021 bebc 0652 23bc 1f08 d93c 93bd 2f3e
000002a0: 19ef 383d 5516 853c 2f2e 74bc a96a 51bd
000002b0: 1a2b 0a3d 1719 9f3d 82a0 8f3c 08a0 7e3d
000002c0: 494d 06bd 3f44 c03d 40fa af3c 3ca0 dd3c
000002d0: 3996 fa3c b644 303c c1d9 a43c 98db bfbb
000002e0: 7b09 f8bc 55a4 a13c 40f5 893c 5dce 0a3e
000002f0: e7d9 0b3d 80f6 7e3d 4e1f 403c 0e39 57bd
00000300: 60d9 2abd c08f 0b3c a506 203d e806 763c
00000310: 5d8b af3d f032 07bd 57b4 ffbc fde2 97bc
00000320: bda1 743c fdba 223e 0a0b 493d 0d2b 933d
00000330: 08e2 fcbc c7bf a03d 31d9 043d c001 1d3c
00000340: 2a9d 483c 8102 8b3d 8526 aebc 79b2 7c3c
00000350: 87c4 0a3d edb3 41bc b6b0 853d bcec 263d
00000360: daec 923d 7137 0d3d c5e9 e0bc a3b4 593d
00000370: 7909 3abd 8ed5 d93b 779f a2bd dee8 473d
00000380: 2ee3 01bc e12d 893d 1415 563d e1dd 253e
00000390: 14a4 813c 584a a63c 4c94 e83d 70e9 113e
000003a0: 54f5 32bd f90b 8f3c 11f5 2aba cbd8 a33d
000003b0: 27c4 243d 466c d93c 880c 0c3e 83a4 ab3c
000003c0: 942a be3d 8974 3f3c 078e 073d 5fc0 653d
000003d0: 3b1b b93c 0c93 223d 6984 bbbc 7c59 70bd
000003e0: 3611 62bb 42b3 ab3c 8f3d 603c ebc0 20bc
000003f0: b086 bd3b 32f7 85bd 04c7 303d 99c4 40ba
0.047031056 0.02905365 -0.04010258 -0.022882648 0.011609986 0.1232517 -0.03545343 -0.0003568022
0.016464842 0.085325696 0.118834354 -0.11195216 -0.015535272 0.0080623515 -0.014272439 0.024975877
0.093358904 0.010652126 -0.0025266546 0.033718783 0.06990663 0.012819996 0.0065396517 0.009464333
-0.036577094 0.01788818 0.008742711 0.022253314 -0.035497673 -0.030501548 0.011458397 -0.014490185
-0.01756826 -0.030212278 0.036758985 0.10321684 0.06275146 0.05192685 -0.061858084 -0.075173356
0.036229108 -0.0020065242 -0.10857796 -0.0041524926 0.064017184 0.08621842 -0.05568411 0.042944226
-0.0071404045 -0.0020075727 -0.02283175 0.017281814 0.008857879 0.057569727 0.13100244 0.009618676
0.052282587 0.0017619784 -0.008860155 0.15110949 -0.06225101 0.055748854 0.015197712 -0.013164633
0.13490184 -0.0130750835 0.05945519 0.015748326 0.032995436 -0.052058704 0.045452457 0.06393761
0.02731506 -0.009868889 -0.018686784 -0.019034559 0.025674617 -0.038694594 0.034014486 -0.02408404
0.048695322 -0.04509964 0.020398311 0.026064089 0.012233964 0.04828419 -0.02108441 -0.026704634
0.053395055 -0.007219634 0.0077459137 -0.041084256 -0.048108246 0.091540836 0.09902434 0.0573077
-0.03376388 -0.08560319 0.024278922 -0.030774752 0.044057503 -0.011622787 0.102648206 0.072943114
0.023667298 0.025639089 -0.026262552 -0.0070437347 -0.017200343 0.053847395 -0.0053020963 0.0026935514
0.04511956 -0.01397122 -0.024965806 0.11209938 0.046518765 0.07066823 0.068027414 -0.0044627194
0.04988005 0.028061338 -0.029811505 0.036889605 0.04205952 -0.022421066 0.07301709 0.09887492
-0.038804382 -0.0019350221 -0.02115002 -0.0011113016 0.058514997 0.044922225 0.031465165 -0.038945056
0.032179203 -0.05870138 0.013231197 0.033150032 0.034123078 0.053959724 0.05045879 -0.030253055
0.045831684 0.047234777 0.027112585 0.015287297 0.12770268 -0.040142447 0.12443525 0.050926216
0.024284245 -0.010056898 0.029424256 0.06645355 -0.02017975 0.009749357 0.048786163 0.071983606
0.07158391 -0.008657361 0.12371573 0.028896758 -0.023209125 -0.009968286 0.02649313 0.1716216
0.045149896 0.016246 -0.014903589 -0.05112711 0.03373251 0.077684574 0.01753259 0.062164336
-0.03278855 0.09388017 0.021481633 0.027053945 0.03058921 0.010758569 0.020123364 -0.005855035
-0.030277958 0.01973168 0.016840577 0.13555284 0.034143355 0.0622468 0.011726214 -0.052544646
-0.04171121 0.008518159 0.039068837 0.015016295 0.08571503 -0.033007562 -0.031213922 -0.018540854
0.01493114 0.15891643 0.049082793 0.07185946 -0.030869499 0.078490786 0.032433692 0.009582937
0.012244502 0.06787587 -0.021258602 0.015423411 0.03387883 -0.011822683 0.065278456 0.04075311
0.07174082 0.0344767 -0.02745522 0.053150784 -0.04541919 0.006647772 -0.07940572 0.048806064
-0.007927699 0.06698204 0.052266195 0.16197921 0.015825309 0.020299122 0.113564104 0.14249206
-0.043690994 0.017461764 -0.0006521503 0.08000334 0.040226128 0.026540887 0.13676655 0.020952469
0.09285465 0.011685499 0.033094432 0.056091662 0.022595992 0.039691016 -0.022890287 -0.05867909
-0.0034495122 0.0209595 0.013686552 -0.00981162 0.0057838783 -0.065412894 0.043158546 -0.0007353514

actor.bias f4 [10]
00000000: ef89 973c 93d8 5cbd 52d1 4cbd 43a3 b2bd
00000010: c667 0c3d a6ac 06bc 5022 283d 00cb d73c
00000020: fa16 953d 12d1 113a
0.018498389 -0.05391748 -0.05000431 -0.08722546 0.034278654 -0.0082198735 0.041048348 0.026341915
0.07279773 0.0005562465

critic.weight f4 [1, 352]
00000000: 824f 4b3d d713 c93d fc1c b33d c67c e23d
00000010: d2c6 cdbb 8a11 89bd 9549 b53d e1d2 133d
00000020: 86eb 7cbd bf1a a9bd f3be 8dbd 53a4 d4bd
00000030: dc34 e93d 701d b53d e6b7 7e3d 8866 813d
00000040: 5941 6ebd 4bbf ed3c 5abd 3f3d fe87 7f3c
00000050: 2cc2 83bd 7d64 803d bd3b 473d 7be3 ef3c
00000060: 0fbf 8f3d 99c3 e93c 8d04 043d 0a87 0f3d
00000070: edcf 693d 124a 333d 85d2 5f3d 1fd3 d03d
00000080: 2180 683d e037 ed3d 94cc 603d fa78 5bbc
00000090: b93b f0bc 8f8a 603d a14f 793d 6b19 073d
000000a0: 8fe5 f0bc eb37 92bd 6ab4 71bd 7935 443d
000000b0: d870 b73c 217e 9ebd ddeb 9c3d 97cb 8f3d
000000c0: ddfe 753d aa91 9a3d 40a1 413d e0ea 55bd
000000d0: 5c0e cebc c646 bfbd 151c abbd f6bf 253c
000000e0: 60bc 43bd 7b24 6b3d c1ca 8a3d 0d7b 79bd
000000f0: 1848 90bc bb04 bc3d 9f3d 513d 7ff5 6c3d
00000100: 2f3f dcbc fa7e 473d 4081 8a3c 9fd9 4bbd
00000110: 12a9 20bd eed3 413d 113d 943d 75a5 bdbd
00000120: dfa0 0f3d 73b9 143d 55e8 0b3b ea56 93bc
00000130: fcd0 99bd b409 353d 3df6 3dbd e70e 173d
00000140: 5102 663d 3b37 a83d 0204 3a3d 3c86 bdbb
00000150: dde5 2bbd 946c 353d 2671 243d f6be 19bd
00000160: 85a3 8ebd bec5 c1bb a446 da3d 108c 8b3d
00000170: 95fc 403d 97b3 f6bc 2715 9ebd 2eed 19bd
00000180: d35e 6a3d 8a06 3c3d c100 d43d fe07 18bd
00000190: f83c 233d 5c9b 863d 65fc 5dbd bae0 66bd
000001a0: f115 04bd 03a9 82bd 2f9e db3d 4838 7f3d
000001b0: a6c0 633d 44f4 833a 51e1 943c 43e6 88bd
000001c0: 4370 8b3d 6fcf 833d 1fae d83d d09e 6bbd
000001d0: 153a 7dbc 3a99 80bd aa75 5dbd bef3 933d
000001e0: 5890 423d a68e cf3d 0154 9f3d afa2 963d
000001f0: b4dd 873d c693 1a3d 3eaf b1bd 0616 c7bc
00000200: 3230 0d3d 54c8 053d a06a d43d 7c9a 5a3d
00000210: 0c17 9ebd c37f f0bc 4fe7 19bd d22a 213d
00000220: c802 cd3c 2f3c 3b3d e2ac 793d 091f 4a3d
00000230: bd74 463d 55c8 453d bf9b 1e3d 5a17 8e3d
00000240: c21d cd3c 8fd5 9abd a1bd 70bd 7009 413d
00000250: 43b0 14bd 6c86 8f3c a286 d9bd 5abb db3d
00000260: 25e1 79bd b195 493d eab0 c3bc 5108 46bd
00000270: a3bb 3f3d 468b a43d 6bad 8b3d cdd3 b4bc
00000280: 48ec b53c ec1b 5c3d 921c cfbd 31a8 85bc
00000290: 481f 913d f0c0 ac3c 3b9e 70bd 9fa0 8ebd
000002a0: 6562 653d 3e7b 933d 4a9f 803d dfcf 223d
000002b0: e48f fabc b4f9 553d a585 94bd 6a93 23bd
000002c0: 2676 cc3c bc99 c0bc b916 b73d dde4 083d
000002d0: a96c 213d 5ea9 c43d c1a3 89bd e370 2dbc
000002e0: 5061 8d3c a7df 87bd 6677 873c bdc7 acbd
000002f0: 1808 26bd 8641 373d deb4 993d 98bf 4c3d
00000300: 8a07 333d 9aa5 8e3c bfc0 b5bd 57e7 0b3d
00000310: 51ce 99bd c649 a23d 400e a6ba 9cfd 28bd
00000320: 1004 873d 13aa 8abc 4012 373d fb0e 05bd
00000330: 91d6 d63d ad61 d0bc 1976 f33d 74ad f6bc
00000340: e2bc 833d 5ae7 54bd 6efb 86bd a602 4c3d
00000350: cb08 053d fd74 4c3d 4c87 35bd 576f 003d
00000360: 27a1 903b 8172 3bbd bad8 913d 34b1 6a3c
00000370: 8142 053d adc7 ddbc 10f8 703d 7c11 ab3c
00000380: c1cc 573d 225b 61bd 9ede d23d e4c8 8ebd
00000390: 4c12 26bc ee2f 293d 54c6 85bc d026 debd
000003a0: 5ef2 863d 6fd6 7ebc 8096 863d a49b 43bd
000003b0: eab8 8ebd 25a7 633d bed3 82bd 4e3b 1b3d
000003c0: aaaa 24bd ef48 e43c a2be 35bb b40f 29bd
000003d0: f161 d5bc f006 10bd 7b60 0e3d 291c 2e3c
000003e0: 6abe d739 c8fe 873d 4188 c2bc a193 b53d
000003f0: 1e44 29bc 6faf 313d 9e67 85bd 1616 6f3d
0.04963637 0.09818237 0.08745763 0.11058955 -0.0062798047 -0.066927984 0.08851925 0.03608978
-0.06174805 -0.082570545 -0.06921186 -0.10382905 0.11387035 0.088435054 0.062187098 0.063183844
-0.05816779 0.02902188 0.04681144 0.015596388 -0.0643352 0.062691666 0.048640955 0.029283276
0.070188634 0.028535651 0.032230902 0.035040893 0.05708306 0.04377181 0.054644126 0.10196518
0.05676282 0.11582923 0.0548826 -0.013395542 -0.029325353 0.05481964 0.060866956 0.032983225
-0.029406337 -0.07139572 -0.059009947 0.047902558 0.022392675 -0.07738901 0.07662175 0.070212536
0.06005751 0.075473145 0.04727292 -0.052225947 -0.025153331 -0.09339671 -0.083549656 0.010116568
-0.04778707 0.057407837 0.067769535 -0.060908366 -0.017612502 0.0918059 0.051084157 0.05785131
-0.026885597 0.04870508 0.016907334 -0.049768087 -0.039223738 0.047321253 0.0723821 -0.09260074
0.035065528 0.03630967 0.0021348197 -0.01798578 -0.07510564 0.044198707 -0.04637741 0.036879446
0.056154553 0.082136594 0.04541398 -0.0057838243 -0.04196726 0.044293 0.04014697 -0.03753563
-0.069647826 -0.0059134653 0.10658005 0.06813824 0.04711588 -0.030114932 -0.07718878 -0.037579708
0.057219338 0.045904674 0.10351706 -0.037116997 0.039853066 0.06572601 -0.05419578 -0.05636666
-0.032247487 -0.06379893 0.107235305 0.062309533 0.055603646 0.0010067304 0.018173845 -0.06684544
0.068085216 0.06436049 0.10580086 -0.057524502 -0.015455742 -0.06279226 -0.05406729 0.072242245
0.04750094 0.1013463 0.07779694 0.07355248 0.066340834 0.037738584 -0.08676003 -0.024302494
0.03446979 0.03266175 0.103718996 0.053369984 -0.077192396 -0.029357797 -0.03757411 0.039347477
0.02502574 0.045711692 0.06095589 0.049346004 0.048451174 0.048286755 0.03872275 0.06938048
0.025038604 -0.07560264 -0.058774594 0.04712814 -0.03630091 0.017520152 -0.10621382 0.10729094
-0.06100573 0.049215022 -0.02388807 -0.048347775 0.046809804 0.08034377 0.06820186 -0.02207365
0.022207394 0.053737566 -0.10112871 -0.016315551 0.070860445 0.021088094 -0.05874465 -0.0696423
0.05600204 0.07201241 0.06280382 0.039749023 -0.03058619 0.05224009 -0.07252053 -0.039935507
0.024958681 -0.023510806 0.08939881 0.033421386 0.039410267 0.09602617 -0.06720687 -0.010585996
0.017258316 -0.06634455 0.016536426 -0.084365346 -0.040535063 0.044740222 0.07505201 0.049987406
0.04370836 0.01741295 -0.08874654 0.03415617 -0.07510055 0.079242274 -0.0012669042 -0.041257486
0.06592572 -0.0169268 0.04469514 -0.03248499 0.10490144 -0.0254372 0.1188776 -0.030112006
0.06432511 -0.051978447 -0.06590925 0.049807213 0.03247909 0.049916256 -0.044318482 0.031356182
0.004413742 -0.045763496 0.071214154 0.014324475 0.032534126 -0.027072752 0.05883032 0.02088236
0.052685503 -0.05501855 0.10296367 -0.069719106 -0.010136198 0.041305475 -0.016329922 -0.10847247
0.065891966 -0.015554055 0.06571674 -0.047755852 -0.06968863 0.055579323 -0.06388043 0.037898354
-0.04020182 0.027866809 -0.0027732034 -0.04127474 -0.026047679 -0.035162866 0.03475998 0.010626831
0.00041149865 0.066403925 -0.023746612 0.088660486 -0.010331182 0.043380197 -0.06513904 0.058370672
