carlike_gym/model_300.pth (torch, 526994 bytes, 11 tensors)

features_extractor.conv1.weight f4 [16, 4, 4]
-0.11893344 0.01907788 -0.14907634 0.085858956 -0.043592926 0.17722282 0.05721577 0.09310713
-0.022765215 -0.22903097 -0.25021446 0.05317239 0.060828682 0.117063865 -0.0154923145 -0.18795995
0.11831236 0.2365976 -0.2280781 -0.08166736 -0.19292447 -0.08989468 -0.19733936 -0.15590611
-0.14409074 -0.24084428 0.0346424 -0.19723886 -0.20408595 -0.061805665 -0.03502366 0.063762456
-0.010199156 0.30552506 0.005573298 0.22491342 -0.13170646 -0.045253426 0.17878729 -0.0649398
-0.11248023 0.027969742 0.04841608 -0.14513034 0.08630469 -0.16090387 0.034426045 -0.004313105
-0.18752664 -0.11250156 0.09466684 0.042571932 0.092950046 -0.051492423 -0.22520167 -0.0060016513
-0.17265606 -0.06278068 0.073895216 -0.0944404 0.050197363 0.058659554 0.1596852 -0.0044904053
0.197056 0.20135038 -0.2766146 -0.119347475 0.059484538 0.1321086 -0.024494674 0.029527696
0.20329532 0.036554772 0.13989148 -0.065815315 0.109703146 -0.027322415 0.10635585 0.13960627
-0.09557462 0.09579603 -0.26843053 -0.08743337 0.24378568 -0.16630554 0.037230153 -0.12776011
0.050216313 0.25505102 0.06271795 0.23201725 -0.047289122 -0.209387 0.18746758 0.26585332
0.19892144 0.16673434 -0.08978088 0.09380928 0.25095874 -0.16916138 0.09972661 -0.16542634
0.22771698 0.11209127 -0.068979755 0.10889632 -0.017178424 -0.07507585 -0.13114454 0.0711863
-0.22410382 -0.24567348 -0.18722783 -0.14360134 -0.12864524 0.2485523 0.18463267 0.043601073
0.23754185 0.24863973 -0.01138259 -0.15796451 -0.058032002 0.04609573 0.11919542 0.17986603
-0.13190164 -0.11572247 -0.017397163 0.1784289 0.07049281 0.18562005 0.049926322 0.16863398
0.21522652 0.025360946 0.24495114 -0.09381878 -0.1747592 0.13522595 0.1961272 0.14296858
-0.14125952 -0.16030571 -0.19768865 0.3008223 -0.089237265 -0.1131067 -0.06315564 0.18460372
-0.10394504 -0.056117516 0.17906596 0.21045431 -0.022226453 0.05527575 0.012011069 0.06793349
-0.20602795 -0.03587824 -0.16804817 -0.06696114 -0.14803821 -0.03886509 -0.075461656 -0.19875968
-0.1922617 -0.1881513 0.21278545 0.03862229 0.15177473 0.065475255 -0.07388121 -0.058559805
-0.24900149 -0.3049616 -0.047963817 -0.18135493 0.0968331 -0.017312048 -0.12301054 -0.10257613
0.05826511 0.22199698 0.26902235 0.16839625 0.01944352 0.18070553 0.25747597 0.18549453
0.2120208 -0.085541815 0.012889273 -0.051212374 -0.13232344 -0.010054456 -0.10359728 0.08084786
0.118230015 0.034305397 -0.12152097 0.05667539 -0.09752834 -0.13460818 -0.16104311 0.24668165
-0.08634245 -0.22226794 0.07818565 -0.15744054 -0.12018264 -0.004758563 -0.2040359 0.19729571
-0.035849415 0.08856787 -0.20363201 -0.12220434 0.19503006 -0.14580493 -0.23900513 0.2034552
0.26945493 0.070671864 0.18126827 0.027618166 -0.14174713 -0.18635093 -0.07320608 -0.052570313
0.03731198 0.11690023 -0.18921399 -0.20495598 -0.12215924 0.1684923 0.16658062 0.07586807
0.14470862 0.28163898 -0.027443063 -0.019094694 -0.058576904 0.24004094 -0.24003337 0.05030034
0.23930365 -0.12025072 -0.0066755153 -0.012310715 -0.2107802 -0.16753034 -0.10356129 0.020952465
00000000: 6093 f3bd 3749 9c3c 78a7 18be d2d6 af3d
00000010: 7f8e 32bd e679 353e 155b 6a3d f3ae be3d
00000020: 1e7e babc 1887 6abe 1c1c 80be 4bcb 593d
00000030: 7f27 793d 2ebf ef3d 7ad3 7dbc 9378 40be
00000040: c04d f23d a446 723e 4e8d 69be 3841 a7bd
00000050: fe8d 45be b41a b8bd 5413 4abe daa5 1fbe
00000060: 868c 13be e29f 76be 30e5 0d3d fcf8 49be
00000070: e8fb 50be f027 7dbd f874 0fbd e495 823d
00000080: 5c1a 27bc c86d 9c3e 36a0 b63b b44f 663e
00000090: 0fde 06be a85b 39bd 0414 373e 28ff 84bd
000000a0: 095c e6bd cd20 e53c f14f 463d 0c9d 14be
000000b0: 83c0 b03d fcc3 24be 5302 0d3d f254 8dbb
000000c0: fc06 40be 3867 e6bd b0e0 c13d e85f 2e3d
000000d0: 985c be3d b8e9 52bd 449b 66be 80a9 c4bb
000000e0: c0cc 30be 2893 80bd 6056 973d f869 c1bd
000000f0: c09b 4d3d 0045 703d 8484 233e 4024 93bb
00000100: 0cc9 493e cb2e 4e3e 6ea0 8dbe 736c f4bd
00000110: 0fa6 733d 7a47 073e 0ea9 c8bc 11e4 f13c
00000120: a62c 503e 75ba 153d b63f 0f3e 2eca 86bd
00000130: 0bac e03d 42d3 dfbc 19d1 d93d f2f4 0e3e
00000140: a0bc c3bd b530 c43d ba6f 89be 4410 b3bd
00000150: f4a2 793e 004c 2abe a57e 183d 8cd3 02be
00000160: 9faf 4d3d 0c96 823e 4572 803d ee95 6d3e
00000170: 3db2 41bd 8c69 56be 80f7 3f3e ed1d 883e
00000180: 10b2 4b3e 68bc 2a3e 0adf b7bd 141f c03d
00000190: aa7d 803e a438 2dbe 773d cc3d 8665 29be
000001a0: a42e 693e 1c90 e53d 4245 8dbd 0905 df3d
000001b0: c4b9 8cbc 5ec1 99bd c14a 06be 1fca 913d
000001c0: 797b 65be d491 7bbe a7b8 3fbe 3b0c 13be
000001d0: 94bb 03be 7e84 7e3e 5910 3d3e 0a97 323d
000001e0: 2c3e 733e 6a9b 7e3e 0b7e 3abc 73c1 21be
000001f0: f7b2 6dbd e0ce 3c3d ba1c f43d cd2e 383e
00000200: 3911 07be e7ff ecbd 7f84 8ebc 11b6 363e
00000210: 895e 903d 2f13 3e3e 8b7f 4c3d 63ae 2c3e
00000220: 5764 5c3e c2c1 cf3c 79d4 7a3e 0f24 c0bd
00000230: 13f4 32be ac78 0a3e 92d5 483e 5b66 123e
00000240: 56a6 10be 2e27 24be e56e 4abe 6105 9a3e
00000250: 07c2 b6bd 7ca4 e7bd bf57 81bd c208 3d3e
00000260: 23e1 d4bd 7bdb 65bd 115d 373e 5681 573e
00000270: 4014 b6bc d368 623d 13ca 443c b720 8b3d
00000280: fef8 52be 10f5 12bd d214 2cbe ec22 89bd
00000290: 5497 17be 0031 1fbd a48b 9abd a887 4bbe
000002a0: 40e0 44be bcaa 40be 6ee4 593e 6832 1e3d
000002b0: d66a 1b3e e417 863d 084f 97bd 68dc 6fbd
000002c0: 3ffa 7ebe ed23 9cbe b575 44bd 1bb5 39be
000002d0: 6f50 c63d ffd1 8dbc f3ec fbbd 6f13 d2bd
000002e0: 65a7 6e3d 2d53 633e 4cbd 893e 1170 2c3e
000002f0: 0448 9f3c df0a 393e e4d3 833e 47f2 3d3e
00000300: fb1b 593e 8c30 afbd 882d 533c 11c4 51bd
00000310: cc7f 07be 72bb 24bc d02a d4bd 9093 a53d
00000320: 9422 f23d d183 0c3d fcdf f8bd 7424 683d
00000330: f0bc c7bd bad6 09be 7ce8 24be 1d9a 7c3e
00000340: 4fd4 b0bd 359a 63be cc1f a03d 1838 21be
00000350: 5122 f6bd b8ed 9bbb c9ee 50be e307 4a3e
00000360: d6d6 12bd 1263 b53d e984 50be 4546 fabd
00000370: f6b5 473e e34d 15be c3bd 74be 8f56 503e
00000380: fff5 893e 69bc 903d 649e 393e 7e3f e23c
00000390: 2926 11be c7d2 3ebe 12ed 95bd f853 57bd
000003a0: 72d4 183d 6369 ef3d 50c1 41be fbdf 51be
000003b0: a02e fabd 3f89 2c3e 1c94 2a3e b860 9b3d
000003c0: 7f2e 143e fc32 903e 46d0 e0bc 7a6c 9cbc
000003d0: 56ee 6fbd 4bcd 753e 4fcb 75be bb07 4e3d
000003e0: 040c 753e 0246 f6bd 48be dabb e2b2 49bc
000003f0: c4d6 57be 138d 2bbe f117 d4bd 81a4 ab3c

features_extractor.conv1.bias f4 [16]
-0.054052707 -0.14258868 0.020007089 -0.13783476 -0.10478328 -0.06881244 -0.21132757 0.032655567
-0.042296138 -0.12234656 0.006538987 0.10876408 0.04476167 -0.007999664 0.055614363 0.16712871
00000000: 5f66 5dbd c402 12be e8e5 a33c 8e24 0dbe
00000010: 9e98 d6bd 89ed 8cbd 4166 58be d8c1 053d
00000020: b73e 2dbd d590 fabd 0045 d63b b4bf de3d
00000030: 0358 373d 0611 03bc e3cb 633d ca23 2b3e

features_extractor.conv2.weight f4 [32, 16, 4]
-0.10992713 0.047082767 0.11755715 -0.0568946 -0.044423506 -0.031801984 0.09330003 0.033610553
0.114644706 0.2015672 0.05125398 -0.08524476 0.08834857 0.08701262 0.02562353 0.116588116
0.019068915 0.01985021 0.097269684 0.074517146 -0.07717848 0.105318666 -0.06309347 -0.023399897
0.09794229 0.10776393 0.07737779 0.07287568 -0.109655894 -0.18901391 -0.09213402 0.043707427
0.03468643 0.0919355 0.03899086 -0.04344202 0.02580803 -0.040414345 -0.11727133 -0.19398758
-0.05328995 -0.09708753 0.06088996 0.11241056 -0.1579359 -0.14596103 -0.13443097 -0.021652963
-0.016461356 0.00021912748 0.07448347 0.21310085 0.124278545 0.08263463 -0.09764597 -0.017594472
0.20836416 0.23631212 0.13721222 0.11479639 0.041537225 0.14890505 0.19643791 0.07199085
0.108147964 -0.062068477 -0.09456502 0.098143116 0.030949786 0.03891699 -0.02759622 -0.078982234
-0.045430664 -0.022557672 -0.17483254 -0.19033596 0.11166702 0.07737459 0.05840215 0.014714077
0.005009217 0.14513262 0.09193729 0.049268294 -0.052363295 0.107743755 0.062774464 0.053495828
0.14176662 -0.0772254 -0.0033539583 -0.075032234 0.036767833 0.08954266 0.12532811 0.074490085
0.0643119 0.011591984 -0.08258962 -0.08208518 0.03435401 0.15022653 -0.012063385 0.15103368
-0.018397912 -0.063837975 0.015383393 -0.06899437 0.04609248 0.10872 0.03669414 -0.056084473
0.054109707 0.1498115 -0.06645875 -0.11669821 0.026019618 0.0056444705 0.0139020085 -0.03615053
0.044157594 -0.14561267 -0.1745132 -0.1887427 0.12176397 0.042717826 0.06456238 -0.054903656
0.032575488 -0.049670026 0.07429388 -0.0960338 0.0039556623 0.049550623 -0.04200667 -0.090489134
0.14224577 0.18981323 0.18813333 0.12312617 -0.046817005 -0.05483143 -0.046206534 0.010603502
0.010879165 0.14834371 -0.07405156 0.06060949 -0.13057837 -0.072766 0.06827246 0.02108356
0.15565519 0.14343944 -0.07295389 -0.03271201 0.0216406 -0.15081671 -0.08347997 -0.064946316
0.06537599 0.06344841 -0.04489332 -0.04729838 -0.054361753 -0.13274148 -0.120174795 -0.08366625
0.06682935 0.1184946 -0.094867006 -0.067217454 -0.11839273 -0.008667167 -0.1546946 0.06834949
0.06762826 0.013682683 -0.03335632 0.06831819 -0.08191776 0.037259355 0.040543094 -0.048562273
0.05653825 0.043716196 0.13684504 -0.017251667 0.02459797 -0.035877302 0.17518194 0.19500679
-0.096697465 0.058040813 -0.103399545 -0.08332598 0.042666048 0.0027224272 0.024829134 0.100422055
-0.1271735 -0.012675688 0.06738968 -0.057823837 -0.12056872 -0.03947723 -0.07677652 -0.0802685
-0.07908346 0.01154503 0.02789233 -0.06592977 0.106083766 -0.09270461 -0.038128585 0.117178835
-0.019486897 0.038409553 -0.13701391 -0.0625834 0.057554517 0.023243263 -0.0005665119 -0.05734196
0.06931157 -0.084501326 -0.09603306 0.1179514 0.06516366 0.067727566 -0.09012289 0.10820604
-0.0247951 0.032018587 -0.016673192 -0.09346521 0.10253174 -0.09085069 0.1284263 -0.041345354
-0.103666216 -0.08932611 0.049900018 -0.12364804 0.09261842 0.099909514 0.026598677 -0.04739034
0.042784184 -0.069842406 0.023404138 0.11410174 0.030489556 -0.11796267 -0.099167086 0.06292303
00000000: 7a21 e1bd dcd9 403d cec1 f03d 500a 69bd
00000010: 6cf5 35bd cc42 02bd 1614 bf3d 38ab 093d
00000020: d8ca ea3d a267 4e3e b1ef 513d ce94 aebd
00000030: 18f0 b43d ac33 b23d 70e8 d13c c0c5 ee3d
00000040: 6a36 9c3c e89c a23c 5435 c73d 729c 983d
00000050: c00f 9ebd 50b1 d73d 2637 81bd 24b1 bfbc
00000060: f895 c83d 56b3 dc3d 3f78 9e3d d83f 953d
00000070: 4593 e0bd dd8c 41be c3b0 bcbd 8f06 333d
00000080: 5c13 0e3d ae48 bc3d e1b4 1f3d 42f0 31bd
00000090: 5d6b d33c 8389 25bd f32b f0bd aea4 46be
000000a0: 9046 5abd d4d5 c6bd c067 793d 8237 e63d
000000b0: f3b9 21be cf76 15be 46a8 09be 8e61 b1bc
000000c0: f7d9 86bc 96c5 6539 ca8a 983d 1c37 5a3e
000000d0: c085 fe3d 583c a93d 9cfa c7bd 4822 90bc
000000e0: 6a5d 553e cefb 713e 5c81 0c3e 5f1a eb3d
000000f0: f022 2a3d 917a 183e 0527 493e f06f 933d
00000100: ae7c dd3d 843b 7ebd 4eab c1bd 42ff c83d
00000110: 688a fd3c 6c67 1f3d 7811 e2bc 70c1 a1bd
00000120: 8115 3abd deca b8bc 4d07 33be 6ee7 42be
00000130: aeb1 e43d 9276 9e3d 1837 6f3d 5013 713c
00000140: 5c24 a43b a59d 143e 9e49 bc3d 8dcd 493d
00000150: e57a 56bd c2a8 dc3d e68f 803d 711e 5b3d
00000160: 452b 113e 5a28 9ebd 15ce 5bbb 80aa 99bd
00000170: de99 163d 2462 b73d 0356 003e 428e 983d
00000180: f5b5 833d 4eec 3d3c bf24 a9bd 461c a8bd
00000190: cab6 0c3d fcd4 193e 81a5 45bc 93a8 1a3e
000001a0: 38b7 96bc 7cbd 82bd a00a 7c3c ec4c 8dbd
000001b0: 78cb 3c3d 97a8 de3d 984c 163d d5b8 65bd
000001c0: 24a2 5d3d 3068 193e 861b 88bd 79ff eebd
000001d0: 1827 d53c 40f5 b83b 40c5 633c 9412 14bd
000001e0: 98de 343d 7d1b 15be 97b3 32be c445 41be
000001f0: 635f f93d e3f8 2e3d 4839 843d a8e2 60bd
00000200: e06d 053d cc72 4bbd 6427 983d 5ead c4bd
00000210: 809e 813b 98f5 4a3d 300f 2cbd 5e52 b9bd
00000220: e0a8 113e 665e 423e 06a6 403e 9329 fc3d
00000230: 30c3 3fbd ec96 60bd 1043 3dbd 50ba 2d3c
00000240: 863e 323c 6ae7 173e 58a8 97bd a841 783d
00000250: 56b6 05be 5706 95bd 6ed2 8b3d 6eb7 ac3c
00000260: 1364 1f3e cae1 123e d968 95bd 07fd 05bd
00000270: a147 b13c b26f 1abe 8cf7 aabd 9302 85bd
00000280: d9e3 853d 3df1 813d 0fe2 37bd f2bb 41bd
00000290: 6eaa 5ebd 62ed 07be 341e f6bd 3659 abbd
000002a0: d4dd 883d 4cad f23d a249 c2bd 4ea9 89bd
000002b0: e377 f2bd bc00 0ebc 4368 1ebe d1fa 8b3d
000002c0: af80 8a3d 552d 603c a3a0 08bd 68ea 8b3d
000002d0: 80c4 a7bd 449d 183d 8410 263d 3ce9 46bd
000002e0: a794 673d c10f 333d 1b21 0c3e 5e53 8dbc
000002f0: af81 c93c 14f4 12bd e562 333e dcaf 473e
00000300: 5209 c6bd 34bc 6d3d 24c3 d3bd d0a6 aabd
00000310: 98c2 2e3d c06a 323b 7866 cb3c 14aa cd3d
00000320: c539 02be b0ad 4fbc 9a03 8a3d b0d8 6cbd
00000330: bcec f6bd e0b2 21bd 023d 9dbd d063 a4bd
00000340: 82f6 a1bd 5e27 3d3c 757e e43c 3006 87bd
00000350: 7242 d93d eadb bdbd b82c 1cbd 75fb ef3d
00000360: fca2 9fbc 5653 1d3d 604d 0cbe ba2b 80bd
00000370: 49be 6b3d a868 be3c f881 14ba 67df 6abd
00000380: 39f3 8d3d 080f adbd fbac c4bd 8190 f13d
00000390: 8674 853d c0b4 8a3d 5a92 b8bd 219b dd3d
000003a0: 181f cbbc ec25 033d 3896 88bc b06a bfbd
000003b0: 29fc d13d ed0f babd 2f82 033e bf59 29bd
000003c0: f44e d4bd 9cf0 b6bd f663 4c3d 2f3b fdbd
000003d0: baae bd3d 5c9d cc3d 78e5 d93c 601c 42bd
000003e0: 783e 2f3d 8909 8fbd 09ba bf3c 2cae e93d
000003f0: 3cc5 f93c 6a96 f1bd 1d18 cbbd cadd 803d

features_extractor.conv2.bias f4 [32]
-0.03927413 -0.06675253 -0.056430053 -0.12675129 0.05413042 0.09792468 0.109277345 -0.061741672
0.108850256 0.09061841 0.121177934 -0.11182758 -0.018785326 0.13128746 0.11891843 0.050744757
0.016586863 -0.07616621 -0.08607172 0.047942005 0.099755436 0.007601818 0.06761561 0.020852452
-0.07172914 -0.020100294 0.14351135 0.10465938 0.0344863 -0.0573143 0.10348976 0.05118829
00000000: e9dd 20bd 8db5 88bd 3323 67bd 17cb 01be
00000010: dcb7 5d3d bc8c c83d cdcc df3d d6e4 7cbd
00000020: e2ec de3d 2596 b93d 232c f83d dc05 e5bd
00000030: afe3 99bc 3870 063e 818b f33d bcd9 4f3d
00000040: 2ce1 873c 08fd 9bbd 5f46 b0bd d65e 443d
00000050: 944c cc3d ac18 f93b 0e7a 8a3d c3d2 aa3c
00000060: bae6 92bd 5fa9 a4bc a4f4 123e a857 d63d
00000070: 8241 0d3d 66c2 6abd 70f2 d33d d0aa 513d

features_extractor.fc_op.weight f4 [32, 3]
-0.09523802 0.09750812 -0.24625643 -0.26405996 -0.32767925 -0.34849137 -0.4786352 -0.13549305
-0.29001483 -0.21083702 0.4399549 0.4398949 -0.46927688 -0.3216783 0.022835743 0.29118896
0.5194472 0.27232644 -0.021198833 -0.0041215015 -0.043019217 -0.14997621 -0.036135226 -0.086744875
0.17886412 -0.14678888 0.5104803 -0.5315225 0.2922439 -0.20225602 0.5015022 0.44256204
0.43598524 0.2410941 0.36109677 0.11656396 0.015637785 0.18509324 -0.318261 0.21632728
-0.036476545 -0.44201344 -0.015205591 0.27056333 0.10960535 -0.52028954 0.2640577 -0.36960414
0.19392663 -0.29253203 -0.31451473 0.43235046 -0.023575133 -0.41822344 0.39856568 -0.0024430498
-0.081903644 0.101793595 0.26506972 -0.03457136 0.105418876 -0.32089767 0.59572834 0.088917226
0.50527555 -0.18775271 0.3794794 0.20017722 0.045520734 0.49269134 0.009637926 0.007905201
0.03602881 -0.48344988 0.09633757 -0.29072478 -0.018321784 -0.4578172 0.47799045 -0.24413058
0.25102106 0.172795 0.0025703758 0.4582785 0.17574377 0.26276907 0.24330185 0.40765485
-0.45254093 0.15711847 0.24623895 0.31514087 -0.22536376 -0.51367164 0.20675765 0.42706418
00000000: 270c c3bd 56b2 c73d a52a 7cbe de32 87be
00000010: 93c5 a7be 766d b2be ac0f f5be b1be 0abe
00000020: d37c 94be a9e5 57be c541 e13e e839 e13e
00000030: 0f45 f0be 05b3 a4be 0612 bb3c b816 953e
00000040: 7efa 043f 5f6e 8b3e 2da9 adbc a90d 87bb
00000050: eb34 30bd 5d93 19be 8802 14bd 4ca7 b1bd
00000060: 2828 373e d34f 16be d6ae 023f dc11 08bf
00000070: fea0 953e 341c 4fbe 7362 003f 7e97 e23e
00000080: 7539 df3e 5fe1 763e ade1 b83e 16b9 ee3d
00000090: d01a 803c 1589 3d3e 1bf3 a2be e684 5d3e
000000a0: 6e68 15bd 964f e2be df20 79bc 4787 8a3e
000000b0: c578 e03d b231 05bf 9232 873e c13c bdbe
000000c0: b494 463e c2c6 95be 1308 a1be 0a5d dd3e
000000d0: a320 c1bc 6221 d6be cd10 cc3e 931b 20bb
000000e0: 19bd a7bd 2979 d03d 38b7 873e b39a 0dbd
000000f0: dae5 d73d b34c a4be a781 183f 3c1a b63d
00000100: bd59 013f 3f42 40be 204b c23e 42fb 4c3e
00000110: f373 3a3d 0a42 fc3e 64e8 1d3c d184 013c
00000120: f292 133d be86 f7be a24c c53d e1d9 94be
00000130: 9117 96bc 0467 eabe 2abb f43e 5efd 79be
00000140: d585 803e 2cf1 303e c073 283b 7ba3 ea3e
00000150: 2df6 333e ab89 863e 1f24 793e 23b8 d03e
00000160: 72b3 e7be aae3 203e 1026 7c3e 255a a13e
00000170: c2c5 66be fc7f 03bf 47b8 533e 28a8 da3e

features_extractor.fc_op.bias f4 [32]
0.32785392 0.39548478 0.052682858 -0.43531886 0.32719776 -0.039225873 0.20199536 0.48024642
0.5266599 -0.20571837 0.06740457 -0.06672652 -0.30344093 -0.09430443 -0.08094151 0.075958185
-0.25957754 -0.37756974 0.28174537 -0.021894652 -0.012231238 0.6145333 0.51453114 0.51421106
-0.30201137 0.044406034 0.14395846 -0.28633425 0.1674242 -0.10505866 -0.5330317 0.27806225
00000000: 78dc a73e fb7c ca3e fbc9 573d 1de2 debe
00000010: 7786 a73e 4fab 20bd dfd7 4e3e dce2 f53e
00000020: 2fd3 063f d6a7 52be 680b 8a3d eaa7 88bd
00000030: 9c5c 9bbe ae22 c1bd aac4 a5bd f78f 9b3d
00000040: 59e7 84be d250 c1be ee40 903e 6a5c b3bc
00000050: 8865 48bc 0e52 1d3f 50b8 033f 56a3 033f
00000060: 3ca1 9abe 1ae3 353d d969 133e 679a 92be
00000070: 4071 2b3e ff28 d7bd c474 08bf 2d5e 8e3e

features_extractor.fc_merge.weight f4 [352, 352]
0.08341647 0.033441927 0.014459143 -0.027016005 -0.08577 -0.16161568 -0.08885876 -0.08014883
-0.11578419 -0.0049771033 0.10111299 0.097573444 0.06589469 0.081745915 0.03985726 0.051500127
0.08859984 0.07724636 0.021506257 -0.055856712 0.04732017 0.03959974 -0.028240982 -0.1121258
-0.12723464 -0.123386234 -0.120551534 -0.0662104 -0.007358294 -0.012731778 0.02871181 -0.026877245
-0.027280679 -0.024341451 0.002874629 0.005597816 0.003631723 0.028834743 -0.036709663 -0.05302001
0.055809736 0.0023055398 0.0646381 0.0575753 0.030578503 0.015731143 0.08069088 0.0054118647
0.027341539 -0.011954138 0.06122174 -0.016333848 0.05143571 0.012853116 -0.007900095 0.09381119
0.024986409 0.0062399665 0.03844125 0.021514786 0.114756 0.045370735 0.005240144 -0.054922484
-0.15024872 -0.1410291 -0.1163706 -0.15405971 -0.10305727 -0.016432257 -0.02733947 0.07238429
0.00010609055 0.059459776 0.0649456 0.03331044 0.014043674 0.047676463 0.014455544 0.0044769994
0.21244591 0.1392261 0.09413081 0.07519933 0.017083403 -0.117542595 -0.20374735 -0.26230344
-0.13566697 -0.027846783 0.01225675 0.016582483 0.09441281 0.017330687 0.025368514 0.029769316
0.037079297 0.011294292 0.02452029 0.03022526 0.0108836945 0.0695983 0.06602905 0.02063501
0.075364664 0.09339349 0.07355545 0.01816448 0.018245665 0.032969695 0.0147479 -0.022672258
-0.004132593 -0.008940063 -0.0028817817 -0.0056786756 0.020952346 0.04609951 0.039258253 0.017335987
-0.03224804 0.06313087 0.051121473 0.029326977 0.08755533 0.061498478 0.095393285 0.0119999405
0.08235555 0.05959417 0.015203238 -0.01101823 0.082545176 0.075260215 -0.0018152517 -0.0042250035
0.0017151042 -0.010230324 0.051366344 -0.03870508 0.04394195 -0.034684103 0.02712176 0.037683286
-0.011433746 0.088148415 0.0601903 0.07644034 0.06852706 -0.015009488 0.00093736156 -0.0046400744
-0.0039858427 0.079210125 0.042583615 0.07270753 0.07952248 0.066650115 0.041632738 0.09382554
0.104694106 0.051890034 0.022413677 -0.03214497 -0.056596234 -0.11329667 -0.14237885 -0.16541474
-0.08773365 -0.07608522 0.046331 0.068975 0.07479381 -0.007653491 0.022156162 0.0022385616
0.033541106 0.06256137 -0.02430839 0.0022608268 -0.047676455 0.027512684 0.064716935 0.081649676
0.050462298 0.046364605 0.07924458 0.027945621 0.04595956 0.079821974 0.05466553 -0.002332355
0.029662728 0.0855135 0.046977956 0.0495178 0.09142945 0.015914766 0.06507829 0.0011486799
-0.01903493 0.063144244 0.027817678 0.021517599 0.012055639 0.0129674915 0.0638779 0.022771835
0.04711983 0.03133622 0.030915992 0.07026708 0.0034418264 0.05250332 0.04257339 0.04546967
-0.0034043847 -0.009279509 0.0101758195 0.06219041 0.0024521195 0.076157875 0.03708461 0.017780252
0.06657072 0.04654899 0.07998825 0.08475104 0.075318605 0.04474593 0.013092251 -0.011104537
0.004948706 0.10706852 0.10665473 0.11318347 0.026700385 0.10164621 0.032077603 0.07614167
0.031866454 0.012374248 0.056127932 0.0692091 0.023935808 0.08420104 0.0962477 0.06525125
0.028963564 0.024838028 0.042844 0.0034943188 0.06041792 0.076071575 0.07558485 0.08276712
00000000: 41d6 aa3d 67fa 083d 0be6 6c3c ab50 ddbc
00000010: 2fa8 afbd 957e 25be 95fb b5bd 1225 a4bd
00000020: 4320 edbd f816 a3bb 5414 cf3d 96d4 c73d
00000030: ccf3 863d 676a a73d 5e41 233d ccf1 523d
00000040: d573 b53d 5733 9e3d e42d b03c 02ca 64bd
00000050: cbd2 413d 5633 223d a259 e7bc 36a2 e5bd
00000060: cc49 02be ecb1 fcbd b9e3 f6bd 5199 87bd
00000070: d81d f1bb f398 50bc 0835 eb3c ab2d dcbc
00000080: bb7b dfbc b967 c7bc 4664 3c3b e26d b73b
00000090: 3402 6e3b d736 ec3c df5c 16bd 832b 59bd
000000a0: c098 643d 8a18 173b fb60 843d 14d4 6b3d
000000b0: c57f fa3c 99de 803c 4341 a53d 0356 b13b
000000c0: 5dfb df3c 4adb 43bc a6c3 7a3d 90ce 85bc
000000d0: 40ae 523d e095 523c 666f 01bc 1520 c03d
000000e0: 4cb0 cc3c a278 cc3b 9274 1d3d c73f b03c
000000f0: 3205 eb3d aad6 393d 84b5 ab3b 66f6 60bd
00000100: cdda 19be ef69 10be b653 eebd d4c1 1dbe
00000110: b10f d3bd f19c 86bc 06f7 dfbc 373e 943d
00000120: ee7c de38 188c 733d 3302 853d 8770 083d
00000130: 7017 663c 6548 433d f2d6 6c3c cbb3 923b
00000140: 6c8b 593e 4991 0e3e a7c7 c03d 1b02 9a3d
00000150: 7ef2 8b3c 2cba f0bd 25a3 50be a34c 86be
00000160: 48ec 0abe f01e e4bc 89d0 483c fdd7 873c
00000170: 815b c13d 16f9 8d3c a1d1 cf3c c8de f33c
00000180: 76e0 173d b20b 393c c6de c83c f79a f73c
00000190: 8651 323c 8e89 8e3d 3d3a 873d c10a a93c
000001a0: ca58 9a3d 1645 bf3d 3da4 963d adcd 943c
000001b0: ef77 953c 3b0b 073d 2da1 713c 2cbb b9bc
000001c0: b46a 87bb 5879 12bc 46dc 3cbb 2f14 babb
000001d0: 41a4 ab3c d7d2 3c3d 43cd 203d 3304 8e3c
000001e0: 8516 04bd c24a 813d c064 513d 213f f03c
000001f0: 3550 b33d d4e5 7b3d 8e5d c33d 669b 443c
00000200: 07aa a83d 0419 743d 0117 793c ce85 34bc
00000210: 720d a93d 0722 9a3d bded edba e671 8abb
00000220: 59cd e03a 179d 27bc 8465 523d 3889 1ebd
00000230: 79fc 333d eb10 0ebd 742e de3c ca59 1a3d
00000240: 9b54 3bbc 2887 b43d 1b8a 763d c18c 9c3d
00000250: ea57 8c3d 5bea 75bc 45b9 753a c40b 98bb
00000260: ac9b 82bb eb38 a23d 286c 2e3d afe7 943d
00000270: afdc a23d db7f 883d 1787 2a3d 9b27 c03d
00000280: dd69 d63d a58a 543d e39c b73c 72aa 03bd
00000290: 74d1 67bd 1608 e8bd c3cb 11be 7b62 29be
000002a0: b3ad b3bd 91d2 9bbd 93c5 3d3d c442 8d3d
000002b0: 7f2d 993d 23ca fabb d780 b53c d5b4 123b
000002c0: 6662 093d 2d20 803d 6422 c7bc 612a 143b
000002d0: 6348 43bd 4862 e13c 508a 843d f237 a73d
000002e0: 8eb1 4e3d d0e8 3d3d fb4a a23d 37ee e43c
000002f0: 1740 3c3d b479 a33d f6e8 5f3d 6cda 18bb
00000300: 40ff f23c b421 af3d f56b 403d 2dd3 4a3d
00000310: 5d3f bb3d af5f 823c c447 853d 4d8f 963a
00000320: 24ef 9bbc c551 813d e6e1 e33c ad45 b03c
00000330: 0485 453c 9a75 543c 6bd2 823d 008c ba3c
00000340: b900 413d 695a 003d 8943 fd3c 30e8 8f3d
00000350: 4490 613b b90d 573d 6f61 2e3d 683e 3a3d
00000360: 191c 5fbb 1509 18bc 7bb8 263c 5fbb 7e3d
00000370: bdb3 203b a9f8 9b3d 08e6 173d e4a7 913c
00000380: 3b56 883d 27aa 3e3d e1d0 a33d f491 ad3d
00000390: a440 9a3d 8247 373d e180 563c ceef 35bc
000003a0: c128 a23b bd46 db3d cc6d da3d bccc e73d
000003b0: c4ba da3c e32b d03d ce63 033d 2af0 9b3d
000003c0: 6686 023d 5cbd 4a3c 67e6 653d 80bd 8d3d
000003d0: 0715 c43c 9871 ac3d 841d c53d 73a2 853d
000003e0: ff44 ed3c 1f79 cb3c 317d 2f3d f100 653b
000003f0: c878 773d 6acb 9b3d 3bcc 9a3d cf81 a93d

features_extractor.fc_merge.bias f4 [352]
0.048491113 0.04673071 -0.03866076 -0.0025860814 -0.04692498 0.011334302 0.0629049 0.05694468
0.0344031 0.039844867 0.073400475 0.032132592 -0.0021145048 0.020255819 -0.03900595 0.07136959
0.030058803 -0.014445801 0.040314905 0.0415921 0.019778965 -0.002827775 0.07066595 0.008968127
-0.01803974 0.011271615 0.00040546927 0.057490423 -0.062044274 0.020902984 -0.007817819 0.014346132
0.018090218 -0.0109774545 0.037620876 -0.0040568733 0.0037456448 -0.0034559355 0.017790755 0.021631172
0.07384248 -0.03880301 -0.0055308216 0.04341127 -0.016474552 0.021057578 0.04212312 -0.010362621
0.07312387 0.0070279036 0.020026403 0.033709068 0.011653621 0.017463412 -0.029477222 0.030702816
0.05302231 -0.009921415 -0.053059023 -0.022548055 0.008862951 -0.013817884 0.025534326 0.044952635
0.029500173 -0.0106283715 -0.015963048 0.035020735 0.02287843 0.029539144 0.0065074116 -0.022664683
0.058849167 0.06884561 -0.020516187 -0.04073183 -0.015881905 0.006640897 -0.013941314 0.017820567
-0.03435499 -0.025630958 0.04418458 0.005603066 -0.020916268 -0.0002822069 -0.031844888 0.05116845
0.0049874606 0.022443729 0.008971176 0.08680579 0.04487001 0.019011807 -0.020427255 -0.010160247
0.00513183 -0.06000754 0.06904316 0.042624537 -0.022624003 0.0745101 -0.019330397 -0.04653525
-0.018782709 -0.019476289 -0.029897748 0.02832475 -0.021564307 0.066885635 -0.047063645 -0.008599372
-0.023428792 0.0023341535 0.009466156 -0.010590339 0.0126358615 0.0018149914 0.04782157 0.054885518
-0.025466127 -0.01863672 -0.022265447 0.07111368 0.03579842 -0.0025957655 -0.024637597 0.014508174
-0.0011496267 -0.023853296 0.005793248 0.06722141 0.025627077 -0.0043622153 0.0061100773 0.079469204
0.05166626 -0.01999762 -0.020095672 0.0423992 0.074121654 -0.01798755 0.052235693 0.053739432
-0.0068181953 0.07079875 -0.025255322 -0.0035618318 0.03328759 -0.0035140093 0.07704601 0.048242543
0.06719832 -0.047740176 0.07250812 0.017357068 -0.009075647 -0.01588253 -0.044113804 -0.046348903
-0.025397247 0.03466783 -0.01623993 -0.05033746 0.032750193 -0.02439927 0.060455944 0.04442629
0.057724617 0.06038222 -0.02031666 0.024896618 -0.037847344 0.0058001117 -0.000788622 -0.023482101
-0.013563029 -0.004161005 0.03027182 0.03763738 -0.0051750806 0.035113305 -0.016078476 0.0602363
-0.012415986 0.03952804 0.05111131 0.03328729 -0.0005172617 0.009384075 0.048422713 -0.00022116047
-0.012536689 0.048335068 0.060683373 0.054693006 0.026736207 0.049324833 0.02468007 -0.012227396
-0.015717011 0.06384008 0.029029267 -0.021765113 0.044383883 0.056628183 0.021937193 0.024597643
-0.022918744 -0.008795261 0.063720174 -0.033359967 -0.03364065 0.022271628 -0.078034356 -0.006212433
0.003054803 0.050055757 0.0014407637 0.043933265 0.03890408 -0.013220212 -0.023688966 0.044809498
0.016964074 0.068646416 0.04773732 0.027918074 0.030667063 0.042563044 0.03668641 0.027267221
0.0026265462 0.044991065 0.004364288 -0.022874087 -0.048775084 0.072962575 0.00508724 0.035650447
-0.017344037 -0.00088134327 -0.004653018 -0.029664202 -0.015969748 0.063432135 -0.0018544698 0.022915697
-0.022641847 0.044119477 0.041725952 0.0299794 -0.0044316608 -0.048469685 -0.015450024 0.065213874
00000000: 9e9e 463d b368 3f3d bf5a 1ebd 3f7b 29bb
00000010: 6834 40bd 82b3 393c 49d4 803d d33e 693d
00000020: 44ea 0c3d 5f34 233d fd52 963d 779d 033d
00000030: 8193 0abb 88ef a53c b4c4 1fbd 382a 923d
00000040: e13d f63c 15ae 6cbc 3e21 253d 7a5c 2a3d
00000050: 7f07 a23c 3152 39bb 4fb9 903d 0def 123c
00000060: 14c8 93bc 94ac 383c 2a95 d439 147b 6b3d
00000070: 2322 7ebd bc3c ab3c 4f16 00bc 0a0c 6b3c
00000080: f031 943c c8da 33bc 5918 1a3d 85ef 84bb
00000090: 7e79 753b fa7c 62bb ebbd 913c db33 b13c
000000a0: ba3a 973d e8ef 1ebd e53b b5bb 04d0 313d
000000b0: a4f5 86bc f180 ac3c 4b89 2c3d fcc7 29bc
000000c0: f8c1 953d 544a e63b 690e a43c 8512 0a3d
000000d0: d4ee 3e3c 6e0f 8f3c 377a f1bc 7984 fb3c
000000e0: ec2d 593d 6e8d 22bc 6b54 59bd b3b6 b8bc
000000f0: e935 113c 6864 62bc 5d2d d13c 4120 383d
00000100: 59aa f13c 9f22 2ebc f0c4 82bc e771 0f3d
00000110: 8c6b bb3c 13fc f13c 203c d53b 49ab b9bc
00000120: d30b 713d edfe 8c3d 9011 a8bc 6bd6 26bd
00000130: c51a 82bc e29b d93b 1c6a 64bc 70fc 913c
00000140: d1b7 0cbd 04f8 d1bc e4fa 343d ed99 b73b
00000150: 9858 abbc 2bf5 93b9 c96f 02bd 0296 513d
00000160: da6d a33b e9db b73c d7fb 123c 3cc7 b13d
00000170: 9ec9 373d a6be 9b3c 0f57 a7bc 2a77 26bc
00000180: e928 a83b 77ca 75bd 8066 8d3d 1197 2e3d
00000190: f955 b9bc c098 983d c85a 9ebc bf9b 3ebd
000001a0: 32de 99bc bd8c 9fbc 1fec f4bc 4e09 e83c
000001b0: a1a7 b0bc 56fb 883d cfc5 40bd 61e4 0cbc
000001c0: bded bfbc 99f8 183b f017 1b3c 1a83 2dbc
000001d0: a506 4f3c 01e5 ed3a 8de0 433d a3cf 603d
000001e0: 579e d0bc 09ac 98bc 0766 b6bc 0da4 913d
000001f0: 5da1 123d b81d 2abb c9d4 c9bc b1b3 6d3c
00000200: 12af 96ba fd67 c3bc 49d5 bd3b 61ab 893d
00000210: e0ef d13c eaf0 8ebb 0b37 c83b c0c0 a23d
00000220: 00a0 533d 0cd2 a3bc ae9f a4bc c9aa 2d3d
00000230: 18cd 973d a05a 93bc 18f5 553d e11d 5c3d
00000240: 2b6b dfbb effe 903d 40e4 cebc 9f6d 69bb
00000250: 9158 083d 4b4b 66bb 4cca 9d3d f999 453d
00000260: 469f 893d 348b 43bd 237f 943d 6930 8e3c
00000270: 06b2 14bc 141c 82bc adb0 34bd 59d8 3dbd
00000280: e30d d0bc dbff 0d3d 9a09 85bc a72e 4ebd
00000290: 1125 063d fae0 c7bc a7a0 773d 57f8 353d
000002a0: a670 6c3d 5953 773d 206f a6bc fef3 cb3c
000002b0: d105 1bbd dd0e be3b 87bb 4eba 895d c0bc
000002c0: 7737 5ebc 0a59 88bb 9cfc f73c a729 1a3d
000002d0: b993 a9bb f8d2 0f3d 02b7 83bc 57ba 763d
000002e0: 6b6c 4bbc 27e8 213d 185a 513d 4158 083d
000002f0: d898 07ba aabf 193c e556 463d 50e7 67b9
00000300: af66 4dbc fefa 453d 218f 783d c605 603d
00000310: e405 db3c d608 4a3d dc2d ca3c 6a55 48bc
00000320: f6c0 80bc 96be 823d c9ce ed3c c04c b2bc
00000330: e0cb 353d f4f2 673d a1b5 b33c ff80 c93c
00000340: 17c0 bbbc 001a 10bc b97f 823d 76a4 08bd
00000350: c7ca 09bd fd72 b63c 7ad0 9fbd aa91 cbbb
00000360: 1733 483b 4407 4d3d 02d8 bc3a 5ef3 333d
00000370: e259 1f3d 9799 58bc 5d0f c2bc 2a8a 373d
00000380: 3ef8 8a3c 7e96 8c3d 3588 433d 72b4 e43c
00000390: 7e39 fb3c 9656 2e3d 7d44 163d 825f df3c
000003a0: 2222 2c3b 8d48 383d 4d02 8f3b 7062 bbbc
000003b0: 62c8 47bd 676d 953d ddb2 a63b 3406 123d
000003c0: 1515 8ebc f209 67ba 5878 98bb 5702 f3bc
000003d0: fdd2 82bc b5e8 813d ae11 f3ba b3b9 bb3c
000003e0: 657b b9bc a0b6 343d d5e8 2a3d 5c97 f53c
000003f0: 7737 91bb 2688 46bd 1922 7dbc da8e 853d

actor.weight f4 [10, 352]
-0.046142228 0.017446114 -0.022911534 0.051726956 -0.006884635 0.016269693 0.0035513677 -0.0038981335
-0.017693166 -0.023728639 -0.07337418 -0.0031088921 0.013064359 -0.019987226 -0.010778772 -0.032426704
0.06708845 0.03286749 0.07121366 -0.055560607 0.073756255 -0.059871703 -0.020326687 0.025749033
-0.056673512 -0.050647542 -0.012098479 0.03712647 -0.046161376 -0.033932332 0.015621277 0.023862043
0.018005067 -0.03943893 -0.017291896 -0.0025052952 0.065007 0.046550706 -0.07210004 0.0075838133
0.040178288 -0.011906633 0.025013512 0.058691595 -0.068264365 -0.010298658 0.013119744 -0.00054041157
-0.066842616 -0.057477746 -0.045002904 -0.0052080294 0.009994575 0.0540051 0.05784126 -0.00012010842
-0.033951253 0.010581118 0.04521502 0.010912116 0.035155103 0.016657617 -0.061934948 -0.029810937
0.03829955 -0.039689127 -0.015916122 0.024115117 0.03137231 -0.021234754 -0.028264267 -0.017030874
-0.06638795 0.025851712 -0.015217784 -0.014876618 -0.0028096302 -0.04702427 -0.048375983 -0.025180131
-0.097763434 0.059148204 -0.03259773 -0.033374783 -0.011408576 0.0059498427 0.048484493 0.03511408
-0.06803883 -0.04297549 0.014263766 -0.020207983 -0.048780926 0.027346097 0.03485215 0.050203722
-5.295167e-05 -0.053361703 -0.065058306 0.0056108474 0.030865354 0.007900445 -0.0013280446 -0.009788829
0.014198356 -0.051821962 0.034339387 0.05856215 0.014041822 -0.045488626 0.004241153 -0.060887497
0.0024605556 0.038581748 0.021928536 -0.027111182 -0.06441281 -0.022416305 -0.01426283 -0.0019893346
-0.018959558 -0.016472634 0.06914812 0.03337642 -0.00025658312 0.046681687 0.029328343 -0.065004036
-0.005643965 -0.051245704 -0.027772138 -0.056580484 -0.021713132 0.019921223 -0.002334003 -0.01336739
-0.00828019 -0.020767508 0.008204132 -0.063184455 0.0010638273 0.007465054 -0.029897217 -0.023033805
-0.055015855 0.03039649 0.008142271 -0.012951788 -0.012701795 -0.022737851 -0.031913675 -0.04229716
0.055653803 -0.036621567 -0.034369208 0.0035751848 -0.029729035 -0.014940176 -0.040062364 -0.021920927
0.015420405 0.0023584838 0.01328544 -0.02555292 0.026131382 -0.01815457 0.021441896 -0.021480378
-0.029321939 -0.039442983 -0.016996702 -0.051025156 -0.0026854933 -0.0018464541 0.029857116 -0.049007848
-0.038341194 -0.017411444 -0.048037723 -0.062504835 -0.021069033 -0.024747375 -0.05133277 -0.006647835
0.014156826 0.054018106 -0.018339256 -0.0098217605 0.04855806 -0.040289298 0.0039468766 -0.046120767
-0.043871287 0.0057465713 0.08605203 0.045834508 -0.01804344 -0.012618436 -0.0016454047 0.08438574
-0.05180392 -0.007443197 0.022951191 -0.0019336138 -0.03527175 0.0060764668 -0.025021857 -0.059600074
0.018942358 -0.0065989746 -0.053553525 0.033566594 0.008063817 0.025989778 0.03082644 0.025501797
0.028882835 -0.049715504 0.040953796 -0.04782614 0.031280473 0.047547042 -0.028561348 0.04238472
0.04834178 -0.0022442967 -0.026569052 0.08800998 0.0012412607 0.052574493 -0.029898787 -0.046420082
-0.039782383 -0.017197475 -0.013008665 0.018467143 -0.023295954 -0.06037194 0.0019328076 -0.044613205
-0.02146555 -0.06326417 -0.006921906 0.044818632 0.0019726437 0.022143677 -0.0014948498 -0.070798114
0.013995003 -0.03809448 0.03774862 0.036070548 0.053927105 0.00771541 0.03676458 -0.08124678
00000000: a2ff 3cbd 27eb 8e3c f8b0 bbbc a5df 533d
00000010: 8198 e1bb 0548 853c 10be 683b d477 7fbb
00000020: 42f1 90bc 9062 c2bc 3445 96bd 8ebe 4bbb
00000030: e50b 563c 40bc a3bc 7299 30bc ddd1 04bd
00000040: ab65 893d 10a0 063d 78d8 913d 8593 63bd
00000050: 850d 973d 083c 75bd 2784 a6bc a3ef d23c
00000060: 7c22 68bd cc73 4fbd b338 46bc ed11 183d
00000070: b613 3dbd a1fc 0abd 62f0 7f3c 557a c33c
00000080: 5d7f 933c b78a 21bd bca7 8dbc e12f 24bb
00000090: 6422 853d f4ab 3e3d 30a9 93bd a381 f83b
000000a0: fd91 243d 0a14 43bc 23e9 cc3c 9966 703d
000000b0: 30ce 8bbd b4bb 28bc 32f4 563c 68aa 0dba
000000c0: c8e4 88bd c96d 6bbd f754 38bd 1ea8 aabb
000000d0: 49c0 233c 7434 5d3d f5ea 6c3d b8e2 fbb8
000000e0: 7810 0bbd 6d5c 2d3c 6333 393d bbc8 323c
000000f0: ccfe 0f3d 8e75 883c 80af 7dbd 1136 f4bc
00000100: fddf 1c3d 1191 22bd 8762 82bc 118d c53c
00000110: 4080 003d 82f4 adbc 778a e7bc 5584 8bbc
00000120: 68f6 87bd f8c6 d33c 0354 79bc 0fbd 73bc
00000130: c621 38bb 859c 40bd e525 46bd 9046 cebc
00000140: 3238 c8bd 6345 723d 3385 05bd ffb3 08bd
00000150: 09eb 3abc e6f6 c23b ad97 463d c8d3 0f3d
00000160: f157 8bbd 1107 30bd 92b2 693c 368b a5bc
00000170: 82ce 47bd ec04 e03c 21c1 0e3d 6ba2 4d3d
00000180: 6c18 5eb8 cd91 5abd 4a3d 85bd 33db b73b
00000190: 57d9 fc3c de70 013c c811 aeba 5361 20bc
000001a0: 39a0 683c 4443 54bd 75a7 0c3d ddde 6f3d
000001b0: ac0f 663c 4852 3abd 5ff9 8a3b 2b65 79bd
000001c0: 4641 213b e507 1e3d 79a3 b33c 4518 debc
000001d0: ddea 83bd 66a2 b7bc a5ae 69bc 7f5f 02bb
000001e0: 1351 9bbc 9ef1 86bc 889d 8d3d b7b5 083d
000001f0: 0186 86b9 4c35 3f3d fe41 f03c d620 85bd
00000200: 03f1 b8bb 04e7 51bd 6582 e3bc f0c0 67bd
00000210: bddf b1bc d531 a33c 13f6 18bb e602 5bbc
00000220: a2a9 07bc 9f20 aabc a06a 063c da66 81bd
00000230: 1f70 8b3a 699d f43b 02eb f4bc 64b1 bcbc
00000240: 4e58 61bd 0f02 f93c 2967 053c bc33 54bc
00000250: 311b 50bc bb44 babc eab7 02bd c93f 2dbd
00000260: 3ef5 633d 7f00 16bd bac6 0cbd a64d 6a3b
00000270: 4e8a f3bc a4c7 74bc 6f18 24bd 8493 b3bc
00000280: dea5 7c3c cb90 1a3b 2dab 593c 5b54 d1bc
00000290: 7b11 d63c e5b8 94bc eaa6 af3c 9ef7 afbc
000002a0: 9034 f0bc f78e 21bd ab3c 8bbc c1ff 50bd
000002b0: 1aff 2fbb b804 f2ba e996 f43c 74bc 48bd
000002c0: a80b 1dbd 72a2 8ebc 34c3 44bd 8902 80bd
000002d0: f798 acbc 02bb cabc 5042 52bd 15d6 d9bb
000002e0: 08f2 673c 1742 5d3d 353c 96bc 73eb 20bc
000002f0: d1e4 463d 6406 25bd cd54 813b 21e9 3cbd
00000300: 61b2 33bd bc4d bc3b 0c3c b03d f7bc 3b3d
00000310: d6cf 93bc 8ebd 4ebc 9faa d7ba 6ed2 ac3d
00000320: 5930 54bd 10e6 f3bb 2304 bc3c 5071 fdba
00000330: 1c79 10bd 191d c73b a3fa ccbc 351f 74bd
00000340: 012d 9b3c 363c d8bb f15a 5bbd 207d 093d
00000350: 1a1e 043c 84e8 d43c bb87 fc3c 25e9 d03c
00000360: b29b ec3c 7ca2 4bbd 2bbf 273d 58e5 43bd
00000370: f41f 003d b0c0 423d 7df9 e9bc 9a9b 2d3d
00000380: 0802 463d 0d15 13bb 57a7 d9bc 943e b43d
00000390: ccb1 a23a 5a58 573d 4dee f4bc fc22 3ebd
000003a0: daf2 22bd b8e1 8cbc 4c22 55bc 6848 973c
000003b0: 28d7 bebc 9148 77bd 4356 fd3a 56bc 36bd
000003c0: 85d8 afbc a590 81bd 28d1 e2bb be93 373d
000003d0: 7847 013b a866 b53c d6ee c3ba 9afe 90bd
000003e0: 4c4b 653c f508 1cbd 4c9e 1a3d b6be 133d
000003f0: abe2 5c3d 8dd1 fc3b 7596 163d b664 a6bd

actor.bias f4 [10]
-0.029759381 0.017904403 -0.042928033 0.016407123 0.09857601 0.015985727 0.031417433 -0.06567596
0.026088383 -0.018015806
00000000: f2c9 f3bc 41ac 923c 4ed5 2fbd 3b68 863c
00000010: 38e2 c93d 80f4 823c 91af 003d 1e81 86bd
00000020: 4eb7 d53c e295 93bc

critic.weight f4 [1, 352]
-0.059561882 -0.049711376 0.033709865 0.04785632 -0.006591956 -0.06171687 0.05424158 -0.06341385
-0.09394904 -0.08327885 -0.0703921 0.083922714 -0.06401634 -0.05034913 0.043072164 -0.086600855
0.049643844 -0.049655627 -0.031459775 -0.079924636 0.036576867 -0.056724567 -0.08903752 -0.039139654
-0.09220475 0.011301149 -0.09115771 -0.04403623 0.04276236 -0.02885708 -0.064099506 -0.048288
0.023642158 -0.05311877 0.015933177 -0.053534336 0.033638474 0.054677192 0.02283666 -0.0009895839
0.060062557 0.01347845 0.03860423 0.025698232 -0.040523347 0.053366806 -0.066802435 -0.05222415
-0.079041496 0.056185506 -0.07449507 -0.07754722 -0.046891488 0.037771903 0.05724449 0.060064226
-0.090411305 -0.046287503 0.040825937 0.039825063 0.005734912 -0.07770283 -0.05763016 -0.09423238
0.018348707 0.022108916 -0.07389256 0.06796608 -0.01791537 0.090339676 -0.028650474 -0.08271423
-0.062408578 -0.047330618 0.05321222 0.0140835075 -0.053803902 0.0090150675 0.024787806 -0.04170449
0.030362494 0.030949507 -0.05908485 0.07139711 0.007488759 0.01727705 0.038338687 -0.078115776
-0.10571859 -0.06577729 -0.06866816 0.08543548 -0.04827463 0.059253264 0.02549538 0.06485785
0.12088462 0.0146008935 -0.06035438 0.06347281 -0.02857006 -0.06255365 -0.08206728 0.030214477
-0.062890284 -0.07719729 -0.071087964 0.04314616 -0.04187341 -0.08384191 0.01693123 -0.080265015
-0.08562401 0.037856933 0.0138667105 0.08136188 -0.042255398 0.049315505 0.06726553 -0.035757877
-0.044950806 0.07368011 0.040281117 -0.04784727 -0.036600426 0.04178165 -0.019443424 -0.060611866
0.06590755 -0.07431624 0.039234035 -0.055042163 0.112340085 0.038385835 -0.047300808 -0.08156637
-0.031492215 -0.08134203 -0.0538092 -0.030166237 -0.07008577 0.0587629 -0.050691992 -0.06457183
-0.034095004 -0.08863666 0.12533684 0.02553905 -0.09683089 0.04572001 -0.092271365 -0.07077163
0.054282546 -0.029132165 -0.051858827 -0.083269395 0.0041248086 -0.059308834 -0.03328581 0.02256617
-0.027142582 0.059893716 0.11932696 0.006514698 0.03293759 -0.067915946 -0.07339178 -0.046092298
-0.04627181 -0.052852847 0.06737888 -0.046731625 0.03563352 -0.04312671 0.022772387 -0.08843897
0.042805225 -0.02058718 -0.049352184 -0.044542607 -0.058569588 -0.060563456 -0.0526587 -0.042489927
-0.03651481 0.050883375 0.07599552 -0.07929785 0.11492397 -0.062935136 -0.052733254 -0.09480363
0.034151953 -0.057287555 0.07272098 0.029593887 -0.03430036 -0.06414655 0.016652763 -0.03581027
0.010379856 0.05210364 -0.050225474 0.02829734 -0.10425746 0.06078092 -0.08174441 -0.06769667
-0.06960785 -0.010977231 -0.07443229 0.012641728 0.026103575 -0.076690234 0.037871383 0.0359348
-0.041246615 -0.025254665 -0.042522438 -0.067128085 0.07775246 0.06582796 0.08364193 0.048944183
-0.001661888 -0.058525726 0.09866996 0.060428098 0.042557392 0.08593924 0.016307864 -0.030089136
0.0072558466 -0.07076385 0.028327772 0.034600034 0.0002057235 -0.049645584 -0.07944365 -0.047062136
-0.06405432 -0.06316584 0.03605791 0.029457474 0.060452566 -0.051006675 -0.06137023 -0.060670238
-0.07524227 -0.04177481 0.0062710256 0.059584297 0.03283673 0.0089734895 0.15894327 -0.047581278
00000000: 29f7 73bd 289e 4bbd 5b13 0a3d fd04 443d
00000010: 5601 d8bb d4ca 7cbd 6b2c 5e3d 1fdf 81bd
00000020: 5b68 c0bd 1a8e aabd bc29 90bd acdf ab3d
00000030: 001b 83bd e43a 4ebd 706c 303d ca5b b1bd
00000040: 5857 4b3d b363 4bbd f7db 00bd 87af a3bd
00000050: a0d1 153d 0558 68bd 4e59 b6bd e750 20bd
00000060: d8d5 bcbd 7428 393c e5b0 babd 555f 34bd
00000070: 9627 2f3d af65 ecbc 9a46 83bd a3c9 45bd
00000080: 33ad c13c 1193 59bd 4b86 823c d246 5bbd
00000090: 7fc8 093d 31f5 5f3d f213 bb3c edb4 81ba
000000a0: 2804 763d b7d4 5c3c 781f 1e3d 1985 d23c
000000b0: cffb 25bd 2797 5a3d b7cf 88bd fee8 55bd
000000c0: 82e0 a1bd c622 663d df90 98bd 14d1 9ebd
000000d0: 4a11 40bd b6b6 1a3d 3379 6a3d e805 763d
000000e0: 9029 b9bd f797 3dbd 1939 273d 9b1f 233d
000000f0: eeeb bb3b a922 9fbd 9a0d 6cbd e8fc c0bd
00000100: 0750 963c c21d b53c fc54 97bd cd31 8b3d
00000110: 41c3 92bc 0204 b93d 66b4 eabc 1466 a9bd
00000120: 23a0 7fbd c0dd 41bd 0ff5 593d 83be 663c
00000130: 7b61 5cbd efb3 133c cc0f cb3c 54d2 2abd
00000140: c4ba f83c d289 fd3c f502 72bd a638 923d
00000150: 4364 f53b 9a88 8d3c 0709 1d3d 2afb 9fbd
00000160: fd82 d8bd 3eb6 86bd e4a1 8cbd ccf8 ae3d
00000170: 9ebb 45bd 8db3 723d b0db d03c 31d4 843d
00000180: 5b92 f73d 9638 6f3c 2836 77bd 08fe 813d
00000190: c20b eabc 211c 80bd e412 a8bd 5a84 f73c
000001a0: 9fcc 80bd 9d19 9ebd 9196 91bd 07ba 303d
000001b0: 7483 2bbd 4fb5 abbd 5db3 8a3c fc61 a4bd
000001c0: a45b afbd df0f 1b3d 3331 633c 0fa1 a63d
000001d0: ff13 2dbd 0eff 493d 83c2 893d da76 12bd
000001e0: 561e 38bd 99e5 963d d0fd 243d 80fb 43bd
000001f0: 54ea 15bd 3c23 2b3d d147 9fbc 2644 78bd
00000200: 8afa 863d 1d33 98bd deb3 203d e473 61bd
00000210: 8f12 e63d 773a 1d3d 7ebe 41bd 450c a7bd
00000220: fbfd 00bd a696 a6bd 0967 5cbd 2f1f f7bc
00000230: 2189 8fbd 5eb1 703d 68a2 4fbd 3c3e 84bd
00000240: 34a7 0bbd 2387 b5bd 4d58 003e 4537 d13c
00000250: 464f c6bd e844 3b3d c5f8 bcbd b7f0 90bd
00000260: 6057 5e3d 94a6 eebc ec69 54bd 2589 aabd
00000270: 6729 873b d2ed 72bd b456 08bd b0dc b83c
00000280: 1f5a debc 1d53 753d b161 f43d 3f79 d53b
00000290: 91e9 063d 8417 8bbd 6e4e 96bd 47cb 3cbd
000002a0: 8287 3dbd 3a7c 58bd f0fd 893d a969 3fbd
000002b0: 74f4 113d a2a5 30bd 288d ba3c 7e1f b5bd
000002c0: 8854 2f3d 72a6 a8bc 8425 4abd 4f72 36bd
000002d0: aae6 6fbd 6311 78bd a6b0 57bd eb09 2ebd
000002e0: 8e90 15bd 166b 503d 8aa3 9b3d e966 a2bd
000002f0: 425d eb3d 23e4 80bd d3fe 57bd 6828 c2bd
00000300: ebe2 0b3d 5ba6 6abd bdee 943d e16e f23c
00000310: 897e 0cbd 445f 83bd 606b 883c caad 12bd
00000320: 4610 2a3c a06a 553d 3ab9 4dbd d3cf e73c
00000330: ef84 d5bd 6af5 783d 9d69 a7bd 8da4 8abd
00000340: 8f8e 8ebd d8d9 33bc f56f 98bd 401f 4f3c
00000350: 2ad7 d53c c50f 9dbd 061f 1b3d 5e30 133d
00000360: 36f2 28bd dfe2 cebc 022c 2ebd 737a 89bd
00000370: af3c 9f3d cfd0 863d 764c ab3d b279 483d
00000380: b5d3 d9ba acb8 6fbd 7a13 ca3d 7483 773d
00000390: a950 2e3d ea00 b03d 1298 853c 7e7d f6bc
000003a0: 74c2 ed3b a3ec 90bd a50f e83c c4b8 0d3d
000003b0: 7bb7 5739 2b59 4bbd 5ab3 a2bd 3ac4 40bd
000003c0: e92e 83bd 185d 81bd 76b1 133d cd50 f13c
000003d0: 1c9d 773d 60ec 50bd 5a5f 7bbd 5b81 78bd
000003e0: 9f18 9abd 101c 2bbd 2d7d cd3b aa0e 743d
000003f0: cf7f 063d 8b05 133c 06c2 223e 96e4 42bd
