carlike_gym/model_480.pth (torch, 526994 bytes, 11 tensors)

features_extractor.conv1.weight f4 [16, 4, 4]
000000 60 93 f3 bd 37 49 9c 3c 78 a7 18 be d2 d6 af 3d
       -0.11893344 0.01907788 -0.14907634 0.085858956
000010 7f 8e 32 bd e6 79 35 3e 15 5b 6a 3d f3 ae be 3d
       -0.043592926 0.17722282 0.05721577 0.09310713
000020 1e 7e ba bc 18 87 6a be 1c 1c 80 be 4b cb 59 3d
       -0.022765215 -0.22903097 -0.25021446 0.05317239
000030 7f 27 79 3d 2e bf ef 3d 7a d3 7d bc 93 78 40 be
       0.060828682 0.117063865 -0.0154923145 -0.18795995
000040 c0 4d f2 3d a4 46 72 3e 4e 8d 69 be 38 41 a7 bd
       0.11831236 0.2365976 -0.2280781 -0.08166736
000050 fe 8d 45 be b4 1a b8 bd 54 13 4a be da a5 1f be
       -0.19292447 -0.08989468 -0.19733936 -0.15590611
000060 86 8c 13 be e2 9f 76 be 30 e5 0d 3d fc f8 49 be
       -0.14409074 -0.24084428 0.0346424 -0.19723886
000070 e8 fb 50 be f0 27 7d bd f8 74 0f bd e4 95 82 3d
       -0.20408595 -0.061805665 -0.03502366 0.063762456
000080 c2 47 b5 bb ce 43 9e 3e 9a 1a f8 3b 17 a2 65 3e
       -0.005532236 0.30911106 0.0075715305 0.22425114
000090 f2 43 06 be 2d 6b 38 bd bb 4c 37 3e 24 fe 83 bd
       -0.13111857 -0.045024086 0.17900364 -0.06444958
0000a0 bf 27 e5 bd 9d 01 e7 3c bc 32 47 3d 87 1c 14 be
       -0.111892216 0.028199011 0.04863237 -0.14464007
0000b0 cd f4 b1 3d eb 87 24 be 1e e5 0d 3d ed 8a 7a bb
       0.0868927 -0.16067474 0.03464233 -0.003822978
0000c0 fc 06 40 be 38 67 e6 bd b0 e0 c1 3d e8 5f 2e 3d
       -0.18752664 -0.11250156 0.09466684 0.042571932
0000d0 98 5c be 3d b8 e9 52 bd 44 9b 66 be 80 a9 c4 bb
       0.092950046 -0.051492423 -0.22520167 -0.0060016513
0000e0 c0 cc 30 be 28 93 80 bd 60 56 97 3d f8 69 c1 bd
       -0.17265606 -0.06278068 0.073895216 -0.0944404
0000f0 c0 9b 4d 3d 00 45 70 3d 84 84 23 3e 40 24 93 bb
       0.050197363 0.058659554 0.1596852 -0.0044904053
000100 74 bc 3c 3e 5b 72 3b 3e 54 44 9a be d0 9a 1a be
       0.18431264 0.18305342 -0.30130255 -0.15098119
000110 ac c7 59 3d fc 31 01 3e af 63 f1 bc 5e b3 cf 3c
       0.053168938 0.12616724 -0.029466478 0.025354084
000120 17 b5 49 3e 37 c9 fa 3c 73 28 0a 3e 58 56 8f bd
       0.19697987 0.030613525 0.13491993 -0.06998891
000130 d9 bc d3 3d 96 3f 08 bd 65 a2 cf 3d d5 ae 0a 3e
       0.10338754 -0.033263765 0.10138396 0.13543256
000140 1d aa d0 bd 6e 30 b9 3d 66 6f 8b be 4b ce b5 bd
       -0.101886965 0.0904244 -0.27233428 -0.08877238
000150 f1 19 77 3e ea 6d 2c be f2 54 10 3d 05 05 05 be
       0.2413099 -0.16838804 0.03523726 -0.12990196
000160 c5 8b 43 3d 1e 85 81 3e c8 ba 78 3d 75 64 6b 3e
       0.047740716 0.25296873 0.060725003 0.2298754
000170 17 d6 4b bd 76 8b 58 be 0d ed 3d 3e 24 05 87 3e
       -0.04976472 -0.2114695 0.18547459 0.2637111
000180 01 02 49 3e 75 1c 26 3e 17 88 c7 bd 66 bf a6 3d
       0.1962967 0.16221793 -0.09742754 0.08141975
000190 b2 20 7c 3e 98 09 32 be b5 c8 c2 3d 5b 34 2e be
       0.24621847 -0.17386472 0.09510938 -0.1701216
0001a0 0b 54 64 3e 26 ee db 3d 03 ba 96 bd 56 67 d5 3d
       0.22297685 0.107387826 -0.07359698 0.104201004
0001b0 a2 8e b3 bc 54 63 a3 bd 2f 05 0b be 6c 2c 88 3d
       -0.021918599 -0.0797793 -0.13576196 0.06649098
0001c0 ef 73 6d be ec 22 81 be 36 4d 44 be e1 3e 14 be
       -0.23188756 -0.25221956 -0.19170079 -0.14477111
0001d0 cd 81 07 be e4 a0 7b 3e bc c3 3a 3e 0d f5 28 3d
       -0.13233109 0.24573094 0.18238729 0.041249324
0001e0 f3 77 6f 3e d0 b7 7b 3e 1b 48 5f bc f5 29 24 be
       0.23385601 0.24581838 -0.013628031 -0.1603163
0001f0 bb cb 7c bd 7b 40 31 3d 79 83 ef 3d 4b c6 35 3e
       -0.06171773 0.043274384 0.11694998 0.17751424
000200 74 40 0a be b4 e1 ee bd b5 47 6f bc d2 73 3e 3e
       -0.1350115 -0.11664143 -0.014604499 0.1859887
000210 d3 30 8a 3d d9 6d 3a 3e b7 e4 3b 3d 02 23 28 3e
       0.06747594 0.18205966 0.045872416 0.16419604
000220 7d 4d 59 3e 02 97 b2 3c bc ad 76 3e d2 3a c9 bd
       0.21220966 0.021800522 0.24089712 -0.09825672
000230 ed 0a 36 be 56 d3 06 3e d5 ae 44 3e fa da 0d 3e
       -0.17777605 0.13166556 0.19207318 0.13853064
000240 2f 00 12 be d0 0b 25 be 07 56 4c be 06 4f 98 3e
       -0.14257883 -0.16117787 -0.19954692 0.2974779
000250 13 b2 b8 bd 38 17 ea bd 86 89 86 bd 24 d8 38 3e
       -0.0901834 -0.1143021 -0.06569199 0.18051201
000260 2f d1 d6 bd ff c0 6a bd 36 c4 34 3e b8 50 53 3e
       -0.10489117 -0.05731296 0.17652974 0.2063626
000270 2d d4 bd bc 4f 83 5d 3d d3 3b 1b 3c 84 bf 82 3d
       -0.023172462 0.054080304 0.009474712 0.06384185
000280 fe f8 52 be 10 f5 12 bd d2 14 2c be ec 22 89 bd
       -0.20602795 -0.03587824 -0.16804817 -0.06696114
000290 54 97 17 be 00 31 1f bd a4 8b 9a bd a8 87 4b be
       -0.14803821 -0.03886509 -0.075461656 -0.19875968
0002a0 40 e0 44 be bc aa 40 be 6e e4 59 3e 68 32 1e 3d
       -0.1922617 -0.1881513 0.21278545 0.03862229
0002b0 d6 6a 1b 3e e4 17 86 3d 08 4f 97 bd 68 dc 6f bd
       0.15177473 0.065475255 -0.07388121 -0.058559805
0002c0 aa f8 81 be 75 fe 9d be 1c a7 4a bd b9 f4 37 be
       -0.25385028 -0.30858198 -0.049475774 -0.17964448
0002d0 b9 d5 c3 3d 42 3d 95 bc ec d4 fd bd 0a 88 d4 bd
       0.09562249 -0.018217687 -0.12394127 -0.1037751
0002e0 d9 b1 69 3d bf 65 62 3e 41 43 89 3e d1 35 2b 3e
       0.057054374 0.22109126 0.26809123 0.16719748
0002f0 21 5d 95 3c 71 1d 38 3e d9 59 83 3e 07 b8 3c 3e
       0.018232884 0.17979981 0.25654486 0.18429576
000300 0c c0 5d 3e 40 7c c5 bd 52 18 01 bc dd a3 9b bd
       0.21655291 -0.096428394 -0.007879334 -0.07599614
000310 42 c2 f0 bd 51 20 fd ba df b5 c7 bd c6 b8 b0 3d
       -0.11755802 -0.0019311999 -0.09751486 0.08628993
000320 fc 2f 08 3e ab c9 2d 3d 0b 6b ec bd d4 6e 7e 3d
       0.13299555 0.042428654 -0.11543854 0.062117413
000330 9b 7f a9 bd 42 85 01 be f7 ad 1e be 64 16 81 3e
       -0.08276292 -0.1264849 -0.1549605 0.25212395
000340 4f d4 b0 bd 35 9a 63 be cc 1f a0 3d 18 38 21 be
       -0.08634245 -0.22226794 0.07818565 -0.15744054
000350 51 22 f6 bd b8 ed 9b bb c9 ee 50 be e3 07 4a 3e
       -0.12018264 -0.004758563 -0.2040359 0.19729571
000360 d6 d6 12 bd 12 63 b5 3d e9 84 50 be 45 46 fa bd
       -0.035849415 0.08856787 -0.20363201 -0.12220434
000370 f6 b5 47 3e e3 4d 15 be c3 bd 74 be 8f 56 50 3e
       0.19503006 -0.14580493 -0.23900513 0.2034552
000380 d1 ec 8a 3e d4 70 90 3d 3a 79 36 3e 79 11 a8 3c
       0.27133802 0.0705277 0.17819682 0.020516144
000390 fa 7e 11 be ac 2e 3f be df 11 96 bd 1a 86 55 bd
       -0.14208594 -0.18670148 -0.073276274 -0.052129842
0003a0 29 71 17 3d 94 b1 ee 3d b4 d3 41 be 7a 6c 51 be
       0.036973152 0.11654964 -0.18928415 -0.20451537
0003b0 43 e0 fa bd 5a 2d 2c 3e b8 81 2a 3e 9e 47 9c 3d
       -0.12249806 0.16814175 0.16651046 0.076308474
0003c0 9e 04 13 3e ee ea 8d 3e 13 95 15 bd 06 0a 0b bd
       0.1435723 0.277183 -0.03651912 -0.033945106
0003d0 1e 4b 79 bd c9 64 73 3e fb be 77 be 84 47 49 3d
       -0.060862653 0.23768915 -0.24193947 0.04914047
0003e0 d6 b4 72 3e 3a 17 fb bd 00 9a 0c bc e4 b3 5c bc
       0.23701796 -0.122602895 -0.008581638 -0.013470624
0003f0 f2 2d 5a be 95 f5 2d be 4c ff d7 bd e7 23 a2 3c
       -0.21306589 -0.16988213 -0.10546741 0.01979251

features_extractor.conv1.bias f4 [16]
000000 5f 66 5d bd c4 02 12 be bd b0 ae 3c 8e 24 0d be
       -0.054052707 -0.14258868 0.02132451 -0.13783476
000010 00 79 e0 bd 7f 43 93 bd a5 fa 5c be ab c9 e2 3c
       -0.10960579 -0.07190608 -0.21579988 0.027684053
000020 06 0a 40 bd 5e e9 02 be 00 45 d6 3b c8 b8 da 3d
       -0.04688456 -0.12784335 0.006538987 0.106797755
000030 30 54 8a 3d 06 11 03 bc f1 31 66 3d cd 3a 2a 3e
       0.06754339 -0.007999664 0.05619997 0.16623993

features_extractor.conv2.weight f4 [32, 16, 4]
000000 7a 21 e1 bd dc d9 40 3d ce c1 f0 3d 50 0a 69 bd
       -0.10992713 0.047082767 0.11755715 -0.0568946
000010 6c f5 35 bd cc 42 02 bd 16 14 bf 3d 38 ab 09 3d
       -0.044423506 -0.031801984 0.09330003 0.033610553
000020 8e 2e d6 3d 3a a1 3d 3e 6f b5 db 3c b3 cd f2 bd
       0.10458098 0.18518534 0.026819913 -0.1185564
000030 18 f0 b4 3d ac 33 b2 3d 70 e8 d1 3c c0 c5 ee 3d
       0.08834857 0.08701262 0.02562353 0.116588116
000040 9a 7c 7c 3c 2b 83 8d 3c 65 1e c4 3d bb e2 97 3d
       0.015410567 0.01727446 0.0957611 0.07416292
000050 48 f1 a2 bd 51 e0 d9 3d af 20 6f bd 98 e1 66 bc
       -0.07956177 0.10638488 -0.05838078 -0.014091872
000060 07 da bd 3d 46 db ce 3d f0 5d 8a 3d d3 c9 72 3d
       0.09270101 0.10100417 0.067561984 0.059274506
000070 2b fb e7 bd 52 ed 42 be 19 0c b8 bd 87 c2 4f 3d
       -0.11327203 -0.19035843 -0.089866824 0.050722625
000080 4e ab f1 3c 62 47 b0 3d 3f 83 06 3d 98 14 4a bd
       0.02950063 0.08607365 0.03284001 -0.049336046
000090 57 77 8c 3a d5 c2 79 bd c8 1d ee bd f4 01 37 be
       0.0010716718 -0.060976822 -0.11626774 -0.17871839
0000a0 90 46 5a bd d4 d5 c6 bd c0 67 79 3d 82 37 e6 3d
       -0.05328995 -0.09708753 0.06088996 0.11241056
0000b0 0f 78 26 be 63 e0 17 be ec 1c 08 be a3 93 6b bc
       -0.16256736 -0.1483169 -0.13292283 -0.014378461
0000c0 f9 6f 9a bc e2 f5 3d 3c a5 a5 bf 3d 9c 36 6b 3e
       -0.01885222 0.011594268 0.09357766 0.2297005
0000d0 c0 85 fe 3d 58 3c a9 3d 9c fa c7 bd 48 22 90 bc
       0.124278545 0.08263463 -0.09764597 -0.017594472
0000e0 be 7f 4f 3e 0d 15 66 3e d0 3e f4 3d 24 90 b6 3d
       0.20263574 0.22468968 0.11926043 0.089142114
0000f0 eb ed 11 3d 42 84 10 3e c3 bf 3c 3e 64 27 5f 3d
       0.035627287 0.14112952 0.18432526 0.054480925
000100 ae 7c dd 3d 84 3b 7e bd 4e ab c1 bd 42 ff c8 3d
       0.108147964 -0.062068477 -0.09456502 0.098143116
000110 68 8a fd 3c 6c 67 1f 3d 78 11 e2 bc 70 c1 a1 bd
       0.030949786 0.03891699 -0.02759622 -0.078982234
000120 2d dc 5a bd 78 72 e5 bc 81 52 34 be f3 88 3f be
       -0.053432632 -0.028008685 -0.17609598 -0.18704586
000130 ae b1 e4 3d 92 76 9e 3d 18 37 6f 3d 50 13 71 3c
       0.11166702 0.07737459 0.05840215 0.014714077
000140 18 ef 57 3b dc 66 13 3e 22 5f bb 3d 40 03 4b 3d
       0.0032948907 0.14394706 0.091490045 0.049563646
000150 5b 6a 4d bd 5f d2 e1 3d 7a 95 85 3d 1e 03 63 3d
       -0.050150257 0.11026453 0.06522651 0.055422895
000160 fb 18 09 3e 01 f8 aa bd e7 69 00 bc 78 9d 9c bd
       0.13388436 -0.08348084 -0.007837749 -0.07647222
000170 f8 e6 30 3d 58 31 c3 3d 50 57 05 3e 74 f0 9f 3d
       0.04318902 0.09530896 0.13021588 0.07809535
000180 43 36 84 3d ee 99 55 3c 79 23 a4 bd ea 9e a1 bd
       0.06455662 0.013037188 -0.08014578 -0.078916386
000190 58 7f 9d 3d ee 18 47 3e 1c 3f b0 3c 2a 70 2a 3e
       0.076903045 0.19443104 0.021514468 0.1664435
0001a0 38 b7 96 bc 7c bd 82 bd a0 0a 7c 3c ec 4c 8d bd
       -0.018397912 -0.063837975 0.015383393 -0.06899437
0001b0 6c 2d 4e 3d 7d b5 e7 3d 70 97 27 3d f5 fa 56 bd
       0.050336286 0.11313913 0.040915906 -0.052485425
0001c0 ec d9 78 3d 83 01 1e 3e 05 f7 83 bd 7b 1b f1 bd
       0.0607547 0.15430264 -0.064435996 -0.117728196
0001d0 18 27 d5 3c 40 f5 b8 3b 40 c5 63 3c 94 12 14 bd
       0.026019618 0.0056444705 0.0139020085 -0.03615053
0001e0 f0 5e 0b 3d 60 86 20 be 9e f8 3b be 4a e9 45 be
       0.034026086 -0.1567626 -0.18356559 -0.19327274
0001f0 1c ce f3 3d b5 37 1a 3d 59 2c 6f 3d ab 7e 74 bd
       0.119045466 0.037650783 0.058391903 -0.059691112
000200 e0 6d 05 3d cc 72 4b bd 64 27 98 3d 5e ad c4 bd
       0.032575488 -0.049670026 0.07429388 -0.0960338
000210 80 9e 81 3b 98 f5 4a 3d 30 0f 2c bd 5e 52 b9 bd
       0.0039556623 0.049550623 -0.04200667 -0.090489134
000220 9a a3 0b 3e 4c fc 37 3e 39 c7 2f 3e ab dc c8 3d
       0.13636628 0.17967337 0.17165841 0.09807714
000230 30 c3 3f bd ec 96 60 bd 10 43 3d bd 50 ba 2d 3c
       -0.046817005 -0.05483143 -0.046206534 0.010603502
000240 30 b0 d8 3b 52 46 14 3e d0 5f 9c bd d6 a5 75 3d
       0.0066128 0.1447995 -0.07635462 0.059972607
000250 1d b0 09 be d3 38 97 bd f9 a0 90 3d 70 4c e4 3c
       -0.13446088 -0.07383885 0.07061953 0.02786848
000260 54 21 1b 3e 2f 36 0d 3e e0 8e a5 bd 3a 4a 31 bd
       0.15149432 0.137902 -0.08083892 -0.04328368
000270 c4 7b 7f 3c 14 cf 1d be 94 32 aa bd e5 10 77 bd
       0.015593473 -0.15411025 -0.08310428 -0.060318846
000280 cf 2d 78 3d 70 4f 6e 3d 58 9f 4e bd df e1 57 bd
       0.06059056 0.058181226 -0.05044493 -0.05270564
000290 3d 53 95 bd 78 b2 11 be 5e 41 e6 bd 8a 1f 74 bd
       -0.07291267 -0.14228237 -0.112429366 -0.05960039
0002a0 d4 dd 88 3d 4c ad f2 3d a2 49 c2 bd 4e a9 89 bd
       0.06682935 0.1184946 -0.094867006 -0.067217454
0002b0 cd bc fe bd 72 4a 50 bc 1c 43 1f be 87 09 94 3d
       -0.12438355 -0.012713062 -0.15552944 0.0722838
0002c0 c3 7d 86 3d 3f f6 9a 3c 26 dd a3 bc b8 cb b7 3d
       0.06566956 0.018916247 -0.020002913 0.08974403
0002d0 80 c4 a7 bd 44 9d 18 3d 84 10 26 3d 3c e9 46 bd
       -0.08191776 0.037259355 0.040543094 -0.048562273
0002e0 27 e4 5e 3d da 8d 18 3d 53 6d 00 3e d3 0b 12 bd
       0.0544168 0.037244655 0.12541704 -0.035655808
0002f0 4a b3 ae 3c 5c d3 24 bd 6b d0 2b 3e 0d 87 3b 3e
       0.021325726 -0.04024063 0.16778724 0.18313237
000300 52 09 c6 bd 34 bc 6d 3d 24 c3 d3 bd d0 a6 aa bd
       -0.096697465 0.058040813 -0.103399545 -0.08332598
000310 98 c2 2e 3d c0 6a 32 3b 78 66 cb 3c 14 aa cd 3d
       0.042666048 0.0027224272 0.024829134 0.100422055
000320 c5 39 02 be b0 ad 4f bc 9a 03 8a 3d 93 cd 6c bd
       -0.1271735 -0.012675688 0.06738968 -0.05781324
000330 bc ec f6 bd e0 b2 21 bd 02 3d 9d bd d0 63 a4 bd
       -0.12056872 -0.03947723 -0.07677652 -0.0802685
000340 ad f3 a1 bd 0e 3d 3d 3c c0 8b e4 3c dd 02 87 bd
       -0.079078056 0.011550201 0.02789867 -0.06592343
000350 c6 45 d9 3d 3f d8 bd bd 81 1b 1c bd 83 05 f0 3d
       0.10609011 -0.09269761 -0.038112167 0.11719801
000360 48 a2 9f bc c1 53 1d 3d 59 4d 0c be 9c 2b 80 bd
       -0.019486561 0.038409952 -0.13701381 -0.06258318
000370 77 ca 6b 3d 1d 82 be 3c 55 87 10 ba 65 c9 6a bd
       0.057566132 0.023255402 -0.000551333 -0.05732097
000380 1b f6 8d 3d 49 0c ad bd 3d a9 c4 bd 55 97 f1 3d
       0.069317065 -0.08449609 -0.09602592 0.117964424
000390 9f 74 85 3d 05 b5 8a 3d 36 87 b8 bd 68 bf dd 3d
       0.06516384 0.06772808 -0.090101644 0.108275235
0003a0 18 1f cb bc ec 25 03 3d 38 96 88 bc b0 6a bf bd
       -0.0247951 0.032018587 -0.016673192 -0.09346521
0003b0 33 01 d2 3d e8 0a ba bd 9f 85 03 3e cf 48 29 bd
       0.10254135 -0.090841115 0.12843941 -0.0413292
0003c0 29 4a d4 bd 98 e6 b6 bd d2 d6 4c 3d e9 34 fd bd
       -0.103657074 -0.08930701 0.050009556 -0.123636074
0003d0 ba ae bd 3d 5c 9d cc 3d 78 e5 d9 3c 60 1c 42 bd
       0.09261842 0.099909514 0.026598677 -0.04739034
0003e0 cc 3e 2f 3d 89 09 8f bd 09 ba bf 3c 2c ae e9 3d
       0.042784497 -0.069842406 0.023404138 0.11410174
0003f0 13 e0 f9 3c 11 8f f1 bd f5 10 cb bd ca dd 80 3d
       0.030502355 -0.11794866 -0.09915344 0.06292303

features_extractor.conv2.bias f4 [32]
000000 05 b7 36 bd d1 65 84 bd 7e 36 79 bd ba c7 01 be
       -0.044608135 -0.064647324 -0.060842983 -0.12673846
000010 fa f7 5f 3d 67 9f c9 3d 64 a5 d6 3d bf 21 87 bd
       0.05467985 0.09844857 0.104807645 -0.065982334
000020 bb b9 d6 3d de 86 b8 3d e0 c6 f3 3d dc 05 e5 bd
       0.10484644 0.09010099 0.11903167 -0.11182758
000030 65 32 c1 bc 84 f3 06 3e 05 a1 f4 3d 6f 30 29 3d
       -0.0235836 0.13178831 0.119447745 0.041305955
000040 d3 9c 51 3c 7c 31 9c bd 30 ce b8 bd 08 d6 48 3d
       0.012793737 -0.07626626 -0.09023702 0.04903224
000050 9f 7e c5 3d da 8e 03 3c 82 5d 77 3d be 61 89 3c
       0.09643292 0.008029664 0.06039191 0.01677024
000060 bf f2 9a bd bd f2 9f bc 8f 98 12 3e b7 44 d0 3d
       -0.075658314 -0.019524926 0.14316009 0.10169356
000070 0e 50 ce 3c 79 5b 6e bd f5 b9 d4 3d 73 8c 3b 3d
       0.025184657 -0.058192704 0.10387031 0.04578824

features_extractor.fc_op.weight f4 [32, 3]
000000 66 c0 c3 bd 3b 8d c7 3d bc 61 74 be 82 26 87 be
       -0.095581815 0.097437344 -0.23865408 -0.26396567
000010 2e bc a7 be 8b 60 ae be 70 0c f5 be 1c 63 0b be
       -0.32760757 -0.3405803 -0.47861052 -0.13612026
000020 1f 0a 98 be 30 07 58 be 26 42 e1 3e a7 7c d9 3e
       -0.29695222 -0.21096492 0.4399578 0.42477915
000030 25 48 f0 be bb c0 a4 be 90 84 5a 3c e9 39 9a 3e
       -0.46930042 -0.32178292 0.013337269 0.30122307
000040 c4 1d 05 3f 90 5f a3 3e 3f ad ad bc 01 92 9e bb
       0.51998544 0.31908846 -0.021200774 -0.0048391824
000050 31 a0 42 bd 5e 99 19 be 77 a1 13 bd 9c 26 9c bd
       -0.04751605 -0.14999911 -0.036042657 -0.07624552
000060 62 27 3a 3e 38 23 16 be 9a b6 05 3f 28 0e 08 bf
       0.18179086 -0.14661872 0.5223175 -0.531466
000070 ea a9 95 3e 14 cb 54 be 1c 6b 01 3f 0e bf e2 3e
       0.29231197 -0.20780593 0.5055406 0.44286388
000080 ac 5d ec 3e 77 1b 81 3e 03 29 b9 3e a0 62 30 3e
       0.46165216 0.25216267 0.36164102 0.17225122
000090 fa ac 76 3c 35 a1 3d 3e 2f d6 9f be 77 73 62 3e
       0.015055889 0.18518527 -0.31218097 0.22114359
0000a0 3f 92 17 bd e2 7f e2 be 85 8b 77 bc a9 83 8a 3e
       -0.037004706 -0.44238192 -0.015108948 0.27053574
0000b0 c8 8f d4 3d 00 2f 05 bf 5d 3d 87 3e 2e 0d be be
       0.103789866 -0.5202484 0.26414004 -0.3711943
0000c0 a3 2b 4d 3e f9 d8 95 be ec c1 9a be a7 c4 e1 3e
       0.20036177 -0.292671 -0.30226076 0.44095346
0000d0 ad 16 c7 bc db 30 ce be fa 22 d0 3e 3a 44 0a bb
       -0.024302805 -0.4027165 0.40651685 -0.0021097795
0000e0 50 65 2d bd 51 40 e5 3d af f0 87 3e da f0 79 3d
       -0.042332947 0.11193908 0.26550815 0.06102071
0000f0 68 05 d6 3d e6 5a a4 be 51 54 17 3f 9d 85 c5 3d
       0.1045025 -0.321006 0.5911303 0.09644625
000100 4b 6b 01 3f 28 46 23 be 18 00 c8 3e 8d ab 4d 3e
       0.5055434 -0.15944731 0.39062572 0.20084973
000110 65 6d c3 3d ed b5 ff 3e 10 99 65 3c fb 92 19 3d
       0.0954235 0.49943486 0.014013544 0.037493687
000120 56 25 0d 3d f7 94 f7 be 98 67 be 3d 02 d7 94 be
       0.034459434 -0.4835584 0.09297103 -0.29070288
000130 8b 35 9a bc 82 dd eb be b5 48 f7 3e 17 2d 78 be
       -0.01882436 -0.46067435 0.4829766 -0.2423595
000140 5e d9 98 3e fa 02 38 3e 50 34 40 3b 1a d5 f4 3e
       0.29853338 0.17969885 0.0029328056 0.47818834
000150 89 ee 36 3e f1 a7 86 3e ba aa 89 3e c2 42 d4 3e
       0.17864431 0.26300004 0.26888067 0.41457182
000160 ce 83 e7 be 02 95 3e 3e a4 d5 81 3e 09 99 a1 3e
       -0.45217746 0.1861153 0.25358307 0.3156207
000170 de 50 54 be d5 85 03 bf 07 85 53 3e 21 22 d5 3e
       -0.20733973 -0.51376086 0.20656215 0.416276

features_extractor.fc_op.bias f4 [32]
000000 a6 94 a1 3e f9 72 d1 3e 11 7f 1a 3d 26 f4 e4 be
       0.31558722 0.4090803 0.037718836 -0.4471752
000010 cb 38 a6 3e bd a6 40 bd c4 e3 4b 3e eb ba f4 3e
       0.32465205 -0.047034014 0.19911104 0.47798857
000020 6a 65 05 3f 25 2b 5b be 2f 47 7f 3d 91 50 95 bd
       0.5210787 -0.21403177 0.062323745 -0.072907574
000030 79 d1 9c be 9c 3d f7 bd 9d c0 a6 bd d5 75 8b 3d
       -0.30628565 -0.12072298 -0.08142207 0.06809584
000040 f4 61 8a be ec ca cf be 7d 46 90 3e fe c0 cc bc
       -0.27027857 -0.40584505 0.28178778 -0.02499437
000050 34 d1 71 bc cd 4e 1c 3f 72 f3 01 3f 9e 5d 02 3f
       -0.014759351 0.6105774 0.50762093 0.509241
000060 19 a0 9b be 68 92 07 3d 75 fe 14 3e 87 37 8c be
       -0.30395582 0.03309861 0.14550193 -0.27386114
000070 62 7b 23 3e 07 f8 e7 bd 6d 12 0a bf 6a 01 8b 3e
       0.15965036 -0.11326604 -0.53934366 0.27149516

features_extractor.fc_merge.weight f4 [352, 352]
000000 82 bc a9 3d 89 39 03 3d 13 8a 60 3c f6 42 d9 bc
       0.08287908 0.03203729 0.013704794 -0.026521187
000010 35 cf a9 bd f9 94 1e be 15 fa 9a bd 41 7c 6b bd
       -0.08291475 -0.15486516 -0.075672306 -0.057491545
000020 34 92 aa bd d8 72 0d 3d c9 5d f1 3d 6d 54 dd 3d
       -0.08328667 0.03453335 0.11785466 0.108071186
000030 20 ce 92 3d 32 10 ae 3d 84 21 26 3d 23 ca 4a 3d
       0.071682215 0.08499183 0.040559307 0.04950918
000040 4f 04 ae 3d 4e a0 94 3d 14 16 89 3c d5 b3 76 bd
       0.084969155 0.07257138 0.01673416 -0.060230095
000050 52 e4 46 3d 5f 3e 22 3d 30 16 ef bc 59 81 e3 bd
       0.048557587 0.039610263 -0.029185385 -0.111086555
000060 dd 08 f9 bd 06 d7 e2 bd ab 76 c8 bd b9 8f 06 bd
       -0.12159894 -0.11076169 -0.09788259 -0.03285191
000070 d4 ea 06 3d 20 dd f8 3c 00 3c eb 3c ab 2d dc bc
       0.032938793 0.030378878 0.028715134 -0.026877245
000080 bb 7b df bc b9 67 c7 bc 46 64 3c 3b e2 6d b7 3b
       -0.027280679 -0.024341451 0.002874629 0.005597816
000090 34 02 6e 3b d7 36 ec 3c df 5c 16 bd 83 2b 59 bd
       0.003631723 0.028834743 -0.036709663 -0.05302001
0000a0 9a da 7c 3d e6 48 e6 3b c3 14 8b 3d d1 5d 75 3d
       0.061731912 0.007027733 0.06791069 0.059903923
0000b0 30 d4 02 3d 78 4b 81 3c c9 cd a1 3d 56 34 f7 3a
       0.03194064 0.015783057 0.079005785 0.0018860202
0000c0 3c 13 b8 3c 61 81 8b bc ed 79 8b 3d 64 cf 30 bc
       0.02247011 -0.017029466 0.06810365 -0.010791633
0000d0 44 73 62 3d e4 af 7c 3c bb b6 d1 bb e7 34 c0 3d
       0.055285707 0.015422795 -0.006399957 0.0938509
0000e0 6c 1c bc 3c 62 bf cb 3a 55 7f 00 3d d7 48 5d 3c
       0.022962771 0.0015544707 0.031371433 0.013506136
0000f0 51 1d eb 3d e2 5f 32 3d 8f 83 6f 3b 9b 04 5a bd
       0.11480201 0.043548472 0.003654692 -0.05322705
000100 5c ec 12 be 96 41 03 be 7a 50 c6 bd 0c 8d 01 be
       -0.14347976 -0.12817988 -0.096833184 -0.12651461
000110 a8 3c 8c bd d2 cd b2 3c ba 82 a5 bc 3d 87 9c 3d
       -0.06847507 0.021826658 -0.020203937 0.07642982
000120 25 78 13 3b e0 61 78 3d db ae 84 3d a4 cf ff 3c
       0.0022502032 0.060640216 0.064786635 0.03122694
000130 d9 47 2f 3c bd 05 35 3d f8 d8 31 3c 24 8d 5e 3a
       0.010698282 0.044194926 0.010854952 0.00084896595
000140 22 97 5b 3e cf 38 10 3e ef d0 c3 3d da 15 9e 3d
       0.21444371 0.14084171 0.09561335 0.077190116
000150 39 c2 95 3c 55 0a ee bd 3f 01 48 be 21 bc 76 be
       0.01828109 -0.116230644 -0.19531725 -0.24095203
000160 04 a1 d3 bd 1c 68 31 3c 17 b5 95 3c 27 8b ab 3c
       -0.10333446 0.010828044 0.018274827 0.020940376
000170 96 cf c6 3d c8 7f 98 3c c7 4e cc 3c 33 1c dc 3c
       0.097075626 0.018615618 0.024939908 0.026868915
000180 32 d0 03 3d 84 44 9a 3b 4a d3 8c 3c b6 97 be 3c
       0.032180972 0.0047078747 0.017190594 0.0232657
000190 6e b9 e2 3c 3a a0 a1 3d 96 da 92 3d 3f 51 c8 3c
       0.02767631 0.07891889 0.07170598 0.024452804
0001a0 ee f0 9d 3d bc 8a be 3d 8f 9a 94 3d bc 87 86 3c
       0.07711969 0.09303805 0.07256042 0.016422145
0001b0 42 6b 6f 3c 83 bd dd 3c 2d a1 71 3c 2c bb b9 bc
       0.014612975 0.027067905 0.0147479 -0.022672258
0001c0 b4 6a 87 bb 58 79 12 bc 46 dc 3c bb 2f 14 ba bb
       -0.004132593 -0.008940063 -0.0028817817 -0.0056786756
0001d0 41 a4 ab 3c d7 d2 3c 3d 43 cd 20 3d 33 04 8e 3c
       0.020952346 0.04609951 0.039258253 0.017335987
0001e0 d7 d4 cb bc 51 d0 89 3d e7 44 5a 3d d0 e2 f7 3c
       -0.024881763 0.06729186 0.053288367 0.03025952
0001f0 96 77 b2 3d 72 46 72 3d 6f 85 bb 3d 0c 2a 06 3c
       0.087142155 0.059149213 0.0915631 0.008188736
000200 e5 dc a0 3d d5 1a 63 3d e5 cd ac 3c 9e e4 e6 bb
       0.07854632 0.05544551 0.021094272 -0.0070462963
000210 22 ad ae 3d 7e 16 9e 3d fd 63 77 ba 00 31 ab bb
       0.08529116 0.07719134 -0.00094372017 -0.005224347
000220 18 53 f6 ba bd 93 84 bc 52 3f 33 3d 56 22 43 bd
       -0.0018793074 -0.016183728 0.04376156 -0.047640167
000230 31 62 4c 3d bf 6b fa bc 45 2b f3 3c ce 33 21 3d
       0.04989833 -0.030568955 0.029683718 0.039356045
000240 2b b7 32 bc 7b ba b2 3d 85 bd 6b 3d 7e 02 93 3d
       -0.010907928 0.087269746 0.057553787 0.0717821
000250 9c 52 7a 3d 56 7d cd bc ad c1 9b 3c c2 06 c4 3b
       0.06111394 -0.025084179 0.01901325 0.005982251
000260 72 3c e7 3a f3 b6 a6 3d 4c f7 2d 3d df c8 90 3d
       0.0017641915 0.081403635 0.04247217 0.07069563
000270 0d 87 9d 3d e2 7e 83 3d 86 50 20 3d 56 4c b9 3d
       0.076917745 0.06420685 0.039139293 0.09047763
000280 65 6b d9 3d e9 41 56 3d c2 40 b5 3c 0d 1b 00 bd
       0.10616187 0.05230895 0.022125605 -0.031275798
000290 6c be 62 bd 3e 91 e0 bd 1b c3 07 be 0c 10 15 be
       -0.05535738 -0.10965203 -0.1325802 -0.14556903
0002a0 21 3e 70 bd 33 cb 29 bd 5e 4c 52 3d 55 9b 94 3d
       -0.058653 -0.04145355 0.05134236 0.0725619
0002b0 ef fc 9d 3d 5b 0c c3 bb 99 fe bb 3c 3e 97 e0 3a
       0.07714259 -0.0059524006 0.02294855 0.0017134917
0002c0 09 2e 00 3d 10 38 71 3d b4 d1 f0 bc 31 54 77 bb
       0.031293903 0.058891356 -0.02939687 -0.003773939
0002d0 db fe 12 bd 90 79 0f 3d 61 42 8c 3d cc 70 aa 3d
       -0.03588758 0.03502804 0.06848598 0.083222955
0002e0 a2 fc 4e 3d 9c 40 38 3d ef 5d 9c 3d 64 ef c6 3c
       0.0505339 0.04498349 0.07635104 0.024284072
0002f0 96 df 2d 3d d2 45 9c 3d 10 fb 77 3d a0 5e ed 3a
       0.042449556 0.07630505 0.060542166 0.0018109865
000300 99 98 05 3d 1d 45 b3 3d 7e c3 43 3d 83 8c 47 3d
       0.03261623 0.08753417 0.047793858 0.048717987
000310 86 0c b6 3d 61 c8 36 3c d6 83 6c 3d 3f 39 ed bb
       0.088891074 0.0111561725 0.057742916 -0.0072394903
000320 17 a7 42 bc 45 d7 88 3d 11 e2 f3 3c e1 7c b7 3c
       -0.011880658 0.066816844 0.029770883 0.022398414
000330 67 ff 41 3c e7 45 36 3c 74 32 75 3d 09 cd 90 3c
       0.011840678 0.011125064 0.05986257 0.017675893
000340 58 99 28 3d a1 16 c4 3c 59 d9 15 3d a4 07 98 3d
       0.041161865 0.023936572 0.036584232 0.07423332
000350 66 40 c8 3b 79 13 5d 3d 8a 59 30 3d 30 71 36 3d
       0.0061111925 0.05397365 0.04305414 0.044541538
000360 b6 71 ca bb 8a 68 64 bc be 78 90 3b 78 a4 64 3d
       -0.006178106 -0.01394094 0.004408925 0.055820912
000370 d2 c5 8a 3c 91 3d ae 3d fc 7b 2b 3d 5c bf 9f 3c
       0.016940031 0.085078366 0.041866288 0.019500427
000380 0d 33 88 3d c6 b2 3b 3d f3 fe a1 3d 8b 69 ac 3d
       0.06650362 0.04582479 0.07909956 0.08418568
000390 b8 47 99 3d 50 b6 35 3d 62 69 ad 3c 31 f7 e3 bb
       0.074843824 0.04436332 0.021168415 -0.0069569577
0003a0 90 75 de 3b 38 85 da 3d 50 ae d3 3d e6 00 df 3d
       0.006788917 0.10669941 0.10335982 0.10888843
0003b0 0f 53 bd 3c c3 a2 c9 3d f0 e7 f1 3c b3 ea 96 3d
       0.023110894 0.098454975 0.029529542 0.07368984
0003c0 19 7b 2c 3d d4 88 94 3c 3f 5f 74 3d 53 f2 90 3d
       0.042109583 0.018131651 0.059661146 0.0707747
0003d0 4b 10 c3 3c fb fa aa 3d 5f d6 c3 3d da 8b 84 3d
       0.02381148 0.08348652 0.095623724 0.06471987
0003e0 65 36 e9 3c 4a bb c7 3c 0f 85 4e 3d b2 dd 09 3c
       0.02846832 0.024381299 0.050419863 0.008414673
0003f0 f3 8e 82 3d e3 bc 9f 3d 67 a1 9c 3d 90 2d a9 3d
       0.06374922 0.07799699 0.076479726 0.082606435

features_extractor.fc_merge.bias f4 [352]
000000 27 d4 4f 3d 10 ce 46 3d bf 5a 1e bd 2c ee 70 bb
       0.050739434 0.04853636 -0.03866076 -0.0036763055
000010 68 34 40 bd e4 98 83 3c 5a 14 7c 3d 3d 44 72 3d
       -0.04692498 0.016064115 0.061542846 0.05914711
000020 e0 db 1b 3d 99 a1 2b 3d bf 23 9f 3d 8a 99 f5 3c
       0.038051486 0.04190216 0.0777049 0.02998044
000030 99 a1 82 39 01 a3 ca 3c 39 ca 25 bd 09 ac 95 3d
       0.00024915932 0.02473593 -0.040476058 0.07308204
000040 d8 b6 eb 3c 7a 2f 48 bc 77 b7 37 3d 70 4b 32 3d
       0.02877371 -0.012218351 0.0448527 0.043528974
000050 33 9a 9c 3c 26 78 4c ba 98 33 97 3d 6b ac 2b 3c
       0.019116497 -0.0007799886 0.073828876 0.010478119
000060 28 ed 6b bc 94 ac 38 3c 54 02 6c 3b 27 b5 71 3d
       -0.014399804 0.011271615 0.003601213 0.05901065
000070 23 22 7e bd bc 3c ab 3c aa 9e e4 bb 0a 0c 6b 3c
       -0.062044274 0.020902984 -0.006976922 0.014346132
000080 f0 31 94 3c 26 71 23 bc 59 18 1a 3d 95 7f 5c bb
       0.018090218 -0.009975707 0.037620876 -0.003364538
000090 7c 42 33 3b 3b 04 a0 bb df c8 80 3c db 33 b1 3c
       0.002735286 -0.004883317 0.015720783 0.021631172
0000a0 7f a8 93 3d e8 ef 1e bd ed 29 e8 bb 12 20 2f 3d
       0.072098725 -0.03880301 -0.007085076 0.042755194
0000b0 7c 9a 70 bc 1e 85 a0 3c c1 4e 36 3d 54 f2 10 bc
       -0.014685269 0.019594725 0.0445087 -0.008846838
0000c0 0e 56 99 3d c4 ae bb 3b f5 46 c4 3c df 26 0e 3d
       0.07487117 0.005727621 0.023959616 0.03470504
0000d0 0e f2 63 3c 08 65 85 3c fd 08 fa bc f3 17 f2 3c
       0.013912691 0.016283527 -0.030521864 0.029552436
0000e0 a9 c1 66 3d c1 7e bf bb 6b 54 59 bd b3 b6 b8 bc
       0.056337032 -0.0058439677 -0.053059023 -0.022548055
0000f0 e9 35 11 3c 2e 48 2b bc ff cc e3 3c c2 de 43 3d
       0.008862951 -0.010454221 0.02780771 0.04781986
000100 59 aa f1 3c e6 46 a1 bc c8 bf 6c bc e5 37 0b 3d
       0.029500173 -0.019687127 -0.014450021 0.033988852
000110 16 78 cb 3c 7d a4 e3 3c 20 3c d5 3b 78 75 a8 bc
       0.024837535 0.027788395 0.0065074116 -0.020563826
000120 a4 37 7f 3d 6c f1 91 3d 65 8a b6 bc 6b d6 26 bd
       0.062308922 0.07126126 -0.022282789 -0.04073183
000130 74 31 6c bc e2 9b d9 3b 1c 6a 64 bc a1 da 9a 3c
       -0.014416087 0.006640897 -0.013941314 0.018903079
000140 8f f6 1c bd 04 f8 d1 bc 07 dd 3a 3d 46 5b 89 3b
       -0.038321074 -0.025630958 0.045620944 0.004191789
000150 98 58 ab bc 2b f5 93 b9 9c 51 07 bd 47 63 58 3d
       -0.020916268 -0.0002822069 -0.033036813 0.052829053
000160 f8 60 01 3c 04 25 c9 3c f0 98 3a 3c 29 f0 ae 3d
       0.007896654 0.024553783 0.011389002 0.08541901
000170 40 69 41 3d f0 37 91 3c 0f 57 a7 bc 8a b3 36 bc
       0.047219515 0.017726868 -0.020427255 -0.011151204
000180 7c 9f 58 3b 77 ca 75 bd 07 e2 8f 3d 42 fd 28 3d
       0.0033054044 -0.06000754 0.07025533 0.04125715
000190 1b 0c a0 bc cc 18 99 3d 41 60 7d bc bf 9b 3e bd
       -0.019537022 0.07475433 -0.015464843 -0.04653525
0001a0 95 d4 87 bc a0 f7 93 bc 16 4f e7 bc 77 93 dd 3c
       -0.01658086 -0.018062413 -0.028235953 0.027047856
0001b0 ea c4 9e bc 34 4c 8f 3d cf c5 40 bd 1b 2f fc bb
       -0.019381005 0.069969565 -0.047063645 -0.007696045
0001c0 be d9 b0 bc 5a e1 96 3a f0 17 1b 3c 3b d1 3f bc
       -0.021588203 0.0011511252 0.009466156 -0.011707599
0001d0 3a aa 84 3c 01 e5 ed 3a 5b 62 3d 3d d3 be 67 3d
       0.016194452 0.0018149914 0.046236377 0.05657847
0001e0 71 47 c6 bc dc 60 aa bc fa 1f c0 bc 7d 8b 94 3d
       -0.024203988 -0.02079814 -0.023452748 0.07253168
0001f0 d6 1e 20 3d 62 43 68 bb 41 a2 bf bc 26 16 82 3c
       0.039091907 -0.0035440554 -0.023392798 0.015879702
000200 ef 72 27 bb f4 87 b6 bc fc e3 ac 3b 66 70 8f 3d
       -0.0025550683 -0.022281624 0.0052762013 0.0700386
000210 71 6b be 3c ea f0 8e bb da e1 ea 3b 93 a6 a7 3d
       0.023244591 -0.0043622153 0.007168037 0.081860684
000220 5e 25 57 3d a0 ff 8d bc c4 c6 97 bc ae 76 37 3d
       0.05252587 -0.017333806 -0.018527396 0.044790916
000230 d9 2a a0 3d f3 11 9e bc 9c 57 5d 3d e5 8c 60 3d
       0.078206725 -0.019295668 0.05403863 0.054821867
000240 11 54 b6 bb 21 6e 94 3d 9c bc dc bc 9f 6d 69 bb
       -0.0055642207 0.07247568 -0.026945405 -0.0035618318
000250 34 6d 0f 3d a6 8b 9b bb 57 7c a2 3d da 60 52 3d
       0.035016254 -0.004746872 0.07933872 0.051361896
000260 d9 a8 87 3d 34 8b 43 bd e2 dc 98 3d d1 97 9d 3c
       0.06624002 -0.047740176 0.07464005 0.01923743
000270 06 b2 14 bc 10 de 64 bc ad b0 34 bd 59 d8 3d bd
       -0.009075647 -0.013968959 -0.044113804 -0.046348903
000280 c6 c3 bd bc bc 1e 09 3d 9e 68 97 bc a7 2e 4e bd
       -0.023164641 0.033476576 -0.018482503 -0.05033746
000290 fe 15 01 3d 16 38 b7 bc ab 17 80 3d 96 f8 44 3d
       0.031515114 -0.022365611 0.06254514 0.048088633
0002a0 24 de 74 3d 2e 96 79 3d 4c 19 b0 bc 2a d9 d8 3c
       0.059782162 0.060934238 -0.021496437 0.02647074
0002b0 36 1f 23 bd 1d 0a d7 3b 87 bb 4e ba e3 cf b2 bc
       -0.039824687 0.006562485 -0.000788622 -0.021827644
0002c0 77 37 5e bc 0a 59 88 bb 56 6d 0d 3d 87 5a 27 3d
       -0.013563029 -0.004161005 0.0345281 0.040857818
0002d0 1a 8c 12 bb fa a8 17 3d d7 46 6c bc bf 1e 80 3d
       -0.002236134 0.037026383 -0.014421186 0.06255864
0002e0 0c 2d 27 bc 30 2e 1d 3d 03 66 4c 3d 7a fe 15 3d
       -0.010203611 0.038374126 0.049901973 0.03661964
0002f0 36 5e 52 bb 2f 16 3e 3c fc 70 4a 3d 66 dd 02 3b
       -0.003209961 0.011601969 0.049424157 0.001996839
000300 33 1f 6e bc ca 00 4d 3d b5 18 74 3d b0 9a 5a 3d
       -0.014533806 0.05004958 0.059593875 0.053370178
000310 b7 7c f6 3c 9f 18 53 3d dc 2d ca 3c 98 08 b7 bb
       0.030088766 0.051537152 0.02468007 -0.0055857413
000320 f6 c0 80 bc bc f5 7f 3d 34 26 00 3d c0 4c b2 bc
       -0.015717011 0.06249021 0.031286433 -0.021765113
000330 75 dd 46 3d f3 f8 62 3d 09 47 c0 3c b7 f8 e2 3c
       0.04855104 0.055413198 0.023471372 0.027706487
000340 24 ea a5 bc 50 ec ee bb d0 89 86 3d 76 a4 08 bd
       -0.020253249 -0.0072913542 0.065692544 -0.033359967
000350 c7 ca 09 bd 8f b6 c5 3c 7a d0 9f bd aa 91 cb bb
       -0.03364065 0.024134902 -0.078034356 -0.006212433
000360 20 c1 76 3b 7a 3e 4f 3d c3 a1 4f 3b a9 cd 39 3d
       0.0037651733 0.05059669 0.003168211 0.04536215
000370 09 3a 1a 3d 81 dd 69 bc 2e 8b cb bc d0 51 30 3d
       0.037653003 -0.014274002 -0.02484664 0.043046772
000380 3e f8 8a 3c 25 cb 90 3d b6 7d 3e 3d 2f c1 dd 3c
       0.016964074 0.07069997 0.046506606 0.027069656
000390 7e 39 fb 3c bf c9 27 3d 7d 44 16 3d 7f 68 ec 3c
       0.030667063 0.040963884 0.03668641 0.028858421
0003a0 49 11 4c bb 0c c8 3e 3d 4d 02 8f 3b 70 62 bb bc
       -0.0031138232 0.0465775 0.004364288 -0.022874087
0003b0 62 c8 47 bd d9 36 9a 3d df e5 f5 3b 80 cd 1a 3d
       -0.048775084 0.075299926 0.0075042094 0.037793636
0003c0 8c 24 71 bc 68 cd 18 3b 58 78 98 bb 57 02 f3 bc
       -0.014718186 0.002331579 -0.004653018 -0.029664202
0003d0 3f db 8d bc 15 c1 84 3d ff 32 b7 3a 9e dc ca 3c
       -0.017316459 0.0648214 0.001397699 0.024763402
0003e0 f1 1e a9 bc 67 07 3c 3d d5 e8 2a 3d 40 07 ed 3c
       -0.020644637 0.045905497 0.041725952 0.028934121
0003f0 54 e3 b6 bb 26 88 46 bd 75 0b 93 bc 04 1b 8a 3d
       -0.005581299 -0.048469685 -0.0179498 0.06743434

actor.weight f4 [10, 352]
000000 be 48 5b bd 61 b1 20 bc f8 b0 bb bc 96 14 6e 3d
       -0.05353617 -0.009807915 -0.022911534 0.0581251
000010 81 98 e1 bb eb 01 3d 3d a6 83 1d 3c f9 77 ac bc
       -0.006884635 0.046144407 0.009613907 -0.021053301
000020 e1 e7 c6 bb f5 57 4f bd ac 1e 56 bd 6e 26 32 bc
       -0.0060701226 -0.05062099 -0.052275345 -0.01087342
000030 68 bb 50 bb 11 12 60 bb ba a8 23 bc 7c a2 32 bd
       -0.0031849984 -0.0034190456 -0.009988958 -0.04361199
000040 6e 77 86 3d 28 a3 4a 3d 8a dd c3 3d dd f5 54 bd
       0.06565748 0.049472004 0.095637396 -0.051992286
000050 f0 d5 b2 3d 9c d8 56 bd 8d 19 3d bc cd ed a6 3c
       0.087322116 -0.05245267 -0.011541736 0.020377064
000060 18 82 f3 bc cc 73 4f bd ca 6c e7 b9 f5 3f 4a 3d
       -0.02972512 -0.050647542 -0.00044140808 0.0493774
000070 b6 13 3d bd a1 fc 0a bd cc c3 82 ba 55 7a c3 3c
       -0.046161376 -0.033932332 -0.0009976565 0.023862043
000080 5d 7f 93 3c 6a 94 0e bd bc a7 8d bc 7d f9 73 bc
       0.018005067 -0.034809507 -0.017291896 -0.014891026
000090 f4 97 a4 3d 6e e9 37 3d c9 ae 9f bd a3 81 f8 3b
       0.08036795 0.04490035 -0.077970095 0.0075838133
0000a0 5a 46 21 3d 0a 14 43 bc 79 71 dd 3c 00 cb 8e 3d
       0.039373733 -0.011906633 0.027031647 0.06972313
0000b0 19 8a 24 bd 90 af 28 3b 32 39 b5 bc 4f 5f 78 3c
       -0.040170763 0.002573941 -0.022122 0.015159442
0000c0 32 be a3 bd 7c 7f 3d bd be 7f b9 bc f6 ec bb ba
       -0.07995261 -0.046264157 -0.02264392 -0.0014337588
0000d0 54 d4 97 3c 2b e8 74 3d 7c 10 77 3d 2c 15 f3 ba
       0.018533863 0.059791725 0.060318455 -0.0018545738
0000e0 c4 01 13 bc 58 a3 db 3c 63 33 39 3d bb c8 32 3c
       -0.008972589 0.026811287 0.04521502 0.010912116
0000f0 cc fe 0f 3d dd 11 12 3d 8e 5a ac bd 11 88 2e bc
       0.035155103 0.035661567 -0.084157094 -0.010652558
000100 fd df 1c 3d 0c 1d 81 39 df 33 1c bd e0 e3 23 3d
       0.03829955 0.0002462644 -0.038135406 0.04001224
000110 35 59 fa bb 0a 6d d1 bc 77 8a e7 bc 3c 89 c9 bb
       -0.007640029 -0.02556469 -0.028264267 -0.006150393
000120 0b 0b 47 bd 57 cb 9b bc 81 a6 42 bc 0f bd 73 bc
       -0.048594516 -0.019017858 -0.011880518 -0.014876618
000130 e1 3e 2d bc 85 9c 40 bd e5 25 46 bd df 2c 11 bd
       -0.0105740735 -0.04702427 -0.048375983 -0.035443183
000140 07 01 1f be 63 45 72 3d 4f 2d f3 bc b3 31 f6 bc
       -0.15527736 0.059148204 -0.02968469 -0.030052995
000150 09 eb 3a bc e6 f6 c2 3b bb bf 53 3d bd ce bf 3c
       -0.011408576 0.0059498427 0.05169652 0.02341401
000160 3a af c6 bd f3 2d 90 bd 26 fb 70 3c 1f 25 65 bc
       -0.097013906 -0.07040014 0.014708316 -0.013985901
000170 0a 25 7b bd 87 50 27 3d 21 c1 0e 3d 4f 69 49 3d
       -0.06131462 0.04084828 0.03485215 0.049172696
000180 01 42 9f bb cd 91 5a bd 68 4d 7b bd 5f 0d 9f 3c
       -0.004860163 -0.053361703 -0.061353117 0.019415556
000190 59 85 92 3d cc e9 60 3b 85 30 9c 3c 53 61 20 bc
       0.0715434 0.0034319041 0.019066105 -0.009788829
0001a0 b6 74 ec bc 78 12 96 bd 6a 81 c0 3c 31 67 83 3d
       -0.028864246 -0.073277414 0.02349921 0.064161666
0001b0 ba e5 99 3c ab 22 9e bc 5f f9 8a 3b 69 f4 79 bd
       0.0187863 -0.01930364 0.004241153 -0.061024103
0001c0 a6 fa bd 3b 17 51 15 3d 79 a3 b3 3c ec 91 85 bc
       0.005797702 0.036454286 0.021928536 -0.016304933
0001d0 97 5c 54 bd 66 a2 b7 bc dd 3d 92 bc 56 e7 b9 bc
       -0.051846113 -0.022416305 -0.017851764 -0.022693317
0001e0 cf 11 e7 bc f8 20 94 bc e5 48 8e 3d be 52 45 3d
       -0.028206734 -0.018082127 0.06947497 0.048174612
0001f0 e7 98 f0 3c 32 c4 4d 3d 07 30 27 3d 5d 70 c2 bd
       0.029369785 0.050235935 0.040817287 -0.09494088
000200 1e 99 88 3b 57 a2 79 bd b1 77 e3 bc 07 4d 1f bd
       0.0041686436 -0.060945835 -0.027767034 -0.03889182
000210 56 2f 9d bc d5 31 a3 3c 90 18 89 bb cb f9 c2 3b
       -0.01918761 0.019921223 -0.0041838363 0.005950188
000220 08 f6 fc bc 57 84 4a bc a9 0b 9f bc e0 84 48 bd
       -0.030879036 -0.012360654 -0.01941474 -0.048954844
000230 4b 24 d5 3c 00 da 0a 3c 05 0b 07 bd 9c 1b e7 bc
       0.026018282 0.008474827 -0.032969493 -0.028211407
000240 d1 c9 b4 bd d2 96 da 3c 47 81 27 3b bc 33 54 bc
       -0.08827556 0.026683245 0.0025559233 -0.012951788
000250 11 b0 8a bd 6b 28 64 bc db 94 c5 bc f1 62 c0 bc
       -0.06771863 -0.013925652 -0.024118831 -0.023484679
000260 7a 96 66 3d 7f 00 16 bd 64 72 67 bd de b6 a0 bb
       0.05629585 -0.036621567 -0.056505576 -0.004904612
000270 4e 8a f3 bc 49 f1 21 bd 6f 18 24 bd 84 93 b3 bc
       -0.029729035 -0.039536748 -0.040062364 -0.021920927
000280 e6 a1 db 3c b4 b4 e9 3b 6a cf 62 3c 5b 54 d1 bc
       0.026810598 0.007132137 0.013843397 -0.02555292
000290 2f f2 eb 3c 8f 0b 3e bd 19 82 e1 3c 8c b7 84 3a
       0.028802006 -0.046397742 0.027527856 0.0010125502
0002a0 a9 36 3e bd cf 84 4c bd ef 39 9c bc 5e 49 6d bd
       -0.046438847 -0.049931344 -0.019070594 -0.057931297
0002b0 bf df c8 bc ef 00 65 bb e9 96 f4 3c 0c ca 6a bd
       -0.024520753 -0.0034943183 0.029857116 -0.057321593
0002c0 a8 0b 1d bd 72 a2 8e bc 75 f5 e3 bc 7a da 33 bd
       -0.038341194 -0.017411444 -0.027827004 -0.043909527
0002d0 34 2d b8 bb 17 85 26 bd bd fa 65 bd 96 bd 3f bc
       -0.005620623 -0.040654268 -0.056147326 -0.011702916
0002e0 eb e1 83 bc ea 63 65 3d 66 79 81 bc ed 1a 81 bb
       -0.016098937 0.05600349 -0.015804958 -0.0039399774
0002f0 17 e6 3a 3d 28 26 45 bd f3 dc 16 3b 5d 15 43 bd
       0.045629587 -0.04813209 0.002301988 -0.047627795
000300 47 3c 48 bd ca ce b9 bc d2 a7 bd 3d 89 fe 27 3d
       -0.04888561 -0.022681613 0.09260525 0.041014228
000310 fd 51 df b9 d0 d4 3b bb 9f aa d7 ba ce 70 a3 3d
       -0.0004259496 -0.0028660782 -0.0016454047 0.079805
000320 59 30 54 bd 21 c7 4d ba 45 6f 3b bc 50 71 fd ba
       -0.05180392 -0.0007849802 -0.011440103 -0.0019336138
000330 4b 75 42 bc 6c 8f 5a 3c 63 5f 2c bd ad 35 24 bd
       -0.011868785 0.0133398585 -0.042083155 -0.04009025
000340 77 32 cf 3c 77 a2 95 bc 19 4d 1c bd 20 7d 09 3d
       0.025292618 -0.018265946 -0.038159464 0.033566594
000350 1a 1e 04 3c d3 54 6f 3c bb 87 fc 3c 25 e9 d0 3c
       0.008063817 0.014607626 0.03082644 0.025501797
000360 ea a6 08 3d 4a 63 9c bd f5 79 07 3d 17 ea 12 bd
       0.033362307 -0.076361254 0.03307529 -0.035867777
000370 5e 77 db 3c 39 63 3e 3d 94 0a fb bc 67 63 42 3d
       0.026790317 0.046481345 -0.030644692 0.04745808
000380 08 02 46 3d fc 62 1e bd 76 d4 f7 bc c5 c2 bd 3d
       0.04834178 -0.038668618 -0.030252676 0.09265665
000390 cc b1 a2 3a 4c a2 4e 3d 4d ee f4 bc d0 06 6b bd
       0.0012412607 0.050447747 -0.029898787 -0.057379544
0003a0 46 10 1e bd 98 51 b6 bc 4c 22 55 bc 68 48 97 3c
       -0.03858974 -0.022255704 -0.013008665 0.018467143
0003b0 28 d7 be bc b9 84 2b bd 56 49 96 bc 8f 2d ed bc
       -0.023295954 -0.04187462 -0.018345516 -0.028952388
0003c0 17 66 75 bd 1f 47 46 bd 28 d1 e2 bb be 93 37 3d
       -0.059911814 -0.04840767 -0.006921906 0.044818632
0003d0 74 70 2e 3c b2 ac ee 3b e6 3e 78 b9 21 8e 92 bd
       0.010646928 0.0072837705 -0.00023674555 -0.07156015
0003e0 13 2a 56 3b d9 3c 48 bd 4c 9e 1a 3d e5 31 4d 3d
       0.0032678887 -0.048886154 0.03774862 0.05009641
0003f0 83 bf 5a 3d 8d d1 fc 3b c1 a9 27 3d f2 80 c0 bd
       0.053405296 0.00771541 0.040933374 -0.09399594

actor.bias f4 [10]
000000 49 01 67 bc 60 bd 8e 3c 3f d9 35 bd af 48 8a 3c
       -0.0140994275 0.017424285 -0.044396635 0.016880361
000010 ad 39 bf 3d b9 1e 4b 3c 8e 9c fb 3c ad b2 98 bd
       0.09337173 0.012397462 0.0307143 -0.07455955
000020 a2 0b d7 3c df b0 9f bc
       0.026250664 -0.019493518

critic.weight f4 [1, 352]
000000 26 39 6b bd 61 9d 42 bd 5b 13 0a 3d 3d 2b 42 3d
       -0.057427548 -0.04751337 0.033709865 0.047404516
000010 56 01 d8 bb 35 63 73 bd a5 e5 5a 3d 3d 8d 7c bd
       -0.006591956 -0.059420783 0.053441662 -0.061658133
000020 bb a4 bd bd 23 b1 a3 bd 48 1a 8d bd 33 37 a9 3d
       -0.092599355 -0.079927705 -0.068897784 0.082624815
000030 b3 ce 7c bd cd 9f 47 bd 0e 53 2a 3d 52 43 ac bd
       -0.06172056 -0.048736382 0.041583113 -0.08411278
000040 75 18 47 3d 79 c2 43 bd 54 08 1f bd 8a 13 9f bd
       0.04860731 -0.047792885 -0.0388263 -0.07767399
000050 c8 ca 11 3d 22 51 5d bd 2d ac b2 bd ad 85 19 bd
       0.035593778 -0.054032452 -0.08724246 -0.037481
000060 2b 0d b8 bd 74 28 39 3c b3 5a b8 bd 57 85 2a bd
       -0.089868866 0.011301149 -0.090016745 -0.04163107
000070 96 27 2f 3d af 65 ec bc d5 f4 7e bd a3 c9 45 bd
       0.04276236 -0.02885708 -0.06224521 -0.048288
000080 33 ad c1 3c 2b e6 51 bd 4b 86 82 3c fc bf 50 bd
       0.023642158 -0.051244896 0.015933177 -0.05096434
000090 b9 6c 02 3d 11 ee 56 3d 00 17 b4 3c ed b4 81 ba
       0.031841967 0.05247313 0.021983624 -0.0009895839
0000a0 45 11 6a 3d b7 d4 5c 3c de ae 18 3d 9c 48 c9 3c
       0.057145376 0.01347845 0.03727614 0.024570756
0000b0 17 b7 1d bd ea 3e 51 3d 02 d6 85 bd 23 0e 4c bd
       -0.038504686 0.05108539 -0.065349594 -0.04981817
0000c0 11 4d 9d bd 44 18 68 3d b9 01 95 bd e9 2f 99 bd
       -0.07680715 0.056663767 -0.07275719 -0.07479841
0000d0 03 c1 3a bd a3 e4 15 3d e7 81 64 3d 5f 08 73 3d
       -0.045594227 0.036594998 0.055787947 0.059334155
0000e0 64 bb b6 bd e1 e1 37 bd 19 39 27 3d 9b 1f 23 3d
       -0.08922461 -0.04489315 0.040825937 0.039825063
0000f0 ee eb bb 3b 63 8f 9b bd d4 ef 64 bd 52 7b bc bd
       0.005734912 -0.07595708 -0.05589278 -0.09203209
000100 07 50 96 3c d1 d7 b1 3c 6f 79 93 bd 2d f3 88 3d
       0.018348707 0.021709355 -0.07200896 0.06687007
000110 27 42 85 bc 75 16 b3 3d 66 b4 ea bc 55 08 a5 bd
       -0.016266895 0.08744518 -0.028650474 -0.0805823
000120 cc 62 7a bd f9 c2 3a bd f2 c7 4e 3d 83 be 66 3c
       -0.061129376 -0.045596097 0.05048365 0.0140835075
000130 a3 d5 53 bd ef b3 13 3c cc 0f cb 3c bd 7f 22 bd
       -0.05171741 0.0090150675 0.024787806 -0.039672602
000140 96 2f 0f 3d d2 89 fd 3c a8 53 67 bd 75 28 8f 3d
       0.03495749 0.030949507 -0.056476265 0.069901384
000150 43 64 f5 3b 9a 88 8d 3c f6 82 18 3d 52 ab 9a bd
       0.007488759 0.01727705 0.03723427 -0.07552208
000160 27 63 d3 bd ed b0 81 bd 79 63 89 bd 57 88 a9 3d
       -0.10321646 -0.06332574 -0.06708426 0.08277958
000170 62 48 3e bd 1f a8 69 3d b0 db d0 3c fd 80 83 3d
       -0.04645575 0.0570451 0.02549538 0.06421087
000180 99 b4 ef 3d 96 38 6f 3c b0 e3 6c bd 54 79 79 3d
       0.11704368 0.0146008935 -0.057834327 0.060906723
000190 25 46 e5 bc 41 a1 73 bd b0 b0 a3 bd 5a 84 f7 3c
       -0.02798755 -0.059479956 -0.07992685 0.030214477
0001a0 31 1c 7a bd 9e 4b 99 bd 6a 2b 8c bd 39 89 2b 3d
       -0.06106204 -0.07485126 -0.06844218 0.041878913
0001b0 3e cb 21 bd 32 5c a7 bd 5d b3 8a 3c 60 df 9f bd
       -0.039500467 -0.08171882 0.01693123 -0.07806277
0001c0 22 e8 aa bd b2 92 18 3d 33 31 63 3c 6a a5 a4 3d
       -0.08345057 0.037249275 0.0138667105 0.08039363
0001d0 72 8c 26 bd 0e ff 49 3d 0a 58 85 3d 45 64 0c bd
       -0.040661283 0.049315505 0.06510933 -0.034275312
0001e0 bd ed 30 bd 09 8d 8f 3d 45 80 1e 3d b2 b8 3b bd
       -0.043195475 0.07009322 0.038696546 -0.045830436
0001f0 6a dd 0e bd 5e 72 28 3d 6a 63 91 bc 08 0f 6f bd
       -0.034879126 0.041124694 -0.0177476 -0.058363944
000200 94 0e 83 3d 75 cc 95 bd 93 b3 20 3d b7 aa 59 bd
       0.06399265 -0.07314388 0.039233755 -0.053141322
000210 32 a6 dd 3d 77 3a 1d 3d 5c 35 38 bd 3f 4a a2 bd
       0.10822715 0.038385835 -0.044972762 -0.079243176
000220 11 4e eb bc 89 74 a2 bd ea 33 55 bd 4c 88 eb bc
       -0.028723748 -0.079323836 -0.052051462 -0.028751515
000230 2c 32 8d bd bd 48 6b 3d 51 63 45 bd eb bc 7c bd
       -0.06894335 0.057442416 -0.04819042 -0.061703604
000240 91 1b 03 bd de dd b0 bd 4d a1 fa 3d 45 37 d1 3c
       -0.03200871 -0.08636068 0.12237797 0.02553905
000250 36 8d c0 bd ab 47 38 3d 8a f7 b9 bd 0f ce 8c bd
       -0.09401934 0.044990223 -0.090804175 -0.0687524
000260 8c db 59 3d 94 a6 ee bc 2b 9f 4c bd 3f c1 a6 bd
       0.05318789 -0.029132165 -0.049956482 -0.081423275
000270 67 29 87 3b a9 d4 6a bd b4 56 08 bd b0 dc b8 3c
       0.0041248086 -0.057331715 -0.03328581 0.02256617
000280 f7 c0 da bc c5 89 72 3d 1a 69 ef 3d 3f 79 d5 3b
       -0.026703341 0.05921342 0.116899684 0.006514698
000290 0f 26 03 3d 97 ef 87 bd c6 66 91 bd 38 5c 33 bd
       0.032018717 -0.06637495 -0.070996806 -0.04378912
0002a0 82 83 36 bd 02 12 4c bd 1b 0e 89 3d 6d 4f 37 bd
       -0.04455901 -0.04982186 0.066921435 -0.04475348
0002b0 09 66 17 3d 7f 40 25 bd 28 8d ba 3c 80 42 b0 bd
       0.036962543 -0.04034471 0.022772387 -0.08606434
0002c0 88 54 2f 3d 72 a6 a8 bc d0 55 44 bd 63 5d 2f bd
       0.042805225 -0.02058718 -0.0479334 -0.04281367
0002d0 c9 2e 68 bd 2b 23 6f bd b7 5c 4e bd 9b 32 26 bd
       -0.056685243 -0.05838315 -0.05038139 -0.040575605
0002e0 c0 5e 0d bd 21 2c 4c 3d 2f aa 99 3d 3e c9 9f bd
       -0.03451419 0.049846772 0.07503163 -0.07802056
0002f0 c6 c0 e4 3d 14 14 7a bd a5 59 4e bd b2 ad bd bd
       0.11169581 -0.061054304 -0.05037846 -0.092616454
000300 e1 4e 04 3d 37 56 65 bd aa d1 90 3d 88 57 ed 3c
       0.032301787 -0.055990424 0.0707124 0.028972402
000310 c4 90 05 bd b7 47 7e bd 60 6b 88 3c 04 4c a8 bd
       -0.032608762 -0.06208011 0.016652763 -0.08217624
000320 46 10 2a 3c 5e 07 4c 3d 25 31 49 bd d3 cf e7 3c
       0.010379856 0.049811713 -0.049119134 0.02829734
000330 18 50 d2 bd cf f3 74 3d d9 25 a1 bd fc 99 87 bd
       -0.10269183 0.059802826 -0.07868547 -0.06621167
000340 75 a1 8c bd 8d a5 1f bc 91 8e 94 bd 40 1f 4f 3c
       -0.06866733 -0.00974406 -0.07253755 0.012641728
000350 2a d7 d5 3c a4 22 99 bd 06 1f 1b 3d 5e 30 13 3d
       0.026103575 -0.0747731 0.037871383 0.0359348
000360 c0 bb 1c bd 18 5e bd bc 85 25 23 bd 9a 13 87 bd
       -0.03826499 -0.023116156 -0.039830703 -0.065955356
000370 2b 24 9d 3d 33 73 85 3d 91 e2 a9 3d fd 9a 3c 3d
       0.07672914 0.06516113 0.08295167 0.046046246
000380 b5 d3 d9 ba 75 6c 68 bd 46 23 c8 3d 07 cd 74 3d
       -0.001661888 -0.056744058 0.09772353 0.05976584
000390 a9 50 2e 3d 30 75 a9 3d 12 98 85 3c 49 8e e6 bc
       0.042557392 0.08274305 0.016307864 -0.028144019
0003a0 73 35 93 3b 77 20 8c bd a5 0f e8 3c c4 b8 0d 3d
       0.0044924556 -0.0684213 0.028327772 0.034600034
0003b0 7b b7 57 39 76 2c 44 bd 44 e2 9e bd 31 0c 3a bd
       0.0002057235 -0.047893964 -0.077580005 -0.045421783
0003c0 e5 af 7a bd 3a 8d 7c bd 76 b1 13 3d cd 50 f1 3c
       -0.061202902 -0.06165812 0.03605791 0.029457474
0003d0 7e 86 6c 3d e4 ae 49 bd 4b 00 74 bd 99 25 6e bd
       0.05774545 -0.049239054 -0.059570592 -0.058141325
0003e0 1c a4 96 bd 73 2b 23 bd 2d 7d cd 3b ac f2 6c 3d
       -0.0735552 -0.03983636 0.0062710256 0.057848617
0003f0 a4 d1 03 3d 8b 05 13 3c de 17 1f 3e 5d 2c 3a bd
       0.03218235 0.0089734895 0.15536448 -0.045452464
