carlike_gym/model_880.pth (torch, 526994 bytes, 11 tensors)

features_extractor.conv1.weight f4 [16, 4, 4]
-0.1231474 0.18435946 0.076892406 -0.022335887 0.24737722 -0.10082567 0.14532912 0.0783698
-0.23821795 -0.23691648 -0.21898216 0.032395214 -0.22996801 0.012229085 -0.23483437 0.03427729
0.29871678 0.22688644 0.21783943 0.057001602 -0.21655051 -0.121975526 0.22528574 -0.17037319
-0.063787274 -0.15731809 0.101194836 0.11887231 -0.04204239 -0.03616672 0.10092784 -0.04393332
-0.11397879 0.1482947 -0.07460789 -0.13031362 0.1733782 0.09065226 -0.19895157 -0.0070005865
-0.067852825 -0.14288099 0.2169496 -0.078572 0.21255589 0.18357384 -0.13421537 -0.02019358
0.15097624 0.21559708 0.034355134 -0.052788846 -0.13718908 -0.13233751 -0.21348813 -0.016631689
0.09188444 -0.049796674 -0.09273081 -0.1665678 0.23525135 -0.10170842 0.057354707 -0.037148934
0.24683285 0.12334265 -0.030743452 0.006053989 -0.092932545 -0.011759049 -0.096889384 0.004466432
-0.25284055 0.10275914 -0.09598582 0.17525315 0.060567413 -0.2587619 0.1585441 0.032378603
-0.30384403 -0.03326394 -0.15791802 0.087493405 0.1253059 0.15501225 0.12803027 0.07895321
0.021097556 -0.1771296 0.16953613 0.21979135 -0.20544699 0.16218871 -0.03426967 0.13359082
0.2469654 0.22003713 0.29937947 -0.12790114 0.22104207 0.16688858 0.062047817 -0.24897626
-0.21873188 -0.18769155 0.049260277 0.16227311 -0.0023331202 0.22866832 -0.15949176 0.18355387
-0.12448549 0.24025086 0.19877894 0.099919595 -0.15229459 -0.023217717 -0.034557678 0.0957607
0.0926728 0.1411373 -0.13073361 -0.052577585 -0.25388885 0.14789662 -0.21011862 0.07612027
0.030109001 0.028879073 -0.28357035 -0.14416735 -0.1836368 0.06228874 0.24838762 -0.17901978
-0.15979473 0.2787581 -0.006706187 -0.17674893 0.19297303 -0.044331707 0.13405715 0.033074237
0.1831991 0.010500064 -0.2603751 -0.23704292 0.15217824 0.04112243 0.11308219 0.18984921
-0.16585724 -0.012373493 0.10597987 -0.07262544 -0.008654192 -0.07793107 -0.012219508 0.2806814
-0.041044198 -0.036335073 -0.19888638 -0.18807884 0.27648148 -0.13580082 -0.16360484 -0.11622465
-0.07065068 0.054094303 0.05215905 0.23564714 0.033050396 0.06351447 0.1549126 -0.08955577
0.24048689 0.2881812 -0.040517785 -0.08793891 0.01880451 -0.16003886 0.09400735 0.18610325
0.13129105 -0.06651213 -0.16133928 -0.18341258 -0.23966618 0.16913262 -0.086366646 0.18723625
0.12644975 0.262084 0.18561804 0.17677422 0.13627194 0.027302353 -0.095405445 -0.028651463
-0.16085033 0.05570378 0.07665096 0.014625068 0.014008504 -0.18325597 -0.17378199 -0.15327583
-0.17789756 0.1794705 0.12063899 0.22664455 -0.2538843 0.0073182858 0.16197823 0.13774146
-0.16898634 -0.057633307 -0.10507391 -0.19888793 -0.055843003 0.062221553 0.14968644 0.1282653
-0.0049523134 0.122802116 -0.025887756 -0.04505568 -0.08706963 0.05780125 -0.006895546 -0.2552769
-0.11646624 -0.011192232 -0.17242442 0.052840754 0.05028267 0.19850409 0.08740661 0.10755726
-0.055751503 0.028868228 -0.2378996 -0.24193898 -0.13055134 -0.06964499 0.07776183 -0.21078828
0.085449755 -0.13405216 -0.047538996 -0.19385433 0.15704963 -0.024531454 -0.232712 0.24081218
00000000: b434 fcbd bac8 3c3e c479 9d3d c0f9 b6bc
00000010: 7450 7d3e b07d cebd 28d1 143e 5880 a03d
00000020: 68ef 73be 3c9a 72be dc3c 60be d8b0 043d
00000030: bc7c 6bbe 805c 483c 6c78 70be 5866 0c3d
00000040: 68f1 983e eb54 683e 4d11 5f3e 837a 693d
00000050: 6bbf 5dbe 4ece f9bd 4eb1 663e 4f76 2ebe
00000060: e7a2 82bd fe17 21be 3d3f cf3d 5373 f33d
00000070: a434 2cbd 8e23 14bd 41b3 ce3d 6df3 33bd
00000080: b66d e9bd 91da 173e 05cc 98bd ef70 05be
00000090: 0e8a 313e e4a7 b93d f6b9 4bbe 2d65 e5bb
000000a0: 6cf6 8abd 654f 12be 0928 5e3e 5bea a0bd
000000b0: 40a8 593e c8fa 3b3e c16f 09be 026d a5bc
000000c0: 8499 1a3e 7bc5 5c3e f8b7 0c3d 1e39 58bd
000000d0: 4b7b 0cbe 7c83 07be a29c 5abe 2e3f 88bc
000000e0: e92d bc3d 99f7 4bbd a7e9 bdbd c090 2abe
000000f0: bbe5 703e 814c d0bd c5ec 6a3d 7b29 18bd
00000100: c0c1 7c3e 129b fc3d b1d9 fbbc 8a60 c63b
00000110: 6b53 bebd 07a9 40bc f16d c6bd 265b 923b
00000120: 5174 81be 6273 d23d 3794 c4bd 9075 333e
00000130: 8915 783d 717c 84be 6259 223e 6d9f 043d
00000140: 7291 9bbe c53f 08bd 43b5 21be be2f b33d
00000150: 3150 003e 88bb 1e3e 5e1a 033e 38b2 a13d
00000160: c8d4 ac3c 7661 35be e19a 2d3e fc10 613e
00000170: b260 52be cc14 263e 5a5e 0cbd 08cc 083e
00000180: 7fe4 7c3e 6a51 613e 4448 993e 84f8 02be
00000190: da58 623e d7e4 2a3e da25 7e3d a2f3 7ebe
000001a0: 40fb 5fbe 3732 40be 25c5 493d ec2a 263e
000001b0: 43e7 18bb 0728 6a3e cf51 23be 8cf5 3b3e
000001c0: 40f2 febd 5204 763e b58c 4b3e a5a2 cc3d
000001d0: 1df3 1bbe 1533 bebc 5a8c 0dbd 301e c43d
000001e0: 3dcb bd3d 4c86 103e 08df 05be 985b 57bd
000001f0: b8fd 81be 3672 173e 5629 57be f2e4 9b3d
00000200: 27a7 f63c ce93 ec3c 2230 91be 9ba0 13be
00000210: 490b 3cbe 7a22 7f3d 5359 7e3e f650 37be
00000220: 3ba1 23be 62b9 8e3e 93bf dbbb acfd 34be
00000230: b99a 453e 2a95 35bd 4746 093e da78 073d
00000240: 8b98 3b3e 7608 2c3c e34f 85be 61bb 72be
00000250: 9dd4 1b3e fe6f 283d a397 e73d d567 423e
00000260: 7bd6 29be 31ba 4abc f90b d93d a6bc 94bd
00000270: 50ca 0dbc 539a 9fbd 5534 48bc 79b5 8f3e
00000280: f61d 28bd 16d4 14bd dfa8 4bbe bd97 40be
00000290: fb8e 8d3e 5f0f 0bbe 0788 27be 3007 eebd
000002a0: 4eb1 90bd fd91 5d3d baa4 553d 7c4d 713e
000002b0: da5f 073d e013 823d 69a1 1e3e 0469 b7bd
000002c0: 3242 763e 7c8c 933e faf5 25bd 5119 b4bd
000002d0: ea0b 9a3c 3ae1 23be ed86 c03d da91 3e3e
000002e0: 2971 063e 8337 88bd 2036 25be 82d0 3bbe
000002f0: 0d6b 75be 1a31 2d3e ffe0 b0bd dcba 3f3e
00000300: 0b7c 013e e02f 863e a812 3e3e 4d04 353e
00000310: df8a 0b3e 2fa9 df3c ee63 c3bd 79b6 eabc
00000320: f3b5 24be a629 643d 2efb 9c3d fb9d 6f3c
00000330: ed83 653c 74a7 3bbe e8f3 31be 57f4 1cbe
00000340: c72a 36be 1dc7 373e 9311 f73d 8215 683e
00000350: 1ffd 81be 3bce ef3b 9fdd 253e 190c 0d3e
00000360: c10a 2dbe e710 6cbd fd30 d7bd 47a9 4bbe
00000370: a2bb 64bd 07dc 7e3d 6747 193e fb57 033e
00000380: 0447 a2bb ad7f fb3d 8f12 d4bc 4e8c 38bd
00000390: 9051 b2bd 01c1 6c3d 08f4 e1bb a7b3 82be
000003a0: da85 eebd a05f 37bc 0790 30be 8c6f 583d
000003b0: 33f5 4d3d a844 4b3e 3d02 b33d fb46 dc3d
000003c0: b05b 64bd 107d ec3c f49b 73be dabe 77be
000003d0: 40af 05be 08a2 8ebd 9841 9f3d e2d8 57be
000003e0: 4800 af3d f844 09be 40b8 42bd c081 46be
000003f0: 9ed1 203e 30f6 c8bc 0e4c 6ebe 7897 763e

features_extractor.conv1.bias f4 [16]
-0.15207794 -0.1220207 -0.1974364 0.26870203 0.07318219 -0.083012864 -0.011113196 -0.118675515
0.19193919 -0.15048328 0.24576694 -0.09549725 -0.09898656 -0.21453631 -0.12601013 -0.028524041
00000000: 52ba 1bbe fde5 f9bd c52c 4abe 5093 893e
00000010: 8be0 953d a602 aabd 1f14 36bc 260c f3bd
00000020: b58b 443e 4a18 1abe 54aa 7b3e 1094 c3bd
00000030: 77b9 cabd 68af 5bbe cd08 01be 40ab e9bc

features_extractor.conv2.weight f4 [32, 16, 4]
0.0136013925 -0.014879495 0.061101496 0.058958724 0.21571846 0.073557094 -0.025522588 0.16999353
0.07576644 -0.030841414 -0.07839793 0.03916717 0.12788638 0.10774551 0.1754865 0.13547437
0.005953546 -0.08251174 0.13649112 -0.0012195691 -0.021093236 -0.09430245 -0.0025173654 -0.14207436
-0.011775071 0.047919717 0.012226553 -0.022969596 0.0046855547 -0.018838253 0.06451773 -0.10368253
-0.14935003 -0.04731217 0.049573615 -0.03810545 -0.25253978 -0.16671905 -0.11686312 -0.13800232
-0.031473175 -0.12341962 -0.06068572 0.030438012 0.14706646 0.018791003 0.07825972 0.006745229
0.21562669 0.17084678 0.026236653 0.11072079 -0.04787575 -0.1070236 0.030044153 -0.13609791
-0.0038531276 0.033206668 0.11430125 0.0019006631 0.062372103 -0.01756601 -0.07093373 -0.08095217
0.0017452389 0.041208282 0.12464599 -0.031894162 0.014545462 0.1311979 0.15443067 0.022349427
0.08266815 -0.12061733 -0.03755615 -0.11126404 0.07849064 0.060702357 0.029026764 0.030661365
-0.055131838 0.06754231 0.08189857 -0.08912188 -0.08875034 -0.118866466 -0.031918667 -0.12419336
0.008308602 0.06831753 0.07360081 0.049072057 0.002809457 0.12278357 -0.028719798 -0.22238407
-0.17284797 -0.25146818 -0.13449277 -0.03303313 -0.22703204 -0.25260442 -0.11963899 -0.26213804
-0.17006937 -0.1355877 -0.16176449 -0.026869105 0.16036637 0.15096071 0.032914568 -0.046414766
0.23509578 0.21881871 0.06843453 0.012957122 0.017172173 0.09978825 -0.0776878 -0.1085235
0.11943222 0.04099064 -0.049037214 0.06408482 0.06432594 0.12451111 -0.09249173 -0.054983646
0.069612205 -0.103040144 -0.051260903 -0.11971234 0.03263384 0.008744612 0.007268727 0.006779462
0.056526423 -0.013206661 -0.07226233 -0.09140657 0.0004363805 -0.037634745 0.071680054 0.023255885
-0.02321282 -0.03505154 -0.05612856 -0.0585206 0.092813194 -0.028517947 -0.010092288 0.06667791
0.067072794 -0.115814656 -0.097981706 0.0012506992 0.042786956 0.06332396 -0.08549617 -0.05089189
-0.01713711 0.026733026 -0.09228921 -0.070892915 0.0019741952 0.024278954 -0.1139552 0.09530464
-0.060981825 0.08688046 0.08840267 -0.095944345 -0.041212335 0.039374307 -0.10200472 -0.11230099
-0.04076661 0.054127663 -0.058292165 -0.07294218 -0.029276922 0.06002906 0.040282488 -0.03732547
0.11342065 0.020828828 -0.015801594 -0.07034139 -0.10970485 -0.073906496 -0.04850802 -0.05238989
0.0010865182 0.048609704 -0.12228958 0.11078009 0.18563297 0.17870764 0.038560253 -0.039842702
0.014111111 0.12411564 0.0039808815 0.02657964 0.24178454 0.16482984 0.15627936 0.19060925
0.070676126 0.08690638 0.0023131238 -0.029964544 -0.05997238 -0.15227099 -0.098518394 -0.12357443
0.06735338 0.07011056 0.08676059 0.008710402 0.0776959 0.053377237 -0.12758616 -0.118028484
0.0014126538 0.09644255 -0.012461928 0.056317486 -0.18590942 -0.06181686 0.03186965 -0.15034054
-0.14765792 -0.16240598 -0.14539608 -0.0114887 0.17054574 0.13318422 0.21337159 0.0510023
0.3556312 0.077793986 0.051686782 0.044333417 0.08464317 -0.11956059 -0.12478268 0.062846154
0.13655032 -0.036522865 0.038355224 -0.088714644 0.0592186 0.042049766 -0.100271076 -0.110232934
00000000: 60d8 5e3c 20c9 73bc 9045 7a3d b47e 713d
00000010: 4de5 5c3e 1aa5 963d bf14 d1bc c912 2e3e
00000020: 6f2b 9b3d 22a7 fcbc 188f a0bd c16d 203d
00000030: a6f4 023e aea9 dc3d bcb2 333e cbb9 0a3e
00000040: f715 c33b eafb a8bd 54c4 0b3e f3d9 9fba
00000050: b9cb acbc a521 c1bd 62fa 24bb f17b 11be
00000060: 3aec 40bc 7747 443d e151 483c bc2a bcbc
00000070: 4889 993b ae52 9abc df21 843d 8257 d4bd
00000080: 37ef 18be 68ca 41bd b40d 4b3d 7614 1cbd
00000090: e54c 81be 66b8 2abe ee55 efbd 7b50 0dbe
000000a0: 04ea 00bd 6dc3 fcbd 9791 78bd 2359 f93c
000000b0: 9798 163e 97ef 993c a246 a03d 1507 dd3b
000000c0: 3ecd 5c3e 75f2 2e3e 40ee d63c 95c1 e23d
000000d0: 5d19 44bd 302f dbbd 281f f63c 405d 0bbe
000000e0: c184 7cbb b703 083d c616 ea3d ac1f f93a
000000f0: e479 7f3d 98e6 8fbc b445 91bd 40ca a5bd
00000100: 80c0 e43a 04ca 283d 6646 ff3d 74a3 02bd
00000110: 1750 6e3c be58 063e 1323 1e3e 2516 b73c
00000120: eb4d a93d 3806 f7bd 7ad4 19bd 67de e3bd
00000130: b3bf a03d 09a3 783d 89c9 ed3c 8b2d fb3c
00000140: ecd1 61bd 9f53 8a3d 70ba a73d 8885 b6bd
00000150: bdc2 b5bd 4370 f3bd 26bd 02bd 1759 febd
00000160: cd20 083c 10ea 8b3d 05bc 963d c8ff 483d
00000170: de1e 383b f475 fb3d c845 ebbc a6b8 63be
00000180: 0fff 30be 70c0 80be 79b8 09be bf4d 07bd
00000190: 167b 68be 5e55 81be 4905 f5bd f536 86be
000001a0: aa26 2ebe 81d7 0abe 97a5 25be 991c dcbc
000001b0: 1537 243e 7295 1a3e 6dd1 063d 691d 3ebd
000001c0: f3bc 703e 0312 603e 6727 8c3d 1c4a 543c
000001d0: a8ac 8c3c c85d cc3d c81a 9fbd 9241 debd
000001e0: e198 f43d cde5 273d 3fdb 48bd e73e 833d
000001f0: 52bd 833d aeff fe3d 4e6c bdbd 8836 61bd
00000200: d890 8e3d b606 d3bd f4f6 51bd be2b f5bd
00000210: 10ab 053d 9045 0f3c 802e ee3b 4026 de3b
00000220: 4088 673d c060 58bc 46fe 93bd 5e33 bbbd
00000230: 00ca e439 e426 1abd fecc 923d 2083 be3c
00000240: d028 bebc 3492 0fbd 10e7 65bd 4cb3 6fbd
00000250: d814 be3d 789e e9bc 205a 25bc 6e8e 883d
00000260: 765d 893d 3c30 edbd a2aa c8bd 80ee a33a
00000270: 6041 2f3d feaf 813d 9e18 afbd 0474 50bd
00000280: 2063 8cbc 38ff da3c 2002 bdbd 4e30 91bd
00000290: 8061 013b a8e4 c63c 5861 e9bd 142f c33d
000002a0: 14c8 79bd 62ee b13d 760c b53d 787e c4bd
000002b0: 44ce 28bd f446 213d dae7 d0bd 10fe e5bd
000002c0: e4fa 26bd f8b4 5d3d c4c3 6ebd b662 95bd
000002d0: 28d6 efbc 08e1 753d 40ff 243d 98e2 18bd
000002e0: 1649 e83d 38a1 aa3c 5872 81bc 260f 90bd
000002f0: f0ac e0bd 4a5c 97bd 58b0 46bd c896 56bd
00000300: 8069 8e3a f81a 473d f672 fabd ace0 e23d
00000310: 9216 3e3e 23ff 363e 5bf1 1d3d 1a32 23bd
00000320: 4a32 673c 5730 fe3d 0e72 823b 8cbd d93c
00000330: 5e96 773e 27c9 283e b207 203e 122f 433e
00000340: a5be 903d f9fb b13d c797 173b 3478 f5bc
00000350: 99a5 75bd edec 1bbe 03c4 c9bd 9714 fdbd
00000360: 92f0 893d 2096 8f3d 89af b13d 13b6 0e3c
00000370: 071f 9f3d 17a2 5a3d f2a5 02be ebb8 f1bd
00000380: cc28 b93a ac83 c53d 1d2d 4cbc 2aad 663d
00000390: 0a5f 3ebe ad33 7dbd c089 023d dff2 19be
000003a0: a333 17be c14d 26be b6e2 14be 1a3b 3cbc
000003b0: 8ba3 2e3e 7261 083e 157e 5a3e cae7 503d
000003c0: 4b15 b63e 7452 9f3d 85b5 533d f596 353d
000003d0: 6659 ad3d 2fdc f4bd 108e ffbd 7cb5 803d
000003e0: d9d3 0b3e 0099 15bd 5e1a 1d3d 06b0 b5bd
000003f0: 348f 723d 603c 2c3d ec5a cdbd cec1 e1bd

features_extractor.conv2.bias f4 [32]
-0.02446135 0.011165555 -0.10209003 -0.008824844 -0.14705412 -0.042976286 0.055900674 -0.015967295
-0.09467029 0.03583113 -0.046091218 -0.050268836 0.015243848 -0.0032690987 0.15472911 0.007214293
-0.125549 -0.008744034 -0.042563297 -0.13525403 -0.043389887 0.036163356 0.023069194 -0.05429022
0.0238978 0.056537215 -0.03772621 -0.1189072 -0.10972282 -0.11433144 -0.087616675 -0.12429114
00000000: 2b63 c8bc bbef 363c 9414 d1bd 1496 10bc
00000010: 5b95 16be e707 30bd 1bf8 643d d8cd 82bc
00000020: 7fe2 c1bd aac3 123d 25ca 3cbd b2e6 4dbd
00000030: 55c1 793c 603e 56bb 4f71 1e3e e065 ec3b
00000040: eb8f 00be 2343 0fbc da56 2ebd 0880 0abe
00000050: 98b9 31bd 0720 143d 9bfb bc3c 6c5f 5ebd
00000060: 52c5 c33c 9193 673d cc86 1abd 9e85 f3bd
00000070: 5cb6 e0bd 9a26 eabd 5f70 b3bd 5a8c febd

features_extractor.fc_op.weight f4 [32, 3]
0.51080626 -0.31717277 0.34298247 -0.47764003 -0.37019184 0.43470523 0.058626603 0.017763773
0.37492606 0.54400927 0.006419912 0.61069524 -0.57208353 0.08834169 0.2623864 -0.32595158
0.0736873 0.17121175 -0.18799622 -0.10183334 0.47503632 0.46266186 -0.05550232 -0.37194994
0.007919467 -0.33917964 -0.26158124 0.5142208 0.2702771 -0.17229672 -0.481963 -0.024070673
-0.39101225 -0.0049986457 -0.1186095 0.38836142 0.33308637 -0.24998154 0.22726764 -0.31465274
-0.2550434 -0.5918303 0.36227527 -0.1527726 -0.032647114 -0.22845745 0.03379107 0.38626474
-0.43287086 -0.30907425 0.24646892 -0.49099606 0.010660872 -0.2646929 -0.51598763 -0.2753962
0.5324848 0.04552035 -0.51224685 -0.3414005 -0.19704527 -0.5087726 -0.0070538796 -0.38922024
-0.021585984 0.23127268 0.1835627 0.13044804 0.1669557 0.43163398 0.46632454 0.32489717
0.012374621 0.34287965 0.06373613 0.2594119 0.19010325 -0.06245331 -0.13169684 0.19783716
-0.22299267 0.3671142 -0.5321098 -0.08217169 0.07997914 0.15580682 -0.35253978 0.23840308
-0.27411947 -0.39250517 0.53538847 0.3188867 0.23527448 -0.17094962 -0.505307 0.24839446
00000000: 33c4 023f 7864 a2be 669b af3e 3c8d f4be
00000010: c989 bdbe af91 de3e 7322 703d 5585 913c
00000020: 4ff6 bf3e 3144 0b3f 205e d23b 8656 1c3f
00000030: 1174 12bf 7dec b43d 8357 863e 20e3 a6be
00000040: 5ee9 963d 2252 2f3e 1582 40be 008e d0bd
00000050: f637 f33e 04e2 ec3e 6756 63bd 3970 bebe
00000060: a7c0 013c f4a8 adbe faed 85be f9a3 033f
00000070: c361 8a3e 8d6e 30be dbc3 f6be dc2f c5bc
00000080: c232 c8be aecb a3bb 8ae9 f2bd 4fd7 c63e
00000090: 4c8a aa3e 29fb 7fbe d9b8 683e 2a1a a1be
000000a0: 0c95 82be 3182 17bf 257c b93e 6c70 1cbe
000000b0: fbb8 05bd c0f0 69be 8168 0a3d 7ec4 c53e
000000c0: 40a1 ddbe fb3e 9ebe 5962 7c3e d663 fbbe
000000d0: f0aa 2e3c d485 87be c417 04bf bb00 8dbe
000000e0: ed50 083f 8c73 3a3d 9c22 03bf 0ccc aebe
000000f0: 3cc6 49be ec3e 02bf 3b24 e7bb e047 c7be
00000100: 17d5 b0bc bfd2 6c3e dcf7 3b3e 2c94 053e
00000110: 6ff6 2a3e 21ff dc3e 17c2 ee3e ec58 a63e
00000120: ecbe 4a3c ec8d af3e 1788 823d a3d1 843e
00000130: 6daa 423e 0bcf 7fbd 89db 06be d395 4a3e
00000140: 3158 64be 64f6 bb3e 5938 08bf a249 a8bd
00000150: 1acc a33d d38b 1f3e 1880 b4be f01f 743e
00000160: 6359 8cbe 70f6 c8be 380f 093f 1e45 a33e
00000170: cbeb 703e 6b0d 2fbe cd5b 01bf 1e5b 7e3e

features_extractor.fc_op.bias f4 [32]
0.22271268 -0.25652307 -0.09314952 -0.2359795 -0.580731 -0.41594657 0.014398728 0.2947271
0.25107315 0.35991797 -0.23908934 -0.07836853 0.28844613 0.17281961 0.22364295 -0.5698685
0.017166123 -0.12602305 0.32434493 0.12989946 0.17942545 0.42428476 -0.084926635 -0.39211556
-0.053621545 -0.4244535 -0.32191616 -0.41460434 -0.45296186 0.24877548 -0.27507475 -0.2755151
00000000: cb0e 643e fe56 83be 2dc5 bebd 9ca4 71be
00000010: c9aa 14bf f3f6 d4be a4e8 6b3c 78e6 963e
00000020: a98c 803e 2b47 b83e d6d3 74be ae7f a0bd
00000030: 36af 933e a0f7 303e a802 653e e7e2 11bf
00000040: f89f 8c3c 300c 01be 8a10 a63e 5d04 053e
00000050: 4ebb 373e da3b d93e 04ee adbd 5fc3 c8be
00000060: 44a2 5bbd f851 d9be 32d2 a4be 0547 d4be
00000070: 9eea e7be 00bf 7e3e 99d6 8cbe 5110 8dbe

features_extractor.fc_merge.weight f4 [352, 352]
-0.057065204 -0.051616136 0.054570872 0.08709423 0.13807517 0.13434552 0.08927951 0.06747459
0.05726685 -0.03564283 -0.0024263714 -0.022891331 0.042791195 0.0077440618 0.11487377 0.06837418
0.108166344 0.018613437 -0.033990763 0.039555818 -0.047456216 -0.021372408 0.0269799 0.006219327
-0.011488374 -0.0010764992 -0.029678747 0.049974453 -0.035380132 -0.035112932 -0.13913022 -0.039331246
0.008917265 0.005079965 0.023161197 0.13258642 0.099186935 0.04501544 0.068780154 -0.0042776223
-0.045631118 0.049553663 0.027402762 0.09355609 0.13585837 0.12594037 0.041563123 0.012241568
-0.044415995 -0.106935255 0.03960629 0.034591593 0.118709825 0.110093884 0.091257036 0.123316646
0.014323346 -0.048748814 -0.08158813 -0.13713738 0.12839244 0.015357695 0.0075507034 -0.08090216
-0.022721903 -0.08661609 -0.05679552 -0.08314182 -0.009891374 -0.014532194 -0.10369931 -0.0012646513
0.027384816 0.09190801 0.11864074 0.08400588 0.097713545 0.04544227 0.0782929 0.034103323
-0.0024602553 0.00564728 0.012381334 0.109454006 0.07449816 0.08651196 0.07587971 0.005724661
-0.04309732 -0.023701118 -0.06559286 0.006653216 0.036585692 0.0627877 0.0825121 0.120426685
0.11299457 0.05942785 0.029635424 -0.031693093 -0.003288847 -0.06337675 -0.0256032 -0.06806421
-0.10960528 -0.074188046 -0.06973302 -0.114695944 -0.045180317 -0.030695472 -0.08317627 -0.05265401
-0.0052071223 0.112786874 0.08287305 0.062908664 0.09579525 0.025554132 0.0013263071 -0.037099835
-0.053143743 -0.016138459 0.051094357 0.049645502 0.08221392 0.044372905 0.024279939 -0.029228203
-2.1181291e-05 -0.054895643 -0.0896468 -0.013746754 0.018399423 0.037153352 0.07199832 0.118966624
0.10380487 0.02836126 0.06740593 0.01966107 -0.030287728 -0.041722402 -0.10814757 -0.062363073
-0.085013404 -0.07861336 -0.069823906 -0.10104351 -0.024506107 -0.09712483 0.033303045 -0.02672577
0.027892223 -0.005329778 -0.043154184 -0.05145032 0.05276423 -0.010538012 0.0016557312 0.050184894
-0.014650985 0.02758827 -0.04396983 -0.0008034477 0.046247154 -0.025835732 -0.040171526 0.042705305
0.019754348 -0.02477325 0.024365062 -0.0039766775 0.10474831 0.07419772 0.046240926 0.056686755
0.014068242 -0.07138412 -0.07399995 -0.13160273 0.10428477 0.06310996 0.090458795 0.069212615
0.08996386 0.10430372 0.04857227 -0.10568606 -0.103079036 -0.1444912 -0.03651422 0.10395137
0.1035567 0.091836534 0.05172512 0.09973817 -0.0055593667 -0.0383889 -0.071462445 -0.16573386
-0.12942562 -0.01920244 0.027021 0.0885143 0.08711339 0.09024785 0.092368305 0.087125294
0.06480185 -0.023758966 0.025992954 -0.00511103 -0.07443121 -0.11350525 -0.14043246 -0.13391855
-0.08340678 -0.18745966 -0.10730619 -0.1301194 0.02134165 0.019547917 -0.05204467 0.019709554
-0.0471227 -5.9917056e-06 0.009250691 -0.032322794 -0.0127064865 -0.037937965 -0.006827707 -0.028977882
0.015745146 0.08696596 0.0428083 0.1111527 0.044517614 0.015360598 0.052309535 -0.0034818528
-0.039258096 0.061971083 0.019751308 0.08240106 0.06023025 0.05581719 0.072351106 -0.0023713987
0.02153895 -0.030670276 0.21067019 0.10814003 -0.00116261 -0.0058515677 -0.032969292 -0.0740468
00000000: 34bd 69bd 716b 53bd b585 5f3d 765e b23d
00000010: 9463 0d3e df91 093e 2dd8 b63d 1e30 8a3d
00000020: a590 6a3d 37fe 11bd c203 1fbb 9a86 bbbc
00000030: d245 2f3d e6c1 fd3b f042 eb3d c307 8c3d
00000040: 5186 dd3d 357b 983c e639 0bbd 4805 223d
00000050: 7361 42bd 3015 afbc f404 dd3c 7fcb cb3b
00000060: bc39 3cbc 5219 8dba d820 f3bc 03b2 4c3d
00000070: c2ea 10bd 94d2 0fbd 2778 0ebe cd19 21bd
00000080: b819 123c d675 a63b 8dbc bd3c bcc4 073e
00000090: 8522 cb3d 1c62 383d 9cdc 8c3d 4c2b 8cbb
000000a0: b2e7 3abd c8f8 4a3d c27b e03c 569a bf3d
000000b0: 751e 0b3e 83f6 003e 183e 2a3d dc90 483c
000000c0: 8ced 35bd df00 dbbd 353a 223d eaaf 0d3d
000000d0: 231e f33d e778 e13d f8e4 ba3d 708d fc3d
000000e0: 78ac 6a3c d6ac 47bd ad17 a7bd be6d 0cbe
000000f0: 4f79 033e d79e 7b3c e46b f73b 08b0 a5bd
00000100: 4923 babc c763 b1bd 6ba2 68bd 4246 aabd
00000110: 6e0f 22bc 7018 6ebc 4e60 d4bd a8c2 a5ba
00000120: 1f56 e03c 443a bc3d ebf9 f23d 460b ac3d
00000130: 0a1e c83d ac21 3a3d 0758 a03d edaf 0b3d
00000140: 3c3c 21bb d10c b93b 14db 4a3c 6c29 e03d
00000150: 7e92 983d 2f2d b13d d266 9b3d f095 bb3b
00000160: d186 30bd d928 c2bc 8d55 86bd 3903 da3b
00000170: e1da 153d d696 803d 1bfc a83d 44a2 f63d
00000180: b269 e73d 9e6a 733d fdc5 f23c 9ed0 01bd
00000190: b289 57bb abcb 81bd cdbd d1bc 4065 8bbd
000001a0: bc78 e0bd e7ef 97bd 30d0 8ebd b5e5 eabd
000001b0: ff0e 39bd 1275 fbbc 5258 aabd bbab 57bd
000001c0: 82a0 aabb cefc e63d 58b9 a93d 42d6 803d
000001d0: 4d30 c43d e656 d13c 7bd7 ad3a fff5 17bd
000001e0: 41ad 59bd cd34 84bc 5148 513d 1559 4b3d
000001f0: c65f a83d 5dc0 353d b9e6 c63c fc6f efbc
00000200: 7aae b1b7 41da 60bd be98 b7bd 113a 61bc
00000210: 63ba 963c 1d2e 183d db73 933d c6a4 f33d
00000220: a697 d43d e055 e83c 1f0c 8a3d 4110 a13c
00000230: f81d f8bc 1ce5 2abd 797c ddbd 6c70 7fbd
00000240: 821b aebd 0b00 a1bd d6ff 8ebd e6ef cebd
00000250: 08c1 c8bc 62e9 c6bd c668 083d 01f0 dabc
00000260: 3b7e e43c 6ba5 aebb 71c2 30bd 92bd 52bd
00000270: 4e1f 583d a0a7 2cbc 1f05 d93a ad8e 4d3d
00000280: af0a 70bc cc00 e23c b519 34bd 769e 52ba
00000290: a86d 3d3d 75a5 d3bc e68a 24bd c2eb 2e3d
000002a0: dfd3 a13c 45f1 cabc 3d99 c73c ca4e 82bb
000002b0: 4886 d63d f9f4 973d 2067 3d3d 5f30 683d
000002c0: 7c7e 663c d631 92bd 498d 97bd dec2 06be
000002d0: 4193 d53d cb3f 813d 7642 b93d 58bf 8d3d
000002e0: f93e b83d 309d d53d b7f3 463d ef71 d8bd
000002f0: 1a1b d3bd 80f5 13be ef8f 15bd 75e4 d43d
00000300: 8915 d43d cb14 bc3d b8dd 533d 8743 cc3d
00000310: 592b b6bb ae3d 1dbd e75a 92bd 23b6 29be
00000320: 2688 04be 6f4e 9dbc 255b dd3c fc46 b53d
00000330: 8168 b23d ddd3 b83d 982b bd3d bf6e b23d
00000340: d5b6 843d 2aa2 c2bc 2def d43c 6d7a a7bb
00000350: 646f 98bd 7175 e8bd 87cd 0fbe f221 09be
00000360: 2dd1 aabd 6df5 3fbe 59c3 dbbd 053e 05be
00000370: afd4 ae3c f422 a03c cb2c 55bd ee75 a13c
00000380: bb03 41bd 5c0c c9b6 3690 173c e864 04bd
00000390: de2e 50bc d764 1bbd f5ba dfbb 0663 edbc
000003a0: f7fb 803c 361b b23d c257 2f3d 07a4 e33d
000003b0: 1a58 363d 05ab 7b3c 8642 563d cc2f 64bb
000003c0: 19cd 20bd 64d5 7d3d 7fcd a13c e3c1 a83d
000003d0: ffb3 763d 91a0 643d d12c 943d 7869 1bbb
000003e0: 7472 b03c 3b40 fbbc edb9 573e 8578 dd3d
000003f0: b862 98ba 82be bfbb cf0a 07bd d9a5 97bd

features_extractor.fc_merge.bias f4 [352]
-0.03453441 0.05662604 0.025337324 0.09029332 0.037535187 -0.027036458 0.013237619 0.033742096
-0.03828336 0.016616058 -0.03585894 -0.13821693 0.01865577 -0.010117328 -0.004271338 0.003492993
-0.045366917 0.021392189 0.030223606 0.01119275 -0.0013849941 0.038997356 0.019492716 0.022854878
-0.026001593 -0.039095704 0.019045396 0.016379135 0.011951353 -0.033486396 -7.358094e-05 0.046651486
-0.011462463 0.057820532 0.04594009 -0.0026536032 0.0200267 -0.024041368 0.010335277 -0.023726033
0.007613874 -0.044402637 -0.025850425 -0.035914797 0.04517286 -0.014887469 0.036809914 0.07692105
-0.03772527 0.015703177 0.019800717 -0.06083154 0.025526837 -0.019080473 -0.04278274 -0.026462752
-0.007545706 0.07452974 0.009856697 -0.040875945 -0.09038878 -0.020269169 -0.023296308 0.027480394
0.0047311326 -0.03055286 -0.031002587 -0.028190859 0.004984855 0.05160877 0.03762273 -0.018376064
0.012061139 -0.03498113 0.010055005 -0.04900877 -0.005566024 0.04468316 -0.03829317 -0.046768673
-0.01617698 0.082900405 0.083855055 0.027480587 -0.062457304 0.022708688 -0.010884768 0.0033326885
-0.017487211 -0.019777877 0.0776483 0.0019428649 0.0007126693 0.021286424 -0.0729819 0.001799807
-0.0024750317 0.047621217 0.07187483 -0.04019444 -0.023217097 0.060741987 0.017420478 -0.02895945
-0.030609045 -0.040966578 0.10367681 0.042290263 -0.0017258974 -0.023958461 0.05394689 -0.025715966
0.03589804 0.044854477 -0.037771296 -0.021240389 -0.015223776 -0.044442154 0.01096901 0.011738947
0.059331264 -0.028009575 0.04724206 -0.008532689 -0.033988096 0.019660512 -0.039917957 -0.043001328
-0.005257203 -0.008262078 0.08742522 -0.034531724 -0.004182875 -0.07505782 -0.04972799 0.029548384
0.050548468 -0.020768048 0.03652745 0.0042303475 -0.030272147 0.023484489 -0.029166112 -0.038691454
-0.0030378057 -0.017108789 -0.043798964 0.052153945 -0.008481703 -0.03333423 -0.044357497 -0.013532397
-0.0053024916 -0.04145665 0.023081612 0.020170199 0.051760938 0.035829093 0.053970918 -0.014788172
0.01669539 0.020895485 -0.004592096 -0.028900122 0.019031897 0.0016881607 -0.006120783 -0.023166776
0.026669519 -0.024394156 0.017442968 -0.04202135 0.019034574 0.030109126 -0.01919691 -0.014790493
-0.027213667 -0.03746457 0.00694919 -0.02479749 0.037041802 0.08347073 -0.019507308 -0.048512243
0.02838893 -0.019119887 -0.023250472 -0.037110236 -0.06474279 0.046099905 -0.03422377 -0.016974494
-0.007404002 0.035213258 -0.025301494 0.06427826 -0.044417385 -0.029373154 0.0057858266 0.049603097
0.019432446 -0.004680006 0.007291908 0.0035146496 0.044969767 -0.06394516 0.008107961 -0.030879963
-0.042524215 0.008053013 0.0057388516 0.048145205 0.0039735283 0.03161746 -0.0009918842 0.078788236
0.06911468 -0.034871176 -0.012229224 0.019724533 0.047033478 0.0011395838 0.0382574 -0.0361133
0.00575071 0.04557011 0.046046324 0.024835434 0.015406992 0.0007887755 -0.021313403 0.049238525
0.06897299 -0.014716407 0.027419986 0.002217223 0.02542871 -0.022484787 -0.028969556 0.030025687
-0.057522833 -0.007408638 0.0038570946 -0.048824813 -0.025474645 -0.018412502 0.043748796 0.030821458
0.0037105856 0.064222 0.0048458953 0.048043206 -0.12064908 -0.022704752 0.016041702 0.054850187
00000000: f473 0dbd b5f0 673d 3890 cf3c b4eb b83d
00000010: 7fbe 193d 907b ddbc 99e2 583c 2735 0a3d
00000020: 03cf 1cbd 661e 883c d3e0 12bd bd88 0dbe
00000030: fcd3 983c 26c3 25bc 95f6 8bbb b3ea 643b
00000040: a9d2 39bd ac3e af3c 7f97 f73c cc61 373c
00000050: b188 b5ba b1bb 1f3d 30af 9f3c 273a bb3c
00000060: 4b01 d5bc d122 20bd 1705 9c3c 892d 863c
00000070: 9ccf 433c 0829 09bd 774f 9ab8 a115 3f3d
00000080: 0ecd 3bbc 39d5 6c3d ad2b 3c3d 13e8 2dbb
00000090: 090f a43c 67f2 c4bc 4b55 293c 195d c2bc
000000a0: ce7d f93b 8adf 35bd 45c4 d3bc 651b 13bd
000000b0: 2d07 393d 92ea 73bc fec5 163d c988 9d3d
000000c0: d085 1abd f3a3 803c 1d35 a23c 7e2a 79bd
000000d0: a81d d13c a74e 9cbc f43c 2fbd 6ac8 d8bc
000000e0: f841 f7bb 0ca3 983d fc7d 213c 896d 27bd
000000f0: c11d b9bd 870b a6bc e6d7 bebc 901e e13c
00000100: 9e07 9b3b fe49 fabc 23f9 fdbc 84f0 e6bc
00000110: ff57 a33b b863 533d 4b1a 1a3d 6689 96bc
00000120: 159c 453c 6048 0fbd bfbd 243c 6cbd 48bd
00000130: 3263 b6bb b005 373d 4dd9 1cbd 8290 3fbd
00000140: 9685 84bc b0c7 a93d 33bc ab3d f81e e13c
00000150: 3bd3 7fbd 9207 ba3c 0756 32bc 3c69 5a3b
00000160: 5741 8fbc 3705 a2bc 1206 9f3d baa7 fe3a
00000170: 6dd2 3a3a de60 ae3c 8977 95bd 80e7 eb3a
00000180: 2434 22bb 770e 433d 1c33 933d eda2 24bd
00000190: c831 bebc 97cc 783d 64b5 8e3c 5e3c edbc
000001a0: d2bf fabc 92cc 27bd 8254 d43d 8e38 2d3d
000001b0: 8237 e2ba 8944 c4bc 6af7 5c3d 4aaa d2bc
000001c0: d309 133d 54b9 373d 13b6 1abd 5300 aebc
000001d0: 256d 79bc fa08 36bd 5db7 333c b654 403c
000001e0: 5705 733d 5674 e5bc e480 413d b1cc 0bbc
000001f0: 1a37 0bbd 150f a13c 0381 23bd 2922 30bd
00000200: 9d44 acbb ab5d 07bc fe0b b33d 2371 0dbd
00000210: 8010 89bb eab7 99bd 94af 4bbd 740f f23c
00000220: e90b 4f3d c121 aabc cf9d 153d ba9e 8a3b
00000230: 4bfd f7bc 8b62 c03c c5ed eebc ee7a 1ebd
00000240: ec15 47bb bb27 8cbc 8b66 33bd 609f 553d
00000250: d7f6 0abc 7989 08bd 35b0 35bd fdb6 5dbc
00000260: 86c0 adbb 73ce 29bd a615 bd3c f93b a53c
00000270: 4703 543d 87c1 123d 9c10 5d3d 174a 72bc
00000280: c5c4 883c 022d ab3c 4b79 96bb f3bf ecbc
00000290: c8e8 9b3c 4645 dd3a d990 c8bb 40c8 bdbc
000002a0: 097a da3c 41d6 c7bc 8ee4 8e3c 941e 2cbd
000002b0: 65ee 9b3c 6aa7 f63c d742 9dbc d353 72bc
000002c0: 32ef debc 7374 19bd 08b6 e33b 1b24 cbbc
000002d0: 25b9 173d b4f2 aa3d cacd 9fbc c6b4 46bd
000002e0: e78f e83c 4fa1 9cbc c677 bebc e700 18bd
000002f0: de97 84bd 41d3 3c3d 392e 0cbd 180e 8bbc
00000300: 459d f2bb c73b 103d 1445 cfbc 52a4 833d
00000310: 01ef 35bd f89f f0bc 0897 bd3b 9e2c 4b3d
00000320: cb30 9f3c bc5a 99bb f5f0 ee3b 0956 663b
00000330: 3832 383d aef5 82bd 41d7 043c faf7 fcbc
00000340: df2d 2ebd c9f0 033c fa0c bc3b e833 453d
00000350: 5f34 823b 4f81 013d 1c02 82ba ba5b a13d
00000360: ff8b 8d3d 14d5 0ebd 155d 48bc 5895 a13c
00000370: 2da6 403d 165e 953a cbb3 1c3d 8aeb 13bd
00000380: 7470 bc3b b9a7 3a3d 129b 3c3d ae73 cb3c
00000390: 9c6d 7c3c d4c5 4e3a 7299 aebc 56ae 493d
000003a0: b641 8d3d 161d 71bc e19f e03c d44e 113b
000003b0: df4f d03c 0432 b8bc 9051 edbc 6ef8 f53c
000003c0: 109d 6bbd 29c4 f2bb 4fc7 7c3b 87fc 47bd
000003d0: 34b0 d0bc d1d5 96bc f031 333d 487d fc3c
000003e0: 4c2d 733b d386 833d 51ca 9e3b f4c8 443d
000003f0: dd16 f7bd 51ff b9bc e369 833c 97aa 603d

actor.weight f4 [10, 352]
0.05276975 0.0371019 -0.035268005 -0.01981006 0.011609986 0.14140111 -0.02916809 0.0069712177
0.026353024 0.11650558 0.1362416 -0.12743524 -0.021556703 0.016858181 -0.0071474635 0.03611057
0.09857264 0.014154889 0.004439324 0.044544168 0.10042606 0.02451208 0.010659551 0.018798904
-0.030247658 0.003493591 0.007153052 0.027941603 -0.030724877 -0.02953308 0.017863715 -0.0055906936
-0.0122372545 0.004395268 0.037196886 0.1245573 0.08175334 0.05748011 -0.061855722 -0.08158939
0.032132432 0.025471088 -0.15163131 0.0056530684 0.075158514 0.10060422 -0.05127728 0.05310556
-0.0023251968 0.0040921555 -0.022610588 0.034093857 0.01674192 0.085516214 0.15941791 0.009618676
0.061178885 0.0096616065 -0.00077135634 0.1682449 -0.05072247 0.07185288 0.029769825 -0.0011772729
0.25148606 0.0036793475 0.0715904 0.017080525 0.0087016625 -0.054738317 0.049820088 0.118321106
0.02480524 -0.013103555 -0.018686784 -0.019034559 0.031416498 -0.038462125 0.022929026 -0.01809431
0.06212576 -0.03947273 0.023961723 0.039934076 0.0017974278 0.063203566 -0.016954152 -0.026704634
0.07984153 -0.0073848777 0.01766277 -0.047910538 -0.03945786 0.09942411 0.1268791 0.06458618
-0.02911992 -0.1115798 0.02864645 -0.05262104 0.04746758 0.03382826 0.14798804 0.09274553
0.023667298 0.051565573 -0.05384848 -0.020505827 -0.011996012 0.05831476 0.015985673 0.0076593827
0.060764514 -0.0038545209 -0.020728664 0.15339892 0.04321035 0.11058615 0.07235996 -0.0017944088
0.053241253 0.032450877 -0.021353839 0.04690464 0.054562896 -0.016870962 0.10567102 0.111348756
-0.033815913 0.0049554794 -0.009392267 0.0015221406 0.09017792 0.057441346 0.033928003 -0.034924075
0.036368232 -0.057528734 0.01750751 0.033740677 0.040123347 0.06175934 0.06437581 -0.028358027
0.045831684 0.066236034 0.03221399 0.017155498 0.14063916 -0.05161748 0.15726943 0.062409863
0.047794197 -0.01000889 0.044339195 0.07132957 -0.021769645 0.017580207 0.05275111 0.07805869
0.08512614 -0.0063964366 0.14642979 0.034586973 -0.010237666 -0.004491667 0.021244882 0.19742517
0.05458877 0.018498441 -0.009442382 -0.05112711 0.042727724 0.091949135 0.038385708 0.054274224
-0.03225295 0.10057765 0.023169927 0.032016847 0.032270946 0.02054604 0.041204747 -0.0062539415
-0.014015447 0.036189213 0.039996628 0.15817966 0.06335734 0.08236328 0.017129231 -0.04257595
-0.04661928 0.013187906 0.06499131 0.017071787 0.10577282 -0.029359506 -0.031213922 -0.023957888
0.021280324 0.19055766 0.057115693 0.10070835 -0.028107267 0.10775186 0.042487483 0.026029158
0.0140822735 0.06796312 -0.013723202 0.023885813 0.040948283 -0.009858021 0.105224214 0.06788696
0.09648138 0.0364803 -0.017462831 0.069842406 -0.043267522 0.006647772 -0.082877435 0.048806064
-0.001125657 0.08088234 0.06383439 0.1713284 0.02529749 0.025798963 0.13242678 0.17954403
-0.032891642 0.017461764 0.002244822 0.11279773 0.060551085 0.032915063 0.15556857 0.024420252
0.112947755 0.013301691 0.027982831 0.056091662 0.03551899 0.08123697 -0.013230631 -0.12013567
-0.0034495122 0.028108157 0.013402211 -0.0059629637 0.021776844 -0.06511874 0.055070203 0.00076201075
00000000: 1825 583d 29f8 173d 2f75 10bd b548 a2bc
00000010: d037 3e3c 74cb 103e ebf1 eebc d06e e43b
00000020: 4ce2 d73c 7a9a ee3d eb82 0b3e 627e 02be
00000030: af97 b0bc 2b1a 8a3c 4535 eabb ade8 133d
00000040: 74e0 c93d e8e9 673c c077 913b f273 363d
00000050: 2eac cd3d 8fcd c83c 66a5 2e3c 2900 9a3c
00000060: f0c9 f7bc bbf4 643b 2664 ea3b cae5 e43c
00000070: bdb2 fbbc 5cef f1bc ed56 923c 2332 b7bb
00000080: c47e 48bc 2e06 903b c35b 183d e617 ff3d
00000090: 4c6e a73d 4470 6b3d 6d5c 7dbd 5718 a7bd
000000a0: 4c9d 033d bea8 d03c 3d45 1bbe 603d b93b
000000b0: b5ec 993d 9609 ce3d 2008 52bd 3785 593d
000000c0: 5462 18bb 7d17 863b d739 b9bc 00a6 0b3d
000000d0: 5a26 893c 2023 af3d 733e 233e a797 1d3c
000000e0: b696 7a3d b74b 1e3c d934 4aba 6448 2c3e
000000f0: 5dc2 4fbd 9a27 933d d9df f33c b94e 9aba
00000100: c8c2 803e 3521 713b fd9d 923d 75ec 8b3c
00000110: 6b91 0e3c 4935 60bd 2610 4c3d 5652 f23d
00000120: 5c34 cb3c 4bb0 56bc 0715 99bc 5dee 9bbc
00000130: 96ae 003d 768a 1dbd a7d5 bb3c 853a 94bc
00000140: 9577 7e3d 28ae 21bd 604b c43c ea91 233d
00000150: ab97 eb3a df70 813d 6fe3 8abc adc3 dabc
00000160: f583 a33d d8fc f1bb 83b1 903c d73d 44bd
00000170: 919e 21bd de9e cb3d 98ec 013e c245 843d
00000180: e68c eebc f383 e4bd f6ab ea3c 2989 57bd
00000190: 5d6d 423d 808f 0a3d 2d8a 173e 5ef1 bd3d
000001a0: ece1 c13c 6c36 533d 3990 5cbd d6fb a7bc
000001b0: ec8a 44bc 75db 6e3d 63f4 823c 8ffb fa3b
000001c0: 36e4 783d 219c 7cbb 29cf a9bc 9b14 1d3e
000001d0: 56fd 303d fe7a e23d 7531 943d 5e32 ebba
000001e0: 8013 5a3d 36eb 043d 3fee aebc 141f 403d
000001f0: 587d 5f3d f934 8abc 0c6a d83d d10a e43d
00000200: 8e82 0abd 9361 a23b 06e2 19bc 9082 c73a
00000210: 34af b83d 9e47 6b3d 17f8 0a3d 8c0c 0fbd
00000220: dbf6 143d 40a3 6bbd e96b 8f3c aa33 0a3d
00000230: 6158 243d 5df7 7c3d 77d7 833d 184f e8bc
00000240: 01ba 3b3d c2a6 873d d1f2 033d b089 8c3c
00000250: b603 103e da6c 53bd 3d0b 213e 7ca1 7f3d
00000260: d9c3 433d 54fc 23bc 049d 353d 3d15 923d
00000270: 4156 b2bc 5e04 903c 8c11 583d 3cdd 9f3d
00000280: 9d56 ae3d 3399 d1bb b1f1 153e 12ab 0d3d
00000290: e2bb 27bc d52e 93bb bf09 ae3c d329 4a3e
000002a0: 7998 5f3d 0b8a 973c 38b4 1abc a96a 51bd
000002b0: 4403 2f3d d44f bc3d 553a 1d3d a64e 5e3d
000002c0: ab1b 04bd a8fb cd3d dcce bd3c 1924 033d
000002d0: 8a2e 043d 2b50 a83c 4fc6 283d dded ccbb
000002e0: 0ca1 65bc 243b 143d 81d3 233d d9f9 213e
000002f0: 7ec1 813d 14ae a83d 9a52 8c3c 1f64 2ebd
00000300: dcf3 3ebd 1612 583c 2a1a 853d 22da 8b3c
00000310: 6c9f d83d 5983 f0bc 57b4 ffbc 5543 c4bc
00000320: 1354 ae3c 8c21 433e 25f2 693d 2e40 ce3d
00000330: 3641 e6bc 02ad dc3d 5b07 2e3d 1a3b d53c
00000340: 56b9 663c 4030 8b3d 48d7 60bc 2eac c33c
00000350: 63b9 273d 8983 21bc cb7f d73d 5208 8b3d
00000360: 0898 c53d 5e6c 153d 360e 8fbc 8909 8f3d
00000370: 4939 31bd 8ed5 d93b a5bb a9bd dee8 473d
00000380: c88a 93ba a4a5 a53d 9bbb 823d b670 2f3e
00000390: af3c cf3c 5958 d33c e39a 073e 64da 373e
000003a0: 63b9 06bd f90b 8f3c dd1d 133b 7f02 e73d
000003b0: 6a04 783d f2d1 063d 5e4d 1f3e fb0c c83c
000003c0: 2751 e73d 56ef 593c 403c e53c 5fc0 653d
000003d0: 5c7c 113d 925f a63d 4ac5 58bc b109 f6bd
000003e0: 3611 62bb 1443 e63c f294 5b3c f764 c3bb
000003f0: 5a65 b23c f95c 85bd 4b91 613d adc1 473a

actor.bias f4 [10]
0.01626708 -0.01957295 -0.07582239 -0.11098019 0.1780729 -0.050836243 0.011360787 0.0018548733
0.07471575 -0.08284715
00000000: 8a42 853c 7457 a0bc c548 9bbd 9549 e3bd
00000010: be58 363e aa39 50bd 9822 3a3c 381f f33a
00000020: 9204 993d c4ab a9bd

critic.weight f4 [1, 352]
0.049726482 0.098288216 0.06619996 0.085843295 -0.0062798047 -0.07167218 0.043962877 0.036075447
-0.061790112 -0.082262926 -0.06925751 -0.10816661 0.08012841 0.062359266 0.062353548 0.021753205
-0.07768615 0.029084012 0.04689745 0.015674997 -0.06437186 0.06270205 0.041231133 0.029282311
0.07033769 0.044982992 0.032231785 0.035077725 0.06978315 0.043731265 0.05466786 0.08312501
0.120378576 0.08819594 0.054900415 -0.017934052 -0.03534384 0.054783896 0.060887195 0.03303056
-0.021264596 -0.07210187 -0.06433831 0.04794672 0.022420598 -0.077440806 0.04307672 0.07016716
0.060015835 0.07626348 0.04540576 -0.05223811 -0.027503906 -0.093124114 -0.08359077 0.010116568
-0.056172423 0.05742865 0.06778531 -0.06402385 -0.021712855 0.073885806 0.051099535 0.05762868
-0.029487876 0.048865598 0.016862266 -0.048544873 -0.04164766 0.043965653 0.072681405 -0.09258236
0.059382476 0.03632088 0.0021348197 -0.01798578 -0.07517362 0.044402733 -0.052014645 0.044610213
0.056180924 0.04977588 0.038794447 -0.007313663 -0.045875307 0.04442951 0.040268272 -0.03753563
-0.06968554 -0.0058328155 0.06149884 0.04275384 0.047134962 -0.036590565 -0.07723716 -0.046060868
0.057236124 0.04120427 0.087223254 -0.036991388 0.039819736 0.041536503 -0.054185506 -0.056406803
-0.032247487 -0.06383075 0.101138406 0.05759254 0.055552237 -0.006876812 0.010152302 -0.06625023
0.06897743 0.06498574 0.13390051 -0.057451684 -0.02368065 -0.06370097 -0.06888015 0.0722611
0.047498234 0.12407555 0.077986225 0.07357489 0.06629164 0.037740093 -0.08679833 -0.031411983
0.034490246 0.032665983 0.07916518 0.053335764 -0.07723199 -0.056192365 -0.042968977 0.039348196
0.025041098 0.04571 0.060913436 0.05940194 0.048458748 0.04829748 0.038844965 0.06936376
0.025038604 -0.075638495 -0.06698327 0.047161944 -0.053569082 0.017540338 -0.10622489 0.09262447
-0.06408731 0.04921235 -0.025705557 -0.06313266 0.046995435 0.08066299 0.068221025 -0.027906558
0.02216208 0.05370462 -0.102322385 -0.024129938 0.10722757 0.021057252 -0.0687638 -0.06970347
0.0504122 0.04580702 0.063222475 0.039749023 -0.041066986 0.052277353 -0.072571576 -0.03152224
0.0249099 -0.030850131 0.089668706 0.033431623 0.03936935 0.07340669 -0.067249544 -0.006999581
0.01722837 -0.0658891 0.016495725 -0.084409975 -0.042646334 0.0447095 0.07758643 0.050213862
0.043795947 0.017466376 -0.08879555 0.034180578 -0.07513206 0.07924559 -0.0012669042 -0.059716597
0.06619817 -0.028832383 0.04465839 -0.034783423 0.16249727 -0.025794571 0.09744411 -0.032062136
0.044164367 -0.057402734 -0.0681375 0.049814172 0.032508373 0.049852856 -0.046342883 0.023515536
0.14152707 -0.04785829 0.071255915 0.0148309795 0.029883673 -0.027072752 0.05884149 0.02088236
0.052688073 -0.057787016 0.07396994 -0.09657862 -0.0071581258 0.053168263 -0.023027742 -0.107948214
0.065889046 -0.015554055 0.06573772 -0.047772296 -0.06973216 0.05559132 -0.0639923 0.03091523
-0.040250916 0.027869903 -0.00089223136 -0.04127474 -0.018866405 -0.037303884 0.033245526 0.010629189
0.00041149865 0.06636188 -0.039003026 0.06847592 -0.010432944 0.043388624 -0.07113077 0.058311865
00000000: ffad 4b3d 554b c93d d893 873d 9cce af3d
00000010: d2c6 cdbb ddc8 92bd 6b12 343d d9c3 133d
00000020: a117 7dbd 7779 a8bd e2d6 8dbd 7586 ddbd
00000030: 5d1a a43d 6e6c 7f3d 6f66 7f3d c733 b23c
00000040: eb19 9fbd 9841 ee3c 8a17 403d da68 803c
00000050: 65d5 83bd ef69 803d fae1 283d 75e1 ef3c
00000060: 350d 903d 1640 383d 7a05 043d a9ad 0f3d
00000070: 78ea 8e3d 8e1f 333d 68eb 5f3d 723d aa3d
00000080: 0b89 f63d 13a0 b43d 42df 603d 6fea 92bc
00000090: b4c4 10bd 1465 603d da64 793d 0d4b 073d
000000a0: 1733 aebc 25aa 93bd cec3 83bd c863 443d
000000b0: 67ab b73c 4999 9ebd 3771 303d cdb3 8f3d
000000c0: 2ad3 753d 0730 9c3d 64fb 393d a1f7 55bd
000000d0: df4f e1bc dbb7 bebd a331 abbd f6bf 253c
000000e0: 0e15 66bd 4e3a 6b3d 06d3 8a3d f01e 83bd
000000f0: 28df b1bc 7151 973d bf4d 513d 0d0c 6c3d
00000100: 8f90 f1bc 4b27 483d bc22 8a3c fdd6 46bd
00000110: bd96 2abd 5415 343d fdd9 943d d29b bdbd
00000120: 0a3b 733d 34c5 143d 55e8 0b3b ea56 93bc
00000130: a0f4 99bd a4df 353d 4f0d 55bd 33b9 363d
00000140: f81d 663d cbe1 4b3d ede6 1e3d 74a7 efbb
00000150: bfe7 3bbd b8fb 353d 58f0 243d f6be 19bd
00000160: 4bb7 8ebd 3421 bfbb 35e6 7b3d a71e 2f3d
00000170: 9710 413d fddf 15bd 842e 9ebd 52aa 3cbd
00000180: 6d70 6a3d cfc5 283d 1ba2 b23d 4884 17bd
00000190: 051a 233d 2e22 2a3d 9ff1 5dbd d20a 67bd
000001a0: f115 04bd b2b9 82bd a721 cf3d 28e6 6b3d
000001b0: be8a 633d e156 e1bb d755 263c 33ae 87bd
000001c0: 0a44 8d3d 3e17 853d 371d 093e 7552 6bbd
000001d0: ecfd c1bc a775 82bd 0911 8dbd a1fd 933d
000001e0: 828d 423d 521b fe3d 3eb7 9f3d 6fae 963d
000001f0: e9c3 873d 5b95 1a3d 53c3 b1bd daa9 00bd
00000200: a545 0d3d c4cc 053d 5b21 a23d 9a76 5a3d
00000210: ce2b 9ebd f729 66bd 3d00 30bd 932b 213d
00000220: fd22 cd3c 693a 3b3d 5e80 793d 734f 733d
00000230: ae7c 463d 94d3 453d e61b 1f3d 960e 8e3d
00000240: c21d cd3c 5be8 9abd 862e 89bd e22c 413d
00000250: 416b 5bbd c1b0 8f3c 6f8c d9bd e6b1 bd3d
00000260: 3540 83bd e492 493d 7694 d2bc b24b 81bd
00000270: 497e 403d a332 a53d 77b7 8b3d 4b9c e4bc
00000280: 408d b53c 60f9 5b3d 668e d1bd 26ac c5bc
00000290: 219a db3d 4280 ac3c 09d4 8cbd b1c0 8ebd
000002a0: 067d 4e3d 24a0 3b3d c97a 813d dfcf 223d
000002b0: db35 28bd c720 563d 68a0 94bd 771d 01bd
000002c0: d90f cc3c 6ab9 fcbc 3aa4 b73d 99ef 083d
000002d0: c141 213d 3f56 963d 21ba 89bd be5c e5bb
000002e0: 8322 8d3c ddf0 86bd 0b22 873c 23df acbd
000002f0: ecad 2ebd 4f21 373d a2e5 9e3d 0dad 4d3d
00000300: 6163 333d a515 8f3c 71da b5bd ef00 0c3d
00000310: d6de 99bd 834b a23d 400e a6ba 6499 74bd
00000320: e892 873d e431 ecbc b7eb 363d 1079 0ebd
00000330: af65 263e 234f d3bc c790 c73d 9653 03bd
00000340: b2e5 343d 211f 6bbd ac8b 8bbd f209 4c3d
00000350: 8027 053d 8232 4c3d 09d2 3dbd a7a3 c03c
00000360: 79ec 103e 0e07 44bd 9fee 913d a3fd 723c
00000370: 9bce f43c adc7 ddbc c603 713d 7c11 ab3c
00000380: 73cf 573d 14b2 6cbd 8d7d 973d 03cb c5bd
00000390: b68e eabb f7c6 593d ada4 bcbc f413 ddbd
000003a0: d6f0 863d 6fd6 7ebc 7fa1 863d e2ac 43bd
000003b0: bccf 8ebd b9b3 633d 650e 83bd f041 fd3c
000003c0: 25de 24bd 6c4f e43c a2e4 69ba b40f 29bd
000003d0: b88d 9abc f5cb 18bd 762c 083d 0d26 2e3c
000003e0: 6abe d739 bde8 873d a3c1 1fbd 1a3d 8c3d
000003f0: f0ee 2abc 45b8 313d 02ad 91bd 6cd8 6e3d
