cirkle_gym/model_40.pth (torch, 526978 bytes, 11 tensors)

features_extractor.conv1.weight f4 [16, 4, 4]
00000000: 807b 463e 6076 36be 4393 3b3d 2890 983d
00000010: 75ba 723e 6c3a 0ebd d2ec 54be ed00 49be
00000020: 762e 053e 786f dbbd 5f06 873e af32 c83d
00000030: fb92 52be 9658 bdbb 2b81 bcbc 28c2 dbbd
00000040: 8358 f7bd ea5f d63c e76f ec3c 0564 8bbe
00000050: dbda 06be c03e 4e3d 0dbe 96bd ea11 f0bc
00000060: 725e f3bc 4f70 973d 9498 663d bce6 793e
00000070: 65b7 25be 439f 523e eaba 0b3e e22a 1b3e
00000080: 1e6e 45bd 8470 833e d7ba 623e f7a0 ccbb
00000090: a352 493e 4dd5 b8bd f31c 803d 47d7 343e
000000a0: bd88 3b3e fa8b d2bd 2e24 81bc 74ea e93c
000000b0: d944 3ebe bda9 babc d966 62be 0395 343e
000000c0: 253f a23d bb9d ef3d 6299 0b3e ea86 a13e
000000d0: 7c4f 2cbe 00e3 a1bd d391 f4bd e6ef 913d
000000e0: 670a 96bc 0227 78be 10e7 fa3c c6cd 15be
000000f0: 6acb 36bc d6a8 e1bd 72fc 673d ca5b be3d
00000100: 8f9d d33d eb56 4ebc 3627 c4bb f805 0cbe
00000110: d3e1 423e b3d3 553e 5d23 a7bd a43d ce3c
00000120: 4fbb 0bbe 07fe abbd a492 5e3e c55f 26bd
00000130: 9c98 cd3d fa30 733d 32c0 1c3e d25e d03d
00000140: f290 a23e 809d fdbd e4fe 713e 9b16 ed3d
00000150: 69a4 84bc 94ff 5cbe 0535 b1bd 2748 26bd
00000160: 12fb 31be c8f5 3c3e 8fbb 1dbe e9b0 16be
00000170: 7c86 3d3e d485 ebbd b30c d13d 078c 2b3e
00000180: 232f 86be de89 6cbe 191f 83be 58a2 133c
00000190: ef55 c7bd fbed babd 0231 a63e 2034 1e3e
000001a0: 9926 da3d 0669 a83e d38e 1cbe 9b8d c4bd
000001b0: d509 633e ff79 c73d b40b 073e 7491 d53c
000001c0: 90d7 8d3e 4f78 1e3e e8ac 8f3e 47d9 4cbe
000001d0: 5916 c3bd 4da3 4cbe 177b 883c 17e6 96bd
000001e0: 2738 d43d f0a4 76bd 913b c73d 3b95 4cbe
000001f0: 347d 35be d698 65bd 0ba1 3dbe e2a6 02be
00000200: ccab e7bd 04de 683e 048e 68be 1891 28be
00000210: 7ced 62be f06a 6b3d d061 38bd c053 b23c
00000220: a443 c4bd 481b 76be 4852 f4bd 9a13 5f3e
00000230: 8eb0 7bbe 9456 25be 84f8 c8bd 2065 e1bd
00000240: 2277 0d3e fe76 333e 469d ad3e dd96 8c3e
00000250: ff19 d7bd 93e2 1a3e 155a a93d 6075 a83d
00000260: 76b5 93ba 3f2f 77be b388 b63d 6305 2bbe
00000270: 2aee 21be a0ff fcbd fa84 343d 86e4 bb3c
00000280: 2311 dc3d 2f1a 24be 18ba 8e3e 9ffe 5c3e
00000290: 15ed 93be 45e3 81be 7441 84bd 5d86 963d
000002a0: 4cb0 9c3d 625d 0d3d 4886 cc3d 330f 7e3d
000002b0: f84d f1bd bf12 8abe 6bd4 f63d 867d 143d
000002c0: 23fb 51be 8086 2fbd 1aea a83d 5e58 0e3e
000002d0: 29b4 1bbe f789 4e3e 01d8 e1bd e977 01be
000002e0: e583 ae3c bb30 853d e712 fc3a 236b 17be
000002f0: 3f80 29be 8b19 323d 68b2 76be 4d4d 343e
00000300: a2a3 c83d 96cb f5bd 9039 e83c 1edb 1e3e
00000310: 9d87 39be 0002 0abe b682 8d3d 0d88 09be
00000320: 28e8 553e b983 3d3d 099e fa3d c5c0 633e
00000330: ad57 81be 84d9 5fbd 5b81 b23d 9565 593e
00000340: d85a d3bd 8829 06be 8465 aebd 287c 323d
00000350: a049 09bd 1698 3bbe eeec 09be 9c3a bebd
00000360: 84ee 6f3e 0253 1ebe 784e 15be e6a8 4d3e
00000370: c4e7 05be b6d8 5abe 9c1f 6ebe 30fe ed3c
00000380: c413 ff3d f01c 40bd 605d 70bc c039 373c
00000390: 3ce9 013e 08d7 10bd f47c cfbd 2052 313d
000003a0: f087 48bd 52cc 5dbe 1446 483e b05e 33bd
000003b0: 1a40 15be 6829 533d 90bc fabd 3050 56bd
000003c0: c8cc b13e 2581 ac3e 5461 023d 1543 163c
000003d0: 2e63 103e 64bb 83be e981 b8bd 8dd8 5e3d
000003e0: b4db 383e 5146 033e 307c 69be cad5 29be
000003f0: 975d d33d 451d 82be 0ac3 65be 62ed c2bc
0.19383049 -0.17818594 0.045794737 0.074493706 0.2370394 -0.034723684 -0.20793465 -0.1962926
0.13006005 -0.1071462 0.26372048 0.09775292 -0.20563881 -0.0057783825 -0.02301081 -0.10730392
-0.12077429 0.026168782 0.028861953 -0.27224746 -0.13169424 0.05035281 -0.07360468 -0.029305417
-0.029708121 0.07394468 0.056297854 0.24404424 -0.1618324 0.20568566 0.13645521 0.15153077
-0.04820072 0.2567178 0.22141586 -0.0062447744 0.1966043 -0.09025059 0.062555216 0.17660247
0.1831388 -0.10280605 -0.015764322 0.028554179 -0.18580951 -0.022786016 -0.22109546 0.17634968
0.079222 0.117000066 0.1363273 0.31548244 -0.16827196 -0.07904625 -0.11941876 0.07125835
-0.018315507 -0.2423363 0.030627757 -0.14629278 -0.011156896 -0.11018531 0.056637235 0.09294851
0.10332786 -0.012593965 -0.0059861196 -0.13674152 0.19031458 0.20881538 -0.08161042 0.025175877
-0.13645671 -0.08398061 0.21735626 -0.040618677 0.100388736 0.05937288 0.15307692 0.101743355
0.3175121 -0.12383556 0.2363239 0.11576577 -0.016191678 -0.2158187 -0.08652691 -0.040596154
-0.17380932 0.18453133 -0.15403579 -0.14715923 0.18508333 -0.11500135 0.102075 0.16752635
-0.26207837 -0.23099467 -0.25609663 0.009010874 -0.097331874 -0.091274224 0.32459265 0.15449572
0.10651893 0.32892627 -0.15288858 -0.095973216 0.2217172 0.09740066 0.13188058 0.026070334
0.27703524 0.15475582 0.28061604 -0.2000476 -0.09525747 -0.1998417 0.016660256 -0.07368105
0.10362273 -0.06021589 0.09728158 -0.19978802 -0.17723542 -0.05605396 -0.18518464 -0.12758973
-0.113120645 0.22740942 -0.22710425 -0.16461599 -0.22160906 0.05747503 -0.045015156 0.02176845
-0.09583214 -0.24033844 -0.119297564 0.21784821 -0.24579069 -0.16146308 -0.098130256 -0.11005616
0.13814977 0.1752586 0.33909053 0.2745885 -0.10503005 0.15125494 0.08269135 0.082255125
-0.001126929 -0.24139117 0.08912792 -0.16701274 -0.15813509 -0.12353444 0.04407213 0.022936117
0.10745456 -0.16025613 0.27876353 0.21581505 -0.28891817 -0.25368705 -0.06457797 0.073498465
0.076508135 0.034512885 0.099865496 0.062026214 -0.117824495 -0.26967427 0.12052234 0.03625252
-0.20505957 -0.04285288 0.08247776 0.13900897 -0.15205444 0.20169817 -0.110275276 -0.12643398
0.021303127 0.06503435 0.0019231708 -0.14786963 -0.16552828 0.04348139 -0.24091494 0.17607613
0.097968355 -0.120017216 0.02834776 0.15513274 -0.18118139 -0.13477325 0.06909697 -0.13430806
0.20889342 0.0462682 0.12237174 0.22241504 -0.25262204 -0.0546508 0.08716079 0.21230157
-0.103200614 -0.1310178 -0.08515456 0.043575436 -0.03351748 -0.18319735 -0.13469288 -0.092885226
0.2343083 -0.15461352 -0.14580715 0.20083961 -0.13076693 -0.21371731 -0.23254246 0.02905187
0.12454942 -0.046902597 -0.0146707 0.011183202 0.12686628 -0.03536132 -0.10131255 0.04329121
-0.048957765 -0.21659973 0.19557983 -0.043791473 -0.14575234 0.05155316 -0.12242997 -0.052322567
0.34726548 0.3369228 0.0318311 0.009171267 0.14100334 -0.25728905 -0.090091534 0.054405738
0.1805256 0.12819792 -0.2280128 -0.1658546 0.10320585 -0.25412956 -0.22437683 -0.023794834

features_extractor.conv1.bias f4 [16]
00000000: fb29 ed3d ffff 2e3e 4599 5b3d 4da3 a93d
00000010: 070c 29be 56de 41be 5ac6 853e 8703 abbd
00000020: 645d 67be ce72 95be e5f7 16be fd53 40be
00000030: 378b eabd 1220 01be 5c92 efbd 5a3d 5f3e
0.11580273 0.17089842 0.053612966 0.082831 -0.16508494 -0.1893247 0.26127893 -0.08350282
-0.2259422 -0.29189152 -0.14743002 -0.18782039 -0.114523344 -0.1260989 -0.11697838 0.21800748

features_extractor.conv2.weight f4 [32, 16, 4]
00000000: a030 ff3b 1178 a6bc ec38 50bd 6ecd 7ebd
00000010: 8c2b 10bd b396 353d 6c8a 16bd b1e8 89bd
00000020: 4467 dd3d fe17 f8bd 7f27 67bc 4b00 86bd
00000030: b553 3c3d bc07 1b3e e3dd 173e 18ae 13bd
00000040: 7c10 cfbd c4fe 083d c5b6 d93d a179 53bb
00000050: 9e11 41bd 9fe2 d0bc 11c2 8d3d b490 8fbd
00000060: 5f35 1ebe 711f bdbd aa59 abbe bd74 8abe
00000070: 2638 b5bd 8a2f d2bd 2c23 2e3e 9e6e 98bd
00000080: 0cef 0dbd 92fe ec3d 6028 0fbd 8499 5b3d
00000090: 1618 c23d e73c ad3d da44 a43d d058 2a3e
000000a0: b153 f7ba d932 6abb 52c0 de3c ff87 d33d
000000b0: 50d3 7bbc dc50 dabb f12e d3bb f898 a73d
000000c0: 5f96 8dbd 4a43 943d fe6b ecbd ff81 f33c
000000d0: 24b7 3e3d 5214 b93d 28c3 dcbc aaab e4bd
000000e0: feeb e03d 28c7 6bbd 282d 07bd 7e5a bc3d
000000f0: c528 b1bd 2a5f 723e 5126 2b3e 79f9 a43c
00000100: becd fe3c d903 12be 1a80 233d 7cb3 2dbd
00000110: 1061 4a3d 0c7d 0dbe 780e 91bd 6210 b1bd
00000120: b7b3 a73d 429c 1fbd fd28 babd e144 0bbe
00000130: d40f 82bd 96ab 113d 26da 073e 36a4 efbc
00000140: 8255 b9bd bf5f a83d 0765 97bc 9350 ca3d
00000150: 48f2 863d 8905 b83c 427d acbd 604e 3c3d
00000160: 4261 adbd faca 21be 59a2 11be 688d 48be
00000170: fc50 2fbe c2a9 983c f598 343a a5a2 91ba
00000180: 1299 8abd 9e63 ad3d 5cca 8dbd e082 7abc
00000190: 63ce 223e 9184 4fbd d2a4 193e 8f20 93bd
000001a0: 3940 fabc fb86 df3a 5dce b53d d970 a23d
000001b0: 15c5 a93b a72f e0bd cedd 0cbb 1af3 10bd
000001c0: 1848 d2bc 5e70 7cbd fa41 f1bc a24d e3bd
000001d0: 4af4 f33d f64b 863d 6cfe f83d c89a bebc
000001e0: 783d 9f3d 7c70 f2bd 6238 d3bd 96ad cd3d
000001f0: 13c6 e3bd 03f1 ed3a 4857 363e 9d3d 553d
00000200: 481a 8dbd 3e06 453d 46ff 0fbe d087 73bc
00000210: 9223 a6bd 7c98 febd e093 bdbc 1471 89bd
00000220: 9777 b73d f8d3 f0bd e7e8 febd 38e1 88bd
00000230: c77a 71bd 3e26 ad3d ee6a 3f3d 8711 9dbd
00000240: 3551 2ebc 809a cfbd dabe af3c 6ba4 cd3d
00000250: f134 b8bc 8238 d53a 18ed 49bd 0717 f33d
00000260: d54f febd fc7e 9ebe b2f9 7abe 3abe 0bbe
00000270: a8e9 d3bd efa3 d9bd 8bb5 80bd e600 0a3e
00000280: 44ad 473d 20a1 a83c 3aa6 ed3d 2678 9cbd
00000290: df59 183d 1dfb 1b3e 47cf e33c 1389 37bc
000002a0: 511f 7ebc 87b5 123e 4480 f63d c2fa f13c
000002b0: bd1f 483d c94c 8ebd 6b15 413d 76f7 523b
000002c0: 3db6 2abd 4c75 b83d 965b 663d 61cf c43c
000002d0: 78c8 2ebd 80fc 843d cc5c fd3d 1022 dd3d
000002e0: a68f e53d 4055 ffbd 309e 213d e4ae debd
000002f0: 7f76 a23d 8238 8b3c edf5 b93d bd04 7c3e
00000300: d27f b3bd c20c 5d3d 4635 e7bd cf16 6bbb
00000310: 17fe 313d d753 e9bc 6839 07be a204 223d
00000320: 0f42 efbd a1a1 903c 60d9 b33c 5138 fdbd
00000330: 524d 83bd 8227 ae3d 8632 1abd 8672 da3d
00000340: 78c2 cf3d 1863 be3d dd04 05bd e2fa aabb
00000350: 2914 98bd c52b 79bc 2e92 073e 504b 78bd
00000360: 3181 98be 23b7 88be 2d95 2dbe 217d b8bd
00000370: 9294 54be b8b6 3b3d 2508 b03d fc05 2b3e
00000380: aea5 a43d 1456 b2bd ac1d f0bd d08a 8dbd
00000390: 4f49 153d 66be 103e 835a 353e 2fc7 dc3d
000003a0: ce2a 903c acea 213d 5f20 6abc c5f8 583d
000003b0: 699d f4bd 301f 41bc 1609 afbd 379f 6b3d
000003c0: f98e a8bc 3924 74bd 2b85 973d e790 12be
000003d0: 88f7 c7bc 24db ffbd 28ab 71bd b0f5 b03c
000003e0: dc6b a73d 2c70 39bd c0bc d6bd 5c67 f7bd
000003f0: b608 69bd 7bce fc3d bd98 2b3e 0c37 1b3e
0.007787779 -0.020320924 -0.050835535 -0.06220763 -0.03519778 0.04433317 -0.036753103 -0.067338355
0.10810712 -0.12113951 -0.014108538 -0.06543025 0.045978267 0.15139669 0.14830737 -0.0360547
-0.10110566 0.03344609 0.10630564 -0.0032268541 -0.04713594 -0.025498686 0.06921781 -0.07010022
-0.15450047 -0.092345126 -0.33466846 -0.2704219 -0.088486 -0.102629736 0.17005605 -0.074429736
-0.0346518 0.11571993 -0.034950614 0.0536132 0.0947725 0.08458882 0.08020945 0.16635442
-0.0018869546 -0.0035735874 0.027191315 0.103286736 -0.015370205 -0.006662471 -0.006444805 0.08183473
-0.06913447 0.07239397 -0.115440354 0.029725073 0.046561375 0.09037079 -0.026948527 -0.11165555
0.10982512 -0.057562977 -0.03300205 0.091969475 -0.08650354 0.23669115 0.16713835 0.02013849
0.031103965 -0.1425928 0.03991709 -0.042407498 0.049408972 -0.13817233 -0.07082838 -0.08645703
0.08188575 -0.03896738 -0.09089849 -0.13600494 -0.06350675 0.035564028 0.13266811 -0.029253107
-0.090495124 0.08221387 -0.01848079 0.098786496 0.0658918 0.022463577 -0.084223285 0.04597318
-0.08465816 -0.15800086 -0.14222087 -0.19585192 -0.17120737 0.018635634 0.00068892475 -0.0011111094
-0.06767477 0.08466266 -0.069233626 -0.015289992 0.15899043 -0.050663535 0.1500428 -0.071839444
-0.030548202 0.0017053777 0.08877251 0.0793168 0.0051809647 -0.10946589 -0.002149451 -0.03538809
-0.025669143 -0.0616306 -0.029450405 -0.11098792 0.11911829 0.06557457 0.12157902 -0.023267165
0.07775396 -0.11837861 -0.103134885 0.100428745 -0.11121764 0.0018153492 0.17806733 0.052060712
-0.068897784 0.048101656 -0.14062223 -0.014863923 -0.08112253 -0.12431428 -0.023141801 -0.06711021
0.08958357 -0.1175918 -0.12446766 -0.06683582 -0.05895498 0.0845456 0.046732835 -0.07669359
-0.010639478 -0.101368904 0.02145331 0.10041126 -0.022486182 0.0016267451 -0.049298376 0.118696265
-0.124175705 -0.30956256 -0.24509314 -0.13646784 -0.10347301 -0.10626971 -0.062846266 0.13476905
0.048749223 0.020584643 0.11603971 -0.07640104 0.037195083 0.15232511 0.027808798 -0.011202115
-0.015510396 0.1432706 0.120361835 0.029538516 0.048858393 -0.06948239 0.047139566 0.0032190955
-0.041677702 0.090067476 0.056239687 0.024024667 -0.04267165 0.06493473 0.12371215 0.107975125
0.112090394 -0.12467432 0.0394575 -0.108732015 0.079327576 0.016994718 0.0908011 0.24611183
-0.08764614 0.053967245 -0.11289458 -0.003587175 0.04345521 -0.02848236 -0.13205492 0.0395552
-0.116825216 0.017655196 0.021954238 -0.12364257 -0.06411232 0.08503629 -0.03764584 0.10666375
0.10144514 0.092962444 -0.03247534 -0.005217896 -0.0742572 -0.015208189 0.13239357 -0.0606187
-0.29786065 -0.26702222 -0.16951437 -0.090082414 -0.207598 0.04582855 0.085953034 0.16701502
0.080394134 -0.08707824 -0.117244095 -0.06911242 0.036446866 0.14135131 0.17710309 0.10780179
0.017598536 0.03953044 -0.014289944 0.05297162 -0.11944086 -0.011787221 -0.08546655 0.057524886
-0.020575987 -0.059604857 0.07398447 -0.14313088 -0.024410024 -0.1249297 -0.059001118 0.021601528
0.081748694 -0.04527299 -0.1048522 -0.12080261 -0.056893073 0.123440705 0.16757484 0.15157717

features_extractor.conv2.bias f4 [32]
00000000: c3c2 0bbd 0a66 a73c 25f4 043a 9782 b7bc
00000010: 0405 81bd ef26 8b3d b5d7 0e3d db41 0f3d
00000020: f4eb 1d3e 9c57 eabd f3b9 45bd 117d 943d
00000030: 0f6a b4bd c0a4 1aba a6a2 b63c 5a61 00be
00000040: 30f4 633e 7756 8fbd e42d 2ebd b10c a5bd
00000050: 969b ac3d bbc0 c1bd e812 37bd dbc2 2c3d
00000060: b1a8 dd3c b3bb 66bc fc0e 62bd 07f7 263d
00000070: 2a56 d7bd 700e f6bc c7d3 303c 4b0f a83d
-0.034121286 0.020434398 0.0005071781 -0.022401137 -0.06299785 0.06794535 0.034873683 0.034974914
0.1542204 -0.114424914 -0.048273038 0.07250417 -0.088092916 -0.00058991835 0.022294354 -0.12537137
0.22261119 -0.06998914 -0.042524233 -0.08059061 0.08428113 -0.094605885 -0.044695765 0.042178016
0.027057977 -0.014082837 -0.05519007 0.040762927 -0.10514481 -0.030036181 0.010792679 0.08206042

features_extractor.fc_op.weight f4 [32, 3]
00000000: 8335 f5bb 9e7c ab3e 9216 adbe a529 993a
00000010: 350f 8e3e 43ae 9ebe 4e33 9c3e 9dcc ccbe
00000020: 8480 1d3f 2a53 c73d 0746 74be cf03 73be
00000030: 350d 30be 25dc 633d 8389 013f d673 fb3e
00000040: 97dc 8fbe 61a1 c6be b3a2 3fbc eb86 963d
00000050: c9f8 4fbf 253a 0c3e 0cf3 14be 7823 28be
00000060: 551d 873c b837 673e 5ffb a8be 8eaa a4bc
00000070: ce66 893c d83e e3bd 9bd9 16be fb78 81be
00000080: dcdb 4a3e 902d b83e 50f5 da3d 7c56 af3e
00000090: 547d a9bd f4c9 bbbb 0981 e4bd c5d8 bbbe
000000a0: 389b e3bd 6467 833e 6e59 ce3d 3beb c23e
000000b0: 1632 123f 08c8 2bbe 9f5f debe fea3 a9be
000000c0: 3855 19bf 63c7 363d 4021 173e 6efc 8c3e
000000d0: c98f dbbe a338 e13e 254b c73e 74fb d43e
000000e0: cac6 2b3f 2aa3 ee3e be87 cb3e 6b9e 0e3f
000000f0: 10cf d33e 07b0 ee3e c092 d6be eea5 fb3e
00000100: 9b26 ac3d 2e18 0f3f fc94 22be 738f b6bd
00000110: 0224 8c3e df6f 91be d468 fc3e b3ea 99bd
00000120: f4e3 af3e 3d8d 2dbe b3bf fa3e ae6a 02bf
00000130: fafd 83be 2572 853e 618a a73e bce5 6bbe
00000140: b398 46be 6790 093d f5ba 27bb 82f8 0bbf
00000150: 4493 cebd 2662 a23c 7c78 e9be 263b 533d
00000160: 9b6a b1bd 0062 983e afb8 c13c 4a60 733c
00000170: 95d9 85be ab17 703d 2c34 ea3e 92f8 ff3e
-0.0074831857 0.33493513 -0.33806282 0.0011685385 0.27745977 -0.30992326 0.30507892 -0.39999858
0.61524224 0.09732659 -0.23854838 -0.23731922 -0.17192538 0.055629868 0.5060045 0.49111813
-0.28097984 -0.38794997 -0.011696505 0.07349952 -0.8123899 0.13694055 -0.1454584 -0.1641978
0.016493479 0.22579849 -0.3300428 -0.020100858 0.016772654 -0.11095971 -0.14731447 -0.25287613
0.19810432 0.3597226 0.10691321 0.3424567 -0.082758576 -0.005730862 -0.11157424 -0.3668882
-0.1111359 0.25664818 0.10075651 0.38070092 0.57107675 -0.16775525 -0.43432328 -0.3313293
-0.5989566 0.044623744 0.14758778 0.2753634 -0.42883137 0.43988523 0.38924518 0.41598094
0.67100203 0.4660886 0.39752 0.55710477 0.41368914 0.46618673 -0.41908836 0.49150032
0.08405801 0.5589627 -0.15877146 -0.089140795 0.27371222 -0.28405663 0.49298728 -0.075154684
0.34353602 -0.1694841 0.4897438 -0.5094403 -0.25779706 0.26063648 0.32722762 -0.23036855
-0.19394188 0.03358498 -0.0025593613 -0.5467607 -0.100866824 0.019822191 -0.45599735 0.05157008
-0.086629115 0.29762268 0.023647634 0.0148545 -0.26142564 0.05861632 0.4574293 0.49994332

features_extractor.fc_op.bias f4 [32]
00000000: cf2f 97bb a528 90bc 5024 dcbd 48b6 ec3e
00000010: c958 183f 5872 a73e e1af da3e 5c5a 653e
00000020: a927 ed3e 2b81 80bd 0f6c 8c3e d732 b4bd
00000030: 7d7f d23e ab51 aabe 61ee 183f 66c6 243f
00000040: 2ec8 533d 0668 133e ce5b d6bd c037 06be
00000050: 83f2 e2be c142 47be 9684 c03d 715a 69bd
00000060: b8e8 c7bc e008 cd3e a9e1 6c3d b77d 823e
00000070: 4bb0 a63e d654 7f3e 44a5 a9bc c90e 013f
-0.0046138535 -0.017597506 -0.107491136 0.4623282 0.59510475 0.32704425 0.4271231 0.2239775
0.4631932 -0.06274637 0.27426192 -0.087987594 0.4111289 -0.33265433 0.5973874 0.6436523
0.051704578 0.1439515 -0.10466729 -0.13107204 -0.44325647 -0.19459058 0.09400289 -0.056971017
-0.024402961 0.40045834 0.057832394 0.25486538 0.32556376 0.24934706 -0.020708688 0.50413185

features_extractor.fc_merge.weight f4 [352, 352]
00000000: 749e cf3d 1b8b d23d 4343 853d c385 a63d
00000010: 12a2 d93d 1200 8d3d 8117 a03d da00 4e3d
00000020: df54 b83d 8800 ae3d f529 3c3d fcf6 b63d
00000030: e3c2 963d 0287 b13d 8727 2cbc b00e 4f3c
00000040: d97c 2f3d 72e0 35bc c743 f7bb 5e42 ee3c
00000050: 735b 2d3d 3884 c83d a624 9d3d facc 5d3d
00000060: 2f95 b43d a30e ac3d c2f7 463d 5bdf 203d
00000070: a79b a23d 96dc 83bc 2d40 c33d 861d 893d
00000080: 14bd b23d be7f 983d 1d0e 523d 2d59 b73c
00000090: 3f22 323d c855 363d ee0b 07bb 4af1 ea3c
000000a0: f284 333d 6e63 47bd 3519 853c ace5 d63b
000000b0: 2c55 50bc aa85 31bd 278e 27bd f62e b53c
000000c0: 0a7c 42bd f575 e93c 57ce e43d d919 483d
000000d0: ed22 dc3d c63c c23d 32e5 813d f0ea 183d
000000e0: 9da1 e43d 67c6 c83d be46 983d 830f bc3d
000000f0: 53c4 843d 2d93 ef3d 2d7a c63c 1630 133d
00000100: 0ae4 963d 3b10 a03d 354f 8dba dbe4 1f3d
00000110: b1de 613d 8678 bc3d 9ab8 7c3c daeb 5f3d
00000120: f08f 973d cd49 263c bb03 22bc 29f9 9e3c
00000130: 1507 1bbd 328c 313d 63db 463d 4db5 aa3c
00000140: 582e 423d d851 e23c 6d82 f93c 658d 81bd
00000150: 47a3 99bd d181 adbd 2595 d3bd d7b9 e7bd
00000160: ef5a 0ebe 1622 68be 35b6 54bc 52c9 023d
00000170: ba51 33bd 3994 273d 2495 dcbb f630 a23c
00000180: 0af1 e4bc e510 d03b 8ca4 f1bc ea64 1a3d
00000190: fb8c cb3d cf06 0f3e 0890 783d 1af8 eb3d
000001a0: 650f 433d bb33 793d 2350 ca3d ace7 873d
000001b0: e4fc 1f3d 2ec2 b5bb 1871 a93d bae9 ed3c
000001c0: 9725 f3bb 1bbe b73d 82b9 d5bb 2461 633d
000001d0: e2eb 813b 7d96 823d 5b6a 813d a1a9 a13c
000001e0: 5961 ebbc 83a7 d33d 3ac8 d73d 639b 043d
000001f0: 7a20 4b3d 06fa ce3d 2dee bc3d f6ef 563d
00000200: aeb5 0c3c ec4c d63c cc80 5d3d 6ca9 9a3d
00000210: 3064 af3c b8aa 563d dca4 f7bc ffe9 b0bb
00000220: 5a81 543d d1d2 dcbc f43e b93c ee16 c03c
00000230: 8a40 50bd 1519 e33b 65f8 c33c c344 403d
00000240: b59b 613d 184d 133d 0842 0cbd 6bf3 81bd
00000250: 4ef3 80bd d425 a1bd 51fc 4abc 7f76 45bd
00000260: 56b3 a93c 03d9 76bb 1069 a8bc 71a2 163c
00000270: c7dc 42bd 65ca 413c 2d63 aa3c 66a9 22bb
00000280: 8874 54bd d8c7 44bd a1fe 90bc 48f5 1bbe
00000290: 1428 5abe 1fd2 73be 0a9b 92be db8c 9dbe
000002a0: da26 84be a606 b6be 914f 24bc 46e9 8f3d
000002b0: 0c02 573d 4d8c 5f3d 65db ae3d 3b62 403d
000002c0: 0ff7 ec3d c38b bc3d e443 f33c 7361 9a3d
000002d0: c6aa 4a3d 7260 af3d be37 1e3d 8f24 013e
000002e0: 9bfb a63c 9a59 993d 208a 423c 4a08 813b
000002f0: bcc0 cf3d 58f6 223c 334a 823d bb07 893d
00000300: 889e 683c 4d27 4d3d b38c bd3d 5011 ae3b
00000310: e18c 983d 7394 ab3c c932 a33a b634 ca3a
00000320: 1cee bb3d af3f 8e3d 723f 513d 7d8e fd3c
00000330: 7c0c 973d 2ee6 803d 272c 8a3d 10e2 023d
00000340: 08fe a83b 3aaf f53c f648 313d ee5f 1bbd
00000350: d6cb 18bc 0e65 0ebd c364 173c 15ce 123d
00000360: 531b dcbc e363 1a3b 6c99 3dbd d7b1 6c3c
00000370: 336d ffbc 5b39 0f3c 7b9b a4bd 340b 3cbd
00000380: 052e c5bc 5c32 a4bd 385b 8fba a981 3fbd
00000390: 24c2 3abd bd59 00be 1a44 0c3d c36e 7f3c
000003a0: d0fe e33d 9f2b 873d 360e cf3d e342 be3c
000003b0: 16e7 373d 57f3 513c 40c6 b33d e432 373d
000003c0: e16a 613c 4a6b d83c 55a7 2fbc 7db6 bf3c
000003d0: 1fa6 073d 0b98 263c d58e 5abb 84bd 903d
000003e0: 67b4 9dbc 998c 863c ade7 d2bd 94a8 c2bd
000003f0: b9d6 91bd 7d1b cabd 5e36 21be 82a2 a6bd
0.101376444 0.102804385 0.0650697 0.08130982 0.106266156 0.06884779 0.07816983 0.05029378
0.09000563 0.08496195 0.04593845 0.08933827 0.073613904 0.08668329 -0.010507471 0.012637779
0.042843673 -0.011100875 -0.0075459215 0.02908438 0.04232354 0.09790844 0.07673006 0.05415056
0.08817517 0.08401229 0.048576124 0.03927551 0.079398446 -0.016096395 0.09533725 0.06695084
0.0872747 0.0744624 0.05128299 0.02238139 0.04348969 0.0445154 -0.0020606476 0.028679509
0.04382796 -0.048678808 0.016247371 0.0065581407 -0.012715619 -0.043340363 -0.04090705 0.02211712
-0.047481574 0.02849863 0.11172169 0.048852775 0.10748849 0.09484248 0.06342544 0.03733343
0.11163638 0.09803467 0.07435368 0.09182646 0.064827584 0.116979934 0.02422818 0.03593453
0.07367714 0.07815596 -0.0010781052 0.039036613 0.055144016 0.092026755 0.015424872 0.054668285
0.07400501 0.010149431 -0.009888585 0.019405918 -0.03784855 0.04334659 0.048549067 0.020838404
0.047407478 0.027626917 0.0304577 -0.06325797 -0.07501846 -0.08472026 -0.103311814 -0.11314743
-0.13901876 -0.22669253 -0.012982895 0.031930275 -0.043779112 0.04091284 -0.006731646 0.019798737
-0.027946968 0.0063496702 -0.029497407 0.037693895 0.09938999 0.13967441 0.060684234 0.11521931
0.047622103 0.06084035 0.09878566 0.06635985 0.039059535 -0.0055468297 0.08273524 0.029042114
-0.0074202525 0.089718066 -0.0065223584 0.055512562 0.003964887 0.063763596 0.06319114 0.019734206
-0.028732942 0.10334685 0.10536237 0.03237475 0.04959152 0.10106282 0.09225116 0.05247494
0.008588238 0.026159726 0.05407791 0.07551846 0.021410078 0.052408904 -0.030229978 -0.0053989883
0.05188117 -0.026955994 0.022613026 0.023448434 -0.0508428 0.0069304802 0.023922155 0.046940576
0.055080134 0.035962194 -0.03424266 -0.063452564 -0.06296407 -0.07868543 -0.0123892585 -0.04820871
0.020715397 -0.003766597 -0.02055791 0.0091940025 -0.04757383 0.01182804 0.020799244 -0.0024820208
-0.051868945 -0.04804215 -0.017699542 -0.15230286 -0.21304351 -0.23810624 -0.2863391 -0.30771527
-0.2581089 -0.35551947 -0.010028736 0.07026915 0.052492186 0.05457716 0.0853794 0.04696868
0.1157056 0.09206345 0.029695459 0.07538118 0.04947927 0.08563317 0.03862738 0.12611602
0.020383647 0.07487793 0.011873752 0.0039377557 0.10144183 0.009946428 0.06361809 0.066909276
0.014197953 0.05008631 0.09255352 0.0053121224 0.074487455 0.02094481 0.0012451048 0.0015427086
0.09176275 0.069457404 0.051085897 0.030951733 0.07375428 0.06293903 0.06746703 0.03195387
0.005157236 0.029990781 0.04328247 -0.037933283 -0.009325942 -0.034764342 0.009240332 0.035841066
-0.026868498 0.0023558072 -0.046288893 0.014446697 -0.03118 0.008741702 -0.08037468 -0.04590912
-0.024069795 -0.08017418 -0.001093722 -0.046754513 -0.045595303 -0.12534232 0.034244634 0.0155903725
0.11132586 0.06600117 0.101101324 0.023225253 0.044898115 0.012814364 0.087780476 0.044726267
0.013758392 0.026418347 -0.010721047 0.023402447 0.03311741 0.010168086 -0.0033349295 0.07067397
-0.019251062 0.016424464 -0.10298095 -0.0950481 -0.07121033 -0.09868524 -0.15743396 -0.08136465

features_extractor.fc_merge.bias f4 [352]
00000000: 4291 603d bad3 9cbc c514 933c fcb9 85bb
00000010: 8ba0 d03c c302 af3c 603c dcbc 7b47 bd3c
00000020: ed64 b63c 2fa5 f53d 2d00 413e d9b5 c23d
00000030: 7f10 323d 861b a93c 0819 0c3d 0aed debc
00000040: f426 b13d 58b0 8f3b b18e a33c a4dc 0cbd
00000050: 1e11 183d 11c1 c23d c0c9 87bd 674a 923c
00000060: 0fa4 b03a eb70 453d 1f03 8e3d 9d7b 923d
00000070: f242 89bd 2220 8c3b e116 04bc 76be d93c
00000080: a84e 253e d1ae ab3c 6dbd d13c bdb4 173b
00000090: 6a2d 363e 7917 9f3d ebaa 27bd 24ea 963d
000000a0: 7ebf af3d 6afa 32bd 5230 533c c3ad 84bd
000000b0: d31e 593d 0b72 de3c 5407 b43d 193f 0f3d
000000c0: 7bbb d3bc 5306 bf3c 41f9 32bd 6d99 f23d
000000d0: 1e5a 863d f1df e03c a9cf 503c 2746 9b3e
000000e0: a592 6d3c b7ac ce3d ebdc 07bc ba3d ca3d
000000f0: ab57 3b3e 1f3e f8bc c30c d2bc bb47 0a3d
00000100: ea02 7cbd f993 e1bc c587 bf3d 5e2f 813d
00000110: 63a3 5dbd 0666 08bb ffc6 7abd 80aa c53d
00000120: f011 f63c d343 c43d 7e94 13bd aec0 bf3d
00000130: ecf1 263e 71cd 27bd 1b23 6e3d ff22 ed3d
00000140: 6099 62bd 32e9 a8bc d31a ef3c e6dc e63d
00000150: 91bb c4b9 ed36 4a3c 98fa e13c 0ae4 c73d
00000160: f458 46bc 0b7c d4bc 8158 533d 7655 d73d
00000170: 9099 963d dd58 403d 7aed 943d 3d54 803d
00000180: afc2 dd3b ff73 b23d 5666 d5bc 9e45 46bd
00000190: f8bb 43bd c710 163e 5f2b 4f3d 41c7 b5bc
000001a0: 2a34 f33d 4524 82be 2498 be3b 3b3e 0b3d
000001b0: dc11 113d 3bc5 903b e8a2 58bd 3bba 0d3c
000001c0: e50b 213e 0445 e4bc 4936 87bd 0b07 3c3d
000001d0: 27bb 0e3d 6ff3 adbd b2ad d13c 7913 1abc
000001e0: 61d7 233e a871 9d3c 0145 4abc 398f a83d
000001f0: cda7 c9bc b36e 7e3c 1f3e 5bbe 1f64 e83d
00000200: 1717 133e 865f e73b ce4e 5e3d 7ed8 7dbd
00000210: 6ed6 cf3d 1853 46bd 07f6 253d 347b 9c3d
00000220: 8b60 cc3d 41f8 18bd 3677 f5bc 301d fe3b
00000230: 4203 d13d 6f5e bb3d 2cdb 10bd 4589 db3d
00000240: 3a9e 64bd 5e2c 24bc d370 603d db0f cabc
00000250: 4cec 173d f224 283d 2c4a 33bd bfb4 943d
00000260: c56f e03c 5bfd f83d 9f93 133e 1fd9 83bc
00000270: 628f 963d d732 21bd f6b1 dd3b add7 b6ba
00000280: ab26 54bc 7723 30bc 64ed 033d bb17 f2bc
00000290: b8ec c1bb e948 043c 79f4 563d a297 75bb
000002a0: 8347 543e 84be 243e dd00 22bd ebbe e13c
000002b0: 4883 cc3d 57d1 ae3d f07f d23c 5de1 8b3d
000002c0: 175e 053e 6077 3d3d 1da0 0c3e a2c1 113d
000002d0: 495c 293c 1ecb f33c c7b7 253d 6df9 7abd
000002e0: d61b e53d f6d4 243e 2f1a ea3d 840f 8d3d
000002f0: ef60 453c 546a 4f3c 7e4d 453d f2da 1d3e
00000300: 943e 6d3d 4a1a cd3c 8727 693d 8f99 c13d
00000310: 9b90 033e 6846 1d3e fe09 07bd 66cd 073c
00000320: 31f0 1bbc db16 a13c 324f 3f3d dccb 9d3d
00000330: 7b3d fa3c 56d3 8abd 04b2 c43d 2458 013a
00000340: f99d 02bd 6595 8abc bcbc 2f3e f6d2 aa3d
00000350: 5709 d83a ec9a 923d 4c1a 4f3c 77a2 f63b
00000360: 9722 6b3c 9d06 8fbd e4df 1ebd fc2a c33d
00000370: c50b 08bd 4e70 f9bc c2ce a83d c336 663d
00000380: 4ee3 363d 4975 0d3e 1bcd d03d 955b 82bb
00000390: 87bf 2f3b 725f 0fba cfdf 8bbd 98b5 a3bc
000003a0: 32d4 4ebc f786 32bd 2af3 22bd 0ac2 cf3d
000003b0: 7317 263d 2db8 a8bc 507d 913d a31a 7c3d
000003c0: a59d 503a b140 923d 6f66 4f3d 53c8 323e
000003d0: 8085 a93b 6d6d ea3c c05d e03d c2c7 5bbd
000003e0: 458d d4ba 7262 6b3d c824 ebbc 6cec 68bd
000003f0: 1690 8d3d 81a3 f4bb 96c1 593e 389b f43c
0.05482603 -0.019143928 0.01795424 -0.004081009 0.025467178 0.021363622 -0.026884258 0.023105374
0.022264922 0.11994397 0.18847723 0.09507341 0.043472763 0.020643007 0.03420356 -0.027212638
0.08650008 0.0043850355 0.019965502 -0.034390107 0.0371257 0.09509481 -0.06630278 0.017857743
0.0013476628 0.04820339 0.06934189 0.071524836 -0.06702222 0.0042762915 -0.008062095 0.026580077
0.16143286 0.020957382 0.02560302 0.00231485 0.17790762 0.07768149 -0.040934484 0.073688775
0.08581446 -0.043695845 0.012889938 -0.06478455 0.053007912 0.02715399 0.0879046 0.034972284
-0.025846234 0.023318445 -0.04369474 0.1184567 0.06560157 0.027450534 0.012744823 0.3032696
0.014500295 0.100915365 -0.008292417 0.09875055 0.18295161 -0.03030306 -0.02564085 0.033759814
-0.061526217 -0.02753638 0.09352068 0.06307863 -0.054110896 -0.0020812764 -0.061224934 0.09651661
0.03003785 0.09583249 -0.036030285 0.093629226 0.16303223 -0.04096741 0.058138948 0.115789406
-0.05532205 -0.020619009 0.029187595 0.11272602 -0.0003752378 0.012342197 0.027585313 0.09760292
-0.012106169 -0.025938055 0.051598076 0.10514347 0.073535085 0.046959747 0.072718576 0.06266067
0.006767593 0.08713531 -0.026049774 -0.048406236 -0.047786683 0.14654838 0.05057847 -0.022189738
0.11875184 -0.25418296 0.0058164764 0.033994894 0.035417423 0.004418043 -0.052889735 0.008650358
0.15727194 -0.02786494 -0.06602151 0.045905154 0.03484645 -0.08493697 0.02559552 -0.009404057
0.1600013 0.019219235 -0.012345553 0.082304426 -0.024616146 0.015529322 -0.21410416 0.113472216
0.14364277 0.007060948 0.054274373 -0.06197404 0.10148321 -0.048419088 0.040517833 0.07640687
0.099793516 -0.03734613 -0.02996407 0.0077549443 0.102056995 0.09148871 -0.03536527 0.107195415
-0.05581496 -0.010020344 0.054795098 -0.024665764 0.037090585 0.04105086 -0.043771908 0.07261037
0.027397046 0.12157699 0.14411782 -0.016094742 0.07351567 -0.039355125 0.0067655994 -0.0013949774
-0.012948672 -0.010750643 0.032208815 -0.029552331 -0.0059181117 0.008074024 0.05247924 -0.0037474413
0.20730405 0.16088301 -0.039551605 0.027556857 0.099859774 0.08536022 0.025695771 0.06830094
0.13024174 0.046256423 0.13732953 0.035585053 0.010336944 0.02975994 0.040458467 -0.061273027
0.1118695 0.16096863 0.114307754 0.06887725 0.012047037 0.012659628 0.048169605 0.15415552
0.057921007 0.02503695 0.05692246 0.09453117 0.12848131 0.15358889 -0.032968514 0.008288717
-0.009517715 0.019664219 0.046706386 0.07704899 0.030546894 -0.067785904 0.09604266 0.00049340934
-0.031888936 -0.01691694 0.1716184 0.08341019 0.0016482276 0.07158455 0.012640547 0.0075266915
0.014351509 -0.06983683 -0.038787737 0.09529683 -0.03321435 -0.030449059 0.08242561 0.05620457
0.04465037 0.13814272 0.10195371 -0.0039782026 0.002681704 -0.00054692395 -0.068297975 -0.019984052
-0.0126238335 -0.043585744 -0.03978268 0.10144432 0.040549707 -0.020595634 0.071039796 0.06154884
0.0007958061 0.07141245 0.050634798 0.1745923 0.005173385 0.028616631 0.109553814 -0.0536573
-0.0016216418 0.05746693 -0.028704062 -0.056866094 0.06912248 -0.0074657802 0.21265253 0.02985917

actor.weight f4 [10, 352]
00000000: ec25 d6bc 63c4 48bc 7e5b 8bbd e935 443c
00000010: a7b1 d93a 6d65 ee3d edb7 853b 1fb8 e2bc
00000020: 6725 1c3c cd9d a33d a868 ec3d 9ba7 643d
00000030: 650c 963d 4361 0b3d 5551 023a 370e 333d
00000040: 6a5c 9a3c 74f8 81bc 7ae2 de3c 48e9 613c
00000050: 8e24 edbc 58da 423c 5c2c e53c ac3d 3abc
00000060: fe3e 1d3d e06d c73d 7499 0d3d d78c 05bb
00000070: 710d f63c fb5c e83c dfc1 173d efda b43d
00000080: 876a e6bc 92e3 653d b2f6 05bd e38a babc
00000090: 17aa 9b3d 637b 21bd b165 f13c f4a2 013e
000000a0: e36e c23d afac 343c 09d3 4a3d 71e5 a0bc
000000b0: 3f13 173c 5062 43bb 0d36 d5bc a761 8dbb
000000c0: 8a85 e53c 14f3 1cbc 6d42 713c 8ad6 423c
000000d0: fd9d f9bc f06a 6cbd fff7 2fbd fc2f 6dbc
000000e0: 7106 30bc 783f ec39 00d5 19bd ace8 1b3d
000000f0: aabd 00bb 605c 1f3c b5d4 be3c c30b 60bd
00000100: 0c63 77bc 5754 80bd 6f1e 973c 07be 833d
00000110: a9be 72bb 19cb 02bd d362 413d 8a62 ca3d
00000120: c077 26bd d82f 25bb 6594 fbbb 6d16 4e3d
00000130: 3a98 fc3c 1013 95bc c00f f3bb 8000 9a3d
00000140: 5460 53bd db62 07bc d384 b53c 9da4 e93d
00000150: 00b1 2a3c 042c 173a 1b06 a43a 3431 71bc
00000160: 9e5f 7cbc 6a9e 433d 0e18 40bc 5c49 d43d
00000170: 968e 123c 6b4f c83c e4a1 383d 93f8 013e
00000180: 57ae 42bd 4539 a83d a875 523c f98a e3bc
00000190: d7e3 91bc 2675 c03c 132b 013c 90ff 03bd
000001a0: cb3f 913d 69e8 1b3c 951b 8cbd e314 8abd
000001b0: 91ab 22bd 2218 553c 8a82 4a3d bb54 383d
000001c0: acdf 57bd 16b4 61bc 861a 093d 80c7 23bc
000001d0: 8726 673d 21cb 863a 9023 603d eca2 a5bb
000001e0: f6f8 453d d88c 0dbd 6fcf 2c3d 3ba5 18bd
000001f0: a97d 883d 9da3 9dba 4dd4 9e3c 27fa 1c3b
00000200: 3fcc bbbc 687c 3b3c d148 903d bd2b 0dbd
00000210: 954f b73d 3ecb 3abc 0576 0a3e 3a22 6c3d
00000220: cfda 9f3c c039 e2bc 41b4 76bd 4953 de3c
00000230: 76ac 09bd 5fdb 8bbd 10d3 08bb b75f 1a3d
00000240: 3989 60bc 69ef 203d 7216 b93c af19 4abd
00000250: a582 523d 6482 463d 7ade 793d 2918 043d
00000260: 1be6 34bd 0715 9e3d 1b22 283d 3541 21ba
00000270: 2c97 e13d 20c1 4a3c d5d8 5cbc cd11 6e3d
00000280: 77d6 00bb 72ae 883c c329 a2bd 90ea 97bb
00000290: 8ad0 15bd f517 9c3d 4d3a 85bc 9169 41bb
000002a0: 6137 233b 23d6 b1bc 5e84 05bd 12fc cc3c
000002b0: ec34 633d 7169 b43d 9612 e93c e62f cabb
000002c0: 497b 243d c01d 3a3c f53a db3d 7f5e 8cbb
000002d0: a630 95bc 37f3 883c 9b9c 99bc b465 a13b
000002e0: e8eb ed3c 94f3 0e3d 8528 5a3d 7226 113d
000002f0: 367e 47bd c161 d53d 24de 7c3c ce43 d33d
00000300: 5586 fdbc 92f2 2c3d b1ea a0bc 433e 813d
00000310: a55b 3f3c ca97 fa3d 8945 c53c d730 1a3d
00000320: 7739 0dbd c3fa b8bc 1be5 693c 75c2 243d
00000330: d651 903d d561 e6bc 4007 96bc 8a11 d13a
00000340: e48c 893c fe19 75bc 1cd5 263b 56ea 783d
00000350: 21a4 093d d93f b43d af1c 0f3c 3062 c53b
00000360: 748e f3bb e1cf dc3c 3099 133d 4a03 3d3d
00000370: ce60 083d e645 88bd 4bc8 853d 95fc a33c
00000380: e619 463a 55bd 013d 50ff db3d b244 89bc
00000390: e097 d53c bd78 0dbc cfdc 563c 0d17 f6bc
000003a0: 5b0a c6bb 2a97 81bc 8465 48ba 7032 ad3d
000003b0: ca24 35bd 0fd1 a13c 2cb7 2d3d ee40 05bd
000003c0: e16f f83b 6e4e 0d3d f9f4 be3d f19b 823d
000003d0: 679b 203d bf33 2d3d ceeb 313d 367c 9abc
000003e0: 07ca 0a3d fa6d 54bd 644a 583d c0cb 44bd
000003f0: 22bc e6bc 3871 203d eb52 343d 80f2 783d
-0.02614113 -0.0122538535 -0.0680456 0.011975744 0.0016608731 0.11640439 0.0040807636 -0.027675686
0.009530402 0.079890825 0.11543399 0.055823904 0.07326583 0.034028303 0.0004971226 0.04371473
0.018842895 -0.015865542 0.027207602 0.013788529 -0.028948095 0.0118928775 0.027975254 -0.011367243
0.038390152 0.09737754 0.034570172 -0.0020378137 0.030035706 0.028364649 0.037050124 0.08830821
-0.028126968 0.05612523 -0.03270597 -0.022771304 0.076008014 -0.03942431 0.029467436 0.12659818
0.09493806 0.011027499 0.049517665 -0.019640656 0.009220897 -0.0029813237 -0.02602675 -0.0043146196
0.028017778 -0.009579439 0.01472531 0.01189197 -0.030470842 -0.05771917 -0.042961117 -0.014476772
-0.010743723 0.00045060716 -0.03755665 0.03806369 -0.0019644299 0.009726614 0.023294786 -0.054698717
-0.015099298 -0.062660865 0.018447129 0.06432729 -0.0037039912 -0.03193197 0.047213387 0.09882076
-0.040641546 -0.002520552 -0.007677602 0.050314356 0.030834306 -0.018197566 -0.007417649 0.075196266
-0.051605538 -0.008263315 0.022158062 0.114083506 0.010418177 0.0005766752 0.0012514027 -0.014721204
-0.015403656 0.047758497 -0.011724485 0.10365555 0.008945128 0.024451932 0.045076266 0.1269248
-0.047529545 0.08214048 0.012845434 -0.027776228 -0.017808838 0.02349336 0.007883805 -0.032226145
0.07092246 0.00951586 -0.06841198 -0.06742265 -0.0397144 0.013006242 0.049440898 0.04500268
-0.052703544 -0.013775846 0.03347256 -0.009996295 0.056433227 0.0010283926 0.054721415 -0.005054822
0.04833313 -0.034558147 0.04219001 -0.03726695 0.06664593 -0.001202691 0.019388342 0.0023952813
-0.02292454 0.011443235 0.070451386 -0.03446554 0.08950726 -0.011400996 0.13521583 0.05764983
0.019513516 -0.027615428 -0.060230497 0.027139323 -0.033611737 -0.06828951 -0.0020877756 0.037688937
-0.013704591 0.03929082 0.02259371 -0.0493409 0.051394124 0.048464194 0.061003186 0.032249603
-0.04416476 0.077188544 0.04104815 -0.0006151379 0.11015162 0.012375146 -0.013479431 0.058122445
-0.001965908 0.016684745 -0.07918122 -0.0046361163 -0.03657583 0.07621757 -0.016263152 -0.0029512385
0.0024904835 -0.021708554 -0.03259694 0.02502254 0.055470392 0.08809174 0.028451245 -0.0061702607
0.040156636 0.011359632 0.107046045 -0.0042837257 -0.018211674 0.016717536 -0.018751433 0.004925454
0.029043153 0.034900263 0.0532613 0.035437055 -0.04870435 0.10419036 0.015433822 0.10315667
-0.030947844 0.04222352 -0.01964316 0.063107036 0.011679565 0.12235983 0.024081009 0.037644234
-0.03447863 -0.02258051 0.014275814 0.04022451 0.07046859 -0.028122822 -0.018314004 0.0015950662
0.016790815 -0.01495981 0.0025456613 0.060770355 0.03360379 0.088012405 0.008734866 0.0060236678
-0.007432753 0.026954593 0.036034763 0.046145715 0.033295445 -0.06653957 0.065323435 0.020017901
0.000755696 0.0316747 0.10742056 -0.01675639 0.026073396 -0.008634743 0.013114168 -0.030040288
-0.006043715 -0.015819151 -0.00076445215 0.08456886 -0.044224538 0.019753007 0.042411014 -0.032532625
0.0075816964 0.034498625 0.093240686 0.063774 0.039210703 0.042285677 0.04343777 -0.018858057
0.033884075 -0.051862694 0.05280532 -0.048045874 -0.02816588 0.039170474 0.04402439 0.06077814

actor.bias f4 [10]
00000000: 3586 27bd 3b8e 0abd ee1f f3bc 2275 95bd
00000010: e08f 92bd db16 953c 959e 743d 5ac4 ef3c
00000020: d1d4 4bbc 5c03 ecbc
-0.040899474 -0.033827048 -0.029678311 -0.07297732 -0.07156348 0.018199375 0.059721548 0.029268432
-0.012440876 -0.028810196

critic.weight f4 [1, 352]
00000000: ac8c 903d 03c8 473d 6a6d d93c dc6f 5c3d
00000010: 493d 223d c937 f6bc 3a6b 163c 5a39 cc3c
00000020: 10a4 a7bc 12dc d9bc 1621 3fbd 1f85 bfbd
00000030: 2625 2fbd f9c1 d13c e993 053c 83d8 b73c
00000040: b083 0abd 8ade 8abd 6420 163d f5d0 643d
00000050: 90be 413b 80ae 6cbd 47dc f03c e106 2c3d
00000060: 7251 563c c5b4 95bd 769a 6fbd 2061 dfbd
00000070: 80e6 203d 9293 6bbd 576d 8c3d a7ac 5dbc
00000080: 9744 47bd 5ad8 5f3a bc3c 223d 5582 e33c
00000090: 360b efbc c2f0 0bba 6128 d83c ab55 50bd
000000a0: 85b5 51bd bdd5 093d d294 6fbd 0a60 003d
000000b0: 3593 2ebd acb6 583d 2649 f9bc 645b 0e3d
000000c0: 4e2e d73c ea04 25bc cff4 173d d2c2 10be
000000d0: 571d 5f3d ca43 363d 16de 5e3d 1295 28bd
000000e0: 5adb 15bd 1a64 10be 5a3e ab3d 46a0 bcbd
000000f0: 0aaa 30bd a461 db3c e67a 093d 39fe 2dbd
00000100: 4da2 763c f471 e43c bb74 d8bc e4d9 4abd
00000110: 0afc 483c cc72 e83c 1dc4 923d af0b 48bd
00000120: 4e4a 5b3d 5dce 8abd c1e4 2b3d ad07 80bd
00000130: 942f 9bbc d3be ee3a 09a2 0dbd faac 1cbd
00000140: 7d99 5f3d 928e 2239 75c6 9f3d bb6b 4ebc
00000150: 6863 7cbd 4dd8 203b f4ce a2bd 8ac2 c8bd
00000160: 9c89 4c3d c5f6 2f3d 3627 893c 1c51 58bc
00000170: 8456 78bd 9dd5 4d3d ede8 44bd 5e51 4cbd
00000180: 59a1 3a3d 65cf 69bc bad5 cd3d 450c 8639
00000190: 07ac 223d 30ed b3bc 2612 b73d bb76 5339
000001a0: b120 55bd 1e25 943c d9a9 e23c c3eb 703d
000001b0: 43fa 183d 3523 a33c ff74 4b3d 416b 643b
000001c0: ef05 b7bd 2053 5b3d 3714 773d d5f9 163c
000001d0: 6167 493d 1bd9 fe3c 3a65 043d 9421 0d3d
000001e0: 75f4 ddbd b13e c93c 396a 153d a373 95bd
000001f0: 9cea ab3c 13fa 4e3c daa1 bc3c c1c1 87bd
00000200: 3ac7 0dbd 45fa 003d 69d5 08be 4ed4 53bc
00000210: 7903 edbd 648b 9d3d 0f91 6fbd e963 d6bc
00000220: e119 2bbd 9d49 ed3c ce97 853d 6e1d 26bd
00000230: 12f2 adbd 5d84 03bd fcb9 dd3b 2efc 40bc
00000240: e6cc 3b3d 7f3a 74bc a71c 24bd df77 2f3d
00000250: ca96 c1bc 8a19 773c 1220 edba c408 8cbd
00000260: cdee fa3c f504 2abd 6e6c efbc 8f07 2d3d
00000270: b44f 59bd f13d 633d 20b4 323d b547 6f3d
00000280: 3139 dc3c 86c4 15bd c1d6 f7b7 414b 543d
00000290: 9635 7c3d 17ba 283d 8ca2 09be 6bd2 d83c
000002a0: d3e8 0dbd 854a 90bd dcbb a1bc 2fb5 083d
000002b0: 4f58 8abd a20e 58bc d667 8c3c 38a6 c9bb
000002c0: 1bdb 15bd 42cc 623d e6bb 4cbd 5b7d 3cbd
000002d0: c01a 973d f10b 9c3d 5ea0 733d b916 5ab9
000002e0: b86a 27bd e496 69bd 1a1e 05bd 6aef 8fbd
000002f0: 5b15 0dbd 5919 86bc 2344 36bd c44a 29bd
00000300: 9428 e7bc 3109 863b c40e 64bd 10b5 7fbc
00000310: 84f6 7cbd 47a6 06bd fac7 033d bfe9 bb3d
00000320: b983 43ba d76a 5f3d eab7 86bc 456e 53bd
00000330: 65e4 96bd a9d9 83ba c5f9 06be 559f d73c
00000340: 0e90 983c 169a 9f3c 92cd 22bd 63a5 43bd
00000350: 80ec 0c3d 49a4 41bd 92e4 e63c d1a6 d43b
00000360: 572c 0cbd 946a 013d 29ba 633d aaa5 50bd
00000370: a014 163d 1680 cf3c 58d9 dabc b117 29bd
00000380: fa1b a63d d61f 0fbd 074b 55bc babb 4a3d
00000390: c9e1 543d 29bc 923d e673 9e3d d306 d2b9
000003a0: 8a1a 5f3c d00b 803d 0270 623d 351b 25bd
000003b0: f572 873d 8b31 cd3c 0e0a 39bd 0e27 5b3d
000003c0: c5d4 febd dd03 c1bd ca58 1fbd aa82 01bd
000003d0: cdc4 34bc 9468 16bd eb0c 07bd ae69 2f3b
000003e0: ab07 fc3c b2a8 713d 3875 6a3d 2621 363d
000003f0: 2a46 22bd 14e6 a83d 4d61 b7bc bac1 f8bc
0.07058081 0.04877473 0.02654143 0.053817615 0.039609227 -0.030055897 0.009180838 0.024929691
-0.020463973 -0.026594196 -0.046662413 -0.09351563 -0.042760037 0.025605189 0.00815294 0.022442108
-0.033816993 -0.06780727 0.036651984 0.05586334 0.0029563047 -0.057783604 0.029401911 0.041998748
0.0130809415 -0.0730987 -0.058496915 -0.10907197 0.039282322 -0.05751378 0.068567924 -0.013529933
-0.048649397 0.0008539014 0.039608702 0.027772108 -0.02918015 -0.0005338305 0.026386442 -0.05086295
-0.0511985 0.033651102 -0.058491535 0.03134159 -0.042620856 0.052908584 -0.030430388 0.034755126
0.026267197 -0.010071972 0.037098702 -0.14136818 0.05447134 0.044498242 0.054411016 -0.04115779
-0.036586143 -0.14100686 0.08361502 -0.09210257 -0.043130912 0.026779957 0.03356447 -0.042478774
0.015053344 0.027886368 -0.026422849 -0.049524203 0.012267122 0.028375052 0.07166312 -0.048839267
0.05353766 -0.06777642 0.041966204 -0.06251464 -0.018943585 0.0018214829 -0.034578357 -0.0382509
0.054589737 0.00015502636 0.078015245 -0.012598927 -0.06161824 0.0024542988 -0.079496294 -0.098027304
0.049935922 0.042959947 0.01674233 -0.013202932 -0.060629383 0.050252546 -0.048073698 -0.049882285
0.04556403 -0.014270638 0.10050531 0.00025567613 0.03971484 -0.021963686 0.089390084 0.00020166759
-0.05203313 0.018084105 0.02766888 0.05881859 0.037348043 0.019914249 0.049672123 0.0034853967
-0.089366786 0.05354607 0.060322013 0.009214838 0.049170855 0.031109383 0.0323231 0.03445585
-0.10837642 0.024566026 0.036478255 -0.072974466 0.020985894 0.0126328645 0.023026396 -0.066287525
-0.034613825 0.031488676 -0.1336266 -0.012929035 -0.11572928 0.07692602 -0.058487948 -0.026170688
-0.041772727 0.028965766 0.06523095 -0.04055541 -0.08493437 -0.032108653 0.006766556 -0.011778874
0.045849703 -0.014906525 -0.040066388 0.042838927 -0.023631472 0.015081773 -0.0018091223 -0.068376094
0.030631447 -0.041508634 -0.029226508 0.042243537 -0.053054526 0.055478994 0.04362881 0.058417995
0.02688274 -0.036564372 -2.9544697e-05 0.05182958 0.06157454 0.041193094 -0.13440913 0.026467523
-0.034645867 -0.070454635 -0.019742899 0.033375915 -0.06755125 -0.0131870825 0.017139357 -0.006153848
-0.03658591 0.055370577 -0.04998388 -0.046017986 0.07378149 0.07619465 0.05947911 -0.00020798565
-0.04087326 -0.057028666 -0.03249941 -0.070280865 -0.034444194 -0.016369509 -0.044498574 -0.041331068
-0.028217591 0.004090451 -0.055678144 -0.0156071335 -0.061758533 -0.03287342 0.032173134 0.09175443
-0.0007458288 0.05454525 -0.016445119 -0.051618833 -0.073677815 -0.0010059375 -0.13181217 0.026321093
0.018623378 0.019482654 -0.03974683 -0.047765147 0.03440523 -0.047275815 0.028185163 0.0064896126
-0.034221973 0.03159578 0.055597458 -0.05093924 0.036640763 0.02532963 -0.026714966 -0.04128236
0.08110805 -0.03494247 -0.013018376 0.049495436 0.051973138 0.07164795 0.077369496 -0.00040059406
0.013617167 0.06252253 0.0552826 -0.04030915 0.06613723 0.025048038 -0.045175605 0.053504042
-0.12442926 -0.09424565 -0.038903035 -0.03161875 -0.011033249 -0.036720827 -0.032971304 0.002676587
0.030765375 0.05899877 0.057240695 0.044465207 -0.039617695 0.08247009 -0.022385264 -0.030365814
