circle_gym/model_280.pth (torch, 526994 bytes, 11 tensors)

features_extractor.conv1.weight f4 [16, 4, 4]
000000 0a 69 83 3e 0b 42 ef bd b3 e9 bc 3d 7c 45 bc 3d
       0.25666076 -0.116825186 0.09224262 0.091929406
000010 49 59 64 3e d0 30 1c bd 5c 7c 53 be 1d b4 4c be
       0.22299685 -0.03813249 -0.20652908 -0.19990583
000020 94 9a ed 3d b6 6a e2 bd aa be 87 3e 31 cc c0 3d
       0.11601749 -0.1105551 0.26512653 0.094139464
000030 21 f4 60 be 50 86 16 bc 8a fd b0 bc a3 28 e3 bd
       -0.21968128 -0.009187296 -0.021605272 -0.11091735
000040 86 8d 0b be 2f 96 e4 3c 85 b9 4c 3d a1 2b 72 be
       -0.13628206 0.027903644 0.049981613 -0.23649456
000050 22 5e 0f be 8f e3 38 3d 49 28 9d bd 4e 76 f3 bc
       -0.14000753 0.04513889 -0.076736994 -0.029719498
000060 10 bc 1b bd ae c2 8c 3d 41 c4 59 3d 3d 7a 79 3e
       -0.038021147 0.0687307 0.053165678 0.24363036
000070 ac 3a 2e be 7d 48 4d 3e e8 85 08 3e 61 be 1a 3e
       -0.17014569 0.20047183 0.13332331 0.15111686
000080 36 9c 0e bd 0e 95 90 3e e6 63 81 3e d3 e2 d4 3c
       -0.034816943 0.2823872 0.2527153 0.025987064
000090 2a 17 3d 3e 67 0f d5 bd df f3 52 3d 79 71 29 3e
       0.18465868 -0.104033284 0.051502105 0.16547193
0000a0 44 4d 2f 3e 0d c6 ee bd 35 b0 db bc 3b bc 8e 3c
       0.17119318 -0.11658869 -0.02681742 0.01742374
0000b0 52 80 4a be 07 c9 15 bd 57 b8 6d be 35 2f 29 3e
       -0.19775513 -0.036568668 -0.23214851 0.16521914
0000c0 4d 1d 8e 3d c0 3e ce 3d 9b 4d e4 3d f1 f3 90 3e
       0.069391824 0.10070562 0.111476146 0.28311113
0000d0 d4 3a 48 be 63 55 d9 bd 4f 68 17 be 4d d7 27 3d
       -0.19553691 -0.10611989 -0.14785884 0.04097681
0000e0 71 b2 3a bd 11 f0 89 be 89 5c 0f 3b e7 cf 34 be
       -0.04558033 -0.2694097 0.0021875224 -0.17657433
0000f0 15 60 1d bd 9a 8d 0c be 7e fd e6 3c 95 57 80 3d
       -0.03842171 -0.13725892 0.028197046 0.06266705
000100 dc 9d b9 3d 34 e1 34 bc ee 12 50 3c e9 f7 d0 bd
       0.090633124 -0.011040021 0.012699826 -0.10203535
000110 98 e4 34 3e e2 2a 41 3e 0d f6 cf bd c9 8f 6b 3b
       0.17665327 0.18864015 -0.10154352 0.0035943857
000120 8a b8 19 be 6a 4f d5 bd 5e 29 4a 3e 9b c5 7e bd
       -0.15011802 -0.10415538 0.19742343 -0.06220017
000130 1c 9e b1 3d f6 8d 20 3d ea 56 08 3e fe 2b a4 3d
       0.08672735 0.039197885 0.13314405 0.08016203
000140 82 b9 a3 3e 95 ca 04 be 4c 05 64 3e 46 78 c5 3d
       0.3197747 -0.12967904 0.22267646 0.09642081
000150 dc e4 eb bc 76 24 66 be 20 9b c8 bd b5 62 7a bd
       -0.028795652 -0.22474846 -0.09795213 -0.06112929
000160 3d e3 3e be e6 d0 33 3e a0 6e 29 be 8e b7 2b be
       -0.18641372 0.17560157 -0.16546106 -0.1676924
000170 51 9e 30 3e ad cf fd bd 98 a6 b9 3d 62 85 16 3e
       0.17247893 -0.12393127 0.09064978 0.14699319
000180 93 0d 83 be a0 71 56 be ba 1d 64 be a6 cc 4d 3d
       -0.25596294 -0.20941782 -0.22276965 0.050243996
000190 e9 22 be bd 7e 20 b0 bd 4b 7e a9 3e 9f 1b 26 3e
       -0.09284002 -0.085999474 0.33104166 0.16221474
0001a0 9f 59 e3 3d 5a 1c ab 3e 59 f4 15 be be be b4 bd
       0.11101078 0.33420068 -0.14643992 -0.08825444
0001b0 41 a3 67 3e 7c 47 d2 3d 2d a6 0d 3e 92 66 0a 3d
       0.2262087 0.10267541 0.13832922 0.033789225
0001c0 fa 59 81 3e f5 3f 04 3e 66 69 7e 3e 2b 3a 5b be
       0.2526396 0.12915023 0.24844894 -0.21408908
0001d0 ce 9e f8 bd c4 7e 68 be ce 35 01 bb 2d fc b5 bd
       -0.121396646 -0.22704607 -0.0019715908 -0.08885989
0001e0 b2 af 9e 3d 87 09 b3 bd 0d 13 a1 3d 5a 20 5c be
       0.07748355 -0.087420516 0.07864962 -0.21496716
0001f0 64 41 50 be 76 83 aa bd 3e b5 50 be ec 31 12 be
       -0.20337445 -0.083258554 -0.20381638 -0.14276856
000200 cc ab e7 bd 04 de 68 3e 04 8e 68 be 18 91 28 be
       -0.113120645 0.22740942 -0.22710425 -0.16461599
000210 7c ed 62 be f0 6a 6b 3d d0 61 38 bd c0 53 b2 3c
       -0.22160906 0.05747503 -0.045015156 0.02176845
000220 a4 43 c4 bd 48 1b 76 be 48 52 f4 bd 9a 13 5f 3e
       -0.09583214 -0.24033844 -0.119297564 0.21784821
000230 8e b0 7b be 94 56 25 be 84 f8 c8 bd 20 65 e1 bd
       -0.24579069 -0.16146308 -0.098130256 -0.11005616
000240 01 05 fe 3d 78 f9 1f 3e d4 04 a1 3e 97 4d 79 3e
       0.12403298 0.15622509 0.31448996 0.24346004
000250 3b 56 0b be 8f d9 f3 3d c1 0f 54 3d 6d 09 62 3d
       -0.13607113 0.119067304 0.051772837 0.05518477
000260 6d c2 03 bd 81 12 8c be f8 6c 6e 3d a5 bd 46 be
       -0.03216784 -0.27357867 0.05820939 -0.19408281
000270 5f b7 41 be 9d 75 1f be f5 81 57 3c d7 78 87 bb
       -0.18917607 -0.1557221 0.013153543 -0.0041342783
000280 25 9f 1c 3e 75 30 03 be d8 44 99 3e 46 c9 5b 3e
       0.15295084 -0.12811454 0.29935336 0.21463498
000290 10 36 9e be 73 65 8b be 39 9f ae bd 46 c7 58 3d
       -0.3090062 -0.27225837 -0.08526463 0.052924417
0002a0 b9 18 67 3d f5 96 82 3c 89 28 a2 3d ad c9 29 3d
       0.05642006 0.015941123 0.07917888 0.0414521
0002b0 fa 38 0d be eb 94 93 be 9f 76 cc 3d 10 70 80 3c
       -0.13791266 -0.28824553 0.09983563 0.015678436
0002c0 42 5e 19 be ad 9e 50 3b 76 88 2b 3e 8f 64 7e 3e
       -0.14977363 0.003183286 0.16751274 0.24843048
0002d0 5e ed e5 bd b9 cb 84 3e 6a 06 1a bd 85 b1 85 bd
       -0.11226915 0.25936678 -0.037603773 -0.06528
0002e0 26 38 7a 3d 79 4b fb 3d 24 c5 98 3d f2 97 b1 bd
       0.061088704 0.12270255 0.074594766 -0.086715594
0002f0 af c2 00 be 85 27 cf 3d f3 47 2c be 81 ec 72 3e
       -0.12574266 0.101149596 -0.16824321 0.23723032
000300 85 21 f3 3c bc 62 18 be 19 3e 1c 3d 26 11 4e 3e
       0.02967907 -0.14881414 0.03814516 0.20123729
000310 7e f2 47 be db d6 19 be 85 96 34 3d a7 d5 18 be
       -0.19526097 -0.15023367 0.04408886 -0.14925252
000320 48 7d 47 3e 03 60 fc 3c 94 66 c7 3d 2b 73 54 3e
       0.19481385 0.0308075 0.09736362 0.20747058
000330 1c 8d 88 be a5 96 8f bd d3 93 7e 3d fb 17 4a 3e
       -0.26670158 -0.07011155 0.062152695 0.1973571
000340 d8 5a d3 bd 88 29 06 be 84 65 ae bd 28 7c 32 3d
       -0.103200614 -0.1310178 -0.08515456 0.043575436
000350 a0 49 09 bd 16 98 3b be ee ec 09 be 9c 3a be bd
       -0.03351748 -0.18319735 -0.13469288 -0.092885226
000360 84 ee 6f 3e 02 53 1e be 78 4e 15 be e6 a8 4d 3e
       0.2343083 -0.15461352 -0.14580715 0.20083961
000370 c4 e7 05 be b6 d8 5a be 9c 1f 6e be 30 fe ed 3c
       -0.13076693 -0.21371731 -0.23254246 0.02905187
000380 c4 13 ff 3d f0 1c 40 bd 60 5d 70 bc c0 39 37 3c
       0.12454942 -0.046902597 -0.0146707 0.011183202
000390 3c e9 01 3e 08 d7 10 bd f4 7c cf bd 20 52 31 3d
       0.12686628 -0.03536132 -0.10131255 0.04329121
0003a0 f0 87 48 bd 52 cc 5d be 14 46 48 3e b0 5e 33 bd
       -0.048957765 -0.21659973 0.19557983 -0.043791473
0003b0 1a 40 15 be 68 29 53 3d 90 bc fa bd 30 50 56 bd
       -0.14575234 0.05155316 -0.12242997 -0.052322567
0003c0 28 c1 a1 3e a0 79 9b 3e 7b 97 4f bb 85 3f ec bc
       0.3159268 0.3036623 -0.0031675983 -0.028838882
0003d0 8f 2e fc 3d 75 67 8d be 0d f2 e2 bd fe f5 fa 3c
       0.12313568 -0.27617994 -0.11081324 0.030634876
0003e0 c4 8f 26 3e 3c dc df 3d 44 b4 7e be 05 2d 42 be
       0.1626578 0.10930678 -0.24873453 -0.18962486
0003f0 e4 c5 ae 3d 57 c9 8b be 31 fb 7a be 41 d4 42 bd
       0.085338384 -0.27302048 -0.24509884 -0.047565702

features_extractor.conv1.bias f4 [16]
000000 08 97 d2 3d 07 91 2c 3e 6e eb 36 3d cb 18 76 3d
       0.10282713 0.16852199 0.044658117 0.06008224
000010 07 d7 3d be b5 c8 48 be f3 ed 89 3e 41 5d dd bd
       -0.18539058 -0.19607814 0.26939353 -0.108088024
000020 64 5d 67 be 84 82 9f be ed 5e 0e be 63 a7 0b be
       -0.2259422 -0.31154263 -0.13903399 -0.13638072
000030 46 5e 00 be 12 20 01 be 5c 92 ef bd 6f 4c 47 3e
       -0.12535962 -0.1260989 -0.11697838 0.19462751

features_extractor.conv2.weight f4 [32, 16, 4]
000000 0b 36 43 3c 2f 1d a0 bc d6 bc 81 bd f4 88 ae bd
       0.01191474 -0.019545166 -0.06334846 -0.085222155
000010 a1 9a 19 bd b3 2e 14 3d 4e 14 41 bd 7c 4f a1 bd
       -0.03750098 0.03617735 -0.047138505 -0.078764886
000020 21 10 c0 3d 38 9e 0e be 2f 15 04 bd 32 0d 9b bd
       0.09378076 -0.13927543 -0.032246765 -0.07570876
000030 0c e0 25 3d 1c 61 16 3e ca 50 11 3e a0 14 2e bd
       0.04049687 0.14685482 0.14190975 -0.04250014
000040 8f bc c4 bd 82 4c 1a 3d 18 9b cb 3d 14 4f 3d bd
       -0.09606277 0.03767062 0.09941691 -0.046217993
000050 c4 65 51 bd 32 e5 00 bd d9 03 82 3d e7 83 9e bd
       -0.051122442 -0.031468578 0.0634839 -0.07740002
000060 7c ce 26 be 48 ac c8 bd 9f 02 ae be b2 df 8e be
       -0.16289705 -0.09798485 -0.33986375 -0.2790504
000070 67 3e b4 bd 9f 92 e1 bd 3d 9e 2b 3e fb a0 9b bd
       -0.08800965 -0.11014294 0.16759582 -0.07599064
000080 0c ef 0d bd 92 fe ec 3d 60 28 0f bd 84 99 5b 3d
       -0.0346518 0.11571993 -0.034950614 0.0536132
000090 14 61 b5 3d df b6 a2 3d 21 04 99 3d ce 6a 23 3e
       0.08856407 0.07945036 0.07471491 0.15958712
0000a0 46 fc cf bb 2c 59 0c bc a4 9b 9c 3c 92 c6 b9 3d
       -0.006347212 -0.008566182 0.019117184 0.090710774
0000b0 f3 77 92 bd ff 45 ba bd 71 38 b1 3b 30 fb 32 3d
       -0.07151785 -0.09095382 0.0054083397 0.043696582
0000c0 fd 49 b2 bd a3 cb 61 3d 5f 9f 21 be 1f 81 8b 3a
       -0.087055184 0.055125844 -0.15783451 0.001064334
0000d0 24 b7 3e 3d 52 14 b9 3d 28 c3 dc bc aa ab e4 bd
       0.046561375 0.09037079 -0.026948527 -0.11165555
0000e0 fe eb e0 3d 28 c7 6b bd 28 2d 07 bd 7e 5a bc 3d
       0.10982512 -0.057562977 -0.03300205 0.091969475
0000f0 45 8a bc bd 79 03 69 3e 58 8f 21 3e 48 71 51 3c
       -0.0920606 0.22755231 0.15777338 0.012783356
000100 fd 89 a2 3e 7e e0 dd 3d 81 c1 74 3e a0 ce 10 3e
       0.31745902 0.10833834 0.23901941 0.14141321
000110 36 d1 c2 3d 84 9e a3 bd bb 82 fa 3b e8 25 a6 3c
       0.0951256 -0.07989219 0.007644979 0.020281747
000120 7a ae aa 3e 86 ce 24 3e 19 42 b2 3d 8d 8f 69 bb
       0.3333624 0.16094407 0.087040134 -0.0035638541
000130 25 cf 8b 3d 67 a9 ce 3d 37 4e e0 3d 1a da c3 bd
       0.06826619 0.10090905 0.10952418 -0.09563084
000140 73 3c fc 39 c2 2e 57 3e 1e 1c d8 3d d7 94 95 3e
       0.00048110224 0.2101393 0.10552238 0.29215118
000150 e7 6e 90 3e 12 c0 23 3e b8 90 92 bd 79 2e ed 3c
       0.28209612 0.15991238 -0.07156509 0.028952824
000160 cb 9e f6 bd 18 f9 21 be fe c8 b8 bd e1 dd b3 bd
       -0.12042006 -0.15817678 -0.09022711 -0.087825544
000170 8b 11 c5 bd 55 3c 7d 3d b1 5f a7 3c 33 df 73 3c
       -0.09622487 0.061825115 0.020431371 0.014884758
000180 12 99 8a bd 9e 63 ad 3d 5c ca 8d bd e0 82 7a bc
       -0.06767477 0.08466266 -0.069233626 -0.015289992
000190 b2 df 96 3e 85 ca 34 3c 79 c3 07 3e 7d 4b 04 be
       0.2946754 0.011034613 0.1325816 -0.12919421
0001a0 e0 87 dd 3d d8 ff b0 3d ab 63 be 3d aa a3 a2 3b
       0.10816932 0.08642548 0.09296354 0.004963358
0001b0 42 b8 25 3e 50 b5 c8 3c e5 ce 47 3e ed c1 2e 3d
       0.1618357 0.024500519 0.19512518 0.04266541
0001c0 22 80 25 3d 91 55 52 bb 0c e7 01 3d 43 fb 7e bd
       0.0404054 -0.0032094459 0.031714484 -0.06225134
0001d0 4a f4 f3 3d f6 4b 86 3d 6c fe f8 3d c8 9a be bc
       0.11911829 0.06557457 0.12157902 -0.023267165
0001e0 78 3d 9f 3d 7c 70 f2 bd 62 38 d3 bd 96 ad cd 3d
       0.07775396 -0.11837861 -0.103134885 0.100428745
0001f0 7a 97 90 3d 1b 9c 1b 3e 6d 20 89 3e 64 2e e7 3d
       0.07060142 0.15196268 0.2678255 0.11288145
000200 dd e0 48 3d 76 39 26 3e e5 28 5e bd b6 bb 28 3d
       0.04904257 0.16232857 -0.05423822 0.04119464
000210 84 4e 90 bd 57 52 d5 bd 29 7c 35 3c b3 66 af bc
       -0.07046226 -0.10416096 0.011076965 -0.021411275
000220 39 26 1e 3e c0 4d 91 bd 60 03 b6 bd 3c a5 0d bd
       0.15444268 -0.07094908 -0.088873625 -0.034581408
000230 79 cc 0c bd 62 3f c5 3d d4 93 45 3d 0d cd a7 bd
       -0.034374688 0.0963123 0.048236683 -0.08193407
000240 12 eb 83 bc 55 76 c2 bd 3a b7 b1 bc 21 57 02 3e
       -0.016103301 -0.09495226 -0.021693815 0.1272855
000250 49 55 ee 3c 82 b4 df 3c 38 f7 41 bd 97 c8 e0 3d
       0.029093402 0.027307753 -0.047354907 0.109757595
000260 fb 2a 1e be 59 07 ac be c0 ef 79 be c0 06 df bd
       -0.15446083 -0.33599356 -0.24407864 -0.10889959
000270 02 57 c1 bd 5d 24 d5 bd 39 5e 65 bd 9c 23 11 3e
       -0.094404235 -0.10407326 -0.05599806 0.1417374
000280 44 ad 47 3d 20 a1 a8 3c 3a a6 ed 3d 26 78 9c bd
       0.048749223 0.020584643 0.11603971 -0.07640104
000290 18 91 6b 3d 49 12 22 3e 94 ac b2 3c 92 92 bb bc
       0.05751142 0.15827288 0.021810807 -0.022897039
0002a0 d6 fc d8 3c 37 fd 1c 3e 6a a3 e6 3d 66 b8 87 3c
       0.02648775 0.15330969 0.112616375 0.01656742
0002b0 a3 a7 cc 3d ef f9 87 bd ba 3f 87 3d cb ee b2 bc
       0.09992912 -0.06639468 0.06603952 -0.021842381
0002c0 65 6e be bd 9b 1c e5 3c 1b 38 25 bd cb 03 83 3c
       -0.092984 0.027967742 -0.04033671 0.01599302
0002d0 78 c8 2e bd 80 fc 84 3d cc 5c fd 3d 10 22 dd 3d
       -0.04267165 0.06493473 0.12371215 0.107975125
0002e0 a6 8f e5 3d 40 55 ff bd 30 9e 21 3d e4 ae de bd
       0.112090394 -0.12467432 0.0394575 -0.108732015
0002f0 b1 be eb 3d 25 c4 3b 3d 89 1f e3 3d 4d 12 81 3e
       0.11510981 0.045841355 0.11089999 0.25209275
000300 34 d1 07 be 04 f8 5a 3c fc a4 18 be 40 64 e3 bc
       -0.13263398 0.013364796 -0.14906687 -0.027757764
000310 a4 91 26 3d 02 7c 16 bd d1 a9 14 be 1e 3e a6 3c
       0.040666237 -0.036739357 -0.14517905 0.020293292
000320 af 1a 09 be 61 66 51 3a 07 8c 56 3a 97 3c 11 be
       -0.13389085 0.0007987973 0.0008184318 -0.1418327
000330 55 5c 9c bd 0f 15 96 3d 91 80 4b bd ec 1f c5 3d
       -0.076347984 0.07328235 -0.049683157 0.09625229
000340 ca 1c d6 3d 1e 4f c5 3d 11 d3 1e bd 98 ef 51 bd
       0.1045471 0.09634231 -0.038775507 -0.051253885
000350 c6 1a b7 bd ba f0 f7 bc ae 31 f2 3d 2e f6 8e bd
       -0.089406535 -0.030266155 0.11825882 -0.06980549
000360 df 55 9b be 42 da 8a be b2 6d 32 be 79 18 cb bd
       -0.30338952 -0.27119642 -0.17424658 -0.09916777
000370 c3 cc 56 be 8a ef 08 3d 3d 0f 9b 3d 24 64 25 3e
       -0.20976548 0.033431567 0.07571266 0.16151482
000380 ae a5 a4 3d 14 56 b2 bd ac 1d f0 bd d0 8a 8d bd
       0.080394134 -0.08707824 -0.117244095 -0.06911242
000390 18 f0 d5 3c 19 cc 06 3e f8 49 2b 3e 69 89 c9 3d
       0.026115462 0.13163795 0.16727436 0.09840662
0003a0 0f ea 1b 3b a2 1f cf 3c af 34 05 bd 8d 65 16 3d
       0.0023790633 0.025283638 -0.032520946 0.03671794
0003b0 c3 11 43 be 43 70 08 be 3e 15 1a be b5 fb ed bc
       -0.19049744 -0.13324074 -0.15047166 -0.029050687
0003c0 04 9f 10 bd 24 5a 96 bd 46 a8 d9 3c d0 bb 4f be
       -0.0353079 -0.07341412 0.026569497 -0.20286489
0003d0 88 f7 c7 bc 24 db ff bd 28 ab 71 bd b0 f5 b0 3c
       -0.024410024 -0.1249297 -0.059001118 0.021601528
0003e0 dc 6b a7 3d 2c 70 39 bd c0 bc d6 bd 5c 67 f7 bd
       0.081748694 -0.04527299 -0.1048522 -0.12080261
0003f0 65 fa 8b bd fe 67 e3 3d 1a 13 20 3e 10 ac 11 3e
       -0.06834868 0.11103819 0.15632287 0.14225793

features_extractor.conv2.bias f4 [32]
000000 04 e2 2a bd e0 fe e1 3d 91 13 72 3c 0e 9e 01 bd
       -0.04171945 0.11034942 0.014775173 -0.031644873
000010 c3 97 17 bd b1 53 8f 3d a6 ea 58 3c bf 91 a4 3c
       -0.037009966 0.06998385 0.013239538 0.020089028
000020 1d 62 22 3e 9c 57 ea bd b7 9c 58 bd 58 cd 69 3d
       0.1585774 -0.114424914 -0.05288383 0.057080597
000030 73 95 da bd 27 e4 6b bb 10 4f b3 3b 43 f9 0f be
       -0.106730364 -0.0035994144 0.0054720715 -0.1405993
000040 09 2b 68 3e f7 f8 ca bd 7f 88 31 3c 70 7d b3 bd
       0.22672667 -0.099107675 0.010835766 -0.0876416
000050 44 27 8e 3d 59 02 e8 bd 9f 3e 11 bd b0 40 03 3e
       0.06941083 -0.11328573 -0.03546011 0.12817645
000060 df 3d a5 bc 3a c9 19 bc 7a 66 95 bd 63 29 18 3d
       -0.020171104 -0.009386355 -0.072949365 0.037148844
000070 bf 7d e6 bd 16 70 38 bd ac 9e 3d bc f1 ff 6c 3d
       -0.11254453 -0.04502877 -0.011573475 0.057861272

features_extractor.fc_op.weight f4 [32, 3]
000000 0b fb 02 3c 38 cb 92 3e ff c7 bb be 24 a9 67 3c
       0.007994424 0.2867067 -0.36676022 0.014139447
000010 24 66 6d 3e 15 6e ab be aa 05 81 3e 22 47 d5 be
       0.23183495 -0.33482423 0.25199634 -0.41655833
000020 63 b0 20 3f 9d f4 c6 3d f7 54 7a be c3 80 75 be
       0.62769145 0.09714625 -0.24446474 -0.239749
000030 65 18 1c be 8a 6d 00 bb eb 3e fd 3e 7e 4c f6 3e
       -0.15243681 -0.001959654 0.49462065 0.48105234
000040 1f a9 96 be cf 87 d0 be b2 d7 dd bc 0a 1d 8d 3d
       -0.29425904 -0.40728614 -0.02708039 0.068903044
000050 d4 9c 4d bf 5e 59 03 3e 98 f9 26 be 68 80 44 be
       -0.80317426 0.1282706 -0.1630615 -0.19189608
000060 81 24 01 bd b7 f7 45 3e a5 b8 b6 be 11 03 b3 bc
       -0.031528953 0.19332777 -0.35687748 -0.021852048
000070 75 44 ca 3b 7c f6 ff bd ba 42 bf bd e0 8c 88 be
       0.0061727115 -0.12498185 -0.09338899 -0.2666998
000080 0c 54 57 3e af a3 a1 3e 76 3f 8f 3d 7d 0f c8 3e
       0.21028155 0.31570193 0.06994526 0.39074317
000090 c1 9d 30 bd 7c 1a f3 bb 7c d4 f2 bd 17 77 b8 be
       -0.043119196 -0.0074189287 -0.118569344 -0.36028358
0000a0 d4 65 ed bd 7a d2 65 3e 7a cc b8 3d a9 3a b4 3e
       -0.11591688 0.22443572 0.09023376 0.35201004
0000b0 60 be 11 3f 95 61 0e be 0d 92 e1 be 3d cb ad be
       0.56931114 -0.13904412 -0.4405674 -0.3394412
0000c0 a1 1e 0a bf 38 fa 46 3d 21 ae 4d 3e 2d a0 55 3e
       -0.53952986 0.04857847 0.20085956 0.20861883
0000d0 9f 70 e3 be 15 c0 db 3e f4 5d c6 3e cd 54 ca 3e
       -0.4442186 0.42919984 0.38743556 0.39517823
0000e0 9a d4 35 3f 4f ba ed 3e 2f 22 b7 3e ac f3 1d 3f
       0.7102753 0.46431205 0.35768268 0.6169994
0000f0 71 19 cd 3e 5e 49 da 3e 22 c1 d2 be d0 97 f6 3e
       0.40058473 0.426341 -0.41162974 0.481627
000100 4e 83 48 3d 6f 0f 1c 3f 2e 7a b9 bd 32 86 ca bd
       0.048953347 0.6096105 -0.09056507 -0.09888877
000110 bd b7 94 3e 92 71 85 be 72 92 e7 3e 35 0f cd bd
       0.2904643 -0.2606321 0.45228916 -0.10012666
000120 36 77 a1 3e 25 f3 48 be ab 5b 01 3f 99 3b de be
       0.31536263 -0.19624002 0.505305 -0.43404844
000130 05 db 85 be 48 a6 8a 3e 00 64 a6 3e 48 cc 7b be
       -0.2614366 0.27079988 0.3249817 -0.24589646
000140 77 5b 58 be 50 3a ff 3c e2 62 ba bb fb 3a 08 bf
       -0.21128641 0.031155735 -0.0056880573 -0.53215
000150 e8 52 b2 bd ca 55 16 3c 25 20 e4 be 33 2e 92 bd
       -0.08707219 0.009175727 -0.44555774 -0.07137718
000160 85 15 c5 bd c1 14 94 3e e7 2c 83 ba 08 fe 0b bc
       -0.09623245 0.28922084 -0.0010007889 -0.0085444525
000170 a7 ae 7a be 91 0c 51 3d 3a fb cf 3e b8 c7 fd 3e
       -0.24480687 0.051037375 0.40621358 0.49566436

features_extractor.fc_op.bias f4 [32]
000000 aa 6a c9 bc 03 c6 58 bd c9 a0 d4 bd 48 ab f2 3e
       -0.024586994 -0.052923214 -0.1038223 0.47396302
000010 a0 f6 1a 3f 65 bf a2 3e 52 ea d6 3e c7 ba 5d 3e
       0.6053257 0.31786647 0.41975647 0.21653281
000020 61 3f e9 3e 4c 41 53 bd a4 32 90 3e ba e9 dc bd
       0.45556167 -0.051575944 0.28163636 -0.10786767
000030 5d 1d d1 3e 5e 73 b5 be 77 91 18 3f 40 b1 24 3f
       0.40842715 -0.3543958 0.5959696 0.6433296
000040 4e 43 6e 3d a0 c0 19 3e e0 66 04 be dc b2 18 be
       0.058169656 0.15014887 -0.12929869 -0.1491198
000050 37 bb e4 be 9e 50 44 be 80 63 bb 3d a9 19 5d bd
       -0.44674084 -0.19171378 0.091498375 -0.05397955
000060 45 bd c1 bc a3 48 cc 3e 8d e8 38 3d 3f 93 59 3e
       -0.023649821 0.39899167 0.045143653 0.21247576
000070 2b d7 a3 3e 16 f4 80 3e 8c 6c 0a bd c2 7e fe 3e
       0.32000098 0.25186223 -0.033794925 0.49706084

features_extractor.fc_merge.weight f4 [352, 352]
000000 ba 04 be 3d da 33 c0 3d f7 19 74 3d 4b b2 a7 3d
       0.09278245 0.0938489 0.059595075 0.081883036
000010 ba cf d9 3d 9b 67 84 3d 18 18 94 3d da d1 2f 3d
       0.10635324 0.06465074 0.07231158 0.04292474
000020 a3 fa a5 3d f9 d8 98 3d 8d 24 03 3d 1d 25 95 3d
       0.08104446 0.07463259 0.03201728 0.072824694
000030 dc 69 86 3d 5c 31 ae 3d c0 a6 21 bc 63 91 f6 3b
       0.0656316 0.08505508 -0.009866416 0.0075246557
000040 ef 90 fd 3c 11 ea d6 bc 66 1b dc bc f6 7e 2b 3c
       0.030952899 -0.026234658 -0.026868533 0.010467282
000050 e7 9b e3 3c dc 27 a5 3d 2c 76 92 3d 01 41 61 3d
       0.027784301 0.08064243 0.07151446 0.054993633
000060 1a 65 b5 3d 3c 01 a8 3d 89 ae 28 3d a7 a4 f0 3c
       0.08857174 0.082033604 0.041182075 0.029375387
000070 54 54 86 3d 6d 0b 03 bd 5a 0e b5 3d c2 a6 71 3d
       0.06559053 -0.03199332 0.08840628 0.058996923
000080 92 7a b0 3d e4 b9 9c 3d b2 f9 55 3d c9 19 8d 3c
       0.086171284 0.07652643 0.05224008 0.01722421
000090 31 8e 1a 3d 16 a0 1c 3d 04 f7 10 bc 9e 9a b3 3c
       0.03773326 0.038238607 -0.008847956 0.021924313
0000a0 60 50 dd 3d 34 b5 78 bc d2 d4 46 bc a3 60 bc 3b
       0.10806346 -0.015179921 -0.012135701 0.0057488247
0000b0 82 18 37 3d 2f 14 70 bd c3 30 5b 3a c0 a8 33 3d
       0.044701107 -0.058613 0.0008361453 0.043862104
0000c0 40 97 b4 bd d1 3b 41 3d 80 e6 cd 3d 9a c6 10 3d
       -0.08817911 0.047176186 0.1005373 0.03534565
0000d0 b5 de cf 3d 47 06 c1 3d 3e 8e 80 3d 33 eb 06 3d
       0.101499 0.094250254 0.062771305 0.032939147
0000e0 b0 b6 d4 3d cb 2a b3 3d 09 e8 75 3d c9 48 9c 3d
       0.103864074 0.087483965 0.06003574 0.0763107
0000f0 ba 09 67 3d 4f 92 db 3d 24 5f 96 3c 18 28 15 3d
       0.05640576 0.107212655 0.018355913 0.03641519
000100 76 eb 96 3d 6d e9 99 3d 4e 97 de bb 2a 81 02 3d
       0.07369129 0.075152256 -0.0067929393 0.03186146
000110 75 15 3f 3d 9c bc a7 3d f9 60 85 bb 60 2e cf 3c
       0.046651322 0.08190271 -0.004070398 0.025290668
000120 47 36 56 3d a3 47 17 bc 19 85 5a bc d0 44 33 3c
       0.052297857 -0.009233388 -0.013337397 0.010941699
000130 16 0b 2c bd fd 44 f4 3c de 67 7d 3c d6 c5 58 bc
       -0.04200276 0.029818052 0.015466658 -0.0132307615
000140 05 02 05 3d 36 4d 48 3c d7 fc 88 3c ce 6b 9d bd
       0.03247263 0.01222544 0.016722126 -0.07686578
000150 36 1a b2 bd a3 a3 b0 bd d4 3f c7 bd 20 a2 df bd
       -0.086964056 -0.08624961 -0.09728971 -0.10919595
000160 4f 96 0f be 0e 41 71 be 35 b6 54 bc 52 c9 02 3d
       -0.14022182 -0.23559973 -0.012982895 0.031930275
000170 ba 51 33 bd 39 94 27 3d 24 95 dc bb f6 30 a2 3c
       -0.043779112 0.04091284 -0.006731646 0.019798737
000180 0a f1 e4 bc e5 10 d0 3b 8c a4 f1 bc ea 64 1a 3d
       -0.027946968 0.0063496702 -0.029497407 0.037693895
000190 2f 28 b6 3d 22 3f 03 3e d7 72 68 3d 46 66 ef 3d
       0.08894383 0.12817052 0.056750145 0.11689429
0001a0 7d a2 40 3d f3 2c 60 3d d7 bb bc 3d ab ef 71 3d
       0.04702996 0.054730367 0.09215515 0.059066456
0001b0 bd 7f f8 3c ad 7a 7d bc 53 ee 9b 3d 7d 3d a2 3c
       0.030334348 -0.015471143 0.07613816 0.01980471
0001c0 30 68 27 bc dd db b6 3d e3 17 f5 bb 76 53 50 3d
       -0.010217711 0.08928654 -0.007479654 0.050860845
0001d0 86 47 0f bb ae 33 66 3d ef b9 5a 3d 5e 3c 19 3c
       -0.00218627 0.05620163 0.053399976 0.009352772
0001e0 54 c6 e9 bc 9e 0e bf 3d dc 40 c6 3d 70 47 08 3d
       -0.028536953 0.0932896 0.0968034 0.033271253
0001f0 f7 94 55 3d 28 02 d1 3d e8 4f b4 3d cf 49 3e 3d
       0.052144017 0.102054894 0.088043034 0.046457108
000200 39 3d f4 3a de 02 9f 3c 91 00 44 3d 66 11 87 3d
       0.0018633968 0.019410547 0.047852103 0.06595115
000210 1c 69 4e 3c 26 0e 5c 3d d4 c7 ec bc 01 1e bd bb
       0.012598302 0.05372443 -0.02890388 -0.005771399
000220 a5 d0 3f 3d e6 7b 0c bd d4 41 6a 3c 37 16 88 3c
       0.04682984 -0.034297846 0.014297921 0.016612155
000230 4d 9d d6 bc b3 4f 42 3c 94 b3 4d 3d bb 21 d6 3d
       -0.026198054 0.011859822 0.050220087 0.10455652
000240 44 30 fc 3d 93 0f 2f 3d 3f 9c 3f bd ba d0 ce bd
       0.123138934 0.042739462 -0.046779867 -0.10098405
000250 d3 a0 0c be ee a0 3c be 51 fc 4a bc 7f 76 45 bd
       -0.13733225 -0.18420765 -0.0123892585 -0.04820871
000260 56 b3 a9 3c fc b2 cf bb 10 69 a8 bc 71 a2 16 3c
       0.020715397 -0.0063384753 -0.02055791 0.0091940025
000270 34 92 49 bd 65 ca 41 3c 2d 63 aa 3c 66 a9 22 bb
       -0.049211696 0.01182804 0.020799244 -0.0024820208
000280 c5 98 84 bd 6b 6e 7e bd 5f 8e 05 bd 7d b2 29 be
       -0.06474451 -0.06211702 -0.03260648 -0.16571994
000290 cb b5 65 be 98 dc 79 be 9b a0 91 be 8e 72 9a be
       -0.2243263 -0.24400556 -0.28442845 -0.30165523
0002a0 09 ac 82 be c4 66 b7 be e2 25 91 bc a4 c9 6d 3d
       -0.25521877 -0.3582059 -0.01771826 0.058053628
0002b0 96 22 2b 3d a5 c6 5c 3d 26 56 b1 3d 5a d8 3c 3d
       0.04178103 0.05390038 0.0865901 0.046104766
0002c0 16 05 e3 3d eb 83 ae 3d 50 90 b1 3c 5d ab 85 3d
       0.110849544 0.08521255 0.021675259 0.065268256
0002d0 37 fe 05 3d 44 28 8a 3d 57 6a b7 3c 4b db fb 3d
       0.03271314 0.06745961 0.022389574 0.12297686
0002e0 a2 ab af 3c 59 cd 92 3d f1 09 51 3b 25 aa 1a bc
       0.021444146 0.07168073 0.0031896795 -0.00943998
0002f0 5e bc a8 3d 5b 1c 14 bc 67 de 6f 3d 9d d5 72 3d
       0.08239053 -0.009039964 0.05856171 0.05928575
000300 92 22 1e 3c 48 7b 57 3d 8d b9 c2 3d 59 63 ac 3b
       0.009651797 0.052607805 0.09508047 0.0052608666
000310 89 18 92 3d 37 7d 76 3c 40 55 a3 bb f2 2f 9a bb
       0.07133586 0.015044502 -0.004984528 -0.0047054226
000320 08 f0 ac 3d df 2b 7e 3d 91 74 50 3d b5 0e 04 3d
       0.0844422 0.062053557 0.050892416 0.03224059
000330 07 de 94 3d 3c 70 6b 3d fd cb 7e 3d 5f 1e d3 3c
       0.07268911 0.057480082 0.062206257 0.025771318
000340 8e 36 ae ba 86 83 ba 3c f8 6f 26 3d 11 d6 37 bd
       -0.0013291405 0.022767793 0.040634125 -0.044881884
000350 c2 76 5f bc 9a cf 20 bd c3 64 17 3c 15 ce 12 3d
       -0.013639154 -0.039260484 0.009240332 0.035841066
000360 53 1b dc bc e3 63 1a 3b cf 24 64 bd 04 85 20 bb
       -0.026868498 0.0023558072 -0.055699166 -0.0024493346
000370 1b b9 55 bd d6 1e 69 bc 26 4d cc bd 8e 7c 89 bd
       -0.052178483 -0.014228543 -0.099756524 -0.0671321
000380 3f 5a 8f bc 2f 10 a8 bd 47 54 ab 3b 3d d0 38 bd
       -0.017499087 -0.08206212 0.0052285525 -0.045120467
000390 09 e7 3f bd 14 e1 08 be c5 a0 89 3c e5 af 25 bb
       -0.04685119 -0.1336711 0.016800294 -0.0025281843
0003a0 37 90 c7 3d 59 32 69 3d 5c b3 ba 3d 7e 2d 42 3c
       0.09744304 0.05693278 0.09116241 0.0118516665
0003b0 0d a3 fa 3c 9a ca 1a bb df 45 89 3d 10 8a be 3c
       0.030595327 -0.0023619295 0.0670278 0.023259193
0003c0 02 68 bf 3c 33 28 2f 3b b2 83 22 bd 0d b7 08 3c
       0.023365024 0.0026726841 -0.039676376 0.008344424
0003d0 02 0e 78 3b 09 a7 3e bc bb ca bd bc 9a 8c 40 3d
       0.0037850146 -0.011636504 -0.023167958 0.047009088
0003e0 6c ec 2b bd f9 0e a2 bb 96 5c f7 bd 83 84 e4 bd
       -0.041973516 -0.0049456325 -0.12078206 -0.11158087
0003f0 07 eb b3 bd d1 98 ee bd 80 a2 29 be a4 f8 a8 bd
       -0.08785062 -0.11650241 -0.16565895 -0.082505494

features_extractor.fc_merge.bias f4 [352]
000000 23 30 37 3d be c9 a0 bc 74 36 70 3c c8 4a 90 bc
       0.04472364 -0.019627448 0.01466142 -0.017613783
000010 5b d1 b2 3c 66 b9 ba 3c 60 3c dc bc 05 5e 8f 3c
       0.021828344 0.022793483 -0.026884258 0.017500887
000020 5c ae 99 3c 0c 87 ff 3d 00 09 4b 3e 98 3b d6 3d
       0.018759899 0.1247693 0.19827652 0.10460585
000030 6d 17 3d 3d a8 0c 9f 3c 63 af 03 3d 71 64 ff bc
       0.04616492 0.019415215 0.032149684 -0.031175824
000040 d9 f1 b5 3d fc 55 83 3c d0 2f b5 3a 86 2e e5 bc
       0.088840194 0.016032211 0.0013823453 -0.027976286
000050 e1 24 0d 3d de e5 93 3d d1 35 79 bd ce d3 68 3a
       0.034459 0.07221578 -0.06084234 0.0008881659
000060 0f a4 b0 3a e5 d8 6d 3d 08 eb 83 3d 41 e0 8d 3d
       0.0013476628 0.058068175 0.06441313 0.06927539
000070 f8 1e 96 bd c0 19 d2 ba 90 0a da bb 99 a7 00 3d
       -0.073301256 -0.0016029403 -0.006654091 0.031409834
000080 8f 19 30 3e 36 5f 9e 3c 17 97 5d 3c 06 b5 fa ba
       0.1719725 0.01933251 0.013524792 -0.0019127436
000090 7b 2a 3a 3e 17 fd 95 3d 25 5b 6a bd 4f ac a2 3d
       0.18180268 0.07323664 -0.05721583 0.079430215
0000a0 b9 57 bb 3d 0c d9 30 bd cf c1 b3 3c d0 d5 7c bd
       0.09147591 -0.043175742 0.021943001 -0.061727345
0000b0 77 98 6b 3d ab 4a 71 3c 8b 98 b2 3d 42 ea 0a 3d
       0.05751845 0.014727275 0.087205015 0.033914812
0000c0 bb d4 e3 bc 71 f0 82 3c 32 b4 37 bd d0 9e 04 3e
       -0.027811399 0.015983792 -0.044849582 0.12951207
0000d0 f6 f8 85 3d 88 39 7a 3c 4a c9 ac 3b 8e 02 a1 3e
       0.06541626 0.015272506 0.005273019 0.31447262
0000e0 f2 1a 7c 3b 7b 6d b8 3d 5f c6 fc bb 5d bf aa 3d
       0.003846821 0.09005257 -0.0077140774 0.08337281
0000f0 d9 74 46 3e 08 13 1f bd 1f f9 04 bd 43 9b 26 3d
       0.19380511 -0.03883651 -0.032464143 0.040675413
000100 04 ca a6 bd 7e 20 d9 bc 2c 54 ba 3d 3a 98 96 3d
       -0.08144 -0.026504751 0.09098086 0.07353254
000110 a6 93 7f bd 97 50 99 bb e3 d4 c5 bd 6c a7 db 3d
       -0.062396668 -0.0046787965 -0.096597455 0.107252926
000120 cf 40 61 3c 61 4a ab 3d f9 56 29 bd c7 20 cc 3d
       0.013748362 0.08363796 -0.04134271 0.09967189
000130 7b 58 24 3e 7f 58 41 bd 39 df f0 3c 4f 6e fe 3d
       0.16049378 -0.047203537 0.029403316 0.124233834
000140 1f 1e 88 bd 32 e9 a8 bc 42 8d 38 3c 35 05 b4 3d
       -0.0664637 -0.020619009 0.011264147 0.08790056
000150 b5 5f df 3b 67 0d 36 3c ef 19 1f 3d 00 92 aa 3d
       0.006816829 0.011111594 0.03884309 0.083286285
000160 c3 e1 6f bc ad 57 2a bd 2a 67 3f 3d c0 e1 d4 3d
       -0.014641228 -0.04158752 0.046729244 0.10394621
000170 bb c4 d8 3c a7 25 3b 3d 52 2f 88 3d 73 9c 89 3d
       0.026460996 0.045690205 0.06649651 0.067192934
000180 0d be fa 3b cf 61 b2 3d f0 39 10 bd 9e 45 46 bd
       0.0076520503 0.08710062 -0.035211504 -0.048406236
000190 b2 1b 66 bd 19 35 1a 3e 75 96 50 3d b2 50 b7 bc
       -0.056178756 0.15059318 0.050924737 -0.022377346
0001a0 c7 aa e4 3d 12 7c c7 be 6d da 35 bb 0c a4 d0 3c
       0.11165386 -0.38961846 -0.00277486 0.025468849
0001b0 fc 47 04 3d 5d 5b 65 bb b9 68 80 bd 3b ba 0d 3c
       0.032295212 -0.0034997084 -0.06269974 0.008650358
0001c0 9d 34 2d 3e 79 25 14 bd 94 a4 99 bd 87 43 0f 3d
       0.16914602 -0.03616855 -0.07502094 0.03497651
0001d0 92 3b 9d 3c ab 73 b4 bd 80 45 bd 3c 37 bb 67 bc
       0.019193444 -0.088111244 0.02310443 -0.014143757
0001e0 3e d6 30 3e fd 66 72 3c f6 00 78 bc 87 96 9c 3d
       0.17269227 0.014795062 -0.015136948 0.07645898
0001f0 f3 b4 06 bd 77 1d c5 bb 1a b3 9b be eb c4 dd 3d
       -0.03288741 -0.0060154754 -0.3041008 0.10828575
000200 f1 7b 1e 3e eb 0d 91 b9 34 1e 28 3d 47 f5 88 bd
       0.15476967 -0.00027666925 0.04104443 -0.06687408
000210 13 cf d2 3d 55 b0 5e bd 5c c0 46 3d 80 fd a0 3d
       0.102934025 -0.054367382 0.048523292 0.07860851
000220 87 b6 af 3d aa e9 27 bd 31 42 01 bd 6f 4f 93 3b
       0.08579736 -0.040994324 -0.031557266 0.004495553
000230 86 8c e9 3d 01 93 c8 3d 48 69 31 bd 96 01 af 3d
       0.11403756 0.09793664 -0.043313295 0.08545224
000240 0a b7 8d bd 38 b9 07 3b 83 12 14 3d 88 fe cf bc
       -0.069196776 0.0020709764 0.036150467 -0.025389925
000250 28 e5 c8 3c 06 95 b7 3c 56 6c 30 bd c9 ad 85 3d
       0.024523333 0.022409927 -0.043072067 0.065272875
000260 6e a4 8d 3c b5 b4 05 3e d8 8c 16 3e 7c 8e a6 bc
       0.01729032 0.13057216 0.14702165 -0.020331614
000270 99 df a6 3d b8 f6 2b bd a1 b7 86 3b 3f 4c 42 bc
       0.081481166 -0.041983336 0.0041112457 -0.011858999
000280 29 fe 98 bc 6d 3a a9 bc 73 51 fe 3c 13 af 94 bc
       -0.01867588 -0.020657742 0.031044697 -0.018149888
000290 69 f0 d5 bb d9 c6 12 bc fd 5c 81 3d 85 9a 0b bc
       -0.0065289033 -0.008958542 0.06316564 -0.008520727
0002a0 64 e2 5b 3e 3a 68 31 3e 67 0b 17 bd de 13 b6 3c
       0.2147308 0.17324916 -0.03687611 0.02222627
0002b0 4f 3c df 3d a8 6b 80 3d a4 54 34 3c 13 09 9d 3d
       0.10900175 0.06270534 0.011006508 0.076677464
0002c0 b9 4b 0d 3e c2 fe 21 3d 61 15 18 3e 08 5b 3c 3d
       0.13798417 0.039549597 0.14851905 0.04598525
0002d0 9a b5 72 b7 12 58 44 3c d4 b6 fb 3c 88 8b 7e bd
       -1.4466606e-05 0.011983888 0.030726828 -0.062144786
0002e0 b4 1e f0 3d ad 2a 2d 3e af 86 f3 3d bc 73 6f 3d
       0.11724606 0.16910811 0.11890923 0.058459982
0002f0 38 cd 8d 3c 12 39 8d 3c 8a f5 1f 3d b1 79 28 3e
       0.01730977 0.017239127 0.039052524 0.16452672
000300 61 6e 8c 3d 4a 1a cd 3c 3c 78 90 3d 83 49 c6 3d
       0.068569906 0.02503695 0.07054183 0.0968199
000310 01 b1 10 3e 91 00 20 3e e3 f7 15 bd b8 a2 0a 3c
       0.14130022 0.15625216 -0.036613356 0.008461647
000320 eb 43 b8 bc 99 df 84 3c 46 10 2e 3d 35 85 a3 3d
       -0.022493323 0.0162199 0.04249599 0.079843916
000330 c6 46 21 3d 8f cc 88 bd 95 e9 d5 3d 87 06 4b bb
       0.039374135 -0.066796415 0.10444943 -0.0030979232
000340 3b 13 0f bd f9 a7 af bc 49 3e 38 3e f3 1b b8 3d
       -0.03493045 -0.0214424 0.1799251 0.08989706
000350 60 e9 38 3b 65 27 a1 3d b0 6e d7 3a 77 a2 f6 3b
       0.0028215274 0.07868842 0.0016436186 0.0075266915
000360 f7 c9 7a 3c 36 1a 8e bd b1 c7 21 bd 63 8f d7 3d
       0.015306941 -0.06938593 -0.03949708 0.10525396
000370 70 b1 0b bd 3a 6d 0c bd 18 e5 a9 3d 12 ec 86 3d
       -0.034104764 -0.034283854 0.08295649 0.065879956
000380 2d 97 30 3d 07 3f 15 3e fe 4f c3 3d fc a8 30 bc
       0.043112922 0.14574824 0.09536742 -0.0107824765
000390 22 50 a9 bb 32 01 49 bc 0f 7c 9b bd 8c 13 9a bc
       -0.0051670233 -0.012268351 -0.07592022 -0.018808149
0003a0 01 fe 85 bc 7a 7b 26 bd bf 9c 2a bd ed 41 da 3d
       -0.01635647 -0.0406451 -0.04165339 0.106571056
0003b0 ed 98 1e 3d 3a 43 1d bc 0c 1c 8a 3d 38 12 3d 3d
       0.03872006 -0.009598548 0.06743631 0.046159953
0003c0 41 29 1e bc 52 33 8b 3d f7 e9 15 3d 4b cc 3a 3e
       -0.00965339 0.06796898 0.03660008 0.18241994
0003d0 65 91 b1 bb 79 bb 19 3d 9e 66 e8 3d c2 c7 5b bd
       -0.0054189437 0.037532303 0.11347698 -0.0536573
0003e0 c3 c4 2c bc 88 cc 64 3d b3 2b fd bc ae 40 8d bd
       -0.0105449585 0.05585912 -0.030904626 -0.06897102
0003f0 74 ca 9a 3d 77 df f2 bc 22 70 5d 3e e3 b4 23 3d
       0.07558146 -0.029647572 0.21624807 0.03996743

actor.weight f4 [10, 352]
000000 79 99 00 bd c5 45 6c bc b4 78 9a bd 3b 64 fd 3b
       -0.031396363 -0.014420931 -0.075425535 0.0077328957
000010 df a1 e3 ba 85 aa dc 3d ed b7 85 3b 63 b2 18 bd
       -0.0017366967 0.107747115 0.0040807636 -0.037279498
000020 e8 f2 b8 3c fc 07 a0 3d c9 ca e2 3d 59 5c 43 3d
       0.022576764 0.07814023 0.110738344 0.04769549
000030 6c 33 88 3d 81 42 d5 3c 0f b2 82 ba 71 a3 0d 3d
       0.06650433 0.026032688 -0.0009971278 0.034579698
000040 71 5d d5 3c 22 21 86 bc 7a e2 9e 3c 75 7a b0 3b
       0.026045533 -0.01637322 0.019395102 0.0053856918
000050 6f a2 13 bd 0d da 53 3c 40 13 a4 3c 79 db 8b bc
       -0.03604358 0.012930405 0.02002871 -0.017072426
000060 fe 3e 1d 3d 26 79 be 3d dd 1d 11 3d 65 ea 1b bb
       0.038390152 0.09300451 0.03542887 -0.0023790833
000070 fb 6e be 3c b2 4b d8 3c 37 82 14 3d a1 1d a0 3d
       0.023246279 0.026403282 0.036256995 0.07818151
000080 7d fa 16 bd 01 6b 58 3d c2 aa 19 bd 69 aa 04 bd
       -0.036859978 0.052836422 -0.037516363 -0.03238908
000090 42 f4 90 3d da 86 4d bd 2a 75 ae 3c d0 fd f6 3d
       0.070778385 -0.050177433 0.021296103 0.1206013
0000a0 92 48 b5 3d 82 76 0c 3b af cc 19 3d 87 a3 e4 bc
       0.08851732 0.002143294 0.037548717 -0.027910007
0000b0 16 e0 7a 3b a7 ab 80 bc 39 dd e5 bc 6d 9f 2b bc
       0.0038280538 -0.01570685 -0.028059589 -0.010475022
0000c0 81 d1 a5 3c 6a f4 84 39 bb 08 d8 3b 98 2e 2d 3c
       0.0202415 0.00025359105 0.0065928376 0.010570191
0000d0 bc 02 11 bd 3e ea 75 bd 9b 94 2c bd cd 1c a3 bc
       -0.035403 -0.060037844 -0.04213391 -0.019911194
0000e0 33 f5 42 3c 95 4f f4 b8 27 0b 30 bd de 4f 17 3d
       0.01189928 -0.0001164965 -0.042979386 0.0369414
0000f0 4d 82 e9 bb ea 9b 0e 3a 74 bf 92 3c ca 46 83 bd
       -0.0071261288 0.0005440103 0.017913558 -0.06409986
000100 51 56 c9 bc bf a5 8b bd 74 07 8b 3c 8e d1 7a 3d
       -0.024577292 -0.06818723 0.016971327 0.061235003
000110 75 16 53 bc 1e 54 1e bd 94 cb 06 3d 12 5e bc 3d
       -0.012883772 -0.03865444 0.03290899 0.0919763
000120 ad 8b 3d bd 1b 01 9c bb cf c1 99 bc 86 d9 33 3d
       -0.046275783 -0.004760874 -0.018769173 0.04390862
000130 b7 4d bb 3c 10 13 95 bc 21 01 4b 39 13 73 8e 3d
       0.022864206 -0.018197566 0.00019360009 0.069555424
000140 c0 e3 67 bd db 62 07 bc be 3a 86 3c 62 01 dd 3d
       -0.056613684 -0.008263315 0.016385432 0.107912794
000150 1b 62 b3 bb 0a 99 09 bc d8 98 cf bb 73 88 61 bc
       -0.0054743416 -0.008398304 -0.006335359 -0.013765442
000160 9a 1d c1 bc 68 9c 1f 3d 30 a5 c9 bb a9 3f c7 3d
       -0.023573685 0.03896752 -0.006153725 0.09728939
000170 44 e0 f0 bb e7 7d 8f 3c 05 a2 34 3d 63 01 f3 3d
       -0.0073509533 0.01751609 0.044099826 0.11865499
000180 08 50 59 bd 4a 67 9e 3d b9 8c db 3b f9 8a e3 bc
       -0.05305484 0.077345446 0.006700125 -0.027776228
000190 8e 83 df bc db b3 93 3c 44 a5 bd 3a 72 8b 14 bd
       -0.02728441 0.018030098 0.0014468809 -0.036265798
0001a0 39 01 93 3d 8c e7 ba 3c d5 e1 81 bd 39 62 95 bd
       0.071779676 0.022815488 -0.06341902 -0.07294125
0001b0 46 b8 42 bd 2f a9 b4 3b 25 a2 21 3d bb 54 38 3d
       -0.047539018 0.0055133323 0.039461274 0.04500268
0001c0 73 4c 6f bd e0 f3 a5 bc dd 36 c8 3c 4e 3f 2c 3b
       -0.058422517 -0.02025789 0.024440223 0.002628285
0001d0 43 b4 3f 3d 57 e4 f9 bb c5 88 42 3d f1 32 60 bc
       0.04680277 -0.007626097 0.047493715 -0.01368402
0001e0 d0 99 31 3d 10 12 39 bd bd f1 12 3d 31 d2 6d bd
       0.043359578 -0.04518324 0.03587507 -0.058061782
0001f0 0e 0c 75 3d 0f 23 0c 3c 1f 78 0d 3d 93 df 50 3a
       0.05982595 0.0085532805 0.034538385 0.00079678855
000200 42 0b 01 bd c6 f1 27 3c 47 76 86 3d 83 7d f6 bc
       -0.031504877 0.010250514 0.06565528 -0.030089146
000210 f6 9a ae 3d 4f 9e 9f bc 20 55 04 3e 5f 61 6c 3d
       0.0852565 -0.019484667 0.12923098 0.057710048
000220 77 b3 b2 3c b4 39 e2 bc 48 36 86 bd c6 46 de 3c
       0.021814091 -0.027615406 -0.06553322 0.027133357
000230 33 5e 1a bd 3d 34 83 bd 0a d1 08 bb df 97 03 3d
       -0.03768749 -0.06406448 -0.002087655 0.032127257
000240 9f f8 c8 bc 74 2e 86 3d 01 41 9d 3c 9b 71 70 bd
       -0.024532614 0.06551829 0.019196035 -0.058702093
000250 7f c1 3f 3d ad 82 23 3d eb e3 79 3d 8b d3 c5 3c
       0.04681539 0.039919544 0.061008375 0.024148723
000260 56 5b 5a bd b1 e3 95 3d 86 fe 0d 3d 8f 52 f3 bb
       -0.05330976 0.07318819 0.03466656 -0.0074256132
000270 2f 03 d1 3d 1c e4 50 3b 89 f5 91 bc f0 48 4f 3d
       0.10205685 0.0031874245 -0.017817276 0.050606668
000280 4e 8a 18 bc 12 6e 9f 3b e5 60 a1 bd db 1e 3d bc
       -0.009310318 0.0048654163 -0.07879809 -0.011543001
000290 cc 03 2a bd cf 13 8e 3d 61 ac 9c bc 95 87 24 bc
       -0.041507527 0.06937372 -0.019125165 -0.010042091
0002a0 57 d4 ec ba ed 76 db bc 5e 84 05 bd 9e 8a 70 3c
       -0.0018068653 -0.026790107 -0.03259694 0.014681486
0002b0 ed 25 49 3d db d8 a8 3d e7 bd 85 3c 6f f6 5e 3b
       0.049108434 0.08244487 0.016325904 0.0034021398
0002c0 c4 8b 32 3d d0 c2 c2 3b 5e 62 d1 3d 7d 0b 31 bc
       0.043590322 0.0059436336 0.1022384 -0.010805962
0002d0 de 73 bd bc 4c 9d 2a 3c b2 f2 be bc 57 72 9d bb
       -0.023126539 0.010413479 -0.023309086 -0.00480489
0002e0 3b c6 9a 3c 88 05 fe 3c b4 00 37 3d 3d bd f3 3c
       0.018893352 0.031008497 0.044678405 0.029753322
0002f0 35 6a 40 bd 54 bf c9 3d 77 a0 66 3c e3 54 cc 3d
       -0.046976287 0.09850946 0.014076344 0.09977128
000300 f2 ae 10 bd 92 f2 2c 3d 93 0e b9 bc de e0 5a 3d
       -0.03532309 0.04222352 -0.022589957 0.053437106
000310 e2 17 6d 3b 51 73 f0 3d 54 c0 94 3c de a6 f7 3c
       0.0036177565 0.11740745 0.018158115 0.030230936
000320 0a 97 28 bd 61 17 00 bd ac 08 c0 3b 67 43 00 3d
       -0.041159667 -0.031272296 0.005860409 0.03131428
000330 c7 98 85 3d 7b 1e 08 bd ca 93 c9 bc 03 30 1b bc
       0.065232806 -0.033232193 -0.024606604 -0.009471896
000340 9b e0 86 3c 7f 63 bb bc 86 17 08 bb 76 6d 5f 3d
       0.016464522 -0.022874592 -0.0020765974 0.05454775
000350 a4 39 c9 3c 94 ce a8 3d dd 4f c6 3a 30 62 c5 3b
       0.024563618 0.08242527 0.0015130002 0.0060236678
000360 2a 45 43 bb e2 5f 97 3c d3 68 ea 3c cf 8f 1d 3d
       -0.0029795864 0.018478338 0.028614437 0.038467225
000370 89 95 ac 3c 04 67 94 bd a4 65 6a 3d 4c da 5c 3c
       0.021067398 -0.07246211 0.05722584 0.01347978
000380 96 20 d3 bb 9c ce cf 3c b9 dc d1 3d 8e 77 c2 bc
       -0.0064430935 0.025367074 0.10247178 -0.023738649
000390 56 4e 96 3c 30 9e 73 bc d6 e3 04 3c ce 13 f6 bc
       0.0183479 -0.014869258 0.008110961 -0.03003874
0003a0 7a 06 62 bc 57 11 c4 bc ce f8 dd bb 90 8b a3 3d
       -0.013795489 -0.02393405 -0.0067740446 0.07985604
0003b0 61 00 4a bd 5e 0f 5e 3c 31 b6 1a 3d 91 72 3f bd
       -0.049316768 0.0135534685 0.037771408 -0.04674012
0003c0 a2 2b 21 bc 1a 9d 05 3d 13 da be 3d 3d 36 80 3d
       -0.009837063 0.032620527 0.09318938 0.06260345
0003d0 c7 c8 1f 3d 18 22 09 3d 43 6c 19 3d 36 7c 9a bc
       0.039009836 0.03347978 0.037456762 -0.018858057
0003e0 40 67 11 3d 35 b6 69 bd d9 d7 3a 3d 3d d4 59 bd
       0.035498857 -0.05705853 0.045616005 -0.05318092
0003f0 4b 0c 14 bd fc 76 28 3d 7e 5c 17 3d 68 06 64 3d
       -0.036144536 0.041129097 0.03695344 0.055670172

actor.bias f4 [10]
000000 a2 4a 0c bd 24 12 d7 bc 52 63 d5 bc 4d 6a 8f bd
       -0.034250863 -0.026253767 -0.026048336 -0.07002697
000010 cb d6 bf bd 86 5d 43 3d 5d e6 68 3d 3d da 84 3d
       -0.093671404 0.047696613 0.056860317 0.06486938
000020 3c 75 86 3b ef 61 15 bd
       0.004103331 -0.03647035

critic.weight f4 [1, 352]
000000 53 c0 80 3d b2 c3 4d 3d 78 84 16 3c cc 71 33 3d
       0.06286683 0.050235458 0.009186856 0.043809697
000010 cd a6 03 3d c8 4f 2f bc 3a 6b 16 3c da d0 a1 3c
       0.032141495 -0.010700174 0.009180838 0.019752908
000020 56 40 9e bb 1a c9 ae bc 6d 02 0b bd 4e 79 6b bd
       -0.004829447 -0.021336127 -0.03393786 -0.057488732
000030 a6 7b 8a bc f6 47 9d 3c 35 88 7b 3c c3 af 20 3c
       -0.016904663 0.019199353 0.0153522985 0.00980753
000040 a5 6f 05 bc df b9 2e bd b4 e8 03 3d 5b c8 35 3d
       -0.008144294 -0.04265773 0.032204345 0.044380527
000050 e1 04 92 3a 9b 1a a6 bb 79 31 78 3c c0 96 17 3d
       0.001114037 -0.0050690896 0.015148514 0.037009
000060 72 51 56 3c c4 04 82 bd 9e 10 1f bd 72 68 b2 bd
       0.0130809415 -0.06348565 -0.038834207 -0.087113276
000070 1e 8f 07 3d 9f 58 03 bd 0c ca 8e 3d 3a 99 97 bb
       0.03309547 -0.032066938 0.06972131 -0.0046264203
000080 d8 6e 1c bd 9f 75 95 bb 62 3f f0 3c 08 ab 9e 3c
       -0.038191646 -0.0045611407 0.029327098 0.019368663
000090 d2 63 90 bc 1e 32 73 3b ef f1 f1 3c 5e a9 eb bc
       -0.017625723 0.003710873 0.029534308 -0.028767284
0000a0 39 02 f2 bc 76 10 85 3c 7b e6 06 bd 4d 11 87 3c
       -0.029542075 0.0162432 -0.032934647 0.016487742
0000b0 33 48 a4 bc 77 1b 4b 3d b1 19 0a bc 81 f4 82 3c
       -0.020053959 0.04958674 -0.008428977 0.01598573
0000c0 c8 68 0e 3c e4 b0 d1 3a af b7 eb 3c 0c b6 02 be
       0.008691974 0.0015998152 0.02877411 -0.12764758
0000d0 e6 dc 4f 3d 6a 52 20 3d d1 72 28 3d d9 d5 00 bd
       0.050747775 0.039141096 0.041125122 -0.03145394
0000e0 a7 2a f8 bc 1e 3f c3 bd 6c 28 87 3d c1 9c 47 bd
       -0.030293776 -0.09533523 0.06599507 -0.048733477
0000f0 9a 48 14 bd 4b 0a aa 3c 98 7b c2 3c 4f f7 82 bc
       -0.03620205 0.020756861 0.023740575 -0.015987067
000100 7a ec b0 b7 ba ae 2c 3c fb e8 8e ba 35 b5 1c bd
       -2.1090953e-05 0.010539705 -0.0010903174 -0.03825875
000110 be 30 79 3b 53 e5 a3 3c 76 ab 92 3d 20 9e 1d bd
       0.0038023437 0.020006811 0.0716161 -0.038480878
000120 38 6f 47 3d 1f b3 f7 bc 91 3f d0 3c d2 98 45 bd
       0.04869005 -0.030236779 0.025420936 -0.048241444
000130 96 c0 26 bc d0 4f b7 bb 3e 7c 6a bc 1b e6 ca bc
       -0.010177752 -0.005594231 -0.014311848 -0.024767926
000140 24 a0 42 3d 92 8e 22 39 5c 6d 95 3d 7b 25 9f 3a
       0.047516003 0.00015502636 0.07296249 0.0012141907
000150 6c 87 04 bd b0 a2 18 bb 46 d4 64 bd c7 c0 9e bd
       -0.03235571 -0.0023290329 -0.055866502 -0.07751613
000160 7a 63 97 3c fa 2a 19 3d 91 2f 3f 3c f4 61 d0 ba
       0.018480051 0.0373945 0.011669056 -0.0015898333
000170 78 fb c0 3d ca 58 3f 3d 86 ed ee bc 62 93 9b bc
       0.09422964 0.046715535 -0.029165994 -0.018991176
000180 63 48 07 3d 32 7c f6 bb 2e 16 be 3d 45 0c 86 39
       0.033028018 -0.0075221295 0.09281574 0.00025567613
000190 a0 21 09 3d 86 fd 19 bc 9f 5c b0 3d 06 0f bb ba
       0.033479333 -0.009398824 0.08611416 -0.0014271445
0001a0 c2 6a e4 bc 7a 2f 41 3d b4 1c c9 3c 7b a5 4c 3d
       -0.027882937 0.047164418 0.02454982 0.049962502
0001b0 8b cb c6 3c 02 ed 09 3c 32 f9 30 3d 41 6b 64 3b
       0.024266979 0.0084183235 0.0432064 0.0034853967
0001c0 17 b8 a7 bd c5 d0 2f 3d 07 cc 61 3d 77 97 81 bc
       -0.08189409 0.042923708 0.055126216 -0.015819294
0001d0 a5 3a 3e 3d 9c 2c 79 3c bf 78 db 3c a8 86 d9 3c
       0.046442647 0.01520839 0.026790975 0.026553467
0001e0 c7 9f c9 bd a5 7e a3 3c ca 71 04 3d 54 f8 43 bd
       -0.09844928 0.01995785 0.03233508 -0.047844246
0001f0 24 47 fc 3b fd dc ab 3b 2d be ee 3c a4 34 1b bd
       0.0076989103 0.0052448497 0.029143417 -0.037892
000200 9f de d0 bc 2e 1e f1 3c 4a 72 9d bd 46 c3 b2 bc
       -0.025496779 0.029433336 -0.076878145 -0.02182163
000210 64 71 ba bd a4 40 8d 3d f0 6c 36 bd 58 0b db bb
       -0.09103659 0.06897095 -0.044537485 -0.006684702
000220 01 92 d3 bc 2f be cf 3c 06 59 39 3d 48 98 1a bd
       -0.025826456 0.025359241 0.045250915 -0.037742883
000230 cc 7e 93 bd 0c d5 f3 bc af e3 20 3b f0 73 21 3b
       -0.07201919 -0.029764675 0.0024549772 0.0024635755
000240 84 c6 21 3d 09 a4 21 bc 66 bd 4d bc f9 be 06 3d
       0.03949596 -0.009865769 -0.012557363 0.03289697
000250 b4 f4 82 39 f9 21 7a 3b ac f6 7b ba 11 b7 01 bd
       0.0002497785 0.0038167222 -0.0009611647 -0.031668726
000260 51 b0 62 3c f8 69 f3 bc 98 66 2f bc 8e 7c 02 3d
       0.013835982 -0.029713616 -0.010705613 0.031857066
000270 bd 5a 04 bd 2f 70 31 3d 7f 14 2a 3d b2 16 51 3d
       -0.032313097 0.043319877 0.041523453 0.051047035
000280 c3 45 99 3c 29 63 72 bc 97 66 90 bb 46 bc 2a 3d
       0.018710023 -0.014794149 -0.004406761 0.041683458
000290 19 d5 30 3d 66 41 17 3d 6d ef f9 bd 36 2e e2 3b
       0.043171976 0.036927603 -0.1220387 0.0069024814
0002a0 74 6f fc bc 31 4e 78 bd 03 e1 a3 bc 53 3d c4 3c
       -0.030814864 -0.060621444 -0.020004755 0.023955023
0002b0 fe d5 52 bd f4 2e af 3b e5 25 a9 3b dc 31 f9 bc
       -0.05147361 0.0053461734 0.005161988 -0.030419283
0002c0 16 89 4d bd 16 e6 3a 3d 64 d5 1f bd ab 89 9f bc
       -0.050179563 0.045629583 -0.039021865 -0.019474825
0002d0 0c b9 85 3d 1e ea 92 3d b7 4c 50 3d 1d 8b 91 bb
       0.065294355 0.071735606 0.05085441 -0.0044416324
0002e0 9d 8b f2 bc ee a7 39 bd 02 09 b9 bc 10 51 03 bd
       -0.029607588 -0.045326166 -0.022587303 -0.03205973
0002f0 01 d0 54 bd a6 b0 c6 bb f2 6a b9 bc 6b c3 f4 bc
       -0.05195618 -0.0060635386 -0.022634003 -0.029878339
000300 37 8f d6 bc 31 09 86 3b 2c 61 26 bd 51 33 94 bb
       -0.026191337 0.004090451 -0.040620014 -0.004522719
000310 d6 8b 4e bd f7 e2 56 bc 7c 50 bc 3c 4c fa b4 3d
       -0.050426327 -0.013115636 0.022987597 0.08836803
000320 d0 e9 be 3a ff ae 07 3d 10 0f 44 ba 69 e0 a2 bc
       0.0014565531 0.033125874 -0.0007479051 -0.019882398
000330 60 c1 2d bd 17 c4 83 bb 5c 94 ed bd 89 61 9e 3c
       -0.042420745 -0.0040211785 -0.11600563 0.019333618
000340 ff a5 8e 3c 9d 1a 7d ba b7 9b 1e bd 02 41 12 bd
       0.017413137 -0.000965515 -0.03872272 -0.035706528
000350 66 ae 9f 3c ec c9 15 bd a0 11 f6 39 d1 a6 d4 3b
       0.01949234 -0.03656952 0.00046933908 0.0064896126
000360 32 ef 35 bd 05 ee 71 3c 2a 3c 21 3d bd ac 25 bd
       -0.044417568 0.014766221 0.039364018 -0.04044794
000370 32 a6 01 3d 99 ff c6 bb 7a 5d 22 bc f8 47 05 bd
       0.031652637 -0.00607295 -0.009909982 -0.032539338
000380 0f 9d a0 3d bc 2c 02 bd b2 19 5f ba a9 a7 30 3d
       0.078424565 -0.031780943 -0.0008510604 0.043128643
000390 0b 47 3c 3d a3 18 89 3d b9 fe 93 3d 25 ab 20 3a
       0.04596619 0.06694152 0.07226319 0.0006129018
0003a0 ad 26 1d 3c 26 81 52 3d 3d 41 2a 3d c6 5f 9a bc
       0.009591741 0.051392697 0.041566122 -0.018844496
0003b0 51 f0 25 3d ee 3a 83 3c 69 fe 75 bc 68 1a 4e 3d
       0.040512387 0.01601931 -0.015014269 0.05031815
0003c0 3c 1b 82 bd 27 51 87 bd 0e 39 e0 bc 3a 39 af bc
       -0.06352851 -0.066072755 -0.027370956 -0.021389592
0003d0 1f 9b a0 3a 84 d8 c9 bc c0 89 a2 bc ae 69 2f 3b
       0.0012253261 -0.024639376 -0.019841075 0.002676587
0003e0 31 3c fc 3c 72 1f 3f 3d e8 7e 43 3d 74 cb 1d 3d
       0.03079042 0.046660848 0.04772845 0.038524106
0003f0 f9 e5 1d bd 69 e9 b1 3d ad 6c 07 bc 2f ac b0 bc
       -0.038549397 0.086870976 -0.008265656 -0.021566479
